save_dir/actor_good_against_naive.pt (torch, 138962 bytes, 12 tensors)

base.feature_norm.weight f4 [420]
0	0x3f9fa54f	1.2472323
1	0x3f85148c	1.0396895
2	0x3f3cf50c	0.7381141
3	0x3f564fe7	0.8371567
4	0x3f7d6f4f	0.9899797
5	0x3f356065	0.7085021
6	0x3f4d8618	0.80282736
7	0x3f23ffa0	0.6406193
8	0x3f398ee8	0.7248368
9	0x3f35756d	0.708823
10	0x3f662e2b	0.89914197
11	0x3f6d0f8e	0.9260186
12	0x3f747759	0.9549461
13	0x3f403f96	0.75097024
14	0x3f756389	0.95855004
15	0x3f951871	1.1648084
16	0x3f97bc4b	1.1854337
17	0x3f3d6b63	0.73991984
18	0x3f8624eb	1.0480016
19	0x3f5c4383	0.86040515
20	0x3f33f136	0.70289934
21	0x3f984649	1.1896449
22	0x3f90c58a	1.1310284
23	0x3f80732e	1.003515
24	0x3f57f2d2	0.8435489
25	0x3f657c68	0.89642954
26	0x3f468594	0.77547574
27	0x3f51f0ed	0.8200825
28	0x3f59afe2	0.85034
29	0x3f64ba41	0.893467
30	0x3f96205b	1.1728624
31	0x3f878b2d	1.0589348
32	0x3f93359a	1.1500733
33	0x3f8acaf1	1.0843183
34	0x3f52cf4e	0.8234757
35	0x3f8d63f5	1.104613
36	0x3f44b90f	0.76844877
37	0x3f929c0f	1.1453875
38	0x3f9f1be9	1.2430393
39	0x3f878bfa	1.0589592
40	0x3f62a7df	0.885374
41	0x3ef381a4	0.47559845
42	0x3f679e93	0.9047634
43	0x3f6f71c4	0.9353297
44	0x3f7b5277	0.98172706
45	0x3f5f6f64	0.87279344
46	0x3f917c50	1.1366062
47	0x3f8fdb2f	1.1238765
48	0x3f7daf04	0.9909518
49	0x3f784d0a	0.9699255
50	0x3f380076	0.71875703
51	0x3f38952b	0.7210261
52	0x3f2a35b1	0.66488177
53	0x3f7678ae	0.9627789
54	0x3f663f21	0.8994008
55	0x3f7aeccf	0.9801759
56	0x3f54ac93	0.8307583
57	0x3f50236e	0.8130406
58	0x3f823ff1	1.0175763
59	0x3f75da65	0.9603637
60	0x3f55ae7d	0.83469373
61	0x3f41c45d	0.7569025
62	0x3f7ce1f9	0.98782307
63	0x3f8ed8cf	1.1159915
64	0x3f978c6c	1.1839728
65	0x3f2fc91a	0.6866623
66	0x3f811cd8	1.0086927
67	0x3f3e6595	0.7437375
68	0x3f1c2a0d	0.61001664
69	0x3eea31ad	0.45741025
70	0x3f63bbca	0.8895842
71	0x3f3ae7ec	0.73010135
72	0x3f5cc02e	0.8623074
73	0x3f7a6037	0.9780306
74	0x3f33b705	0.7020114
75	0x3f5bb1ae	0.8581799
76	0x3f3db53d	0.7410467
77	0x3f88309d	1.0639836
78	0x3f909d5d	1.1298023
79	0x3f900a52	1.125315
80	0x3f2848f0	0.65736294
81	0x3f4495f1	0.7679129
82	0x3f2eaa30	0.68228436
83	0x3f39c311	0.7256327
84	0x3f3b11ed	0.7307423
85	0x3f876066	1.0576293
86	0x3f4f78c7	0.81043667
87	0x3f85e49f	1.0460395
88	0x3f503d74	0.8134377
89	0x3f31bf0d	0.69432145
90	0x3f3eba58	0.7450309
91	0x3f345823	0.70446986
92	0x3f2f56d7	0.6849188
93	0x3f453f87	0.7705006
94	0x3f9437c4	1.1579518
95	0x3f3e536d	0.7434605
96	0x3f927a89	1.1443645
97	0x3f5370d2	0.82594025
98	0x3f80d333	1.0064453
99	0x3f9f4eff	1.2445983
100	0x3f5660cb	0.83741444
101	0x3f8adad5	1.0848032
102	0x3f90abd4	1.1302438
103	0x3fa3bd03	1.2792057
104	0x3f8c9684	1.0983434
105	0x3f9b0626	1.2111251
106	0x3f6eb790	0.93248844
107	0x3f89f9fc	1.0779414
108	0x3f3ec5ce	0.74520576
109	0x3f60eb7b	0.87859315
110	0x3f7e796e	0.99404037
111	0x3f0293e6	0.51006925
112	0x3f5150ab	0.81763715
113	0x3ee8598e	0.45380825
114	0x3f891a73	1.0711197
115	0x3f3ced59	0.73799664
116	0x3ed90c98	0.4239242
117	0x3f756528	0.9585748
118	0x3f82ede1	1.0228845
119	0x3f7ae3b4	0.980037
120	0x3f9e4ac0	1.2366562
121	0x3f82bcd4	1.0213876
122	0x3fa038de	1.2517354
123	0x3f5c7cd2	0.8612796
124	0x3ec72aaf	0.38899752
125	0x3f259c0a	0.6469122
126	0x3f6b6817	0.91955703
127	0x3f0d0979	0.5509258
128	0x3f43a479	0.7642284
129	0x3f1c4d67	0.61055607
130	0x3f39a8b4	0.72523046
131	0x3f5867cb	0.84533376
132	0x3f1d1e9e	0.61374843
133	0x3f8c831b	1.097751
134	0x3f90a616	1.1300685
135	0x3f6a8dbf	0.9162254
136	0x3f89847d	1.0743557
137	0x3fc1c00e	1.5136735
138	0x3ee30a8f	0.44343993
139	0x3f237991	0.6385737
140	0x3f543c60	0.82904625
141	0x3f4620ca	0.7739378
142	0x3fa79b9e	1.3094366
143	0x3f53390a	0.8250891
144	0x3f68e229	0.90970093
145	0x3f823e1b	1.0175203
146	0x3f7dbe03	0.9911806
147	0x3f63873b	0.8887822
148	0x3fb05a6b	1.3777593
149	0x3f914c69	1.1351444
150	0x3f5bb6d2	0.85825837
151	0x3f92ea68	1.1477785
152	0x3fc93187	1.571824
153	0x3fb1ae0c	1.388124
154	0x3fa9652b	1.3233999
155	0x3f435528	0.76301813
156	0x3f35b2b2	0.7097579
157	0x3f73c90f	0.95228666
158	0x3fbd79e0	1.4802818
159	0x3faba663	1.3410152
160	0x3fa88e91	1.3168508
161	0x3fb2a977	1.3957967
162	0x3fb87fbf	1.4413985
163	0x3f464a2f	0.77456945
164	0x3f8ff00c	1.1245131
165	0x3f6b47c1	0.9190636
166	0x3f8b8de4	1.0902677
167	0x3f8b51c6	1.088433
168	0x3f7610cb	0.96119374
169	0x3f4f0c38	0.8087802
170	0x3f8ec757	1.1154584
171	0x3f34bb99	0.7059875
172	0x3f4503a7	0.769587
173	0x3f39a74a	0.7252089
174	0x3f310357	0.6914572
175	0x3f4ae8aa	0.7926127
176	0x3f60bfb0	0.8779249
177	0x3f4a85fc	0.79110694
178	0x3f5d8a40	0.8653908
179	0x3f9c0d40	1.2191544
180	0x3f8311ea	1.0239842
181	0x3f9f288e	1.2434251
182	0x3f86e207	1.0537728
183	0x3f682264	0.90677476
184	0x3f911d94	1.1337152
185	0x3f86232f	1.0479487
186	0x3f90aabb	1.1302103
187	0x3f7960a6	0.974131
188	0x3f50a28a	0.81498015
189	0x3f69ba8d	0.9130028
190	0x3fa52e60	1.2904778
191	0x3f57fbfd	0.8436888
192	0x3f4fd72a	0.8118769
193	0x3f855e37	1.0419377
194	0x3f4eb203	0.80740374
195	0x3f83aad0	1.0286503
196	0x3f77c113	0.9677898
197	0x3f48f494	0.78498197
198	0x3f87b718	1.0602751
199	0x3f247428	0.6423974
200	0x3f856014	1.0419946
201	0x3f7f2d83	0.9967882
202	0x3f7339a1	0.9500981
203	0x3f6fcd71	0.93672854
204	0x3f4296c2	0.7601129
205	0x3f498e65	0.787329
206	0x3f70fe99	0.94138485
207	0x3f2fc2df	0.68656725
208	0x3f0dfe42	0.5546609
209	0x3f661932	0.89882195
210	0x3f4140ad	0.7548931
211	0x3f715c8e	0.9428185
212	0x3f5e8462	0.8692075
213	0x3f68e9a0	0.90981483
214	0x3f50f5fa	0.8162533
215	0x3f169760	0.5882473
216	0x3fa93644	1.3219686
217	0x3f688f0e	0.90843284
218	0x3f7e3922	0.9930593
219	0x3f6f6f6d	0.935294
220	0x3f90f614	1.1325097
221	0x3f45390f	0.7704019
222	0x3f62a2fc	0.88529944
223	0x3f3d56c6	0.7396053
224	0x3f850c4c	1.0394378
225	0x3f6258f1	0.88416964
226	0x3f83b6c9	1.0290157
227	0x3f84309c	1.0327334
228	0x3f8111b6	1.008353
229	0x3f9ceb49	1.2259303
230	0x3f9c5dee	1.2216165
231	0x3f86df3d	1.0536877
232	0x3fa142cc	1.259851
233	0x3f6d65c0	0.92733383
234	0x3f898006	1.0742195
235	0x3f8543eb	1.0411352
236	0x3f42727a	0.7595593
237	0x3f81fbab	1.0154928
238	0x3f843ee0	1.0331688
239	0x3fa16055	1.2607523
240	0x3f7c4f51	0.9855853
241	0x3f027587	0.5096058
242	0x3fa1db50	1.2645054
243	0x3fa950fa	1.3227837
244	0x3fc595ab	1.54363
245	0x3fd04950	1.6272373
246	0x3f61e048	0.8823285
247	0x3f4dfbfb	0.80462617
248	0x3f82d38d	1.022081
249	0x3f53d65a	0.8274895
250	0x3f2828b3	0.656871
251	0x3f8e859a	1.1134522
252	0x3f48a30b	0.78373784
253	0x3fb6e9ed	1.4290138
254	0x3f3ee81d	0.74572927
255	0x3f3db82f	0.74109167

base.feature_norm.bias f4 [420]
0	0x3d845efe	0.06463431
1	0x3e026178	0.12732494
2	0xbcffa0bd	-0.031204576
3	0x3d1acc0b	0.037792247
4	0xbd158ef2	-0.036513276
5	0xbe9d05d0	-0.30668497
6	0x3e5eac55	0.21745427
7	0x3e8cad6d	0.27476063
8	0x3e711969	0.2354485
9	0x3e96bbdb	0.29440197
10	0x3e6e4793	0.23269491
11	0x3ebad7ce	0.3649277
12	0x3c8e1012	0.017341647
13	0x3d405fc7	0.04696634
14	0x3b611b12	0.003434841
15	0x3bdaa7fd	0.006672858
16	0x3dcb9f93	0.09942546
17	0xbe8ced2d	-0.275247
18	0x3dccd8c1	0.1000228
19	0xbe4b65c6	-0.19863042
20	0xbe1532cd	-0.1457016
21	0xbd974a59	-0.073872276
22	0xbd8cb252	-0.068699494
23	0xbe486b4f	-0.19572185
24	0xbea71f05	-0.32640854
25	0x3e531dce	0.20616838
26	0x3e35a162	0.17737344
27	0x3e176e45	0.14788158
28	0x3dd7adbd	0.10531185
29	0x3de78210	0.11304104
30	0x3e1a9449	0.15095629
31	0x3e4c19a7	0.1993166
32	0xbd97a5ec	-0.07404694
33	0x3e52d287	0.20588122
34	0xbcb42aeb	-0.021993121
35	0x3da97ae2	0.08275391
36	0x3d94ac1a	0.07259388
37	0xbb272175	-0.002550212
38	0x3e376d7f	0.17912863
39	0xbc5bdc63	-0.0134192435
40	0x3e3d8baa	0.18510309
41	0x3e712879	0.23550595
42	0x3e5c46b8	0.21511352
43	0x3e685262	0.22687677
44	0x3e3c7f0e	0.18407843
45	0x3e18bf5d	0.1491675
46	0x3e296ba1	0.16544963
47	0x3d163202	0.036668785
48	0x3e427818	0.18991125
49	0x3d8e784c	0.069565386
50	0x3e059746	0.13045987
51	0x3e065612	0.1311877
52	0x3de010ee	0.10940729
53	0x3e33306b	0.17498939
54	0x3ddfba47	0.109242015
55	0x3e1cf9f4	0.15329725
56	0x3e50c0cc	0.20386046
57	0x3e5f81e4	0.21826893
58	0x3e6b2583	0.22963528
59	0x3e25e364	0.16200024
60	0x3e5c8099	0.21533431
61	0x3e5f9c00	0.21836853
62	0x3dfddc10	0.12395489
63	0x3e08ab81	0.13346674
64	0x3d47f3ab	0.048816364
65	0x3e01cb9e	0.1267533
66	0x3e2c7e02	0.16844943
67	0x3e621db7	0.22081648
68	0x3e763014	0.24041778
69	0x3de3d863	0.11125257
70	0x3e71be1b	0.23607676
71	0x3e67dad8	0.22642076
72	0x3e326930	0.17422938
73	0x3e5afe18	0.21385992
74	0x3e8a0cdb	0.26962933
75	0x3e766f56	0.24065909
76	0x3eb5ce7f	0.35509107
77	0x3df422da	0.1192071
78	0x3de18885	0.11012367
79	0x3e00787f	0.12545966
80	0x3e88b89d	0.2670335
81	0x3e4f942c	0.20271367
82	0x3e7c699a	0.24649659
83	0x3e8d8036	0.2763688
84	0x3e7f36d5	0.2492326
85	0xbde3d440	-0.11124468
86	0x3e4fd07d	0.20294376
87	0x3db93275	0.09042827
88	0x3e5569b8	0.2084111
89	0x3e8ce26d	0.275165
90	0x3e8b0075	0.27148786
91	0x3e87690e	0.26447338
92	0x3e89013f	0.26758763
93	0x3ca4e7a8	0.020129994
94	0xbd9c17a5	-0.07621697
95	0x3dca5c38	0.098808706
96	0x3d41e0cb	0.04733352
97	0x3d77669c	0.06040059
98	0xbddc616d	-0.1076077
99	0xbd62e24c	-0.055391595
100	0xbe120285	-0.14258774
101	0xbe111901	-0.14169694
102	0xbd90b9f2	-0.07066716
103	0x3d10f979	0.035394166
104	0xbc6b982f	-0.014379545
105	0xbd716730	-0.058936298
106	0xbcc9cd0e	-0.02463391
107	0xbd811104	-0.063020736
108	0x3cd59ba4	0.026075192
109	0xbc81d299	-0.015847491
110	0x3d7bc007	0.06146243
111	0x3e41e57d	0.18935199
112	0xbb8bd79b	-0.0042676455
113	0xbd1dd844	-0.038536325
114	0xbdf1854e	-0.11793004
115	0xbe8952e8	-0.26821065
116	0xbe62b61a	-0.22139779
117	0xbddaedd3	-0.106898926
118	0x3ca4e168	0.020127013
119	0x3ca4fbe1	0.020139636
120	0xbe2903a2	-0.16505292
121	0xba1cab3c	-0.00059764436
122	0xbe21f74f	-0.15816997
123	0x3d3760ca	0.04477004
124	0x3d5b7a24	0.05358328
125	0xbc862b75	-0.016378144
126	0x3e363e66	0.1779724
127	0x3df506a1	0.11964155
128	0xbd9846f6	-0.0743541
129	0xbe074a76	-0.13211998
130	0xbe55e3a8	-0.20887625
131	0xbdf826fe	-0.12116812
132	0xbea15e65	-0.3151733
133	0x3d67aec8	0.05656317
134	0xbdb44408	-0.088020384
135	0xbde64313	-0.11243262
136	0x3dc04cd8	0.09389657
137	0xbe239ae5	-0.15977056
138	0x3e6878eb	0.22702377
139	0x3e2b5bb4	0.167342
140	0x3dbd834c	0.092535585
141	0x3cce3a3c	0.025174253
142	0x3dc9a6da	0.098462775
143	0xbe9bd39e	-0.3043489
144	0xbe29bfa9	-0.16577019
145	0xbe35d1e1	-0.17755844
146	0xbdf3bdf7	-0.11901467
147	0xbdb30b27	-0.087423615
148	0xbd91357b	-0.07090279
149	0xbdb6d244	-0.08926824
150	0xbda1f37e	-0.079077706
151	0xbd7ab75a	-0.061210014
152	0xbd4993de	-0.049213283
153	0x3c8315c6	0.016001593
154	0x3dda9f45	0.106749095
155	0x3d2822b4	0.04104872
156	0x3e4fad70	0.20281005
157	0x3d93f740	0.072248936
158	0xbd3f3050	-0.046676934
159	0xbd705ed7	-0.058684196
160	0xbcb5ccd4	-0.022192396
161	0xbd0814b9	-0.033222888
162	0xbc31e10a	-0.010856876
163	0xbe1c9a34	-0.15293199
164	0xbbf549ee	-0.0074856197
165	0xbd216cee	-0.039410524
166	0xbde4e9c8	-0.11177403
167	0x39f15a1f	0.00046034247
168	0x3cccc118	0.024994418
169	0x3e6876b9	0.22701539
170	0x3c998751	0.018741282
171	0x3e941275	0.28920332
172	0x3e75bf0f	0.23998664
173	0x3e985306	0.29750842
174	0x3e7c5a3a	0.24643794
175	0x3e7a0f49	0.24419893
176	0x3e11ffb3	0.14257698
177	0xbb24d114	-0.0025149034
178	0x3e2e51f2	0.17023447
179	0x3e157ff1	0.14599587
180	0x3d6ce1d6	0.05783256
181	0x3c1cc914	0.009569425
182	0x3c8f947f	0.017526863
183	0xbdad44e2	-0.08460404
184	0xbcd3201b	-0.025772145
185	0xbe016bb9	-0.12638749
186	0x3c3f9b44	0.011694733
187	0xbd55294e	-0.052041344
188	0xbd3b500f	-0.045730647
189	0x3d5a6501	0.05331898
190	0xbbf19afd	-0.0073732124
191	0x3e4a3dd2	0.19750145
192	0x3dec7486	0.115456626
193	0x3dbaf1d9	0.0912816
194	0x3df8749b	0.12131616
195	0x3d8ede0f	0.06975948
196	0x3d4a0520	0.049321294
197	0x3ddc7ca0	0.10765958
198	0xbbb67db5	-0.0055691847
199	0x3d843c74	0.06456843
200	0xbd747891	-0.059685294
201	0x3da693e4	0.08133677
202	0x3e12b674	0.14327413
203	0x3dba4744	0.09095624
204	0x3e10e215	0.14148743
205	0x3e2443ef	0.1604154
206	0x3e3c6f6c	0.18401879
207	0x3e818b2d	0.25301495
208	0x3e20a81d	0.1568913
209	0x3e083bf9	0.13304128
210	0x3e1ea1e4	0.15491444
211	0x3e33acf1	0.1754644
212	0x3e3e7fe8	0.1860348
213	0x3e6764e3	0.22597079
214	0x3d02d12e	0.03193777
215	0x3e07154d	0.1319172
216	0x3d9ede8e	0.07757293
217	0x3e4a30f5	0.19745238
218	0x3e166c77	0.14689814
219	0x3e1b5ec0	0.15172863
220	0x3dd4dea0	0.10394025
221	0x3e829d1a	0.25510484
222	0x3e3ae7d9	0.18252505
223	0x3ebc1d41	0.3674107
224	0x3e5eab1d	0.21744962
225	0x3e8ccdfa	0.27500898
226	0x3e2dc45a	0.16969433
227	0x3dafc390	0.085822225
228	0x3e2a74cd	0.16646118
229	0x3d4456da	0.04793439
230	0xbb0544a0	-0.0020335093
231	0x3dbe7924	0.093004495
232	0x3d8c1c60	0.068413496
233	0x3e153371	0.14570405
234	0x3de53264	0.11191252
235	0x3e01569a	0.12630692
236	0x3e908e26	0.2823345
237	0x3e6692ae	0.22516891
238	0x3dfafce6	0.12255268
239	0x3e087ec0	0.13329601
240	0x3e8161a0	0.25269794
241	0x3e883208	0.2660067
242	0x3db1fc8f	0.0869075
243	0x3d3b9f0a	0.04580597
244	0x3d63a799	0.055579755
245	0x3d46b8c5	0.048516054
246	0x3e4972f7	0.19672762
247	0x3e0e31c8	0.13886178
248	0x3e2e28b8	0.1700772
249	0x3dc4f737	0.09617465
250	0x3e2aff74	0.1669901
251	0x3dcd0988	0.100115836
252	0x3e6eeb7b	0.23332016
253	0x3d87cd9a	0.06631012
254	0x3e8e9bec	0.27853334
255	0x3e8ec976	0.27888077

base.mlp.fc1.0.weight f4 [64, 420]
0	0xbea49ff1	-0.32153276
1	0x3eae4928	0.3404019
2	0xbd8c9468	-0.06864244
3	0x3e1440f3	0.14477901
4	0x3e7522ff	0.23939131
5	0x3ca135c1	0.019678952
6	0xbd83b522	-0.06431033
7	0xbd556b94	-0.052104548
8	0xbdcf6f22	-0.10128619
9	0xbe00cbfa	-0.12577811
10	0xbdc4580a	-0.095871046
11	0x3d90c78c	0.070693105
12	0x3de2e5c0	0.110789776
13	0xbe9fe784	-0.3123132
14	0xbbfa825c	-0.0076449346
15	0x3d51ce8c	0.05122237
16	0xbb86a246	-0.0041087
17	0x3e011d9a	0.12608948
18	0xbecedbad	-0.40401974
19	0xbd3f133a	-0.046649195
20	0x3e63b815	0.2223819
21	0x3eff533d	0.49868193
22	0x3e8e9bf7	0.27853367
23	0xbd20cb5d	-0.039256442
24	0x3bd2ed0d	0.00643695
25	0xbdba65fa	-0.09101482
26	0x3e17472c	0.14773244
27	0x3ecc82ad	0.39943448
28	0x3e5c7a88	0.21531117
29	0xbf136b5b	-0.57585686
30	0x3db7ee23	0.08980968
31	0x3de8deeb	0.11370643
32	0x3db58930	0.08864057
33	0x3dac9a56	0.08427875
34	0xbe80f0d2	-0.2518373
35	0x3e1fdd8f	0.15611862
36	0xbe341dd0	-0.17589498
37	0x3e42d923	0.19028144
38	0xbe7e109c	-0.24811023
39	0xbcf2de0a	-0.029646892
40	0xbe2853f3	-0.16438274
41	0x3e303725	0.17208536
42	0xbca0f101	-0.01964617
43	0xbe315716	-0.17318377
44	0xbe02001b	-0.12695353
45	0xbdaf6e5b	-0.085659705
46	0xbd912a84	-0.07088187
47	0xbecd2950	-0.4007058
48	0xbe066871	-0.13125779
49	0xbda5e61b	-0.0810053
50	0xbe3ae7a4	-0.18252426
51	0xbdf48b5a	-0.11940642
52	0xbd989cbd	-0.074517705
53	0x3e0e5cd2	0.13902596
54	0x3db40190	0.087893605
55	0xbeb19568	-0.346843
56	0xbe000615	-0.1250232
57	0x3eac6474	0.3367039
58	0xbe83c799	-0.25738218
59	0x3cca8b31	0.024724575
60	0xbe594f56	-0.2122167
61	0xbe42d38e	-0.19026014
62	0x3dfaf082	0.122529045
63	0xbe56933c	-0.20954603
64	0xbe5163c3	-0.20448212
65	0xbc1b7a05	-0.009489541
66	0xbdc995a8	-0.09842998
67	0x3bd9cb78	0.00664657
68	0xbd3878d0	-0.04503709
69	0xbb806be7	-0.003919113
70	0xbe1ebc30	-0.15501475
71	0xbe524b43	-0.20536523
72	0xbe51529b	-0.20441668
73	0xbe0ef9ab	-0.13962428
74	0xbe19db3b	-0.15025036
75	0xbe882b81	-0.2659569
76	0xbdd2b3c4	-0.10288194
77	0xbe81e509	-0.25370052
78	0xbe5ba12b	-0.214482
79	0xbe467855	-0.1938184
80	0xbdbc9840	-0.09208727
81	0x3c444c2c	0.011981051
82	0xbcae6d1d	-0.021292264
83	0xbda0c0e6	-0.078492925
84	0x3da211c8	0.07913548
85	0x3e6da57a	0.23207656
86	0xbc47e74f	-0.012201144
87	0xbd973d57	-0.073847465
88	0xbccfa49d	-0.025347048
89	0xbe7fb7eb	-0.24972503
90	0xbda7a095	-0.081849255
91	0xbcc9790f	-0.024593858
92	0x3dfa4a8a	0.122212484
93	0x3ce51d8c	0.02796819
94	0x3cac4a09	0.021031396
95	0x3dd647cf	0.10462915
96	0x3e398915	0.18118699
97	0x3e375c70	0.17906356
98	0x3e8d0dbb	0.27549538
99	0x3e677cf7	0.22606264
100	0x3e2d86ea	0.16945997
101	0x3e22765b	0.15865462
102	0x3eafad84	0.3431207
103	0x3e303ab7	0.17209898
104	0x3c88a001	0.016677858
105	0x3ec252f6	0.3795392
106	0x3c693f9e	0.014236359
107	0x3d5a338d	0.05327182
108	0x3d151736	0.03639909
109	0x3d45ea86	0.048319362
110	0x3d2158fa	0.039391495
111	0x3cedaecf	0.02901402
112	0x3d09ebc0	0.033672094
113	0x3dfb2479	0.12262816
114	0x3e5256e2	0.20540956
115	0xbcbb9144	-0.022896416
116	0x3da0a4b2	0.07843913
117	0x3cbcc78f	0.023044376
118	0xbe7dc576	-0.24782357
119	0x3d038739	0.03211138
120	0x3c586231	0.013207004
121	0xbda1eef2	-0.07906903
122	0xbe823b8a	-0.2543605
123	0x3d9e3df4	0.0772666
124	0x3c985161	0.018593492
125	0xbd386bb1	-0.045024578
126	0xbe026884	-0.12735182
127	0xbdd60ebf	-0.10452031
128	0x3d0708ea	0.032967485
129	0x3e20cfdc	0.15704292
130	0xbdfcc7a1	-0.12342764
131	0x3e006ec4	0.12542254
132	0x3e0181a3	0.12647109
133	0xbe411c8a	-0.18858543
134	0xbe9c9c24	-0.30587876
135	0x3e519e9e	0.20470664
136	0x3d244a9d	0.04011022
137	0xbee85772	-0.45379215
138	0x3d78f44c	0.060779855
139	0x3dd29b03	0.102834724
140	0xbdccbbf3	-0.09996786
141	0x3d892ca2	0.06697966
142	0xbe815bce	-0.25265354
143	0xbdc1ae68	-0.094570935
144	0x3d1ba98c	0.03800349
145	0xbd98dbbe	-0.074637875
146	0xbd298082	-0.04138232
147	0xbe263ae5	-0.16233404
148	0xbe720feb	-0.23638885
149	0xbe43ac6f	-0.19108747
150	0xbdd7f01d	-0.10543845
151	0xbe700a7b	-0.23441498
152	0xbeb43272	-0.35194737
153	0xbf158227	-0.5840172
154	0xbeef2d06	-0.46714038
155	0xbd508367	-0.050906565
156	0x3c6ac6b2	0.014329599
157	0xbe4e743e	-0.2016153
158	0xbf0260b6	-0.5092882
159	0xbe972408	-0.29519677
160	0xbeb7738a	-0.35830337
161	0xbed4fe4b	-0.4160026
162	0xbeefb10b	-0.4681476
163	0xbddb964e	-0.10722028
164	0x3e902b70	0.2815814
165	0x3e2418ae	0.1602504
166	0x3e56404b	0.20922963
167	0x3e4148f9	0.18875493
168	0xbcedf77d	-0.029048676
169	0xbd37a00a	-0.04483036
170	0x3e023bb8	0.12718093
171	0x3d3bf43c	0.045887217
172	0x3d217f6a	0.039428152
173	0xbe38821c	-0.18018383
174	0xbd4d1bc9	-0.050075326
175	0xbdc12735	-0.09431306
176	0xbddc510f	-0.10757648
177	0xbd3ef5ad	-0.046621013
178	0xbc9ef669	-0.019404607
179	0x3e930cd8	0.28720737
180	0x3e21d485	0.15803726
181	0x3e7dbe35	0.2477959
182	0x3eaea9f9	0.34114054
183	0xbe024186	-0.12720308
184	0x3d6ad11e	0.057328336
185	0x3d56ed17	0.0524722
186	0x3e8f40b1	0.27979043
187	0x3ddf655c	0.10908005
188	0x3df9eddd	0.12203572
189	0x3e1510b5	0.14557154
190	0x3ea08fc9	0.313597
191	0xbe861723	-0.26189527
192	0xbe33480a	-0.1750795
193	0xbe22d6c3	-0.15902238
194	0xbcb1ce82	-0.021704916
195	0xbe3734f6	-0.17891297
196	0xbe03c6b0	-0.12868762
197	0xbbec8e07	-0.0072190794
198	0xbee07caf	-0.43845126
199	0xbdbf3233	-0.093357466
200	0xbe280a59	-0.16410197
201	0xbd4ff7c6	-0.050773405
202	0xbe0aaecd	-0.13543244
203	0xbda2c50e	-0.079477414
204	0x3cef398d	0.029202247
205	0x3d5a10c2	0.053238638
206	0x3e9aedc2	0.3025952
207	0xbd3458f0	-0.04403013
208	0xbe01db74	-0.12681371
209	0xbd393e77	-0.045225587
210	0x3c034dc7	0.008014149
211	0xbeecb669	-0.46232918
212	0x3cd65ec9	0.026168244
213	0x3d45f77a	0.048331715
214	0x3e44d0d3	0.19220285
215	0x3e6e99ba	0.2330083
216	0xbf166801	-0.5875245
217	0xbcc08e12	-0.023505244
218	0xbe82be60	-0.2553587
219	0xbe80567b	-0.2506598
220	0x3c88842d	0.016664589
221	0xbdc5c538	-0.09656757
222	0xbe65847b	-0.22413819
223	0xbe1c983f	-0.15292452
224	0xbedaeeae	-0.42760223
225	0xbdeea023	-0.116516374
226	0xbe960991	-0.29304174
227	0xbe6c2a73	-0.23063068
228	0xbe05c230	-0.13062358
229	0xbe8d1d4c	-0.27561414
230	0xbe90de94	-0.28294814
231	0xbec4466c	-0.38334978
232	0xbecd6c81	-0.40121844
233	0xbee9ab16	-0.4563834
234	0xbeae8fe4	-0.34094155
235	0xbea07aee	-0.31343788
236	0x3c18659e	0.009301571
237	0xbe93f406	-0.28897113
238	0xbeadd402	-0.33950812
239	0xbeb706ce	-0.3574738
240	0xbedbce95	-0.42931047
241	0xbc259a1c	-0.010107543
242	0xbee99427	-0.45620844
243	0xbee8e275	-0.45485273
244	0xbf37c44a	-0.7178389
245	0xbf351822	-0.7073995
246	0x3db6ecbd	0.08931873
247	0xbd81fa14	-0.06346527
248	0x3dd0c091	0.10192979
249	0xbdfea784	-0.12434295
250	0xbd5b52c7	-0.05354574
251	0xbdafb849	-0.085800715
252	0x3db92141	0.09039546
253	0x3eda8cf6	0.4268567
254	0x3d3cc847	0.046089437
255	0xbbbdbee0	-0.0057905763

base.mlp.fc1.0.bias f4 [64]
0	0x3cf3317e	0.029686686
1	0x3d468a65	0.048471827
2	0xbd4d1ecf	-0.05007821
3	0x3df317d1	0.11869777
4	0xbd23bf05	-0.039977092
5	0x3d5b5f21	0.05355752
6	0x3d25e92e	0.04050558
7	0xbcb8c46b	-0.022554597
8	0x3cf0f3a7	0.029413057
9	0xbe887f90	-0.26659822
10	0xbd4df041	-0.050277952
11	0x3d30a7b4	0.043128684
12	0x3e11a901	0.14224626
13	0x3e2e7a6f	0.17038892
14	0x3dc27b8e	0.094962224
15	0x3e24ef23	0.16106848
16	0xbba633c6	-0.00507209
17	0x3e2fd3f6	0.171707
18	0x3e60aa38	0.21939933
19	0xbcd833b3	-0.02639184
20	0xbd482c89	-0.048870597
21	0x3d5d6d4f	0.054059323
22	0x3cda730a	0.026666183
23	0x3d96bba1	0.07360006
24	0xbcbd545b	-0.023111513
25	0x3d14783b	0.036247473
26	0x3ec0d888	0.376652
27	0x3d25582e	0.040367298
28	0x3d164d7f	0.036695
29	0xbdd08e7b	-0.10183426
30	0xbda755a1	-0.08170629
31	0x3c00d564	0.007863376
32	0x3dd1de45	0.10247473
33	0x3cfdb604	0.03097058
34	0xbd5c78e9	-0.053826246
35	0xbd20bae2	-0.039240725
36	0x3e135c49	0.14390673
37	0xbca61145	-0.020271907
38	0x3d27a4e4	0.040928736
39	0xbe594522	-0.21217778
40	0xbd8f4897	-0.06996267
41	0x3d973f52	0.07385124
42	0x3d39e040	0.045379877
43	0xbd04c638	-0.0324156
44	0xbd777503	-0.060414325
45	0x3db6749e	0.08908962
46	0x3de375c2	0.11106445
47	0x3d2d751b	0.04234801
48	0x3e06c715	0.13161881
49	0x3d9f594d	0.07780705
50	0xbd4b4afe	-0.049632065
51	0xbd8e4e39	-0.069485135
52	0xbbeb8bd4	-0.0071882997
53	0xbbb45664	-0.0055034626
54	0x3e6bbb0b	0.2302057
55	0xbd73ca52	-0.05951912
56	0x3c923fa7	0.017852617
57	0x3d96aa2b	0.07356676
58	0xbe400b9c	-0.18754429
59	0x3de270b9	0.110566564
60	0x3dc87fd7	0.097900085
61	0x3d788c49	0.06068066
62	0x3e05a862	0.13052514
63	0xbded4d79	-0.11587042

base.mlp.fc1.2.weight f4 [64]
0	0x3f9e74e9	1.2379428
1	0x3f47f101	0.7810212
2	0x3f67dcd1	0.90571314
3	0x3f6ed538	0.93294096
4	0x3f8f3046	1.1186607
5	0x3f8b9b19	1.0906707
6	0x3f483b73	0.7821571
7	0x3f8fc53d	1.1232067
8	0x3f82875d	1.019756
9	0x3f7e3576	0.99300325
10	0x3fa6a9d5	1.3020579
11	0x3f469d58	0.7758384
12	0x3fa7ffab	1.3124899
13	0x3f6eb47d	0.93244153
14	0x3f4988b4	0.7872422
15	0x3f94ae46	1.1615684
16	0x3f8b2e17	1.087344
17	0x3f7bd086	0.98365057
18	0x3f93eafd	1.1556088
19	0x3fa8ffd4	1.3203073
20	0x3f61876f	0.8809728
21	0x3f508293	0.8144924
22	0x3f58f5e3	0.84750193
23	0x3f86d2ad	1.0533043
24	0x3f687778	0.90807295
25	0x3f42cd0c	0.76094127
26	0x3fa79928	1.3093615
27	0x3f5983c3	0.8496668
28	0x3f5d0148	0.8633008
29	0x3f7f963c	0.99838614
30	0x3f5c6d09	0.86103874
31	0x3f831548	1.024087
32	0x3f8e1cca	1.1102536
33	0x3f982eab	1.1889242
34	0x3f841926	1.0320175
35	0x3fb2fbb5	1.3983065
36	0x3f9f9aae	1.246908
37	0x3f996fc6	1.1987236
38	0x3f5f391a	0.87196505
39	0x3f784fda	0.96996844
40	0x3f6e5d0d	0.93110734
41	0x3f8fd41d	1.1236607
42	0x3f6f9292	0.93583024
43	0x3f89b2f9	1.0757743
44	0x3f7ca4f5	0.98689204
45	0x3f8683b3	1.0508941
46	0x3f71212f	0.9419126
47	0x3f867eed	1.0507485
48	0x3f8c00d6	1.0937755
49	0x3fa7dd84	1.3114476
50	0x3f6428fc	0.8912504
51	0x3f853ac1	1.0408555
52	0x3f899590	1.0748768
53	0x3f2a50b8	0.6652942
54	0x3f760515	0.96101505
55	0x3f434e4d	0.7629135
56	0x3f87d206	1.0610969
57	0x3f8af010	1.0854511
58	0x3f354c43	0.7081949
59	0x3f7bfc62	0.9843198
60	0x3f99ac9f	1.2005805
61	0x3f7327db	0.9498269
62	0x3fa99691	1.3249074
63	0x3f83a489	1.0284587

base.mlp.fc1.2.bias f4 [64]
0	0xbcb994b2	-0.022653911
1	0x3e32ac3e	0.17448518
2	0x3e21dfec	0.15808076
3	0x3e5404d8	0.20704973
4	0xbcf4f62d	-0.029902542
5	0xbd0293d1	-0.03187925
6	0x3d723a81	0.059137825
7	0xbe2625b3	-0.16225319
8	0x3db1301d	0.08651755
9	0xba91c9ac	-0.0011122725
10	0x3c63697e	0.013880132
11	0x3da079ad	0.07835708
12	0xbe1f416e	-0.15552303
13	0xbca5dac2	-0.020245913
14	0x3e1d8fa7	0.1538683
15	0x3c7269a0	0.014795691
16	0x3ccc8999	0.024967955
17	0x3d8765e7	0.06611233
18	0x3cf41343	0.029794341
19	0x3d6c6f1c	0.05772315
20	0xbcdbb603	-0.026820188
21	0xbd539f91	-0.051665846
22	0x3e4e3ceb	0.20140426
23	0x3d6fad2b	0.058514755
24	0x3d9097d2	0.070602074
25	0x3e2994a0	0.16560602
26	0xbc682a2f	-0.014170214
27	0x3eb8a4e4	0.36063302
28	0x3d6dd266	0.05806198
29	0xbd072859	-0.032997463
30	0x3d8bfbc2	0.06835128
31	0xbda4b0e4	-0.08041552
32	0x3d9b1054	0.07571474
33	0x3d4f4b44	0.05060889
34	0x3d8cf086	0.06881814
35	0xbd1cee42	-0.038313158
36	0xbd15e3f8	-0.03659436
37	0xbd855db5	-0.06512014
38	0x3db4f78e	0.0883628
39	0xbd2ec847	-0.042671468
40	0xbbe795b4	-0.0070674066
41	0x3c42a293	0.011879581
42	0x3ea4c44c	0.32181013
43	0x3da3466f	0.079724185
44	0x3d0edba5	0.034877438
45	0xbd5353e7	-0.051593687
46	0x3dcf00dc	0.10107586
47	0x3d025652	0.031820603
48	0x3cb8ffce	0.022582915
49	0x3cd42f02	0.025901321
50	0xbb044f45	-0.002018885
51	0xbc8658df	-0.016399799
52	0x3dea0b52	0.114279404
53	0x3e7a549e	0.24446341
54	0x3dfd9ff0	0.12384021
55	0xbd55d981	-0.05220938
56	0xbd56a7e4	-0.052406207
57	0xbbde19f9	-0.0067779985
58	0x3e62aaad	0.2213542
59	0x3d822b5b	0.06355926
60	0xbcc55270	-0.02408716
61	0x3def6469	0.116890736
62	0xbce314f4	-0.027719952
63	0x3bba2b38	0.0056814216

base.mlp.fc2.0.0.weight f4 [64, 64]
0	0xbee347bd	-0.4439067
1	0xbf483638	-0.7820773
2	0xbe631c2d	-0.22178717
3	0x3eec9cf0	0.46213484
4	0xbdb7a28c	-0.0896655
5	0x3f074771	0.52843386
6	0xbf0bc438	-0.5459628
7	0xbca98027	-0.02069099
8	0xbdf11b68	-0.117728055
9	0xbeeae1a6	-0.4587528
10	0xbe1e20a0	-0.15442133
11	0x3ea8c44f	0.32962272
12	0x3f61d7de	0.8822001
13	0x3d16a7c0	0.036781073
14	0xbf01c6b1	-0.50693804
15	0xbe1cfbef	-0.1533048
16	0xbedaf5e8	-0.42765737
17	0x3e80f8fe	0.25189966
18	0xbf0472bb	-0.51737565
19	0xbe53a05f	-0.20666645
20	0x3db42f53	0.08798089
21	0x3dc14d17	0.09438532
22	0xbe8e99bf	-0.27851674
23	0xbda5955a	-0.08085127
24	0xbdf6703d	-0.120331265
25	0x3ecca3a4	0.39968598
26	0x3d525506	0.051350616
27	0xbf1f4e2a	-0.62228644
28	0xbf05e339	-0.5229984
29	0xbe78c011	-0.24292018
30	0x3eaaaeba	0.3333643
31	0xbe444960	-0.19168615
32	0xbdd58652	-0.1042601
33	0xbdc746f3	-0.09730329
34	0x3eb0befa	0.34520704
35	0x3e894f5a	0.26818353
36	0x3e8017bb	0.25018105
37	0x3c0a1858	0.008428656
38	0xbd52d95a	-0.051476814
39	0x3f131256	0.57449853
40	0x3e2c5282	0.16828349
41	0x3d887b28	0.06664115
42	0x3e1773ae	0.14790222
43	0x3e95c6a8	0.29253125
44	0x3f5489d7	0.83022827
45	0x3e4132fd	0.18867107
46	0xbe944bc1	-0.28964046
47	0x3e3a8835	0.18216021
48	0x3f464d42	0.77461636
49	0xbc8844e9	-0.016634421
50	0x3e335615	0.17513306
51	0x3d9f95b3	0.07792225
52	0xbd604074	-0.054748967
53	0x3de1751d	0.11008666
54	0x3cb93cdf	0.022612033
55	0xbc37b6f0	-0.011213049
56	0xbd79ef63	-0.061019313
57	0x3ea48839	0.3213518
58	0xbf160dd3	-0.58614844
59	0xbe1cfc00	-0.15330505
60	0xbea222bb	-0.31667122
61	0x3e685c32	0.2269142
62	0xbeb4e7c1	-0.35333064
63	0x3f0bfa27	0.5467858
64	0x3ebc2c1f	0.36752412
65	0xbe7aaa71	-0.2447908
66	0xbe5688fb	-0.20950691
67	0x3e6c477f	0.23074149
68	0xbe5da4e5	-0.21644934
69	0xbda8d9ee	-0.08244692
70	0x3e027b01	0.12742235
71	0xbc3d1206	-0.011539942
72	0x3e47e1de	0.19519755
73	0x3c7cffcf	0.015441849
74	0xbe10e596	-0.1415008
75	0x3e0e0d79	0.13872327
76	0xbdb6c0c3	-0.08923485
77	0xbe334e71	-0.17510392
78	0xbe5ab92f	-0.21359704
79	0x3cf6b816	0.030117076
80	0x3e432cce	0.1906006
81	0x3dee0693	0.11622348
82	0x3e5c290f	0.21500038
83	0x3e98b30a	0.29824096
84	0xbe7ed315	-0.24885209
85	0xbdddb29e	-0.10825084
86	0x3e57fc49	0.21092333
87	0x3eb1e456	0.3474452
88	0xbee8902c	-0.45422494
89	0x3dabe477	0.083931856
90	0xbf48ac58	-0.78387976
91	0xbe0c5a6a	-0.13706365
92	0xbe5f03d9	-0.21778812
93	0x3da34edc	0.079740256
94	0xbc899b74	-0.016797759
95	0x3e8f5b10	0.27999163
96	0xbc182132	-0.009285258
97	0xbdc56f76	-0.096404
98	0x3d08f73e	0.033438914
99	0xbeea7e3f	-0.45799443
100	0xbedadedd	-0.42748156
101	0x3f06aa45	0.5260356
102	0xbeb0d9b4	-0.34541094
103	0x3eb8fe04	0.361313
104	0xbc64f608	-0.013974674
105	0x3d9e41cc	0.077273935
106	0x3effdf3f	0.4997501
107	0xbf435251	-0.7629748
108	0x3e0d6638	0.13808525
109	0xbf114c84	-0.5675738
110	0x3e763f4b	0.24047582
111	0xbe47095e	-0.19437167
112	0x3e58f43f	0.21186922
113	0xbecc0099	-0.39844206
114	0xbe0ca157	-0.13733421
115	0xbd47d36d	-0.048785616
116	0xbe4bba13	-0.198952
117	0xbdceb63e	-0.10093354
118	0x3d5be01b	0.05368052
119	0x3e66c361	0.22535469
120	0x3e9003d3	0.28127918
121	0x3e0323e0	0.12806654
122	0x3e2ab9d9	0.16672458
123	0x3e134e1f	0.1438527
124	0xbe0758e8	-0.13217509
125	0xbf0a102a	-0.53930914
126	0x3e3151c9	0.17316355
127	0x3e355abc	0.17710394
128	0x3e00dadb	0.12583487
129	0xbdd04444	-0.10169271
130	0x3defb8f3	0.11705198
131	0x3efad67d	0.48991767
132	0x3e07189c	0.13192981
133	0x3d251684	0.040304676
134	0x3e849547	0.2589514
135	0xbc079727	-0.008275784
136	0x3e41f717	0.18941914
137	0x3ecf5edd	0.40502062
138	0xbd14ec0e	-0.03635793
139	0x3c755025	0.014972721
140	0x3c634429	0.013871231
141	0xbcd6f33e	-0.026239034
142	0xbed19ce2	-0.40940005
143	0xbe8fb58c	-0.28068197
144	0x3eb65d1c	0.35617912
145	0xbeaf65c0	-0.34257317
146	0xbe54bd06	-0.20775232
147	0x3e923d99	0.2856262
148	0xbe12140f	-0.14265464
149	0x3bb6b4a8	0.005575735
150	0x3ea6604b	0.3249534
151	0x3f042cd0	0.5163088
152	0x3deb050a	0.114755705
153	0x3d069c28	0.032863766
154	0xbe6207dc	-0.2207331
155	0xbe60f055	-0.2196668
156	0x3e71498a	0.23563209
157	0x3e8c0013	0.27343807
158	0xbdc277e0	-0.094955206
159	0x3d73e137	0.059540953
160	0xbbdd8c7a	-0.006761131
161	0xbd9e6e00	-0.077358246
162	0x3ea7f2cc	0.32802427
163	0xbec866cc	-0.39140928
164	0xbeb48a64	-0.35261834
165	0x3d9e9f25	0.07745198
166	0xbe4d0ec5	-0.20025165
167	0x3e62935b	0.22126524
168	0x3ef5bdd6	0.47996396
169	0x3d095f94	0.033538416
170	0xbe043cfa	-0.12913886
171	0x3dd91691	0.10600007
172	0x3dda91f8	0.106723726
173	0xbe12d5b1	-0.1433933
174	0x3e4de7e2	0.20107988
175	0xbe42a09b	-0.19006579
176	0xbe234020	-0.1594243
177	0xbf1d1ca7	-0.61371845
178	0xbe5065ee	-0.20351383
179	0xbbd9d2d1	-0.0066474457
180	0x3e7cd126	0.24689159
181	0x3d580c37	0.052746024
182	0xbf254b66	-0.64568174
183	0xbd5cdbbe	-0.0539205
184	0x3e8df7aa	0.27728015
185	0x3e632a0a	0.22184005
186	0xbe14fbfe	-0.14549252
187	0x3e94a394	0.2903105
188	0xbe849702	-0.2589646
189	0xbe0545d1	-0.13014914
190	0x3e0a36f1	0.13497521
191	0xbe8ff0c4	-0.28113377
192	0x3dbaf756	0.09129207
193	0xbd821c32	-0.06353034
194	0x3f1bd3a0	0.6086979
195	0xbdaf4d4d	-0.08559666
196	0x3e1bdba2	0.15220502
197	0x3e0dfdaa	0.13866296
198	0x3e94fb9f	0.29098222
199	0x3d451c4c	0.04812269
200	0x3d0e1beb	0.034694593
201	0x3e56a387	0.20960818
202	0xbe89294a	-0.26789314
203	0x3eb81de5	0.35960308
204	0x3ca6e16c	0.020371161
205	0xbe330231	-0.17481305
206	0x3e7efd2c	0.24901265
207	0xbdcab3dd	-0.098975874
208	0x3dfa512e	0.12222515
209	0xbe9f7c02	-0.31149298
210	0xbd033830	-0.032036006
211	0x3ee56c71	0.44809297
212	0xbe4896a6	-0.19588718
213	0xbe662663	-0.22475581
214	0x3ef7a145	0.48365226
215	0x3eaf77aa	0.34270984
216	0xbe5cfcb1	-0.21580769
217	0xbe576d1a	-0.21037713
218	0xbeee68bd	-0.46564284
219	0xbe0ea557	-0.1393026
220	0xbcc3f0f8	-0.023918614
221	0x3d97803b	0.07397505
222	0xbe2e4fc6	-0.17022619
223	0x3e17f4db	0.14839499
224	0x3d2b4ee9	0.0418233
225	0x3d76d6db	0.060263496
226	0x3de981ff	0.11401748
227	0xbeb9b347	-0.3626959
228	0xbed2c326	-0.4116451
229	0x3ef8d1a4	0.48597443
230	0xbec840cf	-0.39111945
231	0xbbe420a9	-0.006961901
232	0xbdd22bf4	-0.1026229
233	0x3cdf9cf3	0.027296519
234	0xbd3453be	-0.044025175
235	0x3e20882d	0.15676947
236	0xbdce5e6e	-0.10076605
237	0x3e7bafc5	0.2457877
238	0x3ca357ef	0.019939391
239	0xbddbcbef	-0.107322566
240	0xbe9ad938	-0.3024385
241	0xbe2478a8	-0.16061652
242	0xbd17c907	-0.03705695
243	0x3d3734a6	0.044727944
244	0x3e918d38	0.28428054
245	0x3ea8b347	0.32949278
246	0xbe7a00dd	-0.24414392
247	0xbe0cefc7	-0.13763343
248	0x3d3ae9e0	0.045633197
249	0x3d85ea8e	0.065388784
250	0x3e9170e7	0.2840645
251	0xbd411816	-0.04714211
252	0x3dd2678b	0.102736555
253	0xbe15487e	-0.14578435
254	0x3f3bcd93	0.73360556
255	0x3e3a35d3	0.18184595

base.mlp.fc2.0.0.bias f4 [64]
0	0x3d73afb9	0.059493754
1	0x3bdc0f12	0.0067156637
2	0xbe504029	-0.20336975
3	0xbe1e68e5	-0.15469702
4	0x3dc732eb	0.09726509
5	0x3dda776b	0.106673084
6	0x3bebed94	0.0071999524
7	0x3d8755aa	0.06608136
8	0x3e3465dd	0.17616983
9	0xbe602bc9	-0.21891703
10	0x3d000a91	0.031260077
11	0x3d51e6c2	0.05124546
12	0xbdac1b43	-0.08403637
13	0xbd4aa2dd	-0.049471725
14	0xbd8b5e9b	-0.06805154
15	0xbe2989b9	-0.16556443
16	0xbe6cd543	-0.23128228
17	0xbe910e12	-0.28331047
18	0xbc977062	-0.018486205
19	0x3dc0b7aa	0.09410031
20	0xbdb00ebd	-0.08596561
21	0x3d658d64	0.056043044
22	0xbde405d6	-0.111339256
23	0x3dd4f6d0	0.10398638
24	0xbe379ca8	-0.17930853
25	0xbe453c01	-0.19261171
26	0xbc88c2d4	-0.016694464
27	0x3d17d572	0.03706879
28	0x3e12fbb1	0.14353825
29	0xbe389d23	-0.18028693
30	0x3e668ed4	0.22515422
31	0x3e1daac0	0.15397167
32	0xbde1ffb1	-0.110350974
33	0xbe47c8ad	-0.19510145
34	0x3c8c51d4	0.017128862
35	0xbe808ad5	-0.2510592
36	0x3bb50544	0.0055243094
37	0x3e51224e	0.20423242
38	0xbe61d66f	-0.22054456
39	0xbe1f99a4	-0.15585953
40	0x3d71733d	0.05894779
41	0x3db7c3ab	0.089728676
42	0xbcde24d1	-0.027117165
43	0xbe9c6840	-0.30548286
44	0x3dd193d7	0.10233276
45	0xbded2b69	-0.115805455
46	0xbdd16268	-0.10223848
47	0x3e6e78a6	0.23288211
48	0xbd2a4f74	-0.04157968
49	0x3e7de8b8	0.24795806
50	0x3ea5842b	0.323274
51	0x3d5c8470	0.05383724
52	0xbd8434c5	-0.064553775
53	0x3e81ed80	0.2537651
54	0xbdee1880	-0.11625767
55	0xbdcc49d4	-0.09975019
56	0x3b893998	0.004187774
57	0x3da1299e	0.07869266
58	0xbdd195e1	-0.10233665
59	0x3c967560	0.018366516
60	0x3d028835	0.03186818
61	0x3e254f5c	0.16143554
62	0xbdcf193a	-0.101122335
63	0xbbd2f8eb	-0.0064383647

base.mlp.fc2.0.2.weight f4 [64]
0	0x3fcefa2b	1.6170095
1	0x3fc19d79	1.5126182
2	0x3f9dcb45	1.2327658
3	0x3faa9370	1.3326244
4	0x3fbdf7ea	1.4841282
5	0x3fb5a0dc	1.4189715
6	0x3faf429c	1.3692203
7	0x3fa63283	1.2984165
8	0x3fb5ac70	1.4193249
9	0x3fa2ab05	1.2708441
10	0x3fbe7564	1.4879575
11	0x3fc400f0	1.5312786
12	0x3f99a26c	1.2002692
13	0x3fb5b954	1.4197183
14	0x3fa30a17	1.2737454
15	0x3fc1e8e4	1.5149198
16	0x3fa5f3cd	1.2965027
17	0x3f9b6c62	1.2142451
18	0x3f85b135	1.0444704
19	0x3f9c8c2a	1.2230275
20	0x3fa67b7c	1.3006434
21	0x3fb5a0fa	1.4189751
22	0x3f9a5cd9	1.2059585
23	0x3fa37326	1.2769516
24	0x3fe29f93	1.7704948
25	0x3f94963b	1.1608347
26	0x3fa40dd7	1.2816724
27	0x3fb2d8de	1.3972433
28	0x3f9c82d6	1.2227428
29	0x3fc9d3a9	1.5767719
30	0x3fa69b87	1.3016213
31	0x3fb82cd9	1.4388686
32	0x3f9d8160	1.2305107
33	0x3fcaab7b	1.5833582
34	0x3fbee732	1.4914305
35	0x3f8d6d86	1.1049049
36	0x3fb42a40	1.4075394
37	0x3faf91a2	1.3716319
38	0x3f8045ed	1.002134
39	0x3fdeb061	1.7397577
40	0x3faadda3	1.3348888
41	0x3fd7d756	1.686259
42	0x3fcfe838	1.6242743
43	0x3fda75f9	1.7067252
44	0x3fc063ef	1.5030497
45	0x3fa6a3c7	1.3018731
46	0x3fec0cdf	1.8441428
47	0x3fb2b9d9	1.3962966
48	0x3f8bb03e	1.091316
49	0x3fbd3ac2	1.4783556
50	0x3faa05a9	1.3282977
51	0x3fbe4038	1.4863348
52	0x3f999d38	1.2001104
53	0x3fccb2d5	1.5992075
54	0x3f9b81fd	1.2149044
55	0x3fbb94dc	1.4654803
56	0x3fbc9f01	1.4736024
57	0x3fca9ed5	1.5829722
58	0x3fa45962	1.2839777
59	0x3fcee2fa	1.6163018
60	0x3fb62345	1.4229513
61	0x3fbddaf1	1.4832441
62	0x3fb647b0	1.4240627
63	0x3f96bcca	1.1776364

base.mlp.fc2.0.2.bias f4 [64]
0	0x3cad4493	0.021150863
1	0x3b8422bb	0.0040324605
2	0xb82dd776	-4.1447078e-05
3	0x3d5c57f9	0.053794835
4	0x3d172ec1	0.036909822
5	0x3c3d09b0	0.011537954
6	0xb874e0bf	-5.8383444e-05
7	0x3b01ebdb	0.0019824419
8	0xbc678309	-0.014130362
9	0x3c25b724	0.010114465
10	0xbc83e5e4	-0.016100831
11	0xbc01f955	-0.007932981
12	0x3cde4225	0.02713115
13	0xbcb24b69	-0.021764474
14	0x3cc979f6	0.024594288
15	0x3e80bf2d	0.25145856
16	0x3dd06913	0.10176291
17	0x3cf83646	0.030299317
18	0x3e0b623e	0.13611695
19	0xbc188b0a	-0.009310493
20	0xbcf89945	-0.030346522
21	0xbc12d688	-0.008962281
22	0xbd085ee1	-0.03329361
23	0xbd1dd342	-0.03853155
24	0xbdd4759e	-0.10373996
25	0x3d8b2564	0.06794241
26	0x3bda5f0c	0.0066641625
27	0xbbd976f2	-0.006636494
28	0x3c5d8e9f	0.013522773
29	0xbda03c64	-0.078240186
30	0xbc491769	-0.012273648
31	0x3c6d6bd5	0.014491041
32	0x3d287c99	0.04113445
33	0x3dfe30c7	0.12411647
34	0xbe3f7928	-0.18698561
35	0x3e4c42e4	0.19947392
36	0x3bfe0809	0.0077524227
37	0x3cbf7ead	0.023375833
38	0x3c69f629	0.014279881
39	0x3c89877c	0.016788237
40	0x3be72ebe	0.0070551326
41	0xbb2de84b	-0.0026536162
42	0x3d1f86a6	0.03894677
43	0xbd1d116c	-0.038346693
44	0xbcd0e2a8	-0.025498703
45	0xbbdbdd73	-0.0067097484
46	0xbd915772	-0.07096757
47	0xbc0f90a7	-0.008762515
48	0x3e183e30	0.14867473
49	0xbd0a6d93	-0.033795904
50	0x3d2c06f6	0.041998826
51	0xbcc36320	-0.023850977
52	0xbb974f6b	-0.0046176217
53	0xbbd89371	-0.0066093733
54	0x3d9fea85	0.07808403
55	0x3ca9507f	0.020668266
56	0xbcdaf46f	-0.026727883
57	0x3d03483d	0.032051314
58	0x3c33b6bb	0.010968859
59	0xbe22a3a6	-0.1588274
60	0xbb916d11	-0.0044380506
61	0xbc3aa7b4	-0.011392523
62	0xbd9ccef4	-0.07656661
63	0xbd3ab9a4	-0.045587197

act.linear.weight f4 [24, 64]
0	0x388f2c29	6.826997e-05
1	0xbad44504	-0.0016194885
2	0xbace23dc	-0.001572724
3	0x3a5f3d14	0.0008515876
4	0x3b68fe58	0.0035551991
5	0xb9be61af	-0.00036312404
6	0xba882416	-0.0010386731
7	0xb9e74ffc	-0.00044119346
8	0xb9442bc4	-0.0001870832
9	0x3adc2d61	0.0016798192
10	0xbaf09e14	-0.0018357658
11	0xba9b9fc9	-0.0011873181
12	0xba58ab47	-0.00082652684
13	0x39f3f830	0.00046533486
14	0xba3acde2	-0.0007126016
15	0x3ab25386	0.0013605214
16	0xb8165b1d	-3.5847643e-05
17	0xbaaca736	-0.0013172391
18	0x3a9d51fc	0.0012002583
19	0x3ac6b202	0.0015159252
20	0x3a888e11	0.0010418316
21	0xb9d07266	-0.00039758085
22	0x3a1c6519	0.00059659925
23	0x37c6752e	2.3658005e-05
24	0x3b11ddd4	0.0022257464
25	0x3abe0d1e	0.0014499759
26	0xba0ba6b4	-0.000532727
27	0x3acccd95	0.0015625233
28	0xbb06618b	-0.0020504917
29	0x3aa9e3a4	0.0012961519
30	0x3a530d30	0.00080509763
31	0x399de5d9	0.00030116623
32	0x3b14d8a9	0.0022712147
33	0x3988de80	0.00026105717
34	0x38f5c135	0.00011718498
35	0xba9e0f05	-0.001205892
36	0xba8d5369	-0.0010782304
37	0x3b1076f7	0.0022043565
38	0x3a911c8f	0.0011071133
39	0x3b144092	0.0022621495
40	0x3a98ebf2	0.0011666997
41	0x3a952446	0.0011378608
42	0xba432039	-0.0007443461
43	0x39322fe7	0.00016993248
44	0x3a09cdd9	0.0005256809
45	0x3ac096e6	0.0014693409
46	0xb9f153bc	-0.0004602949
47	0x3a809352	0.000980953
48	0xba4c25c2	-0.0007787609
49	0x3ab7b9b8	0.001401714
50	0xb86dee65	-5.6727225e-05
51	0x39e92292	0.0004446698
52	0x3abb1f77	0.0014276345
53	0xbad2d0a6	-0.0016083911
54	0x39b9fef5	0.00035475907
55	0x3a3d2f86	0.00072168594
56	0x3a0a4120	0.00052739866
57	0xb9ff9e95	-0.00048755543
58	0x38f2c123	0.00011575434
59	0x3a731770	0.0009273207
60	0xbb49527e	-0.0030719335
61	0x392a5a10	0.00016246014
62	0xb9c01d8f	-0.00036643117
63	0x3a6cc82f	0.0009032515
64	0x3ec265be	0.37968248
65	0xbdaedc85	-0.085381545
66	0xbb669f71	-0.003519025
67	0xbe2ef0fb	-0.17084114
68	0xbe0bb9d5	-0.13645108
69	0x3b3194cc	0.0027096746
70	0x3e258add	0.16166253
71	0x3ca2a6d8	0.019854948
72	0xbe8ae240	-0.2712574
73	0xbcc41384	-0.023935087
74	0xbe434d80	-0.19072533
75	0x3da8385b	0.08213874
76	0x3ed062ed	0.40700474
77	0xbc1468d4	-0.009058196
78	0xbcfe747b	-0.031061402
79	0x3dd7b76f	0.10533034
80	0xbdcb4ee6	-0.09927158
81	0xbe247829	-0.16061462
82	0xbe5ae440	-0.21376133
83	0x3dca8460	0.0988853
84	0xbe1d2f65	-0.15350111
85	0x3d71f9c4	0.059076086
86	0xbc819b33	-0.015821075
87	0xbf01079d	-0.5040224
88	0xbdefc936	-0.117083
89	0x3ed17a84	0.40913785
90	0x3e6d5895	0.23178323
91	0xbe8d3bfa	-0.2758482
92	0xbd051797	-0.0324932
93	0x3f2e387c	0.6805494
94	0x3e9867c9	0.29766682
95	0x3e068b86	0.13139161
96	0x3ea2ced2	0.31798416
97	0xbe222f28	-0.15838301
98	0xbe2db1a5	-0.16962297
99	0x3deb8167	0.11499291
100	0x3dbff32d	0.09372554
101	0x3e8f95e6	0.2804405
102	0x3eb74658	0.35795856
103	0x3dde869b	0.10865518
104	0xbbe36547	-0.0069395634
105	0xbf04da71	-0.51895815
106	0x3ecd0dda	0.4004963
107	0x3e83077a	0.25591642
108	0xbdfadf17	-0.12249582
109	0x3e0900ea	0.13379255
110	0x3e2524a4	0.16127259
111	0xbe0ffa97	-0.14060436
112	0x3e49d5b0	0.19710422
113	0x3da7eed2	0.08199848
114	0xbe92ec0a	-0.2869571
115	0x3e49ac63	0.19694667
116	0x3dbb0803	0.091323875
117	0xbf231cd3	-0.6371586
118	0x3f53248c	0.8247764
119	0x3e8f664b	0.2800773
120	0xbb3de1c9	-0.002897369
121	0x3dad2a47	0.084553294
122	0xbd5e6d16	-0.05430325
123	0x3edf6af0	0.43636274
124	0x3f34922b	0.70535535
125	0x3f03735f	0.5134792
126	0x3f11afec	0.5690906
127	0x3ef7a94d	0.48371354
128	0x402073df	2.5070722
129	0x3f9e79bc	1.23809
130	0x3f46fe3c	0.7773168
131	0xbe30070c	-0.17190188
132	0xbf5f3068	-0.8718324
133	0x3ed17aab	0.409139
134	0xbf09f786	-0.53893316
135	0x3e525aa5	0.2054239
136	0xbeb5b41e	-0.3548898
137	0x3f8253ec	1.0181861
138	0xbe664e95	-0.22490914
139	0x3ce27b5b	0.027646711
140	0x3d8eec27	0.06978636
141	0xbe886538	-0.26639724
142	0xbf248125	-0.6425956
143	0x401049da	2.2545075
144	0x3e9575f7	0.29191563
145	0x3fdbaeec	1.7162757
146	0xbf93ae02	-1.1537478
147	0xbf7f25fa	-0.9966732
148	0x3f2852f8	0.657516
149	0x3e2e4958	0.17020166
150	0x3f5e0193	0.8672115
151	0xbe5a8ef7	-0.213436
152	0x3f223568	0.6336274
153	0xbcce308c	-0.025169633
154	0x3f2a453c	0.66511893
155	0xbec46224	-0.38356125
156	0xbee31553	-0.44352207
157	0xbf9c8950	-1.2229404
158	0xbe4c77f9	-0.19967641
159	0xbf6fdb06	-0.9369358
160	0xbf0d3b6a	-0.55168784
161	0xbdbec2b4	-0.093144804
162	0xbe261c31	-0.16221692
163	0x3f5860c3	0.84522647
164	0xbe49a93d	-0.19693466
165	0xbf091c5e	-0.5355891
166	0x3f8795bc	1.059257
167	0x40008002	2.007813
168	0xbf4282cf	-0.7598085
169	0x3e145811	0.1448672
170	0x3cb69f33	0.022292709
171	0x3e7ded2d	0.24797507
172	0x3e2450f9	0.16046514
173	0xbf4444a2	-0.76667225
174	0xbd3a3d73	-0.04546876
175	0xbeae6a27	-0.34065363
176	0xbf7f38d9	-0.9969612
177	0x3e23382f	0.15939401
178	0x3f5a2704	0.85215783
179	0x3f07c55f	0.5303554
180	0x3f0d6b47	0.5524182
181	0xbe7c09de	-0.24613139
182	0x3e83fcf8	0.25778937
183	0xbd46732c	-0.04844968
184	0x3edf3299	0.4359329
185	0x3e1b98c0	0.15194988
186	0xbf8c0775	-1.0939776
187	0xba4eb21e	-0.0007884818
188	0x3f131fec	0.57470584
189	0xbe48ff42	-0.19628623
190	0x3e0e819c	0.1391663
191	0x3f7914d7	0.97297424
192	0x3e95d0c0	0.29260826
193	0x3dfdc9c3	0.123919986
194	0xbe2baafd	-0.16764446
195	0x3e225a76	0.1585482
196	0x3b8773d1	0.0041336794
197	0xbe54be42	-0.20775703
198	0x3ed4f443	0.41592607
199	0xbe2c0b83	-0.16801266
200	0xbead39eb	-0.3383325
201	0xbd15054f	-0.036382016
202	0xbeada463	-0.3391448
203	0x3e63606d	0.22204752
204	0xbe807b86	-0.2509424
205	0xbec8076a	-0.39068156
206	0x3e24510e	0.16046545
207	0xbe0dd678	-0.13851345
208	0x3d4ef7a5	0.05052914
209	0xbeb9cd3c	-0.36289394
210	0x3e16f6ba	0.14742556
211	0x3e836521	0.25663093
212	0x3df25805	0.11833195
213	0xbe67950a	-0.22615448
214	0x3b56b505	0.0032761705
215	0xbbb5fbf9	-0.005553719
216	0x3e041020	0.12896776
217	0xbe9488dc	-0.29010665
218	0xbdf3fbeb	-0.11913284
219	0x3f11a439	0.5689121
220	0x3e023e18	0.12719
221	0xbe218caa	-0.15776315
222	0x3eeef311	0.4666982
223	0x3f22aae4	0.6354201
224	0x3c7f5e98	0.015586518
225	0x3ccdf6aa	0.025142033
226	0xbdd24174	-0.102663904
227	0x3d44f8d5	0.048088867
228	0x3eaaadd5	0.33335748
229	0x3ceb2457	0.028703852
230	0xbdad02e7	-0.08447819
231	0x3e755e25	0.23961695
232	0xbcd659df	-0.0261659
233	0x3df3b6e0	0.11900115
234	0x3ef9af5e	0.48766607
235	0x3f10c8da	0.56556475
236	0x3e2339c4	0.15940005
237	0x3e96643d	0.2937335
238	0xbe591eeb	-0.212032
239	0xbe57da51	-0.21079375
240	0x3ecc6924	0.39923966
241	0x3c925215	0.017861405
242	0x3dd13d85	0.10216812
243	0x3df00a2c	0.1172069
244	0x3effd88a	0.49969894
245	0xbe0335f1	-0.12813546
246	0x3eb7bb87	0.3588526
247	0xbc821b6b	-0.015882215
248	0xbd8ac5b9	-0.06775994
249	0xbdd36faa	-0.103240326
250	0xbd188603	-0.03723718
251	0x3f266907	0.6500401
252	0x3d2d0364	0.04223956
253	0xbebdc43d	-0.3706378
254	0x3e56fdce	0.20995256
255	0x3e4be655	0.19912083

act.linear.bias f4 [24]
0	0x00000000	0.0
1	0xbf2189d1	-0.63100916
2	0xbf8763d5	-1.0577341
3	0xbf05381e	-0.52038753
4	0x3e422a77	0.18961512
5	0xbeca2c9e	-0.39487165
6	0x3d07e69d	0.033178914
7	0xbefcdaf1	-0.4938579
8	0xbd29093c	-0.041268572
9	0x3f117eb9	0.5683399
10	0x3f7fbd8b	0.99898595
11	0x3e0c42f0	0.1369741
12	0x3e46db57	0.19419609
13	0xbdf7595a	-0.12077589
14	0xbeffa80e	-0.49932903
15	0xbf44af25	-0.7682975
16	0x3df26ffa	0.11837764
17	0xbf25f3f4	-0.6482537
18	0xbecabf05	-0.3959886
19	0x3ed2c495	0.41165605
20	0x3eff6d66	0.49888152
21	0xbc9c9960	-0.019116104
22	0x3c9d2b4d	0.019185686
23	0x00000000	0.0
