save_dir/actor_evil.pt (torch, 140498 bytes, 12 tensors)

base.feature_norm.weight f4 [425]
00000000: 6b1b 833f b698 913f 69d7 833f 9c45 893f
00000010: 8e80 883f 433c 723f 8f03 763f 8fe3 783f
00000020: a3fe 753f d3eb 703f cfc7 783f 3da2 8e3f
00000030: b64a 8d3f ff10 783f 65e2 763f 9ba6 7b3f
00000040: 3bf6 783f 8e92 7f3f e4f7 793f 0c84 7f3f
00000050: a212 743f da90 723f c4b0 713f 5d48 773f
00000060: ec7d 6a3f 742f 723f 68ce 763f d11d 853f
00000070: 67a2 813f cc29 753f 422d 823f 332c 6d3f
00000080: e4b4 7c3f d9fa 8c3f 564a 803f 5d01 6e3f
00000090: 0ad5 823f 5440 813f d2ab 803f 2ca5 7e3f
000000a0: f44e 673f 277f 883f e264 873f ddbf 7c3f
000000b0: 88be 723f 69b8 793f adbe 5c3f 8b8b 873f
000000c0: ce92 603f 2818 653f b7c3 7c3f e0ff 773f
000000d0: 41e1 833f b088 6b3f 43d5 6d3f 70d6 703f
000000e0: 043b 6e3f 6d93 783f dd13 6a3f 164d 783f
000000f0: 02d9 6d3f 22b4 833f ef75 673f fc18 633f
00000100: 80d4 703f 4cef 7b3f 63e3 743f d847 7f3f
00000110: fd3b 653f 9418 703f b61e 783f 840a 7c3f
00000120: 7167 703f 0774 753f f184 753f b9fe 783f
00000130: ec7d 773f 2210 693f 80b8 803f f25e 763f
00000140: 6004 703f cb8a 743f 5280 6b3f 0758 743f
00000150: 1918 773f f831 8d3f 46f8 803f 7084 833f
00000160: c145 7d3f 5857 7e3f 9fee 7b3f 48b9 713f
00000170: a40d 693f 2a50 713f 481d 8e3f 0f7c 833f
00000180: d938 783f 2399 7d3f 5ec5 803f bba6 7f3f
00000190: 9c5b 7b3f 41b3 653f 974a 683f 935d 873f
000001a0: fa59 7c3f 6eaf 7d3f 0b35 763f 5cd1 6a3f
000001b0: bc3e 823f 1a19 663f e00c 8c3f 288e 853f
000001c0: bacd 873f caa8 803f 310c 863f 8e53 8c3f
000001d0: c090 813f d993 813f 765e 6b3f db21 7d3f
000001e0: 6121 833f 4de6 683f 74a3 7e3f abcf 8b3f
000001f0: a8e9 773f e526 7d3f 2904 813f 2da4 8a3f
00000200: b85b 813f d13b 6a3f 5454 533f a3df 833f
00000210: 29ad 5c3f a1de 703f 5e32 7a3f ed67 823f
00000220: cb44 773f 5704 8c3f 1812 683f 0832 793f
00000230: d7f2 7b3f ac44 643f 93f0 863f 2bf7 803f
00000240: 8a35 763f 18d4 803f 2c10 713f f6f7 713f
00000250: dc67 7b3f 16a4 6f3f 72b7 7d3f cc3f 883f
00000260: 412b 8b3f c3f8 7d3f 5c2b 8b3f 8b0b 853f
00000270: 1489 7d3f fb9e 803f f2ac 893f 5381 8b3f
00000280: df8f 8a3f 2825 8b3f b358 8e3f c50f 813f
00000290: ef83 853f e869 7b3f b4bd 833f 1de5 863f
000002a0: f436 783f da08 823f 67fa 7b3f 32d2 6a3f
000002b0: f41b 6f3f adce 803f f4ee 773f 95e1 753f
000002c0: b26c 713f 1ba0 873f 42e3 773f a5fa 843f
000002d0: 58ec 873f 05d5 863f 373f 6a3f 3f6c 813f
000002e0: 8f74 8c3f 064c 7d3f e27b 713f 8d1c 903f
000002f0: 2b70 893f 67fd 883f c1b4 8c3f d31d 7d3f
00000300: e108 813f f510 7b3f bb39 843f 0468 7e3f
00000310: eec3 6b3f 3850 863f ee46 6e3f 1e72 743f
00000320: aa79 5d3f 12a0 753f 730e 7c3f d2c1 803f
00000330: 3df5 763f 62a3 793f d615 743f fd9a 793f
00000340: ca61 703f 3665 753f 2a17 803f 6e92 753f
00000350: 894d 683f 908e 843f 9276 883f b8fc 873f
00000360: 7ec9 7e3f a7bd 873f 0a7b 7c3f 2417 7a3f
00000370: a46c 823f 7b4c 793f 04d6 7e3f 521b 7f3f
00000380: cd28 8f3f 4944 7e3f f1ad 803f b069 7c3f
00000390: fba4 853f 9d5e 803f 0084 7e3f e036 7d3f
000003a0: 12b7 5e3f 3bf3 743f 4309 763f 2fae 753f
000003b0: d839 6a3f 3f93 6e3f 9cf3 663f d301 813f
000003c0: ed04 8a3f 0d88 7b3f 8880 823f 7e3c 7c3f
000003d0: 54bc 803f a0ca 953f 75a0 7d3f db94 753f
000003e0: 776a 783f 1070 773f a6bf 873f 7fd9 7d3f
000003f0: 7d4f 8d3f 5568 8a3f 6e5c 733f 9daa 703f
1.0242742 1.1374729 1.0300113 1.0724368 1.0664232 0.946232 0.9609918 0.97222227
0.9609167 0.9410984 0.97179884 1.1143261 1.1038425 0.96900934 0.964392 0.98301095
0.9725072 0.99833 0.97643876 0.9981086 0.9534093 0.94752276 0.9441035 0.9659479
0.9159839 0.9460366 0.964087 1.0399724 1.0127686 0.957669 1.0170062 0.9264557
0.9871352 1.1014053 1.0022686 0.9297083 1.0221264 1.0097756 1.0052435 0.9947078
0.9035485 1.0663804 1.0577662 0.9873026 0.9482198 0.9754701 0.8622845 1.058946
0.87724006 0.89489985 0.9873614 0.9687481 1.0303117 0.92005444 0.92903537 0.94077206
0.930588 0.97099954 0.9143656 0.96992624 0.9290925 1.0289347 0.9041433 0.8871
0.9407425 0.98412013 0.95659465 0.99719 0.8954466 0.93787503 0.9692186 0.98453546
0.9390784 0.9588017 0.9590598 0.97263676 0.96676517 0.9104024 1.0056305 0.96238625
0.93756676 0.9552428 0.91992676 0.9544682 0.96521145 1.1030874 1.0075767 1.0274792
0.9893456 0.99352026 0.9841098 0.9442334 0.9103644 0.94262946 1.1102686 1.0272235
0.9696174 0.99061793 1.0060232 0.99863786 0.9818666 0.89726645 0.90738815 1.0575432
0.98574793 0.9909581 0.9617469 0.9172571 1.0175395 0.8988205 1.0941429 1.0434008
1.0609658 1.005151 1.047247 1.0962999 1.0122299 1.0123245 0.9194101 0.98879784
1.0244561 0.9097641 0.9946816 1.092275 0.96840906 0.98887473 1.0079395 1.0831352
1.0106115 0.9149752 0.8255055 1.0302624 0.8620172 0.94089705 0.97733104 1.0187966
0.96589345 1.0938824 0.9065261 0.97341967 0.9841742 0.89167285 1.0542167 1.007543
0.96175444 1.0064726 0.941653 0.94518983 0.9820535 0.9360975 0.9910804 1.0644469
1.0872575 0.99207705 1.0872607 1.0394148 0.9903729 1.0048517 1.0755904 1.0898842
1.0825156 1.0870714 1.1120819 1.0082937 1.0430888 0.98208475 1.0292268 1.053867
0.9695885 1.0158951 0.9842896 0.9172698 0.9340203 1.0063072 0.9684899 0.96047336
0.9430648 1.0595735 0.9683114 1.0388991 1.0619001 1.0533758 0.9150271 1.0111159
1.0973071 0.9894413 0.94329655 1.1258713 1.0737356 1.0702332 1.0992662 0.98873633
1.0080835 0.9807275 1.0330118 0.99377465 0.9209584 1.0493231 0.9307698 0.9548663
0.8651377 0.9594737 0.9845955 1.0059149 0.96467954 0.9751493 0.9534582 0.9750212
0.93899214 0.9585756 1.0007069 0.9592656 0.9074331 1.0356007 1.0661185 1.0623999
0.995262 1.0604752 0.9862524 0.9769156 1.0189404 0.97382325 0.9954531 0.9965106
1.1184326 0.99322945 1.0053083 0.98598766 1.0440973 1.0028874 0.99420166 0.9891186
0.86998093 0.9568364 0.9610788 0.9596891 0.9149451 0.9319343 0.9021547 1.0078682
1.0782753 0.9825447 1.0195475 0.98529804 1.0057473 1.1702461 0.99072963 0.9593026
0.9703745 0.9665537 1.0605361 0.9916 1.1039883 1.081309 0.9506291 0.94010335

base.feature_norm.bias f4 [425]
00000000: d87b 873b 2a07 aebb 2a1b c9bc 732f be3c
00000010: f0cd cfbc 5b28 32bd 51de 023d 0ed2 e93c
00000020: 8930 ea3c b9dd 563d 86c3 1139 19c1 333c
00000030: 60dc 38bb 0fc5 a93c 8936 27bd 62e5 3abb
00000040: 2fc9 493d 6790 76bd f596 bfbb 5af4 0abd
00000050: c070 24bd 5ce2 b8bd a204 93bc 5a74 8bbd
00000060: 654c 95bd acee 563c 5077 20bd 4c39 dbbc
00000070: f684 ff3a 9145 f43c 5c34 6b3b 2355 883d
00000080: faa1 1ebd 3425 e4bb 49e5 33bc 1c56 7f3b
00000090: 16cb d13c ffd5 c0bc c79c debc f189 aebc
000000a0: ea65 4c3d ca22 6d3d cd0b 823d 83dc 733d
000000b0: 3407 3a3d a3b6 8d3d aedb e73d 5000 073c
000000c0: 756e 053d 14d0 9d3d b074 ab3d 3147 5c3d
000000d0: e7f7 cc3c edc4 903d 0195 493d b967 8f3d
000000e0: 52f9 453d 3275 563d 7262 6a3c 04d8 043d
000000f0: 5b1f db3c e6f8 0e3d de80 023c b392 343d
00000100: 324c 453d 48a2 433c 737d 4b3c 9949 6e3d
00000110: acb3 b63b ea22 7e3d f376 c33c d5bf 023d
00000120: 3538 463d 5cba 653d aaf8 2f3d c768 1d3d
00000130: 542f b73c 89d3 053e 000e f73b 67b6 773c
00000140: 3260 ab3d f1f2 cfbb 3561 8b3d f20a 1b3d
00000150: 25dc a23c fab6 a33d bdce 02bd 931e 043c
00000160: a6d7 983b 6c6a 6abb 0fed 983c 31ce 973d
00000170: 48c1 853d 1688 19bd 15e4 7ebc 2a52 bb3c
00000180: 8e55 24bd d192 103d 669c a53c 3ab2 e4bc
00000190: ed42 08bc 6678 77bd 39bd 8cbd b9af b83c
000001a0: 65d3 0d3d 5c31 a53c c176 0e3c 6c7e bf3c
000001b0: 52e0 303c 0a7d 8039 7272 cfbc 7f6c 903b
000001c0: 2317 6a3c 0a66 53bc 9374 0abd c7eb 143c
000001d0: dcd3 b63b c4b9 10bb 1019 0d3d 2290 453d
000001e0: 7e29 d53c 6fb1 163d 1ce1 953c 55d5 153d
000001f0: a09e 823c b0fd 383c 60bf bb3c d17f 3c3d
00000200: 2f1e 64bc 83f1 023d 650d d03c 9a56 b739
00000210: aef5 383d 1d8f 82ba d098 2b3d 1f63 6f3d
00000220: 2c5e b53c 0444 d23c d7a1 cb3c 2087 fd3c
00000230: c67f 45bc e236 9ebc 716a 7f3b 4c75 fabb
00000240: 8052 4d3d d731 c2ba 1bb6 293d 837e 203d
00000250: 17b2 863d 4534 793d 77e5 6b3d 3f8b 9fbb
00000260: 4804 2dba d7a6 d83c fa03 a6bb a8f0 923c
00000270: 30da 00bb 97e7 9e3c 5b38 953c 6fe0 9abc
00000280: 19c8 193c ec0b 9aba 9f07 8ebc 99fd 203d
00000290: 2763 71bc a67a 4ebb 7e72 113c abc3 00bc
000002a0: c1fc 0c3b 7fe6 183c 72df 76bc 9a94 953d
000002b0: 6638 8f3d da33 853b 112e 0c3d aeed 043d
000002c0: 1a1a 9e3c 2edc b33c ef7c 45bd df50 8b3c
000002d0: dcf7 003d 622c 963b 6db6 2b3c e0ea 773b
000002e0: b893 1f3c 5394 e73c 2c79 5f3c 5f90 20bb
000002f0: 54ed b63c 1084 e93b 136e d43b 5b84 873d
00000300: 8419 c1bc 780d 3b3d f1a7 9a3c b8c8 413c
00000310: 4216 0d3d dc97 1fbd 2162 c4bb eba6 303d
00000320: c269 073d eead 013d 6bb4 173b 50fb 253d
00000330: cc8b b03c af6b fe3b 1247 173d 8b62 903b
00000340: a018 053d 8df5 403d 112b bb3c def0 f03c
00000350: 2eb8 bc3c 0846 103d b462 d7bc 5b8f 7abc
00000360: dcb3 993d 459e 8e3d 7323 6d3c b52d 063d
00000370: ea7a 933c bab3 6f3d d61e d83c 67ac 5e3d
00000380: 4e54 c53b 13ed 603d 5311 c73c 8580 363d
00000390: 1d88 853d 1e8b 89bc 4309 773c 44e7 083c
000003a0: df16 103d db28 b83b 5f52 373c 865b 453d
000003b0: 9c97 933d 7cf4 523d a75f 493d 5475 403d
000003c0: 1907 4b3d 9941 fe3c 434c 563d 3cd0 193d
000003d0: 5f15 48bb 5d1d 103d 488d 993c 8747 0b3d
000003e0: 5298 143d 9aae a9ba cd9c 80bc a24d 853c
000003f0: 31fb ba3c 9e23 1b3d 357b 5d3d b000 523d
0.0041346364 -0.0053109126 -0.024549086 0.023215985 -0.025366753 -0.043495517 0.0319503 0.028542545
0.028587596 0.052457545 0.00013901116 0.010971331 -0.0028207526 0.020723848 -0.040823493 -0.002851807
0.04926413 -0.060196307 -0.005846853 -0.033924438 -0.04014659 -0.090275496 -0.017946545 -0.06809302
-0.07289962 0.013118427 -0.039176285 -0.02676072 0.0019494582 0.029818328 0.0035889363 0.066568635
-0.03872869 -0.006962443 -0.010979959 0.0038961237 0.025609534 -0.023539541 -0.027174367 -0.02130601
0.04990188 0.057894506 0.06349907 0.05953647 0.045417026 0.06919601 0.113211975 0.008239821
0.032576043 0.077057034 0.08371866 0.05377883 0.025020553 0.070688106 0.049214367 0.070022054
0.048333474 0.05235786 0.014305698 0.03243257 0.02674835 0.034905337 0.007965295 0.044085216
0.04816837 0.011940546 0.012420046 0.058175657 0.005575618 0.062045015 0.02386043 0.031921227
0.048393447 0.05608593 0.042961754 0.03843 0.022361435 0.13068976 0.0075395107 0.015119172
0.08367957 -0.0063460995 0.0680565 0.037852235 0.019880364 0.079938844 -0.031935442 0.00806393
0.004664379 -0.0035768999 0.018667726 0.07412375 0.06531006 -0.037483297 -0.015557309 0.022866327
-0.040120654 0.035296265 0.020216178 -0.027917016 -0.008316738 -0.060417555 -0.06872029 0.022544729
0.03462543 0.020165138 0.008695305 0.023375712 0.01079567 0.00024507224 -0.025323126 0.004407465
0.014287743 -0.012902746 -0.03380258 0.009089417 0.005579455 -0.0022083381 0.03444773 0.04823316
0.026020762 0.036790308 0.018295817 0.036580402 0.015944779 0.011290953 0.022918403 0.046020333
-0.013923212 0.031968605 0.025397012 0.00034969003 0.045156173 -0.0009960864 0.04189378 0.05844414
0.022139631 0.025667198 0.024857445 0.030948222 -0.012054389 -0.01931328 0.0038973356 -0.0076433774
0.050127506 -0.0014815879 0.041433435 0.03918315 0.06576937 0.060840864 0.05759188 -0.0048688943
-0.0006600064 0.026446743 -0.005066392 0.01793702 -0.00196613 0.01939754 0.018215349 -0.018905846
0.009386086 -0.001175282 -0.017337618 0.03930435 -0.014733112 -0.003150621 0.008877395 -0.007859151
0.0021512958 0.009332298 -0.015067922 0.07303734 0.06993179 0.004065019 0.03422362 0.03245323
0.019299556 0.021955576 -0.04821485 0.017006336 0.031486377 0.0045829276 0.010480505 0.0037829205
0.009739809 0.028268969 0.0136397295 -0.0024500114 0.022329964 0.007126339 0.0064828484 0.06617042
-0.023571737 0.04566714 0.018878909 0.01182764 0.034445055 -0.038963184 -0.005993143 0.043127935
0.033059843 0.031660013 0.002314831 0.040522873 0.021551035 0.0077643017 0.036933012 0.0044062785
0.032494187 0.047109175 0.022847684 0.02941173 0.023037042 0.035223037 -0.026292183 -0.015292968
0.075050086 0.06963781 0.014473784 0.032758433 0.018002946 0.05852101 0.026381891 0.054363634
0.006022013 0.05491359 0.024300253 0.04455616 0.06520102 -0.016789969 0.015077892 0.008355919
0.03517806 0.0056201047 0.011189072 0.048182987 0.072066516 0.05150269 0.049163487 0.046986893
0.049567316 0.031037139 0.052318823 0.037552103 -0.0030530316 0.035184253 0.018744126 0.03400376
0.036278076 -0.0012945712 -0.015699768 0.01627237 0.022824856 0.037875764 0.054072578 0.051270187

base.mlp.fc1.0.weight f4 [64, 425]
00000000: 0550 c03d aa74 cdbd 312c 253e f118 95bd
00000010: 16a1 4abc 0f9c 393d 2f93 eebd 5f56 bb3c
00000020: 3d26 30be 482e e1bc 0191 0f3e a804 7a3e
00000030: 493b 83bd 8915 0ebd d918 00bd 77a1 ce3d
00000040: 82b8 203e dc47 6abe a656 503d 4a93 7bbc
00000050: 327b 84bc e4fa beba e821 6abe 929a 9bbd
00000060: ef9e 12be 8ffe d43d fcdf 003d cc05 ca3d
00000070: 830c 36bd 6f5d 373d d657 1ebe 7b08 e43d
00000080: 1f39 08be f27c 183d 5256 ebbc 38e8 c9bc
00000090: 5773 94bd 8bde fbbc 346f bebd 2a57 16be
000000a0: e532 0abd 3626 0ebd 2b5f 453d 71ac cf3d
000000b0: 9a9a dd3c 49d7 1abc 9dfe 99bd f7a2 59bd
000000c0: 0bcf 433d 8c0a 803d b8d4 2d3e 7b43 243d
000000d0: 8a9c 3e3e 0c71 483e 6272 ac3d 3547 be3d
000000e0: 8132 a7bd 540e 66bd 1311 163d c8b3 debd
000000f0: d915 10bd 4d4a a9bc 42a9 93bd 65dc 82bc
00000100: 01d0 a7bd 8d2c 123c 531a 073d b88c 87bd
00000110: 1847 dbbc 043e b2bd cc2d bd3b 0247 7c3b
00000120: f549 5e3d 8144 1e3d 0f06 a33d 1095 a8bc
00000130: 608d 2abd d49a a2bc 2228 223e a848 3b3d
00000140: f1d3 b93c 2304 823d 94a6 b03d 7986 ec3d
00000150: 0de8 03bd 3fae 98bd 6fb1 c3bd ec4e 7a3d
00000160: d89f 133e 68d8 4bbd dbfc d6bc b777 233d
00000170: 70d6 c0bc fc60 8dbd 1535 3dbe 9fd1 fcbc
00000180: 96d4 cbbd 2e4a d23d d0be a1bd d59c 813d
00000190: 739f bf3d 3aa2 af3d 7f4d 95bd 794e 403d
000001a0: c4a1 703c 2fac 5a3d 000b 163e 3b58 d03d
000001b0: 65c3 f43d 26d9 59bc a13c 01be 05fa 57be
000001c0: 8db4 1dbe a4b2 6a3b 6335 a33d 5c3f 163e
000001d0: 1d96 973d fcde 993c 74f5 45bd ac68 fabd
000001e0: 0514 483d 5a81 bc3d 5966 e8bc a4cf 10be
000001f0: 5100 c73c 1235 4cbe 5022 84bd aa4f ffbd
00000200: 022d 233d 2886 3cbd a423 04be 6821 bebd
00000210: 4d7c 8fbc 5802 2c3d 6e13 80bd 1ac9 96bd
00000220: d932 b8bd 475a 0dbd 0d59 6cbe 36ee cbbd
00000230: 972c 593e 5be6 3dbd 9789 63bd f5e9 e03c
00000240: dc20 17be b636 383d a65c 6bbd fd24 3cbd
00000250: 640d b4bb 08b5 f13c b083 bf39 d327 e2bc
00000260: 537e 9fbc 6ba6 77bd f806 77bd 1b4d 9dbd
00000270: 6dda 053d 49ad fdbd 9670 febc 65a5 c8bd
00000280: 7af1 c5bc 9aff 73bc 1da3 143a e7b5 8e3c
00000290: b5ef fdbb 1603 15be ae31 f2bc f0e0 c0bd
000002a0: cead 8c3d d098 a8bd a6b9 cd3d 458e 14bc
000002b0: 6906 adbc e5d0 89bd c481 73bc 65cc 083d
000002c0: ab97 1c3d ded4 11ba 8e70 5bbd 80db a03d
000002d0: 115f 12be bcd3 51bd ae21 8bbd 2859 9dbd
000002e0: 8bab 3b3d c5c3 02bd 0a48 b3bc a4bb 113b
000002f0: 16ed a6bc e27c 133d 1046 9e3d 1b0d 38bd
00000300: 7b8c 9fbd a933 5c3d e5db ce3d ea52 0abe
00000310: a8f3 8abc 9253 fb3c 7501 16bd 1792 b9bb
00000320: 8ddb f53c 4631 b13d a835 3dbd 30fb a9bd
00000330: 2007 15ba 35a4 f5bc 45df 7c3d 7d6f 87bd
00000340: c537 e1bd ded3 df3d 301c b6b9 9fe6 00bd
00000350: b9c2 19bd bc0d b6bd b7fe 9dbc c523 b03c
00000360: cd39 ebb9 1bc9 ebbd 3f9f 65be 35f2 6f3d
00000370: c97f 14bd 396e 033d b84f 90bd 6563 bd3b
00000380: 0aec 193e 9635 80bc 8452 e4bd 2ef9 b6bd
00000390: 8f2b 313d 3757 873c 46eb 14bd a330 e6bc
000003a0: 5c35 f03b 3faf 5abd 810c 68bd 5d5a 9dbd
000003b0: 6cb5 f2bc 8aeb 143e 958b f63d 3aaf 703c
000003c0: 14f0 bebd e0e7 243e 2639 4dbc 8fcf 1abe
000003d0: 4a59 383c 5cbf debc 4625 f5bc 6377 183d
000003e0: fea3 e63c 94fc 76bd 7e82 063e fb2f 71bd
000003f0: 6ff3 9dbd 001e 32bd 79b0 f0bc eeb5 7bbd
0.093902625 -0.100320175 0.16130139 -0.07280148 -0.012367507 0.045314845 -0.11649167 0.022868333
-0.17202087 -0.027487889 0.14020158 0.24415839 -0.06407792 -0.034688506 -0.031273697 0.10089391
0.15695384 -0.22878975 0.050863884 -0.015354941 -0.016172025 -0.0014570621 -0.22864497 -0.07597841
-0.14318441 0.10400116 0.03146361 0.09864387 -0.044445526 0.04476684 -0.15463194 0.1113443
-0.1330304 0.037228532 -0.028727684 -0.024646863 -0.07248562 -0.030745765 -0.09298554 -0.14681688
-0.033739943 -0.03470441 0.048186462 0.101403125 0.027051259 -0.009450742 -0.07519267 -0.05313393
0.047804873 0.06252012 0.16975677 0.040103417 0.18614402 0.19574374 0.08420254 0.092909254
-0.0816393 -0.056166008 0.036637377 -0.10874134 -0.035177086 -0.020665312 -0.07210018 -0.015974233
-0.081939705 0.008921755 0.03298409 -0.06618637 -0.026767299 -0.08703235 0.0057732817 0.0038494472
0.05426975 0.03863955 0.0796014 -0.020578891 -0.041638732 -0.019849218 0.15835622 0.045723587
0.02268407 0.06348445 0.08625522 0.11549086 -0.032203723 -0.0745511 -0.09555327 0.061110422
0.14416444 -0.049766928 -0.026243618 0.03990909 -0.023539752 -0.06903264 -0.1847728 -0.030861674
-0.09952657 0.10268055 -0.07897723 0.063287415 0.093565844 0.08575864 -0.07290172 0.046949837
0.014687005 0.053386863 0.14652634 0.101730786 0.11951331 -0.013296401 -0.12620784 -0.21091469
-0.15400906 0.0035812045 0.07969167 0.14672607 0.07401679 0.018783085 -0.048329785 -0.12226996
0.048847217 0.09204359 -0.028369116 -0.14141709 0.024292143 -0.1994212 -0.06451857 -0.124663666
0.039837845 -0.04602638 -0.12904221 -0.092837155 -0.017515326 0.041994423 -0.06253706 -0.07362576
-0.089940734 -0.034509923 -0.23080845 -0.099575445 0.21208416 -0.046362262 -0.055551138 0.02745531
-0.14758629 0.04497405 -0.057461403 -0.045933712 -0.0054947603 0.029505268 0.00036528474 -0.02760688
-0.019469416 -0.060461443 -0.06030938 -0.07680722 0.03267901 -0.12386567 -0.031059545 -0.097971715
-0.024162997 -0.014892483 0.0005670058 0.017420722 -0.0077495226 -0.14551958 -0.029564705 -0.094179034
0.06869088 -0.08232272 0.10045175 -0.009067123 -0.02112122 -0.067292966 -0.0148624815 0.03339805
0.03823058 -0.0005563031 -0.053574137 0.07854366 -0.14294077 -0.051227316 -0.06793533 -0.07683021
0.045817893 -0.03192498 -0.021884937 0.0022237087 -0.020376723 0.03600777 0.07728207 -0.044934373
-0.077904664 0.053760204 0.10100535 -0.13508192 -0.016961887 0.030679498 -0.036622483 -0.005663167
0.030011917 0.08651976 -0.04619375 -0.08299863 -0.00056849606 -0.029985527 0.061736364 -0.066130616
-0.10996965 0.10929082 -0.00034734746 -0.031469937 -0.037539218 -0.088893384 -0.019286497 0.021501431
-0.00044865758 -0.11512967 -0.22424029 0.058580596 -0.036254678 0.03208754 -0.07046455 0.005779671
0.15031448 -0.015650552 -0.11148551 -0.08934246 0.04325443 0.01652108 -0.036357187 -0.028099364
0.0073305797 -0.053389784 -0.05665255 -0.07683251 -0.029627524 0.14542976 0.12038342 0.014690215
-0.09323135 0.16104078 -0.012525832 -0.1511824 0.011251757 -0.027190857 -0.029925 0.03722323
0.02815437 -0.06029947 0.13135716 -0.05888365 -0.07712447 -0.04348564 -0.029381024 -0.0614528

base.mlp.fc1.0.bias f4 [64]
00000000: 4e3f 5f3c 3990 42bb b86c a2bc b1b2 edbc
00000010: fb82 83bc e95c 03bd ffbe 2b3d eec5 1e3b
00000020: 9750 1c3d dd6c 56bc 21d7 3c3c 63f2 91bc
00000030: 5c21 04b9 cad0 36bc f86b 07bb 199a a33d
00000040: ad6f 89bd 3c0c eebb c292 2a3a d0b7 11bc
00000050: 3154 0d3c 0cfb 0dbc 6375 8bbc 41b3 ae3c
00000060: 2104 debc 78dd 64bb 00ec f0b9 de8c daba
00000070: 3cb7 0abc df8a 1a3d 6ae8 fd3b ab4e e63c
00000080: 8af1 3dbc bf58 9e3a b75f 94bd 662e 623c
00000090: 306f b33b 56bc 233c 31a9 93bc 7b9b 143d
000000a0: 9d96 a7bd b34b 7dba 16cd 893c 05d5 18bc
000000b0: 1e3a c73a 0622 0cbd 32fe f43c e42c 033d
000000c0: 89a6 4fbc bc06 8c3d 34a9 00bc d64a 443c
000000d0: 5c79 c4bc 8ea5 abbc 3534 01bc 7e1f 443c
000000e0: 03ba 80bc ad06 acbb 55a8 47bc 1d9e b13c
000000f0: 92dd 033d 31ae 3b3c b644 7abd 77d5 9e3c
0.013625933 -0.0029688014 -0.019827232 -0.02901587 -0.016053667 -0.032071028 0.041930195 0.0024226862
0.038162794 -0.0130874785 0.0115259 -0.017815774 -0.00012600928 -0.011158178 -0.002066372 0.07988376
-0.067107536 -0.007264642 0.0006506854 -0.008893922 0.00862603 -0.008665811 -0.017023748 0.02132571
-0.027101578 -0.0034922045 -0.000459522 -0.0016674062 -0.008466538 0.037730094 0.007748653 0.028113684
-0.011593232 0.0012080892 -0.07244819 0.013805008 0.005475901 0.009993633 -0.018025013 0.03628109
-0.08183024 -0.0009662464 0.016821425 -0.009328132 0.0015199815 -0.034212135 0.029906366 0.032025233
-0.012673982 0.06837222 -0.007852841 0.011980733 -0.02398365 -0.020952966 -0.007885982 0.011970399
-0.015713697 -0.0052498193 -0.01218613 0.02168184 0.032193728 0.011455105 -0.061100684 0.019388897

base.mlp.fc1.2.weight f4 [64]
00000000: fe64 803f 4dda 673f b118 873f 0a67 733f
00000010: 71a8 863f 1a19 8b3f a736 953f 4a04 863f
00000020: 5281 813f 4180 843f 6603 7c3f 647c 8c3f
00000030: cce9 743f 44e0 743f 8149 853f b574 863f
00000040: 1dc0 773f 673b 763f d4f9 6d3f 91b4 6b3f
00000050: 1c57 823f 8728 803f 1a93 6d3f e643 783f
00000060: 00db 833f 6130 813f e53b 793f af07 8c3f
00000070: 95bf 823f 69ef 7a3f cf07 723f 0992 823f
00000080: 241b 823f 870e 7d3f 24d9 823f 6388 843f
00000090: 6828 843f 5207 6d3f 16a2 813f 65c7 843f
000000a0: 758a 623f ef81 823f 5ee2 6f3f e612 7e3f
000000b0: 2403 863f ec9c 783f 10f6 813f 65f7 853f
000000c0: 7c58 873f 3ad8 7a3f a745 853f 36ec 763f
000000d0: 0b93 753f f6b0 803f be24 6e3f 9e75 823f
000000e0: ff23 5e3f d32e 883f 09a0 893f 8fc2 833f
000000f0: cd6c 883f 2d70 6a3f 53ac 7a3f cfe1 873f
1.003082 0.90567476 1.055441 0.950791 1.0520154 1.0867035 1.1657304 1.0470059
1.011759 1.035164 0.98442686 1.0975461 0.95669246 0.956547 1.0413057 1.0504366
0.96777517 0.9618439 0.9295933 0.920724 1.0182834 1.0012368 0.92802584 0.96978605
1.0301208 1.0092889 0.97357017 1.0939845 1.0214716 0.9802156 0.94543165 1.0200816
1.0164533 0.9885029 1.0222516 1.0354122 1.0324831 0.92589295 1.012759 1.037335
0.8849252 1.0195903 0.93704784 0.99247587 1.0469708 0.97114444 1.0153217 1.0466124
1.0573878 0.97986186 1.0411881 0.9645418 0.95927495 1.0054004 0.93024814 1.0192144
0.86773676 1.063929 1.0751964 1.029375 1.0658203 0.91577417 0.97919196 1.0615786

base.mlp.fc1.2.bias f4 [64]
00000000: 1bc6 c53c f7cc 7d3d 2f50 abbd 917a f0bc
00000010: abb4 18bd 4186 dcbd 560c 3f3c 0e95 21bc
00000020: e367 72bb d35b ffbc 1508 d0bc 2977 22bc
00000030: 1770 b93c 38b5 513d 0b8a b63c 1732 5c3c
00000040: ab43 823c 6dcf 923c 3283 8f3d 505c 2a3d
00000050: 2be5 d13c 2c09 433d bb0b 913d e076 9a3d
00000060: 5881 d3bc 722f 993c e484 0abd 9771 ddbc
00000070: cb73 7d3c 11c1 933c ebb4 7f3d 0cb5 083d
00000080: d3b1 fa3b fc76 5b3a 1aaf 17bd 59fc 1a3d
00000090: 9467 40bc 03f2 673d 6842 0abd 290d 0ebd
000000a0: a64f d23d 3558 fabc 534f 61bc e211 5abc
000000b0: a27e d43b f12f 803c d584 3ebb 2cb9 37bc
000000c0: 66d3 c8bc 479a 5b3d 7286 77bd 3c20 e93b
000000d0: 852f 003d 7046 6fbc eae1 323d 7865 3e3d
000000e0: b1e8 8a3d d862 013c df9b 29bd 48a7 0d3d
000000f0: 13cd e3bb a5fc 9e3d 259b 0cbb 560a 1dbd
0.024142316 0.061963048 -0.08364903 -0.02935532 -0.037281673 -0.107677944 0.011660656 -0.009862198
-0.003698819 -0.031171715 -0.025394479 -0.009916105 0.022636456 0.051198214 0.02228262 0.013439677
0.015901407 0.017921174 0.070074454 0.041591942 0.025621971 0.04761617 0.070823155 0.07542205
-0.025818512 0.018699382 -0.03381814 -0.027031703 0.015469502 0.018036397 0.062428396 0.033375785
0.007650593 0.0008371917 -0.037032224 0.037838314 -0.011743445 0.056627285 -0.033754736 -0.03468052
0.10269098 -0.030559639 -0.0137518225 -0.013309928 0.0064848224 0.01564786 -0.0029070873 -0.011213582
-0.024514865 0.053613927 -0.06043095 0.0071144383 0.03129532 -0.014604196 0.04367248 0.046483487
0.067826636 0.007897101 -0.041408416 0.03458336 -0.006951937 0.07763032 -0.0021454778 -0.038339935

base.mlp.fc2.0.0.weight f4 [64, 64]
00000000: f5e2 77bd fad5 a03d f5c8 153e 0b5b f93d
00000010: 8b5d d23e e473 2e3e 6746 5d3e 0f89 333e
00000020: 16a5 a7be 91eb dcbd cf67 afbd 436a 9cbd
00000030: 3526 06bf 71da 29be 0167 22bc 2bc2 35be
00000040: 7a84 07be feee c23d 1fc9 353d 0456 c4bd
00000050: ef86 43bc e78a a93d bde3 993e 282a 78be
00000060: 32cc 7c3d 163d 8e3e c599 023d 5ef5 913e
00000070: cf97 0d3e d580 bc3d 188a 163d de58 6fbd
00000080: bcb8 3c3e 1637 bdbd f939 633e 761b 47be
00000090: 7bd7 a83d 8247 973d 934e 6f3e 1759 813d
000000a0: 4cbd 1f3d 2bb1 183e 95ec a1be 34bb 743d
000000b0: 0016 383d 38d1 8cbe aaca b53d 5770 24be
000000c0: 4bb8 a73d d8e7 843c 9e18 34bd 8117 ac3c
000000d0: 4bf9 c0ba 35da 50be a065 1b3e 5910 593c
000000e0: 49e5 93bd 486f 223d 8824 9bbd 1d3b 383e
000000f0: 423a b43e a09d e1be d4b7 01bd f36a 8b3e
00000100: 32d4 84be 8528 d2bd 8c71 103e 2996 483e
00000110: 6076 fb3b 8651 f53c 8352 96be 6b6f 653d
00000120: 6721 b3bd e95a 5fbd 8b62 d1bd c995 d3bb
00000130: 3d2d 1bbe c15d 07bd ede3 76bb b71c d93d
00000140: 7bb3 86be b608 39bd fbd2 9d3e cfdc cabd
00000150: e6cf 48be 94e3 3d3e 2c0e c83e 64b7 8cbd
00000160: 9441 c83d 0263 d33d 03d6 7bbd 60d1 213e
00000170: 29c7 b5be a3f6 51be 5c74 283e fdd7 3cbe
00000180: 5852 1a3e 83c9 b03e 254f fd3c db03 6ebc
00000190: f03e 54be c974 31be 941a 033e c6ff 2ebe
000001a0: 3891 1b3e ebf5 aa3d 3490 0cbe 2dd2 1cbe
000001b0: 5b0e b7bd c12b 873a 22b0 87be 1290 6c3e
000001c0: 62ec 823c 4903 d9be ef16 7f3e 4bcf 9b3e
000001d0: ee68 1c3d 6e41 e2bc 0f9e 183e 4a23 693e
000001e0: 0aa2 a5bd c6bb 19be 0a70 7b3e 55ed 3dbe
000001f0: 3fb7 bf3d 58c4 94bd 2bc8 3ebd 58a5 a9be
00000200: 2d4b 273c 3c06 32be 07a8 323e aab1 303c
00000210: ebb3 e53d 4eac 85be 2fda 28be a376 97be
00000220: 2699 c6bc ea99 6dba 4358 183e 5caa a3bc
00000230: 09cd 82be b65f fabd c140 e93d 4613 53be
00000240: 3249 66be 0e6d 843e b7f4 d3bd e748 b9bc
00000250: 4f46 5e3e ba5a a9bd 5766 e0bc f81d 2cbd
00000260: 4142 b23e f043 ec3a 5fbb 213d c495 163d
00000270: 55c1 0fbc 8aa5 8abe 6289 453d 1b43 f5bc
00000280: 63f9 0c3e 2c47 c8bd 36b3 edbd e75b 66bd
00000290: 9738 75be 4d6e 873e e7b1 943e 1f15 bb3e
000002a0: 8324 633e 43eb 153e d1c5 bb3e 265c 59bd
000002b0: 8bf1 b93d 8d06 033e 3f87 873d f132 49be
000002c0: d3fe 383e 6699 343b 9638 84bb bb8d c1be
000002d0: 28f4 ca3e 78fe 3abe 7cf9 d43b 6b95 b23d
000002e0: 9623 28bd c0c5 a5be c945 353e 854a 94be
000002f0: f396 6dbe 98d5 2fbe 990d 7d3d a0ad 72bc
00000300: 27ce 6bbe 90c9 31be d75d 3a3d 8dbc a1be
00000310: 5151 83bd 4dfd c83c fd9c e9bd 1847 2a3d
00000320: dbe3 323e 4378 08bd 26a9 0ebe 215c d8bd
00000330: c6ce 2f3d d767 4fbe b7ad c53d 5fa3 343e
00000340: ae45 02bc e869 efbd 19ef c63d 65ba 0ebe
00000350: 46b1 083e 795f 4fbd 5561 4d3e afa0 823e
00000360: 4244 b5bc 9762 56be 11d8 483e e0a2 8a3e
00000370: 9a83 243e fb65 90be 193e 703e 47d9 8bbe
00000380: 7953 ef3d 13f5 3d3e f09e dfbd 75b3 f5bd
00000390: 1df9 113e 153c 2a3e a6fd 443d 8e72 353e
000003a0: c9ca 4dbe a28c 45be 43a9 8e3e 3fac 3c3e
000003b0: 587f debe 1e8f b13d c939 c03d 8625 053c
000003c0: 5f8f 863e 3f03 463d 562b 0fbe ca81 53be
000003d0: c83f 82be 7f81 82be e3e3 293e b012 09bf
000003e0: 7710 babd 46bd 263e 1ddb 143e e40a 22be
000003f0: 7330 833d a902 33be 25f4 68be 7bc5 1cbe
-0.060519177 0.07853313 0.1462744 0.12175568 0.41086993 0.17036396 0.21608888 0.17532752
-0.32743138 -0.10787118 -0.08564722 -0.07637455 -0.5240205 -0.16587235 -0.009912253 -0.1774985
-0.1323413 0.095182404 0.044381257 -0.09586719 -0.011934026 0.08278447 0.30056563 -0.24234831
0.061718173 0.2778098 0.031884927 0.28507513 0.13827442 0.0920426 0.03675279 -0.05843436
0.18429846 -0.092390224 0.22190084 -0.1944407 0.08244225 0.07386686 0.23369817 0.06315821
0.038998887 0.14911334 -0.3162581 0.059748843 0.044942856 -0.2750337 0.08876546 -0.16058479
0.08189448 0.016223833 -0.04396879 0.021007301 -0.0014722733 -0.2039574 0.15175486 0.0132485265
-0.07221467 0.039656907 -0.07575327 0.179913 0.35200697 -0.4406557 -0.031669453 0.27230033
-0.25943142 -0.10261635 0.14105815 0.19588532 0.0076740235 0.0299461 -0.29359826 0.05601446
-0.08746605 -0.054530058 -0.10223874 -0.0064570648 -0.15153976 -0.033048395 -0.0037672475 0.1060118
-0.26308808 -0.045174323 0.30825028 -0.09905397 -0.19610557 0.18543845 0.39073312 -0.068709165
0.09778133 0.103216186 -0.061483394 0.15802526 -0.3550351 -0.2050424 0.16450638 -0.18441768
0.15070474 0.3452874 0.030921528 -0.014527286 -0.20727134 -0.17329706 0.12803108 -0.17089757
0.15192115 0.083476864 -0.13726884 -0.1531455 -0.08938285 0.0010312722 -0.26501566 0.23101833
0.015981857 -0.4238532 0.24911092 0.3043159 0.038186006 -0.02761909 0.14904045 0.22767368
-0.08087547 -0.15013036 0.24554458 -0.18547566 0.09361123 -0.07264012 -0.046577614 -0.3313396
0.010210794 -0.1738519 0.1744691 0.010784546 0.11215957 -0.2610802 -0.1648948 -0.295827
-0.024242949 -0.00090637675 0.14877419 -0.019978695 -0.25547054 -0.12225287 0.11389304 -0.20612821
-0.2248886 0.25864452 -0.1034941 -0.02261777 0.21706508 -0.08269258 -0.02739255 -0.042020768
0.34816173 0.0018025618 0.03948533 0.03676392 -0.008774121 -0.2707942 0.04822672 -0.029939225
0.13767008 -0.097792 -0.116064474 -0.05623999 -0.23947369 0.2645134 0.2904198 0.36539552
0.22181897 0.14640526 0.3667436 -0.053066395 0.09079274 0.12795468 0.06617593 -0.19648339
0.18065958 0.0027557253 -0.004035066 -0.37803444 0.396394 -0.18261135 0.0064994674 0.087199055
-0.041049562 -0.32377434 0.17702402 -0.28963104 -0.23202114 -0.17171323 0.061780546 -0.014811903
-0.2302786 -0.17362046 0.04549965 -0.31589165 -0.06411994 0.024534846 -0.11406896 0.041571707
0.17469732 -0.033317816 -0.13931713 -0.10564447 0.042921804 -0.20254456 0.09652274 0.17640446
-0.007951183 -0.11690122 0.09713573 -0.13938291 0.13348874 -0.05062816 0.2005666 0.25513217
-0.022127274 -0.20936047 0.19613673 0.2707739 0.16065827 -0.28202805 0.23461188 -0.27314207
0.11685843 0.1855052 -0.10918987 -0.11997119 0.14255185 0.16624482 0.04809346 0.1771948
-0.20096888 -0.19291928 0.2786351 0.18425082 -0.4345653 0.086698756 0.09386022 0.008126622
0.26281258 0.04834294 -0.13981375 -0.2065498 -0.25439286 -0.25489423 0.16590838 -0.5354414
-0.09085172 0.1628314 0.1453671 -0.15824467 0.06405725 -0.17481484 -0.22749384 -0.15309708

base.mlp.fc2.0.0.bias f4 [64]
00000000: 9750 f8bd 7d71 89bd 3058 a9bc 9cd6 afbc
00000010: c2fb 1c3d 1f84 1fbc 967c f3bb c8b0 22bd
00000020: 724b 293d d2b8 733b 9b8d 34bc 759d 863d
00000030: df6c 96bc 6819 c73d f807 b2bd 52a1 8339
00000040: ac0b e3bc 5f6b 4dbc 5922 f0bc 6130 a63c
00000050: 9a69 3bbc 1e27 ef3c 85ef 8fbc 6dac e3bc
00000060: 418f d0bd d6e5 e0bc 8460 1abc 211d 803d
00000070: 4326 86bb cb70 b1bc c3c1 1cbd 357c 973c
00000080: bcac 883c 5887 12bd ef37 0abd 53d2 32bd
00000090: 1479 30bd 2a52 bfba e53a 413d 307d 863d
000000a0: c2c3 7ebb 61ba aabd 16ef 073d a60d c2bb
000000b0: bbc2 69bc 13a9 dd3c d2c9 f1bc 791a 4cbc
000000c0: 087e 75b9 1a58 68bd 2427 2e3c 00ca 78bd
000000d0: b4fb 5d3b 8534 9dbd f4ea 953c ae02 d13c
000000e0: db67 d2bc 7a4a 62bd 56ed 46bc 8b76 04bc
000000f0: 67c5 483d 20c3 b83c e869 a9bd 16fa 263d
-0.12124746 -0.06711099 -0.020671934 -0.021464638 0.038326032 -0.00973609 -0.0074306233 -0.039719373
0.041331716 0.003718902 -0.0110200895 0.06573001 -0.01836246 0.09721643 -0.08692926 0.0002510646
-0.027715527 -0.012537806 -0.029313253 0.02028674 -0.011438752 0.029193457 -0.017570267 -0.02779218
-0.101835735 -0.027453344 -0.009422425 0.06255556 -0.0040939166 -0.02166023 -0.038270723 0.018491844
0.016683929 -0.035773605 -0.03374475 -0.043657612 -0.04308422 -0.001459663 0.047175307 0.06566846
-0.0038874005 -0.0833633 0.033186994 -0.005922037 -0.014267619 0.02705816 -0.02951518 -0.012457483
-0.00023411971 -0.056724645 0.010629449 -0.060739517 0.003387195 -0.07676033 0.018300511 0.025513973
-0.025684288 -0.055246808 -0.012141546 -0.0080849035 0.049016383 0.02255398 -0.08272153 0.040765844

base.mlp.fc2.0.2.weight f4 [64]
00000000: e87b 903f 4678 a73f 8f54 983f 7c39 8b3f
00000010: c15d a83f 8ed2 9b3f e113 9d3f a3d2 933f
00000020: b2a2 a13f f09f aa3f e92d 993f 1607 973f
00000030: 548a 9d3f 857c a03f a5c5 963f 87df 963f
00000040: 97ea ad3f b859 973f 5226 9a3f 9855 943f
00000050: 24c9 9a3f ca7f 9d3f 9faf 8a3f 4f3e 973f
00000060: f0ac 943f 420f a03f 4f6c 9c3f 0555 a33f
00000070: e439 953f e661 983f 1bf8 993f 4448 993f
00000080: 0015 913f d49d 883f cfdc a43f 205c ab3f
00000090: a1cd 963f 1ffe 9a3f 127f c83f 8d61 9a3f
000000a0: 3a9c 9a3f aec8 983f 80c7 973f 5e1e 9b3f
000000b0: 9b04 9c3f e0de 943f 17da 963f 446f 993f
000000c0: 7905 983f 706d 8e3f 3d8f 8c3f 2d1c 933f
000000d0: 6669 9b3f 2e0f 993f 724e a33f 86ac 913f
000000e0: 86be 933f 4832 9e3f 309d a03f 6879 9f3f
000000f0: 20fc 903f 321d 8c3f 5082 993f dc30 ae3f
1.1287813 1.308358 1.1900805 1.0876918 1.3153611 1.2173631 1.2271692 1.1548656
1.2627776 1.3330059 1.1967136 1.1799037 1.2307839 1.2538 1.1779066 1.1786965
1.3587216 1.1824255 1.2042944 1.1588621 1.2092633 1.2304623 1.0834845 1.181589
1.1615276 1.2504656 1.2220553 1.2760321 1.1658292 1.1904876 1.2028841 1.1975179
1.1334534 1.0673165 1.2879885 1.3387489 1.1781503 1.2108802 1.5663779 1.206102
1.2078927 1.1936243 1.1857758 1.2118642 1.2188905 1.1630516 1.1785306 1.198708
1.187667 1.1127148 1.0981213 1.1492974 1.214154 1.1957757 1.2758315 1.1380775
1.1542518 1.2359095 1.254797 1.2458925 1.1326942 1.094641 1.1992893 1.3608661

base.mlp.fc2.0.2.bias f4 [64]
00000000: 3428 f6bd 34f6 91be 0747 08be ef64 b0bd
00000010: 8778 f43d c21c 48bd 7f04 043d c2a7 75bd
00000020: 2feb 2a3e 59cf 023e 3dc9 993d 42c1 d73d
00000030: 9171 e5bc 92f6 583c ea48 75be 7627 dbbd
00000040: 2ac4 583d 31ea 84bd c95c 97bc f7d1 333d
00000050: d895 013d 32c8 40bd 0b17 e1bd bd5c 26bd
00000060: f256 76be 21a8 4dbe dd95 863a 594b bbbd
00000070: 5a88 9ebd cf84 233d 6b9b 8c3c 747f a2bc
00000080: 102e f53d 8bc5 abbd dc5e 11be f80d 59be
00000090: 0511 84bd aa64 313e 9306 2f3d e1a0 7f3d
000000a0: a180 8f3d 3e68 3bbe a195 f13c fc6d aabd
000000b0: 5a6c 29be 0d4d fbbc e29e 2f3d b2fa efbb
000000c0: 08af c33b 3cda e2bd da23 e83d 8b7e afbd
000000d0: 006e 22be cc40 72be 4b9f 9ebd 21a6 c63d
000000e0: 2ebe 24be 3fd3 7abe 0d68 7c3c 50bd ba3d
000000f0: dcd1 1d3d 7f6d 703d 6ce7 03be 5042 ac3d
-0.12019387 -0.2850815 -0.13308345 -0.086130016 0.11937051 -0.04885555 0.03223085 -0.05997444
0.16691278 0.1277441 0.07509086 0.10534908 -0.028008254 0.013242381 -0.23953596 -0.10700886
0.05292145 -0.06489981 -0.01847686 0.04390141 0.031637043 -0.04706592 -0.10990723 -0.040615786
-0.24056605 -0.20083667 0.0010268051 -0.09145231 -0.07740851 0.039921578 0.017163953 -0.019836165
0.11971676 -0.08387288 -0.14196342 -0.21196735 -0.06448559 0.17323557 0.04273088 0.062409285
0.07006956 -0.18301484 0.029490294 -0.08321759 -0.16545239 -0.03067639 0.04287613 -0.0073235864
0.005971793 -0.11076781 0.11334963 -0.08569058 -0.15862274 -0.2365753 -0.077452265 0.09699655
-0.16088173 -0.24494646 0.015405667 0.0911814 0.038530216 0.058698174 -0.12881249 0.084110856

act.linear.weight f4 [25, 64]
00000000: e1de 7d3a 5355 0fba faec 9ab9 e90a b2ba
00000010: a138 98ba 9aeb 0bba c667 44b9 c40a 2dbb
00000020: a5d7 b739 2cef 823a 02f5 843a 6722 8dba
00000030: 93ac bb3a a934 09bb eedf 3bbb 0e78 54ba
00000040: 5b94 623a bb6b 2fba f323 6f3a 2057 973a
00000050: db81 31ba ce91 90b9 d61c 9839 6622 c93a
00000060: ce66 d73a 908f 9439 91b7 97b9 e231 5438
00000070: c04a adba ca44 853a 733b 883a 629a 1eba
00000080: 4f39 1639 8e24 c2b9 0ab8 eeb9 92a5 fb3a
00000090: 0e73 c63a afe5 083a 3250 07b9 de6b 1bba
000000a0: 5d55 c5ba 4a4e 183a 816e 9a3a 7b78 f13a
000000b0: 4bdf 673a 37b1 d6b9 4bba 89b8 cdc8 153b
000000c0: ecbf dc3a adf3 1aba 5b7e 8eba a423 38b6
000000d0: 806b 9eb9 f415 02ba 364c 07bb a477 403b
000000e0: 909f 31ba a58e 9a3a da64 99ba f596 06bb
000000f0: 87ee 043a d5c6 3cba 8390 90b8 4501 4dbb
00000100: 753c 673d e2d2 c33d 809c 0c3e 81d8 663d
00000110: 34ee 0d3b 858f cabd 67be d63c f328 933c
00000120: f2dc 6cbd d621 1dbe 1e40 cbbc ac3f 913d
00000130: d88d 09bd 7807 abbd 0d29 033e 55d8 a23c
00000140: 6803 94bd ff82 5e3d 210c 9cbd e519 72bc
00000150: d64a 803d 9193 a4bd e1ff 8d3d 93c2 02bd
00000160: 3b3c ad3d fa13 fa3d 746a 1e3d de87 ac3c
00000170: 9bd2 af3d c7c4 143e 5b1e 8b3d a8a5 153e
00000180: e226 9a3d 879f 63bc 9221 10bb 6837 ff3d
00000190: 0e9e 6abc 5100 26be 450f 78bd 333b d0bc
000001a0: 07f3 54bd 78e2 f73d d341 ebbd 266e 4ebd
000001b0: 91c1 a23c d136 5e3d 8e4a b53c 31f0 c7bb
000001c0: b753 a73c 6430 f73d 8737 d4bd 8a1b 813b
000001d0: 34ce cc3d 6ae4 9b3d f981 ad3d 9918 a9bd
000001e0: e42f f13d 27de 003e 92cf 0fbe abc1 01be
000001f0: 515a fabc 21c8 4a39 dc72 673d 43b2 d4ba
00000200: f708 8dbd 2680 083c 077e ba3a 9f83 d4bc
00000210: efcb 873d f6f6 b23c 18eb 953d 7b9c debd
00000220: e0d5 9fb8 8b4a 023e 85f3 9bbd 5918 e8bd
00000230: 6754 74bd 0ec3 39be acee b939 7376 36be
00000240: 7133 b4bd c814 05bd be07 623c 433d a03d
00000250: 1ec5 22bd 4b2b 35bd 02be 243e 63f8 bdbd
00000260: 4374 853c 6daa 173e cbb9 26be 8398 0bbe
00000270: 0b2b 42be 2ce6 8a3d 1410 3b3d b7e6 50bc
00000280: b500 bfbc a3cb 31bb 5460 08bd 176f cc3b
00000290: 9494 953b 0dce 223e 5d26 9a3d 52d1 4e3d
000002a0: 01c3 763e c31a 293d 9aca e9bd 3bc0 19bd
000002b0: 9566 f5bd 7ade 1abd a9fc 80bc 6cb9 97bd
000002c0: 3ab7 583d 45f8 733d 5129 ccbc 1218 193d
000002d0: 6d16 9e3c 06be e73c e4f5 ce3c 746a 1bbe
000002e0: 7993 153d 70c8 96bc db08 21bd d5fa f43d
000002f0: c94b 753d 3d66 903d 083d 7ebc 13bd e23d
00000300: 7737 0e3e d2d8 6c3d 4919 c73d bfd8 a53d
00000310: bdd5 5f3d f9de 40bd a9d0 863d 8741 303e
00000320: 3c93 bbbd 7d6d 26be 8b9b 223d 1a26 043d
00000330: a0f8 b13c e333 7a3d 1650 943d 9c33 573e
00000340: f86a cfbc bb49 7c3d 8433 80bd 749b 403d
00000350: 8581 1ebd 0e60 22bd 60ae 4f3c dca5 4bbb
00000360: a020 ff3d f94f 8cbd 9ad0 233d e5e6 df3c
00000370: cb61 fabd 616e 623e 670d da3c 1af2 a03d
00000380: ecfa b9bd 5a88 02be d867 f2ba e349 1a3e
00000390: 74ac 1a3c 3100 92bd cb46 18bc c775 363d
000003a0: ba11 aa3b 10ff b53d 7ee9 b7bc cd91 a2bd
000003b0: 3872 eabd 355c 9dbd 7ff6 293c 3cf2 e4bd
000003c0: 7717 9abc bb9c e23d 475f 943d 7e63 8e3d
000003d0: f926 c43d 9db7 6e3d 84d1 8a3d d17c edbd
000003e0: b635 f63d d229 c23d d55b 8ebc 7054 abbd
000003f0: 369a ce3d e8a7 c8bc d79f 943d 2c48 7abc
0.00096843956 -0.00054677314 -0.0002954973 -0.0013583574 -0.0011613556 -0.00053375366 -0.00018730675 -0.0026404122
0.00035065148 0.0009989492 0.0010143819 -0.0010767699 0.0014318399 -0.002093593 -0.0028667408 -0.0008105048
0.00086433225 -0.00066917733 0.00091224833 0.0011546351 -0.0006771364 -0.00027574453 0.00029013184 0.0015345335
0.0016433836 0.00028335722 -0.00028937732 5.0591196e-05 -0.001322113 0.0010167595 0.0010393694 -0.00060502265
0.00014326464 -0.000370298 -0.00045532017 0.0019199124 0.001514049 0.0005222214 -0.00012904478 -0.0005928854
-0.0015055347 0.0005810006 0.00117822 0.0018422747 0.0008845224 -0.00040949296 -6.567369e-05 0.0022855282
0.0016841865 -0.00059109443 -0.0010871397 -2.7438882e-06 -0.00030216202 -0.0004962378 -0.002064479 0.0029368186
-0.0006775791 0.0011791779 -0.001170303 -0.0020536755 0.0005070944 -0.0007201259 -6.8933725e-05 -0.0031281274
0.05645414 0.09561707 0.13731575 0.056358818 0.0021656873 -0.098906554 0.026213838 0.017963862
-0.057827897 -0.15344939 -0.024810847 0.070922226 -0.03358254 -0.08351034 0.12808628 0.019878546
-0.07227212 0.054324146 -0.07619501 -0.014776682 0.06264274 -0.080359586 0.06933571 -0.03192384
0.08458754 0.122108415 0.03867574 0.02106088 0.08585092 0.1452819 0.06792899 0.14613974
0.075269476 -0.013893015 -0.0021992666 0.1246174 -0.01431991 -0.16211058 -0.060561437 -0.025418853
-0.05198958 0.12103742 -0.11487164 -0.050398014 0.01986769 0.054251496 0.022130277 -0.006101631
0.02042566 0.12069777 -0.103621535 0.0039400505 0.100002676 0.07611926 0.08472056 -0.08256645
0.117767125 0.12584744 -0.14044026 -0.12671535 -0.030560644 0.00019338775 0.056506023 -0.0016227443
-0.068864755 0.008331334 0.0014228233 -0.025941668 0.06630694 0.021846276 0.07320231 -0.1086969
-7.621548e-05 0.12723748 -0.07614807 -0.11332769 -0.059650805 -0.18140814 0.00035463774 -0.17818622
-0.08798874 -0.03249052 0.013795791 0.07824185 -0.039738767 -0.04423074 0.16088107 -0.09275892
0.01629079 0.14811106 -0.16281812 -0.13632397 -0.18961732 0.06782183 0.04566963 -0.012750319
-0.023315767 -0.0027129434 -0.03329499 0.006238829 0.004564831 0.15898915 0.075268485 0.050492592
0.24097826 0.041285288 -0.11415596 -0.03753684 -0.119824566 -0.037809826 -0.015745478 -0.07408413
0.052909113 0.05956294 -0.024922045 0.03737647 0.019297803 0.028288852 0.025263734 -0.15177327
0.036517594 -0.018406123 -0.039315086 0.11961905 0.059886727 0.070507504 -0.015517481 0.11071219
0.13888346 0.057823963 0.0972162 0.08097982 0.054647196 -0.047087643 0.065827675 0.17212497
-0.09158942 -0.16252704 0.03969912 0.0322629 0.021724999 0.06108464 0.07241838 0.21015781
-0.025319561 0.061593752 -0.06259826 0.04702325 -0.03869774 -0.039642386 0.012675852 -0.0031074202
0.124573946 -0.06851191 0.03999386 0.027331779 -0.12225684 0.22112419 0.026617719 0.07858677
-0.09081063 -0.12747326 -0.0018494083 0.15067248 0.00944053 -0.07128943 -0.009294222 0.044545915
0.0051901015 0.0888654 -0.022450205 -0.079379655 -0.11447567 -0.07683603 0.010373711 -0.11179015
-0.018810017 0.1106505 0.07244735 0.069525704 0.09577746 0.058280576 0.06778243 -0.115960725
0.12021963 0.09480633 -0.017377773 -0.083657146 0.10088007 -0.024494126 0.072570495 -0.015275996

act.linear.bias f4 [25]
00000000: 0000 0000 3a7f fdbd b200 82bc 3737 e1bd
00000010: cd78 f1bd f81d 843d 88ea e4bb 19e8 e7bd
00000020: 00cc b5bd 1f74 723e 80e2 eb3c f9fd 19be
00000030: 77fb dc3c 4ddc efba 81fc 5dbe 5e3d 8a3d
00000040: c8ca dfbc c12b d53c a707 22be 4c98 183e
00000050: ab24 f3bc 0485 9bbc 6485 9b3c 5040 83be
00000060: 1e40 833e
0.0 -0.12377782 -0.015869472 -0.109968595 -0.11790619 0.064510286 -0.006985966 -0.11323566
-0.088768005 0.23677109 0.028794527 -0.15038289 0.026975377 -0.0018299908 -0.21678354 0.06749986
-0.027318373 0.02602184 -0.15823232 0.14901847 -0.02968057 -0.018984325 0.018984504 -0.25635004
0.25634855
