save_dir/actor_good_2007.pt (torch, 138962 bytes, 12 tensors)

base.feature_norm.weight f4 [420]
00000000: 8a47 a73f ccf8 733f dbb9 683f c966 a53f
00000010: d809 943f 6e34 eb3e 2ede 3b3f b2a0 243f
00000020: 6166 2c3f c858 2f3f 8236 573f 1af5 893f
00000030: b1ff 833f d7a9 353f 16d2 753f 331a 953f
00000040: 70dd 9d3f bf73 c43e 679b 5e3f c1bc 013f
00000050: 5dc0 9c3f 91f2 a43f 1dd9 893f 3c86 913f
00000060: bdfe 0c3f 76de 5b3f 9dc0 703f 035b 813f
00000070: 5740 6a3f 7156 453f 05f7 843f 65d0 6d3f
00000080: 0a2a ad3f edb4 993f de2b 5b3f efc6 7d3f
00000090: 1189 393f 3d4b 9d3f 5513 2c3f 8e45 803f
000000a0: a4f7 3f3f 737a 443f ec26 743f 8d99 403f
000000b0: a1a1 603f 4a6b 683f 1555 7a3f 8ca8 b13f
000000c0: 5209 653f dab5 a43f 752f 253f 9cb9 4b3f
000000d0: 3588 153f cc78 3d3f 4142 6f3f f52a 3f3f
000000e0: 9cc6 3f3f 9568 3d3f c84a 7a3f d7b9 573f
000000f0: 3c2e 7c3f b372 2b3f 40b8 673f a720 973f
00000100: 3c18 963f c657 2f3f d964 4c3f be6a 383f
00000110: 80f1 d03e 1407 df3e 0047 513f c900 2a3f
00000120: 8a90 393f 5387 4e3f 3690 1b3f bde3 513f
00000130: 7e19 353f 61e5 3f3f f967 643f dd76 803f
00000140: 2a41 0c3f 0ef0 2a3f c34e 1b3f 69c1 273f
00000150: 4daf 103f 5876 a43f 2d30 6d3f 9d40 c53f
00000160: fb1d 4e3f 48f9 2b3f 4e6d 2d3f 362f 243f
00000170: f6e6 203f b6ce 6a3f 6497 893f 019c 5c3f
00000180: 2bcc 893f 8268 6b3f f3d4 863f 38a2 943f
00000190: faee 423f b67c 903f d7de 803f 9dd2 9a3f
000001a0: a511 a43f e639 9c3f fae1 923f 72d2 9b3f
000001b0: e68e 4c3f ac7f 803f f45b 523f 9e48 e43e
000001c0: 99b8 323f 45d1 2c3f 6b2c 713f 48ef e23e
000001d0: 5f75 273f 275d 2a3f 0cac 583f bf72 923f
000001e0: f4f7 903f aa10 4c3f 4e30 783f 3e55 2e3f
000001f0: ccbf 943e fe2f 433f 92e8 113f 8632 d03e
00000200: 11ff 3a3f e840 f03e ee8d 313f d68e 463f
00000210: 63c3 043f 2ecf 823f 7515 3f3f 97ab 833f
00000220: 6f3b 6d3f fb81 9c3f 17f6 933e f102 443f
00000230: 4f87 2f3f 72c9 3a3f e597 633f c373 523f
00000240: 894b 803f cb08 823f a946 683f e607 6f3f
00000250: 88fe 7d3f cda4 4c3f 53bd 593f 6d55 4f3f
00000260: 9edd 7c3f 57a7 a43f 67f3 ab3f 1b1a 8f3f
00000270: 675c d63e b7fd 903f b303 b33f 49df be3f
00000280: b514 ae3f 20c5 cb3f a80d bd3f cdb6 853f
00000290: 0bfc 9a3f a2c8 853f 9d40 bf3f 7560 bd3f
000002a0: d2fd 8c3f 8b34 293f 718b ae3f c9d5 293f
000002b0: ed53 323f 50f5 1d3f aa1a 2a3f 71cf 3f3f
000002c0: bedb 9f3f 6ec6 ef3e cc44 5d3f 1bcb a63f
000002d0: c653 8e3f fc82 a23f f2ff 8f3f 9cc8 593f
000002e0: e0b5 823f 14af 803f d86e 953f 3481 563f
000002f0: 44f4 433f fb8e 913f d969 9e3f d7df 983f
00000300: 3e65 463f b394 713f 846f 323f dc80 783f
00000310: 2fa7 833f 7ae3 773f f134 873f 10c3 453f
00000320: 9188 943f 3ec7 8d3f e17a 953f 292a 293f
00000330: f864 4a3f be5f 3f3f 1a84 463f bb5b 6c3f
00000340: 38e5 163f f7be 5d3f cc00 083f 829f 383f
00000350: 483e 5d3f 0700 6a3f ebfc 203f 6594 263f
00000360: b2e1 a93f cce8 7e3f cd20 4a3f c17f 603f
00000370: 3ce4 723f d7b1 2d3f 6802 753f d049 873f
00000380: 7963 693f be3d 5f3f 741c 943f f790 823f
00000390: 6acb a63f 0165 9f3f 0409 7f3f 5e56 903f
000003a0: 8742 b43f d320 723f 707e 953f 8e78 8d3f
000003b0: f633 6d3f 6e85 573f 7cd4 903f 25d1 b03f
000003c0: 5646 593f e59f 1b3f 4d3c ba3f 5cfb cc3f
000003d0: 6b3a cd3f 90a5 cb3f c387 483f 5e57 293f
000003e0: 978a 833f a0ec 323f f597 023f 07d0 953f
000003f0: 24b1 5a3f 3fc9 b53f 170e 3c3f a344 2a3f
1.3068707 0.9530151 0.9090859 1.2921993 1.1565504 0.45938438 0.73385894 0.643077
0.6734372 0.68494844 0.8406755 1.0777924 1.0312406 0.7096228 0.9602369 1.164862
1.2333202 0.38369557 0.86955875 0.5067864 1.2246205 1.2886525 1.0769383 1.136909
0.550762 0.85886323 0.94043905 1.01059 0.91504425 0.77085024 1.0387884 0.9289611
1.3528454 1.2008339 0.8561381 0.99131674 0.7247477 1.2288586 0.67217 1.0021226
0.74987245 0.7674934 0.9537189 0.752343 0.87746626 0.9078871 0.97786075 1.3879561
0.89467347 1.2867997 0.6452554 0.7958009 0.5841096 0.74012446 0.9346047 0.7467492
0.7491243 0.73987705 0.9777036 0.84267944 0.9850805 0.6697189 0.9051552 1.180684
1.1726146 0.68493307 0.7984138 0.72037876 0.4080925 0.43560088 0.8174896 0.6640745
0.72486174 0.8067524 0.60766923 0.81988126 0.70742023 0.7495938 0.8922115 1.0036274
0.5478693 0.66772544 0.60667056 0.65529495 0.5651749 1.2848616 0.92651635 1.5410343
0.80514497 0.6717725 0.6774491 0.6413454 0.6285242 0.91721666 1.0749326 0.86175543
1.0765432 0.9195634 1.0533737 1.1612005 0.761459 1.1288059 1.0068005 1.2095524
1.2817885 1.2205169 1.1475213 1.2173598 0.79905546 1.0038962 0.8217156 0.44586653
0.69812924 0.6750682 0.942084 0.44323182 0.6541347 0.6654839 0.8463752 1.1441268
1.1325669 0.7971293 0.9694871 0.6809882 0.2905258 0.76245105 0.569955 0.40663546
0.7304545 0.4692452 0.6935719 0.775617 0.51860636 1.0219476 0.74642116 1.028674
0.92668813 1.2227167 0.2889869 0.7656699 0.6856584 0.7296363 0.8890365 0.8220789
1.0023052 1.0158933 0.9073282 0.9337143 0.9921651 0.79938966 0.8505451 0.80989724
0.9877566 1.2863568 1.3433656 1.1179842 0.41867372 1.1327428 1.3985504 1.4911891
1.3600069 1.5919533 1.4769793 1.0446411 1.2108167 1.0451853 1.4941593 1.4795061
1.101496 0.660958 1.3636304 0.66341835 0.6965931 0.6170244 0.66446936 0.74925905
1.2488935 0.46831077 0.864331 1.3030733 1.1119316 1.2696223 1.1249983 0.8507173
1.0211754 1.005343 1.1674452 0.837909 0.76544595 1.1371759 1.2376052 1.194331
0.77498233 0.9436752 0.6970141 0.97071624 1.0285395 0.96831477 1.0563031 0.77250767
1.1604177 1.1076429 1.1678125 0.66079956 0.79060316 0.74755466 0.7754532 0.9232747
0.5894351 0.86619514 0.53126216 0.7211839 0.8642316 0.9140629 0.6288592 0.6507018
1.3272002 0.9957397 0.789563 0.87694937 0.9487951 0.6784949 0.95706797 1.0569401
0.9116741 0.87203586 1.1571183 1.020049 1.3030827 1.2452699 0.9962313 1.1276357
1.4082803 0.94581336 1.1679211 1.1052415 0.9265741 0.8418797 1.1314845 1.3813826
0.8487295 0.60790855 1.4549652 1.6014209 1.6033453 1.5909901 0.78332156 0.66148937
1.0276669 0.6989231 0.5101312 1.170411 0.85426545 1.420204 0.73459 0.6651098

base.feature_norm.bias f4 [420]
00000000: 67d4 493d 86cc 5d3b ba56 1abc fc37 26be
00000010: d3ca de3b 5d92 1dbf 1755 8d3e cdc4 3a3e
00000020: feb5 853e b870 7d3e f1c2 863e ea32 9d3e
00000030: 04bd 34bc 98ff 72bc 42ca b33d a482 e5bb
00000040: e5a6 6d3d dcb8 0bbf 9902 563e 7db7 bcbe
00000050: 644d aabe f712 35be 114f 55be cbe7 f7bc
00000060: 4cbf 09bf 1cde 1b3e c376 1b3e 7208 403e
00000070: d468 cb3d 9ff7 ae3e 5825 a13e b28f 6b3e
00000080: 1b17 abbd 661b 803e fd17 273d 452d f3bb
00000090: ea5b d0bc 13a2 41bd 6121 df3d 29ea 433b
000000a0: 07e9 8a3e e855 403e 8030 053e e53c c23e
000000b0: 7890 923e fe45 153e 6918 b23e 11d8 833d
000000c0: c5d2 b73e 1ea4 143e 5cd5 253d 7fbe 283e
000000d0: 5fe4 a53d f608 543e 3235 403e 0435 ab3e
000000e0: 9276 7d3e 5f7b 503e d22f b93e d10b 8c3e
000000f0: 2427 803e 8693 963e 21e7 693e 1eb1 533e
00000100: fc0f ee3d 462f 093e 3990 a83e cdbe 8e3e
00000110: 75da 6a3e d7b8 c03d 94ff 953e 55ca 803e
00000120: e44a 843e cfe4 ab3e 65ae 9f3e 6a44 7b3e
00000130: a916 8d3e b9de 8c3e f6e5 b33e 2975 783e
00000140: 7499 8b3e f16c 5f3e 3514 7b3e fede 973e
00000150: 14a6 a83e 0766 b2bd b365 f03d 30b0 c7bd
00000160: 113b 5e3e 930a 873e 91ef 6b3e 8315 8c3e
00000170: 7caf 7d3e 57d4 4e3d 4cf6 1ebd 818e d43d
00000180: 9428 f13b 6dab bcbd 6fac 2ebe fd89 debd
00000190: 5786 44be 8f6a 62be b370 50be 7314 77be
000001a0: b50e 3abe c051 273d 2233 db3d 9dc4 9fbd
000001b0: 01c3 2fbe fe37 d33d ad52 003e 75b1 383e
000001c0: f54b c33b 2af5 16be 4c24 40be 9e26 2ebe
000001d0: dbf3 8abe b786 90be fecb 113e a9ba 37bc
000001e0: 4d52 c23d a023 643e 4ec6 103e 02bc 053d
000001f0: 39d3 93bd 7484 033e bd03 5c3e 8c13 443e
00000200: 05f9 68bd 4053 70be 17cd dfbd 4d3d 89be
00000210: 232c e4be 7b9e f13d 0ede 273e 3935 4ebd
00000220: 4249 573e 79c6 163d d884 663e 1ace 163e
00000230: 9c91 23bd e164 8c3e 8907 443e 646c a0be
00000240: 52c5 133d f0ef 0fbe ed49 10be 2d24 aabd
00000250: da33 bb3d e8f3 3e3d b056 1e3e 8520 423e
00000260: 9a71 463e 34ca fc3d 850a 3d3e 5eb0 463e
00000270: a8ae 03bc f593 563e d755 033d 6e43 3d3c
00000280: 60b5 e33b a07a 6e3c e44e 463d 99da 21be
00000290: 91c6 04be 6570 f1bd efca d4be 627e 28be
000002a0: bc1d 033d 7864 a33e 7752 b3bd cfdc 663e
000002b0: 788a 5a3e d304 a63e 0f98 583e 8dc5 9d3e
000002c0: 5322 cc3d ce3f 363e 1bc1 803e 780b be3d
000002d0: 463a 12be d6a0 0dbd b9d3 c63c 51d0 7fbe
000002e0: 9cf0 21be a0b2 6fbe 9d37 25bd 2e2e 10be
000002f0: 7e3f babd 873d 32bd 460c b0bd 41b6 e73d
00000300: 53b8 823e 357a 8f3e 3f0e 523e 69e5 c93d
00000310: 724a 113e cb02 d53d a056 073d e8a3 d63d
00000320: c7a9 4d3c 9a7e fdbd 6199 a33d d799 ac3d
00000330: 4af1 6f3d 7f3d 173e 1ef9 a43e 62c4 b13d
00000340: 781c 7a3e 4338 813e 6afa 8a3e faf6 703e
00000350: 6b44 243e 8a98 8d3e 125f 073e 63c9 293e
00000360: 5734 203e 131f 153e 7384 803e 6d7d a63e
00000370: 2243 a63e f536 ad3e a4ea 983e 39c7 0e3e
00000380: 59a4 e13e cecc a13e fec5 6c3e bd10 b43e
00000390: a4f2 463e 651a 023e 538d ef3d e20d 473e
000003a0: e8d1 283e be13 803e eeb2 503e d5f9 793e
000003b0: 310e 803e a045 d93e 22d9 6c3e 7ce4 613e
000003c0: 5fad b93e fc64 d53e 88c1 383e 1450 fd3d
000003d0: f921 053e df0a 1b3e 0224 333e 75a6 ee3d
000003e0: 6b22 093e d124 dd3d a53b 823d 336b 0b3e
000003f0: eeac cf3d 8be1 c63c fb34 843e 3559 803e
0.04927483 0.003384383 -0.009420091 -0.16232294 0.006799081 -0.6155146 0.2760398 0.18239136
0.26115412 0.2475003 0.26320603 0.30702907 -0.011031393 -0.014831446 0.08778812 -0.007004099
0.05802049 -0.5457895 0.20899428 -0.3685874 -0.3326217 -0.17683016 -0.20830943 -0.030261895
-0.5380752 0.15221447 0.15182023 0.18753222 0.09932104 0.34173295 0.31473804 0.23004034
-0.083540164 0.25020903 0.04079436 -0.007421168 -0.025434453 -0.047273707 0.108950384 0.002989421
0.2713091 0.1878277 0.13006783 0.37937084 0.28625846 0.14577481 0.34784248 0.06437696
0.35902992 0.1451573 0.04048668 0.16478918 0.08100199 0.20706543 0.18770292 0.33438885
0.24752262 0.20359562 0.36169297 0.27352765 0.25029862 0.29409426 0.22842075 0.20673034
0.116241425 0.1339694 0.32922533 0.27879944 0.22934897 0.094102554 0.29296553 0.25154367
0.25838387 0.33573005 0.3118774 0.24537817 0.2755635 0.27513674 0.35136384 0.24263443
0.27265513 0.21818902 0.24519427 0.29662317 0.32939208 -0.087108664 0.117381476 -0.09750402
0.2170222 0.26375255 0.23040606 0.27360162 0.24773973 0.05049547 -0.038809106 0.10378743
0.0073595736 -0.092123844 -0.17057966 -0.10866163 -0.19191872 -0.22110961 -0.20355491 -0.24128895
-0.18169673 0.040849447 0.10703112 -0.07801173 -0.17164232 0.10313414 0.12531538 0.18036444
0.0059599825 -0.1474196 -0.18763846 -0.17006919 -0.27139172 -0.2822778 0.14237973 -0.011213937
0.09488354 0.22279215 0.14138147 0.03265 -0.07218022 0.12843496 0.21485801 0.19148082
-0.05687811 -0.23469257 -0.1092779 -0.2680458 -0.44564924 0.11797806 0.16393301 -0.050343726
0.2102404 0.036810372 0.22511613 0.14727059 -0.039933786 0.27420714 0.191435 -0.31332695
0.03607685 -0.14056373 -0.140907 -0.08307681 0.09140749 0.046619326 0.15462756 0.18957718
0.19379273 0.12343255 0.18461044 0.19403216 -0.008037247 0.20954879 0.032064285 0.011551721
0.006949112 0.014555603 0.04841508 -0.15806045 -0.12966372 -0.11789016 -0.41561076 -0.16454461
0.03201078 0.3191259 -0.08755963 0.2254517 0.21341884 0.32425556 0.21151756 0.30814782
0.09967484 0.17797777 0.25147328 0.09279531 -0.14280042 -0.034577213 0.02427088 -0.2498181
-0.15814441 -0.23407984 -0.04033624 -0.14080116 -0.090941414 -0.04351571 -0.08596091 0.11314059
0.25531253 0.28022924 0.20513247 0.0985821 0.14188555 0.10400923 0.033041596 0.104804814
0.012552685 -0.12377663 0.07988239 0.0842778 0.05857972 0.14769553 0.3222131 0.08680035
0.24424922 0.25238237 0.27144176 0.23531714 0.16041724 0.2765544 0.1321986 0.16580729
0.15644966 0.14562635 0.2510105 0.32517567 0.32473093 0.3383099 0.29866517 0.13943185
0.440707 0.31601566 0.23122403 0.3516902 0.19428498 0.12705381 0.11696877 0.1943889
0.16486323 0.25015062 0.20380756 0.2441171 0.25010827 0.42435932 0.23129705 0.22059816
0.36265084 0.41678607 0.18042576 0.12368789 0.13001241 0.15140866 0.17494205 0.11652843
0.13392036 0.10798038 0.063590325 0.13615112 0.101404056 0.02427747 0.2582167 0.2506806

base.mlp.fc1.0.weight f4 [64, 420]
00000000: c9ca 12be 8c3b 293e 5660 09be bc44 583d
00000010: 142f 173f 13c9 b5bc 48c5 9bbd b867 abbd
00000020: 3089 1dbe f355 20be 905a f8bc 9735 253e
00000030: a4b9 0fbe f70f 59be 5228 823d 7937 3c3e
00000040: 1df3 173e 49b1 f43d 5c3e a4be f092 3bbe
00000050: e055 903e 0b50 143f 60c3 5c3e aeb9 033c
00000060: 683a ccbd f6c3 32be bc1a cb3e acf1 e53e
00000070: fb69 b53d 966c 1fbf 897a 453e 0efa 2ebd
00000080: 0da0 8c3e 65f3 df3d 2348 98bd 8bb8 903e
00000090: dd83 c9ba 8551 ff3e e318 f3bc 8599 1e3e
000000a0: bafc d7bd 93eb c13e 0fd7 8abe 46b9 203e
000000b0: 3a50 233d dcac be3d 653f 96bd 7e9a f3be
000000c0: d34d 70bc 6159 3abe 8cf9 55be 3b3c 41be
000000d0: 16ea 383d 493e 673c d80c 043e 8f19 6fbe
000000e0: d535 4bbd f4c9 a43e 4cc3 bebe ae33 c8bc
000000f0: 607f 5abe 6b4f 7abe ab0f 1b3e f5e2 66be
00000100: 3ebf b8bd c62d fabd 9b87 39be 038b 9dbc
00000110: 0e95 2cbe 6f0f 2abc be7d c7bd 5f85 8ebe
00000120: 2c62 1cbe b1f2 a8bb c525 3bbe 327d 35bd
00000130: 5b71 7bbd 025c 02be de92 1cbe bddb e8bd
00000140: 5f78 3abe e723 a0bd 73fb 1bbe afd2 c7bd
00000150: 7e08 dbba b04f f03e 9975 44bb 0c6e 01be
00000160: 1769 8ebb 49ba 90be fc0b ecbd 84ed d7bd
00000170: 8d4f 243d 5253 873e 1d4d d9bb 89ca d23d
00000180: bc00 903e adda 1f3e 2458 c03e da7e 8c3e
00000190: b5df 1c3d 5a36 613e beb5 c23e 96d3 0c3e
000001a0: 9d38 5bbd 46c6 203f 9459 063e 997a 083e
000001b0: 86d4 e13d 366d 533e 1b43 933d 62a7 3dbe
000001c0: 5b51 a63d 3386 663d 5af3 8d3e b9d2 113e
000001d0: 603b 133e 2f78 993c 2197 79be 5b84 fc3d
000001e0: 21fa 6f3b e1ab e5bc 8255 a7bd 2d9e a63d
000001f0: 8489 953d 7f75 c23d ad40 dbbd c7d6 99be
00000200: a48b d63d db93 233e cf1d 5abe c827 813e
00000210: e12a 2f3e bd1a b0bd 1b4c 31be 04c7 b53e
00000220: fbec e13d be81 a1be 976c bcbc 69af 0c3d
00000230: b50a 16be 758a 513e 9bd2 6bbe 42b6 e2bd
00000240: d73d 94bd 4646 10be 06a5 f4bd 1745 4cbd
00000250: e2f1 cbbc b2e9 8e3d 2994 89be 32a6 c2bd
00000260: 6381 69be dec8 f0be b1dd 1dbf 4841 d4bd
00000270: 7f25 55be 70a4 64bc 4db3 90be d88b debe
00000280: a3f5 03bf d1bd 49bf 98c4 0bbf 7531 b33d
00000290: b6f8 bb3e 1022 64bd b432 833e 96d1 593e
000002a0: 94f8 8dbe 3769 5ebe 03de db3e 9c92 a0bb
000002b0: 8a60 98bd 1be2 29be c814 73bd e82c 0ebe
000002c0: fbd6 fb3d 0ec1 973d e795 60be 21a3 d23e
000002d0: ce2c b0bd 7dc7 b03e 8051 cb3e 6736 42be
000002e0: 40e6 d33c 7e21 113d 5728 9f3e dbc1 61bd
000002f0: f38c 973d b97d 3a3e 0828 bb3e 3c14 00bf
00000300: e583 30be d884 69be 6884 cc3d e078 b6bc
00000310: b2eb 83bd 1186 41be 42bf 11bf f6ee 8dbe
00000320: 834a bbbe 4a6e 36be cb8e 7b3e b958 42be
00000330: a919 46bb 6218 333e 07ac db3e 7e5f 7bbe
00000340: 63d8 2dbe 014b 06be db42 2abe 4bcc 9cbe
00000350: 73f7 be3d 9ace 37be 9c0a f43d fa46 0dbd
00000360: bfdf 21bf 7a05 da3d fb17 463c 72a8 86be
00000370: bb5d 9a3e 783d f2bd e7d4 3b3a 9f0b a9be
00000380: 2d14 95be 9375 ce3c 7f8f d6be 8dba cbbe
00000390: 4c56 1d3c 6251 37be b693 5cbd e8fb f7be
000003a0: eb1a ddbe fc53 d1be 8469 04bf cb7c 8ebe
000003b0: cb31 3abe 3aca 7cbe 33b1 31be 9600 0abf
000003c0: e800 81be 4a65 1ebe fe65 3cbf 7aa0 f4be
000003d0: faeb 54bf a877 18bf ee56 9f3c 588e 26bc
000003e0: fc31 7a3e 4656 a3bd 1c11 a03e c812 9d3d
000003f0: 65a5 f83d a1e4 d13e f00d 583d ac9d f1bc
-0.14335169 0.16526622 -0.13415655 0.052799925 0.5905621 -0.022190606 -0.07605988 -0.08369392
-0.15384364 -0.15657787 -0.030316621 0.16133724 -0.1403566 -0.21197496 0.06355347 0.18380536
0.14838834 0.11947877 -0.32078826 -0.18317771 0.28190517 0.57934636 0.21558905 0.008039875
-0.099720776 -0.17457566 0.39668834 0.44910944 0.08858105 -0.62275064 0.19285025 -0.04271894
0.2746586 0.10935096 -0.07435634 0.28265795 -0.0015374381 0.49866882 -0.029674953 0.1548825
-0.10546251 0.3787504 -0.27117202 0.15695676 0.039871432 0.09310314 -0.0733631 -0.47578806
-0.014666992 -0.18198158 -0.20895976 -0.18870632 0.045145117 0.014113971 0.12895525 -0.23349594
-0.049611885 0.32185328 -0.37258375 -0.024438705 -0.21337652 -0.24444358 0.15142696 -0.22547515
-0.090208516 -0.12215762 -0.18118136 -0.019231325 -0.16853735 -0.010379656 -0.0974078 -0.2783613
-0.15271825 -0.005155884 -0.18276127 -0.04430885 -0.0613874 -0.1273041 -0.152904 -0.11370037
-0.1820998 -0.07819348 -0.15232639 -0.097569816 -0.0016710905 0.46935797 -0.002997732 -0.12639636
-0.004346024 -0.28267124 -0.11525723 -0.105433494 0.040114928 0.26430756 -0.006631507 0.10292537
0.2812556 0.15610762 0.37567246 0.2744053 0.03829928 0.2199339 0.38029283 0.13752589
-0.053520788 0.6280254 0.13120109 0.13328017 0.11026864 0.2064713 0.07190534 -0.18520883
0.08120986 0.056280326 0.27724725 0.1424054 0.14378119 0.018734066 -0.24374057 0.12329932
0.0036617594 -0.02803606 -0.08170606 0.081356384 0.0730162 0.09495067 -0.10705695 -0.30046675
0.10475853 0.15974371 -0.21300434 0.25225663 0.17106201 -0.0859885 -0.17314188 0.355034
0.110315286 -0.31544298 -0.023000998 0.03434697 -0.14652522 0.20462973 -0.23029558 -0.11069919
-0.072383575 -0.14089307 -0.11945538 -0.049870577 -0.024895612 0.069781676 -0.2687085 -0.095043555
-0.22803263 -0.4702825 -0.616664 -0.10364014 -0.20815085 -0.013955221 -0.28261796 -0.43466067
-0.51546687 -0.7880526 -0.54596853 0.087496676 0.3671319 -0.055696547 0.2562462 0.21271357
-0.27728713 -0.21719824 0.4294282 -0.0049002897 -0.07440288 -0.16590159 -0.05934599 -0.13884318
0.12296864 0.07409869 -0.21932183 0.41140082 -0.08602296 0.34527197 0.39710617 -0.18966065
0.025866628 0.03543233 0.31085464 -0.055116516 0.07399931 0.18212022 0.3655398 -0.50030875
-0.17237814 -0.22804582 0.09986192 -0.022274435 -0.0644144 -0.18898799 -0.5693246 -0.27721375
-0.36580285 -0.1781551 0.2456619 -0.18979158 -0.0030227697 0.1748977 0.42904684 -0.24548146
-0.16977076 -0.13114549 -0.16627066 -0.30624613 0.09324541 -0.17949906 0.11916086 -0.034491517
-0.63232034 0.10645576 0.012090678 -0.2630039 0.30149636 -0.118281305 0.0007165209 -0.3301668
-0.29116955 0.025202548 -0.41906354 -0.39790764 0.009603094 -0.17902139 -0.053851806 -0.48434377
-0.431846 -0.40884387 -0.51723504 -0.27829584 -0.18183057 -0.24686518 -0.17352752 -0.53907144
-0.25196004 -0.15468326 -0.7359313 -0.47778684 -0.8317257 -0.5955758 0.019450631 -0.010165773
0.2443313 -0.0797544 0.31263053 0.07669598 0.121409215 0.40994743 0.052747667 -0.02949413

base.mlp.fc1.0.bias f4 [64]
00000000: 5cac fabc 3e40 bd3d 18c0 0a3d 8598 3b3e
00000010: 58db c9bd 0cd0 d73d 3594 f03d bb09 443d
00000020: 93a3 143e 19e0 0bbe 7fb2 adbd 009a 74bc
00000030: f563 9d3d 002e 223d cee5 983e b210 bb3e
00000040: 18a7 33be 474e 513d ecf5 843e 3bd0 12bd
00000050: 0c8c 38bd 4c55 8bbd 722f 313e bd47 033d
00000060: 00a2 47bd df09 df3c 6424 103f f16a f23d
00000070: 92cf 48bd 8e8f 0fbc 3bf6 fdbd 44f2 d43c
00000080: 5c1a f73c 3428 b1bd e5af d53b 4605 373e
00000090: a0ab ad3e 92c8 4ebe 3c7e 61bc d9b7 afbe
000000a0: 5772 b5be 45e2 2f3e ce90 8b3d c216 d33d
000000b0: 6776 44bd 0b6e 4c3e 4ac9 a93e 5c14 30be
000000c0: bffc 063f 0c5f 403d 8df8 d4bd 1dff 0d3e
000000d0: 5e62 bd3d 8a35 9d3d 9984 383e 04bc 6bbe
000000e0: 3300 353d edbd d93d 9919 6abe 11dc 913d
000000f0: 70a2 593d 9b0f b13e 71ee 153e a60e 19be
-0.030599765 0.09240769 0.0338746 0.183199 -0.098562896 0.10537729 0.11747018 0.047860842
0.14515524 -0.13659705 -0.08481311 -0.014929295 0.07685081 0.03959465 0.29862827 0.36536175
-0.1754421 0.05110004 0.25968874 -0.035843115 -0.045055434 -0.068033785 0.17303255 0.032050837
-0.04873848 0.027226387 0.5630553 0.11836804 -0.04902608 -0.008762253 -0.1240048 0.025994428
0.030163936 -0.08650246 0.0065212124 0.17873105 0.33920002 -0.20193699 -0.013763007 -0.34319952
-0.35438797 0.17176159 0.06814729 0.10307075 -0.04796448 0.19963853 0.33161384 -0.17195266
0.5272941 0.046965644 -0.1039897 0.13866849 0.09247278 0.076762274 0.18019332 -0.23020941
0.044189643 0.106319286 -0.22861327 0.071220525 0.053133428 0.3458222 0.1464174 -0.14946994

base.mlp.fc1.2.weight f4 [64]
00000000: 60f5 9c3f d202 8c3f 0164 813f 1d3c 943f
00000010: afb3 8e3f a546 943f f9c2 843f 6909 8b3f
00000020: c80f 803f ee3b 963f d574 ab3f 4a54 6a3f
00000030: 9504 823f a76d 813f 5439 4f3f efb9 9c3f
00000040: 4bc5 8c3f 9090 9d3f d5be b63f 43ea 8e3f
00000050: 8323 073f f90a 6d3f 3fe7 693f 3932 6f3f
00000060: f999 4c3f 6d5b 2e3f ae26 b23f fe5a 5c3f
00000070: bd32 543f 1694 893f 8793 853f 9bfb 8c3f
00000080: fdde 833f abe7 7b3f ea36 933f 482d b33f
00000090: 560b be3f 4a28 9b3f 8677 453f daa0 913f
000000a0: 7b06 693f 8a10 903f bac6 5d3f 0581 923f
000000b0: 587e 923f af1c 833f cec3 653f ce51 963f
000000c0: 90a8 943f 8cd1 ad3f b6b2 813f 95f5 ab3f
000000d0: 8500 a13f 7dde 7c3f eb3e 893f ddcd 803f
000000e0: 1f4b 903f 3eb5 9b3f 397e 063f c2d9 9a3f
000000f0: 653b a53f 01c5 843f ac61 b63f 2c79 843f
1.2262383 1.0938361 1.0108644 1.1580845 1.1148585 1.1584059 1.0372001 1.0862247
1.0004816 1.1737039 1.3395029 0.91534865 1.0157648 1.0111588 0.8094685 1.2244242
1.0997709 1.2309742 1.4276987 1.1165241 0.5278856 0.9259487 0.9136848 0.9343601
0.79922444 0.68108255 1.3918054 0.86076343 0.8288992 1.0748317 1.0435647 1.1014284
1.0302426 0.9840037 1.1501133 1.3998194 1.484721 1.212167 0.77135503 1.1377213
0.91025513 1.1255047 0.8663136 1.1445624 1.1444807 1.0243129 0.897519 1.1743715
1.1613941 1.3579574 1.0132663 1.3434321 1.2578284 0.9877699 1.0722326 1.0062824
1.1272925 1.2164686 0.5253635 1.2097704 1.2908751 1.0372621 1.4248557 1.0349479

base.mlp.fc1.2.bias f4 [64]
00000000: bead 2fbe 0607 373e d472 533e f205 923e
00000010: b140 bd3d 1e32 9d3d 7e73 263d 2053 33bd
00000020: 8261 c33d 5f8e 36bc 0cd6 ed3c 11aa 19bd
00000030: f4c4 e9bd 2f69 fdbd 522f 893e dd8b 013e
00000040: 95d7 9d3c 81e3 58ba 7d7f 01bd 566d 1f3d
00000050: ff7c 8c3e 4671 87be 9106 b53e 6a7b 9e3c
00000060: 42f1 d03d 5904 613d 4325 e83b 1241 bf3e
00000070: c8ef e13c 3b12 0fbe 643e 563d 6ef2 1cbe
00000080: 8ae6 b7bd b55d d53d d0ad e0bc 8f1c 8e3d
00000090: c373 7f3c 9dc2 4fbd 954b 81bd 67cf afbe
000000a0: 4546 86bd ffb9 e53c 0a74 563e 325b b93e
000000b0: cb7f 403e 5e72 6c3d c425 6d3e a662 813d
000000c0: bc3e 1a3e 5291 3a3d c549 91be 91d3 c13d
000000d0: 7bc7 463d c0da d23d 64b4 a83e d93c 63bc
000000e0: 5e76 b1bd f93e c7bd f437 dd3e 7f15 583c
000000f0: 6680 ef3b de18 1a3e 53ba 9cbd a809 b5bd
-0.17156121 0.17873773 0.20649272 0.2852016 0.092408545 0.07675575 0.040637486 -0.043780446
0.095400825 -0.011142342 0.02903273 -0.037515704 -0.11414519 -0.12373578 0.26793915 0.1265101
0.019267837 -0.0008273647 -0.031615723 0.03892263 0.27439114 -0.26453608 0.35356572 0.019345958
0.10202266 0.054935787 0.00708452 0.37354332 0.027580157 -0.13971798 0.052305594 -0.15326855
-0.08979519 0.10418264 -0.02742663 0.06939041 0.015591565 -0.050722707 -0.06313244 -0.34337923
-0.065563716 0.028042791 0.20942703 0.3620239 0.18798749 0.057726257 0.23158938 0.06317644
0.15062994 0.045548744 -0.28376594 0.09464181 0.048530083 0.102956295 0.32950127 -0.013869488
-0.08665155 -0.09728808 0.4320675 0.013188719 0.0073090075 0.15048549 -0.07652726 -0.088397324

base.mlp.fc2.0.0.weight f4 [64, 64]
00000000: d276 87be 4fca b3bf 5ece 97bd e677 793f
00000010: 065f 83bd f489 8b3e 7076 1dbf 74c3 42be
00000020: 8df0 233f 77e9 85bf 5169 d5be b480 b73d
00000030: 6fcd 473f 8e7d d83d 92ff 1fbf 8771 a3be
00000040: be58 8cbe 315a ec3e f7d4 9abe 740b eebe
00000050: fb16 7b3d c43a 41bd 7fa6 653e d4af 143e
00000060: fd61 ce3e 3de8 b83e f2d0 053e 8a30 45be
00000070: bb5d 3fbf 481a 64be 8f15 f7bc 4dc9 8ebd
00000080: a2ce 163d ce7c 4ebd 92dc 723e c82a b9bd
00000090: 4351 a2be b97b 85bd 22c9 90be 937d 293f
000000a0: d9d1 fbbd 3b4a 85bd 0dca 0dbe e016 be3e
000000b0: 63d3 b33f 8e08 ff3d a9d8 2dbe f522 213e
000000c0: a463 673f a818 92bd a1b9 3e3f b82f 3cbe
000000d0: fb40 463e ef75 3f3e 5182 97be 798b 123e
000000e0: ba4c e53e 0832 933f 20c6 3dbf fcf1 9cbd
000000f0: 7525 b9bd 71b1 7e3e 6e7f b3be 4416 1c3f
00000100: de6a 413e 0fe8 06bf 8815 d4bd ae7f ce3e
00000110: 53d0 8cbe 6d0e b9be 4d23 e53e b894 10be
00000120: b170 863e f02b 1fbb 0faa d1bd 00e2 0a3f
00000130: 8d21 3abe 82d4 8bbe 8980 02be b9c7 31be
00000140: af14 653e 6ece 7d3d 9c4e a43e c30a ed3b
00000150: 851c 96be e514 3c3e a9ee bb3e 9a9e af3e
00000160: 189f ecbe c5fa 463e ddf6 5abf 36c5 4ebd
00000170: f544 aebe 9d13 4f3b 6b75 803d c70b 653e
00000180: 2c8e 1d3d f0f9 22bd 1d1a 393d cbd1 35bf
00000190: 1cba 57bf 609e 193f 0ae8 e6be 8953 ff3e
000001a0: 6a3f a9bc 1524 0cbe 9398 2e3f 0c75 7dbf
000001b0: bb75 843e 472f debe 14e1 853e 67ac 62be
000001c0: 377b 8a3e 0996 d9be 7255 c0bd b1e6 35be
000001d0: 6ad5 cbbd c59d 27bc 3720 adbd c300 043f
000001e0: ec1d 603e 7603 673d 6dec 643c adfb 153e
000001f0: b978 9bbe ac31 0cbf 08a1 c63e e11b 543d
00000200: 62aa 0ebe 52fd 33be af05 303f b90e 753f
00000210: 2e05 5abd 2fad 3ebd a129 033f 29e2 bebe
00000220: 7157 5cbe df85 d73e fbc6 ae3d 0f4e 053f
00000230: 3de3 843e a50a 283e 41db 10be a053 dabe
00000240: 7554 3c3e 9b34 11bf fdeb 13be e442 9abd
00000250: 4b06 90bd ace2 8dbd e69b dd3e 7ba6 f63e
00000260: 9e9e aabc c25e 253c 1893 edbe ec6e d1be
00000270: 2919 023f c961 ac3d 530b d83d 96d0 693e
00000280: 7735 ebbd f18d 743e 1d85 10bd 8c72 0dbf
00000290: 7dbd 12bf 71f2 1c3e 1490 98be 85db 703e
000002a0: dfb6 e33e fc20 73bd e514 4fbe 7cda 913d
000002b0: 1e39 75bd 3199 943e 74ba cd3e 567d eabe
000002c0: 9d50 40be 9e24 19bf dd1c fdbc cfd6 69bd
000002d0: 88f2 aa3e cdad 093e c472 e7be b41a 843d
000002e0: f6cc 353e 333c 663e 1bab 5cbe 3bfd 383e
000002f0: 69e9 14be ba94 62be 1925 7d3d f902 c4be
00000300: a0c3 4cbe 1952 d33b 1284 5b3f 9de3 aa3e
00000310: a722 5ebc 58e1 c93d 7183 613e 5cb4 aabd
00000320: 33d7 69bc 7a64 803e e001 babe e38b 3c3f
00000330: 9f67 353d e3f2 fabd d468 bf3e 2c28 a1bd
00000340: 0b4c 033d 8c46 4cbf 2379 903e 95c9 643e
00000350: fd18 28be 8d62 b8bd 99c9 2e3f 5adf a73e
00000360: 34ea d2be 4b08 c6bd 6242 25bf 48d1 babe
00000370: d1a8 5d3d be5e 97be 863e 92be 2955 913e
00000380: eddc cdbd 2a71 4a3e a378 dc3d 0ce7 46be
00000390: 31f9 15bf 219f e53e 50c5 e8be 2db8 3ebe
000003a0: 6024 033d 838e d53d 7fed 86be a025 b63e
000003b0: f3ca 17be 8d65 bf3e 9671 243e 44b4 5abe
000003c0: 5b89 84be abf9 43be dc61 0ebd cc59 03be
000003d0: ebbc 903e 6042 db3e 5a49 03bf f53b da3d
000003e0: a0a3 6f3e b482 05bd 971b fc3d feb6 9abe
000003f0: ee81 80be e04f 3fbe 5c35 443f 30b5 813e
-0.2645784 -1.4046115 -0.07412408 0.97448575 -0.06414609 0.27253687 -0.61508846 -0.19019872
0.64038926 -1.0461873 -0.41681913 0.08960095 0.7804784 0.10570823 -0.62499344 -0.31922552
-0.27411455 0.4616256 -0.30240604 -0.46493113 0.061301213 -0.047175184 0.22426794 0.14520198
0.40309134 0.36114684 0.13067988 -0.19256797 -0.74752396 -0.2227565 -0.030161647 -0.06971989
0.036818154 -0.05041199 0.23716953 -0.09041363 -0.31702623 -0.06517739 -0.28278452 0.66207236
-0.12295885 -0.06508299 -0.13846608 0.37126827 1.4048885 0.124528036 -0.1697718 0.15735991
0.90386415 -0.07133609 0.74502 -0.18377578 0.19360726 0.18697332 -0.2959161 0.14311017
0.447851 1.1499643 -0.7413044 -0.07663342 -0.090403475 0.24872376 -0.3505816 0.60971475
0.18888423 -0.52697843 -0.10355669 0.40331787 -0.2750269 -0.36143818 0.44753495 -0.14119232
0.26257852 -0.0024287663 -0.10237514 0.542511 -0.18176861 -0.27310568 -0.12744345 -0.17361344
0.22371171 0.061964445 0.32091224 0.007233949 -0.29318634 0.18367346 0.3670552 0.3430069
-0.4621513 0.19431598 -0.85532933 -0.050481044 -0.34036985 0.0031597384 0.06272396 0.22367774
0.038465664 -0.03978914 0.04519092 -0.71023244 -0.84268355 0.60007286 -0.45098907 0.4986842
-0.020660121 -0.13685639 0.6820156 -0.99006724 0.2587107 -0.43395445 0.26148283 -0.22136079
0.2704713 -0.4249728 -0.093912974 -0.17763783 -0.09952815 -0.010230486 -0.0845341 0.5156366
0.21886414 0.056399785 0.013972384 0.14646788 -0.30365542 -0.54763293 0.38794732 0.0517844
-0.13932183 -0.17577103 0.6875867 0.9572559 -0.053227596 -0.04655188 0.51235396 -0.37281922
-0.21517731 0.42094323 0.08534046 0.5207223 0.2595462 0.1641031 -0.14146139 -0.42641926
0.18391593 -0.56720895 -0.14445491 -0.075322896 -0.0703245 -0.06928 0.43283004 0.4817389
-0.020827588 0.010093393 -0.46401286 -0.4090494 0.5081964 0.084170885 0.10549035 0.22833475
-0.11484807 0.23882271 -0.035283197 -0.5525291 -0.57320386 0.15326859 -0.29797423 0.2352124
0.44475457 -0.05935763 -0.20222814 0.07121751 -0.059868924 0.29023126 0.40181315 -0.4579875
-0.18780752 -0.598215 -0.030897552 -0.057089623 0.33388162 0.13445206 -0.45204747 0.06450406
0.17753968 0.22483902 -0.21549647 0.1806535 -0.14542164 -0.22127047 0.061802957 -0.38283518
-0.199965 0.006448996 0.857484 0.3337678 -0.013558066 0.09857434 0.22022797 -0.08335182
-0.014272499 0.25076658 -0.36329556 0.7365095 0.044288274 -0.12253358 0.37384665 -0.0786899
0.032054942 -0.79795146 0.2821742 0.22342522 -0.16415782 -0.09003172 0.68276364 0.3278759
-0.41194308 -0.096695505 -0.6455442 -0.36487794 0.054116074 -0.2956447 -0.28563327 0.28385285
-0.10051904 0.19769731 0.10765197 -0.19424075 -0.5858336 0.44847968 -0.45463037 -0.18624945
0.03201711 0.104275726 -0.2635307 0.3557558 -0.14823513 0.37382165 0.16058955 -0.21357828
-0.25886044 -0.1913821 -0.034761295 -0.12827224 0.28269133 0.42824078 -0.512838 0.10655967
0.23402262 -0.03259535 0.1230995 -0.30217737 -0.25099128 -0.18682814 0.7664392 0.25333548

base.mlp.fc2.0.0.bias f4 [64]
00000000: b07f 1a3e d5c9 7e3d c005 24be 7b0a 16bd
00000010: 1750 3cbe 186d 573e 14cd 52be 612f 9a3e
00000020: 8b8b d93e 8701 c7bb a76f df3d f7bc e3bd
00000030: 5e92 95ba 6f84 023e 53bd 3cbd 5717 23bf
00000040: f235 a6be 146f b4be 052f ce3e 1bad 893e
00000050: 63ea e6bd b110 0a3e 4afb c6bc 067d 303e
00000060: 8908 84be ff52 a7be 1436 80be b290 e93d
00000070: 9e94 443e 4f15 7bbe 19d9 d83e ded8 8d3d
00000080: 5ac1 36bd c743 58be 7ff4 733e 10bb 0dbe
00000090: 5582 0a3e 9a6c 5bbd 1b74 3dbe 4bc0 b5bd
000000a0: f30e 293e 9f13 edbd 64ed 183e 169c 17bf
000000b0: e864 613e 3db9 40bc 50fe 2c3c 13b8 6b3e
000000c0: 883a 7a3e 9c3e 953e 965e 073f ac03 493e
000000d0: 3ef6 463e 56f6 e33e 189e 82be 5c97 ac3d
000000e0: 4c24 38bd 0008 043e f183 0f3d 5144 643d
000000f0: babf 203e 8009 753e cd05 5fbe 297c 1b3d
0.15087771 0.0622042 -0.16017818 -0.03663109 -0.18389927 0.2103771 -0.20586044 0.30114272
0.42489275 -0.00607318 0.10909968 -0.111200266 -0.0011411419 0.12745832 -0.04607899 -0.6370749
-0.32463032 -0.35240996 0.40270248 0.26889881 -0.112751745 0.1348293 -0.024289746 0.17235193
-0.25787762 -0.32680508 -0.25041258 0.114045516 0.19197318 -0.24519847 0.42353132 0.0692613
-0.04461799 -0.21119605 0.23823737 -0.1384089 0.1352628 -0.053570367 -0.18501322 -0.088745676
0.16509609 -0.11576008 0.14934307 -0.59222543 0.22011149 -0.011762914 0.01055868 0.23019437
0.2443639 0.2914933 0.528787 0.19630307 0.19429871 0.44523877 -0.2551124 0.08427307
-0.04495649 0.12893677 0.03503794 0.055729214 0.15698138 0.23929405 -0.21779557 0.037960205

base.mlp.fc2.0.2.weight f4 [64]
00000000: f7ad 0840 0824 bd3f 68ab 923f 458a bd3f
00000010: 9f6a 953f 5178 b63f 433b 953f 69d3 cc3f
00000020: 0c50 c73f 7633 623f 12a8 bb3f 888e ca3f
00000030: 453f bf3f 756f d03f fc47 a53f 4e35 c73f
00000040: e98a b23f 8847 a33f 69cd c03f 509f 953f
00000050: 8eea b53f 1d8d 973f fb68 933f 24c6 c93f
00000060: 7953 cc3f 5bda 8e3f bcbf 9b3f 293e 9b3f
00000070: 7518 873f 7b76 dd3f 2cfc 8e3f 2456 b73f
00000080: 7955 ad3f d586 da3f 0dc9 e63f bc84 873f
00000090: 47ec bb3f 51f7 7c3f fb01 9a3f 115a f83f
000000a0: 4e61 b03f 3bbc c83f cb3f d63f 5a22 cc3f
000000b0: 193a c43f ea3d a43f c70d e53f b81a b63f
000000c0: 9831 a43f ae20 c83f 8cfe 9c3f ec93 c13f
000000d0: b9a7 ad3f 9e27 f23f 6574 983f 4277 c73f
000000e0: 8369 ad3f c93b cd3f 9474 a03f 504b e03f
000000f0: aecb c03f 9908 d23f e794 b93f 190e 913f
2.135618 1.4776621 1.1458559 1.4807822 1.1673163 1.4255468 1.165871 1.6002017
1.5571303 0.88359773 1.4660666 1.5824747 1.4941183 1.6284014 1.2912593 1.5563142
1.3948642 1.2756205 1.5062686 1.1689243 1.4212205 1.1839939 1.1516412 1.5763593
1.5962974 1.1160387 1.2167888 1.2128345 1.0554339 1.7301782 1.1170707 1.4323163
1.3541709 1.7072397 1.8030106 1.0587382 1.4681481 0.98814875 1.2031854 1.9402486
1.3779695 1.5682443 1.6738218 1.5947983 1.533023 1.2831395 1.789483 1.4226904
1.2827635 1.5634973 1.2265182 1.5123267 1.356681 1.891834 1.1910521 1.558327
1.3547825 1.603387 1.2535577 1.7522984 1.5062158 1.6408874 1.4498566 1.1332427

base.mlp.fc2.0.2.bias f4 [64]
00000000: 2e13 f4bb af1e 68bd 30a8 0fbe 9f19 acbc
00000010: 43d7 ddbb 7b19 71bd d1bb ef3d d0b3 473d
00000020: 71ee 323d 30ef 263e 03f6 c83d d988 8cbd
00000030: fa00 87bd 19a7 273d ce73 43bd a8dc 863e
00000040: 4ad3 8e3d 873d 563c 0285 983e af4a 093e
00000050: fff9 173d 53e4 ae3d ef9a da3d 8115 22bc
00000060: b3e2 803d f4ad 063d 4360 833b 0869 853c
00000070: d137 df3d 5dfe b8be 9582 833d 9af8 1cbd
00000080: a25c e1bb 876a 293e 4230 a4bc 27c3 a33e
00000090: db12 b8bd 1da5 f9bd cf11 8e3d 93b3 233d
000000a0: e993 2abd d5d9 743d c842 d93d 693d 153e
000000b0: 6353 67bd 16dc 1d3e 0447 293c afaa 923d
000000c0: 729e ab3e eb85 f83c 3b9b 21bd 0734 aa3d
000000d0: 1f16 b63d 6f17 6abc cb7a d83d b4c0 1ebd
000000e0: bdfe c13c 4e0a 3ebd d1a3 aebd b3b5 4fbe
000000f0: a4ce e53c f720 d13c 8b1e e6bd 2df5 543d
-0.0074485755 -0.056669887 -0.14029002 -0.02100831 -0.006770046 -0.05886219 0.11705745 0.048755467
0.043684427 0.1630218 0.09812548 -0.06862039 -0.06591983 0.04093084 -0.04771786 0.26340222
0.06973894 0.013076193 0.29788977 0.13407396 0.03710365 0.08539643 0.106740825 -0.009892822
0.062932394 0.03288074 0.004009278 0.016285434 0.10899318 -0.36131564 0.06421391 -0.038323022
-0.006877498 0.16544543 -0.020042542 0.31984827 -0.089879714 -0.12189696 0.069369905 0.039966177
-0.041644964 0.059778053 0.10608441 0.14574207 -0.05647601 0.15415987 0.010331873 0.071614616
0.33519322 0.030337295 -0.03945468 0.08310705 0.08890938 -0.014287814 0.10570296 -0.038757995
0.023681039 -0.046396546 -0.08527339 -0.20284157 0.028052635 0.025528414 -0.11236294 0.05199163

act.linear.weight f4 [24, 64]
00000000: 292c 8f38 0445 d4ba dc23 ceba 143d 5f3a
00000010: 58fe 683b af61 beb9 1624 88ba fc4f e7b9
00000020: c42b 44b9 612d dc3a 149e f0ba c99f 9bba
00000030: 47ab 58ba 30f8 f339 e2cd 3aba 8653 b23a
00000040: 1d5b 16b8 36a7 acba fc51 9d3a 02b2 c63a
00000050: 118e 883a 6672 d0b9 1965 1c3a 2e75 c637
00000060: d4dd 113b 1e0d be3a b4a6 0bba 95cd cc3a
00000070: 8b61 06bb a4e3 a93a 300d 533a d9e5 9d39
00000080: a9d8 143b 80de 8839 35c1 f538 050f 9eba
00000090: 6953 8dba f776 103b 8f1c 913a 9240 143b
000000a0: f2eb 983a 4624 953a 3920 43ba e72f 3239
000000b0: d9cd 093a e696 c03a bc53 f1b9 5293 803a
000000c0: c225 4cba b8b9 b73a 65ee 6db8 9222 e939
000000d0: 771f bb3a a6d0 d2ba f5fe b939 862f 3d3a
000000e0: 2041 0a3a 959e ffb9 23c1 f238 7017 733a
000000f0: 7e52 49bb 105a 2a39 8f1d c0b9 2fc8 6c3a
00000100: 5142 993e ceb1 91bd 8714 ebbe 6f80 86be
00000110: 9905 42be 5ab9 21be d331 653d 72ec e43e
00000120: a707 b9be 374c bdbd 2725 bbbe b517 0c3f
00000130: 47e3 0b3f 3050 cdbd 4f86 083e a995 b83d
00000140: 9fe9 bc3c 5984 acbe e8d6 06bf a9a3 8abd
00000150: 315d a9be 5acb c23e b548 2b3d 5f3a c8be
00000160: e4b0 25be 31b2 a23d 8289 063e 538c e9be
00000170: ecf3 5d3e 3a7f 8e3f 5e26 1f3f 8c18 b1be
00000180: 13ad 1cbd 0753 89be 2883 1f3e 652d 29be
00000190: 7d59 cbbc e806 ab3e 1745 8c3e f85b bbbe
000001a0: c2a7 243d 463b 06bf e088 153f 25e5 853e
000001b0: 5e03 403e 0c30 283d 37c5 293f b382 c03d
000001c0: f23a 763e 11c5 413d 69c0 97be 0220 333c
000001d0: 1af7 363e d0e0 2abf 6f36 a93f 1d17 463d
000001e0: 34fb 2dbe 1bf4 d03d 85ae 99be eb48 c03e
000001f0: 3e9a 5f3f b4e0 903f 9562 1e3f 2ae6 9e3e
00000200: 99b4 1d40 c2f5 8a3f f080 af3f 10f2 49be
00000210: 30ff 0abf f516 763f 4d33 11bf 597a e13e
00000220: f171 42be 2410 803f b225 42be 5a73 1cbf
00000230: 8f59 cdbe dc05 cebd 0bd4 7cbf 0d7d 1140
00000240: a6cc e93e fd0e 973f 449e abbf fe18 67bf
00000250: 8f36 d13f 5a67 1b3e 26ec 333f 4e97 a8be
00000260: fbe7 a33e 485f 103f 244a 9a3f 1c44 24bf
00000270: 0661 41be 7838 c6bf 8691 bf3c a4c2 25bf
00000280: 7181 63bf 8bc7 343e 7c2e 30bf eb5e 493f
00000290: 2415 81bf bd29 34bf 7b18 593f d5d2 1540
000002a0: c382 c0bf 91e3 3d3d cab6 e3bd b927 46bf
000002b0: cee9 283f ad6e 5fbf 00d7 203e 1f93 41be
000002c0: c8fa c1bf 54c6 063e a679 ab3f e438 203f
000002d0: 6674 a13e 648c 52bd 9f72 3e3f 2635 823d
000002e0: 87c5 af3e def9 f43e b2cb 7abf 1bc0 233f
000002f0: 4958 263f 2882 00bf cf60 973e 0b41 c53f
00000300: c73a 2b3f 5b14 863d 15de 47bd 3648 033f
00000310: b4ef a43d 930a 30be ba96 d23e af64 383e
00000320: 6425 bdbe 2512 4bbe 1d48 6fbe ef10 383f
00000330: e40e 40be 97ad 07bd 5451 b2bd f8e6 01be
00000340: 155c f7bd f013 00bf 3e2f 803e f58d aa3e
00000350: 4aa5 72be 663b cabe c962 cebc 78c4 553e
00000360: 6e2d fd3d 1e53 c1be 154d c9bd 58e3 b73e
00000370: ed87 cd3d c9d2 b83e 36e3 3c3f 9343 5b3f
00000380: 4a46 96bb 9d2c db3d 3c7d e1bd 59e5 bfbd
00000390: a0d3 123f 0d49 d53d 2b62 cf3d 894a cfbe
000003a0: a539 e63e 81ec 1ebe 2620 413f 5a81 783f
000003b0: 05d0 463d 33a1 0e3f aa56 60be 9163 13be
000003c0: 9a55 133f 46c7 00bd 7361 bbbd 78c8 d23d
000003d0: ad4b 933e 5110 f9bc 66c0 cabd 8ad4 133c
000003e0: 08b4 b5be c7ec a03e 97ba 83be 38da 243f
000003f0: 843d c0bd 8f6a b8be 8cd4 623e aa59 7fbe
6.826997e-05 -0.0016194885 -0.001572724 0.0008515876 0.0035551991 -0.00036312404 -0.0010386731 -0.00044119346
-0.0001870832 0.0016798192 -0.0018357658 -0.0011873181 -0.00082652684 0.00046533486 -0.0007126016 0.0013605214
-3.5847643e-05 -0.0013172391 0.0012002583 0.0015159252 0.0010418316 -0.00039758085 0.00059659925 2.3658005e-05
0.0022257464 0.0014499759 -0.000532727 0.0015625233 -0.0020504917 0.0012961519 0.00080509763 0.00030116623
0.0022712147 0.00026105717 0.00011718498 -0.001205892 -0.0010782304 0.0022043565 0.0011071133 0.0022621495
0.0011666997 0.0011378608 -0.0007443461 0.00016993248 0.0005256809 0.0014693409 -0.0004602949 0.000980953
-0.0007787609 0.001401714 -5.6727225e-05 0.0004446698 0.0014276345 -0.0016083911 0.00035475907 0.00072168594
0.00052739866 -0.00048755543 0.00011575434 0.0009273207 -0.0030719335 0.00016246014 -0.00036643117 0.0009032515
0.29933408 -0.07113992 -0.459141 -0.26269862 -0.18947448 -0.15793362 0.05595572 0.44711643
-0.3613865 -0.092430525 -0.36551782 0.54723674 0.5464367 -0.1002506 0.13332485 0.090129204
0.023060618 -0.33694723 -0.5267167 -0.06769497 -0.33078912 0.3804577 0.041817386 -0.39107034
-0.1618076 0.079441436 0.13138393 -0.4561487 0.2167508 1.1132576 0.6216792 -0.3458904
-0.038250994 -0.26821157 0.15577376 -0.16521223 -0.024822945 0.33403707 0.2739646 -0.36593604
0.04019905 -0.52434194 0.5841198 0.26151386 0.18751284 0.041061446 0.6631655 0.09399929
0.24045923 0.047307078 -0.29638985 0.010932924 0.178677 -0.66749287 1.3219737 0.048361886
-0.16990358 0.102028094 -0.3001596 0.37555632 0.8734473 1.1318574 0.61869174 0.31034976
2.4641478 1.0856249 1.3711224 -0.19721246 -0.54295635 0.9612878 -0.56718904 0.44038656
-0.18988778 1.0004926 -0.18959692 -0.6111351 -0.4010739 -0.10059711 -0.9876105 2.2732575
0.45663947 1.1801449 -1.3407674 -0.9027251 1.6344775 0.15176144 0.7028221 -0.32927936
0.32012925 0.5639539 1.2053876 -0.64166427 -0.18884668 -1.5485983 0.02338482 -0.64750123
-0.88869387 0.17654245 -0.6882093 0.7866046 -1.0084577 -0.7037619 0.8480298 2.3409932
-1.5039905 0.046359602 -0.111188486 -0.7740436 0.6598176 -0.8727825 0.15707016 -0.18903778
-1.5154657 0.13161594 1.3396499 0.6258681 0.31534117 -0.05140342 0.7439365 0.063577935
0.3433039 0.47846884 -0.97967064 0.63965005 0.6497846 -0.501986 0.29566047 1.5410475
0.6688656 0.06546851 -0.04879578 0.5128206 0.08053532 -0.17191534 0.4113062 0.18007158
-0.3694259 -0.1983114 -0.23367353 0.7190084 -0.1875568 -0.033124533 -0.08706918 -0.12685764
-0.1207811 -0.5003042 0.25036043 0.3331143 -0.23695865 -0.39498442 -0.025193589 0.20875728
0.12362181 -0.37758726 -0.09829155 0.35915637 0.100356914 0.36098316 0.73784196 0.85649985
-0.004586016 0.10701869 -0.11010215 -0.093699165 0.57354164 0.10414324 0.10126146 -0.40486553
0.44965854 -0.15519907 0.7543968 0.97072375 0.048538227 0.5571472 -0.2190806 -0.1439345
0.5755249 -0.031440042 -0.09149446 0.10292143 0.28768674 -0.030403288 -0.09899978 0.009022841
-0.35488915 0.31430647 -0.25728294 0.64395475 -0.09386733 -0.36018798 0.22151393 -0.24936548

act.linear.bias f4 [24]
00000000: 0000 0000 b8f6 00bf c79c 5dbf 662f efbe
00000010: 2575 9abe 0bec 0ebf b06a b7be fa99 e7bd
00000020: ce36 1c3f b419 823f a494 8c3f 2518 07be
00000030: effb 273d 6dc7 113e d638 ccbe 1eed efbe
00000040: 1553 8d3e c66d d2be 0be4 84be ab70 263f
00000050: a22a af3e fe45 003d 88e3 ffbc 0000 0000
0.0 -0.5037646 -0.8656735 -0.4671585 -0.301675 -0.55828923 -0.35823584 -0.113086656
0.61021125 1.0164094 1.0982862 -0.13192804 0.041011747 0.14236231 -0.39887112 -0.46860594
0.2760245 -0.41099375 -0.25955233 0.6501567 0.34212214 0.03131675 -0.031236425 0.0
