save_dir/actor_good.pt (torch, 138962 bytes, 12 tensors)

base.feature_norm.weight f4 [420]
000000 25 b9 bc 3f b1 1b 76 3f 61 ab 8d 3f 5d de b8 3f
       1.4744002 0.96136004 1.1067926 1.444286
000010 b6 f8 8b 3f 0d 0b d3 3e 03 ca 35 3f 53 f7 21 3f
       1.0935276 0.4121937 0.7101137 0.6326801
000020 72 55 2c 3f f4 9a 2e 3f 4b 2d 59 3f a8 7e 81 3f
       0.6731788 0.6820519 0.84834737 1.0116777
000030 f2 ff 85 3f b6 e3 1c 3f a4 d7 69 3f 74 84 9d 3f
       1.0468733 0.6128496 0.91344666 1.2306046
000040 8b 88 a8 3f 26 3a b2 3e 8d 7b 61 3f 55 3e 0a 3f
       1.316667 0.3480999 0.8807915 0.5400136
000050 5b ea 90 3f 2b 00 9f 3f 5c 24 8b 3f da 9f 8c 3f
       1.132152 1.2421926 1.0870471 1.0986283
000060 fd d0 32 3f 00 98 7e 3f f6 41 7f 3f 15 bd 68 3f
       0.6985014 0.99450684 0.99710023 0.90913516
000070 62 b0 68 3f 86 96 3f 3f 21 cf 8b 3f 71 98 62 3f
       0.9089414 0.74839056 1.0922586 0.8851386
000080 d5 e7 ac 3f 4c e7 96 3f 89 36 56 3f 0d b6 7e 3f
       1.350825 1.1789336 0.83676964 0.9949654
000090 4c cf 30 3f 21 51 a5 3f 0e 8a 49 3f a7 4a 7c 3f
       0.6906631 1.2915384 0.7872628 0.9855141
0000a0 08 bd 3c 3f 53 bf 38 3f 25 2e 65 3f 39 3b 56 3f
       0.7372594 0.7216694 0.89523536 0.83684117
0000b0 90 48 5c 3f e8 3e 5f 3f d0 6c 85 3f 06 fc a5 3f
       0.8604822 0.8720536 1.0423832 1.2967536
0000c0 6b 71 60 3f 0e 42 9f 3f 3c 82 27 3f 79 09 43 3f
       0.8767306 1.2442033 0.65433097 0.7618633
0000d0 4b 19 11 3f c5 fd 51 3f 03 1a 79 3f 3e b5 39 3f
       0.5667922 0.82027847 0.97305316 0.7254218
0000e0 88 c1 3e 3f ea e2 35 3f 51 7c 73 3f d7 43 4f 3f
       0.74514055 0.7104937 0.95111567 0.8096289
0000f0 db 55 7b 3f 25 29 22 3f d4 31 61 3f 03 7d 95 3f
       0.9817788 0.6334403 0.87966657 1.1678776
000100 b4 c1 94 3f 72 5c 2f 3f 01 f6 43 3f be 1c 1b 3f
       1.1621614 0.68500435 0.7654725 0.6059073
000110 4e a9 e2 3e aa ad b7 3e 14 5c 4e 3f 7b 6f 28 3f
       0.44269794 0.35874683 0.8060925 0.65795106
000120 5f fe 34 3f 75 73 4d 3f 85 31 13 3f d1 90 44 3f
       0.7070064 0.802543 0.57497436 0.7678347
000130 94 64 31 3f 68 2b 30 3f 63 96 65 3f 93 0e 78 3f
       0.69294095 0.6881623 0.89682597 0.9689724
000140 ca 06 0e 3f 74 d3 23 3f 64 7b 23 3f b5 c8 2e 3f
       0.5547911 0.63994527 0.63860154 0.68275005
000150 73 7d 1b 3f 6b 7d a3 3f bc 12 70 3f f0 19 c1 3f
       0.60738295 1.277265 0.93778586 1.508604
000160 74 b0 4b 3f 71 0f 2b 3f cd 86 2a 3f 26 1a 26 3f
       0.7956612 0.66820437 0.6661194 0.6488365
000170 73 3a 1e 3f 15 53 5a 3f 3d c4 7e 3f 5c 2e 5f 3f
       0.61807936 0.85283023 0.99518186 0.87180114
000180 ed fa 89 3f 88 43 5b 3f 75 30 86 3f fa 2b a5 3f
       1.0779701 0.8564992 1.0483538 1.2904046
000190 62 ab 3c 3f d9 36 91 3f 26 bb 74 3f f3 80 a7 3f
       0.7369901 1.1344863 0.95598066 1.3086227
0001a0 70 52 b7 3f 7d ac aa 3f 78 1d 97 3f e6 68 a1 3f
       1.4322033 1.3333889 1.1805868 1.2610137
0001b0 ca 27 3a 3f d4 bd 83 3f cb 09 41 3f 71 74 06 3f
       0.72716963 1.0292306 0.7540557 0.52521425
0001c0 4b 00 24 3f ca 01 28 3f 93 d4 76 3f 7d 05 ec 3e
       0.6406295 0.6562773 0.9641811 0.46097937
0001d0 c6 96 28 3f 4b 90 14 3f d5 e2 58 3f d6 d4 96 3f
       0.6585506 0.58032674 0.8472112 1.1783702
0001e0 99 5d 9a 3f 73 38 57 3f ac 78 7b 3f f9 18 1a 3f
       1.2059814 0.8407051 0.98231006 0.60194355
0001f0 c1 9d 54 3e 4d e1 39 3f 8c f8 12 3f fb 58 de 3e
       0.20763303 0.72609407 0.574105 0.43427262
000200 c0 0a 26 3f 04 cc cc 3e a0 39 22 3f 58 16 31 3f
       0.64860153 0.39999402 0.6336918 0.6917472
000210 2d 57 dd 3e 2e a3 81 3f 83 88 3d 3f 37 aa 6d 3f
       0.43230572 1.0127923 0.74036425 0.9283785
000220 ce c9 7f 3f 53 71 97 3f ed ac a9 3e 28 2d 2e 3f
       0.99917305 1.1831459 0.33139744 0.6803765
000230 cb b6 0d 3f ce 80 3f 3f 90 cb 61 3f 8a 39 47 3f
       0.55357045 0.74805915 0.88201237 0.7782217
000240 a7 b9 6a 3f 30 8f 83 3f 73 44 73 3f c5 38 62 3f
       0.91689533 1.0278072 0.9502632 0.88367873
000250 be cd 91 3f 82 a6 4a 3f 54 96 58 3f ed 55 68 3f
       1.1390913 0.7916032 0.8460438 0.9075611
000260 d7 f8 6f 3f 3b 3a ad 3f aa 68 b4 3f cf e1 8c 3f
       0.93739074 1.3533396 1.4094441 1.1006411
000270 a4 eb ce 3e b2 7b 86 3f f5 a8 b1 3f 0d 4c bb 3f
       0.40414155 1.0506499 1.3879687 1.4632584
000280 d9 47 ad 3f e8 36 d7 3f d1 8a c8 3f 90 59 8a 3f
       1.3537551 1.6813631 1.5667363 1.0808582
000290 9c 77 9d 3f ae 6c 8d 3f 6a 8f b7 3f 45 4d b5 3f
       1.2302127 1.1048791 1.4340641 1.4164206
0002a0 98 09 95 3f 7c ac 38 3f 1f 9c ad 3f 66 76 23 3f
       1.1643553 0.7213819 1.3563269 0.63852537
0002b0 31 0d 24 3f 0b 5e 20 3f e9 7c 22 3f 4e eb 39 3f
       0.6408263 0.626435 0.6347185 0.7262467
0002c0 ef 4c 99 3f 46 38 e0 3e be 28 5e 3f 03 6e aa 3f
       1.1976603 0.43792933 0.8678092 1.3314823
0002d0 24 b0 84 3f 82 bd a2 3f ae 5f 8b 3f d8 8e 4f 3f
       1.0366254 1.2714083 1.0888574 0.8107734
0002e0 04 42 8c 3f 38 32 68 3f 16 cc 94 3f 07 18 4b 3f
       1.0957646 0.9070163 1.1624782 0.7933354
0002f0 b9 6b 4d 3f 9c 69 9d 3f bd b6 a3 3f 0a 19 89 3f
       0.80242497 1.2297854 1.2790142 1.0710766
000300 2a 78 4e 3f 62 2f 74 3f 34 4b 35 3f 55 33 6c 3f
       0.80652106 0.953848 0.70817876 0.92265826
000310 66 62 6c 3f d9 29 76 3f 80 79 7b 3f 2f 6c 4a 3f
       0.92337644 0.96157604 0.9823227 0.79071325
000320 17 8a 95 3f 5e 3b 90 3f 96 fc 90 3f e2 33 30 3f
       1.1682767 1.1268117 1.1327083 0.68829167
000330 ba 2d 7b 3f 70 7b 39 3f 6d 8b 3d 3f 4a 02 4a 3f
       0.9811665 0.72453976 0.7404087 0.7890974
000340 73 8a ff 3e b7 46 65 3f c3 80 14 3f 6e 00 3c 3f
       0.49910316 0.8956103 0.58008975 0.73438156
000350 8d 6e 61 3f cb 62 6e 3f 67 63 0c 3f 9d ec 5b 3f
       0.8805931 0.93119496 0.54839176 0.8590792
000360 91 45 b5 3f 89 05 7e 3f cb b4 63 3f e5 c6 6e 3f
       1.4161855 0.99227196 0.88947743 0.9327224
000370 45 6e 91 3f e5 2e 41 3f 8a d1 6a 3f c0 f0 6b 3f
       1.1361777 0.7546218 0.9172598 0.9216423
000380 ad 57 7b 3f 84 9f 62 3f d6 de 99 3f 17 cd 86 3f
       0.9818066 0.8852465 1.2021129 1.0531338
000390 87 94 a6 3f bb 27 a8 3f af af 70 3f 66 95 94 3f
       1.3014077 1.3137125 0.9401807 1.1608093
0003a0 23 5a b3 3f 38 1f 65 3f 36 bf 97 3f c1 ce 80 3f
       1.4011883 0.8950076 1.1855228 1.0063096
0003b0 3a b7 80 3f 47 20 5f 3f a8 23 87 3f e0 f8 aa 3f
       1.0055916 0.87158626 1.0557756 1.3357201
0003c0 82 e1 52 3f e3 55 26 3f 68 0d bb 3f 62 87 c5 3f
       0.8237535 0.649748 1.4613466 1.543194
0003d0 db 28 ce 3f bb f0 c9 3f fe 20 7f 3f ac f6 3c 3f
       1.6106218 1.577659 0.9965972 0.7381389
0003e0 d8 0c 8f 3f f2 07 3b 3f ad ee f2 3e 31 3a a6 3f
       1.1175795 0.73059 0.4744772 1.2986509
0003f0 ea b7 53 3f 34 63 c2 3f 09 00 34 3f d9 c7 29 3f
       0.82702506 1.5186524 0.70312554 0.6632057

base.feature_norm.bias f4 [420]
000000 7e 45 3d 3c 56 73 61 bd 3c 31 5a bd 42 17 68 bd
       0.011552213 -0.055041634 -0.05326961 -0.056662805
000010 e6 d9 23 3c 08 e5 22 bf 28 51 95 3e 3f 31 47 3e
       0.0100006815 -0.63630724 0.2916348 0.1945238
000020 71 ee 71 3e 12 6f 73 3e 04 95 87 3e cc 09 8b 3e
       0.23626114 0.23772839 0.26480877 0.27155912
000030 2a df 50 bc be 2f 61 bc b1 13 b7 3d e6 f1 a6 bc
       -0.012748519 -0.013744293 0.08939303 -0.020379018
000040 d7 66 66 bb 14 95 09 bf dc 2b 63 3e 8c 2f b8 be
       -0.0035156512 -0.537431 0.221847 -0.35973775
000050 a1 5b a4 be d8 bd 44 be 64 b7 6c be 69 5b b5 bc
       -0.32101157 -0.19213045 -0.23116833 -0.022138314
000060 32 92 02 bf 18 25 69 3e d3 9b 25 3e 46 fb 39 3e
       -0.51004326 0.22768056 0.16172723 0.1816226
000070 32 8b 06 3e ea 88 ac 3e 28 9c a5 3e 22 da 46 3e
       0.13139036 0.33698207 0.323457 0.19419149
000080 4e 88 b7 bd bb e3 88 3e 5d fd 87 3d ae fc 7c bc
       -0.08961545 0.26736245 0.06640122 -0.015441103
000090 da 4e df bc 55 d0 56 bd 1a 43 30 3e eb 63 df bc
       -0.027259279 -0.052444775 0.17213097 -0.027269324
0000a0 dc 2c 91 3e 72 f9 6c 3e a2 42 34 3e 1a e1 a6 3e
       0.28354537 0.23142031 0.17603543 0.32593614
0000b0 a8 5f 9d 3e 4b bb 2e 3e d0 0f aa 3e 29 49 b2 3d
       0.30737042 0.17063634 0.3321519 0.087053604
0000c0 34 a4 cd 3e 63 32 30 3e d0 6b 3d 3d f7 29 31 3e
       0.4016434 0.17206721 0.046245396 0.17301165
0000d0 6b b1 76 3d 41 53 3a 3e 93 18 2f 3e a1 e9 ac 3e
       0.060227793 0.18195821 0.17099218 0.33771995
0000e0 9b 1d 78 3e f2 fb 68 3e 8f 33 d2 3e 81 b2 97 3e
       0.24230044 0.2275236 0.4105496 0.29628375
0000f0 c2 ef 8d 3e 70 79 96 3e 4d e9 94 3e 48 37 79 3e
       0.27721983 0.29389524 0.29084244 0.24337494
000100 2b 97 09 3e 82 26 06 3e bc 03 9d 3e 42 67 92 3e
       0.13436572 0.13100627 0.30666912 0.28594404
000110 b1 0d 4a 3e ac e7 0d 3e e7 47 94 3e 44 04 73 3e
       0.19731785 0.13857907 0.28961107 0.23732096
000120 fd 64 88 3e 2c c0 ab 3e 0b f2 a0 3e 0b a4 97 3e
       0.26639548 0.33545053 0.31434664 0.29617342
000130 5d d9 91 3e c1 5f a9 3e c8 39 ab 3e 2a 46 8e 3e
       0.28486148 0.33080867 0.3344252 0.27787906
000140 dd 2e 82 3e 4a 9c 6d 3e 1b ed 55 3e 9c 24 87 3e
       0.2542638 0.23204151 0.2089123 0.26395118
000150 83 05 89 3e 83 e2 e5 bd 0d 26 06 3e fb 6d c7 bd
       0.26762018 -0.11224844 0.13100453 -0.09737774
000160 c6 34 68 3e da 09 83 3e e8 05 75 3e 0a 28 80 3e
       0.22676381 0.25593454 0.23928034 0.25030547
000170 a7 18 7b 3e 15 5c 82 3c 8d 45 80 bd 42 a6 c3 3d
       0.24521123 0.015913049 -0.06263266 0.095531955
000180 b0 aa 81 bd 0f 68 bf bd 33 4e 4a be 74 fd 20 be
       -0.06331384 -0.093460195 -0.19756393 -0.15721685
000190 df d0 5d be 3d 75 77 be 39 a5 85 be 96 0d 24 be
       -0.21661709 -0.24165817 -0.26102617 -0.16020808
0001a0 12 f2 2c be 40 13 06 3d 23 fb b6 3d 2c 0c b4 bd
       -0.16889217 0.032733202 0.08934619 -0.08791384
0001b0 ed 58 3e be ec 9e 5d 3d 44 34 da 3d f1 a4 0a 3e
       -0.1858861 0.054106638 0.106545 0.13539483
0001c0 b0 6d 03 bd 07 d6 4c be bf a6 63 be 31 1d 93 be
       -0.032087028 -0.2000352 -0.22231577 -0.2873321
0001d0 fd 63 88 be 5f dd c0 be bc e5 4a 3e b0 e4 59 bc
       -0.26638785 -0.37668893 0.19814199 -0.013299152
0001e0 33 a9 8e 3d c4 42 7d 3e 0f cd 03 3e 95 2d 36 bc
       0.06965866 0.247325 0.12871192 -0.011119266
0001f0 53 d8 90 bd 99 c7 c3 3d 67 3d 3e 3e e2 9f 1e 3e
       -0.070725106 0.095595546 0.1857811 0.15490678
000200 d3 a1 02 be f6 36 8a be 09 02 1b be e5 4f 95 be
       -0.12757044 -0.26995057 -0.15137495 -0.29162517
000210 76 f5 0e bf 8c cd 4d 3e b3 47 38 3e f1 16 7d bd
       -0.55843294 0.20097941 0.17996101 -0.061789457
000220 fc b2 4a 3e a2 8f ac 3d 5b 9f 38 3e bc 6f 04 3e
       0.1979484 0.08425833 0.1802954 0.12933248
000230 59 4a c0 bc b9 5b 7e 3e ec 65 2a 3e 1e c7 be be
       -0.023472952 0.24839677 0.16640443 -0.3726129
000240 96 02 3f bd a4 1c 0c be 7a f7 2e be 2a 71 df bd
       -0.046633326 -0.136828 -0.17086592 -0.10910256
000250 ae ca 12 3e ee ea f9 bc 96 af 2d 3e a9 2e 4a 3e
       0.14335129 -0.030507531 0.16961512 0.19744362
000260 bf e4 7d 3e 2f 71 e3 3d 60 6c 50 3e 93 b6 3c 3e
       0.24794291 0.111055724 0.20353842 0.18429022
000270 e7 0f 8a bc 1f 14 21 3e db d7 b1 3c d1 6a 92 bb
       -0.016853286 0.15730332 0.021709373 -0.0044683
000280 17 0b 57 3c b6 f5 9c 3c 42 8f 29 3d 92 a4 54 be
       0.013125203 0.019160133 0.041396387 -0.20765904
000290 08 e8 27 be 52 de 0a be ba 38 d5 be 73 6b 1d be
       -0.16397107 -0.13561371 -0.4164484 -0.1537302
0002a0 1f d2 13 3d 46 a6 a3 3e 60 3c d5 bd de bd 6e 3e
       0.03608906 0.31962794 -0.10411906 0.23314616
0002b0 70 02 81 3e 42 1a 9d 3e e5 76 6e 3e 14 5d 9e 3e
       0.25197172 0.30684096 0.23287542 0.30930388
0002c0 ad c9 9b 3d c5 a0 3c 3e 05 fa 86 3e e7 2d f5 3d
       0.07606826 0.18420704 0.26362625 0.11971646
0002d0 99 3a 1c be 7f 9e 91 bd 36 8a 44 3c 57 a1 6e be
       -0.15256728 -0.07110309 0.011995843 -0.23303734
0002e0 41 95 2a be 76 a0 80 be dc 33 78 bd b2 a5 1a be
       -0.16658498 -0.25122422 -0.060596332 -0.1510227
0002f0 34 77 d2 bd 45 5c 33 bd 8d 79 c4 bd 17 73 12 3e
       -0.102766424 -0.043789167 -0.095934965 0.14301716
000300 30 e6 70 3e b2 d9 82 3e 09 d1 40 3e ce ac 84 3d
       0.2352531 0.25556713 0.1882974 0.064782724
000310 c4 d5 06 3e 41 89 c9 3d 07 bf b2 3c 44 b5 d3 3d
       0.13167483 0.09840632 0.021819605 0.10337308
000320 31 6f 2f 3c 91 20 c7 bd 19 93 9d 3d 3e bc 2f 3e
       0.010707662 -0.097230084 0.07694072 0.17161652
000330 9f f8 6c 3d 4c ca 0f 3e a8 c8 90 3e ff bf cd 3d
       0.05785429 0.14042014 0.2827809 0.10046386
000340 78 48 5c 3e db ad 78 3e db 08 63 3e 77 09 44 3e
       0.2151202 0.2428507 0.22171347 0.19144236
000350 9b c2 0e 3e 9a 6a 91 3e b1 c9 0d 3e 4f 60 83 3e
       0.13941424 0.28401643 0.1384647 0.25659415
000360 1c 08 4d 3e 35 89 42 3e de a4 85 3e ef a9 a0 3e
       0.20022625 0.18997653 0.26102346 0.3137965
000370 41 d6 a9 3e f4 d5 aa 3e 81 6f 9f 3e 12 2a 1f 3e
       0.33171275 0.33366358 0.31139758 0.15543392
000380 2a ed e4 3e c1 de a7 3e cf 88 60 3e c0 1d b3 3e
       0.44712192 0.32787135 0.21927188 0.34983635
000390 05 a1 4c 3e 8f 64 23 3e e0 c3 42 3e f4 9a 4d 3e
       0.19983299 0.15956329 0.19020033 0.20078641
0003a0 7a f9 3a 3e 7d 7f 85 3e 1f a0 60 3e c2 d2 7f 3e
       0.1825923 0.26073828 0.21936081 0.24982741
0003b0 2c 80 7c 3e 69 45 d2 3e 6a c0 7c 3e 3e 56 6f 3e
       0.24658269 0.4106858 0.24682775 0.23372743
0003c0 0e aa bf 3e 87 49 d7 3e 46 53 43 3e 04 85 08 3e
       0.3743443 0.42048284 0.19074735 0.13331991
0003d0 dd fc 0d 3e 9e 09 28 3e 88 9e 3c 3e 81 24 d1 3d
       0.13865991 0.16409919 0.1841985 0.10212041
0003e0 40 8a f0 3d 8d fb c7 3d b3 20 d4 3d 6d 93 13 3e
       0.11745119 0.097647764 0.103577994 0.14411707
0003f0 23 28 26 3e 1c b4 ba 3c 98 93 8e 3e 0b a8 68 3e
       0.16226248 0.022790961 0.2784698 0.22720353

base.mlp.fc1.0.weight f4 [64, 420]
000000 d4 40 1f be c0 8f 66 3e 77 b7 82 be aa e0 58 bc
       -0.15552074 0.22515774 -0.25530598 -0.013237158
000010 4d cf 1d 3f fd 59 25 bd ba 2c 6c bd 1f e3 90 bd
       0.6164444 -0.040369023 -0.057659842 -0.0707457
000020 9e c4 04 be ab f3 04 be a4 4e f3 3d 39 c3 70 3e
       -0.12965629 -0.12983577 0.11880234 0.23511972
000030 5e 03 be bd cc 76 a2 be ba 43 c1 bd 11 e4 0d 3e
       -0.09277986 -0.3173126 -0.09436746 0.13856532
000040 86 8d 55 3e 7e f2 58 3e b2 77 db be 81 9c 50 be
       0.20854768 0.21186253 -0.42864758 -0.20372202
000050 56 2a 1d 3e fd 06 0c 3f 8c 51 ab 3e 0e bf b9 bd
       0.15348181 0.54698163 0.33460653 -0.09069644
000060 6f 02 e2 3c 32 64 66 be d8 09 05 3f 45 b1 16 3f
       0.027589051 -0.22499159 0.51968145 0.5886424
000070 48 aa 8b 3d 81 28 f1 be b5 cb 3b 3e 8b b7 2e 3d
       0.06819588 -0.47101215 0.18339427 0.04265551
000080 99 f5 ae 3e 66 93 db 3d 0c 42 4b 3d b2 19 96 3e
       0.3417175 0.107214734 0.049623534 0.2931648
000090 8a bb e3 3d e8 15 0c 3f ad 03 17 3b 1b bb 2e 3e
       0.111197546 0.54720926 0.0023042962 0.17063563
0000a0 b9 01 52 bd 28 f8 b3 3e 07 6e 23 be c8 19 82 3e
       -0.051271174 0.35150266 -0.15959941 0.25410295
0000b0 1d 5d a0 3d 43 9c 04 3e 3b 56 79 3d 27 d3 c2 be
       0.0783026 0.12950234 0.06087325 -0.3805172
0000c0 0c 89 a1 3d 0e f8 09 be 2b 4c df bd b7 ec be bd
       0.07887468 -0.13473532 -0.109032 -0.093224935
0000d0 1d e0 10 3e 50 bc b2 3d 20 60 5d 3e 23 8a 51 be
       0.14147992 0.08727324 0.216187 -0.20462851
0000e0 6c 4f 3b bc c0 e4 82 3e d5 d5 4e be 3f f2 34 3c
       -0.01143251 0.25565147 -0.20198758 0.011044084
0000f0 0d 05 cf bd 4c 63 56 be 4c f8 87 3e 6f 15 64 be
       -0.10108385 -0.20936316 0.26556623 -0.22273801
000100 6d 37 a0 bd 11 51 a5 bc 35 f2 c7 bd db c8 85 3d
       -0.07823072 -0.020180257 -0.09762994 0.06532451
000110 1e 45 90 bd 42 8a 00 3d 89 d1 8f bd 06 9b 75 be
       -0.07044433 0.031381853 -0.070223875 -0.23984918
000120 73 b2 fd bd 57 d2 1e 3b 6c a9 24 be 8a a4 c7 bd
       -0.12387552 0.002423426 -0.16080254 -0.0974818
000130 cc 5c 00 bd b5 49 f7 bd c7 74 f4 bd d7 4a 99 bd
       -0.031338498 -0.120746054 -0.11936336 -0.07484978
000140 f9 29 1f be b1 3b 75 bd a7 fc 06 be 18 82 a2 bd
       -0.15543355 -0.05987138 -0.13182317 -0.0793497
000150 af b3 9d 3c 15 ff fa 3e 8c e4 a2 bd ab 7d 7a bc
       0.019250719 0.49022737 -0.07953748 -0.015288751
000160 f7 b8 83 bb 6f 6a 80 be 5e f4 b5 bd d2 4b 92 bd
       -0.0040198523 -0.25081202 -0.088845 -0.07143368
000170 51 7d 8f 3d 61 c5 89 3d 7d eb b8 3d 51 89 fe 3d
       0.07006324 0.067271 0.09029291 0.12428535
000180 79 33 ae 3e c1 58 b6 3d e8 0e d8 3e b6 02 b0 3e
       0.34023646 0.08903647 0.42198873 0.34377068
000190 dd a5 2f 3d ec 99 59 3e de f8 c8 3e 81 cc 59 3e
       0.04288279 0.21250123 0.3925237 0.21269418
0001a0 2d d4 06 be 7c 94 0b 3f a9 28 1c 3e 69 c5 89 3e
       -0.13166876 0.54523444 0.15249886 0.26908424
0001b0 70 29 11 3c 12 f6 0e 3e 9d 54 a6 3d 3b ae 44 be
       0.008859977 0.13961056 0.081216075 -0.19207089
0001c0 91 1b 1f 3e 12 2d 09 3d 55 ff 90 3e 82 65 39 3e
       0.1553786 0.033490248 0.28319803 0.18105128
0001d0 2d e7 b4 3d 9c a0 9c 3d 5b 7f 87 be e0 a5 22 bc
       0.08833156 0.07647821 -0.26464352 -0.009927243
0001e0 bc ab 14 3c be ea 1f bc c4 fa ef bd 20 4f 37 3e
       0.009074148 -0.009760557 -0.117177516 0.17901278
0001f0 49 9f 08 3d 3c 5d 95 3d fd d6 db bd e3 41 97 be
       0.03335503 0.07293174 -0.10734365 -0.29542455
000200 4d 5d 5e 3e 78 cc 31 3e 11 b2 0e be 22 2e 8b 3e
       0.21715279 0.17363155 -0.13935114 0.27183634
000210 cd b0 2e 3e cd e5 19 be fd 74 62 be fc a3 7b 3e
       0.17059632 -0.15029068 -0.2211494 0.24574274
000220 a0 30 ad 3d 65 81 36 be 69 da 35 bd d0 84 a6 3d
       0.0845654 -0.17822798 -0.044397745 0.08130801
000230 30 08 7b be 54 0a 37 3e 55 27 80 be d6 5f 90 bc
       -0.24514842 0.17875034 -0.25030008 -0.017623823
000240 3f 8f 9d bd 9f 50 ec bc 64 5e 5e be b6 f0 18 be
       -0.07693338 -0.028847037 -0.21715695 -0.14935574
000250 1c e8 07 3c 54 7e cc 3d 93 50 6d be 60 87 cf bd
       0.008295085 0.09985033 -0.23175268 -0.101332426
000260 cb e9 37 be bf 63 db be b5 56 23 bf 1e 19 69 bd
       -0.17960279 -0.42849538 -0.6380418 -0.05690872
000270 82 9b 9e be 1d 7a 0d be b8 35 bb be b6 7a c7 be
       -0.30978018 -0.13816114 -0.36564422 -0.3896081
000280 4d d7 de be ad 31 5c bf 4a de 2d bf 02 41 85 bb
       -0.43523636 -0.860133 -0.6791731 -0.0040665874
000290 8b b8 b6 3e 81 38 fa b9 8f c9 5a 3e 25 c8 12 3e
       0.3568767 -0.00047725815 0.21365951 0.14334162
0002a0 d5 f4 bc be 4f e4 45 be ba 18 e1 3e 62 e5 a1 3c
       -0.36905542 -0.19325374 0.43964177 0.019762699
0002b0 c6 ec 3d bd 34 74 19 be b7 ab 13 bd c3 92 fd bd
       -0.046368383 -0.14985734 -0.036052432 -0.12381508
0002c0 d6 48 97 3d 0a 4e 0c 3e 18 e4 57 be e9 7b c1 3e
       0.07386939 0.13701645 -0.21083105 0.37789848
0002d0 c5 13 2b be 2a 71 70 3e 9b a1 e2 3e 61 81 47 be
       -0.1670676 0.23480669 0.4426392 -0.19482948
0002e0 4c dd aa 3d 2e 7b 89 bc 02 ca 8e 3e 01 30 07 be
       0.0834299 -0.01678237 0.27888495 -0.13201906
0002f0 67 1e 09 3e b4 52 8e 3e 58 2f c5 3e 9a 0f d9 be
       0.13390504 0.27797472 0.38512683 -0.42394716
000300 60 42 90 be fc 44 cd bc c3 fb ea 3d c6 13 00 3a
       -0.2817564 -0.025057308 0.11473801 0.0004885759
000310 0c 19 23 3e bd db 96 be 29 d6 c6 be de 3c 9e be
       0.15927523 -0.29464522 -0.38835266 -0.30905813
000320 85 a1 8d be 54 58 5f be 91 73 49 3e 48 fb 35 be
       -0.27662292 -0.21811038 0.19672991 -0.17771637
000330 e8 b4 12 be 67 35 5f bd 2d b9 dd 3e 88 10 77 be
       -0.14326823 -0.054494288 0.4330534 -0.241274
000340 0b fd c8 bd 3f 5d a8 be ee fd 50 be 97 9f 21 be
       -0.09813889 -0.3288364 -0.20409366 -0.15783535
000350 30 ed fa 3d ab 3d 6c be a4 01 4d 3d bd a3 be be
       0.12252271 -0.230704 0.050050393 -0.37234297
000360 af 77 53 bf 26 3f 8b bd 2d 54 0f be 3b ac d7 be
       -0.826045 -0.06799154 -0.13996954 -0.4212359
000370 1e db 8f 3d 0b cf 21 be 11 04 33 bd ad 20 98 be
       0.07024215 -0.15801637 -0.04370505 -0.2971243
000380 57 39 cb be 97 8d 16 be 50 9a d2 be 6c 35 13 bf
       -0.39692184 -0.1470245 -0.41133356 -0.5750339
000390 ca 95 4a bd 74 f8 ae be 8e 83 e1 bd 98 48 16 bf
       -0.049459256 -0.3417393 -0.1101142 -0.5870452
0003a0 e6 bf 02 bf a3 bf db be 52 3e 0b bf 3e 4a 96 be
       -0.51074064 -0.42919645 -0.5439197 -0.29353517
0003b0 df ab 92 be 8b c7 61 be 4f 3d f0 bd be 8a 0c bf
       -0.28646752 -0.22048776 -0.11730444 -0.54899204
0003c0 eb 6f 55 be 53 af 26 be cc 65 4f bf cf 6e d1 be
       -0.20843475 -0.16277818 -0.81014705 -0.40904853
0003d0 4b 2b 6c bf 91 3d 26 bf a8 c7 89 bb db 99 97 bd
       -0.9225356 -0.6493769 -0.004204709 -0.074023925
0003e0 45 9d 3d 3e 6a d4 c6 bd c4 c4 aa 3e 57 e5 ad bc
       0.18517025 -0.097084835 0.33353245 -0.021227522
0003f0 d2 40 13 3e ab bd 00 3f 68 06 a3 3d 37 fe 32 3b
       0.14380196 0.5028941 0.07960206 0.0027312168

base.mlp.fc1.0.bias f4 [64]
000000 e6 da 62 bc e3 82 b0 3d 51 0a d1 ba 2a 7f 21 3e
       -0.013846135 0.08618715 -0.0015948509 0.15771165
000010 64 b1 1d bd ed 56 af 3d d1 2d 0f 3e 57 c6 10 3d
       -0.03849925 0.08561502 0.13982321 0.0353454
000020 c8 05 12 3e 82 ae 20 be 13 6b b3 bd c8 2a ca ba
       0.14260018 -0.1569157 -0.08760657 -0.0015424127
000030 e1 ba dd 3d 05 1e c0 3c fa 8b 99 3e 8b da b3 3e
       0.1082666 0.023451814 0.29989606 0.35127673
000040 77 7b 7f be 5b 6b bf 3c 57 b7 47 3e ee 17 47 be
       -0.24949442 0.02336662 0.19503532 -0.19442722
000050 0d 18 a6 bd f4 d5 f6 bd e5 eb 3e 3e 5c 5b c7 3c
       -0.08110056 -0.12052527 0.18644674 0.024335556
000060 41 69 fb bc 2f c8 99 3d 82 3c 1d 3f 02 7e ab 3d
       -0.030689837 0.07508885 0.6142045 0.083736435
000070 d9 e2 50 bd 8c 37 3c bd a5 db 30 be 5d cd f4 3c
       -0.05099759 -0.04595141 -0.17271288 0.029883081
000080 33 13 82 bd 70 3b 68 bc d4 07 87 3d e1 06 0e 3e
       -0.06351318 -0.014174327 0.0659329 0.13869812
000090 6d b3 b0 3e 4a fe 13 be 71 0b 25 bc da c5 b9 be
       0.3451189 -0.14452472 -0.010073529 -0.3628376
0000a0 2a 04 9f be 9b ef e1 3d b6 09 e6 3d 27 2a b0 3d
       -0.31057864 0.11032029 0.11232321 0.0860179
0000b0 c4 f9 c9 bd 28 cc 27 3e 83 21 93 3e 0e 49 73 be
       -0.09862092 0.16386473 0.28736505 -0.23758337
0000c0 fd e9 05 3f a5 5a c4 3d 09 4d 91 bd 88 71 e0 3d
       0.5231016 0.095876016 -0.070947714 0.10959154
0000d0 08 e1 3c 3e 6a e6 d7 3d 87 56 66 3e 78 4e 8c be
       0.18445218 0.10541995 0.22493945 -0.27403617
0000e0 09 65 21 3c 7f 4a e0 3d e2 3b 81 be 0d 4f a2 3d
       0.009850749 0.10951709 -0.25241 0.07925234
0000f0 b5 c3 86 bc 99 de a7 3e 1b ed 11 3e 66 9d 27 be
       -0.016450742 0.32787016 0.14250605 -0.16368636

base.mlp.fc1.2.weight f4 [64]
000000 6d d2 a6 3f e7 be 97 3f 64 60 80 3f f8 8e 99 3f
       1.3032967 1.1855134 1.0029416 1.1996756
000010 33 e1 8a 3f c8 cb 93 3f d2 37 86 3f 85 6e 8c 3f
       1.0849975 1.1546564 1.0485785 1.0971228
000020 5f f6 7d 3f 09 18 91 3f 68 a9 a6 3f 5c fd 63 3f
       0.9920406 1.133546 1.3020449 0.8905847
000030 6e 7a 78 3f f4 7e 90 3f de de 61 3f 83 fc 9a 3f
       0.9706181 1.1288743 0.88230693 1.210831
000040 92 a1 82 3f 02 39 96 3f 31 7c a9 3f 5f 59 8d 3f
       1.0205557 1.1736147 1.3241025 1.1042899
000050 5f 6f 25 3f 95 1c 51 3f 2c 46 7e 3f b4 ba 75 3f
       0.64623064 0.8168424 0.99325824 0.9598801
000060 5c dd 40 3f 44 0e 48 3f 37 57 b1 3f 7b 8c 50 3f
       0.7533777 0.7814677 1.3854741 0.81464356
000070 03 dc 6c 3f da 03 a2 3f b1 85 8b 3f d3 2a 88 3f
       0.9252321 1.2657425 1.0900174 1.0638069
000080 f7 d7 8e 3f 7e 7b 75 3f 5b 16 9d 3f 90 b9 b5 3f
       1.1159657 0.9589156 1.2272447 1.4197254
000090 09 6a be 3f b1 57 a5 3f dd a5 2f 3f 37 f9 9a 3f
       1.4876109 1.2917386 0.6861246 1.2107304
0000a0 bc 9a 6a 3f 83 31 91 3f a4 c2 7d 3f b3 cd 98 3f
       0.91642356 1.1343235 0.99125123 1.1937774
0000b0 f2 e8 89 3f 25 c2 87 3f ba f7 79 3f 03 bb 8c 3f
       1.0774214 1.0606123 0.97643626 1.0994571
0000c0 84 a0 92 3f e8 e0 af 3f d4 0a 95 3f 3a 24 ab 3f
       1.1455235 1.3740511 1.164393 1.337043
0000d0 6e f3 a3 3f 72 7e 73 3f c2 66 95 3f e1 13 8f 3f
       1.2808664 0.95114815 1.1671984 1.1177942
0000e0 bc 19 82 3f 8c 49 9e 3f 08 70 e7 3e 2c 09 ab 3f
       1.0164104 1.2366195 0.4520266 1.3362174
0000f0 22 13 a1 3f 49 3f 81 3f 5a 61 b0 3f 43 42 8c 3f
       1.2583964 1.0097438 1.3779709 1.0957721

base.mlp.fc1.2.bias f4 [64]
000000 fc 0d 69 be cb 2d 5f 3e f0 a5 38 3e ab 53 68 3e
       -0.22759241 0.21794812 0.1803205 0.22688167
000010 b2 9f e3 3d 22 c8 b2 3d be 2f 22 bd b3 03 e6 bc
       0.11114444 0.087295786 -0.03959631 -0.028077936
000020 84 c4 c3 3d ea 7d 4d bd e0 b5 99 3d f1 bc bb 3c
       0.09558967 -0.05016891 0.07505393 0.022917243
000030 b7 75 08 bd 53 1b 27 be 9b 0c 8d 3e c4 88 f4 3d
       -0.033315387 -0.16319017 0.2754868 0.119401485
000040 50 ed 8f 3b 45 11 de 3b b1 20 29 bd 99 12 45 bc
       0.0043923035 0.006776961 -0.041290943 -0.01202836
000050 98 d7 9a 3e dc 74 72 be fa 76 94 3e 17 a8 d8 bb
       0.3024261 -0.23677391 0.28997022 -0.0066118347
000060 88 f4 34 3e 87 f7 33 3e bd c5 17 3d 3e f8 c3 3e
       0.17671406 0.17574893 0.037053812 0.3827533
000070 94 91 87 3d a5 46 33 be 8f 36 68 3d 06 95 17 be
       0.06619564 -0.17507418 0.056692656 -0.14802942
000080 bf a7 58 be 0f 10 25 3e 82 2c 68 bb 23 2b c9 3d
       -0.2115774 0.16119407 -0.003542692 0.09822681
000090 c1 b3 20 3d e6 9e 80 bd 57 90 a3 bc b1 46 aa be
       0.039233927 -0.062803075 -0.019966288 -0.33257058
0000a0 b2 64 90 3c 33 7c 47 bd a8 cd 7d 3e 8b c7 b5 3e
       0.01762614 -0.04870243 0.24785483 0.35503802
0000b0 f9 e3 0d 3e 17 a5 8a 3d d9 e0 46 3e a4 f4 a7 3d
       0.13856496 0.0676977 0.1942171 0.08200958
0000c0 9b 27 f7 3d b3 b6 9d 3d 1f 5e 85 be ea d2 f6 3d
       0.12068101 0.07700863 -0.2604837 0.120519474
0000d0 2d 66 41 3d 50 1b c6 3d 3e 09 b6 3e 98 20 79 bc
       0.047216583 0.09673178 0.35553926 -0.015205525
0000e0 97 39 de bd 14 21 ed bd d6 fb c0 3e 65 7e 96 3c
       -0.10850828 -0.11578575 0.37692136 0.018370816
0000f0 13 8d 4b 3d d6 3b 86 3d f2 87 d8 bd 30 78 f3 bd
       0.049695086 0.065543815 -0.105728045 -0.11888158

base.mlp.fc2.0.0.weight f4 [64, 64]
000000 3a 79 a9 be 06 31 bd bf e7 6c f0 bd 05 1c 82 3f
       -0.331003 -1.4780586 -0.117395215 1.0164801
000010 a6 40 20 bc 07 84 82 3e d3 5c fe be 7c ca a9 bd
       -0.009781038 0.25491354 -0.49680194 -0.08290574
000020 f9 0b 26 3f 6b fc 89 bf 92 f2 ce be 13 bc 48 bc
       0.6486202 -1.0780157 -0.4041944 -0.012251872
000030 23 5f 58 3f 5c 8e a9 3e 17 44 2f bf d2 dd d2 be
       0.8452017 0.33116424 -0.6846327 -0.4118486
000040 97 cb a8 be df e4 00 3f 93 4e a9 be 1f 36 e3 be
       -0.32967827 0.5034923 -0.3306776 -0.4437723
000050 39 4d 50 bc e0 69 1d bd 2a d4 41 3e 78 ad 61 bd
       -0.012713724 -0.03843105 0.1892859 -0.055097073
000060 d3 a7 da 3e 99 ca bc 3e 1f d0 e8 3d 92 61 53 be
       0.42706165 0.3687332 0.11367821 -0.20642689
000070 91 90 36 bf d6 77 39 be 36 41 54 3d 68 fc f0 bd
       -0.7131434 -0.1811212 0.051820002 -0.11766893
000080 b5 6a 70 bd 35 06 93 bd 84 0a 94 3e da cc 70 bd
       -0.058695514 -0.07178918 0.28914273 -0.05878911
000090 97 48 9a be e4 6c c6 bd e1 02 60 be 5e 41 2d 3f
       -0.30133507 -0.09688738 -0.21876098 0.6767787
0000a0 4b 1e 8b 3d 4c 22 89 bd 91 15 2e be e0 eb 9c 3e
       0.06792887 -0.06695995 -0.17000414 0.30648708
0000b0 52 cb b6 3f 4f a3 2c 3e 74 85 af be bd b4 7c 3e
       1.4280798 0.16859172 -0.34281504 0.24678321
0000c0 04 db 65 3f 80 87 2b be 44 53 56 3f 68 c6 b2 be
       0.89787316 -0.16750908 0.83720803 -0.34916997
0000d0 26 fe de 3d b3 42 9e bc 59 fc 21 be a8 ad 2e 3e
       0.10888319 -0.019318914 -0.15818919 0.17058432
0000e0 b0 a1 cf 3e 0f 39 92 3f 2d 2b 2a bf 9e f7 0f bc
       0.40553045 1.1423663 -0.6647213 -0.008787064
0000f0 a8 cc 28 be 07 83 97 3e d4 48 9a be ca 26 23 3f
       -0.1648432 0.29592153 -0.30133688 0.6373106
000100 b3 8b 83 3e de 15 0b bf f7 fc 6f bd 2c 63 e3 3e
       0.2569252 -0.5433024 -0.058590855 0.444116
000110 f7 2e 93 be 5d c3 bf be d1 81 f5 3e 43 cf 72 be
       -0.2874677 -0.37453738 0.47950605 -0.23711877
000120 19 db 66 3e 45 e3 82 bd cd 57 a1 bd e3 79 06 3f
       0.22544517 -0.063910045 -0.07878075 0.52529734
000130 06 42 6d be 26 c7 bf be ec 0a 9a bd 84 e9 d8 bd
       -0.23169717 -0.37456626 -0.075216144 -0.105914146
000140 9c 46 80 3d f3 df 42 3d e8 eb 96 3e c5 05 bd 3a
       0.06263468 0.047576856 0.29476857 0.0014421275
000150 87 1f b2 be 5f a0 fe 3d 03 50 aa 3e 9d fd e9 3e
       -0.34789678 0.12432932 0.3326417 0.45701304
000160 2b a2 11 bf 1a 30 2d 3e bd 52 63 bf 29 5d 61 bb
       -0.56888074 0.1691288 -0.88798124 -0.0034387803
000170 d8 f8 d4 be 4b 75 b7 3d 81 b1 4d 3d ff 97 1d 3e
       -0.41596103 0.08957919 0.05021811 0.15390013
000180 5a 21 1a 3e d4 96 55 bd c2 9c a3 3d 8e ad 2a bf
       0.15051785 -0.052145794 0.079888836 -0.66671073
000190 1b fa 31 bf 94 35 1a 3f fa ab e5 be 3b ae f8 3e
       -0.69522256 0.60238004 -0.4485777 0.48570427
0001a0 d8 2d 97 bd 4a 1f c8 bd 2a f4 4e 3f de c7 71 bf
       -0.07381791 -0.09771593 0.80841315 -0.944456
0001b0 a6 f8 86 3e af df b7 be 59 85 4b 3e 12 b5 35 be
       0.2636158 -0.35912845 0.19875087 -0.17744854
0001c0 a3 05 9b 3e 2a 20 e4 be bb ad 77 be c0 69 0f be
       0.30277738 -0.4455579 -0.24187367 -0.14005184
0001d0 15 74 0c be 4a 81 5e 3d 4c a6 72 bd e5 26 12 3f
       -0.13716157 0.05432252 -0.059240624 0.570906
0001e0 99 ce 46 3e c4 7d bd 3d 34 9b 06 3e 12 33 83 3e
       0.19414748 0.092525035 0.13145143 0.256249
0001f0 1b a1 c0 be 64 4a 0c bf 58 2f d0 3e 31 84 c1 3d
       -0.37622914 -0.5480101 0.4066112 0.09449042
000200 7d d9 38 be 39 64 83 be b9 57 26 3f f2 c6 6b 3f
       -0.18051715 -0.256624 0.64977604 0.9210044
000210 93 17 4c bd a9 48 24 bd 29 51 0d 3f e6 b9 af be
       -0.04982717 -0.040108357 0.55201966 -0.34321517
000220 d7 0c 5e be 99 e3 9d 3e f5 7f 2f 3c 82 99 e0 3e
       -0.21684586 0.30837706 0.01071166 0.43867117
000230 97 48 8b 3e 89 7e d7 3d 5d d2 90 bd 72 0a cd be
       0.2720382 0.105221815 -0.070713736 -0.40047032
000240 65 60 36 3d 71 69 02 bf 38 2f fd bd 2f 73 5f be
       0.044525523 -0.5094214 -0.12362522 -0.21821283
000250 ab 4a 22 be 42 4d 99 bd 6e 3a f6 3e 10 01 11 3f
       -0.15848796 -0.07485439 0.48091453 0.56642246
000260 24 4b ea bd a9 3d 07 3d 6f ae 0f bf d0 75 cf be
       -0.11440113 0.033017788 -0.5612554 -0.4051957
000270 a4 70 02 3f df 17 cc 3d 66 22 5c 3e 83 e3 3c 3e
       0.50953126 0.099654905 0.21497497 0.18446164
000280 19 f0 15 bd a0 53 47 3e 82 00 b0 bb b2 cd 0e bf
       -0.036605928 0.19465494 -0.0053711543 -0.55782616
000290 de a7 0e bf bf 3e 10 3e 8e 2b 5e be 8a e0 98 3d
       -0.55724895 0.14086436 -0.21696302 0.074647024
0002a0 f6 5a 03 3f 53 45 59 bd c3 e5 ad bd d3 cd 4a 3e
       0.5131067 -0.05304463 -0.08491089 0.19805078
0002b0 df 0f 61 3d ac e2 b6 3e 37 ac 78 3e 7c 5e d1 be
       0.054946776 0.35719812 0.24284445 -0.40892398
0002c0 f6 ec 85 be 96 52 31 bf 03 f8 b8 bd 2d 3a 85 3c
       -0.2615735 -0.6926664 -0.090316795 0.016263092
0002d0 03 b0 ac 3e 3d 30 14 3e 10 8f df be cc e5 e4 3d
       0.33728036 0.14471526 -0.43663836 0.11176643
0002e0 eb 49 71 3e af 51 7d 3e 0a 20 19 be d7 00 8c 3e
       0.23563354 0.24738191 -0.14953628 0.2734439
0002f0 c5 40 93 be 8a 95 7b be a8 8f fb 3d f6 c2 ea be
       -0.28760353 -0.24568763 0.1228326 -0.45851868
000300 a6 ab 3d be a0 cd 7e bc 20 d2 71 3f 75 73 b2 3e
       -0.1852251 -0.0155519545 0.9446125 0.34853712
000310 c4 3e c1 bc 86 4b b6 3c c2 17 6a 3e a8 78 46 be
       -0.0235895 0.02225281 0.22860625 -0.19381964
000320 2e 42 30 bd 19 b0 16 3e 12 c4 af be 5b ea 23 3f
       -0.043031864 0.14715613 -0.34329277 0.64029473
000330 5d 38 e9 3d 7a 85 11 be 44 6b df 3e 52 8d ae bd
       0.113877036 -0.14211074 0.43636525 -0.085230485
000340 b4 41 1a 3d 8c 1d 2e bf 4f 07 95 3e 64 a1 80 3e
       0.037660316 -0.68013835 0.2910714 0.2512313
000350 3e 57 8e be 29 8c 00 be d8 37 3f 3f ab 23 c4 3e
       -0.27800936 -0.12553467 0.74694586 0.38308463
000360 f4 b1 e7 be cf e2 07 be 0c 5a 3e bf d4 ca 9a be
       -0.45252955 -0.13270114 -0.7435615 -0.3023287
000370 ae 5b 67 3d 7f fc 8a be b5 70 71 be ab 53 a9 3e
       0.056483917 -0.27145764 -0.2357815 0.33071646
000380 9c f9 9b bd db c4 95 3e 3b ff 82 3d 0b ae 72 be
       -0.076159686 0.2925175 0.063963376 -0.23699205
000390 e5 62 1c bf 18 b8 f2 3e d2 98 00 bf 7f 00 94 be
       -0.610884 0.47406077 -0.50233185 -0.28906628
0003a0 0a 1d f3 3d 8f ad af 3d 82 99 4d be 89 4a c7 3e
       0.11870773 0.085780255 -0.2007809 0.38924053
0003b0 53 73 a8 bd 36 f8 cc 3e e1 78 00 3d 32 16 64 be
       -0.08225121 0.4003312 0.03136528 -0.22274092
0003c0 63 94 6a be ae b7 82 be 04 8e be bd af 58 a2 bd
       -0.22908168 -0.2553076 -0.09304431 -0.07927071
0003d0 1e d4 a4 3e b6 24 cc 3e 1b 8f e4 be 9f 98 57 3e
       0.32193083 0.39871758 -0.4464043 0.21054314
0003e0 3c dc 49 3e fd 17 30 3c 0e e9 1e 3e 12 f6 8c be
       0.19712919 0.010747907 0.15518591 -0.27531487
0003f0 7b ab a1 be 92 85 90 be f3 d0 42 3f 94 6f 8f 3e
       -0.31576142 -0.28226906 0.7610008 0.28014815

base.mlp.fc2.0.0.bias f4 [64]
000000 7c 4c 2f 3e a6 54 f1 3d e8 5c 81 bd 2d 81 0b bd
       0.1711902 0.117837235 -0.063165486 -0.03405874
000010 c6 87 40 be d4 5c 1e 3e fd a9 28 be 15 92 8a 3e
       -0.18801793 0.15465099 -0.16471095 0.27064577
000020 01 43 e3 3e 50 78 8e bd 9b 29 5d 3e 8b ef 3e be
       0.44387057 -0.069565415 0.21597902 -0.18646066
000030 7c aa 3b bd 10 d6 6a 3d 5f e3 df bc 6e f4 1e bf
       -0.045816883 0.057333052 -0.027330099 -0.6209172
000040 79 bf 88 be 47 93 b8 be 6e 80 9d 3e 31 48 89 3e
       -0.26708582 -0.36049864 0.30762047 0.2681289
000050 9b 12 e7 bd ee e7 c8 3c c8 65 31 3d 10 8e 9e 3e
       -0.112828456 0.024524655 0.043309957 0.3096776
000060 ab 72 88 be 0d 63 90 be 92 10 75 be 19 19 ec 3d
       -0.26649985 -0.2820057 -0.23932102 0.115282245
000070 a6 cf 44 3e f2 3b 23 be 27 fe dc 3e 7c 95 63 3c
       0.19219837 -0.15940836 0.43162653 0.01389062
000080 8b 99 8d bc cd 9e 51 be 61 7e 74 3e f5 59 28 be
       -0.017285129 -0.20470734 0.23876335 -0.16440566
000090 a3 38 fd 3d ed 11 d1 bd 9c 20 52 be cd 1d f9 bd
       0.12364318 -0.10208497 -0.20520252 -0.12163887
0000a0 16 b0 ae 3d a4 43 20 3c eb af 26 3e 83 f1 3b bf
       0.085296795 0.009781752 0.16278045 -0.7341539
0000b0 f4 53 52 3e 28 1d 65 be 94 1e 0e 3d 17 dc 3b 3e
       0.20539838 -0.22374403 0.03469713 0.18345676
0000c0 a7 6b b1 3e a3 6a 9e 3e f0 36 f7 3e 7c ff 62 3e
       0.34652445 0.30940732 0.482841 0.22167772
0000d0 10 8c ba 3e 5e b5 e1 3e 5a 3b 2a be da 00 64 bd
       0.36434984 0.44083685 -0.16624203 -0.055664875
0000e0 a0 20 9f bd ef 26 fb 3d 1b 53 97 3c f1 14 28 3d
       -0.077698946 0.12263285 0.018472245 0.041035596
0000f0 d6 4e 8b 3d a3 49 56 3e f8 dc 38 be 01 58 63 3d
       0.06802146 0.20926528 -0.18053043 0.05550385

base.mlp.fc2.0.2.weight f4 [64]
000000 1e 2f 09 40 47 32 bb 3f 85 4d 82 3f fe 8b b6 3f
       2.1435008 1.4624718 1.0179907 1.4261472
000010 9d 1e 91 3f 14 01 b3 3f d0 62 9b 3f 1a 32 c5 3f
       1.1337467 1.3984704 1.213953 1.5405915
000020 d8 64 cd 3f de 83 68 3f 07 67 bb 3f 12 8b bd 3f
       1.60464 0.90826213 1.4640816 1.4808066
000030 f7 04 c0 3f 7a 6f c9 3f 6a 31 96 3f ac 82 cc 3f
       1.5001515 1.5737145 1.173383 1.5977378
000040 f7 b3 cb 3f ae be 9c 3f f1 e0 ca 3f 62 7a 9e 3f
       1.5914296 1.2245691 1.5849897 1.2381098
000050 f4 e4 ad 3f eb d8 91 3f 7f fe 8f 3f 1c 37 d2 3f
       1.3585496 1.1394323 1.1249541 1.6423068
000060 87 e4 ca 3f e5 6a 86 3f 6c d2 a2 3f b1 2b a8 3f
       1.5850991 1.0501372 1.2720466 1.3138334
000070 5a 1d 82 3f a1 7d d4 3f 26 e8 8e 3f 4c 86 b8 3f
       1.0165207 1.6600839 1.1164596 1.4415984
000080 af 29 ad 3f 7e b8 de 3f 0f 9d dd 3f 68 25 97 3f
       1.3528346 1.7400053 1.7313555 1.180829
000090 eb 1e c3 3f 12 81 69 3f 8e ad 9c 3f dc 6c 00 40
       1.524381 0.9121257 1.2240465 2.0066442
0000a0 1a 2a bd 3f 25 4b d7 3f 00 37 e5 3f 10 95 bd 3f
       1.4778473 1.6819807 1.790741 1.4811115
0000b0 00 4e c4 3f 1e ba 97 3f eb 37 e1 3f e6 a0 b2 3f
       1.5336304 1.1853673 1.759519 1.3955352
0000c0 d1 da b7 3f 16 50 d1 3f 8a 91 98 3f ee 84 bf 3f
       1.4363652 1.6352565 1.1919415 1.4962442
0000d0 76 02 c4 3f c7 e8 ea 3f 3d ce 9f 3f 96 3c c8 3f
       1.5313251 1.8352288 1.2484814 1.5643489
0000e0 a7 aa af 3f ba 9b d3 3f 4d 3f 9d 3f 39 39 dc 3f
       1.3723954 1.6531899 1.2284943 1.7204963
0000f0 13 7b b6 3f f9 04 d2 3f ed d7 c6 3f fc 8c 8b 3f
       1.4256309 1.6407768 1.5534645 1.09024

base.mlp.fc2.0.2.bias f4 [64]
000000 b1 8e 9e 3c 4d 62 4e bd 2b 2d ea bd 00 eb 84 3b
       0.01935515 -0.050386716 -0.11434396 0.0040563345
000010 36 24 8d bb 89 da 76 bd 9a 67 1d 3e f3 3f 36 3d
       -0.004307295 -0.060267005 0.15371552 0.04449458
000020 d7 a3 b8 3c a6 af b7 3d 90 ec d1 3d 40 91 25 bd
       0.022539062 0.08969049 0.10250199 -0.040421724
000030 a1 1f 88 bd b8 0f 11 3d 44 dd 04 bd aa ed 9a 3e
       -0.06646658 0.03541538 -0.032437578 0.30259448
000040 32 17 81 3d 61 d1 8b 3d 4f 81 27 3e aa 7a 16 3e
       0.06303252 0.06827045 0.16357921 0.1469523
000050 c7 1f f1 3c cc 58 98 3d 61 3f 64 3e 8d 40 db bc
       0.029434098 0.07438812 0.22289802 -0.026764179
000060 a9 af fa 3c 02 2c 8d 3d ca 92 47 3d 95 b5 96 3c
       0.03060134 0.068931594 0.048723973 0.018397132
000070 82 3b c1 3d ec 08 89 be 05 a2 9f 3d 69 49 ed bc
       0.09435178 -0.2676462 0.07794575 -0.028965669
000080 62 a8 26 3c 4b 6f 0d 3e cf 93 32 bd f1 3b a0 3e
       0.0101719815 0.13811986 -0.043597993 0.31295732
000090 c9 9d a7 bd fd 1f 81 bd 30 83 d2 3d 47 30 0a bd
       -0.08184392 -0.063049294 0.10278928 -0.033737447
0000a0 a4 c3 0c bd 39 d2 24 3d e9 0c 08 3e 07 61 4c 3e
       -0.034366265 0.040239546 0.13286175 0.19958888
0000b0 d4 3d 31 bd 73 bd 1b 3e 1a 7e ba bc 83 43 6c 3d
       -0.043271855 0.15208988 -0.022765208 0.05768157
0000c0 55 02 b6 3e a7 c1 9e 3c 6f 42 17 bd 47 28 b2 3d
       0.35548654 0.01937945 -0.03692859 0.086990885
0000d0 0f 6e 0f 3e 16 31 7e bb 30 18 2c 3e ee e9 14 bd
       0.14006828 -0.0038786582 0.16806102 -0.036355905
0000e0 f0 f0 81 3c 32 a4 00 bd 2c 14 f0 bd c0 39 10 be
       0.015861958 -0.03140659 -0.117225975 -0.1408453
0000f0 1b e0 cf 3c af eb 42 3c b8 40 f3 bd 80 61 bd 3d
       0.025375417 0.011897012 -0.118775785 0.09247112

act.linear.weight f4 [24, 64]
000000 29 2c 8f 38 04 45 d4 ba dc 23 ce ba 14 3d 5f 3a
       6.826997e-05 -0.0016194885 -0.001572724 0.0008515876
000010 58 fe 68 3b af 61 be b9 16 24 88 ba fc 4f e7 b9
       0.0035551991 -0.00036312404 -0.0010386731 -0.00044119346
000020 c4 2b 44 b9 61 2d dc 3a 14 9e f0 ba c9 9f 9b ba
       -0.0001870832 0.0016798192 -0.0018357658 -0.0011873181
000030 47 ab 58 ba 30 f8 f3 39 e2 cd 3a ba 86 53 b2 3a
       -0.00082652684 0.00046533486 -0.0007126016 0.0013605214
000040 1d 5b 16 b8 36 a7 ac ba fc 51 9d 3a 02 b2 c6 3a
       -3.5847643e-05 -0.0013172391 0.0012002583 0.0015159252
000050 11 8e 88 3a 66 72 d0 b9 19 65 1c 3a 2e 75 c6 37
       0.0010418316 -0.00039758085 0.00059659925 2.3658005e-05
000060 d4 dd 11 3b 1e 0d be 3a b4 a6 0b ba 95 cd cc 3a
       0.0022257464 0.0014499759 -0.000532727 0.0015625233
000070 8b 61 06 bb a4 e3 a9 3a 30 0d 53 3a d9 e5 9d 39
       -0.0020504917 0.0012961519 0.00080509763 0.00030116623
000080 a9 d8 14 3b 80 de 88 39 35 c1 f5 38 05 0f 9e ba
       0.0022712147 0.00026105717 0.00011718498 -0.001205892
000090 69 53 8d ba f7 76 10 3b 8f 1c 91 3a 92 40 14 3b
       -0.0010782304 0.0022043565 0.0011071133 0.0022621495
0000a0 f2 eb 98 3a 46 24 95 3a 39 20 43 ba e7 2f 32 39
       0.0011666997 0.0011378608 -0.0007443461 0.00016993248
0000b0 d9 cd 09 3a e6 96 c0 3a bc 53 f1 b9 52 93 80 3a
       0.0005256809 0.0014693409 -0.0004602949 0.000980953
0000c0 c2 25 4c ba b8 b9 b7 3a 65 ee 6d b8 92 22 e9 39
       -0.0007787609 0.001401714 -5.6727225e-05 0.0004446698
0000d0 77 1f bb 3a a6 d0 d2 ba f5 fe b9 39 86 2f 3d 3a
       0.0014276345 -0.0016083911 0.00035475907 0.00072168594
0000e0 20 41 0a 3a 95 9e ff b9 23 c1 f2 38 70 17 73 3a
       0.00052739866 -0.00048755543 0.00011575434 0.0009273207
0000f0 7e 52 49 bb 10 5a 2a 39 8f 1d c0 b9 2f c8 6c 3a
       -0.0030719335 0.00016246014 -0.00036643117 0.0009032515
000100 36 44 17 3a 54 39 72 3d 4e 49 23 bf 31 9f d5 bd
       0.0005770357 0.059136704 -0.6378373 -0.10430754
000110 c2 fb 90 be eb 62 c9 be 27 ec 9d bd 54 94 f0 3e
       -0.28317076 -0.3933328 -0.07711058 0.46988165
000120 d3 c6 cf be 4a ea 99 bc dc b2 cf be cd b5 73 3f
       -0.40581378 -0.018788476 -0.40566146 0.9519928
000130 90 16 3e 3f c7 22 d8 3b 1d 26 74 3e 9d 8d 6a bd
       0.7425318 0.0065959427 0.23842664 -0.05726396
000140 a9 c1 dd bd 01 5d d9 be 97 21 52 bf 8a a4 61 be
       -0.10827953 -0.4245377 -0.82082504 -0.22035423
000150 fc 7e f8 be 8b f8 8b 3e 72 b7 a0 3d 55 2a b2 be
       -0.4853438 0.2733806 0.078474894 -0.34797922
000160 d9 1a 9a be e5 68 d5 bd cd 01 ec bb 8d 06 07 bf
       -0.30098608 -0.10420398 -0.007202363 -0.5274437
000170 d2 8a 9e 3e 25 bc a3 3f 10 c7 1b 3f 60 8e ff be
       0.30965286 1.2791792 0.6085062 -0.4991331
000180 7d 8c a6 3d 36 4c 2f be d1 40 be 3e 54 52 75 be
       0.08132265 -0.17118916 0.37158826 -0.23957187
000190 16 70 70 3e 9d 36 36 3e 3e e6 c2 3d b7 1b af be
       0.23480257 0.17794271 0.095165715 -0.34200832
0001a0 5f 99 98 b9 48 50 2e bf c8 f3 42 3f bd 22 90 3e
       -0.0002910597 -0.6809125 0.7615323 0.28151503
0001b0 36 3e ae 3e 2a e0 bb bd ce 9b ed 3e b3 0f f1 bc
       0.34031838 -0.09173615 0.46407932 -0.029426431
0001c0 d8 11 8e 3e 29 6f bd 3d 0b 23 99 be c1 d5 19 3d
       0.2774799 0.09249718 -0.29909548 0.037557367
0001d0 14 61 e4 3e 52 7c 4e bf 12 74 be 3f fa 37 6d 3e
       0.44605315 -0.8065845 1.4879172 0.23165885
0001e0 25 9a ab be 98 64 95 bc c7 0a bf be 20 b6 3a 3e
       -0.3351604 -0.018236443 -0.3731291 0.18233538
0001f0 bf b0 43 3f a1 de 84 3f 0f 51 45 3f d2 5a 28 3e
       0.7644157 1.0380441 0.7707681 0.16440895
000200 57 c8 18 40 c5 04 99 3f 8c 8a c6 3f 4c 78 3b be
       2.3872278 1.195458 1.5511031 -0.18307608
000210 58 ef f4 be 5b 8b 82 3f c2 22 35 bf cd ca ce 3e
       -0.47838855 1.0198778 -0.7075616 0.403891
000220 1b 4e ea be 81 cf 86 3f 4b 63 c2 bd bd fe 1d bf
       -0.45762715 1.0532075 -0.09491595 -0.61716825
000230 4e fb 06 bf 91 e2 aa bd d6 ab 8b bf fb c1 09 40
       -0.5272721 -0.08343995 -1.0911815 2.1524646
000240 86 19 2d 3f 6e a6 93 3f ed 44 b5 bf 28 33 8d bf
       0.6761707 1.1535165 -1.416166 -1.1031237
000250 99 67 e2 3f 11 3d 85 3e 0a a7 14 3f 52 13 83 be
       1.7687865 0.26023152 0.5806738 -0.25600678
000260 45 7a 75 3e 8b 36 3b 3f 8f 38 a5 3f e3 c3 28 bf
       0.23972423 0.731301 1.2907885 -0.659239
000270 0e 68 0c be 91 4f c1 bf 04 e4 67 3d 23 fd 31 bf
       -0.13711569 -1.5102407 0.056613937 -0.6952688
000280 58 31 67 bf bc 55 f2 3d 36 ea f5 be c3 1e 3c 3f
       -0.9030967 0.11832759 -0.4803025 0.7348444
000290 ba 4d 57 bf 48 3e 3b bf a0 9e 4c 3f 67 78 10 40
       -0.84102976 -0.7314191 0.7992954 2.2573488
0002a0 ed c0 ca bf e2 e8 a6 bd 48 80 d2 bd 45 68 39 bf
       -1.5840126 -0.081498876 -0.10278374 -0.7242473
0002b0 dd 93 3d 3f eb 93 71 bf 58 cf 49 3e 1b 6a b2 be
       0.74053746 -0.9436633 0.19708002 -0.34846577
0002c0 94 3b e5 bf d4 a2 9e 3e d8 7e a5 3f 46 87 22 3f
       -1.7908807 0.30983603 1.2929335 0.6348766
0002d0 62 3f 89 3e 03 f1 d2 bd 70 16 38 3f 93 cd ad 3d
       0.2680617 -0.102998756 0.71909237 0.08486476
0002e0 2a 7d 00 3f 4d 86 01 3f 31 db 7a bf c5 59 30 3f
       0.50190985 0.5059555 -0.9799071 0.6888698
0002f0 b3 92 51 3f e9 6d f5 be 0b 65 2c 3e 58 17 b6 3f
       0.8186447 -0.47935417 0.1683542 1.4225874
000300 c8 4c 6c 3f 2b e9 53 3e eb df a1 3d bd a1 15 3f
       0.9230466 0.20694415 0.07904037 0.5844992
000310 16 34 59 bd 76 6a 3f be 66 c4 9c 3e 53 67 2c 3d
       -0.05302819 -0.18692955 0.3061859 0.042090725
000320 e6 64 0a bf 71 67 aa be c4 39 bd be 7f 72 6b 3f
       -0.5406021 -0.33282045 -0.36958134 0.9197158
000330 29 0f 43 be f4 ab 5b be 70 70 4d 3c 18 46 29 be
       -0.19048752 -0.21452314 0.012539014 -0.16530645
000340 e8 cd 84 be cf 6b da be a3 c3 29 3e b3 d7 32 3e
       -0.25938344 -0.42660376 0.16578536 0.17465095
000350 89 4d c2 be f0 a1 05 bf 8f 23 93 bd 62 e4 e3 3c
       -0.3794978 -0.5220022 -0.07184517 0.027818862
000360 77 36 d7 bc 7b 50 bd be 95 07 48 be c5 33 a9 3e
       -0.026271088 -0.36975464 -0.19534142 0.3304731
000370 52 8a a5 3d 32 2c d7 3e b3 22 75 3f 0d cd 88 3f
       0.08083023 0.42025906 0.9575607 1.0687577
000380 23 52 ef 3d 03 08 b2 3e 72 c1 97 3a e3 73 2a be
       0.11685588 0.34771737 0.0011578037 -0.1664577
000390 36 54 33 3f 5b 4d 0d bd 44 9d 45 3d 6b c3 31 be
       0.7005037 -0.0344976 0.048245683 -0.17359702
0003a0 03 6a 14 3f 22 74 9c be 92 09 54 3f 74 2b 2f 3f
       0.5797426 -0.30557352 0.82827103 0.6842568
0003b0 d7 94 96 3d 00 9f d2 3e 83 54 b2 be 69 bb 99 be
       0.07352608 0.41136932 -0.34830102 -0.30025795
0003c0 ae c6 36 3f 19 70 46 be 2b f1 5c bd f9 61 7e 3e
       0.7139691 -0.193787 -0.053940933 0.24842061
0003d0 8c cb 37 3e 7a 76 79 be d6 f1 7f 3d 11 9a 21 3e
       0.1794874 -0.24361601 0.062486492 0.15781428
0003e0 eb b1 de be a8 80 ed 3e 8a e7 94 be 93 70 f3 3e
       -0.43495116 0.4638722 -0.290829 0.47546825
0003f0 ce 28 07 be 17 52 09 bf 4f e1 d4 3d fb 72 ad be
       -0.1319916 -0.53640884 0.10394537 -0.33876786

act.linear.bias f4 [24]
000000 00 00 00 00 ae 41 b7 be 30 ae 5d bf 19 dc a1 be
       0.0 -0.35792297 -0.86593914 -0.31613234
000010 e5 13 b0 be 8a a3 fd be f1 fb e1 be eb b7 ab bd
       -0.34390178 -0.49538833 -0.4413753 -0.08384689
000020 d7 95 0c 3f 33 01 52 3f 0d 30 96 3f c0 64 c3 bd
       0.5491614 0.8203308 1.1733414 -0.09540701
000030 e5 62 5f 3e f7 da c8 3c 53 68 d9 be e1 20 bb be
       0.21815069 0.024518473 -0.42462406 -0.36548522
000040 6e 9b 42 3e db e4 0b bf 14 a8 59 be 0c d1 2e 3f
       0.19004604 -0.5464608 -0.21255523 0.6828773
000050 17 e4 ab 3e 55 ea 8a 3c 65 1f 8a bc 00 00 00 00
       0.33572456 0.016957441 -0.016860673 0.0
