save_dir/critic_good_against_naive.pt (torch, 131554 bytes, 11 tensors)

base.feature_norm.weight f4 [415]
000000 a0 20 5b 3f e7 20 86 3f ce fd 7a 3f c8 59 73 3f
       0.85596657 1.0478791 0.98043525 0.9505887
000010 34 1e 4d 3f 5d db f9 3e d8 15 4f 3f 45 7a 42 3f
       0.8012421 0.48800173 0.80892706 0.7596782
000020 1b 34 40 3f e2 78 18 3f e5 73 d1 3e c4 9f 19 3f
       0.75079507 0.5955945 0.40908733 0.6000941
000030 ac b9 d1 3e 77 38 e2 3e 5a fb ec 3e 09 98 a2 3f
       0.4096197 0.44183704 0.46285516 1.2702647
000040 ea 56 94 3f 97 ad a1 3f 3f 82 99 3f 9d 58 bd 3f
       1.1589024 1.26311 1.1992873 1.4792668
000050 e6 0d 1d 3f b3 55 fd 3e 18 82 7e 3f c9 4b d7 3e
       0.6134933 0.49479446 0.9941726 0.42050007
000060 fd 6d 59 3f d7 fc 8a 3e 7e b4 50 3e 3b b6 af 3e
       0.84933454 0.27146026 0.20381352 0.34318718
000070 2e f6 01 3f ce 65 19 3e fc 39 5f 3f 1a 47 12 3f
       0.50766265 0.14980242 0.8719785 0.5713974
000080 f3 d3 3b 3f 2d bd 8e 3f 6e 1d 3e 3f d5 2a 95 3f
       0.73370284 1.1151482 0.74263656 1.1653696
000090 1d 9c 67 3f df fd 30 3f e2 53 bb 3f d6 bb 3a 3e
       0.90472585 0.69137377 1.4634974 0.18235716
0000a0 10 1a 9c 3d 8c 4f 52 3f 5b 84 26 be 04 45 62 3d
       0.076221585 0.8215263 -0.16261427 0.0552416
0000b0 5c 3b 19 3d 38 d4 35 3f 8f 3f 35 3f d9 98 08 3f
       0.037410125 0.71026945 0.7080011 0.53358227
0000c0 5b 80 4d 3f 6d c4 85 3e fe 45 88 3f 7a d5 bd 3f
       0.8027398 0.26126423 1.064636 1.4830773
0000d0 f9 d1 a3 3f 37 59 51 3f a3 1c 87 3f 23 ab 28 3f
       1.2798454 0.81776756 1.0555614 0.65886134
0000e0 0a 5e 98 3f 92 74 09 3f a4 b2 03 3f 43 e7 cf 3e
       1.1903698 0.536935 0.5144446 0.40606126
0000f0 f1 21 4b 3e 09 51 91 3f 61 f4 14 3f 0a 30 dd 3e
       0.19837166 1.1352855 0.5818539 0.43200713
000100 b3 f4 d8 3e 3b a6 6d 3f d5 44 7c 3f f0 18 7f 3f
       0.4237419 0.9283177 0.9854253 0.99647427
000110 60 b0 37 3f c6 02 ae 3f 3b f3 89 3f 7a 7e 85 3f
       0.717535 1.3594596 1.0777353 1.0429223
000120 2f 81 72 3f 93 a7 69 3f 4b aa 99 3f 93 0b 67 3f
       0.9472837 0.9127132 1.2005094 0.90252036
000130 e8 46 73 3f c2 88 12 3f ce f1 d2 3d 45 ca 50 3f
       0.9503007 0.57239926 0.10300027 0.8155864
000140 08 a9 df 3f 09 1a 6a 3f c8 75 17 40 d6 1b 6f 3f
       1.7473459 0.91445976 2.3665638 0.9340185
000150 6c cf 64 3f 1c 7c 76 3f a6 66 5a 3f b1 0a 71 3f
       0.89379 0.96283126 0.8531288 0.9415694
000160 97 73 c5 3f 2e df b8 3f f2 de da 3f e9 09 01 40
       1.54259 1.4443109 1.7099288 2.0162299
000170 27 52 d6 3f 34 fd b8 3e bf a3 38 3e e0 21 f9 3e
       1.6743821 0.3613068 0.18031214 0.48658657
000180 9a 16 29 3e 1f d9 82 3e 2e 83 cb 3f d5 07 08 40
       0.16512528 0.25556275 1.5899408 2.125478
000190 6f 32 fc 3f a2 9f 07 40 08 8a de 3f f2 96 51 3f
       1.9702891 2.1191182 1.7385874 0.8187095
0001a0 6c 81 f5 3e 19 78 60 3f c1 d7 23 3f 4f dd a0 3f
       0.47950304 0.87683254 0.6400109 1.2567538
0001b0 16 10 97 3e 3c 6f 50 3e 0f f8 89 3e 5d 35 35 3e
       0.2950446 0.20354933 0.26947066 0.17696138
0001c0 dd 59 81 3e 19 5e 48 3f f9 1b 6d 3f a6 de 48 3f
       0.25263873 0.7826858 0.9262081 0.78464735
0001d0 bc b8 93 3f c7 1f 54 3f 74 5e 25 3f 67 c4 c9 3e
       1.1540751 0.8286099 0.6459725 0.39407656
0001e0 c4 d5 8f 3e b0 9e 36 3f c3 e7 14 3f ea ac 49 3e
       0.28092778 0.7133589 0.5816614 0.19694868
0001f0 30 2f 2b be 00 b1 b6 3e f3 42 ce 3e 55 f7 f9 3d
       -0.1671722 0.35681915 0.40285453 0.12205378
000200 4c 43 fe 3e f4 5b 65 3f 5a 7b 1f 3f 19 4e 7c 3f
       0.49660718 0.89593434 0.62297595 0.9855667
000210 8e eb 6e 3f 27 78 2b 3f 8a ae 2e 3f 16 ba f5 3e
       0.9332818 0.6698021 0.68235075 0.47993535
000220 cd 2b ca 3e 3e 67 36 3f b0 7a 87 3e 7d bd 9f 3e
       0.39486542 0.71251285 0.2646079 0.31199256
000230 0e 32 7b 3e 37 b7 40 3e 38 1a b0 3e cd d6 d5 3f
       0.24530813 0.18819891 0.34395003 1.6706177
000240 60 f8 c6 3f 8a 0a 82 3f bf 6a b2 3f d3 23 9e 3f
       1.5544548 1.0159466 1.3938826 1.2354683
000250 b1 1d 1a 3f 13 dd 82 3f 42 cd d9 3e 18 99 8e 3f
       0.60201555 1.0223716 0.42539412 1.114047
000260 91 29 58 3f b2 60 9c 3f 17 d2 92 3f 0e 6a 6c 3f
       0.84438425 1.2217009 1.1470364 0.92349327
000270 3b 90 51 3f 2b 09 66 3f 80 84 82 3f b2 24 68 3f
       0.81860703 0.8985774 1.0196686 0.9068099
000280 a7 de 84 3f 01 b6 ae 3f bf 17 a6 3f 13 5a 26 40
       1.0380448 1.3649293 1.2975997 2.5992477
000290 fd f2 4e 3f 29 f5 97 3f 44 55 59 3f aa c5 5b 3f
       0.8083952 1.1871692 0.8489573 0.85848486
0002a0 37 29 9d 3f 6a 0b 72 3f a2 0c 7d 3f 48 8f 1d 3f
       1.2278203 0.94548666 0.988474 0.61546755
0002b0 c4 e0 8c 3f 6e 24 08 3f 96 4b 15 3f 94 8a 70 3f
       1.1006093 0.5318059 0.5831846 0.93961453
0002c0 85 34 6d 3f 30 6c 0d 3f 92 d7 32 3f 26 c0 37 3f
       0.92658263 0.55243206 0.69860184 0.7177757
0002d0 e9 91 25 3f 27 e8 55 3f ea d2 6c 3f 5a 54 7d 3f
       0.64675766 0.8355736 0.9250933 0.98956835
0002e0 ba 2e d5 3f b6 e6 bd 3f 7b 37 fb 3f df e7 e8 3f
       1.6654885 1.4836032 1.9626306 1.8195761
0002f0 02 0c e8 3f 33 fb 13 40 8e e7 a9 3f c6 17 35 3f
       1.8128664 2.312207 1.327379 0.707394
000300 b2 c1 11 3f 7c 9e 62 3f 7d 1e 37 3f c5 e8 64 3f
       0.5693618 0.8852308 0.71530896 0.8941768
000310 f4 26 a8 3f 28 52 8c 3f 69 f7 98 3f 30 57 a4 3f
       1.3136888 1.0962572 1.1950504 1.2839108
000320 3f 8c 5d 3f ed 13 8b 3f b2 b0 a7 3f a4 97 8c 3f
       0.86542124 1.0865456 1.3100798 1.0983777
000330 24 93 a2 3f c8 aa 77 3f 9f ab 5a 3f 9a 27 32 3f
       1.2701154 0.96744967 0.85418123 0.6959168
000340 46 ba 6d 3f e3 8d 44 3f c2 40 21 3f 0d f1 a5 3f
       0.92862356 0.76779 0.6298944 1.2964188
000350 2f 69 ae 3f 40 26 72 3f d1 29 75 3f 26 d1 86 3f
       1.362585 0.94589615 0.9576693 1.0532577
000360 7b 81 83 3f b3 b8 6d 3f 13 da 98 3f 1c 84 82 3f
       1.0273889 0.92859954 1.1941551 1.0196567
000370 ab 74 7e 3f 1a 2a 67 3f d1 8c 5c 3f 31 28 4e 3f
       0.9939677 0.90298617 0.8615237 0.8053008
000380 09 e8 38 3f f5 55 8c 3f ce 31 b2 3f e0 6b ea 3f
       0.7222906 1.0963732 1.3921449 1.8314171
000390 1d 1b bb 3f d0 a9 d9 3f a3 eb b5 3f 20 70 62 3f
       1.4617649 1.7004948 1.4212536 0.8845234
0003a0 76 4e e1 3e d2 44 45 3f 4c 5c 26 3f 9a 0b ba 3f
       0.44005173 0.77058136 0.64984584 1.453479
0003b0 64 44 a8 3f a1 e6 ad 3f 8c 8b ba 3f 11 ae b2 3f
       1.3145871 1.3586007 1.4573836 1.3959371
0003c0 66 df bf 3f c8 d0 99 3f bf 1f 93 3f ba 94 c4 3f
       1.4990051 1.201684 1.1494063 1.5357888
0003d0 67 87 75 3f 88 b1 95 3f 66 00 3b 40 2c 67 78 3f
       0.9590973 1.1694803 2.9218993 0.9703243
0003e0 13 0a d6 3f f5 e2 59 3f b6 d9 5d 3f 75 e4 5f 3f
       1.6721824 0.85111934 0.86660326 0.8745797
0003f0 20 8a 39 3f 38 c1 6b 3f 4f b9 a8 3f 08 fe 32 3f
       0.7247639 0.92091703 1.3181552 0.6991887

base.feature_norm.bias f4 [415]
000000 fa 17 9d be 4c ed ee 3d 6e 2c 06 3e f0 02 2c 3e
       -0.30682355 0.116663545 0.13102886 0.16797996
000010 a5 44 26 3e ae 2b 8d bc 0f 14 4c 3e 59 dd 49 bd
       0.16237123 -0.017232742 0.19929527 -0.04928336
000020 22 e1 06 3e a8 21 c4 3e 6f 18 c3 bd d1 f7 23 3d
       0.13171819 0.38306928 -0.09526145 0.040031258
000030 84 7e 9c be 10 53 52 bd 7f 2f af be 87 f0 52 be
       -0.30565274 -0.051348746 -0.34215924 -0.20599566
000040 f2 7f 0d bd 2c 8c 04 be a0 41 53 be 6c ec ba be
       -0.034545846 -0.12944096 -0.20630503 -0.365085
000050 98 af 07 3e d7 fa 81 be 45 91 ef 3d d0 e0 2c 3e
       0.13250577 -0.25386688 0.1169763 0.16882634
000060 0c f6 14 3d 21 28 67 3d df 90 56 3d 40 32 db 3d
       0.03636746 0.056434754 0.052384254 0.10702944
000070 c4 e3 94 bd 08 c8 6f 3d 5e e2 3f be da 00 0b 3d
       -0.07270005 0.058540374 -0.18738696 0.03393636
000080 7e 31 50 3d 8a fc 34 bd 94 53 18 bc c3 f9 96 3d
       0.05082845 -0.044186153 -0.00929727 0.07371857
000090 f3 d4 83 3d d9 95 a4 3a 08 a7 29 bd 8f df 79 bc
       0.06437101 0.0012556865 -0.04141906 -0.015251054
0000a0 25 03 44 bd 04 c2 e6 3d 96 3b 53 bd 85 62 60 3c
       -0.04785456 0.11267474 -0.051570497 0.013695364
0000b0 f0 32 06 be 4e cb ec bd ae 3d e4 3c 59 46 6e bd
       -0.13105369 -0.11562215 0.027861442 -0.058172558
0000c0 f1 87 b3 bd ec d9 81 be 49 80 80 3e 23 9d 09 3e
       -0.08766163 -0.25361574 0.25097874 0.13438849
0000d0 77 59 df 3b 31 36 8c bd d8 3a cb 3d d3 a6 1e 3d
       0.006816085 -0.06846274 0.09923333 0.038733315
0000e0 48 5f e3 3d e4 3b 00 be 3a b7 39 be 4d 29 f1 3c
       0.11102158 -0.12522846 -0.18136302 0.029438639
0000f0 d1 31 0c 3c 2f 47 94 bc 31 3f 84 3d 1a bc 68 3d
       0.008556799 -0.01810035 0.06457365 0.056820013
000100 00 3b 62 bc 60 18 2e 3e bd 31 04 3e eb 5b e2 3d
       -0.013808012 0.17001486 0.12909599 0.11052688
000110 0d b5 8b 3d 18 af 9c 3d d0 e0 25 3e 56 eb 1e 3e
       0.06821642 0.07650584 0.1619904 0.15519461
000120 33 10 76 3d b6 ed e6 bb 25 5b ae 3d 52 df 1f 3e
       0.060074043 -0.0070473803 0.08513478 0.15612534
000130 e4 8d d2 3d 91 9b ab 3d 44 e9 09 3c a6 27 e1 3d
       0.1028097 0.08379281 0.008417431 0.109938905
000140 b7 09 16 bd a6 86 fe 3d 94 77 a6 bd 1b fe 1b 3e
       -0.03663036 0.12428026 -0.081282765 0.15233652
000150 f1 26 14 3e be b7 1e 3e 8e 44 13 3e 77 c3 1e 3e
       0.1446798 0.1549978 0.1438162 0.15504251
000160 56 9c 07 3d 75 b1 ce 3d f8 27 5d 3d 15 ed 61 bd
       0.033108078 0.10092441 0.053993195 -0.05515774
000170 ae 7f 79 3e 95 4e 74 be 0b b4 89 be bf cc b5 be
       0.24365112 -0.23858102 -0.26895174 -0.3550777
000180 b3 c9 ae be 3c 1f b6 be 96 4c 96 39 f4 9c 20 be
       -0.3413826 -0.35570705 0.0002866729 -0.15684873
000190 0f 57 20 3e 8b e7 42 3d c5 7f 0e be e2 10 52 3d
       0.1565821 0.047584098 -0.13915928 0.051285632
0001a0 12 17 73 be f1 bf 00 3e e2 67 70 bd f8 42 ef bd
       -0.2373927 0.1257322 -0.05869282 -0.11682695
0001b0 7e a2 a9 be 9c ad d7 bd e9 69 4b be 2f a9 18 be
       -0.33131784 -0.1053116 -0.1986462 -0.14908288
0001c0 af 90 26 be 62 33 97 bd f5 22 9c bd 04 79 1f 3d
       -0.1626613 -0.07382847 -0.07623855 0.03893377
0001d0 2b a4 d0 3b 8f 2b 0f 3e 0e 14 0e be 0a 8e d8 3c
       0.0063672266 0.1398146 -0.13874838 0.026434917
0001e0 e3 40 03 be e5 e7 b4 3d b4 32 ad bc a7 10 f0 bd
       -0.12817721 0.08833293 -0.021142341 -0.11721926
0001f0 fb 5c b2 3d e1 3f 97 bd 59 26 74 be b7 98 ed bd
       0.08709141 -0.07385231 -0.23842753 -0.11601394
000200 d0 73 97 3c 63 b6 46 bd fe a5 5f 3e e0 e5 89 3c
       0.01848784 -0.04851378 0.21840665 0.016833246
000210 21 1a ef bc fc a3 b5 3d 16 b0 ba bd 20 de 83 3d
       -0.029187264 0.08869168 -0.09115617 0.06438851
000220 92 34 62 3d 30 62 95 3d 6a 67 01 bd 30 07 9e bd
       0.055225916 0.072941184 -0.031592764 -0.07716215
000230 16 6f c3 bd 9b 48 fe bd 8a 32 47 bd 87 b4 03 3e
       -0.09542672 -0.12416192 -0.048632182 0.12861834
000240 6f a0 8b 3c a2 48 02 bd 7e 40 1b 3e c7 b0 c8 3e
       0.017044274 -0.03180755 0.1516132 0.3919737
000250 ea e2 1f 3a 61 91 c8 3d 71 73 85 3c b2 1b e5 bc
       0.00060991815 0.09793354 0.016290398 -0.027967308
000260 cf fe 21 3e fe c4 ca bc ff c7 5e 3d d6 41 f4 bd
       0.15819858 -0.024752136 0.05438995 -0.1192662
000270 f1 c1 85 3d 6c 6c 00 3e 99 8b 6f bc 3d 53 4d 3e
       0.06531132 0.1254136 -0.014620685 0.20051284
000280 21 4a 4b be 03 a4 32 3e cb 22 5c 3d 68 2e 6e 3e
       -0.19852497 0.17445378 0.05374412 0.2325989
000290 fc 50 15 3e 76 03 eb bd 77 40 13 3e f8 7c 2b 3e
       0.14581674 -0.114752695 0.1438006 0.1674689
0002a0 2a bb 22 bd b6 21 04 3e 1a dd 0d 3e 6c af 30 3d
       -0.039729275 0.12903485 0.13853875 0.043136045
0002b0 50 e6 b3 3d 8d 31 87 3d ae f2 e3 3d 6c 78 ff 3d
       0.08784163 0.06601248 0.11130272 0.124741405
0002c0 ae 9c 88 3c 7c bd 15 3e bb 25 48 3d b6 92 41 3e
       0.016676273 0.14623064 0.048864108 0.18903622
0002d0 54 cd fc bc ef 80 c3 3d 3d 74 3c 3e 82 06 16 3d
       -0.030859627 0.095460765 0.18403716 0.0366273
0002e0 fd e7 a6 3e fb ae 97 3e 7a f7 ad 3e be 97 2d 3e
       0.32598868 0.29625687 0.33977872 0.16952416
0002f0 9c 20 71 3e 59 7b 92 3d be 27 30 3e 11 3c 06 3e
       0.23547596 0.07152433 0.1720266 0.13108851
000300 dc f0 19 3e 01 cb 82 3d f0 20 02 3e 25 18 4d 3d
       0.15033287 0.06386376 0.12707877 0.050071854
000310 e6 04 92 3e d5 73 53 3e 16 84 25 3e d7 46 85 3e
       0.28519362 0.20649655 0.16163668 0.2603061
000320 4d e1 02 3e 83 c4 37 3e 4b 5d 8a 3e ec e0 da 3d
       0.12781258 0.17946057 0.27024302 0.10687432
000330 5d 9c 98 3e 07 f1 26 3e 36 b8 6a 3e 64 d1 e9 3d
       0.29806796 0.16302882 0.22921833 0.11416891
000340 cd f8 25 3e ae 34 39 3e a2 d7 e5 3d 31 01 cb 3e
       0.16208191 0.18086502 0.11222769 0.39649346
000350 db aa 90 3e e1 9f 2d 3e b4 59 87 3e 16 3c 58 3e
       0.28255352 0.1695552 0.26435626 0.21116671
000360 96 c9 f6 3d d2 27 42 3e 87 86 8c 3e 8b 14 88 3d
       0.12050168 0.18960503 0.27446386 0.06644543
000370 9c 20 7b 3e 54 38 22 3e 92 41 3b 3e 33 0f 23 3e
       0.24524158 0.158418 0.18286732 0.15923767
000380 69 87 09 3e 97 95 99 3e 75 f8 90 3e 2b de db 3e
       0.13430561 0.2999694 0.28314558 0.42942938
000390 84 6d 9d 3e f9 9c 43 3e a4 27 bc 3e 1d 5b 2b 3e
       0.30747616 0.19102849 0.36748993 0.16733976
0003a0 4e bc a2 3d e5 f4 09 3e cf ec 91 3d 5b 05 dc 3d
       0.079460725 0.13472326 0.07125246 0.10743209
0003b0 cc 0e 5a 3e 22 cf 8b 3e 96 f1 a1 3e 85 4b 72 3e
       0.21294707 0.27306467 0.31629628 0.23661621
0003c0 f1 f2 58 3e ec 06 8e 3e 1e d2 8f 3e 72 7a 83 3e
       0.21186425 0.27739656 0.28089994 0.25679356
0003d0 82 c8 42 3e 80 5d 4c 3e 4b 8d 07 3f 26 29 1e 3e
       0.190218 0.19957542 0.5294997 0.15445384
0003e0 83 9d a8 bd 69 a3 17 3e 9d 0d 18 3e 39 1a 25 3e
       -0.08233168 0.1480843 0.14848943 0.16123284
0003f0 27 9d 15 3e c3 da f9 3d d2 5e 04 3e 0e f2 d5 3d
       0.1461073 0.121999286 0.12926796 0.10446559

base.mlp.fc1.0.weight f4 [64, 415]
000000 d1 c0 a4 be 47 22 db 3e 01 fa c9 3e 2c 56 48 3e
       -0.32178357 0.4279959 0.3944855 0.19564122
000010 34 48 95 3e 45 2b 63 bc 71 3c e2 be a7 54 90 be
       0.2915665 -0.013865297 -0.44186738 -0.28189585
000020 77 4a 08 bd 7e 3a 0c 3f fb 83 21 3d 57 50 d3 3e
       -0.03327414 0.5477675 0.039432507 0.41272232
000030 bd 0c c2 3e 9d 97 78 3e 2b a2 e4 be 77 51 05 be
       0.37900344 0.24276586 -0.44654974 -0.13019358
000040 aa ab 06 bf e3 b1 40 bf e5 8d db bd 71 f9 e7 3d
       -0.5260569 -0.75271434 -0.107204236 0.11326874
000050 ce 94 15 3f ee 7b da be a0 de 1e 3f 79 2b 28 be
       0.5843018 -0.42672676 0.6205845 -0.16422834
000060 50 29 4a 3f 2a 9e 44 3f 7c 10 9c 3d 7d b7 ba bf
       0.7896929 0.7680384 0.07620332 -1.4587246
000070 fc d5 b1 3e ec be 9b 3d 2e 29 37 3f 4e ec 90 bf
       0.3473357 0.07604775 0.7154721 -1.1322114
000080 17 48 83 bf 3f b6 cd 3e 3d 2a 28 3f 5b 84 5f 3e
       -1.0256375 0.40178105 0.6568945 0.21827833
000090 43 36 8e 3e c7 92 4c be 50 73 69 3e 59 64 1e be
       0.27775773 -0.19977866 0.22797894 -0.15467967
0000a0 0b 05 36 be f6 31 96 be 77 88 c6 bd e0 c0 eb be
       -0.17775361 -0.29334992 -0.09693997 -0.4604559
0000b0 36 91 20 3e 01 73 0e 3f c1 41 7f be ca 21 05 bf
       0.15680394 0.5564423 -0.24927427 -0.52004683
0000c0 27 e3 7b bf cf d8 37 be 96 b0 4a bd 29 6d 2b be
       -0.9839348 -0.179538 -0.04948481 -0.1674086
0000d0 4f ea e0 3e e4 99 3c be 2b 3b 92 3e 8b 03 ed bd
       0.43928763 -0.1841808 0.28560767 -0.115729414
0000e0 d4 bb 0f 3e 9b d6 3f 3e 08 8a 02 bf 22 cb d4 bc
       0.14036494 0.18734209 -0.5099187 -0.025975768
0000f0 7f af a7 3e 92 4b 5b bd d5 90 60 bf f8 6f 12 bf
       0.3275108 -0.053538866 -0.87720996 -0.572021
000100 98 43 b7 3e 56 f2 a8 3e 96 e3 9d 3e cf 6f 04 3f
       0.35793757 0.32997388 0.30837697 0.51733106
000110 21 ad e5 3d d0 83 fe 3d 0e 3f 4d bf 45 da 49 be
       0.11214662 0.12427485 -0.8017434 -0.1971217
000120 44 c9 1c 3f 19 4b 5a 3f 89 44 57 bf bc 87 64 bf
       0.61244607 0.8527084 -0.8408895 -0.89269614
000130 e9 00 db 3e 79 55 e5 3c 4c b8 05 3f 5e f7 11 bf
       0.42774132 0.027994858 0.5223434 -0.5701808
000140 09 b2 d0 be 27 80 ae 3e 06 f1 25 bf d2 8a cf 3e
       -0.4076083 0.34082147 -0.648209 0.405356
000150 39 32 9e 3e 7f 0f ae 3e 35 c1 68 3e db 78 ab 3e
       0.30897692 0.33996198 0.22729953 0.33490643
000160 0e 60 83 be 98 21 e2 be 54 fd e9 3e 41 7b 6d bc
       -0.2565922 -0.44166255 0.45701087 -0.014494718
000170 ed b5 ee bd 57 66 fe bc 57 85 e6 be 8a 8c 06 3f
       -0.11655793 -0.031054659 -0.45023605 0.52558196
000180 71 0b 8b 3e 08 9a 9b 3e f8 9f 14 3f e5 ea a3 be
       0.27157167 0.30390954 0.5805659 -0.32015148
000190 83 c4 ae bf 3a 94 80 bf 60 35 67 3e e6 95 4e be
       -1.3653721 -1.0045235 0.22578955 -0.20174369
0001a0 92 bc 65 bc af 03 4d bd 96 3a 1c 3f c9 de 70 3d
       -0.014022009 -0.05005234 0.61026895 0.058806214
0001b0 02 a7 b1 3d 5d c5 d6 3d b4 a9 0e be 1b 0a be 3e
       0.08674432 0.10486863 -0.13931924 0.37117085
0001c0 68 69 57 3e 4c 88 98 3e 89 84 71 3e 79 e7 79 bf
       0.21036303 0.29791486 0.23585714 -0.97618824
0001d0 49 5e 1a bf 91 23 64 3e aa ba 3c 3e 90 37 03 bf
       -0.6030012 0.22279193 0.18430582 -0.51256657
0001e0 ad 04 d5 bd f4 5c 0e be 05 c9 1c 3f 73 5b ce 3d
       -0.104012825 -0.13902646 0.6124423 0.10076036
0001f0 e9 b9 a2 3e 6b cc 32 be 1e 08 28 bc 65 c5 25 3f
       0.31782463 -0.17460792 -0.010255842 0.64754325
000200 6b f9 b2 3e 2c ec c3 3e 3c 62 a6 bf d0 9c 61 bf
       0.34955916 0.38266122 -1.2998729 -0.881299
000210 ee 5d 03 3f ef 8d fe 3e 6b d3 89 3e 65 e5 51 bf
       0.513152 0.49717662 0.26919112 -0.81990653
000220 82 a4 8c bd 3f fe 12 be e6 80 0d 3e da 10 ca be
       -0.06867315 -0.143548 0.13818702 -0.39465982
000230 2d e9 a6 bd bf df 9b be 57 c4 f0 be f6 62 88 3e
       -0.081499435 -0.30444142 -0.47024795 0.26638
000240 f2 28 5c 3e f0 46 30 bf e9 12 18 bf bc 2a 94 3e
       0.21499994 -0.6885824 -0.59403855 0.28938854
000250 d2 30 a5 3e 79 ce 9c 3e 37 bf e1 3e e6 cd b3 3d
       0.3226381 0.30626276 0.44091198 0.087795064
000260 e2 be a3 be f0 1a a9 be 54 07 88 be 3b 1c bd 3c
       -0.3198157 -0.33028364 -0.2656809 0.02308475
000270 a5 12 ca 3e 86 ff e2 be fa e2 8b be 41 12 19 bf
       0.3946735 -0.44335574 -0.27321607 -0.5979348
000280 f7 4c 8b 3e d0 d8 bc 3e 68 83 4b bf 0f 0f 2a bf
       0.27207157 0.36884165 -0.79497385 -0.6642923
000290 d7 84 a7 3e 11 58 9a 3d 82 57 83 3e d0 03 1b 3e
       0.32718536 0.075363286 0.256527 0.15138173
0002a0 62 2c e7 3e 38 af d8 3e b9 d7 75 3e a6 3e be be
       0.4515105 0.4232118 0.24008073 -0.37157172
0002b0 73 ab 33 3e 00 10 ee bd 80 4e d5 be f9 b1 83 3e
       0.17545871 -0.116241455 -0.41661453 0.2572172
0002c0 0b d3 0e bf de 42 08 bf 81 f8 d2 3e d2 96 6d be
       -0.55790776 -0.5322703 0.41205218 -0.23202065
0002d0 64 c6 3b bf 8b 77 a3 3c f5 d4 e4 3e e9 04 16 be
       -0.73349595 0.019954463 0.44693723 -0.1465031
0002e0 68 2a 4a be d5 14 6b be 17 00 ed be 2b 33 5e be
       -0.19742739 -0.22957166 -0.4628913 -0.21699207
0002f0 0d 76 f4 3e ab 86 6a 3f 93 d7 28 3f dd 99 2b 3f
       0.47746316 0.91611737 0.6595394 0.6703165
000300 8d 74 99 3e a7 5e 2b 3f 2a 9c 62 3e 1d 48 2a 3f
       0.29971734 0.66941303 0.22129884 0.66516286
000310 dc 15 5d 3f 8a 95 87 3f 24 6f 38 3f cd 9c 91 3e
       0.8636148 1.0592511 0.7204459 0.28439942
000320 1b 0b eb 3d f9 f6 bc be 9c b6 92 be 2a e3 47 3e
       0.114767276 -0.36907175 -0.28654945 0.1952025
000330 c9 99 96 3e 3d 94 d0 3e 18 f8 9c be da da 59 be
       0.29414204 0.40738097 -0.3065803 -0.21274891
000340 4c 97 6a be 0d a0 61 3e c0 7a 95 3e f3 78 5d 3e
       -0.22909278 0.22033711 0.29195213 0.2162817
000350 f4 29 d1 bd b8 d2 66 bf ba 3b cc bc 35 6c b6 3e
       -0.1021308 -0.9016528 -0.024930824 0.3562943
000360 66 9d 22 3f ff 90 07 be 1c 91 0f bf 3f 19 3a 3e
       0.6352142 -0.13238905 -0.56080794 0.18173693
000370 72 86 05 3f 1e 00 51 3f 6a 5e 0c bd d1 46 88 be
       0.5215827 0.81640804 -0.034269728 -0.2661653
000380 57 3d a8 be c3 e4 cc be d3 0a af 3e 7c cf 8a 3c
       -0.328593 -0.4001828 0.34187946 0.01694464
000390 42 b7 31 3f c7 bc 94 3f b4 ce 3b bf b9 cd 8b 3d
       0.69420254 1.162011 -0.7336228 0.06826348
0003a0 28 13 44 be df fe 06 3d 6c 9d 54 3e 02 64 b4 3e
       -0.19147933 0.032957908 0.20763177 0.3523255
0003b0 d4 94 80 be 11 2f 44 be e7 b0 70 be b3 0b 87 3d
       -0.25113547 -0.1915858 -0.23504983 0.06594028
0003c0 08 03 60 bc d3 65 e0 bb e0 58 e7 be ee de 5d be
       -0.013672598 -0.006848076 -0.45184994 -0.21667072
0003d0 a2 fa 0a bf 6b a9 0c 3b ad 0a 8c 3f 8f 14 8f 3e
       -0.54288685 0.0021463286 1.0940758 0.27945372
0003e0 f3 44 4d be a6 fd ad 3e 1d 37 96 3e 20 1d 46 3e
       -0.20045833 0.3398258 0.29338923 0.19347048
0003f0 7f e1 44 3e db 9e a8 3e 33 a2 8a 3f 17 bb ea 3e
       0.19226645 0.32933697 1.0830749 0.45845863

base.mlp.fc1.0.bias f4 [64]
000000 91 8f b2 be af 0a e9 be be d1 99 bd b9 65 43 be
       -0.34875157 -0.45515963 -0.07510708 -0.19081773
000010 44 0b 42 be 18 2e c7 bd df 2d ec bd 09 36 47 3e
       -0.1894961 -0.097255886 -0.11532187 0.19454207
000020 b5 ec a1 3c 65 e1 5a be ea 7e 6c be 78 97 20 be
       0.019766191 -0.21375044 -0.23095289 -0.1568278
000030 03 9f c8 bd 6b fe 0e 3d a5 d2 05 bd 37 cc 90 be
       -0.09795954 0.0349106 -0.03267159 -0.28280804
000040 44 59 e7 bd 52 97 0f be 48 4e 83 bd 39 5b a0 be
       -0.11296323 -0.14022568 -0.06411415 -0.31319597
000050 af ed 10 be 4a 53 30 be 7a 00 8c be 40 21 2f be
       -0.14153169 -0.17219272 -0.27344114 -0.17102528
000060 db 37 15 bd b5 3b ad be b2 be 04 be 37 2f 5b be
       -0.03643022 -0.33834615 -0.1296337 -0.2140473
000070 1d 57 c0 be 7a b5 46 be fa 27 8a be 28 be 02 be
       -0.37566462 -0.19405165 -0.26983625 -0.12767851
000080 27 11 80 be ef 16 b0 be 44 cf 53 be 0a a6 7e be
       -0.25013086 -0.34392497 -0.20684534 -0.24868026
000090 54 64 cc bd f5 d3 69 be 3d c0 6a be 04 2d 48 be
       -0.099800736 -0.22834761 -0.22924896 -0.19548422
0000a0 33 44 00 bf 93 c5 db bd 4d c3 0b be d4 e0 bd be
       -0.50104064 -0.10731044 -0.1364872 -0.37085593
0000b0 73 db 38 be c4 06 84 be f9 8f 11 bf b9 e5 13 be
       -0.18052463 -0.25786412 -0.5686031 -0.14443101
0000c0 4b 9f 2f be 64 2e a6 be b3 b2 a5 bd 40 e0 8a bd
       -0.17150609 -0.32457268 -0.08090725 -0.067810535
0000d0 25 a3 d8 be 8e 36 f5 bd fe 3d 17 be c2 8e 4e 3d
       -0.4231197 -0.11973296 -0.14769742 0.050429113
0000e0 36 f8 29 bd 0d 5b da bd 6e 9d dc be 3f 48 12 bd
       -0.041496478 -0.10661898 -0.4308886 -0.03571343
0000f0 ef d0 93 be 05 14 5c be e0 aa 18 be b1 cf 6f be
       -0.2887034 -0.21492012 -0.14908934 -0.23419072

base.mlp.fc1.2.weight f4 [64]
000000 f8 11 85 3f c3 10 a6 3f 3e b3 8a 3f 33 f2 9f 3f
       1.0396109 1.2973865 1.083595 1.2495788
000010 5a 30 6d 3f 3f b5 5e 3f 9f af 85 3f 15 3e 31 3f
       0.92651904 0.8699531 1.044422 0.69235355
000020 7f 56 86 3f 48 d4 93 3f 58 a0 2a 3f 11 e8 50 3f
       1.0495147 1.1549158 0.66650915 0.81604105
000030 2b 52 55 3f d3 b1 5c 3f 5e 64 88 3f 4e ef 91 3f
       0.83328503 0.8620884 1.065563 1.1401155
000040 f1 dd ae 3f 57 2e a3 3f a8 d2 a8 3f e5 5c a8 3f
       1.3661481 1.2748517 1.3189287 1.3153349
000050 e2 21 9e 3f a3 8d 8a 3f 5c f3 95 3f 9f a8 88 3f
       1.235409 1.0824474 1.1714892 1.0676459
000060 f4 f1 21 3f 8e ec 8d 3f 02 29 97 3f e8 c9 99 3f
       0.63259816 1.1087816 1.180939 1.2014742
000070 97 09 7e 3f 29 c9 52 3f 18 7a 76 3f 08 36 99 3f
       0.9923338 0.82338196 0.9628005 1.1969614
000080 45 8f 7d 3f 1a 68 5c 3f 45 e9 9e 3f 94 97 5f 3f
       0.99046737 0.86096346 1.2414938 0.87340665
000090 b4 d2 98 3f d2 b3 77 3f 80 ee b9 3f 0e d4 91 3f
       1.1939301 0.9675876 1.452591 1.1392839
0000a0 e4 2a b1 3f f5 82 7b 3f 0f fd 4f 3f dd 6c 89 3f
       1.3841214 0.982467 0.8124551 1.0736347
0000b0 55 93 85 3f 92 1d 7a 3f c7 63 bf 3f 03 d1 87 3f
       1.0435587 0.9770137 1.4952325 1.061066
0000c0 02 e7 49 3f ac 88 b7 3f 47 9f 4e 3f 54 17 98 3f
       0.78868115 1.4338584 0.8071179 1.1882119
0000d0 d1 fe 5a 3f 03 aa 6e 3f d3 19 72 3f f0 9a a9 3f
       0.8554507 0.9322817 0.94570655 1.3250408
0000e0 46 6d 48 3f b2 94 3a 3f ab 4c 8e 3f ed ed 6b 3f
       0.7829174 0.7288314 1.1117147 0.9215992
0000f0 fe 82 bf 3f 89 f6 a2 3f 4e b2 21 3f 75 36 96 3f
       1.4961851 1.2731487 0.63162696 1.1735369

base.mlp.fc1.2.bias f4 [64]
000000 da 77 0e 3f 91 b7 a2 be 80 b1 81 3d 39 67 6b be
       0.5565163 -0.31780675 0.063326836 -0.22988595
000010 76 53 d4 3e c6 ee ad 3e 76 a1 e8 be c5 36 50 3e
       0.41469926 0.33971232 -0.45435685 0.20333393
000020 e2 0f 3a 3d b5 7f a6 be 90 63 4c bd e0 0d d5 3d
       0.045425303 -0.32519308 -0.049899638 0.10403037
000030 cf ae bd 3e ae 7a c5 bd c7 b2 e1 be 1d c9 65 be
       0.3704743 -0.0964254 -0.4408171 -0.2244
000040 80 c7 e2 bd 49 24 2b 3e 29 c5 df 3e da 8a 48 be
       -0.11073208 0.1671306 0.4370511 -0.19584218
000050 07 fc 8f be d4 7f 2e be 04 3a 1e 3e f9 16 79 3e
       -0.2812197 -0.1704095 0.15451819 0.2432517
000060 a9 4a 8f bd 69 9c 7b be 0a 42 4a 3e 98 a2 16 3e
       -0.06996662 -0.24571384 0.19751754 0.14710462
000070 47 2a ed bd 98 76 4f 3e 73 92 b0 be 20 ed 27 3d
       -0.115803294 0.20260084 -0.34486732 0.040997624
000080 72 61 bf 3e 73 b0 4f 3e d7 25 2f be 36 b9 dd bc
       0.37379032 0.20282154 -0.17104279 -0.027065855
000090 70 dd 86 3d 6c 00 43 3e 0d 07 5f be a4 f3 84 3e
       0.065852046 0.1904313 -0.21780033 0.25967133
0000a0 ce ba af be 99 0e b3 be 36 6c 97 be f8 5c 2b be
       -0.34322208 -0.34972075 -0.29574746 -0.16734684
0000b0 de 84 06 3f 8d 6a 29 be 4c 53 ac be 38 e1 9a 3e
       0.5254649 -0.16544552 -0.336573 0.30249953
0000c0 00 63 96 3e cb 16 07 bf 41 0a 13 3e d9 04 1c 3e
       0.29372406 -0.52769154 0.1435938 0.15236224
0000d0 ee cb 91 3e 94 64 a5 3e 39 20 5d 3e aa 0f 81 bd
       0.28475899 0.32303298 0.21594323 -0.06301816
0000e0 a3 ae a0 be 3f f9 8c be 44 fd c4 be 99 b6 89 be
       -0.31383237 -0.2753391 -0.38474476 -0.26897123
0000f0 7d 08 fd 3d 02 18 c8 bd 38 0d 9a bd 41 a2 fa 3c
       0.12355135 -0.09770204 -0.075220525 0.030594947

base.mlp.fc2.0.0.weight f4 [64, 64]
000000 ef f6 3c bf e2 07 97 3e 24 83 c5 be c5 8d 47 be
       -0.7381429 0.29498202 -0.38576615 -0.19487675
000010 23 39 20 bf 97 ff af be 83 72 e1 bd f2 7d d2 bf
       -0.62587184 -0.34374687 -0.110081695 -1.6444685
000020 03 ec b7 3e 5a a5 e9 3e b1 e5 10 3f 0c 03 e7 be
       0.3592225 0.45633966 0.5660048 -0.45119512
000030 0e 63 82 be 45 ad f9 be 48 75 be 3e e2 18 0f 3f
       -0.25466198 -0.48765007 0.37198853 0.55897343
000040 23 3b 9a 3d cf ef a6 3e 33 cc ed be 5c 4c 83 3e
       0.07530811 0.32604834 -0.46444854 0.25644195
000050 69 d3 7b bd 77 b4 b4 3e 80 0e 05 3f a1 1a 56 bf
       -0.061480913 0.35293934 0.5197525 -0.8363438
000060 93 fe ae 3d 1f 54 5c 3e af 17 4a be 56 cf b7 3d
       0.0854465 0.21516465 -0.19735597 0.08975093
000070 dd 80 71 3f ec 21 bb 3d 8e 0c 4f 3d 28 be 3c bc
       0.94337255 0.091373295 0.050549082 -0.011519946
000080 bd 4b 2d 3f 50 82 9e 3d a5 6e 1d 3e 75 41 a8 be
       0.6769369 0.07739699 0.15374239 -0.3286244
000090 db 03 59 3e 73 95 22 3e d0 b1 3f 3d 2f 4b 22 3e
       0.21192877 0.15877323 0.046800435 0.15848993
0000a0 0a 2a 31 3f 14 13 ba be 80 63 d1 3e 13 e5 eb 3e
       0.6920477 -0.3634268 0.40896225 0.46073207
0000b0 d2 70 0d be 0d 0f 24 3e fb 56 5e 3f 75 7a 6f 3e
       -0.13812569 0.16021366 0.8685147 0.23386557
0000c0 5a d3 99 3d 9c 8e e9 3e 32 76 8f be 40 ef 27 bf
       0.07511015 0.45616615 -0.28019863 -0.6559944
0000d0 54 67 89 be 23 86 da be 63 12 02 3f 43 8a 03 3e
       -0.26836646 -0.42680463 0.50809306 0.12845711
0000e0 a1 19 bd 3e 8d 38 ad bd 30 79 8d 3e 12 e1 e3 bd
       0.36933616 -0.08458052 0.2763152 -0.11126913
0000f0 90 63 7a 3e b3 0a 24 3d ca cc 69 3f b6 6e 82 be
       0.24452043 0.040049266 0.9132811 -0.2547509
000100 87 b4 a1 be 8f 2c 32 3e ab c7 e3 3c 6c 9b f0 3e
       -0.31583044 0.1739981 0.02780517 0.46993577
000110 91 fb 90 3e 0e 41 04 3f 9e 27 cc 3e 85 61 d0 bd
       0.2831693 0.51661766 0.39873976 -0.101748504
000120 b6 a8 10 bf e5 17 01 bf 65 c6 ad 3e f0 49 dc 3c
       -0.5650743 -0.50427085 0.33940426 0.026890725
000130 ea 38 a0 bc 75 06 b9 be eb f5 90 3e b9 b6 71 3e
       -0.019558389 -0.3613774 0.2831262 0.2360486
000140 57 71 6c bd 3e 03 05 3f 86 1c 6a be d5 b2 21 be
       -0.057725277 0.5195807 -0.22862443 -0.15790875
000150 a0 ac 15 bf ed 96 a7 3e 60 0d d2 3e 16 f6 0d 3e
       -0.5846653 0.32732335 0.4102583 0.13863406
000160 ce 40 09 bf 3a dd 4f be 49 84 12 3f 38 7b fb 3e
       -0.5361451 -0.20299235 0.572331 0.49117446
000170 1a a2 25 be 76 4c 17 bf b5 3d 50 3f 3c 91 a4 be
       -0.16175118 -0.59101045 0.8134416 -0.32142055
000180 74 9e 81 bf e4 aa ea be 65 07 d5 be fa 98 38 bd
       -1.0126481 -0.45833504 -0.41607204 -0.045067765
000190 9e 2f 96 3e e7 8c c0 be 60 8d ad 3e 74 76 94 be
       0.29333204 -0.376075 0.33896923 -0.28996623
0001a0 be 34 97 be 95 6f 05 3d c8 a1 e7 3e 0d e1 1f be
       -0.29532427 0.032577116 0.45240617 -0.15613194
0001b0 b9 75 87 3f 14 d2 11 bf ef 15 0f 3d b7 09 7d 3f
       1.0582801 -0.5696118 0.034933027 0.9884295
0001c0 51 b0 f1 3c 98 0e 3a be 92 47 e1 be 56 e9 a3 3c
       0.02950302 -0.1816963 -0.43999916 0.020008724
0001d0 5d 80 76 3e 51 bb 7f be 49 50 f0 3e 83 12 9a be
       0.24072404 -0.249738 0.46936253 -0.30092248
0001e0 5e bc 45 be 9d 1e a6 be 62 68 5d 3e 71 14 30 3e
       -0.19310138 -0.3244523 0.2162185 0.17195298
0001f0 e6 da 61 3f 19 f0 be be 9a fb d3 be 59 e0 9e be
       0.8822464 -0.37292555 -0.41402894 -0.3103054
000200 12 83 9f be b9 d6 64 3e 55 fc 4c 3f e0 03 db 3d
       -0.31154686 0.22347535 0.8007253 0.106940985
000210 b3 2f b2 be 08 2b 15 bf 65 f4 a1 3d 25 2a 8a bf
       -0.34802017 -0.58268785 0.07907943 -1.0794111
000220 28 e6 27 be 91 08 b0 3e 1f a3 08 3d bc fe f6 be
       -0.16396391 0.34381536 0.03335869 -0.48241222
000230 7e 10 e4 bf 53 38 51 3d 20 b1 46 3d e8 ab 37 3f
       -1.7817533 0.051079106 0.048508763 0.71746683
000240 ef 53 90 be 0c e1 5c bd 56 95 31 be 5f c3 ba 3e
       -0.28189036 -0.05392556 -0.17342123 0.3647718
000250 a7 98 a3 3d 3c e6 59 3e 65 13 17 3f 46 06 4a 3f
       0.079881005 0.21279234 0.5901397 0.7891582
000260 41 4f e5 3d 5a c8 01 3f ac 68 ab be a4 06 62 3f
       0.11196757 0.5069634 -0.33478296 0.8829138
000270 16 91 3a 3e ee fd 13 bf 5f 31 b4 be f3 37 80 bd
       0.18219408 -0.5780934 -0.35193917 -0.062606715
000280 13 ad ab 3c 12 4b d0 3e 8c 15 db 3e bd 56 96 be
       0.020956552 0.40682274 0.42789876 -0.2936305
000290 6a ef 52 be a5 64 8d 3f d9 ab 18 3e 5a f2 43 bf
       -0.20599142 1.1046339 0.14909305 -0.76541674
0002a0 48 0e 25 3f c3 3f 21 3d f2 da bf bd 7e 4c 0d 3f
       0.64474916 0.03936745 -0.093679324 0.5519484
0002b0 69 1e b6 be fe af dc bd 04 ad b9 3e 40 74 91 3e
       -0.35570076 -0.10775755 0.36264813 0.28409004
0002c0 c7 9e a4 bc db c6 39 3f 82 8a 83 3e e5 3e 15 3c
       -0.020095242 0.72569054 0.2569161 0.0091092335
0002d0 4a 04 80 bd 49 63 1e bf 01 5f f9 be b9 86 c8 be
       -0.06250818 -0.6187025 -0.48705295 -0.39165285
0002e0 ed 8b 27 3e f4 cc f6 3d 83 71 1f 3f b6 f0 66 be
       0.16361971 0.120508105 0.6228258 -0.22552761
0002f0 1e 28 14 3f ee f4 19 be 3f 00 b8 3e 89 ec c5 3e
       0.57873714 -0.1503484 0.35937688 0.38657025
000300 b0 79 d9 3e a0 a9 84 bd 06 dd e8 3e 03 d0 46 be
       0.42475653 -0.06477666 0.45481128 -0.19415288
000310 9b 6d d8 be de 9b 95 3e 88 0e 04 bf d7 16 73 bf
       -0.42271122 0.2922048 -0.5158467 -0.94956726
000320 9d 86 bf 3d a7 d2 10 bf 1e 5f 87 bc 81 5c 02 3f
       0.09351847 -0.5657143 -0.016524848 0.509224
000330 57 05 91 be 0c db ce be a8 01 ee 3d 30 b8 12 bf
       -0.28324386 -0.40401495 0.1162141 -0.573123
000340 10 e7 ac be 9b 54 02 3f 8e d1 d4 3e ea 12 9d 3d
       -0.33770037 0.5091035 0.41566128 0.07669623
000350 52 03 a3 be f4 94 82 bf 29 87 06 bd cf 96 0a be
       -0.3183847 -1.0201707 -0.032843743 -0.13534091
000360 4b c8 c8 bd 22 bb 44 bd e7 66 bf 3c af 09 a4 3e
       -0.09803828 -0.048030026 0.023364497 0.32038638
000370 71 53 df be 9a f1 85 bf bb c3 0f 3e f3 8b 94 be
       -0.43618348 -1.0464356 0.14039509 -0.29013023
000380 80 42 27 3e ff e9 9a bf bc c9 d1 be 21 62 77 3e
       0.16333961 -1.210266 -0.40974224 0.24158527
000390 0d 91 13 3f 9d d3 cd 3d 38 a1 10 3c 6b f0 94 3c
       0.57643205 0.10050128 0.0088275 0.018181046
0003a0 e6 d6 2b 3f b4 5f b7 be e9 15 d5 3e 1d 4b 96 be
       0.67124784 -0.35815203 0.4161828 -0.29354182
0003b0 85 0a 01 3e fe 81 30 3f 80 e0 8b 3e db a6 42 3f
       0.12601669 0.6894835 0.27319717 0.7603585
0003c0 d3 60 3b 3f c8 78 6a be e4 2b 89 bf 79 bf 59 3f
       0.7319462 -0.22897637 -1.0716519 0.8505779
0003d0 f0 b1 fb 3e 2e 5c 1c be 4b 9a 20 3e 36 15 b6 bd
       0.49159193 -0.15269539 0.15683858 -0.088907644
0003e0 33 95 8a bf 1e b2 07 bf d2 20 13 3f 3b 50 ed bd
       -1.0826782 -0.5300616 0.57471955 -0.11587568
0003f0 09 c6 98 bd 69 67 10 bd ba a1 a1 bd 68 73 1e 3d
       -0.07459647 -0.03525487 -0.07892175 0.03868428

base.mlp.fc2.0.0.bias f4 [64]
000000 97 f2 10 bf 2f ab 12 3e 1b 60 3a bf f6 56 50 3e
       -0.5662016 0.14323114 -0.72802895 0.20345673
000010 d3 42 c4 3e a0 3d 26 bf 4a a3 29 3e 90 07 75 bf
       0.38332233 -0.6493778 0.16566196 -0.95714664
000020 36 60 08 3e 6e 20 cc 3e aa 32 ac be b4 64 b6 be
       0.13317952 0.39868492 -0.33632404 -0.35623705
000030 4d b7 00 bf de 4f 64 3e dd e6 5c 3b a3 10 92 3d
       -0.50279695 0.22296092 0.0033706941 0.071320795
000040 02 b3 5b 3d 18 9d 34 bf 11 98 55 3e d5 f3 62 3e
       0.053637512 -0.70552206 0.2085879 0.22163327
000050 3d 22 ae bc 83 b2 45 bf b1 c0 f4 be f0 38 38 3d
       -0.02125656 -0.7722551 -0.47803262 0.044976175
000060 2b 43 4f bf 85 b1 5d 3c 7b 2e f5 be e2 59 b2 3e
       -0.80961865 0.0135310935 -0.47887024 0.348342
000070 5a a0 5b 3d 8d 5e 4d bf 5b cc d9 3d 08 0e be 3e
       0.05361972 -0.802224 0.10634681 0.3712008
000080 0a 36 d7 bc e5 f8 73 bf c0 b6 19 bf a5 f8 3e bf
       -0.026270885 -0.9530166 -0.6004448 -0.7459815
000090 fa 21 a9 3e 9a 93 8a bd d2 75 8f 3c 98 b4 b4 3e
       0.33033735 -0.06766434 0.017512236 0.35294032
0000a0 c5 90 20 bf 1e e2 14 bf 5b c4 34 bf 02 d4 fb be
       -0.627209 -0.5815753 -0.70612115 -0.49185187
0000b0 7d ef 10 bf 4e 24 24 bd a0 9a 4a 3c 02 17 30 bf
       -0.5661543 -0.040073685 0.012365967 -0.6878511
0000c0 91 f7 0d 3c 1b 85 3c bf 8d d6 c6 3e ca 06 1a 3e
       0.008664981 -0.736406 0.38835564 0.15041652
0000d0 da 12 d2 be d0 06 67 3d 78 e5 10 3c 0c c4 d1 3d
       -0.41030008 0.05640298 0.008843772 0.10242471
0000e0 e4 3b 29 bf 6f f7 06 3e 9e 9b 9b 3e 38 cd 39 bd
       -0.6610701 0.13180326 0.30392164 -0.045361727
0000f0 6d 4d 5d 3e cb 60 00 bf ef d6 e9 3e ee 8a 6e 3e
       0.21611567 -0.50147694 0.45671794 0.23295185

base.mlp.fc2.0.2.weight f4 [64]
000000 33 c9 05 40 74 a0 96 3f eb 8f ed 3f 18 d6 a1 3f
       2.0904052 1.1767716 1.8559545 1.2643461
000010 74 fa b6 3f 29 9e e0 3f c7 bc c1 3f 4c d3 ca 3f
       1.4295182 1.7548267 1.5135735 1.5845733
000020 15 c4 c5 3f 95 b0 b0 3f de 96 d9 3f 5b 66 c1 3f
       1.5450464 1.3803889 1.6999166 1.5109361
000030 e1 99 e5 3f 3a da a6 3f bc e0 8b 3f 2e 8f ba 3f
       1.7937585 1.3035347 1.0927958 1.4574945
000040 21 5a ac 3f b7 90 f3 3f 23 b6 cd 3f 0f b5 ca 3f
       1.3465005 1.9028538 1.6071209 1.5836505
000050 19 6b 21 be a2 46 e8 3f 0b dd a6 3f 42 d9 ab 3f
       -0.15763511 1.8146555 1.3036207 1.3425677
000060 34 fd f4 3f 76 1f 95 3f ff fb c3 3f 2d d2 b7 3f
       1.9139771 1.1650226 1.5311278 1.4361016
000070 31 64 aa 3f c2 b3 00 40 10 69 a8 3f 75 06 ab 3f
       1.3311826 2.0109715 1.3157063 1.3361346
000080 64 ea 91 3f 04 3d db 3f 3a aa ec 3f 2c e8 f6 3f
       1.1399655 1.7127995 1.8489449 1.9289603
000090 7d fd a8 3f 0b 99 a6 3f 74 2f 64 3f ab 35 c6 3f
       1.3202358 1.3015455 0.8913491 1.5485128
0000a0 d0 cf bd 3f a7 b3 eb 3f 93 f0 cc 3f eb 95 c5 3f
       1.4829044 1.84142 1.6010917 1.5436376
0000b0 a0 3c f4 3f c6 06 d0 3e e9 b7 50 3f 3b 02 c8 3f
       1.9081001 0.40630168 0.81530625 1.5625681
0000c0 0b 89 ae 3f 18 a1 e9 3f cf d6 e3 3f e0 eb aa 3f
       1.3635572 1.8252287 1.7799929 1.3353233
0000d0 54 ba da 3f 78 4e a0 3f 6f 97 9e 3f e4 b5 ab 3f
       1.7088113 1.2523947 1.2389964 1.3414884
0000e0 b8 6c f2 3f 7d 4d 8b 3f 36 d3 b1 3f 8d ee 89 3f
       1.8939428 1.0883023 1.3892581 1.0775925
0000f0 91 5b c4 3f eb fa ba 3f dc 30 e0 3f 81 a6 d6 3f
       1.5340444 1.4607824 1.7514911 1.6769563

base.mlp.fc2.0.2.bias f4 [64]
000000 4f 3e 9c be 29 1b 5c 3e 8b fb 8d be 90 7b a1 3e
       -0.30516288 0.21494736 -0.27730975 0.31539583
000010 4d 5a ac 3e fd db 8d be 32 06 29 3e 4f 5e 5f be
       0.33662644 -0.277069 0.1650627 -0.2181332
000020 09 01 9c 3e 52 b8 9e 3e 0a c7 44 be e5 42 8d be
       0.3046954 0.31 -0.19216552 -0.275901
000030 df 04 50 be 3a 17 ae 3e 61 8f af 3e 09 f9 a8 3e
       -0.20314358 0.34002095 0.34289077 0.330025
000040 1a 83 a2 3e 01 41 66 be e7 fe 90 3e db 28 88 3e
       0.31740648 -0.22485735 0.28319475 0.2659367
000050 c1 6d 34 bd 0a da c2 be 4a 4c ab be 37 07 87 3e
       -0.044049982 -0.38056976 -0.3345664 0.26372692
000060 b9 62 a9 be ba dc ac 3e d2 0a a6 be 33 87 af 3e
       -0.33083132 0.3376215 -0.3243013 0.34282836
000070 aa 5e 78 3e ff 5c 54 be df 2d a3 3e 79 e8 dc 3d
       0.24254861 -0.207386 0.31870934 0.10786528
000080 32 b4 ae 3e 40 0b cf be eb 76 b9 be f2 01 82 be
       0.34121853 -0.4043827 -0.3622354 -0.2539211
000090 61 21 92 3e 56 1e a8 3e a5 94 9b 3e 6f f3 b6 3e
       0.2854109 0.32835644 0.30386844 0.357326
0000a0 0d 2c b3 be bc 24 b5 be 04 22 c5 be 18 3d 97 be
       -0.34994546 -0.3537959 -0.38502514 -0.29538798
0000b0 33 bc 47 be 25 89 29 3e e5 6a 2e 3e d0 44 9a be
       -0.19505386 0.16556223 0.17032965 -0.30130625
0000c0 a2 2f b1 3e 01 99 68 be 68 8b 75 3e 72 af b1 3e
       0.34606653 -0.22714616 0.2397896 0.34704167
0000d0 f2 a9 9d be 51 b0 b7 3e 38 43 9b 3e 32 26 5b 3e
       -0.3079372 0.35876706 0.3032472 0.21401289
0000e0 41 46 72 be 75 2d a7 3e 04 53 95 3e c6 d2 b9 3e
       -0.23659612 0.32651868 0.29164898 0.3629362
0000f0 0e 86 63 3e 27 1a 84 be db be 9b 3e 7e 20 9f 3e
       0.22219107 -0.25801203 0.3041905 0.31079477

v_out.weight f4 [1, 64]
000000 26 cd 86 bf 39 f7 23 3e 84 b3 40 bf 46 44 da 3e
       -1.0531356 0.16012277 -0.7527392 0.42630213
000010 64 9d 05 3f 80 35 1b bf 09 33 4c 3e b0 ca e6 be
       0.52193284 -0.6062851 0.19941343 -0.45076513
000020 d5 9c 01 3f f8 a5 82 3e ac 56 f9 be 8c 81 fc be
       0.5062993 0.2551725 -0.48698938 -0.49317586
000030 4e 6a 10 bf 12 50 f1 3e 1a 5d df 3e 12 cb 01 3f
       -0.5641221 0.471314 0.43625718 0.50700486
000040 74 ac cc 3e 41 d0 19 bf bf 37 1b 3f bc de d4 3e
       0.3997532 -0.60083395 0.60631937 0.41576183
000050 63 ab 81 3d 2a 7e 79 bf 9c c1 f3 be f3 5d 97 3e
       0.063315175 -0.97458136 -0.4760865 0.29563865
000060 dd 02 3e bf da fa ca 3e 0b 9c 0e bf e6 17 12 3f
       -0.7422312 0.3964451 -0.5570685 0.57067716
000070 62 20 7c 3e b5 56 3e bf 10 80 d4 3e 92 65 2f 3e
       0.24621728 -0.74351054 0.41503954 0.1712859
000080 b0 82 d3 3e ee 78 6b bf eb 1e 68 bf ba d4 43 bf
       0.41310644 -0.919814 -0.9067218 -0.7649647
000090 81 ac bc 3e 5e eb 08 3f 98 91 57 3e da 8c 36 3f
       0.3685036 0.5348414 0.21051633 0.7130867
0000a0 79 1f 1e bf ee 01 52 bf 8b 10 4b bf f9 0f 0b bf
       -0.61766773 -0.82034194 -0.7932212 -0.5432125
0000b0 e1 ed 1c bf f4 ed 44 bc 2e 6b 52 3e 6f e8 09 bf
       -0.61300474 -0.012019623 0.20548698 -0.5387029
0000c0 40 0e e5 3e 5f f5 1e bf e1 46 1e 3f 51 ce d0 3e
       0.44737434 -0.62093157 0.618269 0.40782407
0000d0 90 aa 2a bf 69 34 2a 3f 69 69 da 3e 85 28 99 3e
       -0.6666651 0.6648622 0.42658547 0.29913726
0000e0 b1 02 27 bf a1 60 c9 3e af 75 e0 3e 4d b4 89 3e
       -0.6523848 0.39331535 0.43839785 0.2689537
0000f0 3d 48 c5 3e bc 06 db be 5c 9a 28 3f 31 41 1e 3f
       0.38531676 -0.42778575 0.65860534 0.61818224
