save_dir/critic_good_2007.pt (torch, 131554 bytes, 11 tensors)

base.feature_norm.weight f4 [415]
000000 07 e8 72 3f 90 c3 51 3f 22 2e 42 3f eb c0 57 3f
       0.94885296 0.8193903 0.75851643 0.84278744
000010 85 70 1f 3f b4 3a a9 3f 70 fa fd 3e 13 23 bf 3f
       0.62281066 1.322104 0.4960513 1.4932579
000020 59 52 8f 3f 9f 11 cc 3f b1 99 76 3f 11 1c 74 3f
       1.1197006 1.5942878 0.96328264 0.95355326
000030 50 51 57 3e 5c 73 5b 3e 61 f3 06 3f 86 41 e6 3f
       0.21027112 0.21430725 0.52715117 1.7988746
000040 19 e4 ba 3f 92 88 eb 3f 4c e8 00 40 88 b5 dd 3f
       1.460086 1.8401053 2.0141783 1.7321024
000050 43 58 1b 3f d9 06 7a 3f fd 6d b6 3f a3 26 80 3f
       0.6068155 0.976667 1.4252316 1.0011791
000060 cc 9b 89 3f 5f 01 80 3f 05 c1 6d 3f e2 ab 3d be
       1.075067 1.0000418 0.9287265 -0.185226
000070 2a 07 b1 3f f0 89 4e 3f 5a 12 59 3f cc be 6c 3f
       1.3830311 0.80679226 0.8479363 0.9247863
000080 52 14 c6 3f a3 b3 11 40 d9 4b ca 3f a6 48 93 3f
       1.5474951 2.2765892 1.5804397 1.1506546
000090 a4 bf b6 3f a1 7b d2 3f 1d 7f 01 40 ff d0 f8 3e
       1.4277234 1.6443979 2.0233834 0.4859695
0000a0 0b 0b fd 3f f0 44 af 3f ba 16 f2 be bb 81 a6 3e
       1.9768995 1.3692913 -0.47282964 0.32520851
0000b0 d1 8b 92 be 8f a0 57 3f 8d d1 df 3e de 95 94 3f
       -0.28622296 0.8422937 0.43714562 1.1608236
0000c0 3c dd 38 3f 5d 02 23 bf fd 07 65 3f db f2 9b 3f
       0.72212577 -0.6367548 0.89465314 1.2183489
0000d0 77 64 8a 3f 15 91 64 3f f8 77 57 3f b5 53 7f 3f
       1.081191 0.8928388 0.8416743 0.997371
0000e0 26 cc 4f 3f b0 c8 f5 3e a9 c4 6b 3f cb 62 b3 be
       0.8117088 0.48004675 0.92096955 -0.3503631
0000f0 bb a2 13 3f 20 5f a7 3f e7 e4 55 3f 58 11 3f 3f
       0.5767018 1.3075905 0.835524 0.7463584
000100 ba e6 f8 3e 52 76 4c 3f 91 b7 38 3f 00 1d 52 3f
       0.4861353 0.7986804 0.721551 0.820755
000110 00 db a0 3e f2 49 82 3f 8d c6 80 3f 8c 73 4d 3f
       0.31417084 1.0178816 1.0060593 0.80254436
000120 49 07 26 3f 53 22 1c 3f b1 06 22 3f 8c 06 72 3f
       0.64854866 0.60989875 0.6329146 0.9454124
000130 3f 1e 53 3f 6c 59 07 3f c3 fe 15 be 15 40 f7 3e
       0.82468027 0.5287082 -0.14647965 0.48291078
000140 79 52 3c 40 7b b5 bb 3f 26 ba 29 40 db 26 40 3f
       2.9425337 1.4664758 2.6519866 0.7505929
000150 c7 c9 4c 3f f4 fd 49 3f 43 6c 34 3f de f8 51 3f
       0.7999539 0.78903127 0.70477694 0.82020366
000160 79 42 04 40 68 d4 ea 3f 95 30 fc 3f 95 d9 bf 3f
       2.0665572 1.8346071 1.9702326 1.4988276
000170 38 24 af 3f 7b 4a 34 3f b8 5a e5 3e 00 a4 33 3f
       1.3682928 0.7042615 0.44795775 0.7017212
000180 4a 71 45 3e 7b 3a ad 3e 9e 12 09 40 95 d1 e0 3f
       0.19281498 0.3383368 2.1417613 1.7563959
000190 f7 86 01 40 29 a4 16 40 ab 0e ad 3f f3 ec 36 3f
       2.0238626 2.3537695 1.3520101 0.71455306
0001a0 c5 f5 57 3e 37 35 06 3f b8 83 37 3f 90 d8 9a 3e
       0.21089847 0.5242495 0.7168536 0.3024335
0001b0 82 71 ba 3e a5 56 ca 3e c9 d0 78 3e f5 8c ae be
       0.36414725 0.3951923 0.24298395 -0.34091917
0001c0 c0 94 a7 3e 0f 3d d9 3e ae de 5c 3f ba f4 51 3e
       0.32730675 0.42429397 0.8627728 0.20503512
0001d0 c0 50 74 3f e3 f5 2e 3f 8f 5b 3d 3e f9 4b 17 3e
       0.95435715 0.68343943 0.18491958 0.14775075
0001e0 5b 58 6d 3e bf 4b ed 3e f5 73 06 3f 87 fa dd 3e
       0.23178236 0.46346852 0.52520686 0.433552
0001f0 a8 5f 53 be 34 00 69 3e f9 2e 51 3e cb 23 c5 3e
       -0.20641959 0.22753984 0.20428075 0.3850387
000200 4e 10 16 3f ea 8f 65 3f 93 fe 07 3f d9 7e 17 3f
       0.5861863 0.8967272 0.53122824 0.5917793
000210 15 6e b4 3f 6f f6 9f 3e 2a 82 a2 3e be d3 f9 3d
       1.4096094 0.312427 0.31739932 0.1219859
000220 ee 3c 65 3e eb 5e 0e 3f e6 87 15 3f 1d 7d a2 3e
       0.22386524 0.55613583 0.5841049 0.3173608
000230 22 8c 8c 3e e8 e0 56 3e 68 32 4a 3e 48 62 a8 3f
       0.27450663 0.20984232 0.19745791 1.3154993
000240 ec 37 54 3f 76 e0 64 3f 55 34 cb 3f 38 ac 9b 3f
       0.8289783 0.89405 1.5875345 1.2161932
000250 55 5d 38 3f 33 ae 7c 3f ad 77 94 3f 74 58 7f 3f
       0.72017413 0.98703307 1.1599022 0.99744344
000260 b5 3c 8c 3f fa b7 c5 3f 4d 19 af 3f ab e3 e3 3f
       1.0956026 1.544677 1.3679596 1.7803854
000270 70 1c a5 3f 84 83 0c 40 07 1d e4 3f f7 03 b7 3f
       1.2899303 2.195527 1.7821358 1.4298085
000280 b1 87 ea 3f a6 3b 18 40 5a 49 24 40 da 96 03 40
       1.832266 2.3786407 2.566977 2.0560822
000290 4b 46 0e 40 0a 93 15 40 50 80 35 3f f8 94 30 3f
       2.2230403 2.3370996 0.70898914 0.6897731
0002a0 25 68 72 3f c6 f7 31 3f 70 f0 4c 3f 26 5a e7 3e
       0.9469016 0.695187 0.8005438 0.45185965
0002b0 4f 4a 97 3f 2d 8b 2c 3f 9d 69 63 3f 23 a7 70 3f
       1.1819552 0.67399865 0.8883303 0.9400503
0002c0 a1 e5 99 3f 3c 47 5b 3f ed 29 6a 3f 0a 34 a9 3f
       1.2023202 0.8565557 0.91470224 1.3219006
0002d0 10 c1 5a 3f b7 89 42 3f 67 6d 13 3f 8e d5 25 3f
       0.8545084 0.75991386 0.5758881 0.64778984
0002e0 3c 93 85 3f 65 54 f2 3e 82 c1 ef 3f b3 c3 13 40
       1.0435557 0.47330013 1.8730929 2.3088195
0002f0 5d 6a db 3f 04 0a 19 40 55 99 e4 3f 7d f7 89 3f
       1.7141834 2.3912363 1.7859293 1.0778652
000300 b7 89 51 3f 2f 93 4c 3f 0a ec a9 3f 9a 89 97 3f
       0.8185076 0.79912084 1.3275158 1.1838868
000310 4b 57 2d 3f 91 81 84 3f 72 99 91 3f 65 99 78 3f
       0.67711323 1.035204 1.1374953 0.9710906
000320 8b a7 85 3f 4d c8 af 3f a8 2c 20 3f d6 51 3e 3f
       1.0441755 1.3733002 0.6256814 0.7434362
000330 a9 92 b6 3f e7 f2 6f 3f 04 0d 4f 3f 4d e9 1c 3f
       1.4263507 0.93730015 0.80879235 0.6129349
000340 bd 8f 19 3f b4 44 29 3f 85 6b 4f 3f 1c 5e 8e 3f
       0.5998495 0.6612046 0.81023437 1.112247
000350 54 0e 6a 3f 25 e5 98 3f 18 b1 95 3f df 7a 11 3f
       0.91428113 1.1944929 1.169467 0.5682811
000360 8f 8c 3d 3f 96 eb 70 3f 5f 2f ca 3e e1 17 67 3f
       0.740426 0.94109476 0.39489266 0.9027081
000370 34 93 5e 3f 93 16 b9 3e 15 e4 63 3f 25 4f ad 3f
       0.86943364 0.36150035 0.890199 1.3539778
000380 70 e4 2b 3f 41 82 4b 3f 79 13 9a 3f 2e 72 7b 3f
       0.6714544 0.79495627 1.2037193 0.982211
000390 7e 5d 2d 3f 6a 64 9c 3f 48 78 3f 3e 2e 92 72 3f
       0.6772078 1.2218144 0.18698227 0.947543
0003a0 97 fa e3 3e ef b3 32 3f b6 6e b4 3e d7 3f b8 3f
       0.44527122 0.69805807 0.35240716 1.4394482
0003b0 23 d9 cd 3f 6f e5 c8 3f 74 36 99 3f 0b 82 9a 3f
       1.608189 1.5695018 1.1969743 1.2070936
0003c0 5d 90 a5 3f 48 75 77 3f c2 81 39 3f 0b 38 b1 3e
       1.2934681 0.9666333 0.7246362 0.3461307
0003d0 3b ac 39 3f d9 26 8d 3f aa 60 32 40 bc 1d 3e 40
       0.7252843 1.102748 2.78715 2.9705648
0003e0 12 80 de 3f d7 eb 3a 3f b2 b9 3c 3f 45 72 40 3f
       1.7382834 0.73016113 0.7372085 0.7517436
0003f0 44 35 18 3f be fa 4a 3f 17 92 bf 3f 3c bb e1 3f
       0.59456277 0.7928885 1.4966458 1.7635264

base.feature_norm.bias f4 [415]
000000 48 d2 f0 be db e2 25 3e fe 29 22 3e eb 79 52 3e
       -0.47035432 0.1619982 0.15836331 0.2055432
000010 ec 0d f8 3d bd 1e ba 3d ea 48 d5 3e 38 bc 83 3e
       0.121120304 0.09087894 0.41657192 0.25729537
000020 99 67 b0 3e f5 e4 1e 3f 2a fa 82 3e 80 63 a6 3d
       0.3445404 0.6206811 0.25581485 0.08124447
000030 28 ba f6 be 4c 99 70 3d a5 e1 04 bf f6 d7 da be
       -0.481889 0.058739945 -0.51906806 -0.4274289
000040 7d 69 ba be b6 46 52 bd 7d 92 c1 3e 6f c7 d7 bd
       -0.36408606 -0.051336966 0.37807074 -0.10536086
000050 02 da 19 3e 95 78 18 be 8f b0 a1 3e b0 38 75 3e
       0.1502457 -0.14889748 0.31580016 0.23947406
000060 32 55 7b 3e f9 f3 78 3d 53 3e 13 3e 5d 46 21 3e
       0.24544218 0.060779545 0.14379244 0.15749498
000070 c4 02 3b be 1f 50 a5 3e 45 a7 14 3c 31 67 29 be
       -0.18262774 0.3228769 0.009073083 -0.1654327
000080 d6 b1 3d 3e 5f c4 59 be b5 9a 62 3e d0 73 48 3e
       0.1852487 -0.21266316 0.22129329 0.19575429
000090 5b f9 19 3e ed df 27 3d 0d b2 74 3e 4a 9c 2f 3e
       0.15036528 0.040985037 0.23896046 0.17149463
0000a0 e5 68 2d be d2 c8 3c 3e bc 27 21 be b1 d7 b5 3d
       -0.16934545 0.18435982 -0.15737814 0.088790305
0000b0 fa 1e d9 be c6 33 d5 bd b2 fd 23 3d fb d8 52 bd
       -0.42406446 -0.104102656 0.040036865 -0.05147646
0000c0 30 5e 88 3b 42 de 85 be e4 83 5a 3e 70 0d 81 3e
       0.0041616186 -0.26146132 0.21339375 0.25205564
0000d0 c0 a7 5c 3e 1b c8 2e 3e cc 79 2d 3e 8b d9 1d 3e
       0.21548367 0.17068522 0.16940993 0.15415017
0000e0 87 c4 83 3e 07 04 c9 3d f1 15 a4 3d 85 b6 c2 bc
       0.25735876 0.09815221 0.080119975 -0.023768673
0000f0 64 ba 07 3e 02 60 91 3e fe 67 8a 3e b0 82 4e 3e
       0.13254696 0.2839356 0.27032465 0.20167041
000100 15 6a e0 3c 6a 2f 1f 3e 07 27 0f 3e 01 eb 47 3e
       0.027394334 0.15545431 0.13979732 0.1952324
000110 71 c0 d1 3d 8d be 81 3e 7f b6 3e 3e 3c 03 56 3e
       0.102417834 0.2534069 0.18624304 0.20899671
000120 bd 2c 01 3e 9e 61 11 3e e7 d0 10 3e f4 4f 6a 3e
       0.12614723 0.14197394 0.1414219 0.22882062
000130 ac 67 6e 3e ef 01 0d 3e 07 af 04 bd ca eb 96 3d
       0.23281735 0.13770269 -0.03239348 0.07369192
000140 6a 8f f3 3e c9 cc bc bd db 5a bf be 4a 24 2c 3e
       0.47570354 -0.09218747 -0.37374005 0.16810718
000150 fd 4c 46 3e 08 84 42 3e 8b a7 39 3e fb e8 49 3e
       0.19365306 0.18995678 0.18130319 0.19717781
000160 13 56 2f 3e ee 6c 9a 3d 97 3a 9e 3e d4 28 bf 3c
       0.17122678 0.07540308 0.30904076 0.023334898
000170 41 4d e4 3e 9c 61 aa be c1 83 2b bf 9c ee 1a bf
       0.4459019 -0.33277595 -0.66997916 -0.6052034
000180 6a 3a 2f bf 4c d6 e3 be 1a 1e e7 bd 74 e1 ca be
       -0.6844851 -0.44499433 -0.11285038 -0.39625132
000190 ef 4d 89 3e b3 9f 2b 3e db eb 44 bd a3 68 81 3d
       0.2681727 0.16760139 -0.04807649 0.06318786
0001a0 d9 e8 d0 bd 23 43 c7 bd f5 92 18 3e 41 8c b5 bd
       -0.10200662 -0.09729602 0.1489981 -0.08864642
0001b0 f5 fb 18 bf db 8a 1f bf c8 65 d7 be 11 09 1a be
       -0.59759456 -0.6232125 -0.4206984 -0.15042521
0001c0 ad 06 16 bf f4 3c 81 3b 5d f1 35 bd 97 33 a7 3d
       -0.58603936 0.0039440338 -0.044419635 0.08164137
0001d0 c9 4f a7 3e 19 d9 87 3e 5b 11 df bd 99 34 87 3d
       0.3267806 0.2653282 -0.10891982 0.06601829
0001e0 58 58 c6 3c a5 b0 8c bd 69 7b c9 3d ec 16 74 be
       0.024212047 -0.0686963 0.09837992 -0.23836869
0001f0 08 7a d9 3e fe 1f 49 3d 48 ee a0 be 34 fb ec be
       0.42475915 0.049102776 -0.31431794 -0.46285403
000200 3c 28 c3 3d 58 32 1c 3e e6 76 9f 3e 64 89 77 3e
       0.095291585 0.1525358 0.311454 0.24173504
000210 2c c8 89 3e 1a bb d2 3d fb e0 03 be 99 e3 13 3c
       0.26910532 0.10289593 -0.12878792 0.0090264315
000220 ea a8 cb 3d 3a c3 c3 bc 1a 1f 07 3d 51 bd db be
       0.09944327 -0.023896802 0.032988645 -0.42917874
000230 f5 46 70 bd ce 84 c4 be fb 48 13 be 81 72 d7 3e
       -0.05866142 -0.38382572 -0.14383309 0.42079547
000240 cb 44 32 3e 28 14 1a 3e 4b 3c cc 3e 7e 46 eb 3e
       0.17409055 0.15046751 0.3988975 0.4595222
000250 ba 5a 0e bc 5c d6 31 3e 10 5f 61 bd 08 35 78 be
       -0.008688623 0.17366928 -0.0550223 -0.2423898
000260 5c f7 65 3e a6 f0 4d be 2f 7f 07 3e 64 7f 5e bd
       0.22457641 -0.20111331 0.1323211 -0.054320708
000270 2d 78 97 bd 7b 0a e6 3d ba 3a f7 3d c3 87 12 3e
       -0.073959686 0.11232468 0.12071748 0.14309601
000280 dd e7 e4 be 69 86 b7 3d ea 15 17 be 54 70 23 3f
       -0.44708148 0.089611836 -0.14754453 0.63843274
000290 a3 08 ca 3d d7 bd c8 be e8 5f 25 3e 41 b7 0c 3e
       0.098649286 -0.39207336 0.16149867 0.13741781
0002a0 08 ab 46 3e 53 9e 10 3e 2c f9 31 3e 8d ab b9 bc
       0.1940118 0.14122896 0.17380208 -0.02266481
0002b0 ae 7f 2f 3e 3c 4e 54 3e 63 ab 87 bd 2e a4 1b 3c
       0.1713855 0.20732969 -0.06624486 0.009499593
0002c0 1c f6 ec bc 9d 9e 9c 3d 03 b0 9d bd ec 67 ab bd
       -0.028925948 0.076474406 -0.07699587 -0.08369431
0002d0 4d 40 e3 bd 46 84 4f be 81 d6 12 3e 63 0c 28 be
       -0.11096249 -0.20265302 0.14339639 -0.16410975
0002e0 b0 3b b9 3d a6 16 88 bc 0a cc a5 3e d5 e0 c2 3e
       0.090445876 -0.016612362 0.32382232 0.38062158
0002f0 08 96 ab 3e 64 55 83 3d bf ea 55 3e 9a 32 3c 3e
       0.33512902 0.06412771 0.2089033 0.18378678
000300 b3 c3 42 3e cc 20 28 be 33 bc 44 3e ee 40 75 bd
       0.19019966 -0.16418761 0.19212417 -0.059876375
000310 e8 fa d9 3d 2e cb 3f 3e 16 56 f6 3d ed 09 52 3e
       0.1064356 0.1872985 0.12028138 0.20511599
000320 0f 50 84 bc 38 d0 38 3e d5 a9 4d 3e a7 26 d0 3d
       -0.016151456 0.18048179 0.20084317 0.10163622
000330 4b ae b6 3e 2c 6f 23 3e 49 84 84 3e c5 0f 07 3e
       0.3567985 0.15960377 0.25882176 0.1318961
000340 02 00 d4 3d 02 47 0c 3e 7a 01 db 3d 3a 7a 83 3e
       0.10351564 0.13698962 0.10693641 0.2567919
000350 9c 2a 66 3e da 85 9c 3e 0f 3a a8 3e e5 19 77 3e
       0.22477192 0.3057087 0.32856795 0.24130972
000360 fd f9 26 3e 4a 1f 7d 3e 9a 20 0e 3e 6b 9c c3 3d
       0.163063 0.24718967 0.13879624 0.09551319
000370 66 7e 63 3e aa 70 c1 3d 1f d7 86 3e 32 96 98 3e
       0.22216186 0.09445317 0.26336 0.2980209
000380 bc ed 42 3e f6 ea 21 3e d8 c3 8c 3e 61 f2 a6 3e
       0.19036001 0.15812287 0.27493167 0.32606795
000390 fc dd a9 3e 29 48 31 3e 76 1b 05 3e 01 a8 55 3e
       0.33177173 0.17312683 0.12998757 0.2086487
0003a0 7e 35 d2 3d c3 c3 8a 3d ad 02 d7 3d 3b 8a 93 3e
       0.10264109 0.0677562 0.10498557 0.288164
0003b0 7d 85 c3 3e b2 6c b1 3e 29 1f af 3e 1f 63 9e 3e
       0.3818778 0.3465324 0.3420346 0.30934998
0003c0 f3 6e 6f 3e 71 06 98 3e dd 80 f2 3d 85 c5 56 3d
       0.23382168 0.29692414 0.11840985 0.052434463
0003d0 39 44 40 3e ed fb 20 3e 61 54 60 3f a2 67 ad 3e
       0.18776025 0.15721102 0.8762875 0.33868128
0003e0 47 e0 3b bf 27 3e 31 3e c0 4e 40 3e 4f 04 57 3e
       -0.73389095 0.17308865 0.1878004 0.20997737
0003f0 a9 b2 19 3e 96 1c 4e 3e 32 2d a1 3d 96 b0 58 bb
       0.1500956 0.20128092 0.078699484 -0.0033064238

base.mlp.fc1.0.weight f4 [64, 415]
000000 07 12 65 bf 7f d7 8e 3e 4b 20 83 3e 8a 6e b9 3d
       -0.8948063 0.27898785 0.25610575 0.09054287
000010 87 6f 21 3e c8 ba 2c 3f d3 95 65 bf 74 ec 13 be
       0.157652 0.67472506 -0.8968174 -0.14445668
000020 d2 13 19 3e fd 81 8e be be a4 64 be 26 51 4a 3f
       0.14948967 -0.27833548 -0.22328469 0.7903007
000030 b8 f0 9d be 19 6c 04 3f b4 73 7f bf f5 04 ea 3e
       -0.30847716 0.51727444 -0.99785924 0.45706907
000040 13 f9 14 bf dc d0 9b bf da 08 8e bf 6e 37 0a 3e
       -0.5819256 -1.2173114 -1.1096451 0.13497707
000050 0d 8d 83 3e eb 94 94 be 3c 36 aa 3e b4 f8 ec bc
       0.2569355 -0.29019865 0.33244503 -0.028927185
000060 4f 7e 71 3f e1 e7 13 3f 9e 09 9e be 9f 61 cc bf
       0.94333357 0.57775694 -0.30866712 -1.5967292
000070 6d 35 45 3f eb ab 42 bf 99 3f 25 3d 6a 62 9e bf
       0.77034646 -0.76043576 0.040343855 -1.2373784
000080 17 9f 42 bf 9a 39 f3 be 62 1e 4d bf 80 85 3a 3f
       -0.76024 -0.47504884 -0.80124485 0.72859955
000090 54 6a 2d 3f 88 72 d5 3e 75 19 bc 3e 90 11 3f 3c
       0.6774037 0.41688943 0.36738172 0.011661902
0000a0 e2 bc 96 3f a0 8d b8 bd c9 5a 06 be b2 db e6 be
       1.1776392 -0.09011388 -0.1312057 -0.4508949
0000b0 8f a2 b2 3f 00 e5 90 3f 0a 59 2f 3f 28 43 01 3f
       1.3955859 1.1319885 0.6849524 0.504931
0000c0 fd 12 1b bf 4e 1d e0 3d 82 49 ab be 55 58 8f bc
       -0.6057585 0.109430894 -0.3345452 -0.017498175
0000d0 5f 8b 0c 3f 5f 6b 22 be 60 6e 75 3e b5 7b de bd
       0.54900163 -0.15861271 0.23967886 -0.10863439
0000e0 61 e2 94 3e 4e a5 4f be ab a3 8f be 5d e0 14 3e
       0.29078963 -0.20277902 -0.28054556 0.14538713
0000f0 1d cf d5 be b9 c9 0a bb ea 1c 93 bf f1 91 8b bf
       -0.41759577 -0.0021177365 -1.1493199 -1.0903913
000100 45 fb 89 3e 84 c6 4e 3e 7c 27 22 3e 2c d0 c5 3e
       0.26949516 0.20192915 0.15835375 0.38635385
000110 07 43 ed 3d 12 af c4 3c 6d e2 a4 be 20 18 0e be
       0.1158505 0.024009261 -0.32204 -0.1387639
000120 84 ca 53 3e 66 7c 67 3f ee 72 45 bf 85 eb 66 bf
       0.20682722 0.9042419 -0.77128494 -0.90203124
000130 18 65 06 bd 09 43 a6 be d6 4e 7e 3e f0 72 26 bf
       -0.032811254 -0.3247302 0.24834761 -0.6501913
000140 ff b6 c1 bf 55 25 48 3d 76 8e bb 3e a1 39 69 3e
       -1.5133971 0.048863728 0.36632127 0.2277589
000150 04 cf 53 3e 4c 46 30 3e 46 c4 24 3e 2f bd 4d 3e
       0.20684439 0.17214316 0.16090497 0.20091699
000160 b9 c7 8e bf 3d 84 57 3f 85 a0 00 3f 3b 9f 6b be
       -1.11547 0.84186155 0.50244933 -0.2300996
000170 60 70 ef 3d 7d ea 47 3e 62 68 3f bd db 3d bd 3e
       0.11691356 0.19523044 -0.046730407 0.36961254
000180 52 7f 77 3e 37 14 d1 bd 8a d7 d1 3f ba 6a 8d be
       0.24169663 -0.10208934 1.6393902 -0.27620488
000190 70 12 17 c0 0a cd 06 c0 68 95 56 3f 59 5f fd 3e
       -2.3605003 -2.1062646 0.83821726 0.49486807
0001a0 71 db a8 be be b4 3a 3f 81 60 20 3f 46 65 6f bd
       -0.3297992 0.7293204 0.62647253 -0.05844619
0001b0 87 ba a6 3e 06 bb 01 3f cc fb 48 be 42 61 39 3f
       0.32564184 0.50676 -0.19627303 0.7241403
0001c0 53 0e 80 3e 85 07 2b 3f 98 1a c3 bd a3 57 59 bf
       0.2501093 0.6680835 -0.09526557 -0.8489935
0001d0 36 5b e9 be 6b d2 95 be fd 30 9e 3c 06 8f f6 be
       -0.455774 -0.292621 0.019310469 -0.48155993
0001e0 19 48 2c bf 96 85 18 3f 14 39 06 3f 05 9c 6b 3d
       -0.6729751 0.59578836 0.52430844 0.05752184
0001f0 5a ae b5 3d e3 5b ff bd 3a c9 ea bd 9a 4c 81 3f
       0.088711455 -0.12468698 -0.11464162 1.0101502
000200 25 c4 11 3f 04 47 17 bb 79 ea c3 bf cf 55 58 bf
       0.5693992 -0.00230831 -1.530593 -0.84505934
000210 e7 8c bf bc ab 80 6d 3e c8 7d 45 3e bf 72 b8 be
       -0.023382617 0.23193614 0.19286263 -0.36025044
000220 75 3a 25 bf 65 96 e5 3e b7 b6 08 bf dd 81 ec be
       -0.64542323 0.44841304 -0.534038 -0.46192828
000230 e9 96 9e 3f 6e ba 6d 3e 50 53 b7 be 1c 8d 9c 3e
       1.2389804 0.23215649 -0.3580575 0.30576408
000240 72 c4 16 3e f8 a9 2b bf f3 8b e3 be ce 5c 7a bf
       0.14723375 -0.67056227 -0.4444271 -0.9779786
000250 0b 70 05 3f fa 5d b3 3e 42 38 e0 3e eb 1d 3a 3f
       0.5212409 0.35032636 0.4379292 0.727019
000260 93 79 75 bf b9 21 b4 bf aa e4 6a 3e 4e a7 ff 3e
       -0.9588863 -1.4072791 0.22938791 0.4993233
000270 93 4f 10 3f 34 c3 8a bf a6 3a 21 c0 ea 65 c6 bd
       0.5637142 -1.0840821 -2.5192046 -0.09687407
000280 3f 89 8d 3f 07 cf 6c 3f 40 8a dc bf 09 bb 42 bf
       1.1057509 0.925034 -1.722969 -0.76066643
000290 74 0f b8 3d 12 31 ca 3d b7 a5 43 3e b8 1b 6a 3d
       0.089873224 0.09872641 0.19106184 0.05715534
0002a0 cc 4f 24 3f 8e 09 ae 3e 15 f8 f3 3d ea 47 c8 bd
       0.6418426 0.33991665 0.11912552 -0.097793415
0002b0 cf 1f 4b 3f e4 34 bb be b7 53 90 bf 00 71 3a 3f
       0.7934541 -0.3656379 -1.1275548 0.72828674
0002c0 31 4e 59 bf 70 ce b5 bd e1 07 4c 3f bc 27 b9 3e
       -0.84884936 -0.088772655 0.7969952 0.36163127
0002d0 a9 3f 04 c0 0b 21 83 bf a0 12 45 3e 11 3a cd 3e
       -2.0663855 -1.0244459 0.19245386 0.40083364
0002e0 a6 8d 56 3f 21 8b d1 3d 93 2e 86 3e 3a d5 64 bf
       0.8380989 0.10231615 0.26207408 -0.8938786
0002f0 55 95 8b bd 56 11 89 3f d0 c7 76 bc 27 30 06 3e
       -0.06815592 1.0708416 -0.015062287 0.13104306
000300 0f 3c e5 be 31 aa e4 3e 91 02 a6 be 86 c7 eb 3a
       -0.44772384 0.44661096 -0.32423833 0.001798854
000310 bb f6 60 be 9f d3 0c bf c8 5f 92 3d d3 65 ce be
       -0.2196912 -0.5501041 0.07147175 -0.4031206
000320 e9 f1 08 bf c4 54 52 3f 8d cc b4 3e d0 97 53 bf
       -0.53494126 0.8216059 0.3531231 -0.8265352
000330 0c ee e9 be a0 30 7d 3e ea 1d 4b be 73 3d 0e bf
       -0.45689428 0.2472558 -0.1983563 -0.55562514
000340 bf ad c4 3e a2 37 df 3d 74 0f 8c be 4c b6 32 3d
       0.38413808 0.10899283 -0.2735554 0.043630883
000350 bd 7d 20 bf b6 a5 c3 bf 3e 11 1a bf 98 e7 57 3f
       -0.6269186 -1.5284946 -0.6018256 0.8433776
000360 0f 8b df 3e a8 fd 43 3f 21 18 cc be 0e 3f 52 bf
       0.4366078 0.76558924 -0.3986216 -0.82127464
000370 51 a3 cd bb 8b 9e 35 3e 44 11 85 3e ba 56 8e be
       -0.0062755723 0.1773626 0.25989735 -0.27800542
000380 c7 31 4a be 4a fd ad be 26 d1 ac 3e 5d eb 47 be
       -0.19745551 -0.33982307 0.33753318 -0.19523378
000390 83 b1 34 3f 2b b2 6e 3f d9 21 8b bf 50 85 e6 3e
       0.7058336 0.9324061 -1.0869704 0.45023584
0003a0 34 0d 50 3d da 83 03 bf 8e 6a 8f 3e 1f 79 a8 3d
       0.05079384 -0.51373065 0.28010982 0.08226227
0003b0 ad 07 1f bf 58 f2 a4 be f3 f4 1f bf c7 ea 89 be
       -0.6212109 -0.32216144 -0.6248314 -0.26936933
0003c0 33 dd 65 3d c9 f9 8c be 92 68 42 bf 5f 70 35 be
       0.056119155 -0.2753432 -0.7594081 -0.17718647
0003d0 01 f1 b1 be 54 c0 e5 3d 00 8a 2d be 31 a8 91 3f
       -0.34754184 0.11218324 -0.16947174 1.1379453
0003e0 65 b8 c9 3e 55 63 7b 3e 33 4d 67 3e 97 a9 03 3e
       0.39398494 0.24549611 0.22588043 0.12857662
0003f0 d3 aa 2e 3d cb d5 8b 3e 23 52 e9 3b cb 14 93 3f
       0.04264338 0.2731155 0.007120387 1.149072

base.mlp.fc1.0.bias f4 [64]
000000 32 e7 33 bf 58 b4 64 be ba 8d 1d be 25 5c 02 bf
       -0.7027465 -0.2233442 -0.15386096 -0.5092185
000010 d9 e9 33 bd ff 24 47 be 20 3d ae bb a3 d2 0f be
       -0.043924186 -0.19447707 -0.0053173453 -0.14045195
000020 e4 50 14 be b9 59 c1 bd ac fe 87 be 35 c2 98 3d
       -0.14483982 -0.09440941 -0.26561487 0.07458917
000030 b1 49 2c 3c dc df 7d 3e c4 8c 2c 3e 5d 94 42 be
       0.010515616 0.24792427 0.16850573 -0.19001909
000040 db ed 68 bd 17 54 3b be 28 cf 8c be af 73 b6 3c
       -0.05686746 -0.18293796 -0.27501798 0.02227196
000050 0a ca e7 be 04 7b 1b bf 6e a3 a7 be 16 a0 bc be
       -0.4527133 -0.6073458 -0.32741874 -0.36840886
000060 82 b5 72 3e e2 1f 36 bf 7b 96 31 bf 41 c5 12 bf
       0.23702052 -0.711424 -0.6937024 -0.57332236
000070 f4 24 e0 be c0 a6 e2 be 23 fc 4f bd 6e 46 a9 be
       -0.43778193 -0.44267845 -0.050777566 -0.33061546
000080 98 94 43 3e 60 e7 ec be 6e 17 0c be a7 46 8b be
       0.19099653 -0.46270275 -0.13680813 -0.2720234
000090 af 39 b5 3e 53 08 18 bf e2 6a ed be 97 f6 97 be
       0.35395572 -0.593877 -0.46370608 -0.2968032
0000a0 76 71 19 bf 83 da 1c bf ee ff 04 be a6 ab b6 be
       -0.5993875 -0.6127092 -0.12988254 -0.35677832
0000b0 5c 2c 0a bf 5b af 82 be 21 af e2 be 3e 77 39 be
       -0.5397394 -0.2552441 -0.44274238 -0.18111894
0000c0 5b fd 97 be 1c 9a 9e be dd f8 69 be 1c 9c cb be
       -0.29685482 -0.3097695 -0.2284884 -0.3976754
0000d0 8f df 1c bf ee 22 58 be 6d 44 51 3d 42 55 9a bc
       -0.61278623 -0.21107075 0.051090647 -0.018839482
0000e0 5e ad 9b bd ee e7 2c 3e 5a e7 0d bf 28 18 3e 3d
       -0.076014265 0.16885349 -0.5543114 0.046409756
0000f0 dc f6 f3 be ea c6 33 bf c3 15 85 3d b9 07 55 bd
       -0.47649276 -0.70225394 0.06498291 -0.052009318

base.mlp.fc1.2.weight f4 [64]
000000 44 c8 d8 3f 4b 2a cf 3f a3 6b e1 3f b5 b1 a6 3f
       1.6936116 1.6184782 1.7610973 1.3022982
000010 e5 d6 a7 3f 7b 06 9a 3f 06 02 9c 3f 62 10 d7 3f
       1.3112456 1.2033228 1.2188118 1.6801875
000020 56 0c 9c 3f fb e6 94 3f 9c 22 21 3f 87 ac 8c 3f
       1.2191265 1.163299 0.62943435 1.0990151
000030 92 f3 85 3f 5f d8 60 3f b0 6a cd 3f d0 3c c2 3f
       1.0464957 0.87830156 1.6048183 1.5174809
000040 14 96 eb 3f 16 5f 9d 3f fb 45 a3 3f 74 0b d5 3f
       1.8405175 1.2294643 1.2755731 1.664412
000050 d9 4c bb 3f 8a 90 96 3f 02 8a 3f 3f 23 83 7f 3f
       1.4632827 1.176286 0.7481996 0.99809474
000060 67 ab 64 3e 38 34 f0 3f cd b4 a6 3f a0 f6 86 3f
       0.2233101 1.8765936 1.3023926 1.0544014
000070 6c b0 c1 3f de ac 67 3f 2c 94 62 3f 40 c6 8c 3f
       1.5131965 0.9049815 0.8850734 1.0998001
000080 cd 33 90 3f b3 2a 87 3f b9 6c ad 3f 61 50 92 3f
       1.1265808 1.0559906 1.3548805 1.143078
000090 ef 88 3c 3f 3f 37 a2 3f ab 99 b7 3f 84 f3 f5 3f
       0.73646444 1.267311 1.4343771 1.921494
0000a0 ed 49 f9 3f 70 aa c0 3f c2 d3 36 3f 10 52 a5 3f
       1.9475685 1.5052013 0.71416867 1.2915668
0000b0 18 be bb 3f ae 31 76 3f 7c 4a ac 3f 22 92 c6 3f
       1.4667387 0.96169555 1.3460231 1.5513346
0000c0 59 2f 81 3f b3 35 d4 3f ec 71 ab 3f 27 1c ec 3f
       1.0092574 1.6578888 1.3394141 1.8446091
0000d0 45 0f 85 3f 19 1b 82 3f 88 ee 8b 3f 8e 64 94 3f
       1.0395285 1.016452 1.0932169 1.1593187
0000e0 ca b5 84 3f 56 62 91 3f a2 23 a3 3f af b0 99 3f
       1.0367978 1.1358135 1.2745249 1.2007045
0000f0 ab 62 cd 3f 7b 4a c7 3f 70 b4 80 3f 11 e5 8c 3f
       1.6045736 1.5569605 1.0055065 1.1007406

base.mlp.fc1.2.bias f4 [64]
000000 77 9b 1e 3f 77 a2 18 bf 14 f3 6f 3d bb 07 12 be
       0.6195597 -0.596229 0.058581427 -0.14260761
000010 65 74 05 3f fe b2 e7 3e 98 65 fb be b1 4e 3c 3f
       0.5213073 0.45253748 -0.49100947 0.73557574
000020 76 26 68 3e 29 d1 e5 be a2 c7 90 be 45 f3 16 3e
       0.22670922 -0.4488614 -0.28277308 0.14741237
000030 a1 51 3f 3f d2 38 05 3f ab dc fd be fb f3 72 be
       0.7473393 0.52039826 -0.4958242 -0.23725884
000040 f1 f4 b0 bd 27 1e a1 3d 6e 3f e9 3e af a5 72 be
       -0.08640469 0.07867079 0.45556206 -0.23696016
000050 5a 38 0f bf 0a d5 28 bf cc 11 6f 3e c5 b0 cd 3e
       -0.5594536 -0.6595007 0.23346633 0.40173927
000060 fa fc 69 3e 37 9d f4 be da 40 1e 3a 20 06 65 3e
       0.22850409 -0.47776195 0.00060368853 0.22365618
000070 a0 04 b7 be 8d 52 f4 3d d8 b6 85 be eb 6b 81 3e
       -0.35745716 0.11929808 -0.2611606 0.25277647
000080 1e 26 57 3f bd d3 bb 3e d3 9c 8d be 40 c3 3f 3e
       0.8404254 0.3668498 -0.2765871 0.18726826
000090 bd 5a 95 3e 96 43 d4 3d 92 d4 09 bf 3f 29 81 3e
       0.2917079 0.103644535 -0.5383998 0.2522678
0000a0 be e7 fc be e1 05 d9 be 83 00 c4 be c9 8f 07 3e
       -0.49395555 -0.42387298 -0.3828164 0.13238443
0000b0 76 d3 e7 3e a5 44 8f be d2 a0 a6 be 6e 46 c8 3e
       0.4527852 -0.2798206 -0.3254457 0.39116234
0000c0 e6 3c e2 3e 88 92 1c bf 0a 9d 26 3d 9b 60 31 bd
       0.44187087 -0.6116109 0.040677108 -0.04330502
0000d0 2b 56 fc 3e 25 8d ef 3e 06 c2 1f 3f 63 e7 ce be
       0.4928449 0.46787372 0.6240543 -0.4041091
0000e0 7b bc 81 be 0b da 27 be 22 36 f1 be 42 33 8d bd
       -0.25339112 -0.1639177 -0.47111613 -0.06894542
0000f0 c9 9f ab 3d 0d ea a1 bd a0 16 e0 bc 72 7c 0b 3e
       0.08380086 -0.0790597 -0.027354538 0.13621691

base.mlp.fc2.0.0.weight f4 [64, 64]
000000 00 40 d4 bf dd d5 1a 3f c8 85 8e bf b7 8b 53 3f
       -1.6582031 0.6048258 -1.1134577 0.8263506
000010 f2 2d a1 bf b7 02 03 bf d7 07 3a bf c1 db c5 bf
       -1.2592146 -0.5117602 -0.7266821 -1.5457689
000020 a4 82 d7 3f 63 49 00 3e 45 14 15 3f 72 a1 06 bf
       1.6836743 0.12527995 0.58234054 -0.52590096
000030 21 09 46 bd d7 bd 1d bf fb 9b 3d 3d f1 92 fb 3e
       -0.04834855 -0.616178 0.046291333 0.49135545
000040 4a 54 00 3f 0c a0 63 be 99 49 50 be 72 ae 6a 3f
       0.50128615 -0.22229022 -0.20340575 0.9167243
000050 1c 45 15 bf 77 c9 9f 3e d4 11 a4 3d f0 0e 64 bf
       -0.5830858 0.31208393 0.08011213 -0.8908529
000060 a1 44 7a 3e 7a 69 c5 3e aa bc 85 be 08 6d 21 3f
       0.24440242 0.38557035 -0.26120502 0.63056993
000070 66 02 76 3f 40 a0 d8 3e 63 09 cf be 2d 03 a6 3e
       0.9609741 0.4230976 -0.4043685 0.32424298
000080 bb db 90 3f 97 5e de be 01 33 59 be b1 5f 82 3d
       1.1317056 -0.4343154 -0.21210863 0.06365908
000090 0f e2 0b 3f 3d 63 b6 bd f1 ac 57 bf 67 14 89 3f
       0.54641813 -0.08905647 -0.8424826 1.0709351
0000a0 fb 79 3f 3f b7 d9 e7 be b5 21 2b 3e d8 a0 92 3e
       0.747955 -0.4528329 0.16712077 0.2863834
0000b0 9e 2a ef be 7d fa 1d 3f 41 d7 be 3e c6 db cf be
       -0.46712202 0.6171034 0.372736 -0.4059736
0000c0 54 90 ae 3e dd eb 52 3e 5a 11 2f bd b7 cd b0 be
       0.3409449 0.20597787 -0.042741157 -0.34531948
0000d0 cd 13 12 bf f6 36 3d bd 84 e1 29 3f 1f 63 f2 3e
       -0.57061464 -0.046194993 0.66359735 0.47341248
0000e0 95 ff b2 be 17 1a 67 be a2 3e ee 3e eb 99 9f 3e
       -0.3496062 -0.22568546 0.4653216 0.31172118
0000f0 c6 45 1c 3e aa 75 c2 3d 66 91 a3 3f 83 d1 a9 be
       0.15260991 0.09495099 1.2778747 -0.33167657
000100 be 0b 7d 3f 12 d1 57 be 4c fe b3 3f 67 d2 ca bc
       0.9884604 -0.21075848 1.406198 -0.02475853
000110 e4 0d 91 3f c7 28 e8 3f 0e 40 e2 be 2e 53 aa 3f
       1.1332364 1.8137444 -0.44189495 1.3306634
000120 e1 52 4e bd 5a f6 05 bf f6 13 33 3e 4b 86 1d 3f
       -0.05037201 -0.5232903 0.17488083 0.6153304
000130 d9 a2 db be 30 ae bb bf b5 ff 28 3f 0e bf e9 be
       -0.4289768 -1.4662533 0.6601518 -0.45653576
000140 e9 34 5d bf 2e 76 73 3f a7 87 98 3f 6d bd c1 be
       -0.8640886 0.951022 1.1916398 -0.37839833
000150 ec 59 69 bf 5b e5 29 3e a6 e0 54 3f 22 4d e6 be
       -0.91152835 0.16591398 0.83155286 -0.44980723
000160 26 97 95 3f 82 1d 2b bf b5 2e e0 3e e6 e6 62 3f
       1.1686752 -0.668419 0.43785635 0.88633573
000170 ef d7 01 bf 75 aa 8a 3d bd bd cd 3f f4 9f 35 bf
       -0.50720114 0.06770793 1.6073529 -0.70947194
000180 95 9c 4d bf 8c 64 71 bf 4e fd 82 bf ef a4 58 bf
       -0.8031705 -0.9429405 -1.0233552 -0.8462667
000190 ba 51 31 bf 0a 4e 8f bc e3 5a 53 be 3e e6 b8 3f
       -0.6926533 -0.017493267 -0.2064014 1.4445264
0001a0 56 0e eb be 16 f1 9f be d2 5f 84 3f 3f 78 a6 3e
       -0.45909375 -0.3123862 1.0341742 0.32513615
0001b0 5f 1a e2 3f 5d 1c c1 bf 1c 56 a2 3e 37 f2 85 3f
       1.7664298 -1.5086781 0.3170632 1.0464543
0001c0 a6 35 67 3b 68 7d 21 bf f8 2a 9d be b8 ba 4d 3b
       0.003527978 -0.6308198 -0.30696845 0.003139181
0001d0 1d a1 47 3f fd 4d 62 3e 7e 36 36 3e 6c f0 48 3f
       0.77980214 0.22100063 0.17794225 0.78491855
0001e0 d4 77 1d bf f1 7f 88 bf 84 42 74 bf 6f 49 eb be
       -0.6151097 -1.0664045 -0.95413995 -0.45954463
0001f0 e4 08 a3 3f af 7f d9 be 41 76 b9 bf 9b af 02 bf
       1.2737088 -0.42480227 -1.4489213 -0.510492
000200 78 59 45 be 5e 4b cd bd e5 c8 67 3f 93 c2 d3 3c
       -0.19272411 -0.10024141 0.90540916 0.025849616
000210 57 26 12 bf cd ef 11 bf d6 d6 21 bd 0b 55 94 bf
       -0.5708975 -0.5700653 -0.039511524 -1.1588453
000220 ec 7b 0a 3f 68 17 8e 3e 67 b4 8c 3e 1b e1 1a bd
       0.5409534 0.27752233 0.27481386 -0.037812334
000230 61 66 31 c0 5f 75 4a 3e b1 5d 13 3f 8f a8 3c 3e
       -2.7718737 0.19771336 0.57564837 0.18423675
000240 9e ef 14 be 7c 83 e8 39 4a ef 4a be 56 89 41 3e
       -0.14544532 0.00044348452 -0.19817844 0.18900046
000250 9f dc 65 3e 19 ff 70 3e b0 bd da 3d c1 0f 7f 3f
       0.22447442 0.23534812 0.10680711 0.99633414
000260 48 00 dd 3d 5c 2d 87 3f 73 e9 c0 3d 7e 00 8b 3f
       0.10791069 1.0560718 0.09419527 1.0859525
000270 44 52 8c 3e d0 f1 1a bf 92 e1 c5 bd 7f a3 0a be
       0.27406514 -0.60525227 -0.09662165 -0.13538931
000280 04 2c 89 be d5 c2 d4 3e e4 9e 97 3f 1c c8 c4 be
       -0.26791394 0.41554895 1.1845365 -0.3843392
000290 22 23 f1 be 63 af ad 3f 99 9f 31 3f da fd 2c bf
       -0.47097117 1.3569149 0.6938415 -0.67574847
0002a0 0d 80 87 3e 4c 7a 70 3f c5 55 e7 3d 0b ea 39 3f
       0.26464882 0.9393661 0.11295656 0.72622746
0002b0 64 a9 59 be 82 4c 86 3e 53 bd 69 3f 71 12 11 3f
       -0.21256024 0.26230246 0.9130451 0.56668764
0002c0 6a 42 e3 bd 67 1f 55 3f 1c c6 da 3e 1e fd 3f 3f
       -0.11096652 0.8325104 0.4272927 0.749956
0002d0 61 1d 51 3e f2 21 81 bf e9 8d 9e bf 98 7e 2e bf
       0.20421363 -1.0088484 -1.2387058 -0.68161917
0002e0 7a 00 18 3f ea 64 31 3f af 2c 54 3f 31 74 cb be
       0.5937573 0.6929461 0.8288068 -0.39737085
0002f0 15 45 13 be 56 9f 48 bd 74 83 46 3f f5 2a 61 3f
       -0.14381821 -0.04898008 0.7754433 0.8795617
000300 61 aa d0 3f 7c ea e7 bd db b1 c6 3f 44 87 e5 be
       1.6301996 -0.11324021 1.5523027 -0.44829762
000310 2f 9c 84 be 44 f7 2c 3f e4 e8 87 bf 1a 79 ca bf
       -0.2590041 0.675648 -1.0617948 -1.5818207
000320 50 0a 95 be 39 03 b7 be 6a d4 85 3f 90 0c 07 3f
       -0.2910943 -0.35744646 1.0455449 0.52753544
000330 50 45 ac be db a7 a5 bf 01 78 c7 bc 89 1d 53 bf
       -0.3364663 -1.294185 -0.024349215 -0.8246694
000340 df 7e ac bf d2 7a a0 3f 24 6f e1 3f 4a 01 95 be
       -1.3476218 1.2537482 1.7612042 -0.29102546
000350 ce 20 fc be c9 62 32 be 53 40 d3 3c 67 24 85 3f
       -0.49243778 -0.17420496 0.025787508 1.0401734
000360 98 27 65 be d6 ba 9c 3e 64 30 f2 3e 96 54 59 3f
       -0.22378385 0.30611295 0.47302544 0.8489469
000370 07 e5 a3 bf 5b 5d a1 bf 5a 60 22 bf 8a 2a 36 bf
       -1.2804269 -1.2606615 -0.6342827 -0.7115866
000380 d1 1b 88 be fa e0 53 bf e3 5c e6 bf 3e d7 53 3f
       -0.26583722 -0.8276516 -1.7997097 0.8275031
000390 af 6d 3a 3f 3a ac 36 3f c8 61 26 bf c2 83 84 be
       0.72823614 0.71356547 -0.6499295 -0.25881773
0003a0 41 39 bb bc 7f 94 bc bd 15 8d 3e 3f 92 3f 1b bf
       -0.02285445 -0.09208011 0.74434024 -0.60643876
0003b0 84 ff 96 3f 7d 02 2a be b6 4c 92 bc a9 11 82 3f
       1.1796727 -0.16602512 -0.017858844 1.016164
0003c0 4f 15 12 3f 37 43 a9 be 40 86 ad bf e1 22 cb 3f
       0.57063764 -0.33059093 -1.3556595 1.5870019
0003d0 04 36 92 3f 1f 13 41 3f 2d 94 65 bc 6a 10 d0 bd
       1.1422734 0.754198 -0.014012379 -0.10159381
0003e0 62 c4 b2 bf 6c 13 46 bf aa 51 1d 3f 06 ea a0 be
       -1.3966181 -0.77373385 0.61452734 -0.31428546
0003f0 4f f1 99 be 80 89 0b bf 9f 8a fd be 4a e4 9c 3f
       -0.30066916 -0.54506683 -0.49519822 1.2257168

base.mlp.fc2.0.0.bias f4 [64]
000000 ad 44 34 bf 46 54 cc 3e ca 3b 8e bf 3f 82 00 3e
       -0.7041729 0.39908046 -1.1111996 0.12549685
000010 55 a3 ce 3e d1 37 43 bf e6 ac ac 3d 59 f0 80 bf
       0.40358987 -0.76257044 0.08431415 -1.0073348
000020 1b ce be 3d e7 7a 58 3e 19 0d 24 bf c7 80 14 bf
       0.09316655 0.21140634 -0.64082485 -0.58009
000030 d3 09 07 bf 07 27 ee 3d 6e de 7d be cb ab b8 bd
       -0.52749366 0.116285376 -0.24791881 -0.09017142
000040 69 41 df 3c 44 3c 49 bf 5a ef 02 be fe a4 47 3e
       0.02725287 -0.78607583 -0.12786618 0.19496533
000050 0c d8 92 be 25 92 be bf d1 cb 0f bf 78 9d 18 bf
       -0.28680456 -1.488835 -0.56170374 -0.5961528
000060 8e 2c 89 bf 02 1a a8 be 84 0a da be f9 11 ca 3e
       -1.0716722 -0.32832342 -0.42586148 0.39466837
000070 f6 b4 08 be f5 b5 43 bf 71 85 58 be 7c 57 e2 bd
       -0.13350281 -0.7644952 -0.21144654 -0.110518426
000080 f7 f0 9c be 0e ae 6c bf b8 ae 8b bf 6a c9 36 bf
       -0.30652592 -0.92453086 -1.0912695 -0.71401083
000090 71 94 c9 3e aa 1a 93 bb 78 b3 94 be 56 88 83 be
       0.39371064 -0.0044892626 -0.29043174 -0.25689954
0000a0 de dc 18 bf 3b 58 6c bf 35 af 3c bf b0 bd c7 be
       -0.59712017 -0.9232213 -0.73704845 -0.39011908
0000b0 39 ec 7d be b5 47 7b be 3c 62 ab be 75 09 b7 bf
       -0.24797143 -0.24539073 -0.33473384 -1.4299761
0000c0 4e e8 93 be bf 33 aa 3c ce d2 96 3d 3c cc 86 bd
       -0.28888172 0.020776628 0.073644266 -0.06581923
0000d0 3d 1d 0f bf f8 ae d2 be de 3c 42 be d6 64 25 bf
       -0.5590399 -0.41149116 -0.18968531 -0.6460699
0000e0 a5 1b 15 bf ea 81 b8 3d f4 62 bf 3e 63 1e 63 be
       -0.5824531 0.09009154 0.37380183 -0.2217956
0000f0 d0 55 f2 3d ca 3d 1b bf df 39 d8 be 8f 80 2c bf
       0.11832774 -0.6064116 -0.42231652 -0.67383665

base.mlp.fc2.0.2.weight f4 [64]
000000 1e e8 bb 3f 33 28 6a 3f 14 2d ec 3f 06 f1 5c 3f
       1.4680212 0.9146759 1.8451257 0.8630527
000010 c5 6a 82 3f a8 1c b2 3f 9f 6f c4 3f 24 5d b3 3f
       1.0188833 1.3914995 1.5346564 1.4012799
000020 5e cf 7d 3f a7 c0 a1 3f ea 93 b6 3f 6f 13 c8 3f
       0.9914454 1.2636918 1.426389 1.5630931
000030 1d 52 c0 3f 3d 08 59 3f 42 c2 52 3f 10 74 89 3f
       1.5025059 0.84778196 0.82327664 1.0738544
000040 0b b9 5b 3f 5f 88 d1 3f f6 04 a9 3f 0a 2f 87 3f
       0.8582923 1.6369742 1.3204639 1.056123
000050 85 be 8b be 49 da e9 3f b3 87 6e 3f 5f 09 79 3f
       -0.27293792 1.826974 0.9317581 0.97279924
000060 a5 40 98 3f c4 f8 03 3f 18 a0 27 3f 9e 82 7d 3f
       1.1894728 0.5155146 0.6547866 0.9902743
000070 31 4c 57 3f 39 23 c8 3f f4 8a 8e 3f 7c f4 b2 3f
       0.84100634 1.5635749 1.1136155 1.3980861
000080 0f 45 68 3f 9f 35 a1 3f a8 7c dd 3f 31 73 b2 3f
       0.90730375 1.2594489 1.7303667 1.3941404
000090 22 19 9d bd fc f9 21 3f 0f 61 78 3f dd fd 79 3f
       -0.07670809 0.6327207 0.970231 0.9765299
0000a0 57 45 81 3f d5 12 b2 3f 58 5d 97 3f 2a 6c cd 3e
       1.0099286 1.3911997 1.1825361 0.40121585
0000b0 5e 54 c7 3f fb 72 42 3f 87 39 3b 3f 7c ff d0 3f
       1.5572622 0.75956696 0.73134655 1.6327968
0000c0 20 de a8 3f 07 e3 b9 3f 65 67 87 3f d7 d3 83 3f
       1.3192787 1.4522408 1.0578429 1.0299023
0000d0 fe d3 45 3f 5e 10 8a 3f 7e ea 62 3f 95 e0 8d 3f
       0.772766 1.0786245 0.88639057 1.1084162
0000e0 59 bb be 3f 2e c8 1e 3f 31 66 8b 3f 26 20 29 3f
       1.4900924 0.620242 1.0890561 0.6606468
0000f0 93 93 71 3f e7 6b a5 3f d7 da 88 3f 44 e9 55 3f
       0.94365805 1.2923554 1.0691785 0.8355906

base.mlp.fc2.0.2.bias f4 [64]
000000 fd fd 0d bf 86 a0 ff 3e 50 c1 0c bf ac 05 09 3f
       -0.5546568 0.49927157 -0.5498247 0.5352428
000010 49 2f 16 3f d8 e8 0e bf 6a 78 c9 3e cf d1 01 bf
       0.586659 -0.5582404 0.3934968 -0.5071077
000020 7d b8 00 3f b4 88 26 3f f1 6b e2 be d4 5d 0e bf
       0.50281507 0.6505234 -0.44222978 -0.5561192
000030 f9 66 f1 be 9e 16 17 3f 0c 5b 15 3f 97 ea 0b 3f
       -0.47148874 0.59018886 0.5834205 0.5465483
000040 45 e7 0d 3f 98 58 00 bf 00 cd 0b 3f 67 1f 03 3f
       0.55431014 -0.50135183 0.5460968 0.5121979
000050 d9 d2 84 bd 2e 69 25 bf ab 2f 16 bf 9f d9 1a 3f
       -0.064855285 -0.64613616 -0.58666486 0.60488313
000060 57 02 15 bf 28 e8 25 3f eb df 12 bf bd bd 1b 3f
       -0.58206695 0.6480737 -0.5737292 0.6083639
000070 58 13 f9 3e 24 4d e1 be e3 1f 0b 3f 30 af f1 be
       0.4864757 -0.44004166 0.5434553 -0.4720397
000080 f1 e5 0a 3f 62 ff 2a bf 45 f1 20 bf 15 78 f7 be
       0.5425711 -0.66795933 -0.6286815 -0.48333803
000090 13 cd e7 3e 6b cf 10 3f 6f 5a 1a 3f c4 bc 19 3f
       0.45273647 0.56566495 0.6029424 0.6005366
0000a0 42 f4 20 bf 38 d5 1f bf 66 3a 26 bf 71 5f 0c bf
       -0.6287271 -0.6243472 -0.6493286 -0.5483313
0000b0 cc 5b ae be a4 61 17 3f 5a 5d a2 3e bf 8b 15 bf
       -0.3405441 0.5913336 0.31711847 -0.5841636
0000c0 e0 03 27 3f 70 18 d7 be b0 05 f6 3e 52 21 1f 3f
       0.6524029 -0.42010832 0.48051214 0.6216022
0000d0 ef 97 0c bf 99 22 1b 3f 8e 86 0e 3f 29 9b 66 3e
       -0.5491933 0.60599667 0.55674064 0.22520126
0000e0 b3 3f f5 be fd e3 18 3f 3e e3 0a 3f 35 9f 17 3f
       -0.4790016 0.5972288 0.54252994 0.59227306
0000f0 39 ee 00 3f ad 0b 03 bf 27 dd 0a 3f de c7 0e 3f
       0.503635 -0.5118969 0.542437 0.55773723

v_out.weight f4 [1, 64]
000000 25 02 38 bf a5 95 d5 3d 24 d9 59 bf 07 10 5e 3e
       -0.7187827 0.10428933 -0.85096955 0.21685801
000010 c1 40 a1 3e 4f 7f 01 bf b0 06 85 3e cb d1 e3 be
       0.31494716 -0.5058488 0.25981665 -0.44495997
000020 69 22 4f 3e 41 59 e4 3e 3e f8 b1 be 6e 78 23 bf
       0.2022797 0.44599345 -0.34759706 -0.63855636
000030 1e 4c e3 be c7 01 4d 3e dd aa 94 3e c2 f7 8d 3e
       -0.4439401 0.20020209 0.29036608 0.27728087
000040 dd ec 4f 3d 24 0d 09 bf 95 a3 5e 3e 64 ea 02 3e
       0.050763 -0.53535676 0.21742089 0.12784725
000050 06 40 0b 3c 73 b7 8a bf 4c 40 8a be c8 3b 67 bd
       0.008499151 -1.0837234 -0.2700218 -0.056453496
000060 36 12 a3 be 4a 02 33 bd 2e 62 fc bd 63 5a b9 3e
       -0.3184983 -0.043703355 -0.12323414 0.36201772
000070 d7 f2 9f 3c c1 f4 ca be e1 a3 a9 3e 25 0e ac be
       0.019524975 -0.39639857 0.33132842 -0.3360454
000080 ef 43 42 3e 87 9e 3f bf 17 e5 70 bf 47 f7 81 be
       0.18971227 -0.7485127 -0.94099563 -0.2538397
000090 c9 b0 c1 bc 60 e9 2d 3e 2b cc a1 3e 28 f0 63 3e
       -0.023643868 0.16983557 0.3160108 0.22259581
0000a0 bc 9c f6 be 5b d4 1b bf 30 c8 2a bf 50 21 20 bc
       -0.48166454 -0.60870904 -0.6671171 -0.009773567
0000b0 e2 03 8a be e9 f9 9c 3e 10 37 8d 3e f1 00 2f bf
       -0.26956087 0.30659416 0.27581072 -0.6836081
0000c0 d7 5f d4 3e f7 bc ba be de 70 35 3e f2 62 ef 3d
       0.4147937 -0.36472294 0.17718837 0.11688794
0000d0 c9 48 13 be 51 cc 42 3f f0 8d 30 3e d6 2b 01 3e
       -0.14383234 0.7609301 0.17241645 0.12614378
0000e0 d1 5f c2 be d3 53 87 3e 59 fd 97 3e 94 80 1e 3e
       -0.37963727 0.2643114 0.29685476 0.15478736
0000f0 30 42 f9 3d 55 01 a4 be b6 a1 26 3e 83 00 95 3d
       0.121708274 -0.32032266 0.16272625 0.07275488
