save_dir/critic_good.pt (torch, 131554 bytes, 11 tensors)

base.feature_norm.weight f4 [415]
0.9407458 0.7863493 0.73330235 0.82645684 0.5869981 1.5147465 -0.09168364 1.7981923
1.3882699 1.6499406 0.86652535 1.2012875 0.6012733 0.85888976 0.87816465 1.6691328
1.1997958 2.0802813 1.7632694 1.3810174 0.8327173 0.8455508 1.6438017 0.98477507
0.92737865 0.9744715 1.6049564 -0.4960828 1.9816039 1.157578 1.1683723 1.4106687
1.2739854 2.1746798 1.0258768 1.2076954 1.7220517 1.3495475 1.8593241 0.58144057
2.0870044 1.1808647 -0.5065203 0.5484423 -0.6172542 0.7394323 0.4556487 1.168317
1.2339585 -0.83568186 0.8314185 1.1924144 1.0812836 0.78310245 0.9506734 0.8416154
0.88677895 0.5876303 0.9149076 -0.30585855 0.61252046 1.2350782 0.8815715 0.6120167
0.64967793 0.75418675 0.65303195 0.80974644 0.4308233 1.0664678 0.92285466 0.7812552
0.717125 0.5294274 0.59144825 0.9478847 0.8066494 0.6947101 -0.056824904 0.5301843
2.959229 1.4972088 2.5411673 0.71406806 0.7751542 0.76749164 0.6841996 0.80824137
2.1572504 1.9878808 2.4203355 1.6302078 1.240328 0.7293069 0.58299136 0.8407978
0.53440094 0.34244058 2.3288088 2.48654 1.9055022 2.6229722 1.5548707 0.70311904
0.19185919 0.92041 1.1239725 0.41545808 0.50872314 0.2712093 0.31081977 -0.6767887
0.121592544 0.8011671 1.3147802 0.43640566 1.0886601 1.1158152 0.16540131 -0.43506727
0.28007877 0.7106086 0.85158646 0.5506747 -0.19567579 0.38450837 0.24026936 0.008834604
1.111687 0.80475277 0.6302724 0.914418 1.532938 0.7528882 0.27827963 0.05789601
0.31553024 0.6496531 0.32953712 0.47359884 0.5438143 -0.010653653 0.32586724 1.5000485
0.44907966 1.0219716 1.617911 0.9118671 1.0650865 1.3054843 1.3476145 1.2512496
1.2936435 1.2554041 1.0636178 1.4032806 0.9061803 1.5066097 1.6497207 1.539393
1.8436743 2.1187587 2.4174566 2.072197 2.0505023 2.4576137 0.696261 0.6596429
0.9372454 0.66610134 0.76378083 0.72316206 1.4387376 1.0029148 0.72065896 1.3024124
1.5690113 0.6768243 1.0214152 1.2413311 0.82060844 0.81012946 0.7072109 0.99450684
1.0065529 0.57964385 2.0111954 2.4030144 1.7529504 2.4693034 1.8550798 1.1557044
1.0589943 0.76950586 1.1431758 1.2781675 0.81207275 0.7961217 1.090322 1.302998
0.954388 1.5081153 0.5567412 0.8579354 1.6130779 0.92123085 0.92437613 0.71284086
0.71512437 1.0145415 1.0371319 1.2898548 1.3737367 1.4386224 1.3443521 0.8364767
0.7303589 1.0088557 0.37998033 0.8447972 0.94184 0.7827499 0.738464 1.1324178
0.69719946 0.6465877 1.1367196 1.3061644 0.91812086 1.12139 0.15075928 1.0045439
0.5118372 0.6983513 0.30034578 1.4773955 1.7204276 1.59734 1.291985 1.1986855
1.3847773 0.8638274 0.55820066 0.52332497 0.6470032 0.83423716 2.9455345 2.9934783
1.959751 0.70914006 0.729849 0.76982266 0.57583827 0.79146194 1.586761 1.8167571
00000000: b7d4 703f 304e 493f b4b9 3b3f ad92 533f
00000010: 8245 163f 37e3 c13f a2c4 bbbd 2a2b e63f
00000020: d4b2 b13f 4131 d33f 9bd4 5d3f cac3 993f
00000030: 0ced 193f 33e0 5b3f 66cf 603f 25a6 d53f
00000040: e992 993f 5423 0540 d0b2 e13f 2ec5 b03f
00000050: f62c 553f 0476 583f 1868 d23f 381a 7c3f
00000060: b068 6d3f f776 793f 366f cd3f 91fe fdbe
00000070: 32a5 fd3f 842b 943f 398d 953f cb90 b43f
00000080: f411 a33f f42d 0b40 ee4f 833f c395 9a3f
00000090: 316c dc3f f9bd ac3f 55fe ed3f 4ad9 143f
000000a0: 7b91 0540 9326 973f 50ab 01bf b766 0c3f
000000b0: 5f04 1ebf 6f4b 3d3f c94a e93e 698b 953f
000000c0: 5af2 9d3f 3fef 55bf d8d7 543f 09a1 983f
000000d0: 8067 8a3f 6779 483f 555f 733f 1b74 573f
000000e0: f203 633f f06e 163f 6237 6a3f 7e99 9cbe
000000f0: 24ce 1c3f 0b17 9e3f abae 613f 20ad 1c3f
00000100: 4b51 263f 6212 413f 1a2d 273f 8b4b 4f3f
00000110: df94 dc3e 0482 883f 3440 6c3f 5700 483f
00000120: 8195 373f 8e88 073f 2769 173f 92a8 723f
00000130: 9380 4e3f 85d8 313f 3bc1 68bd 29ba 073f
00000140: 0264 3d40 8aa4 bf3f 7ca2 2240 2acd 363f
00000150: 8170 463f 557a 443f b427 2f3f e8e8 4e3f
00000160: 6410 0a40 e172 fe3f c7e6 1a40 a6aa d03f
00000170: 11c3 9e3f dbb3 3a3f ec3e 153f 863e 573f
00000180: 80ce 083f 5f54 af3e 340b 1540 7923 1f40
00000190: 7fe7 f33f c7de 2740 0106 c73f 9cff 333f
000001a0: bc76 443e fd9f 6b3f 55de 8f3f ecb6 d43e
000001b0: ae3b 023f f2db 8a3e c523 9f3e 0642 2dbf
000001c0: 8305 f93d 4919 4d3f b84a a83f 9070 df3e
000001d0: 3759 8b3f 08d3 8e3f f65e 293e 23c1 debe
000001e0: 7c66 8f3e 72ea 353f 9201 5a3f 04f9 0c3f
000001f0: 3c5f 48be 48de c43e 2c09 763e 04bf 103c
00000200: c24b 8e3f 4704 4e3f 8859 213f 4c17 6a3f
00000210: 5037 c43f 48bd 403f ab7a 8e3e 5e24 6d3d
00000220: 2e8d a13e aa4f 263f 17b9 a83e 8c7b f23e
00000230: 6a37 0b3f a98c 2ebc 12d8 a63e 9701 c03f
00000240: c5ed e53e f7cf 823f b517 cf3f 1f70 693f
00000250: c154 883f 1c1a a73f a27e ac3f f228 a03f
00000260: 1c96 a53f 15b1 a03f a124 883f b39e b33f
00000270: 6ffb 673f 96d8 c03f 0c2a d33f d40a c53f
00000280: 85fd eb3f be99 0740 9cb7 1a40 e09e 0440
00000290: 6e3b 0340 8b49 1d40 293e 323f 5bde 283f
000002a0: 51ef 6f3f 9e85 2a3f 2487 433f 2621 393f
000002b0: 8e28 b83f 835f 803f 1b7d 383f 73b5 a63f
000002c0: 5dd5 c83f 5b44 2d3f bcbd 823f f0e3 9e3f
000002d0: 6513 523f a564 4f3f c60b 353f 0098 7e3f
000002e0: bad6 803f 8a63 143f 6db7 0040 fdca 1940
000002f0: ae60 e03f 1109 1e40 4173 ed3f 1fee 933f
00000300: 208d 873f 56fe 443f 9653 923f fe9a a33f
00000310: 00e4 4f3f a2ce 4b3f ac8f 8b3f a3c8 a63f
00000320: c652 743f ec09 c13f 9786 0e3f a8a1 5b3f
00000330: 5679 ce3f c9d5 6b3f eaa3 6c3f bd7c 363f
00000340: 6412 373f 7fdc 813f bdc0 843f f619 a53f
00000350: 9bd6 af3f c724 b83f bb13 ac3f 5623 563f
00000360: cdf8 3a3f 2f22 813f c88c c23e a144 583f
00000370: 6d1c 713f 4c62 483f fa0b 3d3f 11f3 903f
00000380: aa7b 323f c686 253f 0780 913f 6530 a73f
00000390: f809 6b3f b589 8f3f a460 1a3e e594 803f
000003a0: c307 033f 27c7 323f ecc6 993e 4c1b bd3f
000003b0: f936 dc3f a375 cc3f c45f a53f 876e 993f
000003c0: 6240 b13f cb23 5d3f 3de6 0e3f a0f8 053f
000003d0: 00a2 253f 9190 553f a383 3c40 2695 3f40
000003e0: 1fd9 fa3f 348a 353f 62d7 3a3f 1913 453f
000003f0: 236a 133f 409d 4a3f fc1a cb3f 7f8b e83f

base.feature_norm.bias f4 [415]
-0.43908176 0.16913956 0.15644816 0.20317422 0.12939134 0.13590531 0.3397576 0.21378806
0.40959144 0.7376369 0.2496315 0.10898111 -0.43819475 0.06769199 -0.5719815 -0.24569209
-0.28513062 -0.18810412 0.3430455 -0.17081513 0.08129211 -0.18089592 0.29738984 0.22991599
0.25426003 0.052752554 0.061651025 0.2548412 -0.19187742 0.34515607 -0.011546942 -0.23655997
0.3237819 -0.16444984 0.24406396 0.08639818 -0.010724461 0.04067294 0.21855898 0.116477825
-0.13050121 0.14665209 -0.18033397 0.034954675 -0.18051666 -0.14681134 0.018005682 -0.10357085
0.0029694994 -0.20542382 0.23745643 0.2635047 0.16113843 0.17532377 0.16243465 0.19242291
0.34506732 0.14415003 0.07734737 -0.113266654 0.11769173 0.36094943 0.19878383 0.17155333
0.04132823 0.17225648 0.16894513 0.18848568 0.020304212 0.2906335 0.19165386 0.18912308
0.14153236 0.16307434 0.17568448 0.22116345 0.24812001 0.03276967 -0.10377978 0.020285739
0.44994816 -0.01767331 -0.35876885 0.17870143 0.20017879 0.18856359 0.17751856 0.18710397
0.19304909 0.09720534 0.32239822 -0.034517188 0.46578807 -0.50377274 -0.6128595 -0.5750234
-0.6362988 -0.47338322 -0.034702927 -0.375731 0.100662455 0.2023661 -0.022521967 0.122997776
-0.082681194 -0.080394536 0.08942208 -0.1831232 -0.5563795 -0.67724013 -0.42495593 -0.1466884
-0.4187012 -0.017177805 0.07065149 -0.064565286 0.38729736 0.16806841 -0.25369528 0.006199109
-0.004619244 -0.03965035 0.04474415 -0.27458167 0.43893835 0.096782304 -0.3953608 -0.41716817
0.09376179 0.1018334 0.16679189 0.16802117 0.2301824 0.11999183 -0.23767611 -0.04860325
0.092734456 -0.013808163 0.010230251 -0.48171067 0.015011288 -0.4433051 -0.16443579 0.49342892
0.25302547 0.09822513 0.41231444 0.4205359 0.0061415313 0.07519631 0.006096309 -0.16308907
0.23410766 -0.25371087 0.2380634 -0.12167688 -0.18203984 0.19757356 0.11164467 0.13840178
-0.43214694 0.035756085 -0.08187739 0.6186543 0.07717034 -0.38442153 0.15023427 0.13912307
0.19394182 0.13653097 0.18424937 -0.06295354 0.14099953 0.054989558 -0.09917343 -0.030303063
-0.035957143 -0.039914947 -0.10721904 -0.11398129 -0.0949341 0.003861702 0.13873084 -0.19679703
0.08708139 -0.030603478 0.25143903 0.3483939 0.39641052 -0.10854128 0.06419434 0.11531929
0.11956674 -0.36042908 0.081223 -0.21053441 0.13164042 0.13679841 -0.099720545 0.08954058
-0.08228025 0.13859001 0.15211178 0.10547964 0.36630756 0.04949144 0.13960962 0.12433433
0.08056878 0.08682886 -0.08069673 0.4773841 0.13960794 0.27996165 0.35964867 0.24007483
-0.011673786 0.20536864 0.15291564 0.11124833 0.2096812 -0.010737435 0.29438528 0.21932544
0.16332525 0.11588141 0.2684525 0.1465275 0.35698012 0.12673673 0.124930136 0.17665237
0.046949435 0.09671527 0.0636779 0.29568458 0.41610155 0.38666612 0.30484924 0.30466276
0.22629271 0.27553347 0.115877345 -0.008945821 0.13445924 0.17021999 0.89789873 0.3582167
-0.76544803 0.18026485 0.180367 0.1898305 0.15027735 0.18934953 0.16957262 -0.014790892
00000000: 53cf e0be ec32 2d3e f233 203e e70c 503e
00000010: 2a7f 043e c32a 0b3e b5f4 ad3e 42eb 5a3e
00000020: f8b5 d13e c6d5 3c3f 669f 7f3e 7d31 df3d
00000030: 105b e0be 19a2 8a3d 616d 12bf b596 7bbe
00000040: a4fc 91be 5e9e 40be a9a3 af3e 29ea 2ebe
00000050: 7a7c a63d c83c 39be 7b43 983e 196f 6b3e
00000060: 5f2e 823e 1013 583d c985 7c3d 8c7a 823e
00000070: 847b 44be 4cb8 b03e 632f 3dbc c73c 72be
00000080: bec6 a53e 8a65 28be e7eb 793e 87f1 b03d
00000090: a6b5 2fbc ab98 263d edcd 5f3e ed8b ee3d
000000a0: 1ca2 05be f72b 163e 78a9 38be a22c 0f3d
000000b0: 5cd9 38be b655 16be a780 933c f41c d4bd
000000c0: ef9b 423b 9f5a 52be c727 733e 17ea 863e
000000d0: 7901 253e 1388 333e 4555 263e 830a 453e
000000e0: aaac b03e 119c 133e 4c68 9e3d 59f8 e7bd
000000f0: 5d08 f13d 5dce b83e fd8d 4b3e adab 2f3e
00000100: ca47 293d 0164 303e f4ff 2c3e 6402 413e
00000110: 0555 a63c eacd 943e e940 443e 7ba9 413e
00000120: dced 103e f6fc 263e a2e6 333e ac78 623e
00000130: 2c13 7e3e 7d39 063d 7e8a d4bd 472e a63c
00000140: 9b5f e63e 9ec7 90bc 8db0 b7be 82fd 363e
00000150: abfb 4c3e d016 413e 6dc7 353e 2f98 3f3e
00000160: a9ae 453e 9813 c73d 6111 a53e e561 0dbd
00000170: c67b ee3e 40f7 00bf 5ce4 1cbf bc34 13bf
00000180: 7ae4 22bf 495f f2be a824 0ebd d05f c0be
00000190: 1e28 ce3d 0f39 4f3e fd7f b8bc 42e6 fb3d
000001a0: c254 a9bd e4a5 a4bd ec22 b73d a684 3bbe
000001b0: e36e 0ebf 9c5f 2dbf d393 d9be 7c35 16be
000001c0: 0160 d6be 78b8 8cbc bab1 903d ce3a 84bd
000001d0: d74b c63e 201a 2c3e 59e4 81be e521 cb3b
000001e0: 075d 97bb 6868 22bd a445 373d f895 8cbe
000001f0: 87bc e03e cd35 c63d bb6c cabe 1197 d5be
00000200: 2e06 c03d 088e d03d 7ecb 2a3e be0d 2c3e
00000210: efb4 6b3e 47be f53d 5e61 73be 3414 47bd
00000220: 90eb bd3d a23b 62bc c89c 273c c8a2 f6be
00000230: e8f1 753c e3f8 e2be db61 28be b7a2 fc3e
00000240: 8e8c 813e 422a c93d e11a d33e 7b50 d73e
00000250: e63e c93b 8600 9a3d 8cc3 c73b d200 27be
00000260: ebb9 6f3e 64e6 81be e4c6 733e ba31 f9bd
00000270: a768 3abe b950 4a3e f6a5 e43d 32b9 0d3e
00000280: 5d42 ddbe f974 123d 55af a7bd 2160 1e3f
00000290: 7c0b 9e3d e6d2 c4be 03d7 193e 4776 0e3e
000002a0: af98 463e c6ce 0b3e deab 3c3e c9ed 80bd
000002b0: 2e62 103e bb3c 613d 701b cbbd 213e f8bc
000002c0: cc47 13bd db7d 23bd a895 dbbd 066f e9bd
000002d0: cf6c c2bd 9c14 7d3b 750f 0e3e 2985 49be
000002e0: ba57 b23d 25b4 fabc 9ebc 803e af60 b23e
000002f0: 52f6 ca3e e44a debd 5278 833d 852c ec3d
00000300: 68df f43d 298a b8be 3f58 a63d 5596 57be
00000310: bfcc 063e e214 0c3e 493a ccbd 0d61 b73d
00000320: 8c82 a8bd 8aea 0d3e 31c3 1b3e b605 d83d
00000330: aa8c bb3e 89b7 4a3d d3f5 0e3e ffa2 fe3d
00000340: 3f01 a53d 54d3 b13d 5444 a5bd b06b f43e
00000350: 62f5 0e3e 2257 8f3e df23 b83e 2dd6 753e
00000360: 6843 3fbc 284c 523e eb95 1c3e 2ad6 e33d
00000370: abb6 563e 11ec 2fbc abb9 963e d996 603e
00000380: bc3e 273e 3c53 ed3d 9b72 893e 4e0b 163e
00000390: 19c6 b63e 46c7 013e 5fdb ff3d 5ce4 343e
000003a0: 0d4e 403d a812 c63d 8f69 823d f863 973e
000003b0: 430b d53e 1af9 c53e 3315 9c3e c2fc 9b3e
000003c0: 47b9 673e b912 8d3e 1a51 ed3d 7e91 12bc
000003d0: afaf 093e 264e 2e3e b1dc 653f 2e68 b73e
000003e0: 67f4 43bf 5997 383e 20b2 383e ed62 423e
000003f0: 4ee2 193e d8e4 413e 72a4 2d3e 7f55 72bc

base.mlp.fc1.0.weight f4 [64, 415]
-0.8634783 0.27435812 0.2491592 0.078951016 0.15970832 1.0673555 -0.8814767 -0.2603182
-0.18973376 -0.31298274 0.15679747 0.22789973 -0.54259604 0.21352099 -0.7180979 0.38522008
-0.47078642 -1.1618702 -1.6013322 0.16067815 0.09285916 -0.33554962 0.43475628 -0.09458095
0.7411904 0.23523434 -0.370275 -1.398373 0.58495325 -1.0143472 0.092065655 -1.6694647
-0.8536658 -0.45972532 -0.54812753 0.5105052 0.5713029 0.39274544 0.35047457 -0.23123878
1.0680677 -0.14195424 -0.026337009 -0.5535989 1.3661793 0.99603194 0.5691416 0.23476945
-1.0663598 0.2037405 -0.5029645 -0.026967054 0.44319835 -0.17916553 0.23433071 -0.19720349
0.22098225 -0.29357478 -0.24149267 -0.018206066 -0.71387964 -0.12450639 -1.4673401 -1.0745648
0.18169484 0.19953725 0.18366586 0.3732916 -0.15135337 -0.1919226 -0.29943395 -0.15460129
0.032076463 0.75458026 -0.6910264 -0.9508023 -0.14936532 -0.68811125 0.17359908 -0.69649917
-1.3174528 -0.5564832 0.6258287 0.23386344 0.207833 0.16348241 0.15287912 0.18541613
-1.2297975 1.1810594 0.03976037 -0.2011085 -0.11222399 0.7378985 -0.65775806 0.9240611
0.1360253 -0.37232682 1.2891699 -0.59642917 -2.3551815 -2.2364285 0.8917447 0.17820652
-0.35831168 1.047598 0.11392015 -0.013276582 0.43956748 0.18209183 0.043182477 1.3730754
0.43197387 0.73568845 -0.6134684 -0.8784202 -0.9283192 -0.12518731 -0.03836211 -0.3415983
-0.8332602 0.90188086 0.0006406303 -0.23800102 0.34054044 -0.058164187 -0.015827557 0.99235755
0.05623943 -0.34710097 -1.5593789 -1.2461078 -0.075006746 -0.5018107 0.08666599 -0.6677397
-0.96638215 0.7533934 -0.9222322 -0.81315917 1.5794295 0.20239347 0.04181196 0.20758517
-0.2647195 -0.81387234 -0.32242706 -0.6336061 0.9281695 -0.14209367 0.45697883 0.31473225
-1.1832945 -0.742696 -0.0032706328 0.26820606 0.71733904 -0.6162361 -2.4049478 -0.6165479
1.4155433 1.2031043 -1.0530052 0.10411048 0.23653889 -0.7566893 0.18231718 0.057056315
0.6362163 0.33230823 0.123430476 -0.15989311 1.2132561 -0.851078 -1.1698827 0.2466309
-0.5051559 0.019709999 0.7980816 -0.000814258 -2.452845 -1.3079183 0.31391093 0.6451701
1.028973 -0.14652926 0.016178058 -0.9396064 -0.04557608 1.1149224 -0.1639042 0.027449818
-0.14056791 0.1368386 -0.26857457 -0.27112138 -0.6019802 -0.053324893 0.49292818 0.040532626
-0.8403866 0.7873195 0.15947352 -0.89571 -1.3348566 0.26535985 -0.012729715 -0.718434
-0.13972814 -0.67554134 -0.36284888 -0.24238008 -0.50822777 -1.8053685 -1.0219008 0.6378637
0.4520025 0.88968676 -0.5394268 -0.8767156 -0.54852206 -0.0138690565 0.5487638 -0.6665395
-0.62936324 -0.47180825 0.35858896 -0.22331637 0.6331696 0.88958925 -1.0400275 0.20332785
0.16571493 -0.544731 0.22583593 0.06948164 -0.8599552 -0.23172164 -0.710779 -0.39194676
-0.064627245 -0.34210595 -0.8416098 -0.28966364 -0.5170731 0.11605383 -0.23134632 1.4443924
0.83118033 0.25375918 0.2173794 0.08620364 0.035005726 0.25925484 -0.3500074 0.7750432
00000000: ea0c 5dbf ab78 8c3e 9723 7f3e 12b1 a13d
00000010: 948a 233e 1b9f 883f 75a8 61bf 6d48 85be
00000020: 9149 42be 463f a0be 848f 203e 8c5e 693e
00000030: 93e7 0abf 3fa5 5a3e 44d5 37bf 913b c53e
00000040: eb0a f1be 2ab8 94bf 74f8 ccbf d088 243e
00000050: f12c be3d 29cd abbe 6098 de3e a8b3 c1bd
00000060: a7be 3d3f 45e1 703e af94 bdbe e3fd b2bf
00000070: 7fbf 153f 21d6 81bf eb8c bc3d 05b1 d5bf
00000080: d889 5abf 1e61 ebbe 1652 0cbf 78b0 023f
00000090: e840 123f ee15 c93e 6771 b33e dcc9 6cbe
000000a0: 71b6 883f 745c 11be b6c0 d7bc a8b8 0dbf
000000b0: f7de ae3f f3fb 7e3f 44b3 113f 6767 703e
000000c0: 7a7e 88bf 5aa1 503e 48c2 00bf 03ea dcbc
000000d0: e5ea e23e 2b77 37be 64f4 6f3e b6ef 49be
000000e0: 2c49 623e 6f4f 96be db49 77be e324 95bc
000000f0: d1c0 36bf 35fd febd cdd1 bbbf 578b 89bf
00000100: 360e 3a3e 7e53 4c3e e712 3c3e 1420 bf3e
00000110: 61fc 1abe 5c87 44be 684f 99be cd4f 1ebe
00000120: 9c62 033d 2c2c 413f 1be7 30bf c867 73bf
00000130: 39f3 18be 0f28 30bf f5c3 313e c54d 32bf
00000140: 4ba2 a8bf af75 0ebf 4f36 203f e679 6f3e
00000150: 2dd2 543e ef67 273e 588c 1c3e badd 3d3e
00000160: 016a 9dbf f42c 973f c5db 223d 63ef 4dbe
00000170: b1d5 e5bd ebe6 3c3f d562 28bf 458f 6c3f
00000180: 374a 0b3e 9fa1 bebe 8503 a53f 95af 18bf
00000190: 4bbb 16c0 a521 0fc0 6149 643f c57b 363e
000001a0: a174 b7be b117 863f f84e e93d 0586 59bc
000001b0: fd0e e13e 4876 3a3e 1ce0 303d efc0 af3f
000001c0: ae2b dd3e 1456 3c3f 440c 1dbf 25e0 60bf
000001d0: 54a6 6dbf 1a31 00be 9621 1dbd f9e5 aebe
000001e0: 8a50 55bf aae1 663f f9ef 273a 8ab6 73be
000001f0: 515b ae3e 923d 6ebd cba8 81bc 250b 7e3f
00000200: 515b 663d 38b7 b1be ba99 c7bf 7680 9fbf
00000210: 239d 99bd ab76 00bf f07d b13d fdf0 2abf
00000220: d264 77bf 64de 403f 6917 6cbf 332b 50bf
00000230: bf2a ca3f 3c40 4f3e 0543 2b3d 3591 543e
00000240: 5089 87be f059 50bf 2915 a5be 0234 22bf
00000250: 849c 6d3f 0181 11be 21f9 e93e 9624 a13e
00000260: 3276 97bf 5321 3ebf 1d58 56bb 4e52 893e
00000270: 88a3 373f a6c1 1dbf aaea 19c0 15d6 1dbf
00000280: 8630 b53f 52ff 993f e0c8 86bf e037 d53d
00000290: 4037 723e 64b6 41bf 5bb1 3a3e e2b3 693d
000002a0: 12df 223f 4e24 aa3e 1ec9 fc3d 05bb 23be
000002b0: fa4b 9b3f 3fe0 59bf b7be 95bf d08c 7c3e
000002c0: e651 01bf dd76 a13c 134f 4c3f ee73 55ba
000002d0: 6afb 1cc0 de69 a7bf efb8 a03e de29 253f
000002e0: 63b5 833f c40b 16be d987 843c 0c8a 70bf
000002f0: fcad 3abd c7b5 8e3f 81d6 27be 71de e03c
00000300: 09f1 0fbe 6b1f 0c3e 9b82 89be 6cd0 8abe
00000310: 601b 1abf 346b 5abd 1561 fc3e 8a05 263d
00000320: 9423 57bf c58d 493f 074d 233e 404d 65bf
00000330: 95dc aabf 3fdd 873e 4b90 50bc 4aeb 37bf
00000340: e514 0fbe 47f0 2cbf 54c7 b9be 7c32 78be
00000350: 371b 02bf 5116 e7bf a5cd 82bf 094b 233f
00000360: df6c e73e 83c2 633f e017 0abf 6f70 60bf
00000370: f16b 0cbf 0a3b 63bc c97b 0c3f 55a2 2abf
00000380: f31d 21bf da90 f1be f998 b73e 0cad 64be
00000390: 6717 223f 1fbc 633f 9f1f 85bf 2d35 503e
000003a0: 2db1 293e 7e73 0bbf 8941 673e 644c 8e3d
000003b0: 0626 5cbf 7048 6dbe 9df5 35bf 3fad c8be
000003c0: 4a5b 84bd 8328 afbe bd73 57bf cb4e 94be
000003d0: e75e 04bf a1ad ed3d 0de6 6cbe dae1 b83f
000003e0: 3cc8 543f b9ec 813e b598 5e3e 898b b03d
000003f0: 2a62 0f3d 0dbd 843e 2c34 b3be 3b69 463f

base.mlp.fc1.0.bias f4 [64]
-0.67684865 -0.24755052 -0.14077128 -0.5220047 -0.11516722 -0.19265434 -0.042062223 -0.31568918
-0.21688384 -0.055577464 -0.39112973 0.06543551 0.13774739 0.21889964 0.26019818 -0.27880996
-0.12268466 -0.1463341 -0.31674856 0.021209817 -0.48473015 -0.586603 -0.008484119 -0.29045883
0.14534307 -0.6587278 -0.58671576 -0.5620067 -0.33796933 -0.26251304 -0.13374294 -0.16681573
0.18851194 -0.56085867 -0.14635804 -0.11065832 0.47555566 -0.5157239 -0.47479752 -0.34358597
-0.661538 -0.5461868 -0.12473397 -0.4773728 -0.50880975 -0.11133058 -0.5147826 -0.19848457
-0.2148886 -0.3538899 -0.48446667 -0.26275948 -0.6125294 -0.164181 0.030039228 -0.049335968
-0.06899085 0.36508906 -0.56269723 0.057986125 -0.47313178 -0.7086341 0.097778685 -0.16326009
00000000: f445 2dbf e27d 7dbe 5926 10be 1aa2 05bf
00000010: cbdc ebbd 2e47 45be 7049 2cbd 03a2 a1be
00000020: cc16 5ebe 32a5 63bd 2842 c8be 0d03 863d
00000030: a70d 0d3e 3a27 603e b238 853e 2ec0 8ebe
00000040: 1842 fbbd 9bd8 15be de2c a2be 36c0 ad3c
00000050: 8d2e f8be 9d2b 16bf f900 0bbc 05b7 94be
00000060: d0d4 143e 63a2 28bf 0133 16bf acdf 0fbf
00000070: 510a adbe 1c68 86be e9f3 08be bed1 2abe
00000080: 4609 413e 6f94 0fbf e2de 15be d4a0 e2bd
00000090: 087c f33e 7b06 04bf a918 f3be 80ea afbe
000000a0: 8e5a 29bf e6d2 0bbf 8674 ffbd 356a f4be
000000b0: 5b41 02bf 4a01 e4bd cbc8 03bf 8a3f 4bbe
000000c0: c20b 5cbe 0f31 b5be 040c f8be 6988 86be
000000d0: bace 1cbf 101f 28be d414 f63c 8314 4abd
000000e0: 134b 8dbd f4ec ba3e ed0c 10bf dc82 6d3d
000000f0: 543e f2be 0b69 35bf 3140 c83d a72d 27be

base.mlp.fc1.2.weight f4 [64]
1.7455484 1.7614816 1.7112433 1.33184 1.5089804 1.2752129 1.371431 1.4399735
0.9817028 1.3098645 0.9983941 1.0820463 1.2570572 1.0523331 1.3758824 1.5837154
1.71861 1.4378136 1.1027008 1.5321602 1.7388945 1.0281783 1.1326369 1.0309213
0.3331208 1.8122207 1.4027253 1.1136912 1.6222163 1.0921391 0.8623863 1.3490891
0.98275095 1.086316 1.1373922 1.2463739 0.7175947 1.3533292 1.1775515 1.5638591
1.8688196 1.5688989 1.2847232 1.2889352 1.5181202 0.7212565 1.5298551 1.6417795
0.9819214 1.7998508 1.0562023 1.837049 0.98634744 1.2757227 1.0430179 1.1777291
0.9213663 0.8777061 1.3043559 1.246268 1.7902625 1.6817626 0.9704549 0.93777156
00000000: 216e df3f 3b78 e13f 050a db3f bc79 aa3f
00000010: 4526 c13f 2d3a a33f 0d8b af3f 0d51 b83f
00000020: e050 7b3f a4a9 a73f c196 7f3f 7e80 8a3f
00000030: 40e7 a03f dab2 863f ea1c b03f 30b7 ca3f
00000040: 6afb db3f 470a b83f 4d25 8d3f d31d c43f
00000050: 1894 de3f 599b 833f 3ffa 903f 3bf5 833f
00000060: cf8e aa3e d9f6 e73f 818c b33f 6f8d 8e3f
00000070: c9a4 cf3f 37cb 8b3f 59c5 5c3f f4ae ac3f
00000080: 9195 7b3f 670c 8b3f 1196 913f 2e89 9f3f
00000090: 49b4 373f e439 ad3f 02ba 963f 892c c83f
000000a0: 7b35 ef3f aed1 c83f cf71 a43f d4fb a43f
000000b0: c351 c23f 44a4 383f 4bd2 c33f d525 d23f
000000c0: 335f 7b3f 8361 e63f a331 873f 6c24 eb3f
000000d0: 4481 7c3f e24a a33f 9c81 853f d4bf 963f
000000e0: a9de 6b3f 59b1 603f 22f5 a63f b685 9f3f
000000f0: 5227 e53f ff43 d73f bb6f 783f cc11 703f

base.mlp.fc1.2.bias f4 [64]
0.6343978 -0.68149394 0.07090286 -0.037181586 0.50805354 0.46446255 -0.79895955 0.79983413
0.21073708 -0.48439473 -0.33700213 0.16952465 0.7519069 0.5133284 -0.5565596 -0.320904
-0.06542778 0.13179064 0.53221375 -0.2707872 -0.6949713 -0.61902374 0.24544755 0.3583218
0.30659854 -0.5269386 0.008669368 0.267456 -0.41485977 0.13039698 -0.22223297 0.26131898
0.8520685 0.36994216 -0.27724192 0.44987428 0.36071813 0.086317904 -0.54526454 0.3020228
-0.52675945 -0.4492568 -0.35265574 0.14495185 0.44269913 -0.14135788 -0.507048 0.39059797
0.5787703 -0.67068434 0.10615447 -0.015805788 0.51318187 0.42428014 0.6021073 -0.55286676
-0.36048436 -0.19172207 -0.56433994 -0.07332116 0.08244551 -0.12066864 -0.049344774 0.11634741
00000000: e567 223f 6376 2ebf 8535 913d b84b 18bd
00000010: cc0f 023f 09ce ed3e 9d88 4cbf eec1 4c3f
00000020: 76cb 573e 9602 f8be 8b8b acbe df97 2d3e
00000030: f87c 403f 7d69 033f b17a 0ebf 874d a4be
00000040: 00ff 85bd 20f4 063e 293f 083f 9fa4 8abe
00000050: a4e9 31bf 5778 1ebf 9a56 7b3e f475 b73e
00000060: 7cfa 9c3e 73e5 06bf f709 0e3c feef 883e
00000070: 8068 d4be c986 053e 0a91 63be 9acb 853e
00000080: 2921 5a3f 0f69 bd3e a7f2 8dbe ec55 e63e
00000090: 0cb0 b83e 71c7 b03d 7596 0bbf bca2 9a3e
000000a0: b5d9 06bf fd04 e6be 4b8f b4be 426e 143e
000000b0: 76a9 e23e 1fc0 10be e6cd 01bf 75fc c73e
000000c0: 4a2a 143f f8b1 2bbf 8467 d93d 247b 81bc
000000d0: e35f 033f 3f3b d93e b423 1a3f ad88 0dbf
000000e0: 6891 b8be ca52 44be 9578 10bf 6829 96bd
000000f0: 31d9 a83d 1f21 f7bd bf1d 4abd 8d47 ee3d

base.mlp.fc2.0.0.weight f4 [64, 64]
-1.952739 0.8267659 -1.228104 0.69814694 -1.1930665 -0.09527048 -0.5631838 -1.5673528
1.4693955 0.18496329 0.42689314 -0.5247233 0.30566484 -0.38848785 0.061153468 0.4847763
0.4940807 -0.2836212 -0.33029944 0.69254065 -0.5388696 0.06409424 0.36689088 -0.6967282
0.36372605 0.32200465 -0.1869149 0.24905717 1.0055314 0.6852411 -0.22295952 0.8695451
0.9853645 -0.48717502 -0.58912516 -0.3041256 0.56671536 -0.24035451 -0.9780302 1.0170741
0.6362611 -0.48350635 0.2626461 0.18916199 -0.4274455 0.31130785 0.29608804 -0.56779367
0.35802335 0.25671488 0.18781295 -0.4224242 -0.96065104 0.16919781 0.8125182 0.40269896
-0.42114383 -0.03315648 0.351183 0.5599774 0.16234379 -0.020001778 1.1249775 -0.27851275
0.86710685 -0.17353415 1.5815783 0.105703555 1.6142995 2.0273385 -0.86865264 1.396251
0.0077652605 -0.42780992 -0.018262343 0.5024243 -0.57391465 -1.7066847 0.5491836 -0.3199688
-0.7011483 1.2856793 1.6713724 -0.41968268 -0.9152918 0.3621145 0.6456429 -0.9590421
1.31402 -0.45997456 0.68823904 0.99831694 -0.66703683 -0.80498856 1.4242563 -1.1869236
-0.753297 -0.6797847 -0.9446662 -0.92573166 -0.86960214 0.42265788 -0.2517562 1.4315059
-0.3604976 -0.24556698 1.6808722 0.30533597 2.2215714 -1.3660444 0.46654874 1.2745794
-0.039378658 -0.5500834 -0.41013086 0.122489706 0.81554234 0.6029105 0.3221524 1.0034431
-1.1768007 -1.0167475 -1.0731694 -0.3648312 1.772602 -0.38835967 -1.6072259 -0.08404006
-0.25579494 -0.2431889 1.016247 -0.065530896 -0.054214466 -0.7768002 -0.14325388 -1.0701972
0.5337729 0.18922402 0.6488036 0.07386324 -2.5225925 0.44995746 0.4634549 0.0010131971
-0.2822333 -0.18379794 -0.08374408 0.12499529 0.17361498 0.11367151 0.25720868 1.2578518
0.36762968 1.039479 0.06257769 1.3198726 0.13667479 -0.6050391 0.081037894 -0.26018625
-0.09422718 0.41571942 1.0438764 -0.3230718 -0.5642036 1.4009795 0.37309706 -0.6504459
0.24974799 0.90628606 -0.15764764 0.46788284 -0.253741 0.18828158 1.1354239 0.48930076
-0.13649997 0.8072627 0.31347093 0.6725733 0.5807269 -0.486698 -1.2856239 -0.80361855
0.19921675 0.62590843 0.6724889 -0.43297827 -0.92726284 -0.16269527 0.8612001 1.2744371
1.6679703 -0.23036604 1.7356602 -0.30533966 -0.39381486 0.9806456 -1.28307 -1.8892359
-0.36249408 -0.5246012 0.7757725 0.53778476 -0.49755314 -1.3289884 -0.3208402 -0.94292516
-1.4129577 1.6908665 1.6924238 -0.26229706 -0.759695 -0.19042496 -0.3660608 1.158624
-0.15061294 0.2219515 0.5330939 0.8872576 -1.4776491 -1.1739866 -0.72771 -0.37374863
-0.116314195 -0.55194956 -1.7748002 0.93350565 0.83036035 0.86096627 -0.6480941 -0.29208517
-0.059550498 -0.2756941 1.0431795 -0.68510836 1.6429179 -0.012599699 -0.1343171 1.3457664
0.85887736 -0.43538147 -1.3539617 1.6057712 1.1386628 0.8336972 0.04029188 -0.14126623
-1.2482141 -0.49350557 0.39606464 -0.14205976 -0.22668454 -0.6161022 -0.61848134 1.1929568
00000000: 5af3 f9bf eea6 533f 8332 9dbf c2b9 323f
00000010: 67b6 98bf 2b1d c3bd d02c 10bf 049f c8bf
00000020: 2715 bc3f 0467 3d3e bd91 da3e 4454 06bf
00000030: 1a80 9c3e e1e7 c6be 0f7c 7a3d 9934 f83e
00000040: 25f8 fc3e cc36 91be 021d a9be 584a 313f
00000050: 5cf3 09bf d743 833d 1fd9 bb3e c85c 32bf
00000060: 4d3a ba3e cbdd a43e 9f66 3fbe d808 7f3e
00000070: 41b5 803f f66b 2f3f 804f 64be 829a 5e3f
00000080: d940 7c3f 016f f9be e8d0 16bf 5ab6 9bbe
00000090: 4214 113f 7e1f 76be 3060 7abf 7c2f 823f
000000a0: 02e2 223f 258e f7be 8d79 863e aeb3 413e
000000b0: 23da dabe be63 9f3e da98 973e ed5a 11bf
000000c0: d64e b73e 2270 833e 0a52 403e fc47 d8be
000000d0: 3aed 75bf 3142 2d3e 3101 503f 8f2e ce3e
000000e0: 2aa0 d7be 17cf 07bd 42ce b33e ae5a 0f3f
000000f0: 733d 263e c5da a3bc 43ff 8f3f 3999 8ebe
00000100: b7fa 5d3f f0b2 31be 2871 ca3f 1b7b d83d
00000110: 5ea1 ce3f eabf 0140 0560 5ebf 5ab8 b23f
00000120: ba73 fe3b e709 dbbe e99a 95bc e19e 003f
00000130: 12ec 12bf a574 dabf 4c97 0c3f f3d2 a3be
00000140: 747e 33bf 2491 a43f 88ef d53f a6e0 d6be
00000150: 9050 6abf 1267 b93e da48 253f c883 75bf
00000160: cf31 a83f c981 ebbe 6f30 303f b391 7f3f
00000170: edc2 2abf bb13 4ebf 084e b63f 1ded 97bf
00000180: 12d8 40bf 5f06 2ebf a5d5 71bf c0fc 6cbf
00000190: 3f9e 5ebf 9d66 d83e 30e6 80be 963b b73f
000001a0: 2493 b8be e975 7bbe d226 d73f ff54 9c3e
000001b0: 3a2e 0e40 8bda aebf 7adf ee3e 6b25 a33f
000001c0: 844b 21bd 44d2 0cbf acfc d1be e2db fa3d
000001d0: 62c7 503f 5858 1a3f 29f1 a43e d370 803f
000001e0: 68a1 96bf c824 82bf 9d5d 89bf 28cb babe
000001f0: 9fe4 e23f 14d7 c6be 94b9 cdbf 321d acbd
00000200: 8ef7 82be 8306 79be 6214 823f 1035 86bd
00000210: fd0f 5ebd 61dc 46bf 25b1 12be 39fc 88bf
00000220: 57a5 083f f1c3 413e fe17 263f 9c45 973d
00000230: 2872 21c0 d360 e63e f649 ed3e 41cd 843a
00000240: e280 90be 8735 3cbe 0482 abbd 88fd ff3d
00000250: 20c8 313e 9ccc e83d dbb0 833e 4a01 a13f
00000260: f539 bc3e a60d 853f bb28 803d 96f1 a83f
00000270: 7af4 0b3e d8e3 1abf 32f7 a53d 2237 85be
00000280: 2efa c0bd 2dd9 d43e be9d 853f ab69 a5be
00000290: a66f 10bf 4c53 b33f 9406 bf3e 9f83 26bf
000002a0: f0bd 7f3e 5d02 683f 626e 21be 578e ef3e
000002b0: 57ea 81be e3cc 403e 9255 913f a185 fa3e
000002c0: a6c6 0bbe c5a8 4e3f 437f a03e c42d 2c3f
000002d0: 85aa 143f 7b30 f9be 538f a4bf f2b9 4dbf
000002e0: 7aff 4b3e 893b 203f 3c28 2c3f 54af ddbe
000002f0: 1961 6dbf 9799 26be 9c77 5c3f c120 a33f
00000300: 0d80 d53f 13e5 6bbe 1d2a de3f 7b55 9cbe
00000310: 1aa2 c9be 970b 7b3f a33b a4bf 7bd2 f1bf
00000320: d398 b9be 444c 06bf 0799 463f 43ac 093f
00000330: 49bf febe 4b1c aabf 2b45 a4be 8b63 71bf
00000340: ccdb b4bf 506e d83f 58a1 d83f cd4b 86be
00000350: 5f7b 42bf c3fe 42be 526c bbbe cb4d 943f
00000360: 473a 1abe 4147 633e d878 083f 5023 633f
00000370: 9b23 bdbf 3145 96bf 344b 3abf fb5b bfbe
00000380: 2336 eebd 914c 0dbf a72c e3bf 3afa 6e3f
00000390: 7f92 543f 4968 5c3f 7fe9 25bf 308c 95be
000003a0: 39eb 73bd c727 8dbe e886 853f 4363 2fbf
000003b0: 224b d23f f86e 4ebc 6c8a 09be 1342 ac3f
000003c0: 63df 5b3f 52ea debe 9e4e adbf e989 cd3f
000003d0: b4bf 913f 2e6d 553f 1909 253d 18a8 10be
000003e0: 7bc5 9fbf c3ac fcbe fcc8 ca3e 1d78 11be
000003f0: fe1f 68be e0b8 1dbf cb54 1ebf cfb2 983f

base.mlp.fc2.0.0.bias f4 [64]
-0.6797093 0.34725645 -1.0038532 0.23891269 0.39593259 -0.8299309 0.06389879 -0.85165215
0.08077778 0.113528475 -0.67577356 -0.48398167 -0.5998152 0.07143344 -0.355435 -0.15458669
0.010591789 -0.86683005 -0.26386854 -0.0086035635 -0.13229968 -1.3279024 -0.76097846 -0.3768461
-0.99610454 -0.25869378 -0.5862983 0.3583744 -0.09329495 -0.8170075 -0.035862558 -0.17695606
-0.36919856 -0.84674054 -1.1108912 -0.7948324 0.4362906 -0.0905316 -0.47338626 -0.38594538
-0.7101646 -0.75378096 -0.784882 -0.47109145 -0.23959674 -0.33364096 -0.56065255 -1.2501756
-0.60498357 -0.12572223 0.09995416 0.15640555 -0.7150022 -0.6140463 -0.11930675 -0.6604664
-0.5406493 0.050636396 0.3003971 -0.3849709 0.027824823 -0.6781881 -0.43699378 -0.6999223
00000000: 6e01 2ebf 99cb b13e 437e 80bf 87a5 743e
00000010: adb7 ca3e 5a76 54bf 5edd 823d e005 5abf
00000020: d26e a53d 9e81 e83d 7fff 2cbf 72cc f7be
00000030: 7d8d 19bf b24b 923d 94fb b5be f94b 1ebe
00000040: 2f89 2d3c 93e8 5dbf c719 87be f6f5 0cbc
00000050: 9179 07be b5f8 a9bf 7ccf 42bf f9f1 c0be
00000060: b500 7fbf 8373 84be a517 16bf d97c b73e
00000070: 6c11 bfbd 6727 51bf 9ee4 12bd f833 35be
00000080: 9807 bdbe fdc3 58bf af31 8ebf 237a 4bbf
00000090: 7b61 df3e a268 b9bd af5f f2be a29a c5be
000000a0: 59cd 35bf caf7 40bf 07ee 48bf e632 f1be
000000b0: d958 75be fdd2 aabe ed86 0fbf c105 a0bf
000000c0: 34e0 1abf 54bd 00be c4b4 cc3d c728 203e
000000d0: 620a 37bf 2332 1dbf 1957 f4bd 5314 29bf
000000e0: fe67 0abf 1c68 4f3d a6cd 993e e81a c5be
000000f0: e2f0 e33c bc9d 2dbf a6bd dfbe 1c2e 33bf

base.mlp.fc2.0.2.weight f4 [64]
1.5467603 0.8713758 1.795684 0.6616603 0.8297484 1.6243182 1.6842881 1.4691277
0.843768 1.3590204 1.4410069 1.6769745 1.195413 0.6469059 0.91079116 1.1975288
0.8963711 1.5905898 1.4410613 0.88559455 0.14439327 1.80545 0.9762241 0.7441908
1.000169 0.07607554 0.8418059 0.9906482 0.370034 1.6826906 1.2652556 1.5366106
0.84006095 1.2443764 1.7037601 1.5168604 -0.06733169 0.61840564 0.88375103 0.8838628
1.0959526 1.5091963 1.3323594 0.37597948 1.6053034 0.8449079 0.726388 1.6507449
1.3276678 1.6606776 1.0859673 1.1477143 0.8251027 1.0854845 0.8214419 1.249073
1.6553541 0.4725236 0.96112895 0.6207153 1.0055794 1.5467019 1.2123393 0.70388055
00000000: 3efc c53f 7c12 5f3f f9d8 e53f 9262 293f
00000010: 646a 543f a9e9 cf3f c196 d73f 600c bc3f
00000020: 2e01 583f 61f4 ad3f ea72 b83f 1aa7 d63f
00000030: 4b03 993f a09b 253f 9c29 693f a048 993f
00000040: 9478 653f 7298 cb3f b274 b83f 53b6 623f
00000050: d4db 133e fc18 e73f d3e9 793f 4a83 3e3f
00000060: 8a05 803f 7ecd 9b3d 9780 573f 1f9b 7d3f
00000070: 1975 bd3e 6862 d73f e5f3 a13f a8af c43f
00000080: 3c0e 573f ba47 9f3f d014 da3f 7b28 c23f
00000090: 32e5 89bd d54f 1e3f 823d 623f d544 623f
000000a0: 2d48 8c3f 582d c13f c18a aa3f 6280 c03e
000000b0: 957a cd3f e24b 583f 90f4 393f 9c4b d33f
000000c0: 05f1 a93f 1591 d43f fa00 8b3f 4de8 923f
000000d0: ee39 533f 28f1 8a3f 044a 523f a0e1 9f3f
000000e0: a5e2 d33f 9dee f13e 8c0c 763f 33e7 1e3f
000000f0: d3b6 803f 54fa c53f ef2d 9b3f 8431 343f

base.mlp.fc2.0.2.bias f4 [64]
-0.54563534 0.45785633 -0.58368504 0.6016271 0.6146597 -0.57105577 0.35769036 -0.5718163
0.6211073 0.669553 -0.43870845 -0.602425 -0.5299802 0.70520407 0.69677424 0.6036934
0.5991283 -0.5505273 0.516737 0.5777833 -0.21306024 -0.6732244 -0.7072913 0.74340856
-0.4818902 0.7985827 -0.3600524 0.65674824 0.7407049 -0.41121277 0.55533236 -0.56122565
0.64371216 -0.7082639 -0.65879905 -0.4404739 0.6047442 0.6121495 0.66533196 0.70465636
-0.6931077 -0.67715365 -0.6486577 -0.71198 -0.29156956 0.6731595 0.3321805 -0.6253018
0.66540563 -0.39094675 0.5514521 0.8037855 -0.41344586 0.6278307 0.61019063 0.15518568
-0.4686494 0.6913852 0.5657894 0.7050842 0.26885894 -0.59494245 0.1790272 0.6141951
00000000: c2ae 0bbf 256c ea3e 626c 15bf 3c04 1a3f
00000010: 575a 1d3f b630 12bf 3123 b73e 8e62 12bf
00000020: e300 1f3f d367 2b3f 659e e0be 8638 1abf
00000030: c8ac 07bf 4188 343f cc5f 323f a78b 1a3f
00000040: 7960 193f 5bef 0cbf e048 043f 9be9 133f
00000050: 772c 5abe 6f58 2cbf 0b11 35bf 0650 3e3f
00000060: 50ba f6be ea6f 4c3f ca58 b8be a720 283f
00000070: d69e 3d3f 7b8a d2be 432a 0e3f 7cac 0fbf
00000080: 52ca 243f c850 35bf 0ea7 28bf cc85 e1be
00000090: 84d0 1a3f d4b5 1c3f 3253 2a3f 5c64 343f
000000a0: 826f 31bf f159 2dbf 6e0e 26bf 5244 36bf
000000b0: 9b48 95be 2e54 2c3f 9013 aa3e c713 20bf
000000c0: 0658 2a3f 2c2a c8be f72b 0d3f e3c4 4d3f
000000d0: 2daf d3be 83b9 203f 7435 1c3f ffe8 1e3e
000000e0: d0f2 efbe 9ffe 303f 93d7 103f 6680 343f
000000f0: e1a7 893e 264e 18bf e852 373e e43b 1d3f

v_out.weight f4 [1, 64]
-0.70770955 0.040086806 -0.8384217 0.07933371 0.16960931 -0.6681972 0.41771555 -0.4956747
0.11783642 0.75946474 -0.32168877 -0.72340333 -0.3156549 0.23951344 0.58610374 0.49053118
0.04027088 -0.51155806 0.3539793 0.048282538 0.21198858 -1.0852913 -0.32784057 -0.05917379
0.02485394 -0.045320056 0.062352244 0.31267357 0.036006186 -0.51382923 0.5905088 -0.4013749
0.28966004 -0.78424615 -0.93984336 -0.40255976 -0.087431945 0.16145387 0.38447574 0.32843783
-0.55411685 -0.69289887 -0.62878346 0.083562955 -0.18903953 0.49513912 0.2986628 -0.7089667
0.3625167 -0.5854596 0.21427414 0.39188796 0.049879868 0.8357111 0.14705965 0.2824353
-0.50521785 0.2879194 0.18255351 0.2751117 -0.0861877 -0.44040027 0.061667427 0.0006613478
00000000: 742c 35bf 1032 243d cea2 56bf b679 a23d
00000010: 10ae 2d3e f90e 2bbf d0de d53e 13c9 fdbe
00000020: 3954 f13d 486c 423f 64b4 a4be f630 39bf
00000030: 859d a1be 0343 753e e50a 163f e726 fb3e
00000040: 14f3 243d 78f5 02bf c63c b53e e9c3 453d
00000050: 8913 593e d3ea 8abf b8da a7be 3760 72bd
00000060: 7d9a cb3c 86a1 39bd 1165 7f3d c016 a03e
00000070: 397b 133d 508a 03bf 962b 173f 0381 cdbe
00000080: 524e 943e 5bc4 48bf 9399 70bf 501c cebe
00000090: 850f b3bd 2a54 253e 01da c43e 0129 a83e
000000a0: 9ada 0dbf d261 31bf f4f7 20bf 0e23 ab3d
000000b0: 9493 41be e082 fd3e 55ea 983e d77e 35bf
000000c0: ca9b b93e aee0 15bf ae6a 5b3e 8aa5 c83e
000000d0: d54e 4c3d 2af1 553f ce96 163e 5c9b 903e
000000e0: f555 01bf 2c6a 933e 4fef 3a3e 71db 8c3e
000000f0: 2d83 b0bd 257c e1be fc96 7c3d 4d5e 2d3a
