save_dir/critic_evil.pt (torch, 132962 bytes, 11 tensors)

base.feature_norm.weight f4 [420]
00000000: 6a72 733f 58b5 6c3f 2bfe 803f 22b1 763f
00000010: d9b0 7e3f 6782 933f c401 843f 0ad0 903f
00000020: a9c9 7f3f 617d 8f3f 91f3 7d3f cffa 763f
00000030: f412 813f d495 843f 584f 763f dea9 723f
00000040: db01 853f f480 743f e8aa 643f 9ec5 743f
00000050: 5451 793f 67fe 6f3f 6ef7 7f3f acb0 8e3f
00000060: 8ed8 733f 9d73 853f 44b4 6a3f 42b4 823f
00000070: 2ba9 6e3f b010 7f3f b9ce 723f 917f 723f
00000080: 6501 743f d2cd 843f 6900 833f 9a0c 6d3f
00000090: 7310 703f 4edd 753f b394 773f 57a4 813f
000000a0: b5eb 7f3f 4c02 793f a510 723f 1e60 753f
000000b0: 6036 813f 0f28 813f e9b1 6d3f c35d 793f
000000c0: 1d6b 6e3f a21f 673f c427 6d3f d8b7 703f
000000d0: dd44 803f 204e 783f c748 7d3f 1499 7e3f
000000e0: 6044 723f 5ab3 6e3f 9c9c 753f 1137 773f
000000f0: bbf3 4a3f 8eaa 763f a7bd 723f 7ced 753f
00000100: b713 803f 84d6 7c3f a214 7e3f cbb7 783f
00000110: 8496 773f b918 7b3f 4fda 7e3f a0de 7b3f
00000120: 751d 7d3f d0ed 803f cb6b 733f 9731 823f
00000130: 5489 7f3f e357 643f 1647 803f 78b2 713f
00000140: 22a8 853f 7c69 913f 05c8 823f e23a 7a3f
00000150: 0179 803f d235 6b3f 0971 7b3f bd69 7d3f
00000160: 3ef0 823f fd74 873f ecef 8a3f ef68 873f
00000170: 8a55 813f a332 843f ba5a 783f 81b0 8a3f
00000180: 70a8 523f 36c3 713f 0963 833f 87c1 793f
00000190: fb83 8a3f fc5c 753f 36cd 873f e69e 723f
000001a0: 7bfd 813f 41cd 813f c7f9 7c3f 5993 803f
000001b0: 8e9c 6e3f 1078 7f3f c0e5 703f 6ee7 633f
000001c0: 6f02 793f 3427 813f bd60 7e3f f24c 803f
000001d0: b1ad 863f 7549 8c3f 6f21 663f 1767 753f
000001e0: 445a 763f 0532 713f 67ae 813f 2b4b 6c3f
000001f0: 1974 7c3f 063f 813f 09b4 773f 2d9c 6d3f
00000200: c5a0 873f 2aeb 813f d8d8 7d3f 9055 863f
00000210: cb73 823f ac33 7d3f 10a2 763f 3fa4 6e3f
00000220: 2727 813f 4de2 7a3f 0a4b 4e3f 2b12 693f
00000230: 436f 573f 7f13 723f 0d0e 793f 50e5 873f
00000240: 769b 743f 873d 873f 278a 873f 3523 853f
00000250: 0538 753f 1ded 723f 839a 7d3f 67a0 743f
00000260: 8a54 753f 4eb8 663f d497 743f 5e6a 8d3f
00000270: a01a 633f 91f9 7b3f 714e 803f 26df 823f
00000280: f12c 833f 5b1b 8c3f 914b 873f 831d 8d3f
00000290: 1df3 883f 53fb 993f e27d 783f bef5 7f3f
000002a0: ffda 753f fdfd 7e3f 50bf 683f 1323 703f
000002b0: 51bc 763f 5ede 6e3f 6857 743f 16f7 803f
000002c0: 511d 823f 531b 623f 24d3 753f 5d55 793f
000002d0: 7dca 7e3f 858b 7a3f 2534 783f 1d3d 803f
000002e0: 9534 8a3f b7e9 7f3f 4b06 8a3f 094f 783f
000002f0: e90c 7a3f fd29 7a3f 80f5 803f 5527 823f
00000300: cac6 693f f070 7f3f c6e1 6f3f 6247 7a3f
00000310: b554 713f 01af 693f dd5c 723f eedc 6f3f
00000320: 449d 663f 3ac0 743f 1029 703f 713f 723f
00000330: 151d 6f3f 7352 793f 3217 763f 5ead 763f
00000340: 64f6 733f 1214 833f 8157 823f d27d 803f
00000350: c9da 703f f1ce 773f 49a1 743f 72ab 7c3f
00000360: fd3c 793f f97f 653f 6621 783f 4d1e 7e3f
00000370: 4d5e 7d3f 0a83 823f daf0 683f 58ae 7b3f
00000380: 1304 853f 3292 6f3f 52b4 663f b90b 643f
00000390: e37c 713f abe4 663f 2c8d 743f 1381 6f3f
000003a0: 17ed 7e3f 1a3d 793f c5ea 7b3f a25f 6d3f
000003b0: 4b11 6d3f 048a 763f 2b86 863f 2cec 643f
000003c0: fdca 7a3f d634 783f 5e43 783f fa1e 793f
000003d0: 7c19 833f bd2f 643f caf2 683f a6d9 973f
000003e0: 62de 863f 781b 6f3f 4965 6e3f 5552 7b3f
000003f0: a09d 803f b2db 783f d750 743f b46a 7a3f
0.95096457 0.9246421 1.0077566 0.96364033 0.994886 1.1524171 1.0313039 1.1313488
0.99917084 1.1210138 0.9919978 0.96476454 1.0083909 1.0358224 0.9621482 0.94790447
1.0391191 0.95509267 0.8932328 0.9561404 0.9738972 0.9374756 0.9998692 1.1147666
0.9525231 1.0425907 0.91681314 1.021126 0.9322688 0.9963484 0.94846684 0.947259
0.9531463 1.0375311 1.02345 0.92597353 0.937751 0.9604081 0.9671127 1.0128278
0.99969035 0.9726913 0.9455665 0.9584979 1.0094719 1.009035 0.92849594 0.97408694
0.9313219 0.9028264 0.926388 0.94030523 1.0021015 0.9699421 0.98939174 0.9945233
0.9463558 0.9324242 0.9594209 0.965684 0.79278153 0.96353996 0.94820637 0.960655
1.0006016 0.98764825 0.99250233 0.97155446 0.96714044 0.980846 0.9955186 0.98386574
0.9887307 1.0072575 0.95086354 1.0171384 0.9981892 0.89196604 1.0021694 0.94412947
1.0441935 1.1360316 1.0217291 0.977461 1.0036927 0.91879 0.9821935 0.9898947
1.0229566 1.0582577 1.0854468 1.0578898 1.010423 1.0327953 0.9701344 1.0835115
0.82288265 0.94438493 1.0264598 0.97560924 1.0821527 0.9584501 1.06095 0.9477371
1.0155481 1.0140764 0.9881863 1.0044967 0.93207633 0.99792576 0.9410057 0.8902501
0.9726934 1.0090089 0.9936636 1.0023482 1.0521756 1.0959917 0.89894766 0.9586043
0.96231484 0.9421695 1.0131348 0.923022 0.9861465 1.0097358 0.96759087 0.9281643
1.0595938 1.0149891 0.99159 1.0494862 1.0191587 0.9890697 0.9634104 0.9321937
1.0090073 0.9800156 0.8058325 0.9104335 0.84154147 0.94561 0.97287065 1.0616856
0.95549715 1.0565652 1.0589036 1.0401369 0.95788604 0.94893056 0.9906389 0.95557255
0.9583212 0.90124977 0.9554417 1.1048086 0.887125 0.98427683 1.0023938 1.022435
1.024809 1.0945848 1.0569936 1.1024631 1.0699192 1.2029823 0.9706708 0.9998435
0.96037287 0.99606305 0.9091692 0.9380352 0.963811 0.93308055 0.9544587 1.0075405
1.0165197 0.88322943 0.960253 0.9739588 0.9952772 0.9786914 0.96954566 1.001865
1.0797297 0.99965996 1.078317 0.969956 0.9767595 0.9772032 1.0074921 1.0168253
0.91318953 0.99781704 0.9370388 0.9776517 0.9426988 0.9128266 0.9467295 0.93696487
0.9008372 0.95605814 0.93812656 0.94628054 0.9340375 0.9739143 0.96129143 0.9635829
0.9529784 1.02405 1.0182954 1.0038397 0.9408384 0.9680014 0.955586 0.98699105
0.97358686 0.89648396 0.9692596 0.99264985 0.98972017 1.019624 0.9099251 0.983129
1.0391868 0.9358245 0.90118897 0.8908039 0.94331187 0.9019267 0.9552791 0.93556327
0.9958052 0.9735886 0.98405105 0.9272405 0.9260451 0.96304345 1.0509695 0.8942287
0.97965986 0.9695562 0.96977794 0.9731289 1.0242152 0.8913534 0.90995467 1.1863296
1.0536616 0.9340129 0.931233 0.98172504 1.0048103 0.9721023 0.9543585 0.97819066

base.feature_norm.bias f4 [420]
00000000: 6f62 1ebd 4adc a83d 698f 27bc 0b14 3c3d
00000010: 179e cb3b a18f b33c 387f 423c 7502 9dbb
00000020: acfd d7bb 031f dcba 8556 0fbd 61c1 d33b
00000030: a41b 8c3c 7f62 56bb 93bb 4bbc f7e6 cbbc
00000040: 8058 9d3c 266d e3bc b1b3 ddbb 93ce 9cbd
00000050: c8ec 883c 36ba 03bc e6b0 833c 12bf 8eb9
00000060: 0079 003d 61bf e6bb 5ff9 0e3d 0ef6 b5bc
00000070: 9795 f73b 7ffb 55bc 2dd5 d2bc fc2e d93c
00000080: e3d6 dabc 3445 043d 603e 43bd dbe7 1b3d
00000090: c6bf 583d 69d2 00bd 49bb 913d e381 a53c
000000a0: 163a 6bbb 349b 4f3d 6a24 1b3d 6749 bebc
000000b0: 7eb1 f23b 828f 78bc f36f 98ba f177 b8bc
000000c0: 4c49 dc3b f648 47bc 8bc3 873d 1048 c83c
000000d0: 16a3 c4bb 908a da3c 5b13 c7ba c047 033d
000000e0: 06b7 313d 18e3 133d 9491 173d dee9 79bc
000000f0: f17e 573d 6aed 503c f852 983c c192 e5bb
00000100: e10c 0cbc ffd7 153c a510 b93b 7f50 233d
00000110: afe3 a7ba 89cc 8a3c 2696 c7ba d861 af3c
00000120: f19b 58bb 0d46 eabb eb76 7e3d b391 71bc
00000130: 296e 9fbc 057f ff3d cebb 52bc 83d5 283d
00000140: dcb1 9f3c 87ec 703c b29b 15bd e033 dd3c
00000150: 0721 1bbc 0edb a23d a3ac d13c aeac 453c
00000160: 54e5 1abd 3faf 7c3b ec71 cebc da51 dd3c
00000170: 01a0 e93b 6657 d13b ea7c b3ba ada3 fbba
00000180: 1789 9bbd 6cae 88bc df89 4cbd cfe8 18bd
00000190: 018a e4bc f545 b5bb 6757 9dbc 860e 9dbb
000001a0: d597 e2bc 431f 033d 0ae6 203b 20ec b33c
000001b0: 293f 93bd 2b9a 93bc 5558 ad3c 0de7 f6bc
000001c0: f1c7 02bc 60cc 3bbc bbeb 33bd 3d4e 95bc
000001d0: 3846 4ebc e940 8abb 4708 fbbc 40ea cabc
000001e0: 7823 7dbc e2fc 013d 057a c9bc 8de1 26bd
000001f0: 4514 0fbd c55d fdbc 5b8b 84bb 5759 88bc
00000200: fbe0 66bc 50f4 923c 2155 19bb e6ce 4dbc
00000210: b56d 61bc 8ba8 dbbc ef28 f13c 3375 ffbb
00000220: ce5a 9ebc d2ed 2c3d adaa e1bd 049c 0bbd
00000230: 9351 d93c 6ee8 66bd 6462 7bbc 241d afbc
00000240: ee6b e2bb 3ec5 523a b521 b4bc 6cb8 47bc
00000250: 8c7e 433d 0e0a 95bc b661 74bc 8c8b 383c
00000260: 8b84 c7bc f4d7 31bd d448 583b 677a 48b8
00000270: ca0f 45bd d692 c3bb 909e b1bc 2957 a7bb
00000280: 725a 04bd 2f44 4ebc 5fc5 98bc 753d bc3c
00000290: 02a6 8a3c f043 d4bc 797e fc3c 5494 a23a
000002a0: 2e35 713d c994 8a3b b372 843d 4e3d 6abc
000002b0: b0ad b13d 54de ff3c 7d99 733c 7976 2e3d
000002c0: a5ac 2dbc e955 8a3c cd7a 7bbd 0dcf 83bb
000002d0: 11dc 35bd 999c 12bd 336c 22bc ad2c 4fbc
000002e0: 10b5 383c 71e6 b43c 5a81 95bc 06c4 613c
000002f0: 06b3 093d 9f7d 293c daef 71bd aadc 9ebb
00000300: ed38 debc 763b 00bd cf1c ae3a 3e04 76bd
00000310: 65e2 15bc 343c ed3b 28a7 eabb 9ce7 bb3c
00000320: 2d09 5c3c cc42 70bc 4dde 3e3d e487 0d3d
00000330: 626e 1c3d 1746 85bc c7fd 193c 2326 79bc
00000340: c513 323c 4937 29bc 5994 ac3c f288 38bc
00000350: 8271 8839 171e 853b 9771 be3c 957d 18bc
00000360: fe07 1d3c 7008 ee3b 47ae 353b 14fb 9bbc
00000370: 5ec9 9a3c 7fc8 f73c 98c0 583d 62be 5a3b
00000380: 0278 3c3c 83cb 42bc 9223 a83c 146a 283c
00000390: 2d49 a03c bbfe f7ba b710 b13c 2637 913d
000003a0: f6a5 c93c 3f2d 983c 53e4 16bc cf9b 6bbc
000003b0: cdb6 b93d 78bd a03c bd9a 06bc f128 ee3c
000003c0: 6dcd 573c 02a5 a33a d917 d7bb 40ff f8bb
000003d0: 83c9 05bc 20ec 66bc bc04 503d 88cb a43c
000003e0: d5fc febc ab50 5f3d a060 873d b494 873c
000003f0: 2d7b f2bb 07aa ba3c 4329 9a3d ad01 dd3c
-0.038668092 0.08245142 -0.010227063 0.045917552 0.006213914 0.021919074 0.011871152 -0.0047915527
-0.0065915193 -0.001679391 -0.03499462 0.0064622615 0.017103024 -0.0032712517 -0.012434858 -0.024890406
0.01920724 -0.027762007 -0.0067658057 -0.076565884 0.016714469 -0.008040002 0.016075563 -0.0002722671
0.031365395 -0.007041857 0.034905788 -0.022212055 0.0075556743 -0.01306045 -0.025736416 0.026511662
-0.026713794 0.03229256 -0.047666907 0.03806291 0.052917264 -0.031450663 0.071158 0.020203536
-0.0035892776 0.050685123 0.037876524 -0.02322836 0.0074064126 -0.015170934 -0.0011630043 -0.02251813
0.006722605 -0.012163391 0.06629094 0.024448425 -0.0060008867 0.0266774 -0.0015188263 0.032050848
0.043387435 0.036105245 0.03700407 -0.015253512 0.052611295 0.012751916 0.01859425 -0.00700602
-0.008547992 0.009145736 0.005647736 0.03987169 -0.0012808944 0.016943233 -0.0015227243 0.02140896
-0.0033051933 -0.007149464 0.062125128 -0.01474421 -0.019461708 0.12475399 -0.012862159 0.041219246
0.01949399 0.01470483 -0.036525436 0.027002275 -0.009468324 0.079519376 0.025595015 0.012065096
-0.03781636 0.0038556603 -0.025200807 0.027016569 0.0071296697 0.0063885925 -0.0013693844 -0.001919856
-0.07594507 -0.016684733 -0.04993617 -0.0373314 -0.027897837 -0.005532021 -0.019206716 -0.004792991
-0.02766029 0.032012235 0.0024551176 0.02196318 -0.07189781 -0.018017849 0.021160284 -0.03013947
-0.00798224 -0.011462301 -0.043925982 -0.018225783 -0.012589984 -0.0042191637 -0.030643595 -0.024769902
-0.015450351 0.03173531 -0.024594316 -0.040742446 -0.03493144 -0.030928502 -0.004044933 -0.016644163
-0.014091725 0.017938763 -0.0023396688 -0.012561535 -0.013759066 -0.026813766 0.029438464 -0.0077959537
-0.019330408 0.04221899 -0.11018882 -0.034084335 0.026528155 -0.056374006 -0.015343282 -0.0213762
-0.006909839 0.00080402556 -0.021988729 -0.012189966 0.047728106 -0.018193271 -0.014915874 0.011263739
-0.024355194 -0.04341884 0.0033002393 -4.7797712e-05 -0.04811076 -0.005968432 -0.021682054 -0.005106826
-0.032312818 -0.012589498 -0.018648801 0.022978524 0.016924862 -0.025911301 0.030822026 0.0012403824
0.058888607 0.0042291624 0.0646719 -0.014296843 0.086757064 0.031233944 0.014868137 0.042593453
-0.010600244 0.016886668 -0.06139641 -0.004022485 -0.044399325 -0.035793874 -0.009913492 -0.012644929
0.011273637 0.02208254 -0.018250156 0.013779646 0.033617996 0.010344892 -0.05906663 -0.0048480825
-0.027126754 -0.031306706 0.0013283732 -0.06006264 -0.009148215 0.007239843 -0.00716104 0.022937588
0.013429922 -0.014664363 0.04659872 0.034553424 0.038191207 -0.016268773 0.009398884 -0.015206846
0.010868971 -0.010328122 0.021066831 -0.011263119 0.0002602451 0.004062425 0.023247523 -0.009307285
0.009584425 0.0072641894 0.0027722286 -0.019040622 0.018894847 0.030246971 0.052918047 0.0033377637
0.0115032215 -0.011889341 0.020524774 0.010279197 0.019566143 -0.001892052 0.021614416 0.07090597
0.02461527 0.018576263 -0.00920971 -0.014380409 0.090680696 0.019621596 -0.008215603 0.029072257
0.013171536 0.0012485089 -0.006564122 -0.0075987875 -0.00816572 -0.0140943825 0.050785765 0.020116583
-0.03112642 0.05452029 0.06610227 0.0165504 -0.0073999376 0.022786153 0.07527401 0.026978338

base.mlp.fc1.0.weight f4 [64, 420]
00000000: 787e dbbc d7ae 8d3d bdfa 28bd 7fd9 64bc
00000010: 64d2 a53c c072 e4bd 307a babd b9fb 653d
00000020: 0147 77bd e6c4 de3d 1b43 4c3d 10d0 863d
00000030: dc5f c5bd 77bf 8a3c 8d72 0bbd 361b b0bc
00000040: af51 4bbe 9623 123d b9b6 9ebd 097f 83bd
00000050: 3425 0d3d 5b53 9bbd ff9b 53bd 06e1 9e3c
00000060: 84ab 8bbc 0121 53bd 78c3 20bd 6742 08be
00000070: f603 48bc 228d 05be 20b7 e53d 7b10 e8bc
00000080: cf3b e83c 1a0e f93d a3bb 793d c7b2 b03d
00000090: 04a0 95bc 67df 553d 0105 41bd 004f f63d
000000a0: 13b0 23bc eb4e c83c 207f bc3b 76c9 ee3c
000000b0: 01e0 a03d b1cf 6d3d 6b90 96bd 0439 23bd
000000c0: 6513 01be 08e5 f4bc c450 0cbe 606d b1bc
000000d0: 26af 7bbd 01fa 9ebc 80a2 b03b 4583 2a3e
000000e0: 0800 1b3d 4d41 eebc 3665 253c 799d aebd
000000f0: dcf1 0cbd b75b 23bb a6c4 7b3c 5299 a73d
00000100: f51a ab3d 4a52 c13d b942 24bd 8456 55bb
00000110: a72b 253d d1fd eebd 429b 8f3d 3ad0 efbc
00000120: ac31 263a f77b 97bd 5682 bfbd c818 00bd
00000130: 5f7a ba3d f636 9cbd f121 9fbd bfe4 fd3d
00000140: 34e1 9d3c da43 ffbd a9d0 3bbd c640 223e
00000150: 3ec3 183e 6cf6 513d 5522 59bd 6f49 8abd
00000160: 5c3f c9bd 2f9a 5abe 0b14 c43d bb48 793c
00000170: 8ced b639 088a bf3d 5554 d53d 0391 7abc
00000180: 8155 7dbd cc92 ab3c c81c 06be aac4 afbd
00000190: 0cdd 1d3e a06c 503e 60b1 6e3e 1e21 58bd
000001a0: c514 0dbe e1e8 6c3d 3120 993c b980 833d
000001b0: 6517 16bd c22d fb3d 0e2e 15be ff66 8dbc
000001c0: 1307 73bd d1b3 813d 6ba5 ef3c 440a 03bc
000001d0: ae95 273e 70b4 4cbc dec2 bc3c b779 b0bc
000001e0: 7fc1 76bd 5714 023d b0eb b13a c9b9 4d3d
000001f0: fef3 e5bb ac97 533e 1c65 6c3b 7843 81bd
00000200: 6a5d a13d 62ef c9bc 4962 353e 085a c5bc
00000210: afee 2fbd 734d 4abd a4a8 003e 9376 10bd
00000220: 67d8 35bb 839f ac3d e57b 97bc 3f9f 2fbe
00000230: e8fe ba3d c36c 0f3c 3fa0 a33c ad28 593e
00000240: dd4b 7d3c 49e5 793d ab1e 533c 9a95 123d
00000250: fc16 f1bc 4355 f9bb 7d21 0fbe 93a5 39be
00000260: 0588 d1bd 30d0 123d 1b89 043e 9bbf 26be
00000270: 6e82 2ebe e9e4 b23a 2b4b 003d 33c5 e33c
00000280: 2840 96bc a9fd ffbd b5f5 04be 751b bbbd
00000290: 415b 24bc 75a7 88bd 74fb 853d 8331 e2bb
000002a0: 2fb8 2bbd cc2f 943d ea7a 913d 4abf 85bd
000002b0: 0aa9 d5bd 51eb adbd 3fe0 643d 6c2a cf3b
000002c0: b021 d2bd 4499 03bd d16f 933d 47f9 e4bd
000002d0: 181b e33d 5544 22bb 62e9 8cbd 360f a83d
000002e0: 00e5 10be 2ac4 2cbe 3478 b4bd 36f9 f63b
000002f0: 2e4d 61bd 5611 9e3d dcde c13c 812d d1bc
00000300: c373 e33c 669b f83c b083 993d 454a d7bd
00000310: f7fb d4bd 907b 47be fc26 ad3d 72b0 dbbb
00000320: ed5f 2abd f8d9 603e c784 7fbc f508 adbd
00000330: 2df4 42bc e9a9 06bd c68e 963c a793 103d
00000340: 5a6a f8bd f13a 233d 198e 98ba 7881 9ebd
00000350: 428a 14bd 3a5a 763d 3205 92bd ee7a 813d
00000360: 2574 e5bc a47b e23c ddb4 5a3d 8c91 d9bd
00000370: 6158 9fbd e7cc 793c 369d 19bd 133e 78be
00000380: 9abf 3d3e c682 d63b 8915 0abe c0ac 1ebd
00000390: cc97 763d 924a 1b3e 4420 c73c e311 8c3d
000003a0: f603 99bd bc46 bf3d cc0d 08bc dcc3 de3c
000003b0: 79cc 5abc 70da 593e a04a 693e 6a04 6cbd
000003c0: 81ef ccbd df21 543e 4c80 51bc c8e6 f1bc
000003d0: f61f 8f3d 9084 8f3d 8b66 d4bc db17 30be
000003e0: 3058 8e3e fcdd 83bd a64d 0c3e e0db 1d3d
000003f0: d225 43bd 74c6 2ebd c8e9 353d 05e0 78bc
-0.026793703 0.06918114 -0.041254748 -0.013967871 0.020241924 -0.11154699 -0.09105337 0.056148265
-0.06037045 0.10877399 0.049868684 0.065826535 -0.09637424 0.016937 -0.03404479 -0.02149735
-0.19855379 0.03567847 -0.07749695 -0.064207144 0.034459308 -0.07584258 -0.05166244 0.019394409
-0.017049558 -0.051545147 -0.039248914 -0.1330658 -0.012207976 -0.13042119 0.11216569 -0.028328171
0.028348831 0.12160893 0.06096996 0.08627849 -0.018264778 0.052215006 -0.047123913 0.12026787
-0.00999071 0.024451694 0.005752459 0.029148798 0.07855225 0.058059398 -0.07351764 -0.039849296
-0.12605055 -0.029894367 -0.13702685 -0.0216586 -0.06144633 -0.01940632 0.0053904653 0.16651638
0.037841827 -0.029083872 0.010094931 -0.08526129 -0.034410343 -0.0024926492 0.015366709 0.081835404
0.08354751 0.094395235 -0.040102694 -0.0032552788 0.040324833 -0.116695054 0.07012035 -0.029274095
0.0006339799 -0.07396691 -0.093510315 -0.031273633 0.09105372 -0.076276705 -0.07770146 0.123971455
0.019272424 -0.124641135 -0.04585329 0.15845022 0.14918229 0.051260397 -0.053011257 -0.067522876
-0.09826538 -0.21347879 0.095741354 0.015215094 0.0003489073 0.09352499 0.10416476 -0.015293363
-0.06184912 0.020944022 -0.13096917 -0.085824326 0.15416354 0.20353937 0.2330985 -0.052765958
-0.13777454 0.057839278 0.018692108 0.06421036 -0.036643405 0.12264587 -0.1456835 -0.017261026
-0.05933292 0.063331254 0.029253682 -0.007998053 0.16365692 -0.0124941915 0.023042139 -0.021542413
-0.060243126 0.03175768 0.0013574269 0.050226007 -0.0070176115 0.20663327 0.0036071008 -0.06311697
0.078791454 -0.02465028 0.17713274 -0.024090782 -0.042952236 -0.049390268 0.12564331 -0.03526933
-0.0027747394 0.08428862 -0.018491695 -0.17150591 0.09130651 0.008753958 0.019973872 0.21206923
0.015459982 0.06100968 0.01288573 0.035787202 -0.029429905 -0.007609041 -0.13977619 -0.18129568
-0.10231022 0.035843074 0.12942927 -0.16284029 -0.17041942 0.0013648543 0.031321686 0.027803993
-0.018341139 -0.12499554 -0.12984355 -0.091360964 -0.010031522 -0.06672565 0.065421015 -0.006902875
-0.041923698 0.07235679 0.07103522 -0.06530626 -0.10432632 -0.08492149 0.05587792 0.0063221958
-0.10260332 -0.032128587 0.07199062 -0.111803584 0.11089152 -0.0024759967 -0.06880452 0.08206026
-0.14149857 -0.16871706 -0.088119894 0.0075370325 -0.055005245 0.0771815 0.023665838 -0.025534393
0.02776516 0.030347537 0.074958205 -0.10512213 -0.10399621 -0.19480729 0.08454701 -0.0067043835
-0.04159539 0.21958148 -0.015595621 -0.08448974 -0.011899036 -0.032876883 0.018378627 0.035297062
-0.1212966 0.039851133 -0.0011639028 -0.07739538 -0.036264665 0.06014464 -0.07129897 0.06322275
-0.028009484 0.027646847 0.05339514 -0.10623464 -0.07780529 0.015246606 -0.037503444 -0.2424243
0.18530121 0.006546351 -0.13484778 -0.038738966 0.06020336 0.15165165 0.024307378 0.06839349
-0.074714586 0.093396634 -0.008304071 0.027193002 -0.013354414 0.21274734 0.22782373 -0.057621397
-0.10006619 0.20716046 -0.012786936 -0.02952899 0.06988518 0.07007706 -0.025927803 -0.171966
0.27801657 -0.064388245 0.13701496 0.038539767 -0.04764349 -0.04266973 0.044412404 -0.015190129

base.mlp.fc1.0.bias f4 [64]
00000000: a039 3fbc 7ea6 a8bc 2aa7 183d 4701 e53b
00000010: d100 8ebc 4cf0 16bc 86f5 82bb 97a7 29bd
00000020: 502b ee3a 2ce9 eb3b 3816 bbbc 5fc8 7fbc
00000030: 2892 63bc 2148 8d3d a709 aeba d10d dfbc
00000040: 41e0 c83c 0684 56bb 0ff5 b23c 65a6 1dbc
00000050: 3626 08bc 1a7d 8a3c 1ffa a03c 7fdc e63c
00000060: f394 b13c 57f2 e43b 2121 c1bb dfbe cdbb
00000070: 4a17 e23b c8d4 78bc eb06 263c c6f2 e1bb
00000080: 6bbc 983d 3424 b23c fb08 773c 0b7a 8e3c
00000090: 4154 ae3b 94f3 42bc d6b4 15bc c8d6 cebc
000000a0: 75f4 ca3c a84b 74bc 4647 093b 49cd 1b3d
000000b0: c84c 583c 8691 3abc 1c22 e03a 7ce4 e6bb
000000c0: 8b61 5f3c 23c0 d53c 4e3d d0bb 1b2a cabc
000000d0: 08f9 11bc a266 5fbb 12a2 943c 05f8 2fbd
000000e0: 0d4d e2bb 0de4 573c ef83 b33b 8106 84bd
000000f0: 846e 013a 1584 e83c ce0d 82bc 4c9b 75bc
-0.011671454 -0.020587202 0.037268795 0.0069886777 -0.017334374 -0.009212565 -0.003996554 -0.04141959
0.0018170867 0.007199427 -0.022837743 -0.015611737 -0.013889827 0.06898523 -0.0013278023 -0.027228268
0.024520995 -0.00327325 0.021845369 -0.009622191 -0.008309891 0.016905356 0.019650517 0.028181313
0.02167747 0.006986897 -0.005893842 -0.006278857 0.006899749 -0.01518745 0.010133485 -0.006895396
0.07457813 0.021745779 0.015077825 0.017392179 0.0053201024 -0.011898894 -0.009137353 -0.0252489
0.02477477 -0.014910616 0.0020947023 0.038037572 0.0132019 -0.011387235 0.0017100009 -0.0070462804
0.013634096 0.026092594 -0.0063549643 -0.02467828 -0.008909471 -0.0034088274 0.018143687 -0.04296114
-0.006906158 0.01317693 0.005478374 -0.06446553 0.00049374276 0.028383294 -0.015875723 -0.014990639

base.mlp.fc1.2.weight f4 [64]
00000000: b0a5 853f e00e 823f 681e 7f3f d7ca 8c3f
00000010: 02e3 813f bc11 873f e66a 863f 7715 803f
00000020: e4f8 7d3f 60cd 553f 1bb0 883f b7c4 853f
00000030: 880c 8a3f cbdd 7e3f 0c76 5c3f abd3 7d3f
00000040: d095 723f 0a23 8e3f 4063 483f 31d8 973f
00000050: adfb 8b3f 5f91 6e3f c44b 603f 5c94 843f
00000060: 1df2 733f 4761 623f 728c 893f f5cf 6b3f
00000070: 6686 8a3f 994a 893f 9363 783f f131 853f
00000080: 361e 813f c834 8f3f c9e2 763f 693a 7e3f
00000090: 2e5f 853f 9b56 883f 22a0 843f 83d7 853f
000000a0: 533a 853f 464f 8a3f 6b8a 773f 1456 803f
000000b0: fb53 7c3f 1b3d 8a3f 7212 953f a6c9 833f
000000c0: b088 623f 1b35 853f 758c 833f 46dc 823f
000000d0: 6e25 853f 6924 8e3f 7481 6b3f 1877 793f
000000e0: ba88 8f3f 4284 583f dc4c 763f 0c26 7b3f
000000f0: 4221 883f e581 673f 2d5e 893f 611f 903f
1.0441189 1.016079 0.9965577 1.0999402 1.0147402 1.0552287 1.0501373 1.000655
0.992079 0.835165 1.0678743 1.0450658 1.0785074 0.9955718 0.86117625 0.99151105
0.94759846 1.1104443 0.78276443 1.1862851 1.093618 0.9319057 0.8761561 1.0357776
0.9529131 0.88429683 1.0745986 0.9211419 1.0822265 1.072589 0.9702694 1.0405866
1.0087345 1.1187983 0.96439797 0.99307877 1.0419672 1.065143 1.0361369 1.0456394
1.0408424 1.0805442 0.96695584 1.0026269 0.98565644 1.0799898 1.1646254 1.0295913
0.8848982 1.0406832 1.0277239 1.0223472 1.0402048 1.1104861 0.91994405 0.9744735
1.1213601 0.8457681 0.9621103 0.9810493 1.063515 0.9043258 1.0731865 1.1259576

base.mlp.fc1.2.bias f4 [64]
00000000: 3dd2 e4bc c609 f6bc 2754 d83c 3e00 cfbd
00000010: e1b2 d6bc 3449 673c dfa1 e7bc 0796 9738
00000020: 05c6 2fba e673 8b3c 201f 50bd 1fcf 80bc
00000030: 42f6 f0bc 36be 433d 17f2 f03c 81bd 223b
00000040: 0046 183d 5f2d 583c 7dbd 043d f5e7 07bd
00000050: 1c8e 1dbd 1fb7 b83c d9cf 053d fd0f e13c
00000060: e11a 283d 796e 123d 1176 e3bc 5dba 053d
00000070: d700 6cbc 0482 05bd 0fa8 c23c c269 69bc
00000080: 7d47 cb3c 2968 93bc 8429 6f3d 18c4 c93c
00000090: 6198 163c a007 fabc 8ed4 b6bc e723 d7bc
000000a0: 0848 0ebd e79e e4bc e208 1b3d 75ad 053d
000000b0: 9d61 c13c 1a25 dfbc 3fdc 16bd d101 b8bb
000000c0: 965f 1f3d ee96 d83a 5d4d 773c c253 44bb
000000d0: 4deb 87bc 8022 04bd 11ab c83c 4616 6e3b
000000e0: 4d0e fcbc 8b28 b43c 849e 353d fe4a 3abd
000000f0: 6eda 66bc db9b e73c 07a7 ddbc 40a4 8abc
-0.02793228 -0.030033957 0.026407314 -0.10107468 -0.026208343 0.014116574 -0.028275428 7.228186e-05
-0.00067052274 0.017023038 -0.050810933 -0.015723763 -0.0294143 0.04778882 0.029412312 0.0024832191
0.037176132 0.013194411 0.032407273 -0.033180196 -0.038465604 0.022548256 0.032668922 0.027473444
0.04104126 0.035749886 -0.02776626 0.032648433 -0.014404497 -0.032594696 0.023761777 -0.014246406
0.024814362 -0.017994003 0.0583892 0.024629638 0.009191603 -0.030521214 -0.02231815 -0.026262237
-0.034736663 -0.027907802 0.03785027 0.032636125 0.023606116 -0.027239371 -0.036831137 -0.005615451
0.038909517 0.0016524473 0.015094128 -0.002995715 -0.016591692 -0.032259464 0.024495633 0.0036329194
-0.030768538 0.021991989 0.044340625 -0.045481674 -0.014090164 0.02827256 -0.027057184 -0.016924024

base.mlp.fc2.0.0.weight f4 [64, 64]
00000000: 6af4 b5bd cda0 4ebd 9484 69be 535d 03bd
00000010: 961b 963e 6168 ab3e e0e0 f83d 48f0 cabd
00000020: 6a18 0d3e 89f8 73bd 4b63 993d f601 b6be
00000030: dd59 183e 5064 d4bd 88bf 1ebe 53d4 97bd
00000040: 2de7 f33b 0889 c73d daf3 f23d 0cca 7e3c
00000050: 01dd 4d3d 0660 4c3d fae6 4abd 8a7f 353d
00000060: 755b c03d b8a6 673e 73a2 7abe 07c0 85bd
00000070: 5b56 893e 3548 5d3e afad a4bd 84a0 46be
00000080: ac71 adbd e159 2cbf 713d 14bd c8fd 8ebd
00000090: 92b4 d3ba ab8d 8dbe 4cdd ffbd 1516 503d
000000a0: 406d 12be f843 45be 86c7 233e b20b fdbd
000000b0: ad73 82bc 7877 42be a8ef 9fbe 4241 c7be
000000c0: 0f79 7c3d b30c 053d 5121 69bc 6144 763d
000000d0: 77c0 85be 0347 e1be 7214 9d3e 37bb 163e
000000e0: c9a2 35be fa9b a83e 7123 883d d7e7 3e3d
000000f0: 6f86 a53d 3767 03bd 8caa 8d3d fae8 cfbd
00000100: 1ee3 bcbe 845b 4dbb 377a b53d f65a 1cbe
00000110: 3c74 3cbe bd56 f1bd 049b f0bd 2134 a23e
00000120: baba ee3c 5e72 b33e 2be3 a6be 714b c8ba
00000130: fd01 793e 1fe8 193e cfbc 003e c5ec 91be
00000140: f53b a0bd 3d2c 36be 3a7b a8bd 916b 203d
00000150: b723 e0bd 461b c9bc f257 8e3e 43a0 d43d
00000160: e5d9 4bbe c329 a63d 44eb 39be 1fe5 453c
00000170: 54a0 ce3d 6f7f a53c 825b b33c 6548 1abe
00000180: e87f 3f3e 10ba 24be 40aa f6bd 05dc 26bd
00000190: 4ff3 8dbd 1a95 f3be 227c 303d 5237 713e
000001a0: 6434 b1bd 2a8f b3bc cc1b 203d ff80 4cbd
000001b0: a03b 04be 2231 f8be 16b6 903d 911d 73bd
000001c0: 8ed7 2dbd a14b 353e ccb1 b8bd 0ce9 a83d
000001d0: 4410 8ebe ff92 d53c 1c87 cd3d e838 02be
000001e0: 4f40 1dbd b140 3c3c 14f6 c33d fc45 823d
000001f0: 62cf d2bd db89 61bd 6cb7 17bd bdc2 98be
00000200: 393b 0cbe fc48 6dbe 0f77 12be df09 b83d
00000210: 9400 febd d353 f23d 832b 7f3e 80fb edbc
00000220: 1fb3 d3bd 4e99 c73d 0b5c 9fbd 86fc 2bbd
00000230: 05c8 ddbd 66e0 07bd 7ca7 38bd 48a5 f6bd
00000240: 14bc b6bc 48ce 553e fbd4 983d 4da6 8c3e
00000250: 9869 463c c317 b93a 97a0 3bbe 81b6 513e
00000260: cc18 bc3e b14b 24be 3f37 b53d a08b 8abd
00000270: 0524 a6be 1c24 f73d 00a2 0b3e 12c9 60be
00000280: f6cc 12be 9bb1 203e 376c e3bd 9f93 c7bd
00000290: 4c21 d33d f591 1abe 8db4 493d e4f4 2e3e
000002a0: a0bc ff3d 7548 11be 13cf 5c3a b8f1 f83c
000002b0: b0e2 583e 51e5 ab3e 4e72 b93e c10b 7ebe
000002c0: 769e c2bc e1b0 ba3c 6d32 f3bd fe55 e0be
000002d0: 18c9 e7bd 1bc3 c63e 9687 143d 6c88 85be
000002e0: af0b 313e e341 2a3e c272 c2be 1a10 2e3e
000002f0: 45e5 b8bd e0d5 043d 0301 073b a25e afbd
00000300: 9dc7 403e df3b 4f3e 529a 343d ade5 4c3c
00000310: 7394 053d 0a9f db3d f8ce 143e 4952 cbbc
00000320: 0802 b9bd daf0 86be 0786 60be 0d28 a83d
00000330: b283 0ebe c016 b23d 33ea 133e 32be b1bd
00000340: b2c2 56bd 21db 34be a36e b4be 1d70 5cbc
00000350: 1ef5 343e c580 77be ffce 263d 10af fdbc
00000360: 0f77 323e f6a5 723e 099f 98bd eb5d 843e
00000370: 4347 a73c 8858 ee3d f369 443d 2f31 cf3d
00000380: 5fea 3bb9 c7ed d0bc ee85 123d 95d7 f9be
00000390: 9cdf 57be b2d4 e23d ec57 f03d 0f14 423d
000003a0: fdd0 a43e 3d1b 9f3d ece7 bc3e 21f9 b6bd
000003b0: 9317 be3d 9612 ffbd 5e84 883e 7b10 963e
000003c0: 14b0 733d a46a 23bc 9af7 443e 0cc7 5fbe
000003d0: fa1f bfbd 47d1 cb3c aec6 cebc 3039 713e
000003e0: bc85 cb3c c598 81bd 49b5 5c3e a42d dabd
000003f0: 9add 853e b574 1abd e3ae 273d 6042 b9be
-0.08884509 -0.05044632 -0.22804481 -0.032071423 0.2931792 0.33478072 0.121522665 -0.09909111
0.13778844 -0.059563193 0.07489642 -0.3554837 0.1487803 -0.103706956 -0.15502751 -0.074135445
0.00744333 0.097429335 0.11862917 0.015551101 0.050259594 0.049896263 -0.049536683 0.044311084
0.09392444 0.22622192 -0.24476032 -0.06530767 0.26823696 0.21609576 -0.0804094 -0.1939717
-0.08468947 -0.67324644 -0.036191408 -0.06981999 -0.0016151837 -0.27647147 -0.12493381 0.05080231
-0.14299488 -0.1926421 0.15994081 -0.12355746 -0.0159243 -0.18990886 -0.3123753 -0.38916975
0.061638888 0.032482814 -0.014229135 0.060123805 -0.26123402 -0.4399949 0.3067966 0.14719854
-0.17737879 0.329315 0.06647385 0.04660782 0.08082282 -0.032080855 0.06917295 -0.10151859
-0.36892027 -0.0031335065 0.08861201 -0.15269074 -0.18403715 -0.11784122 -0.11748317 0.31680396
0.029141773 0.35048193 -0.3259519 -0.0015281272 0.24317165 0.15029953 0.12572025 -0.28500953
-0.07823936 -0.17790313 -0.082266286 0.039165083 -0.10944312 -0.024549138 0.27801472 0.1038213
-0.19907339 0.08113434 -0.18156153 0.0120785525 0.10089174 0.020202367 0.02189422 -0.15066679
0.18701136 -0.16086602 -0.12044191 -0.04073717 -0.06931173 -0.47574693 0.043087132 0.2355626
-0.08652571 -0.021918852 0.03908901 -0.049927708 -0.1291337 -0.48474985 0.0706598 -0.05935437
-0.042441897 0.17704631 -0.09018287 0.08247575 -0.27746785 0.02607107 0.10035536 -0.1271702
-0.038391408 0.011490033 0.0956842 0.06361005 -0.102934614 -0.05506311 -0.03704016 -0.29836074
-0.13694467 -0.23172373 -0.1430323 0.08986258 -0.12402454 0.118323945 0.24918942 -0.029050589
-0.10336899 0.097460374 -0.07781228 -0.041988872 -0.10829166 -0.033172987 -0.0450816 -0.12043244
-0.02230648 0.20879471 0.07462498 0.27470627 0.012110136 0.0014121461 -0.18322979 0.20479776
0.3673767 -0.16044499 0.08848428 -0.067649126 -0.32449356 0.12067434 0.13636017 -0.21951702
-0.14335999 0.15692751 -0.11104625 -0.09744953 0.10309085 -0.1509474 0.049244452 0.17085606
0.12487149 -0.14187796 0.00084231904 0.030388698 0.21180224 0.33573392 0.3622002 -0.24809171
-0.0237572 0.02278942 -0.11874852 -0.43815607 -0.113176525 0.3882073 0.036262117 -0.26080644
0.17289613 0.16626696 -0.37978178 0.1699833 -0.09028105 0.03243053 0.0020599968 -0.08562972
0.18826146 0.20237683 0.044092484 0.012505931 0.032612275 0.10723694 0.14532077 -0.02481951
-0.090335906 -0.2635563 -0.21926127 0.08210764 -0.13917425 0.086957455 0.14444809 -0.08678855
-0.05243177 -0.17661716 -0.3524066 -0.013454464 0.1767163 -0.24170215 0.04072475 -0.030967265
0.1742823 0.23696122 -0.074522085 0.25852904 0.020419722 0.1163798 0.047952604 0.10116803
-0.0001792102 -0.025504006 0.035772257 -0.4879729 -0.21081394 0.11075725 0.1173552 0.04738241
0.32190695 0.07768867 0.36895692 -0.08934236 0.0928184 -0.12454717 0.26663488 0.2930945
0.059494093 -0.009974156 0.19235078 -0.21853274 -0.09332271 0.024880065 -0.025241222 0.23556972
0.024844043 -0.063279666 0.2155353 -0.106532365 0.2614563 -0.037708957 0.04093827 -0.36183453

base.mlp.fc2.0.0.bias f4 [64]
00000000: 531b 5a3d f892 543c e045 09bd 6dc6 a1bd
00000010: 6dcf 093d aa9c 953b ea68 21bc 98a8 253d
00000020: 9092 233d 08cb 1d3d ceb3 b1bb ba75 423d
00000030: 4f4c b5bc 8dc0 893a 5695 9cbc 6b82 ffbb
00000040: 2c83 523d aabe 1e3d 431c 82bc d501 0f3d
00000050: bcba 873b 65f9 afbc d0e8 713d f013 e73c
00000060: ffb8 b6bd f594 a43c 6c7b 363d 4518 14bc
00000070: f6e4 443d df73 8c3b 120d 6b3d acec dabc
00000080: 893a 3a3d c7b7 b63c e352 a7bd bed3 093a
00000090: c3e7 8e3c 97aa dc3b 59c3 0bbb b910 a5bd
000000a0: 8371 a5bc aa42 acbc e48f 4bbc cffb 243d
000000b0: d298 b7bc 0c80 a63c 987c 7c3d 1979 1b3d
000000c0: 6a49 45bc 7a5b fb3c 3f17 ef3c 3244 f7bd
000000d0: ac06 3ebc ea41 8b3d 0949 febb 6c07 e0bc
000000e0: 718e 383c b1e6 133b 4c31 5abd 5b00 6fbd
000000f0: 85f9 f33c 33db 1a3c 12ed 18b9 73d4 56bd
0.053248715 0.012974493 -0.033513904 -0.07899175 0.033645082 0.004565795 -0.009851674 0.040443987
0.039934695 0.038523704 -0.0054230457 0.047475554 -0.022131113 0.0010509655 -0.019114178 -0.0077975295
0.051394626 0.03875605 -0.015882617 0.034913857 0.0041421335 -0.021481225 0.059059918 0.02820775
-0.08922004 0.02009056 0.044551298 -0.009038989 0.048069917 0.004286274 0.05738551 -0.026724182
0.04546598 0.022304429 -0.08170106 0.00052576873 0.017444497 0.006734203 -0.0021326153 -0.0805983
-0.020195728 -0.021027882 -0.012424443 0.040279206 -0.022411738 0.02032473 0.06164226 0.037957285
-0.012041429 0.030683268 0.02918589 -0.12073554 -0.01159827 0.067996815 -0.0077601713 -0.027347289
0.011264429 0.0022567923 -0.05326967 -0.05834995 0.029782066 0.009451675 -0.00014584165 -0.0524487

base.mlp.fc2.0.2.weight f4 [64]
00000000: 957d ad3f d3e0 923f e47d c03f 3527 b43f
00000010: e83d 9a3f 10dd ad3f 9a7d ad3f 11f4 be3f
00000020: f5ef b93f 58a8 bd3f c297 b13f ac48 be3f
00000030: b754 b53f ac79 bf3f ac67 bb3f 8cf2 b53f
00000040: 5259 c13f e71c a73f b6e2 b83f 6223 bd3f
00000050: b9e8 a23f 0c98 be3f bce8 bc3f 8fe7 b43f
00000060: b4b4 b23f 660f b23f 4957 a83f 3764 ae3f
00000070: e392 ad3f f75a b33f 3395 a93f 0c84 b63f
00000080: 356c a63f a897 903f 1a40 b63f 77b1 b13f
00000090: e3b8 ac3f 7c97 b83f 9af4 a73f da32 b83f
000000a0: 0e3c b43f 8e7c c13f 0f65 953f 629a b23f
000000b0: 76bb b63f 7c7b aa3f f11a ac3f d455 bd3f
000000c0: 7a82 b43f 1c7c ac3f 7764 b33f 7fe2 b13f
000000d0: a7f9 b83f 050b a63f e3dd b83f fde5 a73f
000000e0: 8aad b43f 1578 b23f 9119 b23f 0a75 b13f
000000f0: 9249 b33f 5edf b43f 440f a63f 35a3 b53f
1.355395 1.1474861 1.5038419 1.4074465 1.2050142 1.3583088 1.3553956 1.4918233
1.4526354 1.4817 1.3874438 1.4865928 1.4166478 1.4959006 1.4641013 1.4214644
1.5105383 1.3055695 1.4444187 1.4776423 1.2727271 1.4890151 1.4758525 1.4133166
1.3961396 1.3910949 1.3151637 1.3624333 1.3560451 1.4012135 1.3248657 1.4259048
1.3001772 1.1296282 1.4238312 1.3882283 1.3493923 1.4421229 1.3121521 1.4390519
1.4080827 1.5116136 1.1671466 1.3953364 1.4275959 1.3318934 1.3445722 1.4791818
1.4102318 1.3475375 1.4015034 1.3897246 1.4451188 1.2972113 1.4442714 1.3117062
1.411546 1.3942896 1.3914052 1.3863842 1.4006827 1.4130666 1.2973409 1.4190432

base.mlp.fc2.0.2.bias f4 [64]
00000000: d28f b63e b65c 69be 3a96 bcbe d19d b5be
00000010: 6652 c73e 4e50 bebe 8d41 bfbe f063 b63e
00000020: 1cab b93e 690e b73e d5ea adbe f108 b63e
00000030: 64c3 c3be cecb c0be 294a c0be f5b8 aebe
00000040: 5b1b ba3e fadc aa3e 5ad6 b3be 4054 b13e
00000050: 9e3b cf3e 29a2 babe 7a39 c03e 136d ae3e
00000060: 89ce b2be 0afe b03e 7460 ab3e fe61 a9be
00000070: 65ce be3e 4271 aebe 044f ab3e 525f afbe
00000080: 1a0e ac3e f23b 6fbe d987 b2be 8297 b1be
00000090: 2964 c33e 6ed8 ab3e 0d4c bdbe 8fa2 b9be
000000a0: ea8e b6be 6e41 babe c7d8 98be bfa4 b43e
000000b0: 1216 b6be 19fb a73e 565d b43e e768 b33e
000000c0: 8569 aebe cab1 a83e 8a7f ba3e bdf3 babe
000000d0: 66ea c4be 65b7 be3e 40ab b5be 137a bcbe
000000e0: 45e7 ac3e a6e7 b0be 6e36 b5be 7428 b6be
000000f0: 9f76 c8be 5272 ac3e b890 ab3e 13a1 c2be
0.356566 -0.22789273 -0.36833364 -0.35471967 0.38930053 -0.37170643 -0.373547 0.3562312
0.3626336 0.35753182 -0.33968225 0.35553697 -0.3823501 -0.3765549 -0.3755658 -0.34125486
0.36348996 0.33371717 -0.35124475 0.3463459 0.40475172 -0.36451843 0.3754385 0.34067592
-0.349232 0.34568816 0.33472025 -0.33082575 0.37266842 -0.34070784 0.33458722 -0.3425241
0.3360451 -0.23362711 -0.3486927 -0.34685904 0.38162354 0.3356356 -0.36972085 -0.36256835
-0.3565591 -0.36378044 -0.29852888 0.3528194 -0.35563713 0.3280876 0.3522746 0.35040972
-0.3406488 0.32948142 0.3642543 -0.36514083 -0.38460082 0.37249294 -0.35482216 -0.36811885
0.33770195 -0.34551734 -0.3539309 -0.35577738 -0.39153 0.3368097 0.3350885 -0.38013515

v_out.weight f4 [1, 64]
00000000: a21b e53e edbd 2fbe 9834 e6be 8f17 eabe
00000010: 079c 653e d55b a2be 3f4c aebe fa2f ff3e
00000020: 7afd fe3e 1598 023f df1b 0bbf 0229 0a3f
00000030: 3baf bbbe f504 e4be 5dd7 d7be f96d 0fbf
00000040: efef 013f 6888 163f 9ee4 00bf 8e9f 133f
00000050: be3e 933e deef bebe e2c1 fc3e df79 0a3f
00000060: dbb7 f5be 082b f83e aeb6 113f f5a5 23bf
00000070: 423d b63e 2044 07bf 1a85 fa3e 8de7 10bf
00000080: 9237 0a3f 4335 45be 24c4 f7be 78f9 f7be
00000090: 5ea2 a63e 311e 1d3f 5733 8bbe 2e31 e5be
000000a0: 9167 eebe e4c3 01bf c88b 3fbe 5f2a 053f
000000b0: f1a2 f1be 23c8 163f 3ae8 c73e e793 0a3f
000000c0: b0b9 0cbf 0cdc 143f 0179 c73e a4b5 cdbe
000000d0: 08bd c7be f7cd a73e 977f cebe 6f11 aabe
000000e0: 44dd 143f bbbb fabe 4e2a e5be 63d9 debe
000000f0: d98f b4be 691c 123f 20ec e33e 3a9e c1be
0.44747645 -0.17162295 -0.44962 -0.457211 0.22422801 -0.31710687 -0.34042546 0.4984129
0.49802762 0.5101331 -0.543394 0.5396882 -0.36657128 -0.44535032 -0.42156497 -0.5602718
0.50756735 0.5880189 -0.5034884 0.57665336 0.28758806 -0.3729238 0.4936667 0.5409221
-0.47991833 0.4847033 0.5691937 -0.63925105 0.3559361 -0.52838326 0.48929673 -0.5660332
0.53991044 -0.19258599 -0.4839183 -0.48432517 0.3254575 0.61374193 -0.27187607 -0.44764084
-0.4656339 -0.5068953 -0.18705666 0.5201778 -0.47194627 0.58899134 0.39044362 0.5413193
-0.54970837 0.58148265 0.38959506 -0.40177643 -0.39011407 0.32774326 -0.40331718 -0.33216426
0.58150125 -0.48971352 -0.44758838 -0.43525228 -0.35265997 0.570746 0.44516087 -0.3781603
