models/actor_good256-128-64.pt (torch, 611030 bytes, 14 tensors)

base.mlp.layers.0.0.weight f4 [256, 420]
0	0x3e3ed2da	0.18635121
1	0xbe33568a	-0.17513481
2	0x3dc744d3	0.09729924
3	0x3e31b2be	0.17353341
4	0xbe87e4b1	-0.26541665
5	0x3cd55df1	0.026045771
6	0x3da44fac	0.08023009
7	0x3dbf34f9	0.093362756
8	0x3d39d7e9	0.045371924
9	0xbda0924b	-0.07840403
10	0x3d371e90	0.04470688
11	0x3dfeffa8	0.12451106
12	0xbd197276	-0.037462674
13	0xbd2498a6	-0.04018464
14	0x3de858b9	0.113450475
15	0x3e366f2d	0.17815848
16	0xbd659fbd	-0.05606054
17	0x3e18fa41	0.14939214
18	0x3de89956	0.113573715
19	0x3d07e4ed	0.033177305
20	0x38d16ad8	9.985798e-05
21	0xbd0baec5	-0.03410222
22	0xbd4edf65	-0.050506014
23	0x3d547e57	0.0518783
24	0xbd770eac	-0.060316727
25	0xbdd561da	-0.10419054
26	0x3c16be75	0.009200682
27	0x3d21b3c5	0.039478082
28	0x3d5d5ee3	0.05404557
29	0x3cfabf61	0.030608835
30	0x3d8934c3	0.066995166
31	0x3c1b03f4	0.009461392
32	0x3cbb33e9	0.022851901
33	0xbb840a03	-0.004029514
34	0xbe0b9890	-0.13632417
35	0xbca9f4f3	-0.020746684
36	0xbb3fdafc	-0.0029274812
37	0xbb3800ff	-0.0028076766
38	0x3df5819a	0.1198761
39	0xbe5de5ab	-0.21669643
40	0x3c62ffd2	0.013854938
41	0x3df09cbf	0.11748647
42	0xbccc770c	-0.02495911
43	0x3d62cf54	0.055373505
44	0xba73ec57	-0.0009304932
45	0x3d5b55b1	0.05354852
46	0x3e084061	0.13305809
47	0xbbac839d	-0.005264713
48	0x3deed582	0.11661817
49	0xbb22c6c9	-0.0024837723
50	0xbcfda75e	-0.030963596
51	0xbdadce7b	-0.08486649
52	0x3dbcfffe	0.09228514
53	0x3d123ce6	0.03570261
54	0x3e48f574	0.19624883
55	0xbd59a0ec	-0.053131983
56	0x3c6aa9a5	0.014322673
57	0x3dc4fc05	0.096183814
58	0xbbbe8b8a	-0.005814974
59	0x3d95ae7b	0.0730867
60	0x3b826332	0.00397911
61	0xbd91da09	-0.07121665
62	0xbda5ff68	-0.081053555
63	0x3d484157	0.048890438
64	0x3bdd25e4	0.0067489017
65	0x3c2f7a97	0.01071038
66	0x3df66f5a	0.120329574
67	0xbda095fc	-0.07841107
68	0x3d27e4a7	0.040989544
69	0xbe010aca	-0.12601772
70	0xbdcc8729	-0.09986717
71	0xbcd1c3c2	-0.02560604
72	0xbca52157	-0.0201575
73	0xbdc19663	-0.09452512
74	0x3d7c2e93	0.061567854
75	0xbd9dfee0	-0.07714629
76	0xbe7a3e02	-0.24437717
77	0xbe2416d0	-0.16024327
78	0x3ca307f3	0.019901251
79	0xbd8ce599	-0.0687973
80	0xbc96332d	-0.01833495
81	0x3e029ed3	0.12755899
82	0x3e0edecb	0.13952176
83	0x3cdbde04	0.026839264
84	0x3e178f43	0.14800744
85	0xbda1d747	-0.07902389
86	0x3d37bd4e	0.04485827
87	0x3d149b88	0.03628114
88	0x3ba6198d	0.005068964
89	0xbdb163f2	-0.08661641
90	0x3cf28c2b	0.029607853
91	0xbd228c11	-0.03968436
92	0x3ade3eab	0.0016955932
93	0x3da2c0c7	0.079469256
94	0x3dcf3980	0.10118389
95	0xbd1e4b9a	-0.038646318
96	0x3de3ffa5	0.11132745
97	0x3c84f741	0.016231181
98	0x3dabd2c4	0.0838981
99	0x3d92f013	0.07174697
100	0x3d55024b	0.05200414
101	0xbcffb268	-0.031213
102	0x3d33bf7d	0.04388379
103	0xbd2b689c	-0.04184781
104	0xbd71fe2a	-0.05908028
105	0x3d10312b	0.03520314
106	0xbd670894	-0.056404665
107	0xbdac2a86	-0.08406548
108	0xbdf06153	-0.11737313
109	0x3dbe1c4d	0.09282742
110	0x3cc7ac16	0.02437405
111	0x3debf785	0.1152182
112	0x3dfa81ca	0.122317865
113	0x3e0b56bd	0.13607307
114	0x3d26c4e2	0.040715106
115	0x3e35216a	0.17688528
116	0x3da1aaad	0.07893882
117	0x3e2c0ce8	0.16801798
118	0xbdc63e4d	-0.09679852
119	0xbd9f5f80	-0.07781887
120	0xbb4d7f0b	-0.003135624
121	0x3deabd2b	0.11461862
122	0xbde4a8a1	-0.11164976
123	0x3c337058	0.010952078
124	0xbd78572b	-0.060630005
125	0xbd8af68c	-0.06785306
126	0x3d264dd3	0.040601563
127	0xbd3f962b	-0.04677407
128	0xbabf269f	-0.0014583654
129	0xbd7e4208	-0.06207469
130	0xbc9dd197	-0.01926498
131	0x3dee0491	0.11621965
132	0xbd0acc32	-0.033886142
133	0xbd4aa3a4	-0.049472466
134	0x3ac79a1c	0.0015228423
135	0xbdc1611c	-0.0944235
136	0x3d35303c	0.044235453
137	0xb99f5774	-0.00030392
138	0x3d6f3d31	0.058407966
139	0x3d6eeb6c	0.058329985
140	0xbcfeabbb	-0.031087747
141	0x3caab7d8	0.020839617
142	0x3c17338d	0.009228599
143	0x3dce4511	0.10071767
144	0xbc367950	-0.011137322
145	0xbdf6c3b2	-0.12049045
146	0xbdecbae5	-0.11559085
147	0xbdc08176	-0.09399693
148	0x3ce419a0	0.02784425
149	0x3cfacaec	0.030614339
150	0x3badc592	0.005303093
151	0xbe4075f4	-0.18794996
152	0x3d01ea16	0.031717382
153	0xbda7a3c5	-0.081855334
154	0xbe208a08	-0.15677655
155	0xbdff7a56	-0.124745056
156	0xbe1ae20e	-0.15125296
157	0xbdbde57a	-0.09272285
158	0xbdfdedfd	-0.12398908
159	0xbd1fd424	-0.039020672
160	0xbd29b29d	-0.041430105
161	0xbe310867	-0.17288361
162	0xbe28fdfd	-0.16503139
163	0x3ddcee4f	0.10787641
164	0x3d2cad89	0.042157684
165	0x3d0682c6	0.03283956
166	0x3d835d3f	0.0641427
167	0x3e0e9663	0.13924555
168	0x3d98bb76	0.0745763
169	0x3e187089	0.14886679
170	0x3e33b965	0.17551191
171	0x3bfc042f	0.0076909284
172	0x3d1a680a	0.037696876
173	0x3b743e38	0.003726853
174	0x3cceb6ee	0.025233712
175	0xbd1f9f1f	-0.03897011
176	0x3e498362	0.19679025
177	0x3d462440	0.048374414
178	0x3da1df33	0.079039
179	0x3df1baeb	0.1180323
180	0x3e1592b5	0.14606746
181	0x3e50459c	0.20339054
182	0x3ce43d4a	0.027861256
183	0x3da0bdc4	0.07848695
184	0x3e08588d	0.1331503
185	0xbcb5934f	-0.022164969
186	0x3e81ebea	0.253753
187	0xbd5b11a1	-0.05348361
188	0x3dc02307	0.09381681
189	0x3cf067fd	0.02934646
190	0x3d8d4309	0.068975516
191	0xbd0b5b91	-0.03402287
192	0xbc9fd0e8	-0.019508794
193	0xbdece9f9	-0.11568064
194	0x3e21fe98	0.15819776
195	0x3d213181	0.03935385
196	0x3d16f1f3	0.036851835
197	0xbd9d4723	-0.07679584
198	0x3d9364f4	0.0719699
199	0x3dd74f91	0.10513223
200	0x3d8a4faf	0.0675348
201	0x3e82144d	0.25406113
202	0x3de997f1	0.11405934
203	0xbb336ea7	-0.0027379186
204	0x3da22048	0.079163134
205	0x3e04c88c	0.12967128
206	0x3d15d02e	0.03657549
207	0xbd874ab0	-0.066060424
208	0x3dab124e	0.08353101
209	0xbc76f3ca	-0.015072772
210	0x3e1350d2	0.14386299
211	0xbd6034dd	-0.054737914
212	0x3ce26c86	0.027639639
213	0x3d5fc010	0.054626524
214	0xbddfc293	-0.10925784
215	0xbdfdb46a	-0.12387927
216	0xbb2dabfb	-0.0026500213
217	0xbceda1a7	-0.029007746
218	0xbceb9e10	-0.028761894
219	0x3d5abd88	0.053403407
220	0x3a059999	0.0005096435
221	0xbda9be07	-0.08288198
222	0xbd524667	-0.051336672
223	0x3dd83e04	0.105587035
224	0xbd8f8646	-0.070080325
225	0x3c46940f	0.012120261
226	0xbd99c282	-0.075078025
227	0xbe14a247	-0.14515029
228	0xbcfe4fdd	-0.031043941
229	0xbe4718fd	-0.19443126
230	0xbdf2ec05	-0.118614234
231	0x3d96f053	0.07370057
232	0xbc40f010	-0.011775985
233	0x3d8fc954	0.07020822
234	0x3d4ea4a2	0.050449975
235	0x3d6e7223	0.058214318
236	0xbddd9b21	-0.10820604
237	0xbdda1488	-0.10648447
238	0xbe154b45	-0.14579494
239	0xbe80cd9b	-0.25156865
240	0xbe63a345	-0.22230251
241	0xbea086c9	-0.31352833
242	0xbeaa17f7	-0.3322141
243	0xbea8a4a0	-0.329381
244	0xbebd67db	-0.36993298
245	0xbe87306d	-0.26404133
246	0x3db5fe77	0.08886426
247	0x3e34330e	0.17597601
248	0x3e23fd85	0.16014679
249	0x3e1cad0c	0.15300387
250	0x3e5a991e	0.21347472
251	0xbce45ed4	-0.027877249
252	0x3e12d69c	0.1433968
253	0x3e26c962	0.16287759
254	0xbdd4c1ce	-0.10388528
255	0x3c3a8f69	0.011386731

base.mlp.layers.0.0.bias f4 [256]
0	0x3da0499b	0.07826539
1	0x3dbe7597	0.09299772
2	0x3c196beb	0.009364109
3	0x3d5c9aa0	0.0538584
4	0x3c807a3c	0.015683286
5	0x3d88955d	0.06669114
6	0x3d483583	0.048879158
7	0x3c17f5f6	0.00927495
8	0x3cc288e4	0.023746915
9	0x3de6bb18	0.11266154
10	0x3c583162	0.0131953675
11	0x3c8eacb2	0.017416332
12	0x3dbb2b0b	0.09139069
13	0xbc849122	-0.016182486
14	0xbcbd90c4	-0.023140319
15	0x3d0c3bcc	0.034236714
16	0xbdcf6932	-0.10127486
17	0xbd081b20	-0.033228993
18	0xbc9c49be	-0.019078132
19	0x3dff6780	0.12470913
20	0x3dd1c2e4	0.102422506
21	0x3bf53ec8	0.0074842907
22	0xbcb3aad3	-0.021932041
23	0xbcf8f942	-0.030392293
24	0x3d0e111d	0.03468429
25	0xbbec6b79	-0.00721496
26	0x3d48509c	0.048905
27	0xbdce995a	-0.10087843
28	0xbd005fc9	-0.031341348
29	0xbd43ec00	-0.04783249
30	0x3d70072b	0.058600586
31	0xbd030a78	-0.031992406
32	0xbcecc34f	-0.028901724
33	0x3d650021	0.055908326
34	0x3d88d60c	0.06681451
35	0xbddb5fbb	-0.107116185
36	0xbd350d84	-0.044202343
37	0x3b3cf034	0.0028829696
38	0x3cdb483f	0.026767848
39	0x3d74f55c	0.059804305
40	0xbcf95b32	-0.030438993
41	0x3a1d5533	0.00060017704
42	0xbd254958	-0.04035315
43	0xbd28328f	-0.04106384
44	0x3cd2b191	0.025719436
45	0xbd5581f1	-0.052125875
46	0x3d000f09	0.03126434
47	0x3c6caa44	0.014444891
48	0x3d2b7e74	0.041868642
49	0x3d1be3ce	0.03805905
50	0x3c8e70d7	0.01738779
51	0x3d837319	0.064184375
52	0x3e036c2d	0.12834235
53	0xbd1770b7	-0.036972728
54	0x3c15cc52	0.009142952
55	0x3d6876f8	0.056754082
56	0xbd8c75ea	-0.06858428
57	0xbd44e96a	-0.048074163
58	0xbc924fa6	-0.017860245
59	0x3d43ddd2	0.047818966
60	0x3dc530ca	0.096284464
61	0x3d6254d8	0.055256695
62	0xbcca82d7	-0.024720592
63	0xbc73d385	-0.014881973
64	0xbcfc4f28	-0.030799463
65	0xbd90e62d	-0.070751525
66	0xbb7ebfad	-0.0038871572
67	0xbb709503	-0.0036709912
68	0xbda1c154	-0.078982025
69	0x3b156bd1	0.002279986
70	0xbc968da7	-0.018378092
71	0x3cc86661	0.02446288
72	0xbbc0a273	-0.0058787405
73	0xbd807c75	-0.06273738
74	0x3d295aa1	0.041346196
75	0xbd63a66d	-0.055578638
76	0xbd825dc5	-0.06365541
77	0x3d5cfc57	0.053951588
78	0x3d4e74a3	0.050404202
79	0x3d00d304	0.03145124
80	0xbcc6c58e	-0.024264123
81	0xbd2a4e15	-0.04157837
82	0x3d42d215	0.04756363
83	0xbd213801	-0.03936005
84	0x3cc12cb6	0.02358089
85	0x3c446059	0.011985862
86	0x3b168696	0.0022968403
87	0x3d490611	0.04907805
88	0x3c9808d8	0.018558905
89	0xbd477e6c	-0.04870455
90	0xbcc78a0d	-0.02435782
91	0xbd0a455e	-0.03375756
92	0x3cd0c0d6	0.025482576
93	0x3cc0cef2	0.02353618
94	0x3da8dc32	0.08245124
95	0x3d4241a9	0.0474259
96	0x3bb10967	0.005402732
97	0xbd49faa8	-0.04931131
98	0xbd3c2ea7	-0.04594293
99	0x3dda9a9c	0.10674021
100	0x3cd182a0	0.025574982
101	0xbdab8f7c	-0.08376977
102	0x3ceaa80d	0.028644586
103	0x3d653966	0.055962943
104	0x3ce98561	0.028505983
105	0xbd0e4166	-0.034730338
106	0x3d026490	0.031834185
107	0xbc799084	-0.015232209
108	0xbb69ab3d	-0.0035655044
109	0x3a976eb8	0.0011553383
110	0xbcc9de01	-0.024641993
111	0xbd261b71	-0.040553514
112	0x3cd6ad6b	0.026205739
113	0x3cf69a6d	0.030102933
114	0x3b7fa534	0.003900838
115	0x3dbd4c8d	0.092431165
116	0xbd13a6cd	-0.036047745
117	0x3dcbe85c	0.099564284
118	0x3c7d7523	0.015469822
119	0xbc984928	-0.018589571
120	0xbd9d32ea	-0.07675727
121	0xbd11df47	-0.035613324
122	0x3d9f08a8	0.07765323
123	0xbd02f02f	-0.03196734
124	0x3de73780	0.11289883
125	0x3b99aa9d	0.004689528
126	0x3d0bd672	0.034140058
127	0xbd32dc57	-0.043667164
128	0xbd3d7f33	-0.046263885
129	0x3d9fab41	0.07796336
130	0xbd2a8766	-0.041633032
131	0xbd90382a	-0.070419624
132	0xbd3dec29	-0.046367798
133	0xbca2d2e4	-0.019875951
134	0x3bc89ce2	0.0061222175
135	0xbb9bc5e9	-0.0047538173
136	0xbc0c86d5	-0.008577068
137	0xbd850290	-0.064946294
138	0x3c39c4b8	0.011338405
139	0x3d70810a	0.05871681
140	0x3c9597bb	0.018260827
141	0xbccd67c5	-0.025073895
142	0xbd16731f	-0.03673088
143	0xbd5b5272	-0.053545423
144	0xbc7785d3	-0.01510759
145	0x3ccddc12	0.025129352
146	0x3c9dc3b5	0.01925836
147	0x3ce21f8b	0.027602931
148	0x3e40ec31	0.188401
149	0x3d93e004	0.07220462
150	0xbd88d06c	-0.06680378
151	0x3d8a18be	0.067430004
152	0xbd152db7	-0.03642055
153	0xbcad85c0	-0.021181941
154	0xbc061a35	-0.008184959
155	0x3d02eb31	0.031962577
156	0x3d448acf	0.04798394
157	0xbcb78de9	-0.022406535
158	0x3c5ac407	0.013352401
159	0xba592cba	-0.0008284558
160	0xbc15d248	-0.009144373
161	0xbd9ed2e4	-0.07755068
162	0x3da3efbd	0.08004711
163	0x3d17eaba	0.037089087
164	0x3d89517c	0.06704995
165	0x3d0eacfe	0.034832947
166	0x3d63e685	0.055639762
167	0xbd6cc88a	-0.057808436
168	0x3dbd0c13	0.092308186
169	0x3d74b0f5	0.059739072
170	0x3d4de878	0.050270528
171	0xbd1cbba3	-0.03826488
172	0xbcae20b0	-0.021255821
173	0xbc98c09f	-0.018646536
174	0x3b990df2	0.004670852
175	0x3d662ce4	0.056195155
176	0x3d40a10c	0.047028586
177	0x3db775b1	0.08957995
178	0x3c97fbe2	0.018552724
179	0x3e4b67fe	0.19863889
180	0x3d520b51	0.051280323
181	0x3d4bbd65	0.049741168
182	0x3bd8ee0e	0.006620175
183	0xbd8329e2	-0.06404473
184	0x3d83b7f2	0.06431569
185	0xbcb42ff2	-0.021995518
186	0x3bbbd6a1	0.005732373
187	0x3d5c8bae	0.053844146
188	0x3db6fb69	0.089346714
189	0x3cf087b2	0.02936158
190	0x3c1b64c1	0.009484471
191	0xbd804cdb	-0.06264659
192	0x3d76efe2	0.060287364
193	0xba0bf7e8	-0.000533937
194	0xbcf64e0b	-0.03006651
195	0x3ce60cbc	0.028082244
196	0x3d9870c8	0.07443386
197	0x3d3564a1	0.04428542
198	0x3cdbc671	0.026828023
199	0xbc59a267	-0.013283349
200	0x3da8e941	0.08247615
201	0xbd3788de	-0.04480826
202	0x3d2e4113	0.04254253
203	0xbc5cf022	-0.0134849865
204	0x3d3c4bbd	0.045970667
205	0xbcd91d07	-0.0265031
206	0x3d5aa6d6	0.053381763
207	0xbc8d81d6	-0.017273825
208	0x3cfde03e	0.030990716
209	0x3c83f6d0	0.0161089
210	0xbd5649c1	-0.05231643
211	0x3df142d5	0.11780325
212	0x3cdaf36a	0.026727397
213	0x3cbc3aa0	0.022977173
214	0x3be3b8f4	0.0069495384
215	0x3d91f5d9	0.0712697
216	0x3c94c684	0.018161066
217	0x3cda92aa	0.026681263
218	0x3d439764	0.0477518
219	0xbd447e14	-0.0479718
220	0xbc86dc06	-0.016462337
221	0x3d72a732	0.05924148
222	0x3bb49d05	0.0055118822
223	0x3d5566f1	0.052100126
224	0xbd2980b3	-0.041382503
225	0x3dea8f34	0.11453095
226	0x3cc503c5	0.024049649
227	0xbc1d2f23	-0.009593758
228	0xbc319462	-0.0108386
229	0x3ceb09e4	0.02869124
230	0xbd88b211	-0.066745885
231	0x3db58fab	0.08865293
232	0xbd570d1e	-0.052502744
233	0xbc8b2264	-0.016984172
234	0x3d8f939d	0.07010577
235	0xbd8bc984	-0.068255454
236	0x3d472215	0.048616488
237	0xbca8bb27	-0.020597054
238	0x3d37eb4c	0.04490213
239	0x3cf1c54a	0.02951302
240	0x3db65e2e	0.08904682
241	0xb988fc52	-0.00026127935
242	0x3b99b6a2	0.004690961
243	0xbc9dd1c1	-0.019265058
244	0x3da4d471	0.080483325
245	0x3d5fbac6	0.05462148
246	0x3d7a44ce	0.061100774
247	0xbbcdecff	-0.0062843557
248	0x3dba8d7a	0.09109016
249	0x3ddb6f0e	0.107145414
250	0x3c9ce2b6	0.019151073
251	0x3bef3c9d	0.007300927
252	0x3c395cb0	0.011313602
253	0x3e221d3b	0.15831463
254	0x3da46587	0.08027177
255	0x3d2414fa	0.040059067

base.mlp.layers.0.2.weight f4 [256]
0	0x3f931c91	1.1493093
1	0x3f84f677	1.0387715
2	0x3f7a885b	0.9786431
3	0x3f6cc5b3	0.92489165
4	0x3f6fde12	0.9369823
5	0x3f75293f	0.9576606
6	0x3f8a46f9	1.0802909
7	0x3f899b96	1.0750606
8	0x3f70fe35	0.9413789
9	0x3f744a33	0.9542572
10	0x3f6ac80d	0.91711503
11	0x3f6e0b17	0.9298567
12	0x3f96ceed	1.1781899
13	0x3f73b7a0	0.95202065
14	0x3f595960	0.84902
15	0x3f70614c	0.93898463
16	0x3f84756e	1.0348337
17	0x3f7ed1c8	0.9953885
18	0x3f63e20b	0.8901679
19	0x3f72d51e	0.9485644
20	0x3f785eff	0.9701995
21	0x3f814810	1.0100117
22	0x3f610ff9	0.87915
23	0x3f803072	1.0014784
24	0x3f931f14	1.1493859
25	0x3f859238	1.0435247
26	0x3f7cbc8e	0.9872521
27	0x3f74805d	0.95508367
28	0x3f763313	0.96171683
29	0x3f896780	1.0734711
30	0x3f71988a	0.9437338
31	0x3f7a062a	0.97665656
32	0x3f743a3c	0.9540136
33	0x3f5de065	0.86670524
34	0x3f859d66	1.0438659
35	0x3f7aba0b	0.9794013
36	0x3f739199	0.9514404
37	0x3f89e623	1.0773357
38	0x3f8fc915	1.123324
39	0x3f8d0e3c	1.1019969
40	0x3f88781b	1.0661653
41	0x3f528730	0.8223753
42	0x3f9274c4	1.1441884
43	0x3f5b5f5b	0.85692376
44	0x3f698c35	0.91229564
45	0x3f6c5e46	0.9233135
46	0x3f876f31	1.0580808
47	0x3f65d0c7	0.89771694
48	0x3f904521	1.1271096
49	0x3f7b29cf	0.9811067
50	0x3f865ae1	1.0496484
51	0x3f809ec1	1.0048448
52	0x3f694a22	0.9112874
53	0x3f90188b	1.125749
54	0x3f8eb07b	1.1147608
55	0x3f8051f4	1.002501
56	0x3f5d881a	0.865358
57	0x3f7fc1ef	0.99905294
58	0x3f8855fe	1.0651243
59	0x3f8cd8eb	1.1003698
60	0x3f6b0019	0.91797024
61	0x3f86d070	1.053236
62	0x3f835798	1.0261106
63	0x3f7e5cbd	0.9936026
64	0x3f7a9285	0.9787982
65	0x3f6f7f04	0.93553185
66	0x3f737498	0.9509978
67	0x3f847f29	1.0351306
68	0x3f644720	0.8917103
69	0x3f61ae30	0.88156414
70	0x3f867544	1.0504537
71	0x3f887c2c	1.0662894
72	0x3f86a080	1.0517731
73	0x3f5f8567	0.8731293
74	0x3f8503a0	1.0391731
75	0x3f71f8b1	0.945201
76	0x3f6acf4c	0.9172256
77	0x3f6ebd11	0.9325724
78	0x3f880b2a	1.0628407
79	0x3f7918e8	0.9730363
80	0x3f590967	0.8477997
81	0x3f9b01e3	1.2109951
82	0x3f6376cc	0.88853145
83	0x3f557624	0.83383393
84	0x3f881d19	1.063388
85	0x3f65e51a	0.89802706
86	0x3f84810e	1.0351884
87	0x3f77ec7b	0.96845216
88	0x3f8fab15	1.1224085
89	0x3f80ac2d	1.0052544
90	0x3f765de0	0.9623699
91	0x3f73dc99	0.9525848
92	0x3f84c7ae	1.0373437
93	0x3f83b71a	1.0290253
94	0x3f8ea029	1.1142627
95	0x3f827975	1.0193316
96	0x3f6d4cd3	0.9269535
97	0x3f792df7	0.9733576
98	0x3f6eca7c	0.93277717
99	0x3f8069a9	1.0032245
100	0x3f8fb016	1.1225612
101	0x3f4e1189	0.80495507
102	0x3f71ca7f	0.9444961
103	0x3f85d53b	1.0455698
104	0x3f800322	1.0000956
105	0x3f6bb342	0.920704
106	0x3f90dbdc	1.1317096
107	0x3f75e164	0.96047044
108	0x3f8b2479	1.0870506
109	0x3f803a15	1.0017725
110	0x3f7cd31d	0.98759633
111	0x3f65404b	0.8955123
112	0x3f6722dc	0.90287566
113	0x3f89f972	1.077925
114	0x3f7bb3cb	0.9832122
115	0x3f8b48e4	1.088162
116	0x3f753651	0.95786005
117	0x3f6be1e9	0.92141587
118	0x3f988f01	1.1918641
119	0x3f677a19	0.9042068
120	0x3f7d8fe8	0.9904771
121	0x3f8199f1	1.0125104
122	0x3f8215aa	1.0162861
123	0x3f44abdf	0.76824754
124	0x3f836460	1.0265007
125	0x3f822ba0	1.0169563
126	0x3f7c98fa	0.98670924
127	0x3f5f0e15	0.8713086
128	0x3f4e9c99	0.807077
129	0x3f8172d1	1.0113164
130	0x3f7d015d	0.98830205
131	0x3f840cd4	1.0316415
132	0x3f8299d1	1.0203191
133	0x3f6aef6b	0.9177157
134	0x3f77da49	0.9681745
135	0x3f5d20e3	0.86378306
136	0x3f7c7704	0.98619103
137	0x3f73d81d	0.9525164
138	0x3f6ef0b1	0.93336016
139	0x3f80c105	1.0058905
140	0x3f7335f6	0.9500421
141	0x3f8f0664	1.1173825
142	0x3f843254	1.0327859
143	0x3f4f29cb	0.80923146
144	0x3f7977fa	0.97448695
145	0x3f83eaf5	1.0306078
146	0x3f78a026	0.9711937
147	0x3f7509ce	0.95718086
148	0x3f82c639	1.0216743
149	0x3f801486	1.0006263
150	0x3f4b1cdd	0.79340917
151	0x3f672f6d	0.9030674
152	0x3f812409	1.0089122
153	0x3f80744d	1.0035492
154	0x3f6d0ee8	0.9260087
155	0x3f8230ae	1.0171106
156	0x3f7e2f0c	0.9929054
157	0x3f5d3c59	0.8642021
158	0x3f86a0c5	1.0517813
159	0x3f6b922f	0.92019933
160	0x3f7069bb	0.9391133
161	0x3f5b94d1	0.8577395
162	0x3f881c2c	1.0633597
163	0x3f7e6bae	0.99383056
164	0x3f8ed18d	1.11577
165	0x3f80b0d4	1.0053964
166	0x3f884ddb	1.064876
167	0x3f88b8d5	1.0681406
168	0x3f886c6c	1.0658088
169	0x3f9900cf	1.1953372
170	0x3f83418d	1.025438
171	0x3f608651	0.8770495
172	0x3f6ec002	0.9326173
173	0x3f86f585	1.0543677
174	0x3f8d41a1	1.1035653
175	0x3f907df2	1.1288435
176	0x3f810bb0	1.0081692
177	0x3f8ab5e2	1.0836756
178	0x3f844baf	1.0335597
179	0x3f77f219	0.96853787
180	0x3f66a0fb	0.90089387
181	0x3f825ef7	1.0185231
182	0x3f80466d	1.0021492
183	0x3f7d5663	0.9895994
184	0x3f6a2d77	0.91475624
185	0x3f5925c0	0.84823227
186	0x3f70b324	0.94023347
187	0x3f80b867	1.0056275
188	0x3f891674	1.0709977
189	0x3f646e12	0.89230454
190	0x3f761b17	0.96135086
191	0x3f5cc747	0.86241573
192	0x3f766d7a	0.962608
193	0x3f77a5b1	0.967372
194	0x3f8c94b8	1.0982885
195	0x3f869b0c	1.0516067
196	0x3f93946f	1.1529673
197	0x3f8692fb	1.0513605
198	0x3f778f72	0.96703255
199	0x3f61acf6	0.8815454
200	0x3f854a96	1.0413387
201	0x3f7fdb5a	0.9994408
202	0x3f75d5fb	0.96029633
203	0x3f9469b6	1.159476
204	0x3f91b0fc	1.1382136
205	0x3f893ffe	1.0722654
206	0x3f8d720d	1.105043
207	0x3f8a6df0	1.08148
208	0x3f632065	0.88721305
209	0x3f809ac1	1.0047227
210	0x3f611602	0.87924206
211	0x3f7eea63	0.99576396
212	0x3f7440a3	0.9541113
213	0x3f636c3e	0.8883704
214	0x3f781d72	0.9691993
215	0x3f80060c	1.0001845
216	0x3f821489	1.0162517
217	0x3f7cfbcb	0.98821706
218	0x3f8ceb13	1.1009239
219	0x3f87b9ea	1.0603611
220	0x3f60ece0	0.8786144
221	0x3f9cee2b	1.2260183
222	0x3f684eea	0.90745413
223	0x3f8b5dd6	1.0888011
224	0x3f828a99	1.0198547
225	0x3f62a92b	0.8853938
226	0x3f80e7a8	1.0070696
227	0x3f6aff21	0.91795546
228	0x3f9390b8	1.152854
229	0x3f4ef572	0.8084327
230	0x3f743171	0.9538794
231	0x3f7b8a1c	0.98257613
232	0x3f88672a	1.0656483
233	0x3f8e66a5	1.1125075
234	0x3f793ac9	0.97355324
235	0x3f7bb0a3	0.983164
236	0x3f831e2d	1.0243584
237	0x3f5756d1	0.84116846
238	0x3f70db5d	0.9408472
239	0x3f5dd858	0.8665824
240	0x3f929d7f	1.1454314
241	0x3f722783	0.9459154
242	0x3f82d29e	1.0220525
243	0x3f7ad8c1	0.9798699
244	0x3f83434a	1.025491
245	0x3f87616e	1.0576608
246	0x3f61f5dd	0.8826578
247	0x3f581f34	0.8442261
248	0x3f7b3091	0.9812098
249	0x3f8f7689	1.1208049
250	0x3f8fbca8	1.1229448
251	0x3f7934e1	0.9734631
252	0x3f815f40	1.0107193
253	0x3f748c21	0.9552632
254	0x3f7487fc	0.95519996
255	0x3f8695a8	1.0514421

base.mlp.layers.0.2.bias f4 [256]
0	0x3cb4ffe8	0.022094682
1	0x3cbf2bbc	0.023336284
2	0x3ddbe9f4	0.107379824
3	0x3bd47653	0.006483832
4	0x3d8c772f	0.0685867
5	0x3bc5244a	0.006016289
6	0xbce76cda	-0.028250147
7	0xbce1a240	-0.027543187
8	0x3ba77ff3	0.0051116883
9	0x3ddd9438	0.10819286
10	0xbd7b6999	-0.061380003
11	0x3cc979b5	0.024594167
12	0x3d028c70	0.031872213
13	0xbcea0809	-0.028568285
14	0x3dcd8036	0.1003422
15	0xbb416862	-0.002951168
16	0xbdd5776b	-0.10423168
17	0xbc9319d7	-0.017956657
18	0x3be4b781	0.006979883
19	0x3b53d772	0.003232446
20	0x3d2ce038	0.04220602
21	0xbcc690d3	-0.02423898
22	0x3db5d26b	0.08878025
23	0xbcdc1ebf	-0.02687013
24	0xbcc39587	-0.023875011
25	0x3d4f0833	0.05054493
26	0xbbeb772d	-0.0071858377
27	0xbcafe339	-0.021470653
28	0xbc9530fe	-0.018211838
29	0xbcd4278d	-0.025897766
30	0xbcb80792	-0.022464547
31	0x3a8fcb5c	0.001097064
32	0xbc6ecc89	-0.014575132
33	0x3e00817b	0.12549393
34	0x3d3acd80	0.045606136
35	0x3d0d7973	0.03453965
36	0x3c756b37	0.014979175
37	0xbcc3c3d9	-0.023897098
38	0xbc843ee7	-0.016143275
39	0x3c89568f	0.016764907
40	0xbd8c3b3f	-0.06847238
41	0x3e12fdb5	0.14354594
42	0xbce660a7	-0.02812226
43	0x3c8ebe2c	0.017424665
44	0x3d11d025	0.035598893
45	0x3d3430e2	0.04399193
46	0xbd2ad704	-0.04170896
47	0xbb3c929f	-0.0028773916
48	0xbb6d89fb	-0.0036245573
49	0x3da54e08	0.08071524
50	0x3c940d38	0.01807271
51	0xbc30b23d	-0.010784683
52	0x3c9e537e	0.019326922
53	0xbc787405	-0.01516438
54	0xbcaef1e4	-0.021355577
55	0x3bc1663e	0.005902081
56	0x3db33dfc	0.08752057
57	0xbc84a943	-0.016193992
58	0xbc9be53c	-0.019030206
59	0x3d053ac4	0.032526746
60	0x3dc1f51e	0.094705805
61	0x3d15b859	0.03655276
62	0xbd1030fa	-0.035202958
63	0x3b316729	0.0027069545
64	0xbd7abe63	-0.061216723
65	0x3cc47bd3	0.023984825
66	0x3dbc3739	0.091902204
67	0xbc5ee596	-0.013604542
68	0x3d3db567	0.046315577
69	0x3d7b9fda	0.061431743
70	0xbcf85b6e	-0.030317035
71	0xbc00e038	-0.007865958
72	0xbd3f3d4a	-0.04668931
73	0x3cae4c64	0.02127666
74	0x3cabf067	0.020988656
75	0xbce92c49	-0.0284635
76	0x3dc01421	0.09378839
77	0x3cdb11e1	0.026741924
78	0x3b35c2fb	0.0027734626
79	0xbd2db266	-0.042406462
80	0x3cc67000	0.024223328
81	0xbc9c8ba3	-0.019109553
82	0xbcc5f7e0	-0.024166048
83	0x3cb83fd9	0.022491382
84	0x3c0562b2	0.008141207
85	0x3c85b162	0.016319934
86	0xbc9adf66	-0.018905353
87	0x3cf11ecd	0.029433632
88	0xbcd9f5c6	-0.026606452
89	0x3bd2982b	0.0064268312
90	0xbb061759	-0.0020460694
91	0xbdec9bde	-0.11553167
92	0xbcc72433	-0.024309253
93	0x3d243766	0.040091895
94	0x3dace75f	0.08442568
95	0x3db8774c	0.09007129
96	0x3d13fd35	0.03613015
97	0xbd6fa15d	-0.058503497
98	0x3c8260cd	0.015915299
99	0x3ba6100b	0.0050678304
100	0x3d359741	0.0443337
101	0x3dae39a1	0.085070856
102	0x3d11929e	0.035540216
103	0x3c3c9fe6	0.011512732
104	0xbc150c1c	-0.009097125
105	0x3d30a6f4	0.04312797
106	0x3cd3beaa	0.025847752
107	0xbdb6ff0d	-0.08935366
108	0xbd1ff89a	-0.039055444
109	0x3d33e72c	0.043921635
110	0x3d2e0657	0.042486515
111	0x3d2d4f9f	0.04231226
112	0x3dc0311b	0.09384366
113	0x3bc4691b	0.005993975
114	0x3d3a0c71	0.04542202
115	0x3d709ce1	0.05874336
116	0x3d401034	0.046890453
117	0x3bb934c5	0.0056520426
118	0xbbcc3dc6	-0.00623295
119	0xbb536d88	-0.003226133
120	0x3bf006a1	0.007325009
121	0x3b4c5a70	0.0031181835
122	0x3da74e83	0.08169272
123	0x3d89b6ab	0.06724294
124	0x3c84506f	0.016151635
125	0x3d69ce77	0.057081666
126	0x3d054957	0.032540645
127	0x3d0a48b6	0.03376075
128	0x3d66a869	0.056312952
129	0x3da451c0	0.08023405
130	0xbd776098	-0.060394853
131	0xbd6ed1ab	-0.058305424
132	0xbd0101fc	-0.031496033
133	0x3c0a088c	0.008424889
134	0x3c9ab72a	0.018886168
135	0x3db4a22b	0.088199936
136	0xbd23ffe0	-0.040038943
137	0x3c52808e	0.012848033
138	0x3cb31e69	0.021865087
139	0xbdaf87db	-0.08570834
140	0x3d00116a	0.031266607
141	0xbcaa925e	-0.020821746
142	0xbcc4259a	-0.023943711
143	0x3cad4edb	0.021155765
144	0x3bee0740	0.007264048
145	0x3ba94651	0.005165853
146	0x3ca58881	0.020206692
147	0x3d6dea74	0.05808492
148	0x3d3597a3	0.044334065
149	0x3d245766	0.040122412
150	0x3cbfbb88	0.023404852
151	0x3d649e74	0.055815175
152	0xbadf30eb	-0.0017028128
153	0x3ba0dbf0	0.004909031
154	0x3c135b94	0.008994002
155	0xbde7f5ab	-0.11326154
156	0xbc9d9346	-0.019235265
157	0x3d4c9931	0.049950782
158	0xbd604ad7	-0.054758873
159	0x3d9e653b	0.07734152
160	0x3d30c9c6	0.043161176
161	0x3dd2efaa	0.102996185
162	0x3d416d81	0.04722357
163	0x3c989979	0.018627869
164	0x3c895dfe	0.016768452
165	0x3d2537bb	0.04033635
166	0x3d09816d	0.033570696
167	0xbd7eabd2	-0.06217558
168	0x3c64534e	0.013935877
169	0xbc891931	-0.016735645
170	0x3cd87be1	0.026426258
171	0x3c8e9234	0.0174037
172	0xbdb47966	-0.088122174
173	0xbd29b1ef	-0.041429456
174	0x3c32b767	0.010907984
175	0x3cbab6a8	0.022792175
176	0x3cb66df5	0.022269228
177	0x3dafbff5	0.08581535
178	0xbd74a258	-0.059725136
179	0x3da7d699	0.08195228
180	0xbcf25b0c	-0.02958443
181	0xbccbb056	-0.024864357
182	0xbc058e92	-0.008151667
183	0x3c077f0b	0.0082700355
184	0xbd78f8d7	-0.060784187
185	0x3d6ce8fa	0.05783937
186	0x3c906e61	0.017630758
187	0xbc6494a5	-0.013951455
188	0xbbe72755	-0.0070542493
189	0x3d594b55	0.053050358
190	0x3baf0b4c	0.005341923
191	0xbb28645f	-0.0025694591
192	0x3ca59a32	0.020215128
193	0xbc7746f3	-0.015092599
194	0xbd4ff8ce	-0.050774388
195	0x3befdd29	0.0073200655
196	0x3c2e554d	0.0106404545
197	0x3c87395d	0.016506845
198	0x3c16f01f	0.009212523
199	0x3de34b0b	0.11098298
200	0x3ca4385a	0.020046402
201	0xbd55a279	-0.0521569
202	0xbac97dae	-0.0015372538
203	0xbd220e81	-0.039564613
204	0x3ce82a37	0.028340442
205	0x3c993738	0.018703088
206	0x3d961df8	0.07329935
207	0xbcce8757	-0.02521102
208	0x3d908896	0.07057302
209	0x3b50fda4	0.0031889463
210	0xbc9f385a	-0.01943605
211	0x3d91948f	0.071084134
212	0xbcfdfa76	-0.031003218
213	0x3d82da4d	0.06389294
214	0x3bddb49f	0.0067659165
215	0x38a99ab2	8.087362e-05
216	0x3bc7da8f	0.0060990523
217	0xbb1f23e9	-0.0024282879
218	0xbc8d423b	-0.017243495
219	0xbd148620	-0.036260724
220	0x3dce4fdb	0.10073825
221	0x3c9c7839	0.019100295
222	0xbc42a9db	-0.011881317
223	0x3bb8bf20	0.0056380183
224	0x3b60d413	0.0034306094
225	0x3b79e878	0.0038132947
226	0xbc3e8354	-0.011627991
227	0xbd300d78	-0.042981595
228	0xbd268350	-0.040652573
229	0x3d11739c	0.035510644
230	0xbb8693d3	-0.0041069775
231	0x3e0667fa	0.13125601
232	0x3acf81fd	0.0015831586
233	0xbcf48e4d	-0.02985301
234	0x3da4a7a0	0.080397844
235	0x3d154621	0.036443833
236	0xbc65f85a	-0.014036262
237	0x3e0383f2	0.12843302
238	0x3cc0a9c8	0.023518458
239	0x3d825c82	0.06365301
240	0x3d965cbd	0.07341907
241	0xbc53104a	-0.012882302
242	0x3c7e44e9	0.015519359
243	0xbd883d3a	-0.06652303
244	0x3cfc5e4f	0.030806689
245	0x3c522494	0.012826104
246	0x3d599a9c	0.053125963
247	0x3da018a5	0.078172006
248	0x3d899759	0.067183204
249	0x3dc94994	0.09828487
250	0x3cec6969	0.028858857
251	0x3d74824f	0.059694584
252	0xbd0e12b6	-0.034685813
253	0x3da7c844	0.081924945
254	0x3d2e5ae3	0.042567145
255	0x3c46cf10	0.0121343285

base.mlp.layers.1.0.weight f4 [128, 256]
0	0x3e227684	0.15865523
1	0xbe904d6d	-0.2818407
2	0x3dcb2826	0.09919767
3	0xbd863716	-0.065534756
4	0x3e3e82e1	0.18604614
5	0xbde86300	-0.11347008
6	0xbcf44754	-0.029819168
7	0x3ce59e0b	0.028029462
8	0xbc9d7e97	-0.019225402
9	0xbcffec7e	-0.031240698
10	0xbdf1b763	-0.11802556
11	0xbc5c2306	-0.013436085
12	0x3e0a34c0	0.13496685
13	0x3c259fad	0.01010887
14	0x3d0b4ad2	0.0340069
15	0xbd3d76cc	-0.04625587
16	0xbe25f85a	-0.1620802
17	0x3e408075	0.18799002
18	0xbd9158f1	-0.07097042
19	0xbcef4dbb	-0.02921187
20	0x3cde5cca	0.027143855
21	0x3d006dbc	0.03135465
22	0xbe8c2929	-0.27375153
23	0xbe0dfa78	-0.13865077
24	0xbddc6d45	-0.10763029
25	0xbdeb1274	-0.11478129
26	0xbcddbc29	-0.02706726
27	0xbe08ed43	-0.13371758
28	0x3bfb4f75	0.007669384
29	0xbd29a0ca	-0.041413106
30	0x3e17bcbe	0.14818093
31	0xbcc5caab	-0.024144491
32	0xbd0444dd	-0.032292236
33	0x3d4c06a1	0.04981101
34	0xbe26fe31	-0.16307904
35	0xbc3a708e	-0.011379374
36	0xbdba4bc2	-0.09096481
37	0xbc2fef0c	-0.010738146
38	0xbc69fd7f	-0.01428163
39	0x3e65e85a	0.22451916
40	0xbdd2bab3	-0.10289516
41	0x3d028702	0.031867035
42	0x3ba2fe19	0.0049741385
43	0x3dbfca6e	0.09364782
44	0x3d60e512	0.05490596
45	0x3e4422e9	0.19153942
46	0x3e774d97	0.24150692
47	0xbd07f92f	-0.033196624
48	0xbe119bef	-0.1421964
49	0x3d6ffd72	0.058591314
50	0x3d4290af	0.047501262
51	0xbe674ec3	-0.22588639
52	0x3d118eb1	0.03553647
53	0xbdfb8c14	-0.12282577
54	0xbd97e2c7	-0.07416301
55	0xbe24404d	-0.16040154
56	0xbe011620	-0.12606096
57	0x3d8c712f	0.068575256
58	0xbdc9c655	-0.09852282
59	0xbb9dd90e	-0.0048171347
60	0x3ca90224	0.020630904
61	0x3e03ac0b	0.12858598
62	0x3d6e175d	0.05812775
63	0xbd94028a	-0.07227047
64	0x3dc70146	0.0971704
65	0xbe762f5a	-0.240415
66	0x3daa62ce	0.08319627
67	0x3db2c594	0.08729091
68	0xbdbdd9a0	-0.09270024
69	0xbde8e524	-0.1137183
70	0xbda5fb3d	-0.081045605
71	0x3dadd057	0.08487003
72	0xbe8ae284	-0.27125943
73	0x3df478d1	0.119371064
74	0x3d956d0f	0.07296192
75	0x3e647f67	0.22314225
76	0x3de5aba7	0.11214381
77	0x3d87d6e6	0.066327855
78	0xbe2aa120	-0.16663027
79	0xbd090a97	-0.033457365
80	0x3c6b91a1	0.014377982
81	0xbe543a06	-0.20725259
82	0x3d96a5c7	0.07355838
83	0x3dc4b00f	0.09603893
84	0xbc289114	-0.010288496
85	0xbd204f4f	-0.039138135
86	0x3d8242c3	0.0636039
87	0xbe173c30	-0.14769053
88	0x3e031a98	0.12803113
89	0xbd3e5d3d	-0.046475638
90	0xbd30a108	-0.04312232
91	0x3d1f9a29	0.038965378
92	0xbd3d2b0d	-0.046183635
93	0x3df878b5	0.12132398
94	0xbe104207	-0.14087687
95	0x3da12054	0.07867494
96	0x3d050089	0.032471213
97	0xbdc4f440	-0.096168995
98	0x3d9ba0e8	0.0759905
99	0xbdc577d4	-0.09641996
100	0x3e170384	0.14747435
101	0x3d9aeb09	0.07564361
102	0xbdb29aee	-0.08720957
103	0xbbfea83e	-0.007771521
104	0x3e45d410	0.19319177
105	0x3e413de2	0.18871263
106	0xbde5d876	-0.11222927
107	0x3e34f354	0.17670947
108	0x3d869a36	0.06572382
109	0x3d43fe5f	0.04785001
110	0x3dcfc112	0.10144247
111	0xbdf6b6a5	-0.120465554
112	0x3d736f4f	0.059432324
113	0x3e22bb2a	0.1589171
114	0x3dc18aab	0.09450277
115	0x3da4dd53	0.08050027
116	0x3e85656a	0.26053935
117	0xbe1871c7	-0.14887153
118	0xbdc5a03b	-0.09649702
119	0xbb50604a	-0.0031795674
120	0x3caa5273	0.020791268
121	0x3c41c140	0.01182586
122	0x3c946167	0.018112851
123	0xbde89dae	-0.113582
124	0xbdff3bcb	-0.124625765
125	0x3da7fa76	0.082020685
126	0x3e05bfab	0.13061397
127	0xbd8341a7	-0.064090066
128	0x3d580bdd	0.05274569
129	0x3d8ada6f	0.06779944
130	0xbe078935	-0.13235934
131	0xbd853cdb	-0.06505748
132	0x3e13f67a	0.14449492
133	0xbd8d8c88	-0.0691157
134	0x3e1c95c7	0.1529151
135	0xbcbcf889	-0.02306773
136	0x3e1162ba	0.14197817
137	0xbd3f724b	-0.046739858
138	0xbdc7cecc	-0.0975624
139	0xbd9fa8be	-0.07795857
140	0x3cc18b91	0.02362612
141	0xbe8f8add	-0.28035632
142	0x3c94e830	0.018177122
143	0xbdd1f69f	-0.10252117
144	0x3e79e326	0.24403057
145	0xbe24523e	-0.16046998
146	0xbd80b7de	-0.0628507
147	0xbc62f42d	-0.013852161
148	0x3e26fbd5	0.16307004
149	0x3d1350c1	0.035965685
150	0x3deb0135	0.114748396
151	0x3de088ba	0.109635785
152	0x3d4d6668	0.05014649
153	0xbdcd67ac	-0.100295395
154	0xbdb0b568	-0.086283505
155	0x3dab0582	0.0835066
156	0x3de4bb36	0.1116852
157	0x3db133ec	0.086524814
158	0xbbac896e	-0.0052654063
159	0x3cccef85	0.025016556
160	0x3ea8bdbf	0.32957265
161	0x3d08979b	0.033347707
162	0x3e7efbb8	0.2490071
163	0x3cda8042	0.026672486
164	0x3ded3289	0.115819044
165	0x3ea04600	0.31303406
166	0xbe0bf21b	-0.13666575
167	0xbdbd6923	-0.09248569
168	0xbcad7497	-0.021173758
169	0xbe82320c	-0.25428808
170	0xbd141f2a	-0.036162533
171	0x3df51159	0.119661994
172	0xbe162ca2	-0.14665464
173	0x3dc192eb	0.094518505
174	0x3cbec7a8	0.023288563
175	0xbe4e0ced	-0.20122118
176	0xbd28f7d8	-0.041251987
177	0x3d39bdab	0.045346897
178	0x3bbc5168	0.005747009
179	0x3dd23d2e	0.10265575
180	0x3db2f356	0.08737819
181	0x3d54c61e	0.05194675
182	0xbdc36b4f	-0.09541952
183	0xbe425763	-0.18978648
184	0x3e246bd4	0.16056758
185	0xbd45f8de	-0.04833304
186	0x3c855158	0.01627414
187	0xbdccc617	-0.0999872
188	0x3e74d484	0.23909193
189	0x3e17c638	0.14821708
190	0x3dad4c7c	0.08461854
191	0x3e364cc1	0.17802717
192	0xbdc2968b	-0.0950137
193	0xbd9ebb19	-0.0775053
194	0xbdde11a3	-0.10843208
195	0xbdcf7477	-0.10129636
196	0xbe019c2f	-0.12657236
197	0xbc63a553	-0.013894397
198	0x3cc8ba55	0.024502913
199	0xbe233bec	-0.15940827
200	0x3d8ba5b7	0.06818717
201	0xbe05230a	-0.13001648
202	0xbd92f118	-0.07174891
203	0x3d5b9469	0.05360833
204	0x3b7bd21c	0.0038424795
205	0xbdaa9f9c	-0.08331224
206	0x3e4468d4	0.19180614
207	0xbd47b373	-0.04875512
208	0x3d5f5abd	0.054529894
209	0xbd3d55f8	-0.046224564
210	0xbe1048e2	-0.14090303
211	0xbcb2b157	-0.021813078
212	0x3da04193	0.07825007
213	0xbd9998de	-0.0749986
214	0xbd531e80	-0.05154276
215	0xbdfbc7f6	-0.12293999
216	0xbd97ca05	-0.07411579
217	0x3d3a8aa5	0.045542378
218	0x3dbe6035	0.09295694
219	0xbe8d4cff	-0.27597806
220	0x3cc64c95	0.024206439
221	0x3e84fdd6	0.2597491
222	0x3cc7933c	0.024362199
223	0x3c99a879	0.018757092
224	0xbd6281d1	-0.055299584
225	0x3d76a06d	0.060211588
226	0x3cd952f6	0.026528817
227	0xbcede003	-0.029037481
228	0xbdca3d4f	-0.09874975
229	0x3e2906fc	0.1650657
230	0xbbeef244	-0.007292064
231	0x3d496188	0.04916528
232	0x3c99fbab	0.018796762
233	0xbd261c50	-0.040554345
234	0xbe0ad95e	-0.13559482
235	0x3cf21b68	0.029554084
236	0xbd527a1d	-0.051385988
237	0xbcd9b10f	-0.026573686
238	0xbd6ee3b5	-0.058322627
239	0xbca3b87b	-0.019985428
240	0x3c979f2c	0.018508516
241	0x3d22b364	0.03972186
242	0x3ddfa0c5	0.10919336
243	0xbc181fe8	-0.009284951
244	0x3dde0e89	0.10842616
245	0xbcd94a82	-0.026524786
246	0xbdeb547d	-0.11490724
247	0x3dbdfbbc	0.0927653
248	0x3d721ce2	0.059109576
249	0xbda6e450	-0.08149016
250	0xbd238f97	-0.03993186
251	0x3ca8aa44	0.020589001
252	0xbe6ae629	-0.22939362
253	0xbd0f7394	-0.035022333
254	0xbb8fe268	-0.0043910034
255	0xbd5f75a1	-0.05455554

base.mlp.layers.1.0.bias f4 [128]
0	0xbca2b45c	-0.019861393
1	0x3cca37dc	0.024684839
2	0x3cff7a5c	0.031186275
3	0x3d5dc466	0.05414238
4	0x3d945896	0.07243459
5	0xbc73cfa5	-0.014881049
6	0xbd3f9987	-0.046777274
7	0xbe00ebf9	-0.12590016
8	0xbc02df82	-0.007987859
9	0x3d172ffe	0.036911003
10	0x3d776495	0.060398657
11	0x3d0b9772	0.034079976
12	0xbdd10b82	-0.10207273
13	0x3b95d4bb	0.0045724786
14	0xbbf46b9e	-0.007459118
15	0xbd98a74e	-0.07453786
16	0x3d279ca6	0.040920876
17	0x3d386d99	0.045026395
18	0xbd38d5e5	-0.04512586
19	0x3db52490	0.08844864
20	0x3d5b9727	0.053610947
21	0xbbd6e4ce	-0.0065580374
22	0xbd04c8b3	-0.032417964
23	0x3d701238	0.058611125
24	0x3bebdd0a	0.007197981
25	0x3cfe9acb	0.03107967
26	0x3daafd86	0.08349137
27	0x3cbd773d	0.023128146
28	0x3d6f9206	0.05848887
29	0x3c6c6bf0	0.014430031
30	0xbab0db87	-0.0013493159
31	0x3c90c217	0.017670674
32	0x3c50a822	0.0127353985
33	0x3bfc5c44	0.0077014286
34	0x3d0c2ae8	0.034220606
35	0xbc92e1d7	-0.017929954
36	0x3d68aab2	0.056803413
37	0xbe12e505	-0.14345177
38	0xbdf89a3f	-0.12138795
39	0x3d86e380	0.06586361
40	0x3d6a44f7	0.057194676
41	0xbcc12c61	-0.023580732
42	0x3c3f9826	0.01169399
43	0xbd7f3a5e	-0.062311523
44	0xbd7b6d8e	-0.061383776
45	0x3de6642f	0.11249577
46	0x3d4638c4	0.04839398
47	0x3d1cb1cf	0.03825551
48	0xbbc4dceb	-0.006007781
49	0x3d153357	0.036425915
50	0xbdb805f1	-0.08985508
51	0xbdd44111	-0.10363973
52	0xbb2e15da	-0.0026563318
53	0xbd0ae92e	-0.033913784
54	0xbcd7737a	-0.02630018
55	0xbdbf7aaa	-0.09349568
56	0x3d1ef9c5	0.038812418
57	0x3b2712e8	0.0025493447
58	0xbd722686	-0.05911877
59	0xbc6583ed	-0.014008504
60	0x3be83d65	0.007087397
61	0x3d1bc5ca	0.038030423
62	0xbd7de666	-0.061987303
63	0x3dc9bab8	0.09850067
64	0x3d028d44	0.031873003
65	0xbd28f3ac	-0.04124801
66	0xbe1bc18e	-0.15210554
67	0x3d6e483a	0.05817435
68	0x3d870b8b	0.065939985
69	0x3c09689f	0.00838676
70	0x3c99019e	0.018677529
71	0xbba0bc26	-0.0049052415
72	0xbc7cd869	-0.015432456
73	0xbc1d71c6	-0.009609645
74	0x3d31c2f2	0.043398805
75	0x3bad1009	0.0052814526
76	0xbc944ecb	-0.018103978
77	0x3d193c0c	0.03741078
78	0xbaaaac7d	-0.0013021376
79	0xbd532dde	-0.051557414
80	0x3c1553bb	0.009114201
81	0x3df713c9	0.120643206
82	0xbc315ceb	-0.010825376
83	0x3e0bfbb0	0.1367023
84	0x3c82cfc5	0.015968213
85	0x3da94e1f	0.082668535
86	0x3cc4db7d	0.024030441
87	0x3d826d93	0.06368556
88	0x3b8a2fcf	0.004217125
89	0x3d5723ea	0.052524485
90	0xbc806bd8	-0.015676424
91	0x3d85928f	0.065220945
92	0x3d71dcf7	0.05904862
93	0xbe030658	-0.12795389
94	0x3dc113d8	0.09427613
95	0xbc1e259d	-0.009652522
96	0x3d6d805c	0.05798374
97	0x3c52f1ba	0.012875015
98	0x3dd48dea	0.103786305
99	0x3c865ffe	0.016403195
100	0x3cb782a4	0.022401161
101	0x3db7cb90	0.08974373
102	0xbdcfb2e1	-0.1014154
103	0xbd019c93	-0.03164346
104	0x3d1e77c3	0.038688432
105	0x3d3d4927	0.04621234
106	0x3c7d65d0	0.0154661685
107	0xbd0b611a	-0.03402815
108	0xbd88aeb3	-0.06673946
109	0xbcdeae82	-0.027182821
110	0x3c9e3a8e	0.01931503
111	0x3d4791e7	0.048723128
112	0x3d08d53e	0.03340649
113	0xbd1b74b6	-0.0379531
114	0x3d9d3f56	0.07678096
115	0xbe23a06f	-0.1597917
116	0x3da670cf	0.08126985
117	0xbc46c2e3	-0.012131426
118	0x3d159d3e	0.03652691
119	0xbd414a58	-0.04719004
120	0x3cfe3d4e	0.031035092
121	0x3d02db52	0.03194744
122	0x3d0dc017	0.03460702
123	0xbda83396	-0.08212964
124	0xbe04d642	-0.12972358
125	0x3c655c2e	0.013999028
126	0x3df89a80	0.121388435
127	0x3c94bd2b	0.018156609

base.mlp.layers.1.2.weight f4 [128]
0	0x3f8166bf	1.0109481
1	0x3f744d30	0.9543028
2	0x3f71c7d1	0.9444552
3	0x3f6579a1	0.89638716
4	0x3f7bec20	0.98407173
5	0x3f74d6c1	0.9564019
6	0x3f7b9a0e	0.98281944
7	0x3f72137b	0.94560975
8	0x3f82accf	1.0208987
9	0x3f7ea056	0.99463403
10	0x3f6d5cd5	0.92719775
11	0x3f8f2a8f	1.1184863
12	0x3f5fb253	0.87381476
13	0x3f7a8c9d	0.9787081
14	0x3f7955bb	0.9739644
15	0x3f833d67	1.0253114
16	0x3f83d391	1.029894
17	0x3f8b0c36	1.0863101
18	0x3f72ade3	0.9479658
19	0x3f8df6ae	1.1090906
20	0x3f8610e0	1.04739
21	0x3f8635e9	1.0485202
22	0x3f5acbfd	0.8546751
23	0x3f908e7b	1.1293482
24	0x3f797e9e	0.9745883
25	0x3f88dbfb	1.0692133
26	0x3f87c853	1.0608009
27	0x3f809a42	1.0047076
28	0x3f824aac	1.0179038
29	0x3f7fec37	0.9996981
30	0x3f64b9bd	0.89345914
31	0x3f8ecbc1	1.1155931
32	0x3f709b0d	0.9398659
33	0x3f7e242d	0.9927395
34	0x3f93d2d8	1.154872
35	0x3f84e525	1.0382429
36	0x3f8e9afc	1.1141047
37	0x3f69d12c	0.91334796
38	0x3f5b1b59	0.85588604
39	0x3f93a03f	1.1533278
40	0x3f8aaf04	1.083466
41	0x3f7392c6	0.95145833
42	0x3f78d11f	0.97194093
43	0x3f82e6ab	1.0226644
44	0x3f7f18ee	0.99647415
45	0x3f8c3693	1.0954155
46	0x3f81589f	1.010517
47	0x3f8e0ff5	1.109862
48	0x3f82dcb4	1.0223603
49	0x3f810603	1.007996
50	0x3f6087c9	0.8770719
51	0x3f7cbabc	0.98722434
52	0x3f7e336b	0.9929721
53	0x3f776761	0.9664212
54	0x3f6c42eb	0.9228961
55	0x3f698c73	0.91229934
56	0x3f762dfc	0.96163917
57	0x3f8350b9	1.025901
58	0x3f6f8238	0.93558073
59	0x3f7206b3	0.9454147
60	0x3f84d7d2	1.0378363
61	0x3f7649bd	0.96206266
62	0x3f78cbc3	0.97185916
63	0x3f9d3259	1.228099
64	0x3f765507	0.9622349
65	0x3f8bbf67	1.0917786
66	0x3f5326cc	0.82481074
67	0x3f87813b	1.0586313
68	0x3f8c5b83	1.0965427
69	0x3f853d21	1.040928
70	0x3f890e44	1.0707479
71	0x3f762341	0.96147543
72	0x3f76be77	0.96384376
73	0x3f6af37c	0.9177778
74	0x3f807778	1.0036459
75	0x3f894c89	1.0726482
76	0x3f6dc0d5	0.92872363
77	0x3f90078e	1.1252306
78	0x3f6eb0c8	0.93238497
79	0x3f832720	1.0246315
80	0x3f8b98e9	1.090604
81	0x3f90105a	1.125499
82	0x3f83de5b	1.0302233
83	0x3f9cb341	1.2242204
84	0x3f69daea	0.9134966
85	0x3f719e8d	0.94382554
86	0x3f889381	1.0670015
87	0x3f7862cf	0.9702577
88	0x3f863ade	1.0486715
89	0x3f79881b	0.97473305
90	0x3f90cc7f	1.1312407
91	0x3f8a196d	1.0789009
92	0x3f83fb69	1.0311099
93	0x3f6ff3d2	0.93731415
94	0x3f809233	1.0044616
95	0x3f861318	1.0474577
96	0x3f881d04	1.0633855
97	0x3f6f023b	0.9336278
98	0x3f8b2721	1.0871316
99	0x3f6cacd3	0.9245121
100	0x3f916c03	1.1361088
101	0x3f936c33	1.1517395
102	0x3f7b43b3	0.98150176
103	0x3f6f7707	0.93540996
104	0x3f7b9c43	0.9828531
105	0x3f8943f7	1.0723866
106	0x3f8423ce	1.0323427
107	0x3f8241ea	1.0176365
108	0x3f83b45f	1.028942
109	0x3f773a49	0.9657331
110	0x3f862d98	1.0482664
111	0x3f77efe2	0.9685041
112	0x3f782c23	0.9694235
113	0x3f5a47d3	0.85265845
114	0x3f8c0642	1.093941
115	0x3f76a88e	0.96350944
116	0x3f8853c5	1.0650564
117	0x3f77c53b	0.96785325
118	0x3f907984	1.1287084
119	0x3f89b673	1.0758804
120	0x3f84b1cb	1.0366758
121	0x3f8179a5	1.0115248
122	0x3f879c6b	1.059461
123	0x3f657419	0.89630276
124	0x3f668716	0.90049875
125	0x3f84d3f2	1.037718
126	0x3f8f7395	1.1207148
127	0x3f6b62b3	0.9194748

base.mlp.layers.1.2.bias f4 [128]
0	0x3d201da6	0.039090775
1	0x3d9a8cf3	0.07546415
2	0x3c9a957b	0.018870106
3	0x3ccbb551	0.024866732
4	0x3d29a9a8	0.041421562
5	0xbc6b215f	-0.014351218
6	0xbcec1f87	-0.028823627
7	0xbd808d1c	-0.062769145
8	0x3cedad9b	0.029013446
9	0x3cd0d529	0.025492268
10	0x3c741fc8	0.014900155
11	0xbc34ec1c	-0.011042621
12	0xbba45cdd	-0.005015953
13	0x3d8c4fd2	0.06851162
14	0xbd5203f5	-0.051273305
15	0x3c9c70e4	0.0190968
16	0x3c37aa14	0.011209983
17	0xbc98732d	-0.018609608
18	0x3d879bf8	0.066215456
19	0x3d659967	0.0560545
20	0x3bdc83d3	0.006729582
21	0xbd109a79	-0.035303567
22	0x3d18633c	0.037204012
23	0xbcba5c50	-0.022749096
24	0x3c0d3013	0.008617419
25	0xbd199d5c	-0.037503585
26	0x3d1a5d9a	0.03768692
27	0xbd29c7a0	-0.041450143
28	0xbc7e7651	-0.0155311385
29	0xbcb5db84	-0.0221994
30	0xbd25e261	-0.040499095
31	0xbd39df96	-0.045379244
32	0x3d4983de	0.049198024
33	0x3dec73d4	0.1154553
34	0xbd32eee4	-0.043684855
35	0xbd98bed3	-0.07458272
36	0xbc64a1b4	-0.013954569
37	0x3bfbad02	0.0076805362
38	0x3c9b90fd	0.018990034
39	0x3bf39b99	0.00743432
40	0x3c51847a	0.0127879325
41	0x3b80df66	0.003932881
42	0x3d7e8fc0	0.06214881
43	0xbd9181f1	-0.071048625
44	0xbd5ea30f	-0.054354724
45	0x3d952a08	0.072834074
46	0xbc4c2227	-0.012459314
47	0xbcf2193f	-0.029553054
48	0xbd85d505	-0.06534771
49	0x3e09010d	0.13379307
50	0x3cf2682d	0.02959069
51	0xbd47c548	-0.048772126
52	0xbcfcb086	-0.030845892
53	0xbca8f23a	-0.020623315
54	0x3a9e2484	0.0012065326
55	0xbd2bccae	-0.041943245
56	0xbcfa6a7b	-0.030568352
57	0x3d0f5b93	0.03499944
58	0xbc2421c5	-0.010017817
59	0x3dbc0a34	0.091816336
60	0x3cb42f53	0.021995222
61	0x3dda5a1d	0.10661719
62	0xbc99e766	-0.018787097
63	0xbd0de408	-0.034641296
64	0x3bb43f1a	0.0055006864
65	0xbd3cdba0	-0.04610789
66	0x3dd14f44	0.10220197
67	0x3ccc61c6	0.024948966
68	0xbd7ba9c8	-0.061441213
69	0xbd038858	-0.03211245
70	0xbc46ce49	-0.012134143
71	0x3af14c8b	0.0018409652
72	0x3ace08c4	0.0015719165
73	0x3cac1ccf	0.02100983
74	0x3cbf9a56	0.023389023
75	0x3cf53b24	0.029935427
76	0x3c8a2e10	0.016867667
77	0x3c3fa3c0	0.011696756
78	0x3c45cec4	0.012073223
79	0xbd165728	-0.036704212
80	0x3d87feb7	0.0664038
81	0x3d446b2c	0.04795377
82	0xbc958776	-0.01825307
83	0x3c7f0e0d	0.015567315
84	0x3cb93757	0.022609396
85	0x3d774cce	0.06037598
86	0xbc0173e2	-0.007901164
87	0x3db9781f	0.090561144
88	0xbd057160	-0.032578826
89	0x3da6c049	0.08142144
90	0x3c9e8a89	0.019353168
91	0xbc02a16f	-0.007973059
92	0xbb83df54	-0.0040244255
93	0x3d796172	0.060883947
94	0x3e121c32	0.14268568
95	0xbcee5c13	-0.029096639
96	0xbca905f3	-0.02063272
97	0x3cdb93d5	0.02680389
98	0x3d3d3d8e	0.04620128
99	0x3d0fdc0f	0.035121974
100	0xbca27e06	-0.019835483
101	0x3c89f16f	0.016838757
102	0x3c91305e	0.017723259
103	0x3d8b6b55	0.06807581
104	0x3c964396	0.018342774
105	0xbd2b7660	-0.041860938
106	0x3d0416cf	0.032248314
107	0x3c6bb2f5	0.014385928
108	0xbc3d52cd	-0.011555386
109	0x3ce36a91	0.027760776
110	0x3c0aee79	0.008479708
111	0x3d599307	0.05311873
112	0xbc8c9c65	-0.017164418
113	0x3d685dc6	0.056730054
114	0x3cd839f6	0.026394825
115	0xbbe1ac3e	-0.006886988
116	0x3d09b0b4	0.033615783
117	0xbd3fbcdc	-0.04681097
118	0xbd05418c	-0.032533213
119	0xbc976cae	-0.01848444
120	0xbd000345	-0.031253118
121	0x3d17fc99	0.03710613
122	0xbb3c8bf7	-0.002876995
123	0xbd0fb61f	-0.035085794
124	0x3d8dc154	0.0692164
125	0xbcadd968	-0.021221831
126	0x3d2b800f	0.041870173
127	0x3c839c81	0.016065838
