models/actor_good256_2_whithout_share.pt (torch, 997938 bytes, 16 tensors)

base.feature_norm.weight f4 [420]
000000 e8 34 9f 3f 43 59 91 3f 6a 3e 96 3f 30 a9 97 3f
       1.2438021 1.1355366 1.1737797 1.1848507
000010 2b 35 94 3f 81 eb 75 3f b2 46 77 3f 69 5b 6e 3f
       1.1578726 0.96062475 0.9659225 0.9310823
000020 97 11 71 3f 71 7c 75 3f 04 96 85 3f f8 a4 70 3f
       0.94167465 0.9589301 1.0436406 0.9400172
000030 9c 7d 80 3f b7 42 71 3f 56 43 80 3f 10 4a 75 3f
       1.0038333 0.94242424 1.0020549 0.95816135
000040 f1 79 7c 3f 35 82 7c 3f 09 03 76 3f 0e e5 83 3f
       0.9862357 0.9863618 0.9609838 1.0304277
000050 7d f0 84 3f 70 e6 7e 3f 53 1a 70 3f 8f d7 68 3f
       1.0385891 0.9957037 0.9379017 0.90953916
000060 08 a1 73 3f ae 79 65 3f 69 e3 70 3f 51 8c 7e 3f
       0.9516759 0.89638793 0.94097 0.99432856
000070 93 9b 73 3f 5d 89 78 3f de 20 75 3f 78 cf 75 3f
       0.9515926 0.970846 0.95753276 0.960197
000080 d8 87 6e 3f 11 08 6f 3f d6 7c 77 3f 5a da 75 3f
       0.9317603 0.93371683 0.9667486 0.96036303
000090 9c 7c 72 3f 98 92 6a 3f f8 42 77 3f 20 10 6b 3f
       0.9472139 0.91629934 0.9658656 0.9182148
0000a0 d8 37 66 3f c0 b7 7c 3f b4 53 63 3f d7 99 77 3f
       0.8992896 0.9871788 0.88799596 0.96719116
0000b0 39 27 77 3f c2 be 79 3f 74 a3 77 3f a9 f1 78 3f
       0.96544224 0.975567 0.96733785 0.97243744
0000c0 c6 81 71 3f 0c fb 6e 3f a2 46 64 3f fd b3 79 3f
       0.94338644 0.9335182 0.8917028 0.97540265
0000d0 db 27 80 3f b2 a6 5e 3f 8d 1f 70 3f 94 dd 7b 3f
       1.0012163 0.86973107 0.9379814 0.98384976
0000e0 d9 0d 60 3f fb 63 6a 3f dd 55 76 3f 70 69 76 3f
       0.8752113 0.9155881 0.96224767 0.96254635
0000f0 ea 30 74 3f 3c 85 80 3f 84 9c 74 3f 3c 95 79 3f
       0.95387137 1.004066 0.95551324 0.9749334
000100 65 95 70 3f 41 72 6e 3f 87 bc 6f 3f 80 de 73 3f
       0.9397796 0.9314309 0.93647045 0.95261383
000110 2c e8 74 3f a8 00 70 3f 83 fb 82 3f 23 7c 82 3f
       0.95666766 0.93751 1.0233005 1.0194134
000120 27 fc 7f 3f b5 5f 72 3f 1f e0 84 3f 26 a3 8c 3f
       0.9999413 0.9467729 1.0380896 1.0987289
000130 7b f1 85 3f c5 b8 89 3f f1 9e 87 3f 7b 75 8b 3f
       1.0464319 1.0759512 1.059538 1.0895227
000140 b3 ba 7f 3f 17 14 80 3f 5e 6f 82 3f 2c 37 80 3f
       0.99894255 1.0006131 1.0190237 1.0016837
000150 58 01 77 3f cc 62 81 3f 92 25 83 3f 77 4f 84 3f
       0.96486425 1.0108275 1.024584 1.0336751
000160 21 c4 74 3f 4d e4 71 3f 86 b1 80 3f ed c2 79 3f
       0.9561177 0.94488984 1.0054176 0.9756306
000170 c8 4f 61 3f 1c 29 81 3f 43 ea 75 3f b3 69 77 3f
       0.8801236 1.009067 0.9606058 0.9664566
000180 da c8 82 3f 24 75 6a 3f 3f 7b 81 3f f9 58 78 3f
       1.0217545 0.9158499 1.0115737 0.9701076
000190 ce 45 83 3f f7 22 7b 3f 1e b6 73 3f 20 0d 74 3f
       1.0255678 0.9810023 0.95199764 0.9533253
0001a0 37 2d 81 3f 45 95 64 3f ae 2c 80 3f 87 33 77 3f
       1.0091923 0.8929027 1.0013635 0.96563
0001b0 f8 a9 63 3f e0 b7 75 3f a9 aa 86 3f ad 4e 6e 3f
       0.88931227 0.95983696 1.0520831 0.930888
0001c0 6f 11 79 3f 3e 2e 75 3f cf 8f 74 3f 37 89 7f 3f
       0.97292227 0.95773685 0.95531934 0.9981875
0001d0 34 9e 68 3f 44 c8 63 3f c7 cf 84 3f ec f0 73 3f
       0.908664 0.88977456 1.0375909 0.9528949
0001e0 63 06 71 3f c4 ad 7e 3f f7 c7 67 3f c4 ab 6b 3f
       0.9415037 0.99483895 0.905395 0.9205897
0001f0 ec 70 6e 3f 16 09 79 3f 9d 75 6c 3f 8a c7 6f 3f
       0.93141055 0.9727949 0.92366964 0.9366385
000200 11 81 78 3f a5 78 80 3f 48 9f 76 3f e5 59 7c 3f
       0.9707194 1.0036818 0.96336794 0.9857467
000210 a4 99 74 3f 6e 92 77 3f b8 32 6e 3f 52 c4 75 3f
       0.95546937 0.9670781 0.9304614 0.96002686
000220 ce 4b 73 3f 09 40 7b 3f ff 53 62 3f 73 44 79 3f
       0.95037544 0.98144585 0.8840942 0.9737007
000230 2e ce 6e 3f 86 dd 75 3f a0 3a 77 3f 0c 74 7a 3f
       0.93283355 0.9604114 0.9657383 0.97833323
000240 5b 6c 7e 3f b2 3e 7f 3f d0 8f 81 3f 8d 8e 7f 3f
       0.9938409 0.9970504 1.0122013 0.9982689
000250 e7 51 61 3f 90 ea 6d 3f 5a 5d 67 3f 44 9e 71 3f
       0.880156 0.9293604 0.9037682 0.9438212
000260 c6 bf 65 3f 18 23 64 3f 85 5d 86 3f 39 09 80 3f
       0.8974575 0.8911605 1.049729 1.0002815
000270 2a 4d 85 3f bb 21 89 3f 0d ad 8a 3f 09 0a 86 3f
       1.0414174 1.0713419 1.0834061 1.0471812
000280 a8 62 89 3f b3 84 89 3f b8 de 86 3f 50 d4 7f 3f
       1.0733232 1.0743622 1.0536718 0.9993334
000290 71 ff 84 3f 4b a2 89 3f e8 e5 8e 3f 15 f9 89 3f
       1.0390455 1.0752653 1.1163912 1.0779139
0002a0 cb a4 83 3f 67 9b 8b 3f 4c a0 75 3f 03 0c 75 3f
       1.0284666 1.09068 0.9594772 0.95721453
0002b0 b3 44 7a 3f 96 f6 76 3f 2c bd 77 3f 01 4a 7c 3f
       0.97761077 0.9647001 0.9677303 0.9855042
0002c0 93 2e 74 3f 04 fc 85 3f a9 50 7c 3f 9b 5f 7f 3f
       0.95383567 1.0467534 0.9856058 0.9975526
0002d0 e2 f9 85 3f 46 0b 81 3f 81 d2 85 3f cb 5d 7d 3f
       1.0466883 1.0081565 1.0454866 0.9897124
0002e0 66 99 83 3f 0c 98 93 3f 97 5b 7c 3f 73 30 8a 3f
       1.0281188 1.1530776 0.98577255 1.0796036
0002f0 c0 73 82 3f 26 72 72 3f c5 b0 83 3f ad 64 76 3f
       1.0191574 0.94705427 1.0288321 0.9624737
000300 6b 89 6e 3f e7 8b 6f 3f 17 6b 7e 3f 0b a6 73 3f
       0.93178433 0.9357285 0.99382156 0.95175236
000310 9a ce 7e 3f 76 f1 79 3f 6f b0 70 3f f9 8e 73 3f
       0.99534 0.97634065 0.94019216 0.95140034
000320 51 9b 7c 3f ca fb 7d 3f ae 34 7f 3f cb 43 80 3f
       0.98674494 0.99212325 0.9968976 1.0020689
000330 db 85 6d 3f 73 90 7c 3f b1 2d 73 3f 3f 43 79 3f
       0.9278237 0.9865791 0.94991595 0.97368234
000340 f9 68 74 3f f0 f8 5f 3f c2 9a 73 3f 13 6c 7c 3f
       0.95472676 0.87489223 0.95158017 0.9860241
000350 d8 90 74 3f 30 b2 82 3f f0 cd 64 3f bc 6a 7c 3f
       0.95533514 1.0210629 0.89376736 0.98600364
000360 93 4b 7d 3f 23 29 79 3f 90 29 7b 3f 31 d7 72 3f
       0.9894344 0.97328395 0.98110294 0.94859606
000370 f9 0c 85 3f 8b e6 7e 3f 45 e6 7a 3f d4 88 81 3f
       1.0394584 0.9957053 0.98007613 1.0119882
000380 08 d4 72 3f 74 53 68 3f a8 c3 77 3f df 87 87 3f
       0.94854784 0.9075234 0.9678292 1.058834
000390 fe 4c 87 3f dd 9b 80 3f 8e 8f 82 3f 7b 4a 7a 3f
       1.0570371 1.0047566 1.020006 0.977699
0003a0 0c 68 83 3f 23 b7 79 3f da 17 83 3f d4 61 84 3f
       1.0266128 0.9754507 1.0241654 1.0342355
0003b0 02 00 81 3f 3e 0f 82 3f 1d aa 81 3f 1a 18 86 3f
       1.0078127 1.0160902 1.013004 1.0476105
0003c0 e4 11 84 3f 78 4d 86 3f 1f 9c 89 3f c7 f0 8d 3f
       1.031796 1.0492392 1.0750769 1.1089104
0003d0 b2 87 86 3f 16 f5 8e 3f 30 b0 80 3f 00 a0 84 3f
       1.0510161 1.1168544 1.0053768 1.0361328
0003e0 bf ca 86 3f e3 99 80 3f 91 f8 84 3f 0c 53 82 3f
       1.0530623 1.0046962 1.0388356 1.0181594
0003f0 84 1c 83 3f e8 ca 89 3f 44 3e 78 3f 1f 80 7b 3f
       1.0243077 1.0765047 0.9697001 0.9824237

base.feature_norm.bias f4 [420]
000000 a4 be a9 3b 5b d2 8f bc 66 9e 09 bc 09 82 bd 3c
       0.005180197 -0.01755636 -0.008399582 0.023133295
000010 dd 41 7c bc aa 25 6d bd 6a a7 20 3d a5 64 61 3d
       -0.015396562 -0.057897247 0.03922216 0.055027623
000020 c0 1a 72 3d 36 6d 41 3d 81 b1 f2 bc 4e 2d e1 3b
       0.059107542 0.047223292 -0.029625656 0.006871856
000030 d1 05 21 bd 46 29 d0 bc 2d c8 82 bb 89 66 41 bc
       -0.039312188 -0.025410306 -0.003991148 -0.011804231
000040 f4 ea 0e bd 78 a5 81 bd 72 64 e0 bc 43 ec 0c 3b
       -0.034892038 -0.06330389 -0.027391646 0.0021503128
000050 c9 f4 33 3b 11 37 84 bc dd 95 2e bd 72 8b bc bc
       0.0027459136 -0.016139539 -0.04262339 -0.023015711
000060 da 91 0f 3c 52 9e 98 3b 83 f9 a8 bb 7e 1f 12 3c
       0.008762801 0.004657545 -0.0051566972 0.008918641
000070 52 f0 cb 3c b8 68 96 bc 28 48 e5 bc 95 9e ef bc
       0.024894867 -0.01836048 -0.027988508 -0.029250422
000080 76 16 f1 bc 36 92 6a 3c 90 fb 22 bc c6 76 18 bc
       -0.029429656 0.014317086 -0.0099476725 -0.009305662
000090 8c 54 b8 bc c4 ea 2c bd 43 8e c8 bc 7e 40 3c bb
       -0.022501253 -0.042216077 -0.024481898 -0.0028724964
0000a0 2e 56 13 3c 65 96 d7 bb 7d 52 cd bc 5e 44 d5 3c
       0.008992715 -0.0065792077 -0.025063748 0.026033577
0000b0 de e9 ca 3c 5a fd 85 bc 09 e5 f9 bb 12 1f c8 3c
       0.02476972 -0.016356159 -0.00762618 0.024428878
0000c0 1a 1e 03 bd c8 06 e8 bb 3f 2e bc bc 61 b8 b2 3a
       -0.03201113 -0.0070808865 -0.02297127 0.0013635271
0000d0 cd 2c 49 3c ea fa 94 bc 1b 88 6a 3c f7 29 03 3d
       0.012278748 -0.018186051 0.014314677 0.032022443
0000e0 dd 16 92 3c 28 5d 70 3d 7a 40 dc 3c 2a fa 10 3d
       0.017833168 0.05868259 0.026886214 0.035394825
0000f0 cd 8e 4c 3d 85 a0 d7 3c 53 91 03 3d 6c fa 2b 3d
       0.049940873 0.026321659 0.032121014 0.041986868
000100 0a 14 4c 3d ce bf 75 bb cc 30 2d 3c 16 bd 94 bb
       0.0498238 -0.0037498358 0.010570716 -0.0045391424
000110 ff 2e 51 bc 25 7d 12 bc 1a e0 3c 3d 49 42 14 3d
       -0.012767552 -0.00894097 0.046112157 0.036196027
000120 17 06 81 3d 28 cb 7c 3d 46 e3 15 3d 51 48 11 3d
       0.0629999 0.061717182 0.036593698 0.035469357
000130 39 a3 30 3d c4 e6 c9 3c 95 b8 50 3d 7c 2f 88 3c
       0.04312441 0.02464617 0.05095728 0.016624205
000140 d7 6b db 3c 98 17 2c ba 2a 67 aa 3b af fa ea 3c
       0.02678482 -0.0006564795 0.0052002864 0.028683988
000150 fd 10 c9 3c 97 18 b3 bc 52 4b f5 bc fa 65 05 3c
       0.024544233 -0.021862311 -0.029943142 0.008141989
000160 73 7e 35 3d 82 c3 3a 3d 94 86 b6 3b 03 9d e3 3c
       0.044310044 0.045596607 0.005570242 0.02778483
000170 0d 47 03 3e 8a ea 55 bc 5c cd 66 bc d0 97 9b bc
       0.12820072 -0.013056407 -0.014087047 -0.018993288
000180 56 a8 52 bc 7f f0 95 bc 6c 2e dc bc 91 19 57 bd
       -0.012857517 -0.018303154 -0.026877604 -0.052514616
000190 c3 a4 db bb 38 a3 24 bd 20 16 2e bd 9a 5a a1 bc
       -0.0067029907 -0.04019472 -0.04250157 -0.019696523
0001a0 e3 5f 4f 3c 34 a4 38 bd c6 0c 6e bb 64 79 01 3d
       0.0126571385 -0.04507847 -0.0036323532 0.031609908
0001b0 af 4d 84 bc 6c 35 c6 b9 45 0c d0 3a ff e2 95 bb
       -0.016150324 -0.00037805305 0.0015872797 -0.004574179
0001c0 98 bc 2e bc 42 2e 89 bd d3 af 33 bd 06 66 a7 bc
       -0.010665081 -0.06698276 -0.04386885 -0.02043439
0001d0 e2 c2 1a bd 61 08 71 bb 6e 1d 78 3c 8e d8 d8 3b
       -0.03778351 -0.0036778676 0.015143735 0.006617612
0001e0 26 8d 3e 3c c9 07 99 3c 3e ca 2b 3c 4d 0d 60 3c
       0.011630332 0.01868047 0.01048523 0.013675046
0001f0 16 45 9a 3c c0 45 12 3d 23 b5 1d 3d e6 32 98 ba
       0.01883177 0.03571105 0.038502824 -0.0011611849
000200 9f e7 09 bd 75 d4 45 bc 9f a9 36 bc 69 92 5c bc
       -0.033668157 -0.0120745795 -0.011148839 -0.013462641
000210 df bc 5f 3c 92 4e 1d bc 14 29 26 3b 39 78 c0 bc
       0.01365587 -0.009601252 0.0025354074 -0.023494827
000220 fe c1 10 3d 12 66 a3 bc 16 e3 92 bc b6 57 05 3c
       0.035341255 -0.019946132 -0.017930549 0.008138588
000230 f4 ce 9e 3c a1 55 cb bb fa d0 dc 3b 04 57 9b bb
       0.019385792 -0.006205276 0.006738779 -0.0047405977
000240 36 28 a2 bb b1 84 65 ba 98 a2 2f 3c c4 f1 d3 3a
       -0.004948641 -0.00087554293 0.010719918 0.0016170074
000250 c1 d0 f7 bc b9 09 43 3c b7 d4 df 3c 8c 89 2b bc
       -0.030250909 0.0119041735 0.02732311 -0.010469805
000260 1f 7a 89 bb 5b 94 ab 3c b6 a4 08 3d 10 fe 85 3c
       -0.004195466 0.020944765 0.033360206 0.016356498
000270 b7 13 d8 3a d8 26 44 3b 94 10 cc 3c c0 eb 4a 3c
       0.0016485368 0.002993038 0.024910249 0.012385309
000280 b4 ee 64 3c a7 70 49 3c 95 d5 4e 3c f9 f8 8b bb
       0.013972927 0.012294925 0.012624164 -0.004271623
000290 de 20 0c 3b e7 98 2e bb 9e 6d 02 bc 66 63 2f bc
       0.0021381895 -0.002664143 -0.007960705 -0.010704851
0002a0 34 8b e7 bc 2e ad 99 bc 6a e1 f4 3c 0f bb 3a 3d
       -0.02826462 -0.018759336 0.029892642 0.04558855
0002b0 83 cd d1 3c 9c bc 29 3d d6 fa 2d 3d 4f c9 70 3c
       0.025610691 0.041439638 0.042475544 0.014696433
0002c0 3b 31 a3 3c f1 cc 2a bc f3 e3 f0 bc 10 cd da bb
       0.019920936 -0.010424838 -0.02940557 -0.0066772774
0002d0 95 d6 a8 bb 2e 15 94 bc e1 d6 d4 bc 15 7c ac bc
       -0.0051525333 -0.018076506 -0.025981368 -0.02105526
0002e0 78 d2 3b bd 8f 3e 0f bc fa 2a 04 bc d2 7a 9f bc
       -0.045855016 -0.0087429425 -0.008066887 -0.019467745
0002f0 72 ab a2 3b 98 30 c3 3b 7c 01 2f 3c b5 72 03 3d
       0.0049642855 0.0059567206 0.010681506 0.032091815
000300 5d e5 57 3d ef b3 66 bc b5 34 5f bc 9d 5f 99 3c
       0.052708972 -0.014080985 -0.013623406 0.01872235
000310 f9 e3 c6 3b a5 38 df bb 12 fc 69 3d 3b fd 8e 3c
       0.006069657 -0.0068121725 0.05712516 0.017454734
000320 e0 cb 3f 3b 32 b3 0b 3d 7d f9 ff bb c4 94 54 3c
       0.0029265806 0.03410644 -0.0078117237 0.012974922
000330 a4 14 0b bd e1 f0 2b 3d 53 c3 71 bc d8 41 81 bc
       -0.03395523 0.041977767 -0.014756042 -0.015778467
000340 2e b7 2d 3d c4 92 0c 3d 2a 4f da bc 85 58 8a bc
       0.042411022 0.034319654 -0.026649076 -0.016887913
000350 61 ff d0 3c 9d e8 1b 3c 58 f1 b3 bc 96 fa 84 3c
       0.0255124 0.009515909 -0.021965668 0.01623277
000360 08 92 41 bb 25 f6 a3 bb 28 52 dc 3b 36 45 c4 bb
       -0.0029536504 -0.005003708 0.006723661 -0.005989696
000370 d2 a8 a3 3c 00 c6 8d 3c 9d c4 f3 3c b6 15 1d 3c
       0.01997796 0.017306328 0.029756838 0.009587696
000380 57 f5 36 3d cd 97 b9 3c 7e 3a 95 3a 0c ae 95 3c
       0.044667568 0.022655392 0.001138523 0.018271469
000390 bb d1 00 3c 0a 84 32 3c 74 1e 4a bc 8b 42 97 bc
       0.007862504 0.010895738 -0.012336362 -0.018464347
0003a0 3e 66 4f 3c a6 13 da bb d6 1c 3c 3c 3d 89 00 3d
       0.012658654 -0.0066551743 0.011481484 0.03138088
0003b0 c6 b3 81 bb c2 88 35 3c 45 b8 05 3d 5c b6 db 3c
       -0.0039581982 0.011079969 0.032646436 0.026820354
0003c0 7d 83 8b 3c e6 e0 6a 3c d5 af dc 3b 5a 5c 77 3c
       0.017030472 0.0143358465 0.006734828 0.015097702
0003d0 52 15 af 3c 3d 56 cc 3c f2 8b a0 3c a9 00 e1 3c
       0.021372471 0.024943465 0.019597981 0.027466135
0003e0 97 6b ac 3b 3c 4b c5 3a a6 2b 2b 3d b8 de 26 3c
       0.005261849 0.0015052329 0.041789673 0.010184936
0003f0 35 e2 1e bb bf 6e cb bc bf 5c c2 3c d2 21 bc 3c
       -0.0024243717 -0.024833081 0.023725865 0.022965346

base.mlp.fc1.0.weight f4 [256, 420]
000000 f1 7f bd 3c 58 cf 98 bd c0 fd da 3d 5f f1 f8 3d
       0.023132296 -0.07461423 0.1069293 0.12155413
000010 09 2d 3d 3c c6 3a e2 3d 0a 99 65 3b 1d 79 68 bc
       0.011546382 0.110463664 0.0035033845 -0.014189032
000020 20 eb 75 bd 85 ba 42 3d a5 78 31 be 83 a3 b9 bd
       -0.060038686 0.04754116 -0.17331178 -0.090643905
000030 70 55 13 3c 5a 37 8b bd f3 24 4d 3d 4a fe 90 3c
       0.008992538 -0.06797667 0.050084066 0.01769938
000040 8c 2a 23 be d0 65 55 3e 69 93 73 bd 99 16 02 3c
       -0.15934199 0.2083962 -0.059466753 0.007939958
000050 c3 1a 51 3d bd a9 25 bd 9d 89 94 3d ee 2d 2b 3d
       0.051050913 -0.04044508 0.0725281 0.04179185
000060 cf 74 a2 bd d0 1e 1d bd 9c 1b 96 3c e7 94 e3 3d
       -0.07932436 -0.038359463 0.018323712 0.11112385
000070 64 50 03 bd 76 b7 d6 bc 53 a0 11 3e 69 cc 52 3d
       -0.03205909 -0.026210528 0.14221315 0.051464472
000080 66 50 a6 3d 97 00 4b bd a7 92 f5 bc 68 ad d9 bd
       0.081208035 -0.04956111 -0.029977156 -0.10628778
000090 fc c5 49 3d d4 8f 7b 3c b0 7b d4 3b 93 82 bd 3d
       0.04926108 0.0153541155 0.0064844713 0.09253421
0000a0 59 f1 50 3c 47 6a 07 3d 5e ad 8f 3b b6 d0 5e 3d
       0.012752854 0.03306034 0.0043846807 0.05439826
0000b0 66 ba bc 3d ab 16 37 3d 04 ed a9 3c 12 aa 7e bd
       0.0921524 0.044699352 0.0207429 -0.06217391
0000c0 1c 6d 2c 3d ad cc cb 3d bc f1 9a bd 93 38 be 3d
       0.042096242 0.09951148 -0.075656384 0.092881344
0000d0 7c 40 c1 bd fa df 77 bd 7d 5c 3f 3d b2 63 2d 3a
       -0.094361275 -0.060516335 0.046719063 0.0006614282
0000e0 a4 dc ac bc 58 ec e9 3d 7b ca af bc e0 c7 a0 3d
       -0.021101303 0.11422032 -0.021458855 0.07850623
0000f0 82 9c 49 3d 75 0f b6 3d b5 66 51 bd 58 18 1d 3e
       0.049221523 0.08889667 -0.05112334 0.15341318
000100 31 c4 c5 3a 66 7d 26 bc 93 39 d0 3d 57 26 86 3b
       0.0015088377 -0.010161733 0.101672314 0.004093926
000110 04 9c d0 bd 79 3d b3 3d 24 32 50 3d c4 61 2b bd
       -0.101860076 0.08751959 0.050829068 -0.041841283
000120 62 55 e1 3d a1 28 cc 3b c0 07 09 3d 4b 2f 81 3c
       0.110026136 0.0062304293 0.033454657 0.015769621
000130 9a ff 37 3e 97 3d b0 3d 93 7b b4 3a 7f 32 2e 3e
       0.17968598 0.08605497 0.0013769738 0.1701145
000140 22 22 96 bc 4c 68 00 be ae 92 9a bd 90 51 0e bd
       -0.018326823 -0.12539786 -0.07547508 -0.034745753
000150 77 71 e7 bc 0c a8 54 bb ec 0c 08 be 01 86 39 bd
       -0.028252346 -0.0032448797 -0.1328618 -0.04529381
000160 e9 6f 5c bd 64 2d 02 bd 5d 67 e1 3c 1f 67 82 bc
       -0.053817663 -0.03178157 0.027515108 -0.015918313
000170 b0 be 72 bd bd 64 3e be 71 10 a8 bd 89 91 86 3b
       -0.059263885 -0.18593116 -0.08206261 0.0041067046
000180 26 ac a7 bd 14 ef f9 3d c1 a6 73 3d 20 b7 b9 bd
       -0.081871316 0.12203804 0.0594852 -0.090681314
000190 85 b3 ac bd 34 3d 06 be 9d c7 e3 bb e5 1d c3 3d
       -0.08432678 -0.13109285 -0.006951286 0.09527186
0001a0 fa f0 c8 3d 5c cf fd bd f5 a9 42 3d 06 e2 cb 3d
       0.09811588 -0.12393066 0.047525365 0.0995522
0001b0 66 ab f3 3d 35 f3 ed bb 11 72 af bd 57 77 ad bc
       0.11897926 -0.0072616586 -0.08566678 -0.02117507
0001c0 84 22 05 bc 7e 04 12 bc a5 f0 cf 3d 08 6d 1e be
       -0.008125905 -0.008912204 0.10153321 -0.1547128
0001d0 4d 0c 9e 3b d0 d6 58 3d 10 b2 d1 3d 1f 06 21 bb
       0.0048232437 0.052939236 0.10239041 -0.00245703
0001e0 3a 9f d7 3d 42 fb 54 3d f9 5a 74 bb 44 18 49 bc
       0.10528417 0.05199743 -0.003728567 -0.012273852
0001f0 0d 4c 8e 3d ed bf 9e bd 28 04 28 bd 8c a3 01 3d
       0.06948099 -0.07751451 -0.04101959 0.03165011
000200 70 bc 43 39 24 71 e9 3c aa 1f 8c 3d d9 6b 3e 3d
       0.00018666848 0.028496332 0.06841977 0.04648957
000210 c1 25 bb 3d 65 15 d3 3d 52 09 81 bd 40 ce a2 bc
       0.0913806 0.10306815 -0.06300606 -0.019873738
000220 f6 3d b5 bd 2a d0 f0 bd 87 45 51 3c a2 74 a5 bd
       -0.08849709 -0.11758454 0.012772924 -0.080788866
000230 4d 11 24 bc b2 e8 9e bb 47 ae 1d bd 4e 50 78 3d
       -0.01001389 -0.004849517 -0.038496282 0.06062346
000240 26 72 b0 3d c4 80 d3 3d 15 ab 60 3d 1e 48 32 3e
       0.08615522 0.103272945 0.054850657 0.17410323
000250 8b b6 85 bc 37 36 48 bd c2 75 75 3d 46 27 af 3d
       -0.016322395 -0.04887983 0.059926756 0.08552413
000260 af c5 91 bc 42 9a 8a 3d 8d 99 d2 3c 14 4a c0 3d
       -0.017794458 0.067677036 0.025707984 0.09389129
000270 16 99 b0 ba c8 7d 82 3c 01 be 6c bd b5 2c 2d bd
       -0.0013473358 0.015929118 -0.05779839 -0.042278964
000280 26 4c a2 3c fa 39 44 3c 44 80 c5 3d 5c e1 26 3d
       0.019811701 0.011976713 0.09643605 0.040742263
000290 c8 18 42 3c 45 cf 3b 3d cc 8d c7 3d c6 3f 1f 3e
       0.011846729 0.045851965 0.097438425 0.15551671
0002a0 bf 2e 7f bd e3 e0 3c be f5 34 a5 bb 77 04 9c 3d
       -0.06230044 -0.18445162 -0.0050417134 0.07618039
0002b0 ca 4e 11 bd 62 6a 2a bd 56 a6 13 bd cc d3 8a bb
       -0.03547553 -0.04160536 -0.036047302 -0.004236674
0002c0 bc 04 a4 bd 9b 86 ce bd 0c c0 02 3d fb b1 85 bc
       -0.080087155 -0.10084268 0.03192143 -0.01632022
0002d0 16 cd a7 bd 3b c2 c1 bd ac b4 0f 3d 0f 5d e4 3c
       -0.08193414 -0.09460875 0.03508441 0.027876405
0002e0 c9 87 dd bd 60 16 2e bd e2 cb 37 bc c7 a3 34 3d
       -0.108169146 -0.042501807 -0.011218043 0.044101503
0002f0 34 28 97 3d 74 a3 76 bd ca 88 1e bd d9 6a e1 bc
       0.07380715 -0.060214475 -0.03870467 -0.02751677
000300 08 57 10 be 4b aa 7b bd 32 f1 2d 3d b2 4a 81 bd
       -0.140957 -0.0614417 0.04246635 -0.06313075
000310 52 65 07 3e 2c 60 f4 3c a0 63 67 bd 20 d3 84 3d
       0.13222244 0.029831015 -0.056491494 0.064855814
000320 fd 62 5f 3d e6 34 b8 3d b0 b0 05 be d6 d0 93 bd
       0.054537762 0.089944646 -0.13055682 -0.07217567
000330 98 34 d5 3d 98 e7 68 bd a9 33 0d 3e ba 12 ca bd
       0.10410422 -0.05686149 0.13789238 -0.09866853
000340 7c e6 53 bc b6 e8 14 3d 2a d1 09 bd 9f 3a ee bd
       -0.01293337 0.036354743 -0.03364674 -0.11632275
000350 5c 32 4f bc fb 60 11 3e ee a0 41 3d a1 6b 7b 3d
       -0.012646284 0.14197151 0.047272615 0.06138194
000360 c6 98 08 bc 20 7e 34 bd 3d 94 00 3d 38 4e 9f 3d
       -0.008337205 -0.044065595 0.03139137 0.07778591
000370 9d da 2c bd 07 5c 30 bd 45 84 08 3d ab c5 8c bb
       -0.042200673 -0.043056514 0.033329267 -0.004296025
000380 9c 13 a0 bc ef a1 1b 3e 07 f2 f1 3d 95 fd 71 3d
       -0.0195406 0.15198492 0.11813741 0.059079725
000390 00 98 31 3d df 66 b3 bb ca 3a 26 3e f9 fb 0c 3d
       0.04335785 -0.0054749097 0.16233364 0.034419987
0003a0 d8 28 de 3d 76 2e 99 bd e6 fb e1 3c 83 2d a9 3c
       0.10847634 -0.07479565 0.027585935 0.020651584
0003b0 86 a4 d4 bb 29 3e 31 bc e8 91 e9 3d 2e 76 ee 3c
       -0.0064893393 -0.010818043 0.114047825 0.029109087
0003c0 b6 6b 03 3c c1 60 80 3d 1b 5b 38 3d c7 cc 61 3d
       0.008021286 0.06268454 0.04500876 0.05512693
0003d0 47 bf 42 3d ff d1 c1 3d 7c 2a e4 bc 8e fa a1 3c
       0.047545698 0.09463882 -0.02785229 0.019772794
0003e0 e1 a1 e3 bd c7 df 2f 3d 91 0f 82 bd 12 3b 8e 3c
       -0.1111486 0.04293802 -0.06350625 0.017362151
0003f0 6e 29 e4 3b d3 81 c9 3c 4c 4d 1a bc 0b bc 73 3b
       0.0069629466 0.024598038 -0.009417843 0.003719094

base.mlp.fc1.0.bias f4 [256]
000000 fb fa 75 39 93 05 2c bc 0c cd 21 bd a9 e1 68 bc
       0.00023458518 -0.010499376 -0.03950219 -0.014213958
000010 2e 47 db bc 11 2d c5 3c 86 df 79 bb 01 76 88 3c
       -0.02676734 0.02406934 -0.0038127615 0.016657831
000020 09 63 1b bd 25 8f 10 3c 70 23 51 3c 2b b3 d9 3c
       -0.037936244 0.008823191 0.012764797 0.026574692
000030 85 24 18 3c 5b e9 aa bc e5 dc 8f bc 5d 7d 8f 3d
       0.009286051 -0.020863226 -0.017561385 0.07006333
000040 0d e7 e9 bc 3c 09 ef bc 2b 66 0c 3d 9f 8a d9 3c
       -0.028552556 -0.029179208 0.034277122 0.026555358
000050 60 be 9a 3c d5 08 a8 bc d5 68 3e 3c 1f 16 87 bc
       0.018889606 -0.020512024 0.011621674 -0.01649004
000060 c6 c8 b3 3c 47 ea d7 3b a4 3a a1 b9 da 4e b9 3c
       0.021946322 0.0065892073 -0.00030752004 0.022620607
000070 97 24 e0 bc c6 1d 22 3b 58 5b 3c 3c 78 ea 45 3c
       -0.027361197 0.0024736985 0.011496387 0.0120798275
000080 b2 cb 6e bc 29 65 a3 bc 57 4b af bb d0 a1 2c 3d
       -0.014574932 -0.019945698 -0.0053495574 0.042146504
000090 30 2f 80 3d c7 e2 63 bc 5f 8b 0a 3c 90 20 8a bc
       0.06259 -0.013909048 0.00845608 -0.01686123
0000a0 1f 6b aa 3c b8 83 c5 bb 03 23 88 3b 64 5d 82 bc
       0.020803032 -0.006027665 0.0041545643 -0.015913673
0000b0 6d d6 56 bc 5f 4f 55 3b 0e 7c 53 bd 9c 2f 84 3c
       -0.0131126465 0.003254853 -0.05163198 0.016135983
0000c0 1e 69 9d 3b af a6 92 bb 56 6c 1f bc d3 73 08 3d
       0.0048037907 -0.0044754366 -0.009730419 0.033313584
0000d0 ba 43 4e 3c c9 4b f3 ba 00 12 a9 3c 15 f1 cd bb
       0.012589389 -0.0018562014 0.020638466 -0.0062848427
0000e0 e0 b9 be 3c 13 06 4a bc 31 6e 39 bd 58 7d 68 3d
       0.023281991 -0.01233055 -0.045271102 0.056760162
0000f0 f1 2b c2 3b 26 8f 08 3d 66 8c 6c bc 03 5e cb 3b
       0.0059256484 0.033339642 -0.0144377705 0.0062062754
000100 89 99 f3 3b ce 56 22 bc 3b 1a 14 bc f6 23 b6 bb
       0.0074340743 -0.009908391 -0.009039457 -0.005558486
000110 44 a0 12 3d 95 17 91 3c 5b dc 7e 3c ef e8 01 3d
       0.035797372 0.01771144 0.0155554665 0.031716283
000120 a8 5c f4 3c 0d dd 66 3c 3f 1e e7 bc 90 b9 f4 3c
       0.029829338 0.014090789 -0.028212665 0.02987364
000130 60 5f cc bc 16 c9 30 bb d0 8b fc bc f4 0c 25 3d
       -0.024947822 -0.0026975325 -0.030828387 0.040295556
000140 19 b8 83 bc c0 0f 34 3c 22 44 59 bc 22 71 01 3c
       -0.016078996 0.010990083 -0.013260873 0.007900508
000150 af 9b 00 3d 5a 3e d6 ba 9f b1 e3 bb ab 8e 87 3c
       0.03139847 -0.0016345487 -0.0069486643 0.016547522
000160 0b f2 e8 bc 66 fd 28 bd e6 eb 5e 3d d1 aa 2d bb
       -0.028435728 -0.041257285 0.05442419 -0.002649952
000170 97 51 23 bc 3e 3a 1e bc dd 67 70 3c 53 91 bd bc
       -0.009968183 -0.009657441 0.0146732 -0.023140585
000180 b7 20 6b bc 0b e1 35 bb e9 e6 98 bc 4f c9 ac bc
       -0.014351062 -0.0027752544 -0.018664794 -0.021092085
000190 51 f3 b3 bc 20 f1 ea bc 26 9e 88 3c 98 de f7 3c
       -0.021966608 -0.02867943 0.016676974 0.030257508
0001a0 de 02 21 3d 7c 0f 22 3d c9 f3 4f bc 5f 59 cf 39
       0.039309375 0.03956555 -0.0126924 0.00039548703
0001b0 66 aa 4d bc 05 af 18 3b 7e e0 20 3d e5 6f 85 3c
       -0.012552833 0.002329768 0.039276592 0.016288707
0001c0 db 22 5d 3c 17 d5 31 3d cc 86 08 bd d4 ec 24 bd
       0.01349708 0.04341611 -0.033331677 -0.04026492
0001d0 e3 d6 38 bb a5 a6 15 3c 82 ab 97 bb de 2c 8c bc
       -0.0028204254 0.009133969 -0.0046285996 -0.017111238
0001e0 a6 65 c4 3b ae df 75 3a cb d0 34 bd fe 3d 04 bd
       0.0059935628 0.0009379339 -0.044144433 -0.032285683
0001f0 51 9d 96 3c 7a 34 40 3c b6 cd c5 3c cd 76 af bb
       0.018385561 0.011731261 0.024145942 -0.0053547383
000200 6d 60 aa bc 7f 43 cf 3b 75 04 36 bc 75 73 4b 3c
       -0.020797933 0.006325185 -0.011109461 0.012417664
000210 8c 27 89 bc c0 ae 29 3c fa 0a 89 3c 55 1d 9a 3c
       -0.01674249 0.010356605 0.016728867 0.018812815
000220 09 4f 23 bd 1f ad 96 3b 5a 34 3b 3d 3a bf a6 3c
       -0.039870296 0.0045982744 0.045704223 0.020354856
000230 24 d6 14 3d fc df b3 bb 77 7b a5 3c 82 94 aa bb
       0.036337033 -0.0054893475 0.020200474 -0.005205692
000240 84 31 5f bc 34 bb 82 bc 57 5c cf bb 30 87 b1 3a
       -0.013622645 -0.015958406 -0.0063281464 0.0013544317
000250 c9 86 d9 3b 7e 92 33 bc 01 4f 52 3d 70 97 50 3c
       0.006638382 -0.010960219 0.051344875 0.012731418
000260 2c 6d e6 bc 49 39 b6 3c 16 32 41 bb d7 82 1d bc
       -0.02812823 0.022244113 -0.0029479316 -0.009613714
000270 c6 45 3e bd ec a1 12 bc b2 36 3f 3c 9a c6 d7 3b
       -0.04645326 -0.008949738 0.011670755 0.0065849544
000280 4d dc fb 3c 41 00 8b 3c 49 f6 24 3b 5e 43 72 3c
       0.030744696 0.016967895 0.0025171211 0.014786569
000290 b7 a5 b7 3c 92 9a e3 bb be 28 2a bd 68 3c d5 bc
       0.022417886 -0.0069459165 -0.04154276 -0.02602978
0002a0 d9 13 c5 bb df 7d 8a bd 46 ec d3 3b bf 5a 1b bc
       -0.006014329 -0.06762289 0.006467375 -0.009482085
0002b0 a7 1f 0f 3c 80 f5 0f bd a4 3e a5 bc 77 50 6c 3d
       0.008735574 -0.035146236 -0.020171471 0.057693925
0002c0 85 bb 32 3c 74 a2 34 3d 36 b5 c1 3c 89 fe 49 bb
       0.010908966 0.04410024 0.023645978 -0.003082188
0002d0 4f 92 ee bc 2c 25 1b bc 2b a8 26 bc 34 8c cd 3c
       -0.0291225 -0.009469312 -0.01017193 0.025091268
0002e0 8f 31 5f 3a 54 03 80 bc 33 8b b5 3c f5 a6 3c bc
       0.00085141597 -0.015626587 0.022161102 -0.011514415
0002f0 78 9d 76 3c cd a0 d2 3b ec 67 67 3a 51 a4 7d 3c
       0.015052192 0.0064278604 0.0008827436 0.015481071
000300 c6 c2 9a bc 33 13 24 bc 2c 47 58 3c 5a 0c bc 3b
       -0.018891703 -0.010014343 0.013200562 0.005738777
000310 aa 77 41 bb e4 8c 94 3c bc b8 84 bb 28 3f 05 bd
       -0.0029520788 0.018133588 -0.0040503424 -0.032530934
000320 13 db 24 3c b0 7f c6 bc 62 db 87 3b c0 01 ba bc
       0.010061997 -0.024230808 0.0041460255 -0.022705913
000330 67 82 d4 3b 61 1c e5 bb 7b cc bd bb b0 02 33 bc
       0.0064852717 -0.0069919084 -0.0057921982 -0.010925934
000340 df 96 1a bb 30 4d e2 3b 0b 30 2b bd cd d7 d8 3c
       -0.0023588461 0.006906174 -0.041793864 0.02647009
000350 30 44 a9 3a d0 a8 65 3d 8f 48 1f 3d 1c 39 33 3d
       0.0012913998 0.056069195 0.038887557 0.043755636
000360 ee 09 a2 3c ff 6c 13 3a e5 53 da 3c b4 70 e1 b9
       0.019780125 0.00056238467 0.026651332 -0.00042999315
000370 91 ba e0 bc fb 10 34 3d 1e 97 83 3c 94 94 0b 3d
       -0.027432712 0.043961506 0.01606327 0.034077242
000380 19 c9 c8 3a a7 00 28 bd b5 39 22 bc 9a a4 fc 3b
       0.0015318721 -0.041016247 -0.009901454 0.0077100517
000390 c8 55 b5 3c 87 22 91 bb 54 52 cf bc 6e 75 b9 3c
       0.02213563 -0.004429165 -0.025307812 0.022639003
0003a0 4a 42 10 3c e6 9d 24 3c 18 cb 27 bc 52 4b 93 bc
       0.008804867 0.010047412 -0.010241292 -0.017980251
0003b0 5a 78 24 bc f5 8e 22 bd 2c b0 d1 38 23 b0 65 bb
       -0.01003846 -0.039687116 9.998711e-05 -0.0035047613
0003c0 53 c3 06 bd b6 0a 41 bd 5a e5 fb 3b 2f 7c 19 3c
       -0.03290112 -0.047129355 0.007687253 0.009367987
0003d0 14 30 03 bc 22 60 80 bc 0e 8b d1 3c f0 6d 1a ba
       -0.008007068 -0.01567084 0.025579002 -0.0005891016
0003e0 dc c1 b6 bc 7d e2 85 3c d7 52 c4 bc 76 3c 47 bc
       -0.022309236 0.01634335 -0.023965282 -0.012160411
0003f0 67 d6 d5 bb a9 a9 f7 bc 46 eb af 3c c2 41 83 3d
       -0.006525803 -0.030232267 0.021474492 0.06409027

base.mlp.fc1.2.weight f4 [256]
000000 95 8a 7a 3f b6 df 83 3f 43 ac 7c 3f 32 79 7e 3f
       0.9786771 1.0302646 0.9870035 0.9940368
000010 4d 76 6b 3f c1 70 84 3f d1 bd 81 3f c9 eb 81 3f
       0.9197739 1.034691 1.0136052 1.0150081
000020 77 e4 76 3f 1a 21 7f 3f 73 1b 88 3f ed e5 62 3f
       0.9644236 0.99659884 1.0633377 0.8863209
000030 c9 50 7a 3f 5b df 72 3f ef f6 69 3f d2 23 82 3f
       0.9777952 0.94872063 0.91392416 1.0167181
000040 43 32 7d 3f 3e 9b 81 3f 38 e2 71 3f 6a 7e 75 3f
       0.9890482 1.0125501 0.9448581 0.9589602
000050 42 a9 82 3f 54 40 7f 3f 21 b9 6d 3f 4c 2f 82 3f
       1.0207903 0.9970753 0.9286061 1.0170684
000060 41 60 7c 3f 55 fa 88 3f 60 47 67 3f 4b 11 85 3f
       0.9858437 1.0701395 0.90343285 1.0395902
000070 cb fb 70 3f 2a a2 84 3f 47 93 7f 3f cb 44 82 3f
       0.94134206 1.0361989 0.998341 1.0177244
000080 f6 67 7f 3f 3e 28 81 3f 80 f9 78 3f b6 f6 85 3f
       0.99768007 1.0090406 0.97255707 1.0465915
000090 f0 db 82 3f 89 12 87 3f cf 32 83 3f e9 2b 7c 3f
       1.022337 1.0552531 1.024988 0.985045
0000a0 1e 30 7e 3f fe cd 77 3f 5d 0a 7d 3f 36 30 76 3f
       0.9929217 0.96798694 0.9884394 0.96167314
0000b0 6d ec 7a 3f d9 b5 82 3f bb 0f 62 3f fc 92 8d 3f
       0.9801701 1.0211746 0.8830525 1.1060481
0000c0 5d 7e 81 3f ca a6 82 3f 65 d9 7b 3f f0 95 81 3f
       1.0116688 1.020715 0.9837859 1.0123882
0000d0 5d a0 76 3f a8 19 76 3f 75 f2 87 3f 4c aa 72 3f
       0.96338445 0.961329 1.0620867 0.947911
0000e0 66 d8 88 3f 59 c2 7e 3f 6a 76 75 3f 39 0d 80 3f
       1.069104 0.995153 0.9588381 1.0004035
0000f0 cd 09 86 3f 94 3f 74 3f 13 4d 84 3f 7d d9 81 3f
       1.0471741 0.9540951 1.0336021 1.0144497
000100 a0 d2 81 3f a9 34 85 3f 99 46 7f 3f 1e 5c 83 3f
       1.0142403 1.0406696 0.997171 1.0262487
000110 fb 32 84 3f 82 eb 7d 3f 20 dc 7a 3f e9 27 7b 3f
       1.0328058 0.9918748 0.97992134 0.98107773
000120 ee 97 81 3f 3c d4 7a 3f bb 90 7a 3f 61 ef 81 3f
       1.012449 0.97980094 0.9787709 1.0151178
000130 51 89 75 3f 6d f0 79 3f 58 6a 7c 3f 22 97 80 3f
       0.95912653 0.97632486 0.9859977 1.0046122
000140 48 dd 76 3f 97 b3 86 3f 31 0a 7d 3f 34 ae 82 3f
       0.964314 1.0523556 0.98843676 1.0209413
000150 cd 8f 8c 3f 75 b6 78 3f 2b 4f 7a 3f d4 d6 87 3f
       1.0981385 0.9715341 0.9777705 1.0612435
000160 96 95 75 3f 8f 34 7d 3f e2 8c 79 3f 43 a0 82 3f
       0.95931375 0.98908323 0.97480595 1.0205158
000170 8a 8c 80 3f 43 08 7d 3f bd 22 72 3f 78 6b 80 3f
       1.0042889 0.9884073 0.94584256 1.0032797
000180 44 48 83 3f f6 33 6d 3f 5e 5f 73 3f c1 22 8d 3f
       1.0256429 0.9265741 0.95067394 1.1026231
000190 67 09 82 3f 94 8a 89 3f 98 08 77 3f 46 52 88 3f
       1.0159119 1.0745416 0.9649749 1.0650108
0001a0 b6 3b 89 3f 15 e6 81 3f 2b 3e 76 3f 9e 58 82 3f
       1.0721347 1.014834 0.9618861 1.0183294
0001b0 71 7a 77 3f f8 f6 7d 3f 6d 69 83 3f 33 59 82 3f
       0.96671206 0.9920497 1.0266548 1.0183471
0001c0 5b 5d 82 3f be 0a 87 3f 45 d3 79 3f 48 c8 7c 3f
       1.018474 1.0550153 0.97587997 0.98743105
0001d0 35 12 81 3f 4d bc 86 3f 46 33 81 3f 00 9e 84 3f
       1.0083681 1.0526215 1.0093772 1.0360718
0001e0 24 02 80 3f af cc 85 3f 5e 0f 81 3f 06 ae 6c 3f
       1.0000653 1.045309 1.0082815 0.9245304
0001f0 34 fa 75 3f 02 22 88 3f 92 80 7d 3f 0a 05 83 3f
       0.96084905 1.0635378 0.9902431 1.0235913
000200 a9 70 71 3f 7b f8 80 3f 79 9c 80 3f 34 b6 87 3f
       0.9431253 1.007583 1.0047752 1.0602479
000210 ff be 7d 3f c0 b0 7f 3f 4b 31 81 3f e9 04 75 3f
       0.9911956 0.99879074 1.0093168 0.9571062
000220 14 fa 80 3f 64 5f 84 3f 43 79 84 3f 5f b4 79 3f
       1.0076318 1.0341611 1.0349506 0.9754085
000230 8d dd 7f 3f 93 5a 80 3f 46 2e 80 3f 6b 3d 80 3f
       0.99947435 1.0027641 1.0014122 1.0018743
000240 7a f8 84 3f 6b 53 86 3f 8f c3 70 3f 89 8b 7a 3f
       1.0388329 1.0494207 0.940484 0.97869164
000250 55 8b 86 3f 16 17 85 3f d9 b3 79 3f 07 3a 85 3f
       1.0511271 1.039767 0.9754005 1.0408334
000260 51 73 80 3f d0 26 82 3f de 73 81 3f af e0 7c 3f
       1.0035192 1.0168095 1.0113485 0.9878034
000270 b7 9b 71 3f f0 fd 81 3f fc 66 85 3f 39 de 7b 3f
       0.94378227 1.015562 1.0422053 0.9838596
000280 93 31 81 3f 12 1c 86 3f 15 80 7c 3f f5 65 7e 3f
       1.0093254 1.0477316 0.9863294 0.99374324
000290 94 21 75 3f 3a 74 81 3f 02 3d 7a 3f a8 2d 7b 3f
       0.9575436 1.0113595 0.9774934 0.9811654
0002a0 a8 11 82 3f 25 5d 70 3f 52 88 75 3f b1 b6 82 3f
       1.0161638 0.9389213 0.95911133 1.0212003
0002b0 dd 97 7b 3f bc 6b 7b 3f ff 5a 7b 3f 55 f0 83 3f
       0.982786 0.98211265 0.98185724 1.0307719
0002c0 1f ab 7e 3f 3f c7 7f 3f 7d e1 81 3f e3 31 7b 3f
       0.9947986 0.999134 1.0146939 0.98122996
0002d0 a6 90 77 3f 51 9d 7c 3f c0 ef 74 3f 34 a4 81 3f
       0.9670509 0.98677546 0.9567833 1.0128236
0002e0 1e ab 83 3f 68 64 78 3f d0 dc 79 3f 37 ba 71 3f
       1.0286596 0.9702821 0.9760256 0.94424766
0002f0 e7 dc 81 3f b6 0d 87 3f 1b b0 80 3f 6a f2 7e 3f
       1.0145539 1.0551059 1.0053743 0.99588645
000300 39 51 87 3f dc 93 80 3f 7d c7 76 3f 42 48 80 3f
       1.0571662 1.0045123 0.96398145 1.0022051
000310 9f f8 79 3f 52 61 87 3f b9 d1 6b 3f 1e 1c 76 3f
       0.9764499 1.0576575 0.92116886 0.96136653
000320 a9 30 7a 3f 79 2e 81 3f 48 19 7f 3f 99 f8 80 3f
       0.977305 1.0092307 0.9964795 1.0075866
000330 81 86 7c 3f 31 bb 85 3f a8 77 71 3f 8b 11 80 3f
       0.98642737 1.0447751 0.94323206 1.0005354
000340 84 63 7e 3f c1 39 83 3f 2c b1 7d 3f 59 17 85 3f
       0.993706 1.0252 0.9909847 1.039775
000350 58 6e 79 3f e0 16 8e 3f ed 92 84 3f 07 bd 88 3f
       0.97433996 1.1100731 1.0357338 1.0682687
000360 eb 72 7b 3f 58 e3 82 3f fc f9 7b 3f b7 13 7a 3f
       0.98222226 1.022563 0.9842832 0.9768633
000370 1d 18 7e 3f cc 15 87 3f 68 59 7c 3f ee f8 83 3f
       0.99255544 1.0553527 0.98573923 1.0310342
000380 0e 26 81 3f 3a 29 7e 3f 6c 19 77 3f a0 4c 84 3f
       1.0089738 0.99281657 0.96523166 1.0335884
000390 a0 f3 81 3f b6 dc 76 3f e1 ab 74 3f 6a 13 84 3f
       1.0152473 0.9643053 0.95574766 1.0318425
0003a0 eb 0a 7f 3f 0f ef 7f 3f da 39 77 3f 58 15 83 3f
       0.99626034 0.9997415 0.9657265 1.0240889
0003b0 eb 65 81 3f 10 8c 75 3f 5a 4c 85 3f 29 c8 86 3f
       1.0109228 0.95916843 1.0413926 1.0529834
0003c0 aa f3 82 3f a0 2f 76 3f a8 17 82 3f 73 c9 89 3f
       1.023061 0.9616642 1.0163469 1.0764602
0003d0 88 79 79 3f ba 8e 71 3f ee 0f 85 3f 9b fe 75 3f
       0.97451067 0.9435841 1.0395486 0.9609162
0003e0 18 e9 7c 3f e2 16 7b 3f 75 8b 77 3f 87 c6 7e 3f
       0.9879317 0.9808179 0.9669717 0.9952168
0003f0 6f 9e 81 3f 2a 72 82 3f be a2 8c 3f 2d 8b 89 3f
       1.0126475 1.019109 1.0987165 1.0745598

base.mlp.fc1.2.bias f4 [256]
000000 33 03 56 3c 25 6c bc bc 62 49 12 bd 30 7a 51 3c
       0.013062286 -0.023000786 -0.035714515 0.012785479
000010 64 bb c2 3c de 1d d3 bb 88 70 81 bd f2 61 db bb
       0.023770995 -0.0064427694 -0.06320292 -0.0066950256
000020 3b 23 0c bc b6 ba bf 3b bf 4d fc ba f5 b6 b2 3d
       -0.0085533215 0.005851115 -0.0019249244 0.087263025
000030 b0 3e db 3a c8 24 87 3c 08 2c 56 3d ad 95 76 3b
       0.0016727056 0.01649703 0.052288085 0.0037625835
000040 6b 39 55 3c 39 8d 2a 3c 5f 3e 2c 3d 9e 4a 1f 3c
       0.013014178 0.010409647 0.04205167 0.00972238
000050 92 31 61 bc 3e 79 d9 bb 39 8a 1b 3d cb c9 fc bc
       -0.013744729 -0.0066367676 0.037973616 -0.030857941
000060 92 25 c8 3c 72 cd 93 3c 5f 46 06 3c 32 59 e9 3c
       0.024431977 0.0180423 0.008195489 0.028484914
000070 1e 2e 7b 3c 4f 05 81 bc 78 23 a1 3c d3 42 11 3c
       0.015330819 -0.015749602 0.019670233 0.00886603
000080 63 f9 2e bc fa 22 03 ba 24 e6 9e 3c 8f 5f 04 3c
       -0.010679576 -0.00050024653 0.019396849 0.008079424
000090 a8 0e 21 bd ba 0b 9d bc 27 af 09 3c dd fc 90 3c
       -0.039320618 -0.01917063 0.008403576 0.0176987
0000a0 67 6e 7d 3d 24 ea 92 3b 86 60 d0 3b 60 13 1e 3d
       0.061872866 0.004483478 0.0063591627 0.038592696
0000b0 9c 50 3c 3c b7 f5 82 3b d0 0d 88 3c 5d 48 ec 3c
       0.011493828 0.0039965766 0.016608149 0.0288431
0000c0 6d 88 85 3c 82 06 fa bb 33 8f 0e 3d 59 b8 a2 3b
       0.016300404 -0.0076301703 0.034804534 0.0049658236
0000d0 f3 33 8d 3c b8 e4 93 3c 1e 9f 52 bc 92 b2 b4 b9
       0.017236685 0.018053398 -0.012855319 -0.0003446532
0000e0 a6 b5 82 3c cc ac 04 bd 0a 41 96 3b 14 3c d5 3c
       0.015955757 -0.032391354 0.00458539 0.026029624
0000f0 fe cd 62 ba 40 dc 86 3c 86 c2 00 bd 2b 7e 41 bc
       -0.0008651911 0.016462445 -0.031435512 -0.011809866
000100 d7 f6 94 3b c0 a3 45 bd 49 53 42 bc cb b9 41 bc
       0.004546027 -0.048251867 -0.011860677 -0.011824082
000110 b2 f8 e8 3c ed 53 c0 bb fb 63 21 3d 71 8b 3a bb
       0.0284389 -0.0058693797 0.03940199 -0.0028464461
000120 91 0c 9c bc 55 3d 74 3c 84 6d a2 3c b1 03 8d 3c
       -0.01904896 0.014907201 0.019827612 0.017213674
000130 06 5b 08 bc e9 d4 8a 3c 46 6a 9f bc df a9 2a 3d
       -0.008322483 0.016947227 -0.019459855 0.041665908
000140 34 7a d7 3c c0 0c 03 3c 77 e5 c1 bc 70 4b 86 3c
       0.026303388 0.007998645 -0.023668988 0.016393393
000150 63 f4 22 3c 6d 28 07 bb d6 39 95 bc 61 c2 e8 bb
       0.009945962 -0.002062346 -0.018216055 -0.00710325
000160 65 8b c2 3c eb 77 92 3c 60 96 01 3c ff 05 86 bc
       0.02374811 0.017879447 0.007909387 -0.016360281
000170 70 d0 2b 3c 8d a0 11 3c 8d 46 8b 3c 78 a2 bb bc
       0.010486707 0.008888376 0.017001415 -0.02290462
000180 04 27 27 bc ee e0 37 3d b3 48 1e 3a 20 82 44 bd
       -0.010202173 0.044892244 0.00060380547 -0.04797566
000190 82 89 9a 3b fe 0e 2f bc b7 e1 d9 ba 62 81 6a 3c
       0.0047160992 -0.010684727 -0.0016623054 0.014313074
0001a0 35 01 08 bd 03 24 1c 3d 44 19 ea 3c 14 5f 27 bd
       -0.033204276 0.03812028 0.0285765 -0.040862158
0001b0 d6 7d ad bc 80 09 2e 3b 5a 0b 34 3c 4e cb d1 3b
       -0.021178167 0.0026555955 0.010989035 0.0064024096
0001c0 c3 78 9b 3c 2a 25 ba 3b f3 11 11 bc eb db 56 3c
       0.018978482 0.0056807 -0.008854377 0.013113956
0001d0 86 07 03 bd fd 87 fb bb d4 1d b5 3b 74 b5 1f bc
       -0.031989597 -0.007676123 0.0055272374 -0.009747852
0001e0 9d ea 9a 3c 75 b2 0b bd 5a 0b a2 3b a6 7c 82 3c
       0.0189107 -0.034105737 0.004945201 0.015928578
0001f0 a0 e4 89 3d 7a c5 76 3c be b2 5f 3c 73 65 43 bc
       0.0673306 0.0150617305 0.013653455 -0.011926043
000200 f5 c6 32 3c 20 2a 6c 3c 3b 4d aa 3c 79 30 58 3b
       0.010911693 0.01441434 0.02078878 0.0032987876
000210 40 c6 84 3a 8a f6 83 3c 22 90 a5 3c 88 89 a0 3c
       0.0010129884 0.01610877 0.02021033 0.01959683
000220 a7 33 2e bc 24 c3 8c bc 99 00 65 3c 4d e5 25 3c
       -0.010632432 -0.017182894 0.013977193 0.01012547
000230 4c 13 db 3c 12 c4 c4 3b c4 6e 60 3d c3 07 c6 3a
       0.0267426 0.0060048187 0.054793134 0.0015108514
000240 15 d8 9a bc 46 21 d3 3a 84 47 38 bb 21 44 7b bb
       -0.018901864 0.0016107939 -0.0028118799 -0.0038340169
000250 71 ab bb 3c af 51 86 bc 8e 15 bc 3b 68 4b 2e bc
       0.022908898 -0.016396372 0.005739874 -0.010638095
000260 21 6e cd bb 69 2c ed 3b 62 75 60 3b cb fc ab 3b
       -0.006269232 0.00723796 0.0034249653 0.005248641
000270 ac 70 51 3d e7 f4 14 bc f2 91 0b bb 0d b5 83 3b
       0.051132843 -0.009091592 -0.0021296707 0.0040193857
000280 df 04 40 3c 4f a6 23 bc 98 5e dc 3c 90 7f df 3c
       0.011719911 -0.0099883815 0.026900575 0.027282506
000290 f8 ff bb 3c d6 80 fe bb 05 88 9b 3c ec ab 16 bd
       0.022949204 -0.0077668233 0.018985758 -0.03678505
0002a0 78 23 a4 3c f0 55 d1 bb a0 68 53 3c da 9c b9 3c
       0.020036444 -0.0063884184 0.0129033625 0.0226578
0002b0 a8 63 18 3c e1 39 02 3d 96 c3 fc bb 01 d1 90 bc
       0.009301104 0.03179348 -0.0077137453 -0.017677786
0002c0 93 42 c7 3c 65 2b 03 3c 9c d2 c9 3c 36 3c d0 3c
       0.024323737 0.0080059515 0.02463656 0.025419336
0002d0 a2 41 1e 3d 8a 5d f2 3c da 6b 5e 3c a0 5e 37 3c
       0.03863681 0.029585619 0.0135755185 0.011191994
0002e0 65 7f c7 bb aa ec 16 bc 20 a8 33 3d f6 08 f9 39
       -0.0060881847 -0.009211699 0.04386151 0.00047499657
0002f0 86 fb f1 38 75 13 08 bd e5 56 d1 bc a3 d9 2f 3d
       0.000115386254 -0.03322168 -0.02555413 0.042932164
000300 c8 8d 53 bc 4e d2 5e bc 5a ee 2c bc 91 38 dc bb
       -0.012912221 -0.013599945 -0.010554874 -0.0067206104
000310 15 9e 88 bb 91 62 79 bc 19 c5 95 3d 25 20 2a 3d
       -0.0041692355 -0.015221254 0.07312984 0.04153456
000320 c8 2c f2 3c 47 cf d2 bc 11 f6 b2 3c 58 15 f1 3b
       0.029562369 -0.025733603 0.02184585 0.0073572807
000330 e1 d9 5d 3c ff 68 1c bc 97 47 bd 3b 32 d7 2c bc
       0.013540716 -0.009546517 0.0057763564 -0.010549353
000340 85 e3 ba 3c 21 8c 10 ba 3c 10 2f bb e6 12 80 bc
       0.022813568 -0.0005514045 -0.0026712557 -0.015634011
000350 65 54 bd bc 90 04 cb 3c a5 d2 30 3c 0a bb 38 3d
       -0.023111532 0.024782449 0.010792409 0.04510025
000360 34 4d e7 bc eb 21 d9 3c 6b 71 0a 3d fb ec e2 3c
       -0.028235056 0.026505431 0.03379957 0.027700892
000370 f6 f6 92 ba a7 37 d5 bc 16 0f 8d 3c f7 06 63 3c
       -0.0011212516 -0.026027514 0.017219108 0.013856641
000380 da 9a 57 ba 3f a1 88 bc 85 47 0b 3d b0 cc 25 bc
       -0.0008224674 -0.01667845 0.034003753 -0.010119602
000390 4e 55 70 bc 6f e0 f5 3c 3e 6d 3d 3c 6f d5 c4 3c
       -0.014668776 0.030014245 0.01156169 0.024027554
0003a0 19 7d f7 3c dc cf ef bc d5 65 84 3c 35 67 f1 bc
       0.030211018 -0.02927392 0.016161839 -0.029468158
0003b0 21 5d 8d 3c 1c 25 5d 3d 2c 23 2c 3b ae a1 3e bd
       0.017256321 0.05399047 0.0026266081 -0.04654091
0003c0 7a 2c ab bc a3 df 23 3c 5d 49 da 3c 50 b0 0b bc
       -0.020895232 0.01000205 0.02664631 -0.008525923
0003d0 f6 e7 8b 3c 16 b5 33 3c d3 fd af 3c 27 27 2d 3d
       0.017078381 0.010968467 0.021483338 0.042273667
0003e0 48 68 95 bc 36 ba b3 3c af f5 19 3d b7 ea c4 bc
       -0.018238202 0.021939378 0.037587818 -0.024037702
0003f0 2d 7c a6 bb 40 66 ae b9 29 02 8a 3c ff 59 08 3d
       -0.005080721 -0.00033264048 0.016846733 0.033288952

base.mlp.fc2.0.0.weight f4 [256, 256]
000000 53 c6 27 be 71 e0 ac bd f1 59 a9 bc 24 79 ca 3c
       -0.16384248 -0.08441246 -0.02067277 0.024715967
000010 4f 11 f9 bc 89 f6 2d 3c 8f 7d e9 3d 33 03 d9 bd
       -0.030403761 0.010617861 0.114009015 -0.10596313
000020 84 85 8d be 1a d2 47 3e 09 ec eb 3d e8 9c 68 3d
       -0.27640927 0.19513741 0.115196295 0.056790262
000030 66 7b d6 bd 82 da e4 bd 8b 03 ca bd b0 cb fe 3c
       -0.10472755 -0.111744896 -0.09863957 0.031102985
000040 c2 6d 13 3e a3 6c a6 bd 44 a3 03 3d 5a ad cb 3d
       0.14397338 -0.081261896 0.032138124 0.099451736
000050 bd 65 74 bb 40 bb 9b bd 15 f9 33 3d 62 f0 01 be
       -0.0037292086 -0.076040745 0.043938715 -0.12689355
000060 bc 56 e7 bd ac ba 17 bc dd 81 58 bd 02 c7 fa 3d
       -0.1129584 -0.009260815 -0.052858222 0.12244989
000070 eb 8d 84 bd 78 6e 11 3e 24 1a ec bd 39 68 31 be
       -0.06472381 0.14202297 -0.115284234 -0.17324914
000080 50 66 04 bd 68 5b ac bc ad 63 1f be 55 23 09 3e
       -0.032324135 -0.02103968 -0.15565367 0.13392384
000090 47 9d ab bc 7e 1c 51 3c 03 b8 bd bd f0 94 a6 3c
       -0.02094902 0.012763141 -0.09263613 0.02033469
0000a0 c3 8e 19 3d b9 0f 68 bd 44 a5 fa 3d be 94 a8 bd
       0.037489664 -0.05665562 0.12238553 -0.08231495
0000b0 8e df e2 bb 60 0c 12 bc ab da 01 be 4d 4c 3d 3d
       -0.0069236225 -0.008914083 -0.12681071 0.046215344
0000c0 f1 eb d7 bd 48 12 84 3d e8 de 7e 3d 98 27 e2 3d
       -0.10543049 0.06448799 0.0622243 0.11042708
0000d0 ac 77 62 bc 1d b6 dd 3d ab c0 05 be d1 2b 77 3d
       -0.013822477 0.10825751 -0.13061778 0.06034452
0000e0 ab 37 09 3d 1f 7a 9a 3d 37 ef de bb 7e 15 fb 3d
       0.033500355 0.07542824 -0.006803419 0.12259959
0000f0 c8 37 ce bb b3 13 97 bd ad 61 6e 3e 38 d7 a2 bd
       -0.0062932707 -0.07376804 0.23279448 -0.07951206
000100 71 2d 0b bd d5 d0 0f 3c 4a 45 14 3e a0 73 24 3e
       -0.033978883 0.008777817 0.14479557 0.16059732
000110 cf 94 81 3d 86 52 8e bd ea 8c 42 3c 4c 22 1d 3d
       0.06327211 -0.06949334 0.011874417 0.038362786
000120 ec c8 dc 3d 10 4c c3 3d 28 53 a6 bd 58 b6 18 be
       0.1078051 0.09535992 -0.081213295 -0.14913309
000130 34 46 09 3d 24 2e 77 3d e5 87 f0 3d a9 51 86 3d
       0.033514217 0.060346738 0.1174467 0.06558544
000140 8c 94 e1 bd 97 c1 c3 bd 21 e3 d0 bd 79 9d fe ba
       -0.11014661 -0.09558409 -0.101995714 -0.0019425593
000150 48 33 dc bd 88 0d 8e 3b a2 d6 7f bd 24 b7 ac 3d
       -0.107519686 0.004335109 -0.06246055 0.08433369
000160 d0 43 0b bd 83 f2 e8 3c 5a 98 be 3d eb 0d 31 bc
       -0.034000218 0.028435951 0.093064025 -0.010806541
000170 50 f0 20 be bb 75 5a 3c 56 4d f7 bc 14 51 50 bc
       -0.15716672 0.013333733 -0.030188244 -0.012714643
000180 2c 9e 43 3d ea 17 1a be 9d cb 92 bc 67 3a c4 3d
       0.047758266 -0.15048185 -0.017919356 0.09581452
000190 7e 94 76 bd 71 e7 1d 3e de 58 0b bd c1 43 33 3d
       -0.060200207 0.15420319 -0.034020297 0.043765787
0001a0 49 eb 92 3b 56 41 94 3d e5 32 be 3d 95 e4 eb bb
       0.0044836146 0.07239024 0.09287051 -0.00719888
0001b0 10 9d 91 3d 7a 4d d0 bc a6 3c 0a be d1 f0 b6 3c
       0.071100354 -0.025427569 -0.13499698 0.022331627
0001c0 eb 18 4a 3d 6d 4f ae 3c e6 35 11 3d 73 b7 ef bb
       0.04934017 0.021278108 0.035451792 -0.00731557
0001d0 8f d0 fd 3c 58 09 cf bc ae c1 29 3d 7b 6b 40 bc
       0.030983238 -0.02527301 0.041444473 -0.011744375
0001e0 a2 54 3a 3b cc 16 fb bd 85 28 b4 3d b0 02 9c bd
       0.0028431793 -0.122602075 0.08796791 -0.076177
0001f0 a2 73 87 3b 56 e7 1f 3d 1a 5b 9b 3d 09 6c f5 3d
       0.0041336576 0.03903898 0.075857356 0.11983497
000200 dd 33 c2 3b 03 5e 96 3d 16 22 ab bd 2a 11 74 3c
       0.0059265927 0.0734215 -0.08356111 0.01489667
000210 8f a3 8c bc c7 6b a9 bc e2 82 9c bc 11 bb 54 3d
       -0.017167835 -0.020681275 -0.019105379 0.051936213
000220 8b 8b 42 3d aa c9 f7 bc 42 6e 8b bc 19 30 20 3d
       0.04749636 -0.030247528 -0.017020348 0.03910837
000230 5b f0 0a bb 9b 3a 73 bd 50 6e ec bc d7 d5 e6 3d
       -0.0021200392 -0.059382062 -0.028861195 0.112712555
000240 8d d4 0e bd a9 39 49 be 96 2d 45 3d 09 dc 88 3b
       -0.034870673 -0.19650902 0.048139177 0.004176621
000250 6e ab 0b be e0 60 d2 bd 21 f2 1b 3e 2f 24 d9 3d
       -0.13639614 -0.10272384 0.15229084 0.106026046
000260 2b 23 45 3d 62 af ac 3c c8 3f 6c 3c 63 c1 06 3e
       0.048129242 0.021079723 0.0144195035 0.13159709
000270 44 d8 0b bd db 73 b3 bd 6f 01 be 3d c7 ea ff bd
       -0.034141794 -0.08762332 0.09277617 -0.12495952
000280 1c f6 08 bb f1 1c 36 bd 99 d2 11 3d 74 83 23 3e
       -0.0020898646 -0.044461194 0.035601232 0.15968114
000290 1a ab 60 3e a0 b6 84 3c 5c fe 6c bd 0a 58 78 3c
       0.2194027 0.016200364 -0.057859764 0.015157709
0002a0 52 40 94 3c 1e c2 3c 3e 46 fa 71 3c 11 57 6c 3c
       0.018097077 0.18433425 0.0147691425 0.014425055
0002b0 9f f3 c0 3b 66 8c e4 3d 8f 58 a9 bd 51 f6 f9 bd
       0.005888417 0.111595914 -0.08268844 -0.12205184
0002c0 86 b7 db 3d 61 11 e5 3d 07 8e 01 be a0 dc 1b 3e
       0.10728364 0.111849554 -0.12651835 0.1522088
0002d0 3c 4e c4 3d e5 00 5c bd b2 bf e4 bd 40 e2 ed 3d
       0.095852345 -0.05371179 -0.111693755 0.116154194
0002e0 a9 d0 ce bd 43 7c 08 3c c7 fd 39 bd 4d ae ae bb
       -0.100983925 0.008330408 -0.045408037 -0.005330837
0002f0 82 25 0b 3e 27 e0 09 3e dc fe 70 be e4 17 47 3d
       0.13588527 0.13464414 -0.23534721 0.04860677
000300 59 aa 7a 3d a2 3a d8 3d c2 da 49 be cb 33 30 3e
       0.061197612 0.10558058 -0.19712356 0.17207257
000310 49 ed 19 be 9c df 3d 3e bf ff 97 3d 5c 2f b0 3b
       -0.15031923 0.18542331 0.074218266 0.0053767394
000320 7e 02 8a bd 94 2b 73 3d e1 8e 34 3d fd 10 cb 3d
       -0.067387566 0.05936773 0.044081572 0.0991535
000330 b2 3a 91 be e9 7d f0 3b 5f 07 b2 bd 3f e5 e5 3d
       -0.28365093 0.0073392284 -0.08692812 0.11225366
000340 e5 4b 03 be 2a 80 6c be 7c ef cf 3d b2 f1 fe 3c
       -0.1282192 -0.23095766 0.101531 0.031121109
000350 40 bd e0 bd aa 47 bf bd 48 a5 3a bd fd 52 1b 3d
       -0.109735966 -0.09339841 -0.04556778 0.03792094
000360 9c 83 cd bd 75 13 0d be b8 47 1f bc c6 87 86 3b
       -0.10034868 -0.13776954 -0.009721689 0.004105541
000370 7f 91 1f 3e d7 76 03 3e 36 b4 30 3e 29 18 e8 3a
       0.15582846 0.12838303 0.17256245 0.0017707396
000380 54 a5 aa bd d9 24 ff bd 22 ed b2 3d 51 3e 87 bd
       -0.08332315 -0.124582 0.08736636 -0.06603683
000390 f3 62 9b 3d c9 75 19 bc 5c ad a2 3d 69 33 40 bd
       0.075872324 -0.009366461 0.07943222 -0.04692403
0003a0 3e ca 4d 3b 6a 36 70 bb 69 61 35 be 6f 60 48 3e
       0.0031401063 -0.0036653527 -0.1771294 0.19568036
0003b0 96 a9 1c bd 11 56 8a bc d8 10 4a 3a 38 50 da bd
       -0.038247667 -0.016886743 0.00077081984 -0.10659832
0003c0 67 b3 f9 3c 3a ae 8d 3c fd 97 87 bd 40 b3 a0 bd
       0.030481054 0.017294992 -0.06620786 -0.07846689
0003d0 f2 26 66 bd 67 9e fe bb bf 81 c3 bd 78 7f 59 bd
       -0.056189485 -0.007770348 -0.095462315 -0.05310008
0003e0 2f 0a e2 bc a1 4f 04 3d 70 99 d8 3d fa 38 ba 3d
       -0.027592747 0.032302503 0.10576141 0.09092899
0003f0 d6 b2 c8 bc 79 00 c8 3c 85 00 a2 bd 7c 4a 66 ba
       -0.024499338 0.024414288 -0.07910255 -0.0008784903
