models/actor_evil64_1.pt (torch, 141218 bytes, 12 tensors)

base.feature_norm.weight f4 [425]
0	0x3fb43520	1.4078712
1	0x3fb28c49	1.3949062
2	0x3fa62092	1.297869
3	0x3fa44f4c	1.28367
4	0x3f932283	1.1494907
5	0x3f37658b	0.7163932
6	0x3f4e4756	0.805776
7	0x3f5aea5a	0.8551384
8	0x3f4bd1f8	0.7961726
9	0x3f4655a0	0.77474403
10	0x3f8e3cbf	1.1112288
11	0x3f899bff	1.0750731
12	0x3f81c9bb	1.0139688
13	0x3f4f8b82	0.8107225
14	0x3f6b3d76	0.91890657
15	0x3f79c9b8	0.97573423
16	0x3f2c658b	0.6734244
17	0x3f65aa97	0.89713424
18	0x3f79ddc5	0.9760402
19	0x3f8c1972	1.0945265
20	0x3f8998ba	1.0749733
21	0x3f4bdb8b	0.7963187
22	0x3f77f25b	0.9685418
23	0x3f804583	1.0021213
24	0x3f81b711	1.0133992
25	0x3f767d1f	0.9628467
26	0x3fa65a8f	1.2996386
27	0x3fae17e6	1.3601043
28	0x3f5d0912	0.86341965
29	0x3f8b5d09	1.0887767
30	0x3f26a076	0.65088594
31	0x3f998dda	1.1996415
32	0x3f5f61cd	0.8725861
33	0x3f90adfb	1.1303095
34	0x3f5b526d	0.85672647
35	0x3f81ed65	1.0150572
36	0x3f549a1d	0.8304766
37	0x3f5815a4	0.8440802
38	0x3f6e22a4	0.9302161
39	0x3f84baea	1.0369542
40	0x3f74f512	0.9568645
41	0x3fa0a380	1.2549896
42	0x3f885329	1.0650378
43	0x3f43aa9d	0.7643221
44	0x3f938439	1.1524726
45	0x3f83ff77	1.0312337
46	0x3f86dea9	1.05367
47	0x3f5fd3d7	0.87432617
48	0x3f8a5906	1.0808418
49	0x3fa36c55	1.2767435
50	0x3f84a49f	1.0362738
51	0x3f2c37d8	0.6727271
52	0x3f86801a	1.0507843
53	0x3f835a75	1.026198
54	0x3f7ed10d	0.99537736
55	0x3f641f49	0.8911024
56	0x3f6c32fc	0.92265296
57	0x3f89a9fc	1.0755
58	0x3f8c63d1	1.0967962
59	0x3f57a8e7	0.842421
60	0x3f9392d8	1.1529188
61	0x3f508539	0.8145328
62	0x3f8fe114	1.1240563
63	0x3f880999	1.0627929
64	0x3f70c0bb	0.94044083
65	0x3f80e701	1.0070497
66	0x3f8b4a3f	1.0882033
67	0x3f5e40c2	0.8681756
68	0x3f7141e8	0.9424119
69	0x3f69c28f	0.913125
70	0x3f60943a	0.87726176
71	0x3f3e7374	0.7439492
72	0x3f642555	0.89119464
73	0x3f7397ca	0.95153487
74	0x3f648dec	0.89279056
75	0x3f849df8	1.0360708
76	0x3f5f74c2	0.87287533
77	0x3f620cfc	0.8830106
78	0x3f56a799	0.83849484
79	0x3f84d18d	1.037645
80	0x3f69306b	0.91089505
81	0x3f9a7e6c	1.2069831
82	0x3f6abca2	0.9169408
83	0x3f83e0d9	1.0302993
84	0x3f90b9dd	1.1306721
85	0x3f81c249	1.0137416
86	0x3f6be195	0.92141086
87	0x3f866903	1.0500797
88	0x3f496fe4	0.78686357
89	0x3f4e9c60	0.8070736
90	0x3f48bc0d	0.7841194
91	0x3f383fed	0.71972543
92	0x3f4a8da5	0.7912238
93	0x3f791e8a	0.97312224
94	0x3f7315ea	0.94955313
95	0x3f752716	0.95762765
96	0x3f6160de	0.8803843
97	0x3f6b92ca	0.9202086
98	0x3f6463ca	0.89214766
99	0x3f7648dc	0.96204925
100	0x3f668f6c	0.90062594
101	0x3f70bf54	0.94041944
102	0x3f7aee3f	0.98019785
103	0x3f8143c4	1.0098805
104	0x3f87c7ca	1.0607846
105	0x3f8fe856	1.1242778
106	0x3f856073	1.0420059
107	0x3f689322	0.90849507
108	0x3f747198	0.9548583
109	0x3f7e6155	0.99367267
110	0x3f4e51b5	0.80593425
111	0x3f734542	0.95027554
112	0x3f70bba3	0.9403631
113	0x3f8dca7d	1.107742
114	0x3f8abfa0	1.0839729
115	0x3f6c50dd	0.9231089
116	0x3f8d511f	1.1040381
117	0x3f6864ac	0.90778613
118	0x3f781190	0.969018
119	0x3f5f632d	0.87260705
120	0x3f8b1048	1.0864344
121	0x3fa3b119	1.2788421
122	0x3f95bbaf	1.1697901
123	0x3f70adae	0.94015014
124	0x3f9b287a	1.2121727
125	0x3f57a22e	0.8423184
126	0x3f8171c6	1.0112846
127	0x3f87083e	1.054939
128	0x3f869b9c	1.0516238
129	0x3f727fcd	0.9472626
130	0x3f8040fe	1.0019834
131	0x3f6cdbe6	0.9252304
132	0x3f5b657d	0.85701734
133	0x3f6356dd	0.8880442
134	0x3f694f96	0.91137064
135	0x3f717288	0.94315386
136	0x3f7a7b12	0.9784404
137	0x3f89183a	1.0710518
138	0x3f6d4ffa	0.9270016
139	0x3fa6b7e2	1.3024867
140	0x3f936ec5	1.1518179
141	0x3f8bfabe	1.0935895
142	0x3f50db4f	0.8158464
143	0x3fb23601	1.3922731
144	0x3f79ac96	0.9752897
145	0x3f62ce01	0.88595587
146	0x3f5f52bb	0.8723561
147	0x3f8bc369	1.091901
148	0x3f76bdcc	0.9638336
149	0x3f66d8f1	0.90174776
150	0x3f9c8dea	1.2230809
151	0x3f8918c6	1.0710685
152	0x3f7096a3	0.93979853
153	0x3f7bc86c	0.98352695
154	0x3f724163	0.9463102
155	0x3f56e04d	0.83936006
156	0x3f800489	1.0001384
157	0x3f61bfa9	0.88183075
158	0x3f63268d	0.887307
159	0x3f5f674a	0.8726698
160	0x3f51a032	0.81885064
161	0x3f5e346e	0.8679875
162	0x3f81be65	1.0136229
163	0x3f404a4b	0.7511336
164	0x3f75bfed	0.9599598
165	0x3f69dc6d	0.9135197
166	0x3f5e56b3	0.8685104
167	0x3f36d90c	0.7142494
168	0x3f7b5931	0.9818297
169	0x3f6e44ee	0.9307393
170	0x3fa00e34	1.2504334
171	0x3f2e66cf	0.68125623
172	0x3f4ba44a	0.7954756
173	0x3f3c2323	0.73491114
174	0x3f4b8661	0.7950192
175	0x3f4894a3	0.783518
176	0x3f6cd172	0.9250709
177	0x3f7f3783	0.9969408
178	0x3f8dbf20	1.1073952
179	0x3f658aa0	0.8966465
180	0x3f943fda	1.1581986
181	0x3f888c91	1.0667897
182	0x3f876577	1.057784
183	0x3f74e451	0.95660883
184	0x3f718390	0.94341373
185	0x3f779381	0.9670945
186	0x3f97d8fe	1.1863096
187	0x3f8f1bd6	1.118037
188	0x3f9cd0ff	1.225128
189	0x3fa76294	1.3076959
190	0x3f5cd4e3	0.8626234
191	0x3f7eec70	0.99579525
192	0x3f776ced	0.9665058
193	0x3f8c27d2	1.0949652
194	0x3f4bee3d	0.796604
195	0x3f8e641a	1.1124299
196	0x3f8351b4	1.0259309
197	0x3f8513eb	1.0396703
198	0x3f7a9a30	0.9789152
199	0x3f2f8159	0.68556744
200	0x3f7da408	0.99078417
201	0x3f8a3b09	1.0799266
202	0x3f7e720f	0.9939279
203	0x3f9ec025	1.2402388
204	0x3f9bcfe5	1.2172819
205	0x3f98ad42	1.1927874
206	0x3f7f6491	0.9976283
207	0x3f9d97fc	1.2312007
208	0x3f516cba	0.8180653
209	0x3f82ecf1	1.0228559
210	0x3f898bd6	1.07458
211	0x3f8ae805	1.0852057
212	0x3f7661f4	0.96243215
213	0x3f55a60b	0.83456486
214	0x3f509ad4	0.8148625
215	0x3f911330	1.133398
216	0x3f7c0daf	0.9845838
217	0x3f869b08	1.0516062
218	0x3f81b323	1.0132793
219	0x3f996bf5	1.1986071
220	0x3fa7ef8e	1.3119981
221	0x3f89be41	1.0761186
222	0x3f8511fb	1.0396112
223	0x3f766a6d	0.9625614
224	0x3f833ee4	1.0253568
225	0x3f78db39	0.9720951
226	0x3f6abca2	0.9169408
227	0x3f94b3f6	1.161742
228	0x3f80c449	1.0059901
229	0x3f46406c	0.7744205
230	0x3f967c92	1.1756766
231	0x3f92fd7f	1.1483611
232	0x3f9632da	1.1734269
233	0x3f7e8127	0.9941582
234	0x3fa9785b	1.3239855
235	0x3f5e190f	0.86756986
236	0x3f6f6aa7	0.93522114
237	0x3f61e141	0.88234335
238	0x3f5d9086	0.8654865
239	0x3f5414fa	0.8284451
240	0x3f56dee1	0.83933836
241	0x3f88f5fd	1.070007
242	0x3f78ee48	0.9723859
243	0x3f6a36aa	0.9148966
244	0x3f93fc31	1.1561338
245	0x3f6ba85e	0.9205378
246	0x3f689c9d	0.9086397
247	0x3fa5915c	1.2934985
248	0x3f8fae3d	1.1225048
249	0x3f98b824	1.1931195
250	0x3f8c5c0e	1.0965593
251	0x3f8a4846	1.0803306
252	0x3f92c541	1.1466447
253	0x3f967af5	1.1756274
254	0x3f50a5e0	0.81503105
255	0x3f5c5c45	0.8607829

base.feature_norm.bias f4 [425]
0	0xbd9b344e	-0.07578336
1	0x3d0e6a6f	0.03476947
2	0xbd755a7d	-0.05990075
3	0xbcee56b2	-0.029094074
4	0x3d2b4e16	0.041822515
5	0xbe9af262	-0.30263048
6	0x3e6d45b0	0.23171115
7	0x3e17e521	0.148335
8	0x3e3f4543	0.18678765
9	0x3e49e50c	0.1971628
10	0xbdca1c0c	-0.09868631
11	0x3cd302e1	0.025758209
12	0xbde9e14c	-0.11419925
13	0xbc0b2fe4	-0.008495305
14	0xbe2bf707	-0.16793452
15	0xbe1fbb89	-0.15598883
16	0xbe2d7436	-0.16938862
17	0xbde04c4c	-0.109520525
18	0xbd871ee9	-0.065976925
19	0xbde812a0	-0.113316774
20	0xbdabf56b	-0.08396419
21	0x3b5df59c	0.0033868318
22	0x3a4194e4	0.0007384552
23	0xbe19f9ba	-0.1503667
24	0x3c2f3b8d	0.01069535
25	0xbdf43ae4	-0.11925295
26	0x3d46bc23	0.048519265
27	0x3d524b26	0.0513412
28	0xbda0158d	-0.078166105
29	0xbcda6d91	-0.026663573
30	0xbdeed54a	-0.116617754
31	0xbdc96c15	-0.09835068
32	0xbdbd6e4b	-0.09249552
33	0xbcbb71b5	-0.022881368
34	0xbdb48b3e	-0.08815621
35	0x3ce89c05	0.028394708
36	0xbc66b9df	-0.014082401
37	0xbdfc315a	-0.123141006
38	0xbe0c7513	-0.13716535
39	0xbcdd69ca	-0.027027983
40	0x3d8cfb3e	0.06883858
41	0xbda344b6	-0.0797209
42	0x3e042800	0.12905884
43	0x3d709735	0.058737952
44	0x3cc678ec	0.024227582
45	0xbc098ce0	-0.008395404
46	0x3c192a7d	0.009348509
47	0x3d2a921b	0.041643243
48	0x3d216a42	0.039407976
49	0xbd9c94ce	-0.0764557
50	0x3c931b6c	0.017957412
51	0x3cabc795	0.020969192
52	0x3d222b62	0.039592154
53	0xbd22ec67	-0.039776232
54	0x3e067986	0.13132295
55	0x3e0640a7	0.131106
56	0x3e1b57d1	0.15170218
57	0xbcd3095a	-0.025761295
58	0x3dc38754	0.09547296
59	0x3e39baa8	0.1813761
60	0x3d6267ca	0.055274762
61	0x3e039dcd	0.12853165
62	0xbb8e703e	-0.0043468764
63	0x3dc859e1	0.09782768
64	0x3bf25432	0.007395291
65	0x3d2edef0	0.04269308
66	0x3d33823c	0.043825373
67	0x3e00be9b	0.1257271
68	0xbc89ccbe	-0.016821261
69	0x3d942188	0.07232958
70	0x3e205dbf	0.15660761
71	0x3e639a0a	0.2222673
72	0x3df8b7fe	0.12144469
73	0x3d6c813e	0.057740442
74	0x3e42d77a	0.1902751
75	0x3e2eaca4	0.17058045
76	0x3e448562	0.19191507
77	0x3e4c36cc	0.19942778
78	0x3d7ae337	0.061251845
79	0x3e84590b	0.25849184
80	0x3e128037	0.14306723
81	0x3d25939c	0.040423974
82	0x3decd29e	0.115636095
83	0x3dd33a6d	0.10313878
84	0x3e3c425b	0.18384688
85	0x3dc1006a	0.09423907
86	0xbdc10406	-0.094245955
87	0xbd847517	-0.064676456
88	0x3e53206a	0.20617834
89	0x3e5fbb72	0.21848848
90	0x3e3aaa29	0.18228973
91	0x3e52342e	0.20527717
92	0x3e2832ed	0.16425677
93	0x3bf3abcd	0.0074362517
94	0x3d994720	0.07484269
95	0xbda3bbcb	-0.07994803
96	0x3d2c0bd9	0.042003486
97	0xbd8d01f5	-0.06885139
98	0xbc8ad9fa	-0.016949642
99	0xbd8c7962	-0.068590894
100	0xbe27aa8a	-0.16373649
101	0xbe379667	-0.17928468
102	0xbdc40476	-0.09571163
103	0x3a572a81	0.00082079327
104	0x3da456aa	0.08024342
105	0x3d50c7bb	0.050971728
106	0xbc8c77e2	-0.017147008
107	0xbcda1ecc	-0.026626013
108	0x3d179e42	0.03701616
109	0x3de6c947	0.11268859
110	0xbd2b92b3	-0.04188795
111	0x3decbc78	0.11559385
112	0x3d10bf24	0.035338536
113	0xbd8c1f79	-0.068419404
114	0xbca8ee62	-0.020621482
115	0x3b2b674e	0.0026154104
116	0x3d0fa984	0.035073772
117	0xbdc769dc	-0.09736988
118	0xbb04ea88	-0.0020281393
119	0x3e2e446d	0.1701829
120	0x399ce7c4	0.00029927318
121	0x3d956afe	0.07295798
122	0x3cf4191d	0.029797131
123	0x3db56743	0.08857586
124	0x3cad06a8	0.021121338
125	0xbc015a39	-0.007895046
126	0x3d91fed0	0.0712868
127	0x3d3cb982	0.04607535
128	0xbdf462d0	-0.119329095
129	0xbcf855d8	-0.030314371
130	0xbe2c49ec	-0.16825074
131	0xbe0df0f9	-0.13861455
132	0xbd9c6c85	-0.07637886
133	0xbdceffa2	-0.10107352
134	0x3d395b77	0.045253243
135	0x3ce0da61	0.027447881
136	0x3bffa31c	0.0078014266
137	0x3d2e96a4	0.04262413
138	0x3d737702	0.059439667
139	0xbd5026e9	-0.050818358
140	0x3b69eac2	0.0035692905
141	0x3d668af8	0.056284875
142	0x3e091fa0	0.1339097
143	0xbd3a21b7	-0.04544231
144	0x3d5d5a8a	0.054041423
145	0x3d13ffa6	0.036132477
146	0xbe1499f2	-0.1451185
147	0xbd3ab386	-0.045581363
148	0xbcd8673f	-0.02641642
149	0x3d91dc9a	0.071221545
150	0xbd16e6b6	-0.036841117
151	0x3d1f1da7	0.038846638
152	0x3d9a0c39	0.075218625
153	0x3dc36a2a	0.095417336
154	0x3df85cba	0.12127061
155	0x3ddf8adc	0.10915157
156	0x3d7bd3b5	0.061481196
157	0x3d4096ba	0.047018744
158	0x3d05e5f5	0.032690007
159	0x3c361a49	0.011114665
160	0x3d0f5867	0.034996416
161	0x3d83a7f7	0.06428521
162	0x3e243e0d	0.16039295
163	0x3e36ae90	0.17840028
164	0x3cc0d196	0.023537438
165	0x3d5d7dd0	0.054075062
166	0xbcdee430	-0.027208418
167	0x3de2049e	0.11036037
168	0x3ddec5fe	0.10877608
169	0xbda36b45	-0.079794444
170	0x3c8c0ba3	0.017095393
171	0x3e6a726c	0.22895211
172	0x3e54686b	0.20742957
173	0x3e56b5ea	0.20967832
174	0x3e4f2e9a	0.20232621
175	0x3e4231c6	0.189643
176	0xbd251bf1	-0.04030985
177	0x3d3588ee	0.04432004
178	0x3e08dde0	0.13365889
179	0xbdcc9711	-0.09989751
180	0xbcea2ffa	-0.02858733
181	0x3a111ca7	0.00055355806
182	0xbd804d96	-0.06264798
183	0xbda81ff0	-0.082092166
184	0x3d5c9e21	0.05386174
185	0xba65a5a6	-0.000876034
186	0x3de63472	0.11240472
187	0x3dba3ea5	0.0909398
188	0xbcb4862f	-0.02203664
189	0x3e082f7b	0.13299362
190	0x3df0f0d3	0.117646836
191	0xbbd8417b	-0.0065996028
192	0xbda49c01	-0.08037568
193	0x3d96d482	0.073647514
194	0x3e388d02	0.1802254
195	0xbd9e9d5e	-0.07744859
196	0xbd621313	-0.05519397
197	0xbcfb7a1d	-0.030697877
198	0x3d1d9af5	0.038477857
199	0xbd4e0c02	-0.05030442
200	0xbdd952c5	-0.1061149
201	0xbaa69f4e	-0.0012712271
202	0x3e083168	0.13300097
203	0xbd2c3719	-0.042044733
204	0x3d4458f3	0.04793639
205	0x3de64a3a	0.11244626
206	0x3d57ce97	0.052687254
207	0xbc498ac1	-0.012301148
208	0xbdf6a129	-0.120424576
209	0x3d36d5b9	0.044637416
210	0x3e3e8dbe	0.18608758
211	0xbd82870b	-0.06373414
212	0x3d4f1899	0.050560568
213	0x3b4ba8b5	0.00310759
214	0xbd68c2dc	-0.056826457
215	0x3d327b77	0.043574777
216	0x3e01c638	0.1267327
217	0x3df17b63	0.11791112
218	0x3d130dd0	0.035901845
219	0x3d6dbe71	0.058042947
220	0x3def2f49	0.11678941
221	0x3e07bd01	0.13255693
222	0x3d92df45	0.071714915
223	0xbc04a8b7	-0.008096865
224	0x3d2b1b6e	0.041774206
225	0x3d4dae49	0.05021504
226	0x3deb14cc	0.11478576
227	0x3b9ee5ca	0.0048491703
228	0x3db1ed83	0.0868788
229	0xbd55f758	-0.05223784
230	0x3cd5a71b	0.026080659
231	0xbcf1ec89	-0.029531734
232	0x3dad07a4	0.08448723
233	0x3da5069b	0.080579005
234	0x3d4ee643	0.050512563
235	0x3d2a5a44	0.04158999
236	0x3e0ebda8	0.13939536
237	0x3e4ab8c3	0.19797044
238	0x3e27333b	0.16328137
239	0x3e2acdb1	0.16680028
240	0x3dc19807	0.09452825
241	0x3e3c3a00	0.183815
242	0x3e0da403	0.13832097
243	0x3d85137a	0.064978555
244	0x3dec98e5	0.115526
245	0x3e01a637	0.12661062
246	0x3e124c0e	0.14286825
247	0x3d8ab51c	0.06772825
248	0xbd5de0ec	-0.05416958
249	0x3d992ac6	0.074788615
250	0x3d34ca32	0.04413814
251	0x3e21f60d	0.15816517
252	0x3dd46e23	0.103725694
253	0xbac2640b	-0.001483084
254	0x3e2f4556	0.17116293
255	0x3dcb1c04	0.09917453

base.mlp.fc1.0.weight f4 [64, 425]
0	0xbe875e11	-0.26438954
1	0xbe340b28	-0.17582381
2	0x3d7eb130	0.062180698
3	0xbf0e433f	-0.5557136
4	0x3e587d1c	0.21141475
5	0xbe811249	-0.25209263
6	0xbe327c2e	-0.17430183
7	0xbd77214e	-0.060334496
8	0xbe2c76b9	-0.16842164
9	0xbd118c28	-0.035534054
10	0xbd81b09e	-0.06332515
11	0xbe3d9857	-0.18515144
12	0x3c156a20	0.00911954
13	0xbd9ecfb5	-0.07754461
14	0x3d20bb84	0.03924133
15	0x3e53d875	0.2068804
16	0xbe4a58ee	-0.19760486
17	0xbdd50922	-0.104021326
18	0xbe5f419f	-0.21802376
19	0xbcd26729	-0.025683956
20	0xbe109bed	-0.14121981
21	0x3e79ba44	0.24387461
22	0x3de69b6a	0.11260112
23	0xbe431a6d	-0.1905305
24	0x39453752	0.00018807992
25	0x3e211257	0.15729652
26	0xbe7e707a	-0.24847594
27	0xbe8068b7	-0.2507989
28	0x3c1fe0ce	0.009758187
29	0xbe420cb9	-0.18950166
30	0xbd35e718	-0.04440984
31	0x3e1d985f	0.15390156
32	0xbe63e58c	-0.22255534
33	0xbe41f8d7	-0.18942581
34	0xbd9de16e	-0.07709013
35	0xbdf4f975	-0.11961643
36	0xbbf661d7	-0.0075189876
37	0xbd993792	-0.07481302
38	0x3cd37fbb	0.025817743
39	0xbe41b486	-0.1891652
40	0xbe3a956e	-0.18221065
41	0x3e1f988e	0.15585539
42	0xbdc579f6	-0.09642403
43	0xbd641aa6	-0.055689476
44	0xbc884349	-0.016633647
45	0x3d93f684	0.072247535
46	0xbe8b7167	-0.27234957
47	0xbc5a2cd0	-0.013316348
48	0xbe72121c	-0.2363972
49	0xbd24dc57	-0.040249195
50	0xbe338303	-0.17530446
51	0xbd407818	-0.04698953
52	0xbd66a9b9	-0.056314204
53	0xbdffb924	-0.12486485
54	0xbdfb7e4a	-0.12279947
55	0x3de40324	0.111334115
56	0xbe62d4c3	-0.22151475
57	0x3e9dbfb6	0.30810326
58	0xbd17bd15	-0.037045557
59	0xbd5b5769	-0.053550158
60	0xbe3155e8	-0.17317927
61	0xbdddcec8	-0.10830456
62	0x3e1282e0	0.14307737
63	0x3deb8721	0.11500383
64	0x3db4a178	0.0881986
65	0x3d37fd4d	0.0449193
66	0xbe955187	-0.29163763
67	0xbcac76a2	-0.021052662
68	0xbe01f2c9	-0.12690271
69	0xbe216ec5	-0.15764911
70	0xbdb30039	-0.08740277
71	0xbdfbc41c	-0.12293264
72	0x3d55c2af	0.052187618
73	0xbd1e1b03	-0.03859998
74	0xbb1448f1	-0.0022626484
75	0x3da95b5e	0.0826938
76	0xbe5c1e50	-0.21495938
77	0xbe9b4b18	-0.3033073
78	0x3adc4010	0.001680376
79	0xbd7f9ad4	-0.062403515
80	0xbe53d0cd	-0.2068512
81	0xbe6b6c00	-0.22990417
82	0xbd2af0a4	-0.0417334
83	0xbe254eb8	-0.1614331
84	0x3d905b36	0.07048647
85	0xbe564e9c	-0.20928425
86	0x3d525eed	0.05136006
87	0x3e7bbd45	0.2458392
88	0xbe0e1780	-0.13876152
89	0xbdd31fe0	-0.10308814
90	0x3c972633	0.018450832
91	0xbdc6b904	-0.09703258
92	0x3d753260	0.059862494
93	0x3ca79ced	0.02046057
94	0x3dd586e5	0.1042612
95	0xbda08840	-0.078384876
96	0xbd566a67	-0.052347567
97	0xbdac5171	-0.08413971
98	0x3d50d494	0.05098398
99	0xbe30baf0	-0.17258811
100	0x3c9d152a	0.01917513
101	0x3e8272b5	0.2547814
102	0x3dc67340	0.09689951
103	0x3e4069ab	0.18790309
104	0x3e55ca52	0.2087796
105	0x3d8408ca	0.06446989
106	0xbd2bc610	-0.041936934
107	0x3d8a15c5	0.067424335
108	0x3e5a39ae	0.21311066
109	0x3d46cfde	0.04853808
110	0x3ddd45cb	0.108043276
111	0xbd690309	-0.05688766
112	0x3b8b5221	0.004251734
113	0xbbe673f5	-0.007032866
114	0x3e41349f	0.1886773
115	0x3d3201e6	0.04345884
116	0x3dea2a4b	0.11433848
117	0x3e036f32	0.12835386
118	0x3c2ee514	0.010674734
119	0x3eec59ce	0.46162266
120	0xbdd5f66b	-0.10447391
121	0xbdcb46f2	-0.09925641
122	0x3daacb20	0.08339524
123	0x3d277cac	0.04089038
124	0xbe196805	-0.14981087
125	0x3e637e4b	0.22216146
126	0x3d9b8646	0.0759397
127	0xbe259206	-0.16168985
128	0x3e36704a	0.17816272
129	0x3dfe04e8	0.124032795
130	0x3d9eecfd	0.07760046
131	0xbcf63c77	-0.030058129
132	0x3e6699c8	0.225196
133	0x3e537ff0	0.20654273
134	0x3e3cf6c0	0.18453503
135	0x3e2b1a2c	0.16709203
136	0x3e03d27e	0.12873265
137	0xbe2aadea	-0.16667905
138	0xbdc3b016	-0.0955507
139	0xbe2d1c81	-0.16905405
140	0x3ad1cc9c	0.0016006413
141	0x3e13f066	0.14447173
142	0x3d186fc9	0.03721598
143	0xbf199791	-0.59996897
144	0xbe948cb2	-0.29013592
145	0xbde11eb1	-0.10992182
146	0xbda4cd3f	-0.0804696
147	0x3d8b8161	0.068117864
148	0x3e2e8c32	0.17045668
149	0xbeb6f5b7	-0.3573434
150	0xbea48626	-0.32133597
151	0xbcb3e9cc	-0.021962069
152	0xbcd4195a	-0.025890995
153	0x3e89cb96	0.26913136
154	0xbe1a6c94	-0.15080482
155	0x3daa2423	0.08307674
156	0xbdafa0a7	-0.08575564
157	0x3e056f72	0.13030794
158	0x3e655b53	0.22398119
159	0xbd3c6347	-0.045993116
160	0x3ddf1e2d	0.108944274
161	0xbd86edd6	-0.06588332
162	0xbddb9800	-0.10722351
163	0x3ddd1702	0.10795404
164	0xbe832637	-0.25615093
165	0xbe1eb361	-0.15498115
166	0x3dd43bda	0.10362978
167	0xbde95672	-0.11393441
168	0x3d25fe0e	0.04052549
169	0x3e803894	0.25043166
170	0x3e26754d	0.16255684
171	0xbd6e162b	-0.05812661
172	0x3d017318	0.031603903
173	0xbdd2cd75	-0.10293094
174	0xbd92da40	-0.07170534
175	0xbe47da8b	-0.19516961
176	0x3d6f7cb3	0.05846853
177	0x3b9a4d24	0.004708903
178	0x3d255aa5	0.04036965
179	0x3cd24511	0.025667699
180	0x3e125906	0.14291772
181	0x3dd0631f	0.10175156
182	0x3e2086fb	0.15676491
183	0x3d228c5f	0.03968465
184	0x3cd667fe	0.026172634
185	0x3cdfed34	0.027334787
186	0x3d5eaa3d	0.05436157
187	0x3c9880a7	0.018616034
188	0xbd169894	-0.036766604
189	0xbde0b980	-0.10972881
190	0x3e2a5aa0	0.16636133
191	0x3d75b0e2	0.05998314
192	0x3c89fb4c	0.01684346
193	0xbe40091d	-0.18753476
194	0x3d56b53d	0.052418936
195	0x3e712411	0.23548914
196	0x3e46ee40	0.19426823
197	0xbee2ebff	-0.44320676
198	0xbe1e4827	-0.15457211
199	0x3e2a7306	0.1664544
200	0x3e5c22cb	0.21497647
201	0x3df5f21b	0.120090686
202	0x3ca6ed1d	0.020376736
203	0xbe6fd745	-0.23421963
204	0xbe732fdb	-0.23748724
205	0xbd14383a	-0.036186434
206	0x3e2efdea	0.17089048
207	0x3d7d8689	0.06189588
208	0xbd384227	-0.044984963
209	0xbe37bf6f	-0.1794412
210	0xbe005a88	-0.12534535
211	0xbe5f457a	-0.21803847
212	0x3d83cb91	0.064353116
213	0x3c820838	0.01587306
214	0xbde32fc8	-0.11093098
215	0x3b957f69	0.0045623076
216	0xbe0203fd	-0.12696834
217	0x3eb289ff	0.34870908
218	0xbdf01b87	-0.117240004
219	0xbdb246a6	-0.08704881
220	0x3e7e4f74	0.24834996
221	0x3cd63d2b	0.026152214
222	0xbd747508	-0.059681922
223	0xbdd9fa3f	-0.10643434
224	0xbeae77de	-0.34075826
225	0x3ce9e7a4	0.028552838
226	0x3e0f1643	0.13973336
227	0xbe2a7cbc	-0.16649145
228	0xbe582a06	-0.2110978
229	0x3cf965df	0.030444084
230	0xbde428ce	-0.111405954
231	0x3e315e0a	0.1732103
232	0xbe569aa2	-0.20957425
233	0xbdc8fab7	-0.09813445
234	0xbdbe75a5	-0.09299783
235	0xbe2e34f8	-0.17012393
236	0x3d9dc1c4	0.077029735
237	0x3ccc5822	0.024944369
238	0x3d9085d6	0.07056777
239	0x3df17d86	0.1179152
240	0xbe401b6c	-0.1876046
241	0xbe94b2a1	-0.29042533
242	0x3e0b5440	0.13606358
243	0xbe0a342d	-0.13496466
244	0x3e0fb225	0.140328
245	0x3d3ddb77	0.046351876
246	0xbc86c4ca	-0.016451258
247	0xbe43d150	-0.19122815
248	0xbbf14e5b	-0.007364077
249	0x3dbcbcff	0.09215736
250	0x3dc3c80f	0.095596425
251	0xbddf2705	-0.10896114
252	0xbe3a4373	-0.18189792
253	0x3dee01fa	0.11621471
254	0xbd5d8170	-0.05407852
255	0x3cebe22e	0.028794374

base.mlp.fc1.0.bias f4 [64]
0	0xbcfa3874	-0.030544497
1	0x3d753751	0.059867207
2	0xbc2cd63a	-0.0105491225
3	0x3b68f7d5	0.003554811
4	0xbc60ff39	-0.013732725
5	0xbc36b5de	-0.011151759
6	0xbd777a38	-0.06041929
7	0x3d4f061c	0.050542936
8	0xbd701731	-0.058615867
9	0x3c1fc3ed	0.009751302
10	0x3d9ef249	0.07761056
11	0x3cf6d16d	0.030129159
12	0x3d3b92c1	0.045794252
13	0x3deaa9db	0.114581786
14	0x3c956ee4	0.018241353
15	0xbe3b82a8	-0.1831156
16	0x3d9261a3	0.07147529
17	0x3c8f4da5	0.017493078
18	0xbc4dbaec	-0.012556773
19	0xbd244938	-0.04010889
20	0xbdfb36f9	-0.122663446
21	0x3e04ce6e	0.12969372
22	0x3da77760	0.08177066
23	0x3d1dd9df	0.038537856
24	0xbc2f0e8c	-0.010684621
25	0xbc201ecc	-0.009772968
26	0x3ccebbae	0.025235977
27	0xbdcb9deb	-0.0994223
28	0x3db3b62e	0.087749824
29	0x3cb7b379	0.022424446
30	0xbddcde3d	-0.10784576
31	0xbd92959c	-0.07157442
32	0x3d753b0d	0.05987077
33	0x3ba9b81a	0.0051794173
34	0xbd7cb931	-0.06170005
35	0x3b541813	0.0032362982
36	0x3d6ad066	0.05732765
37	0xbbbc2039	-0.005741146
38	0x3cdfa37e	0.027299639
39	0x3c83dbec	0.016096078
40	0x3c34e54d	0.011040998
41	0xbd0bb191	-0.034104887
42	0xbb6c1d7a	-0.0036028312
43	0xbcbc0264	-0.022950359
44	0xbe4368ac	-0.19082898
45	0x3d990e6d	0.074734546
46	0xbdd34fe2	-0.10317971
47	0xbd137e3c	-0.03600906
48	0x39f2dfe4	0.00046324648
49	0x3dd8d493	0.1058742
50	0xbbe115d9	-0.0068690595
51	0xbd8b0400	-0.06787872
52	0x3dad6f31	0.08468474
53	0x3d0a3756	0.03374418
54	0xbd7ae554	-0.06125386
55	0xbdd73e54	-0.10509935
56	0xbd2b52dc	-0.041827068
57	0x3c83a042	0.016067628
58	0x3d3c9757	0.046042766
59	0x3d2ff6ed	0.042960096
60	0x3d4ee3a3	0.05051006
61	0x3b6c07cc	0.003601539
62	0xbe22a0dc	-0.15881675
63	0xbd0a30bd	-0.033737887

base.mlp.fc1.2.weight f4 [64]
0	0x3f8b8efe	1.0903013
1	0x3f911623	1.133488
2	0x3f7aaf55	0.97923785
3	0x3f6e7a96	0.931558
4	0x3f91dcf4	1.1395555
5	0x3f967ba6	1.1756485
6	0x3f8e034d	1.1094757
7	0x3f89144a	1.0709317
8	0x3f75e4c0	0.9605217
9	0x3f9661b3	1.1748565
10	0x3f858f20	1.0434303
11	0x3f8bb619	1.0914947
12	0x3f885451	1.0650731
13	0x3f99424d	1.1973358
14	0x3f8f3ab5	1.1189791
15	0x3f52fc53	0.82416266
16	0x3f766f70	0.9626379
17	0x3f6b5d10	0.9193888
18	0x3f7b20cf	0.98096937
19	0x3f8833cf	1.0640811
20	0x3f6e94c2	0.93195736
21	0x3fa5afe5	1.2944304
22	0x3f95d4ed	1.1705605
23	0x3f7c8f57	0.9865622
24	0x3f898936	1.0744998
25	0x3f797152	0.9743854
26	0x3f719e01	0.9438172
27	0x3f8ab74e	1.083719
28	0x3f8b0aa9	1.0862628
29	0x3f94664f	1.1593722
30	0x3f9b74c8	1.2145014
31	0x3f6d3bea	0.92669547
32	0x3f77b9cf	0.96767896
33	0x3f8806a4	1.0627027
34	0x3f6e660b	0.93124455
35	0x3f5bf1bb	0.85915726
36	0x3f98f635	1.1950136
37	0x3f78bc49	0.971623
38	0x3f8cdb42	1.1004412
39	0x3fa5b510	1.2945881
40	0x3f8b19d6	1.086726
41	0x3f701981	0.93788916
42	0x3f8bc46a	1.0919316
43	0x3f85093d	1.0393444
44	0x3f922efd	1.142059
45	0x3f8ddbe1	1.1082727
46	0x3f98eb54	1.1946816
47	0x3f71493a	0.9425236
48	0x3f8f2b90	1.1185169
49	0x3f931aa0	1.14925
50	0x3f9dccec	1.2328162
51	0x3f85198b	1.039842
52	0x3f6fb8ea	0.9364153
53	0x3f614c8a	0.88007414
54	0x3f899825	1.0749556
55	0x3f5e93cb	0.86944264
56	0x3f977801	1.1833497
57	0x3f663aec	0.8993366
58	0x3f72c3db	0.948301
59	0x3f93dcc2	1.1551745
60	0x3f9719df	1.180477
61	0x3f8408fc	1.0315242
62	0x3f7d7aed	0.99015695
63	0x3f686e82	0.9079362

base.mlp.fc1.2.bias f4 [64]
0	0x3da17596	0.07883756
1	0x3c4e880d	0.012605679
2	0xbd822f15	-0.063566364
3	0x3988336b	0.0002597825
4	0xbda1952c	-0.078897804
5	0xbdb28c27	-0.08718138
6	0x3d922a8a	0.0713702
7	0x3e0c8079	0.13720883
8	0x3e016b17	0.12638508
9	0xbdb5431c	-0.08850691
10	0xbc9436e1	-0.018092575
11	0xbd7f3dea	-0.062314905
12	0xbaf9a1bd	-0.0019045394
13	0x3d1a2324	0.03763117
14	0x3c2132e3	0.0098387925
15	0x3ddd6eb1	0.10812128
16	0x3d92e333	0.07172241
17	0x3c81d5ce	0.01584902
18	0x3c33bf38	0.010970883
19	0x3e10bcb6	0.14134488
20	0x3d747bee	0.0596885
21	0xbdb2a6eb	-0.08723243
22	0x3d7580c5	0.059937257
23	0x3e1cb4f1	0.15303399
24	0xbe2f9f3a	-0.17150584
25	0xbd458b07	-0.04822829
26	0x3d74723f	0.059679266
27	0x3d6214a6	0.055195473
28	0x3d8c83c0	0.06861067
29	0xbc2d8598	-0.010590933
30	0xbe06ad64	-0.13152081
31	0xbd8b0521	-0.06788088
32	0x3d230f9e	0.039809816
33	0x3ddfd3bf	0.10929059
34	0x3db3b44c	0.08774623
35	0x3dec6fb2	0.11544742
36	0xbcac791e	-0.021053847
37	0x3cf3be11	0.029753717
38	0xbdc2f9e1	-0.09520317
39	0xbe1b931d	-0.15192838
40	0x3dda467f	0.10657977
41	0xbd520533	-0.05127449
42	0x3d769b4c	0.060206696
43	0x3e35ad31	0.17741849
44	0xbd9a3a03	-0.07530596
45	0x3de56d49	0.11202485
46	0xbdbf3f14	-0.09338203
47	0xbc93a580	-0.018023252
48	0xbdc7c020	-0.09753442
49	0x3e3587f4	0.17727643
50	0xbd5f11f5	-0.054460485
51	0x3ca28317	0.0198379
52	0x3d3ad0b4	0.04560919
53	0x3ae773b4	0.0017658384
54	0x3c14b45f	0.009076207
55	0x3dd5b110	0.104341626
56	0x3dca6da4	0.098841935
57	0x3d8cb0aa	0.068696335
58	0x3e295bfd	0.16538997
59	0x3b1f0238	0.0024262797
60	0x3d4db6f0	0.05022329
61	0x3c30001c	0.010742214
62	0xbd313faf	-0.043273624
63	0x3e46c48a	0.19410911

base.mlp.fc2.0.0.weight f4 [64, 64]
0	0x3e73b321	0.23798801
1	0x3d8cfbaa	0.068839386
2	0x3ed5a600	0.4172821
3	0x3ba59923	0.0050536557
4	0xbe856fde	-0.2606191
5	0x3dde410e	0.10852252
6	0xbdb911cb	-0.09036597
7	0xbef54769	-0.47906044
8	0x3e051a59	0.12998332
9	0xbd56ec1c	-0.052471265
10	0x3ddbf1f3	0.107395075
11	0xbd59bde3	-0.053159606
12	0xbeb8c657	-0.3608882
13	0x3efba162	0.49146563
14	0xbd094ac8	-0.033518583
15	0x3d8777a5	0.06614617
16	0xbd772499	-0.060337637
17	0x3e1b7757	0.15182243
18	0x3e13feff	0.14452742
19	0x3d40e32c	0.047091648
20	0xbdf05124	-0.11734226
21	0x3f2ad63c	0.66733146
22	0xbe4326fa	-0.19057837
23	0x3e1d049f	0.15333794
24	0x3e5fe93f	0.2186632
25	0xbbe7dd0e	-0.0070759123
26	0xbcd0dc2e	-0.025495615
27	0xbb316220	-0.0027066544
28	0x3dbb4185	0.09143356
29	0x3edd2c59	0.43197897
30	0xbe20faef	-0.15720724
31	0x3de7a724	0.113111764
32	0x3d71798e	0.058953814
33	0xbf04c17d	-0.5185774
34	0xbe36d431	-0.17854382
35	0x3ba55e55	0.0050466456
36	0x3de38ec0	0.11111212
37	0xbedca6d2	-0.43096024
38	0x3b95b16a	0.0045682685
39	0xbec1abb9	-0.37826326
40	0x3dced97a	0.10100074
41	0x3e42a728	0.19009078
42	0xbecc6fc6	-0.39929026
43	0x3e66b391	0.22529437
44	0x3e385c37	0.18003927
45	0x3d64e575	0.05588289
46	0x3e473799	0.19454803
47	0xbd7bdfdd	-0.06149279
48	0xbd72ba26	-0.059259556
49	0xbd872ae1	-0.065999754
50	0xbe556281	-0.20838358
51	0xbd7cf74b	-0.061759274
52	0xbedbf0e9	-0.42957237
53	0x3da1c56e	0.07898985
54	0xbda20fb7	-0.079131536
55	0xbd981725	-0.074262895
56	0xbc0a9e44	-0.008460585
57	0x3d76dd4e	0.060269646
58	0xbde13b5e	-0.109976515
59	0xbdc0c43e	-0.0941243
60	0xbe4b82b5	-0.1987408
61	0x3c10681d	0.008813885
62	0x3e96ee57	0.29478714
63	0x3e3f8651	0.18703581
64	0x3cc42e29	0.023947792
65	0x3f315f39	0.69285923
66	0xbde60c6b	-0.11232837
67	0x3e8b05e6	0.27152938
68	0x3ded9956	0.11601512
69	0x3e306852	0.17227295
70	0x3ea293f0	0.31753492
71	0xbebefa26	-0.37300223
72	0x3e0abbc7	0.13548194
73	0xbe1b1e8f	-0.15148376
74	0x3ddef9fe	0.10887526
75	0x3d73b41a	0.05949793
76	0x3e21666c	0.15761727
77	0xbe008e0e	-0.1255419
78	0xbe97cac6	-0.2964689
79	0xbde55706	-0.11198239
80	0x3e5d34d6	0.21602187
81	0x3ec62962	0.38703448
82	0x3d822392	0.06354441
83	0xbeba4040	-0.36377144
84	0x3d9957af	0.074874274
85	0x3eef0a67	0.46687624
86	0x3cbfca96	0.02341203
87	0x3c709ed7	0.014686308
88	0xbc749b4d	-0.014929605
89	0x3d373fa0	0.044738412
90	0xbe8efc2e	-0.27926773
91	0x3e3bda59	0.18345012
92	0x3eb42915	0.35187593
93	0xbe25c7db	-0.1618952
94	0x3ebc7107	0.36804983
95	0x3e0af109	0.1356851
96	0x3d26b56c	0.04070036
97	0xbd3e483d	-0.04645561
98	0x3e3155b2	0.17317846
99	0xbe7631b6	-0.240424
100	0x3eaeda48	0.3415091
101	0x3eba5e14	0.363999
102	0xbe08fcd9	-0.13377704
103	0x3dc82754	0.09773126
104	0x3e981db2	0.29710156
105	0xbc3bc2e4	-0.01146004
106	0xbe48e41e	-0.1961827
107	0x3e9e1a4b	0.30879435
108	0xbe6b36c2	-0.22970107
109	0x3d35ca9f	0.044382688
110	0x3f264768	0.6495271
111	0xbdf70ae4	-0.12062624
112	0xbd9bca5f	-0.076069586
113	0xbda89229	-0.08231003
114	0xbd65411d	-0.0559703
115	0xbe447a6b	-0.19187324
116	0xbe801e4b	-0.25023112
117	0xbf0cdc9d	-0.5502413
118	0xbe0a0583	-0.13478665
119	0x3ea6383c	0.32464778
120	0xbdca8b23	-0.098898195
121	0x3d508c03	0.050914776
122	0xbe775d2f	-0.2415664
123	0xbe5a2f54	-0.21307117
124	0x3e79492a	0.24344316
125	0x3c787844	0.015165392
126	0x3eb09b96	0.34493703
127	0x3ecffa57	0.40620682
128	0x3e138de9	0.14409603
129	0x3f24adf6	0.64327943
130	0x3d96ac0b	0.07357033
131	0x3e531320	0.20612764
132	0x3e10388b	0.1408407
133	0xbe607d2c	-0.2192275
134	0x3d5ce912	0.05393321
135	0xbe9ae21d	-0.30250636
136	0xbea98d09	-0.33115414
137	0xbe235699	-0.15951003
138	0xbd443ad5	-0.04790767
139	0xbd7c4384	-0.061587825
140	0xbc64d1cf	-0.013966038
141	0xbcc0ca0d	-0.023533845
142	0xbd04d1b4	-0.03242655
143	0xbd0c17a3	-0.03420223
144	0xbdf0646a	-0.117379025
145	0x3dd90ed6	0.10598533
146	0x3e72418c	0.23657817
147	0x3ea39b59	0.31954458
148	0xbd63b006	-0.05558779
149	0x3e7560c8	0.239627
150	0x3eb4afc0	0.35290337
151	0xbe3e7ff6	-0.186035
152	0xbe5b30b6	-0.214053
153	0xbce4710d	-0.027885938
154	0xbc60e84e	-0.013727261
155	0x3cec1c91	0.028822215
156	0xbec389d8	-0.38191104
157	0x3e073e6e	0.13207409
158	0xbe6189a4	-0.22025162
159	0x3e395127	0.18097363
160	0x3e047ba3	0.12937789
161	0x3d4d4501	0.050114635
162	0xbebaed33	-0.36509094
163	0x3e3bb032	0.18328932
164	0x3ea10e9f	0.31456468
165	0x3e33841c	0.17530864
166	0xbe0eb876	-0.13937554
167	0xbe0ad2a5	-0.13556917
168	0x3e739591	0.23787524
169	0xbee2b4d6	-0.44278592
170	0xbcb5f101	-0.022209646
171	0x3ef3958e	0.4757504
172	0xbe369732	-0.17831114
173	0xbd3671bb	-0.044542056
174	0xbe1a4f7f	-0.15069388
175	0xbdac3616	-0.084087536
176	0x3d41b685	0.047293205
177	0x3e975cab	0.29562888
178	0x3e536dc5	0.20647343
179	0x3e76dd07	0.24107753
180	0xbd86749c	-0.0656521
181	0x3dde3587	0.10850053
182	0xbbf6a39c	-0.007526828
183	0x3e8b70e1	0.27234557
184	0x3eb8dcbe	0.36105913
185	0x3dea2148	0.11432129
186	0xbe98c6cc	-0.2983917
187	0x3e8595c1	0.26090816
188	0x3e68e59a	0.22743836
189	0x3e775230	0.24152446
190	0xbe1c56a8	-0.15267432
191	0x3d7ca105	0.061676998
192	0x3cbe3147	0.023216857
193	0x3db6fffb	0.08935543
194	0xbe9292b4	-0.2862755
195	0xbe670a9a	-0.22562638
196	0xbe9a86c1	-0.30180934
197	0xbd70201b	-0.05862437
198	0x3dc1aef4	0.09457198
199	0x3d3575a7	0.044301655
200	0x3ea26560	0.31717968
201	0x3e31c47b	0.17360108
202	0xbe80fa7e	-0.2519111
203	0xbdfc4634	-0.12318078
204	0x3e9ea50d	0.309853
205	0xbe9a5b30	-0.30147696
206	0x3e81e3a5	0.25368991
207	0x3d1130a9	0.035446797
208	0xbead2f1e	-0.3382501
209	0xbe934211	-0.28761342
210	0x3dfdcc4a	0.12392481
211	0xbd99fcca	-0.07518919
212	0xbe432520	-0.19057131
213	0x3e5b59a3	0.21420912
214	0xbdbe0ce5	-0.09279803
215	0xbebb26ff	-0.3655319
216	0xbebef181	-0.37293628
217	0xbdeb5b85	-0.11492065
218	0x3e124b5e	0.14286563
219	0x3f15dccb	0.5854003
220	0xbdc49958	-0.095995605
221	0xbde3fecc	-0.11132583
222	0x3e27f881	0.1640339
223	0xbd874a05	-0.06605915
224	0x3e2bfbff	0.16795348
225	0xbece15a6	-0.4025089
226	0xbccb6732	-0.02482948
227	0x3dc98824	0.0984042
228	0x3eac9c42	0.33712965
229	0x3e82e5ee	0.25566047
230	0x3cef74f6	0.029230576
231	0x3d80c108	0.06286818
232	0x3e0e3d81	0.1389065
233	0xbec34c0a	-0.3814395
234	0x3ea654a9	0.32486466
235	0x3dfb4782	0.122694984
236	0x3e724f9f	0.23663186
237	0xbdbcf89a	-0.092271045
238	0xbe036496	-0.12831339
239	0x3e31c306	0.17359552
240	0xbe0e8fe9	-0.13922085
241	0x3e957bcf	0.2919602
242	0x3e196f37	0.14983831
243	0x3e17b29d	0.1481423
244	0x3df7fa98	0.12108344
245	0xbee2136e	-0.4415545
246	0xbb173f57	-0.0023078525
247	0x3df6979f	0.12040638
248	0xbd468638	-0.048467845
249	0x3e93ad16	0.28842992
250	0xbf3216c7	-0.69566005
251	0x3e64c74d	0.22341652
252	0x3d1b5a86	0.037928127
253	0xbe9b4bde	-0.3033132
254	0x3e80b557	0.2513835
255	0xbdb228c4	-0.08699182

base.mlp.fc2.0.0.bias f4 [64]
0	0xbd3235a7	-0.043508198
1	0xbe66d199	-0.22540893
2	0x3d341cea	0.043972887
3	0xbe77f3f0	-0.24214149
4	0xbd9c4a30	-0.07631338
5	0xbd467e8c	-0.04846053
6	0xbea5d761	-0.32390884
7	0x3e23dd15	0.16002305
8	0xbe042754	-0.12905627
9	0xbe939053	-0.28821048
10	0xbc2555a3	-0.010091218
11	0xbde68628	-0.11256057
12	0xbd0f8d62	-0.035046943
13	0xbd1b39c4	-0.037896886
14	0xbe1fb945	-0.15598018
15	0xbd52b2e7	-0.051440146
16	0xbe07508f	-0.13214324
17	0x3c866b03	0.016408449
18	0xbaceebb1	-0.0015786794
19	0xbe0ddd15	-0.13853867
20	0xbe07d4eb	-0.13264816
21	0xbdb9f117	-0.09079187
22	0x3d138241	0.03601289
23	0x3b98ad05	0.0046592974
24	0xbc16a040	-0.00919348
25	0xbc9083ba	-0.017640937
26	0x3cccd3fa	0.025003422
27	0x3e062ab4	0.13102227
28	0xbdaece8b	-0.08535489
29	0x3d5f95e5	0.05458631
30	0xbe38ac83	-0.18034558
31	0x3d44cb32	0.048045345
32	0xbd819a50	-0.06328261
33	0xbdfe379c	-0.124129504
34	0xbd9c1d6f	-0.076228015
35	0x3d8cf436	0.06882517
36	0xbbcf0373	-0.00631755
37	0xbe4bf7c4	-0.19918734
38	0xbeb4607d	-0.35229865
39	0xbd57cf95	-0.0526882
40	0xbe2ca622	-0.1686025
41	0x3d5c60b5	0.053803165
42	0xbe766035	-0.24060138
43	0xbcbda1c2	-0.023148421
44	0xbce89731	-0.028392406
45	0x3c714bdd	0.01472756
46	0xbc67f03f	-0.0141564
47	0x3c9e0a3a	0.019291986
48	0xbbe80b2f	-0.0070814113
49	0xbd288500	-0.041142464
50	0xbba8681f	-0.0051393653
51	0x3e1100e1	0.14160492
52	0xbe0766e8	-0.1322285
53	0xbd8cd12c	-0.06875834
54	0xbdefb7b7	-0.11704963
55	0xbd9a3e7d	-0.0753145
56	0xbe28fa31	-0.1650169
57	0xbda13155	-0.078707375
58	0xbd7d87d9	-0.061897133
59	0xbc998b07	-0.018743051
60	0xbc89ad6f	-0.016806332
61	0x3dcbe755	0.099562325
62	0x3c73b6d2	0.014875131
63	0x3da49488	0.080361426

base.mlp.fc2.0.2.weight f4 [64]
0	0x3fb2b424	1.3961225
1	0x3fa8b630	1.3180599
2	0x3fd1ee7b	1.6400903
3	0x3fb22586	1.3917701
4	0x3fae4783	1.3615574
5	0x3f83c4f9	1.0294486
6	0x3f964aeb	1.1741613
7	0x3fb20b6e	1.3909738
8	0x3fac5ba5	1.3465468
9	0x3f8d3764	1.1032529
10	0x3f96d9d6	1.1785228
11	0x3fa54774	1.2912431
12	0x3fa7c89b	1.3108095
13	0x3facd938	1.350379
14	0x3fb62e1a	1.4232819
15	0x3fa4a9dd	1.2864338
16	0x3fb5da8d	1.4207321
17	0x3fbbca3f	1.4671096
18	0x3f9be5d4	1.2179513
19	0x3f9b6635	1.2140566
20	0x3fbe8d50	1.4886875
21	0x3f981e31	1.1884214
22	0x3fb87150	1.440958
23	0x3f87e6ef	1.061735
24	0x3fa6be4d	1.3026825
25	0x3f9a93a6	1.2076309
26	0x3faf9241	1.3716508
27	0x3fba69ff	1.4563597
28	0x3fa74238	1.3067083
29	0x3fa73f55	1.3066202
30	0x3fad2ada	1.3528702
31	0x3f98451b	1.1896089
32	0x3fb38c9c	1.4027286
33	0x3f9f1744	1.2428975
34	0x3f9b5284	1.2134557
35	0x3fc78796	1.5588253
36	0x3fc16c64	1.5111203
37	0x3faf25f3	1.3683456
38	0x3f93f5ef	1.1559428
39	0x3fb4c17f	1.412155
40	0x3fbdaaf3	1.4817795
41	0x3fa8ee21	1.3197671
42	0x3f8e861d	1.1134678
43	0x3fa6602d	1.29981
44	0x3fad8980	1.3557587
45	0x3fbe7f97	1.4882687
46	0x3fb13e44	1.3847127
47	0x3fc75b2d	1.55747
48	0x3fa09df9	1.254821
49	0x3f9f1b43	1.2430195
50	0x3faabda9	1.333913
51	0x3fa604df	1.2970237
52	0x3fba12ff	1.4537047
53	0x3fb299c6	1.3953178
54	0x3fab92ea	1.340421
55	0x3fc30aa6	1.5237625
56	0x3fb52476	1.4151752
57	0x3f96df63	1.1786922
58	0x3fb783d1	1.4337102
59	0x3fc554fe	1.5416563
60	0x3fb8885b	1.4416612
61	0x3fa0f28d	1.2574021
62	0x3fc1e336	1.5147464
63	0x3fd8c2da	1.6934464

base.mlp.fc2.0.2.bias f4 [64]
0	0xbe0283ef	-0.12745641
1	0xbe98a7d4	-0.29815543
2	0x3e9a89b1	0.30183175
3	0xbe6be896	-0.23037943
4	0xbe7806d7	-0.24221359
5	0xbd937127	-0.071993165
6	0x3c88d4f0	0.016703099
7	0x3e707a3d	0.2348413
8	0xbe5ba203	-0.21448521
9	0xbe3ee375	-0.18641455
10	0x3e5489ed	0.2075574
11	0xbd38b2e7	-0.04509249
12	0x3e0b6c92	0.13615635
13	0x3d7c2fd5	0.061569054
14	0x3d8e21c2	0.069400325
15	0xbe513591	-0.2043059
16	0xbe5e9fee	-0.21740696
17	0x3e506e70	0.20354629
18	0xbe48cffe	-0.19610593
19	0xbe446189	-0.19177832
20	0xbe2abbfd	-0.16673274
21	0xbdf9edac	-0.122035354
22	0xbdff7ab8	-0.124745786
23	0xbe07952f	-0.13240503
24	0x3e9859ca	0.29756004
25	0x3d93198f	0.07182609
26	0x3e3ac0aa	0.18237558
27	0xbd315b6c	-0.043300077
28	0xbe30d1a6	-0.17267475
29	0xbe029c6c	-0.12754983
30	0xbdca12a2	-0.09866835
31	0x3dbbacc8	0.09163815
32	0x3df9c8e1	0.12196518
33	0xbe3434d2	-0.17598274
34	0xbe44c9de	-0.19217631
35	0x3ca1358c	0.019678853
36	0x3e0d6cdf	0.13811062
37	0x3c86f785	0.016475448
38	0xbe5e36dd	-0.21700616
39	0x3c316491	0.0108272
40	0xbe3ce33e	-0.18446061
41	0x3e29c21c	0.16577953
42	0x3d4a6717	0.04941472
43	0x3ca6dd70	0.020369262
44	0xbdb06653	-0.08613267
45	0xbcc78f94	-0.024360456
46	0x3d36589c	0.0445181
47	0x3d4daa79	0.050211404
48	0xbe0acf0c	-0.13555545
49	0x3e0c62cf	0.13709567
50	0x3dc4495b	0.09584304
51	0x3e2849e2	0.16434434
52	0x3e006dd6	0.12541899
53	0x3e4184eb	0.1889836
54	0xbe8fa7f8	-0.28057837
55	0xbd693deb	-0.056943815
56	0xbe5a4aac	-0.21317548
57	0xbd9b8331	-0.07593382
58	0x3dd65e12	0.10467161
59	0xbbbe93ff	-0.0058159824
60	0x3e15dac5	0.14634235
61	0x3e7c3df3	0.24633007
62	0xbdbfaf13	-0.09359565
63	0x3cfbed4c	0.0307528

act.linear.weight f4 [25, 64]
0	0x3a69cd1e	0.00089188095
1	0xba1b7367	-0.0005929977
2	0xba0e1615	-0.00054201606
3	0x3b3a7bab	0.002845506
4	0xba180f9e	-0.0005800667
5	0xb869e738	-5.5766868e-05
6	0x3b6e2b9e	0.0036341916
7	0x39391399	0.00017650276
8	0x3a02863f	0.00049791107
9	0xbad11fa9	-0.001595487
10	0x3aaf9ceb	0.0013398206
11	0xba766fea	-0.0009400832
12	0x395e1365	0.00021178795
13	0x3acb1325	0.0015493376
14	0xb9fc5bf0	-0.00048133684
15	0x3b11813e	0.0022202278
16	0xbac13587	-0.0014740684
17	0x3a05d7fc	0.00051057315
18	0x3a3f7a49	0.00073042937
19	0x3ac99650	0.001537988
20	0x3a6cf4a0	0.00090391375
21	0xba92cb5f	-0.0011199525
22	0x3b03aa21	0.0020090418
23	0x3b0b9466	0.002129817
24	0xb9bfd2a9	-0.00036587313
25	0x3ac5608a	0.0015058678
26	0x3a588d98	0.0008260845
27	0xb9393493	-0.0001766256
28	0x3a9c2cf6	0.0011915255
29	0x3a3ff422	0.00073224504
30	0xb9e5257b	-0.0004370621
31	0xba8f028d	-0.0010910794
32	0xb8904f30	-6.881205e-05
33	0x3a5cb47b	0.00084192277
34	0xb9a1d025	-0.00030863393
35	0xb9d0688f	-0.00039750754
36	0x3a266669	0.0006347658
37	0xba1fbcbf	-0.0006093494
38	0x3a7c530c	0.0009625412
39	0xba304117	-0.00067235663
40	0xb94b3984	-0.00019381015
41	0xbab75b85	-0.0013989067
42	0xba87d086	-0.0010361827
43	0xb9c5479b	-0.00037628118
44	0x3a1d4fc0	0.00060009584
45	0xba331ec7	-0.0006832894
46	0xba39d84f	-0.00070894224
47	0xba20016b	-0.0006103727
48	0x3a9b6891	0.0011856725
49	0x3b1efc69	0.0024259335
50	0xbad22e04	-0.0016035442
51	0xb93f0901	-0.00018218534
52	0xbaade68b	-0.001326756
53	0xbafd41ee	-0.0019322017
54	0x3a6a6643	0.000894163
55	0x3a438200	0.0007458031
56	0x3a51973e	0.0007995254
57	0x3a724f9b	0.00092434295
58	0x398e6b07	0.00027164092
59	0x3a976492	0.0011550358
60	0xbb4e535e	-0.0031482796
61	0x3a33f4b2	0.00068647705
62	0x3adb9cd0	0.0016755108
63	0x3a3ae6d7	0.0007129735
64	0x3f04abc0	0.5182457
65	0x3dfd1ec6	0.12359385
66	0x3cf2715b	0.029595068
67	0xbd159ebe	-0.03652834
68	0xbdda8bb7	-0.1067118
69	0x3ed42e98	0.41441798
70	0x3e8f8579	0.2803152
71	0xbd8694ac	-0.06571326
72	0x3e68b231	0.22724225
73	0x3e0f05a2	0.13966992
74	0xbdd10898	-0.10206717
75	0x3da7d31b	0.08194562
76	0x3e2ce11a	0.16882744
77	0x3e2ec1d5	0.17066129
78	0x3cf91154	0.03040377
79	0x3cafd8ca	0.021465678
80	0xbe8727c3	-0.26397523
81	0x3cc5e081	0.024154903
82	0xbbb2f21a	-0.0054609897
83	0x3e8943bf	0.268095
84	0x3e857308	0.26064324
85	0x3daaaf22	0.08334185
86	0xbdc9a6c2	-0.0984626
87	0xbe955c9f	-0.29172227
88	0x3d6ef83f	0.058342215
89	0xbe43fb48	-0.19138825
90	0x3e85f050	0.26159906
91	0x3d5cd357	0.053912487
92	0x3cc614c4	0.024179824
93	0xbdba9831	-0.091110595
94	0x3ec92700	0.39287567
95	0xbeaea89c	-0.34113014
96	0xbe4860ff	-0.19568251
97	0x3e2c16db	0.16805594
98	0x3d9bccb0	0.076074004
99	0x3edd078b	0.43169817
100	0xbdb778d2	-0.089585915
101	0x3e036b22	0.12833837
102	0xb9ede92d	-0.00045377892
103	0xbaadd4a0	-0.001326222
104	0xbed5bae5	-0.41744152
105	0x3d117f1a	0.035521604
106	0x3ec269a7	0.3797123
107	0x3dfd20be	0.12359761
108	0x3e480c3f	0.19535922
109	0xbe22e78e	-0.15908644
110	0xbf00d03c	-0.5031774
111	0xbe68a4ea	-0.2271916
112	0x3db61ec6	0.08892588
113	0xbe5f5fa5	-0.21813829
114	0x3db73706	0.08946042
115	0xbed54782	-0.4165612
116	0x3e14c8d3	0.14529733
117	0x3e20a564	0.15688092
118	0x3e0c8980	0.13724327
119	0xbd6172dd	-0.055041183
120	0xbe94fe2c	-0.29100168
121	0x3eb21b88	0.3478663
122	0x3eb17b8e	0.34664577
123	0xbdc93d57	-0.09826153
124	0xbdaf12b7	-0.085484914
125	0xbe360e10	-0.17778802
126	0xbd8ca4e6	-0.068673894
127	0x3e8a8162	0.27051836
128	0xbea5f10e	-0.32410473
129	0xbe82d7d6	-0.25555295
130	0x3e0c2e27	0.1368948
131	0x3cb8b0e3	0.022545284
132	0xbe927f4e	-0.2861275
133	0xbb801ae9	-0.003909458
134	0xbeb7120a	-0.3575595
135	0x3ca5c8f0	0.020237416
136	0xbdfcf875	-0.12352077
137	0xbe876ad7	-0.264487
138	0xbf0b2f62	-0.54369175
139	0xbddd623d	-0.10809753
140	0xbf095562	-0.5364591
141	0x3ed05ecd	0.40697327
142	0xbea54423	-0.32278547
143	0xbd4db95a	-0.050225593
144	0xbe843076	-0.25818223
145	0xbde30bf0	-0.11086261
146	0x3df431b9	0.11923546
147	0xbe0df1cb	-0.13861768
148	0xbeb0d52a	-0.3453763
149	0x3dbc9172	0.09207429
150	0x3e97d6aa	0.29655963
151	0xbd06aaff	-0.03287792
152	0x3e1b311d	0.15155454
153	0xbef9365f	-0.48674294
154	0x3f4313f5	0.76202327
155	0x3e34f2ba	0.17670718
156	0xbdf69841	-0.12040759
157	0x3ed445a8	0.41459394
158	0xbefb6089	-0.49097088
159	0x3ebb7809	0.36615017
160	0x3e9fbfb5	0.31200948
161	0xbe1eba2f	-0.15500711
162	0xbec5f19c	-0.38660896
163	0x3ebbe787	0.3670008
164	0x3ed05bc9	0.40695027
165	0xbe126732	-0.14297178
166	0xbec92c73	-0.39291725
167	0xbf348599	-0.70516354
168	0xbe3da627	-0.18520413
169	0x3e827baf	0.25484988
170	0xbd6edb54	-0.058314636
171	0xbf643ac7	-0.8915219
172	0x3f1c1136	0.6096376
173	0x3c41fc43	0.011839929
174	0xbebc4021	-0.36767676
175	0xbe204fbe	-0.15655419
176	0x3d3a79ca	0.045526303
177	0x3e2dc807	0.16970836
178	0x3d9db141	0.07699824
179	0x3e2b6487	0.16737567
180	0xbe0a2cc3	-0.13493638
181	0xbf111a90	-0.56681156
182	0xbe07aa89	-0.13248648
183	0xbf08445d	-0.53229314
184	0x3ec2a0ee	0.38013405
185	0x3ea33549	0.3187659
186	0xbd991d30	-0.0747627
187	0xbf3ccc3f	-0.73749155
188	0x3e82314b	0.25428233
189	0x3ed56845	0.41681114
190	0xbe480222	-0.19532064
191	0x3e10ebed	0.14152499
192	0xbec886a0	-0.3916521
193	0xbd027c5a	-0.031856872
194	0xbd15c46d	-0.03656428
195	0xb9aa1aff	-0.0003244504
196	0x3e8d0c48	0.27548432
197	0x3d3280a8	0.043579727
198	0xbec650a8	-0.3873341
199	0xbd997a4d	-0.0749403
200	0x3daf9e40	0.08575106
201	0xbe4de67d	-0.20107456
202	0x3d05bbf1	0.032649938
203	0xbe65416a	-0.22388235
204	0x3e14a510	0.14516091
205	0xbe41f387	-0.18940555
206	0x3e854da0	0.26035786
207	0x3e80c95b	0.25153622
208	0x3ea59d31	0.3234649
209	0x3d9e2b15	0.07723061
210	0xbe87be01	-0.2651215
211	0x3eb36246	0.35035914
212	0xbe593af0	-0.21213889
213	0x3e2d13ab	0.16902034
214	0xbc665f76	-0.014060846
215	0x3e1fd18e	0.15607283
216	0xbdbe3238	-0.09286922
217	0xbe666ef2	-0.2250326
218	0x3cb5b146	0.022179257
219	0xbea95d34	-0.3307892
220	0xbec3bd36	-0.38230294
221	0x3e7386de	0.23781916
222	0x3e811d4c	0.25217664
223	0xbe90fbd5	-0.28317133
224	0x3ea271b2	0.31727368
225	0xbcba0ed3	-0.022712147
226	0x3d81757a	0.06321235
227	0xbf09750a	-0.5369421
228	0xbea0e842	-0.314272
229	0xbec8e391	-0.3923612
230	0x3eb81144	0.35950673
231	0xbc7638f0	-0.015028223
232	0xbed8123c	-0.42201412
233	0xbf0a07d1	-0.53918177
234	0x3d18bef1	0.03729147
235	0xbe2e73da	-0.17036381
236	0x3efb5b9a	0.49093324
237	0xbed485ea	-0.41508418
238	0xbe2e6c3b	-0.17033474
239	0x3ecb3676	0.39689988
240	0xbe10a6d3	-0.14126138
241	0x3d1e0776	0.038581334
242	0x3e5093e8	0.20368922
243	0xbbe2d353	-0.0069221645
244	0xbe76ba32	-0.24094465
245	0x3e84df40	0.25951576
246	0x3f2c7fe2	0.67382634
247	0x3ea366e8	0.3191445
248	0x3d8290e3	0.06375291
249	0xbd03ce7b	-0.032179337
250	0x3e7e4575	0.24831183
251	0x3e78213c	0.24231428
252	0xbeb08973	-0.34479865
253	0x3df208a6	0.11818056
254	0xbe86dcf1	-0.2634044
255	0xbe9484cb	-0.29007563

act.linear.bias f4 [25]
0	0x00000000	0.0
1	0xbdea469a	-0.114392474
2	0x3eb99de7	0.36253282
3	0x3d36c80e	0.04462438
4	0x3e274877	0.16336237
5	0x3d560cb8	0.052258223
6	0xbe2caacc	-0.16862029
7	0xbd4b8590	-0.049687922
8	0xbdd351e9	-0.103183575
9	0xbc90840d	-0.017641092
10	0x3d04ac0d	0.032390643
11	0xbd9a79e3	-0.07542779
12	0x3d35b123	0.044358384
13	0x3d786424	0.060642377
14	0xbd3b9f02	-0.04580594
15	0xbc4f4d04	-0.012652639
16	0x3e10d229	0.1414267
17	0xbd803718	-0.06260508
18	0x3e0a9e0f	0.13536857
19	0x3de61eb3	0.11236324
20	0x3e07c7f0	0.13259864
21	0xbd79d74d	-0.060996342
22	0x3d79da47	0.06099918
23	0xbf85474d	-1.0412384
24	0x3f854424	1.041142
