models/actor_goodtemp.pt (torch, 610922 bytes, 14 tensors)

base.mlp.layers.0.0.weight f4 [256, 420]
000000 60 f2 17 3e e7 b1 1d be 54 4e f3 3d 16 33 28 3e
       0.14838552 -0.15399896 0.11880174 0.16425738
000010 5d 17 83 be 16 f6 f5 3a ac 4f a4 3d f9 34 bf 3d
       -0.25603762 0.0018765356 0.08023009 0.093362756
000020 e9 d7 39 3d 4b 92 a0 bd 61 55 06 3d 52 27 ca 3d
       0.045371924 -0.07840403 0.032796267 0.09870781
000030 bc 50 08 bc 81 5e 08 bd 03 15 fd 3d 56 64 34 3e
       -0.00832003 -0.03329325 0.12357523 0.176164
000040 a3 85 57 bd 46 f2 ed 3d 0a 67 b6 3d 4b 20 88 3c
       -0.05261768 0.116184756 0.08906372 0.016616961
000050 55 77 91 3d 0c 90 75 bd 8e 94 0c bd 38 0b 4c 3d
       0.07102839 -0.059951827 -0.03432136 0.049815387
000060 40 ea 26 bd 8f a6 c0 bd 02 36 35 ba eb ae 4a 3c
       -0.040750742 -0.094067685 -0.000691265 0.012370805
000070 9b 00 a5 3d 7b 98 1d 3d f1 3f eb 3d 2b ef 38 bd
       0.08056756 0.038475495 0.11486805 -0.045149963
000080 8d 44 2f 3d ef 85 6c 3c b5 80 24 be 95 e3 8e 3d
       0.042789984 0.014436229 -0.16064723 0.069770016
000090 c0 16 55 bd 61 a3 8a 3c be 39 1c 3e ba 97 53 be
       -0.05202365 0.016923608 0.15256402 -0.20663348
0000a0 06 1e 03 3b 5c a7 0d 3e 24 1b 23 bd 59 66 4a 3d
       0.002000691 0.13833374 -0.039820805 0.049414013
0000b0 15 a9 76 3c 0f 2d 7a 3c eb 19 11 3e 1c 65 3c bd
       0.015054961 0.015269532 0.14170043 -0.045994863
0000c0 e6 a5 c0 3d 73 6f e7 bb 11 2d 44 bd ae 26 19 be
       0.094066426 -0.0070628463 -0.04789454 -0.14956161
0000d0 55 da 16 3d 37 35 1c 3d de f6 47 3e 0e c2 b4 bd
       0.03682931 0.038136687 0.19527766 -0.088260755
0000e0 c7 7a 39 bc 29 f4 c7 3d ab b6 1e bd 18 c8 8c 3d
       -0.011320776 0.09763367 -0.038748425 0.06874102
0000f0 8a 2d a7 3c 24 85 8d bd ea af a2 bd ab c8 95 bc
       0.020407457 -0.0691016 -0.07943709 -0.018284163
000100 89 31 e8 bc d0 43 73 3d 1c 1a 03 3e f1 db d0 bc
       -0.028343933 0.059390843 0.12802929 -0.025495501
000110 17 1a c4 3d 2c 10 c6 bd 5a 10 ec bd d5 f6 f0 bd
       0.09575289 -0.09671053 -0.11526556 -0.117658295
000120 0a 1d 66 bd 7e 53 95 bd 6c 77 88 3c 49 88 b1 bd
       -0.056180038 -0.072913155 0.016658507 -0.086685725
000130 5f 08 8a be 7a 53 1c be 27 b4 bd 3b 29 5d b6 bd
       -0.26959512 -0.15266219 0.005789298 -0.08904488
000140 2a 5e 81 bc 43 55 ba 3d 52 8c 01 3e a3 26 11 3c
       -0.015791971 0.09098294 0.12651184 0.008859309
000150 e9 14 1e 3e b7 26 80 bd cf c5 90 3d fd 61 f5 3c
       0.15437664 -0.06257384 0.07068979 0.029953951
000160 8d 19 a6 3b f2 63 b1 bd 2b 8c f2 3c 11 8c 22 bd
       0.005068964 -0.08661641 0.029607853 -0.03968436
000170 ab 3e de 3a 78 54 c1 3d cc 15 03 3e 92 83 f7 3b
       0.0016955932 0.09439939 0.12801284 0.007553526
000180 16 96 f3 3d 31 b2 ab 3c 46 ea d0 3d aa ce 81 3d
       0.11893861 0.020958992 0.10200934 0.06338246
000190 0e cb 1f 3d 96 4e 0f bd 5d 1d a8 3d 0f 85 aa 3d
       0.039012007 -0.034987055 0.082087256 0.0832616
0001a0 4a 8c a8 bc eb da 2a 3d 70 11 49 bd de 3b 41 bd
       -0.020574708 0.041712683 -0.049088895 -0.047176234
0001b0 9d b2 e6 bd fe af dc 3d 37 ba 51 3d c8 4a 25 3e
       -0.112645365 0.10775755 0.05120298 0.16141808
0001c0 2d 0c 05 3e 57 71 e1 3d 0b 0f 93 3d 07 b4 4c 3e
       0.12992926 0.11007946 0.071806036 0.1999055
0001d0 85 52 95 3d 38 da 2b 3e 97 95 fc bd 6b 25 c2 3c
       0.0729113 0.16782463 -0.123332195 0.023699483
0001e0 e8 86 8b 3c dd 7b 0a 3e aa 25 73 bd 8a e4 ee 3b
       0.017032102 0.13523813 -0.05936209 0.0072904276
0001f0 c9 38 6f bd ef 79 45 bd f8 fe 92 3d 9f 1a d9 bc
       -0.058403764 -0.048211988 0.07177538 -0.026501952
000200 a6 70 6d bd bd 07 08 bd d9 4e 12 bd 71 5b f7 3d
       -0.057968758 -0.033210505 -0.035719726 0.12077988
000210 be e8 03 bd 26 28 22 bd 15 62 5b 3b 1f 69 11 be
       -0.032204382 -0.03958907 0.003347521 -0.14200257
000220 00 2f 36 3d 03 06 50 3c bb 17 88 3d 36 8c 1e 3d
       0.044478416 0.012696746 0.06645151 0.038707934
000230 6e 30 d7 bc 59 e7 45 3d df 2c be 3c e0 ec cf 3d
       -0.02626821 0.048316333 0.023214756 0.10152602
000240 3f c4 2a bd f0 b9 e6 bd f7 e4 e5 bd 1f 73 d6 bd
       -0.04169106 -0.112659335 -0.11225312 -0.10471176
000250 8e 6f 01 3d 9f 66 15 3d d8 ba 89 bc 99 3b 1a be
       0.031600527 0.03647482 -0.016812727 -0.15061797
000260 0e 5b 16 3d b0 19 58 bd 65 ad 23 be e6 a1 0b be
       0.03670793 -0.052758873 -0.15984114 -0.13635978
000270 81 25 2c be fd 9b 99 bd f6 b5 2d be 30 dc 32 bd
       -0.16811182 -0.075004555 -0.16963944 -0.04366702
000280 55 bc c0 bd 0f 55 46 be 23 73 27 be ee 0a b4 3d
       -0.094109215 -0.19368385 -0.16352515 0.08791147
000290 16 71 a2 3c ad d6 66 3d 88 e2 7a bc ae d6 0c 3e
       0.019829314 0.056357075 -0.015312798 0.13753769
0002a0 9d f7 4e 3d 57 d0 26 3e e2 99 33 3e 2f 04 fc 3b
       0.05052911 0.16290413 0.1753917 0.0076909284
0002b0 0a 68 1a 3d 38 3e 74 3b ee b6 ce 3c 1f 9f 1f bd
       0.037696876 0.003726853 0.025233712 -0.03897011
0002c0 13 68 4d 3e 30 ce 40 3d 75 76 87 3d c4 35 cc 3d
       0.20059232 0.047071636 0.06614391 0.099711925
0002d0 d0 7c 43 3e ad cd 6a 3e 32 bc 99 bb d1 6e b9 3d
       0.19090581 0.22930022 -0.004691624 0.0905434
0002e0 0d b4 cc 3d ef 6a 25 bb a6 62 59 3e 54 7d db 3c
       0.099952795 -0.002524074 0.21229038 0.02679316
0002f0 93 1e cb 3d 9e 28 a7 3c a8 81 ac 3d 69 33 31 3c
       0.09917941 0.02040511 0.084231675 0.01081548
000300 95 ab 80 bc f6 94 ef bd 52 ca 14 3e 58 4e ac 3c
       -0.015706817 -0.11698334 0.14530304 0.021033451
000310 17 eb d2 3b b1 80 97 bd 74 6b b8 3d 7e 2c 05 3e
       0.0064367163 -0.07397593 0.0900487 0.13005254
000320 16 64 b6 3d 46 6a 3c 3e 2a 25 9e 3d 23 3b b4 3c
       0.08905809 0.18399915 0.07721932 0.022000855
000330 1d 5f f3 bc 5b 73 3f 3e f2 91 3b 3d 37 04 12 bc
       -0.02970844 0.18696348 0.04579348 -0.008912138
000340 4c 78 71 3d 2f ee 60 bb 0b 6f fb 3d 13 db c2 bd
       0.058952615 -0.0034321656 0.12277039 -0.09514441
000350 6f d4 3e 3d 59 64 84 3d c3 f4 e1 bd ca 30 a7 bd
       0.04658931 0.06464452 -0.11033013 -0.08163603
000360 8c 89 89 3a 52 fe 81 bd 8a 97 ec bc b7 58 1d 3b
       0.0010493263 -0.06347336 -0.028880853 0.0024009177
000370 be 37 f6 bb eb b0 ff bd 44 35 38 bd de 42 1e 3e
       -0.007513969 -0.12484916 -0.044972673 0.15455195
000380 51 c7 80 bd 24 43 a9 3c 2c e3 fd bd 60 22 fc bd
       -0.062880166 0.020661898 -0.12396845 -0.12311244
000390 09 16 47 bd 61 47 2a be fd 1e f3 bd 64 f0 b4 3d
       -0.048605 -0.16628791 -0.11871145 0.088349134
0003a0 3a 28 88 bc d0 78 db 3d 0e c6 af 3d 03 a5 8b 3d
       -0.016620744 0.107164025 0.08582698 0.06818583
0003b0 af 88 b1 bd cc 5e 0b be 2d 66 2a be cf 38 56 be
       -0.086686485 -0.13610381 -0.1664054 -0.20920108
0003c0 6a 7c 56 be 08 26 b9 be 16 34 c6 be 46 a8 c3 be
       -0.20945898 -0.36161828 -0.38711613 -0.3821432
0003d0 4a de b4 be 93 c2 91 be c4 da dd 3d 6a 98 10 3e
       -0.35325843 -0.2846876 0.10832742 0.14120641
0003e0 33 ac 17 3e 93 c1 10 3e 78 3c 50 3e cc 64 e7 bb
       0.14811783 0.14136343 0.20335567 -0.0070615765
0003f0 01 fb 47 3e 1d 37 3e 3e ce c1 d4 bd 69 8f 3a 3c
       0.19529344 0.18575712 -0.10388528 0.011386731

base.mlp.layers.0.0.bias f4 [256]
000000 93 92 5d 3d 3d 14 9e 3d 9c 87 a7 3c f9 52 c9 3d
       0.054094862 0.07718704 0.020450406 0.09830279
000010 22 48 25 bc 09 1b 69 3d 7d 65 df 3c 03 fe 90 bb
       -0.010087999 0.05691055 0.027270073 -0.004424812
000020 c7 30 60 bc 33 e3 0b 3e f7 ef 0b 3c ae 61 62 3d
       -0.013683504 0.13660888 0.008541099 0.055268936
000030 52 ac a2 3d cc bd f4 bc ff f1 29 bd b1 81 b1 bb
       0.07943024 -0.029875658 -0.04149055 -0.0054170717
000040 cd f0 af bd 94 4c 05 3d 41 78 3f bc d5 c3 ee 3d
       -0.08590851 0.032543734 -0.011686386 0.11658446
000050 d1 0b ba 3d 67 eb 32 bc 96 e0 dd bc ac 9a 0d bd
       0.09084285 -0.010920382 -0.02708463 -0.034571335
000060 97 8f 81 3d 6d 3c 10 bc dd 21 1d 3d e6 a4 0b be
       0.06326216 -0.008803469 0.038362373 -0.13637123
000070 0e b5 06 bd dc 02 cb bc 54 44 49 3d 3b a5 39 bd
       -0.03288751 -0.024781637 0.04913743 -0.04532359
000080 3d 6b 69 bc d7 3b b2 3d 14 81 83 3d bb 5f db bd
       -0.014246759 0.0870282 0.06421104 -0.107116185
000090 53 25 2b bd f9 16 78 39 01 38 d7 3c 54 c6 32 3d
       -0.041783642 0.00023659681 0.026271822 0.04364617
0000a0 be e9 5a bd 94 45 de 3c 1f 29 1b 3d e5 7d 0e bd
       -0.05344557 0.027132787 0.037881013 -0.03478803
0000b0 0f d9 4a 3d dc 45 d7 bc 3b b6 80 3d 36 66 61 bc
       0.04952341 -0.026278429 0.06284758 -0.013757279
0000c0 f6 a6 60 3d 5b e6 5e 3d 5a d8 1d 3a 80 b4 94 3d
       0.054846726 0.054418903 0.00060213136 0.0726099
0000d0 e7 9a 1a 3e 58 5b ef 3a cf 71 2f 3d 1b 4e 9f 3d
       0.15098153 0.0018261475 0.042833146 0.07778569
0000e0 fb 76 ac bc fe 77 08 3d 10 12 6e 3c f1 8a 8c 3d
       -0.021052828 0.03331756 0.014530674 0.068624385
0000f0 c2 64 b5 3d 46 bb 65 3d c9 c9 b0 bd 40 56 7c bd
       0.08857109 0.0560868 -0.086322375 -0.061605692
000100 b1 52 a9 bc 59 2e 9d bd 05 4c 3c 3d 53 32 fc bc
       -0.020669313 -0.07674856 0.045970935 -0.030785715
000110 55 2c 2e bd 6b db fe bc 5f b2 8e 3c e6 dd 7e 3d
       -0.042522747 -0.031110486 0.017419038 0.062223338
000120 ce a0 4f 3c c3 28 29 bd 8c 5d 04 3d 8e cb bf bd
       0.012672616 -0.04129864 0.032315776 -0.09364997
000130 cd 8b 0d bd 1d 69 13 3d 74 b1 24 bb e6 80 62 3c
       -0.034557153 0.035988916 -0.0025130184 0.013824677
000140 18 eb e6 bc 7e a2 2c bd 97 90 5c 3c d2 dc 25 bd
       -0.028188273 -0.042147152 0.013462207 -0.040493794
000150 07 c4 0c bc ea e8 a2 3a 3d 8e e3 3c 02 8f 53 3d
       -0.008591658 0.0012429033 0.027777785 0.051650055
000160 25 d0 03 3d 31 6b 0f bd 2a 08 3d bc 01 11 85 bd
       0.032180924 -0.035014335 -0.011537591 -0.06497384
000170 ac 71 0b 3d 09 44 78 3d 67 c8 9b 3d 53 25 0f 3e
       0.034043953 0.06061176 0.07606583 0.13979082
000180 4a 0e 28 3d 87 08 7d bd 78 ca e7 bd d7 bc b9 3d
       0.041029252 -0.06177571 -0.11317915 0.090692215
000190 86 37 29 3d a3 75 4a bd 9f 4e 83 bb 14 3f a4 3d
       0.041312717 -0.049428593 -0.004007175 0.08019844
0001a0 48 a9 bb 3d 85 9c 9a ba a2 ec 87 3c a9 cd cf bc
       0.09163147 -0.0011795914 0.016592328 -0.025366621
0001b0 ae 37 d0 bc 10 c5 9c 3c e9 b7 31 bd 7e c1 75 3c
       -0.025417175 0.019136935 -0.04338828 0.014999745
0001c0 66 cc 78 3c 9a ff d9 3c 36 98 ab bb f5 3c 87 3d
       0.015185451 0.026611138 -0.005236651 0.066034235
0001d0 7d 59 f9 ba 22 63 69 3d e1 2d 8b 3c c3 50 15 3c
       -0.0019023862 0.056979306 0.01698965 0.009113493
0001e0 44 61 51 bd b8 c8 05 bd 2b a6 e9 3d 75 ef 1f 3a
       -0.05111815 -0.032662123 0.11408647 0.00061010505
0001f0 81 27 ef 3d ef d6 dd bc 34 3f 10 3d 24 30 39 bd
       0.11677457 -0.027080027 0.035216525 -0.045211926
000200 da 55 b2 3b bc cf 5d 3d 63 69 4c bc 03 cf 93 bd
       0.005442363 0.05415319 -0.012476298 -0.07217219
000210 ee 61 20 bb 23 38 bd bc aa 6e a9 3c c1 75 8c 3c
       -0.0024472433 -0.023098057 0.020682652 0.017145993
000220 b0 13 9e b8 ac 51 87 bd d4 b4 b0 3c 50 ea 51 3d
       -7.537694e-05 -0.066073745 0.0215706 0.05124885
000230 8d 80 a7 3c a3 a7 f3 3c 10 59 fa bc e3 47 fe bc
       0.02044704 0.029743021 -0.030560046 -0.031040138
000240 6f 06 80 3a 5c 82 56 3c 9e 3d ab 3c 8e b7 3c bc
       0.0009767542 0.013092604 0.020903405 -0.011518372
000250 80 b6 45 3e 4e 22 a1 3d 0c 2f a9 bd 9d de dd 3d
       0.193079 0.07867871 -0.082609266 0.10833476
000260 ae 7c b3 ba ee 8f 1b bd e0 56 14 3d f9 84 2e 3c
       -0.0013693774 -0.03797906 0.036215663 0.01065182
000270 78 66 c9 3b 7e 1b 43 bd 5a 0f b0 bb bf e5 26 bd
       0.0061462484 -0.04763364 -0.005372924 -0.040746447
000280 ed e9 4c bd e6 43 69 bd 85 2d c3 3d 6b 5b af 3d
       -0.050027777 -0.05694952 0.095301665 0.085623585
000290 dd 28 5a 3d e1 e7 5e 39 db db 88 3d 02 25 c5 bd
       0.053261627 0.00021257951 0.06682559 -0.09626199
0002a0 40 3a c5 3d 72 65 a4 3d b0 dd f8 3c 70 9a aa bd
       0.09630251 0.08027162 0.030379146 -0.08330238
0002b0 1e 72 ad bc 2a 0d af bc 12 9f e9 3a 68 60 2f 3d
       -0.02117258 -0.021368582 0.0017823896 0.04281655
0002c0 f3 7d 35 3c 02 7e 9f 3d ba 6c 70 3b f7 20 17 3e
       0.011077392 0.07787706 0.00366859 0.14758669
0002d0 31 b0 67 3d 64 b8 a6 3c 44 83 6a 3c db 23 97 bd
       0.056564514 0.020351596 0.014313523 -0.07379886
0002e0 d3 8b 60 3d 67 0f 9b 3c dc b4 c7 bb 1d e3 26 bc
       0.054820847 0.018928243 -0.006094558 -0.010185984
0002f0 d2 51 a6 3d d9 e0 8b 3d 89 d4 1d bb b6 cb be bc
       0.08121075 0.06829996 -0.002408298 -0.023290496
000300 f5 fa e6 3c e6 60 fe 3b 94 4d 45 bd ff 1a 9f bc
       0.028195838 0.007763016 -0.048169687 -0.019422052
000310 65 41 33 3d 10 57 c0 3c 14 91 52 3d 6e ec fd bc
       0.043763537 0.023479015 0.05140789 -0.030996528
000320 91 28 33 3d c9 6e 21 bd d0 89 c5 3c e8 55 c9 bc
       0.04373986 -0.039412294 0.024113566 -0.024577096
000330 e6 f0 8b 3d 03 99 77 bc 57 86 c7 3c 94 5d 03 bc
       0.06833057 -0.015112164 0.02435605 -0.008017916
000340 1f 18 13 bd a7 8b 85 3c 80 97 9b bd 13 fe 01 3e
       -0.035911676 0.016301943 -0.07597256 0.12694578
000350 1f 72 75 3c 14 28 fe 3c 5a 22 aa bc ed 83 38 3c
       0.014980822 0.03102497 -0.020768333 0.011261922
000360 9f 83 be bc c2 8d 3b 3d 33 20 bb 3c 1d f4 54 bc
       -0.023256121 0.045789488 0.022842502 -0.012997654
000370 5f 83 56 bc c1 5f c6 3c 7a 86 14 3c 7a e2 bd 3c
       -0.013092845 0.02421558 0.009065265 0.023179282
000380 31 03 8c 3b c8 78 a8 3d 2f 7e 70 3c 9b 6e df ba
       0.0042728414 0.08226162 0.014678522 -0.0017046513
000390 42 2d 04 3d 32 fa be bc d6 69 63 bd 1d ac fc 3d
       0.032269724 -0.023312662 -0.055520855 0.123375155
0003a0 d1 56 90 bd 76 f7 53 3c cc d0 97 3d 32 33 77 bd
       -0.07047809 0.012937417 0.07412872 -0.060351558
0003b0 15 bd 02 3d 50 48 45 3d c3 51 27 3d c7 cb 67 3d
       0.031918604 0.048164666 0.04084946 0.05659082
0003c0 54 24 81 3d ca a6 c7 bb d0 05 75 3d 6a 43 8f 3c
       0.06305757 -0.006092881 0.059819996 0.0174882
0003d0 fc 1a 97 3d 17 79 47 3d 5c f6 9c 3d 8b eb bc 3c
       0.07378194 0.048699465 0.07664177 0.023061534
0003e0 e1 51 5d 3d 96 7b a9 3d 59 3d 7f 3c 5b 43 b6 bc
       0.054033164 0.08275525 0.015578591 -0.022248914
0003f0 6f 57 94 bc d7 04 02 3e 99 c7 e2 3d 6b 48 0e 3d
       -0.018108098 0.12697159 0.110732265 0.034737032

base.mlp.layers.0.2.weight f4 [256]
000000 03 16 91 3f d2 20 81 3f d7 7e 7c 3f 85 fd 68 3f
       1.1334842 1.0088141 0.9863104 0.9101184
000010 6e 20 70 3f 83 78 75 3f a1 95 8e 3f b6 c2 89 3f
       0.93799484 0.9588701 1.1139413 1.0762546
000020 73 a8 6c 3f 77 c1 72 3f 77 89 6c 3f 31 e6 71 3f
       0.92444533 0.94826454 0.92397255 0.9449187
000030 6f 12 94 3f 9a 34 77 3f 28 b6 60 3f 28 c5 67 3f
       1.1568125 0.9656464 0.8777795 0.9053521
000040 a7 37 88 3f ca d6 89 3f 3f 49 55 3f c5 af 6c 3f
       1.0641984 1.0768673 0.8331489 0.92455703
000050 7b 05 75 3f e5 76 87 3f 18 a5 6a 3f e6 f9 7f 3f
       0.9571149 1.0583159 0.91658163 0.9999069
000060 46 c7 9b 3f 0e 42 84 3f 2a 87 7f 3f af 6b 76 3f
       1.2170188 1.0332658 0.9981562 0.9625806
000070 dd 4b 6b 3f c8 b3 8b 3f b0 85 77 3f 1a c1 7c 3f
       0.91912633 1.091424 0.96688366 0.9873215
000080 01 cd 7b 3f 48 c3 67 3f 8d 96 87 3f 12 54 6f 3f
       0.98359686 0.9053235 1.059282 0.93487656
000090 89 b6 72 3f 22 8e 8b 3f fc f3 8b 3f 97 4c 93 3f
       0.94809777 1.090275 1.0933833 1.1507748
0000a0 9a 2c 8a 3f 8e 5d 52 3f 2f 03 92 3f 91 d3 56 3f
       1.0794861 0.82174003 1.1407222 0.83916575
0000b0 03 cc 70 3f fa a1 67 3f bc f4 8a 3f 82 58 5f 3f
       0.940613 0.9048153 1.0855937 0.8724443
0000c0 1e da 91 3f 2b 1a 81 3f b0 a7 88 3f 96 b8 7f 3f
       1.1394689 1.0086111 1.0676174 0.9989103
0000d0 0f 0a 72 3f ec f9 93 3f fc 38 92 3f 29 fc 87 3f
       0.945466 1.1560645 1.142364 1.0623828
0000e0 b5 cb 60 3f 6f d5 8b 3f 95 a8 8a 3f 09 28 96 3f
       0.8781083 1.092451 1.0832697 1.1730968
0000f0 62 4b 6a 3f 94 57 84 3f 8d 11 7a 3f 6e a0 74 3f
       0.91521275 1.0339227 0.9768303 0.95557296
000100 a0 5f 69 3f 29 df 6c 3f ce 37 76 3f 44 06 80 3f
       0.9116154 0.92528015 0.961789 1.0001912
000110 52 fa 54 3f ea 22 5c 3f e3 a7 87 3f 36 74 8f 3f
       0.8319446 0.85990775 1.059811 1.120734
000120 c0 fc 87 3f e7 15 5b 3f 37 bb 82 3f 03 70 5f 3f
       1.0624008 0.85580295 1.0213383 0.8728029
000130 67 65 60 3f c2 2c 6d 3f bf 99 80 3f a1 d2 6e 3f
       0.8765473 0.9264642 1.004692 0.93290144
000140 d7 29 57 3f 90 8f 9a 3f 09 3a 53 3f 07 8a 53 3f
       0.8404822 1.2075062 0.8251043 0.8263249
000150 3f a1 86 3f 3b 70 69 3f c7 ad 8b 3f 4e 00 74 3f
       1.0517958 0.91186875 1.0912408 0.95312965
000160 b7 9c 93 3f e3 ba 82 3f 1a 01 73 3f f0 17 6b 3f
       1.15322 1.0213283 0.94923556 0.918334
000170 5c dc 8a 3f 47 f6 8a 3f b3 46 95 3f d3 7b 8b 3f
       1.0848498 1.0856408 1.1662201 1.0897163
000180 a1 29 6d 3f d3 5b 75 3f b3 77 71 3f 54 05 7b 3f
       0.92641646 0.9584324 0.9432327 0.98055005
000190 ae 37 90 3f bb 46 55 3f c9 61 6d 3f d7 eb 89 3f
       1.1266992 0.8331105 0.92727333 1.0775098
0001a0 ef e9 83 3f 22 4e 5c 3f fc d2 8f 3f 81 12 74 3f
       1.0305766 0.8605672 1.1236262 0.95340735
0001b0 c0 7f 89 3f 4c b5 84 3f 9e 15 82 3f 2c cf 67 3f
       1.0742111 1.0367827 1.0162847 0.90550494
0001c0 4b f7 61 3f c1 27 8c 3f 9a 82 80 3f 7b 75 89 3f
       0.88267964 1.0949632 1.0039856 1.0738977
0001d0 f4 2a 76 3f c2 5e 6a 3f 13 ce 97 3f 38 ce 63 3f
       0.9615929 0.9155084 1.1859764 0.8898654
0001e0 30 19 7b 3f 47 16 80 3f 4f 4f 82 3f 07 aa 43 3f
       0.9808531 1.0006799 1.0180453 0.76431316
0001f0 53 9b 83 3f 57 90 7b 3f 7d 14 79 3f f4 4f 59 3f
       1.0281776 0.9826712 0.9729689 0.84887624
000200 4c 27 53 3f 6f 68 71 3f 1b 2c 6e 3f 80 2e 85 3f
       0.8248184 0.9429998 0.9303605 1.0404816
000210 85 d6 81 3f d8 25 62 3f 2b 44 7d 3f 69 73 57 3f
       1.0143591 0.88338995 0.9893214 0.84160477
000220 a3 94 7b 3f 6c d6 7e 3f 1f 8c 72 3f 34 af 7a 3f
       0.98273677 0.9954593 0.9474506 0.9792359
000230 b5 3a 6c 3f 45 a7 8f 3f 7d fc 84 3f 36 57 4e 3f
       0.9227708 1.1222922 1.0389553 0.80601823
000240 8e 99 74 3f b8 52 85 3f 36 70 74 3f 9e 88 5e 3f
       0.95546806 1.0415869 0.9548372 0.8692721
000250 c9 db 85 3f c1 50 82 3f 54 10 4e 3f 6a 04 6a 3f
       1.0457698 1.0180894 0.80493665 0.91412985
000260 00 78 7d 3f 74 40 73 3f b8 0e 76 3f 83 77 73 3f
       0.9901123 0.9502022 0.9611621 0.95104235
000270 fa 3a 73 3f c1 71 64 3f 67 52 8a 3f cd c4 5a 3f
       0.95011866 0.89236075 1.0806397 0.85456544
000280 80 81 74 3f 26 8d 62 3f 15 3e 8c 3f f8 3e 8b 3f
       0.955101 0.88496625 1.0956446 1.0878592
000290 34 76 8f 3f d1 dc 79 3f 3d f2 8b 3f 8d 3d 85 3f
       1.1207948 0.97602564 1.09333 1.0409409
0002a0 26 4a 88 3f 5d bb 9d 3f 2d b4 82 3f c1 3f 58 3f
       1.0647628 1.2322804 1.0211235 0.8447228
0002b0 a6 d2 6f 3f 38 24 86 3f c2 3b 8b 3f 83 0a 90 3f
       0.936808 1.0479803 1.0877612 1.1253208
0002c0 cc 8c 7b 3f 1a ec 8f 3f 0c 36 87 3f 26 f8 66 3f
       0.98261714 1.1243927 1.0563369 0.90222394
0002d0 2c db 65 3f 12 d4 74 3f 09 39 84 3f d0 b2 73 3f
       0.89787555 0.95636094 1.0329906 0.9519472
0002e0 ef 42 60 3f 72 1f 63 3f 79 4f 72 3f 31 86 71 3f
       0.8760213 0.88719857 0.94652516 0.94345385
0002f0 96 fc 8a 3f 8c 2a 58 3f c3 b7 70 3f 43 d5 5e 3f
       1.0858333 0.8443992 0.940304 0.8704416
000300 1e 27 7a 3f c7 67 69 3f c4 d6 8c 3f 59 02 87 3f
       0.9771594 0.91173977 1.1003041 1.0547591
000310 21 55 90 3f 78 42 82 3f a9 9a 6f 3f 64 bb 62 3f
       1.1275979 1.0176535 0.9359537 0.88567185
000320 44 71 86 3f 9f 7d 79 3f ec 4f 7c 3f 03 d1 94 3f
       1.0503316 0.9745731 0.9855945 1.1626285
000330 4d 5e 96 3f 81 86 89 3f 6c 2f 8c 3f 7d 98 86 3f
       1.1747528 1.0744172 1.0951972 1.0515286
000340 8f a1 6c 3f 61 c9 7e 3f 9c bf 5a 3f 60 eb 81 3f
       0.9243402 0.9952603 0.8544862 1.0149956
000350 4f 62 64 3f 64 d8 67 3f d4 87 79 3f 00 91 7a 3f
       0.89212507 0.9056456 0.9747288 0.978775
000360 26 86 83 3f 45 62 80 3f f9 53 8b 3f 71 6a 8a 3f
       1.0275314 1.002999 1.0885001 1.0813733
000370 06 5b 67 3f 30 f4 9f 3f 24 3b 6f 3f 54 63 8b 3f
       0.90373266 1.2496395 0.93449616 1.0889688
000380 7d 05 84 3f b0 89 5c 3f 72 36 88 3f 72 b5 72 3f
       1.0314175 0.86147594 1.0641615 0.94808114
000390 71 9c 95 3f 40 77 51 3f 74 67 78 3f 4c cd 7e 3f
       1.1688367 0.81822586 0.97032857 0.9953201
0003a0 67 33 84 3f 27 3f 8f 3f d6 1b 82 3f 41 e5 77 3f
       1.0328187 1.1191148 1.0164745 0.9683419
0003b0 d3 6c 82 3f 46 bf 4f 3f 04 07 6b 3f 91 4b 5d 3f
       1.018946 0.81151235 0.9180758 0.8644343
0003c0 80 f6 8f 3f 91 1d 6f 3f 67 e0 86 3f ae 4f 8a 3f
       1.1247101 0.9340449 1.0537232 1.0805566
0003d0 14 6d 88 3f 7c 0b 89 3f f9 34 68 3f 88 c8 50 3f
       1.0658288 1.070663 0.9070583 0.81555986
0003e0 ff e7 80 3f 32 92 91 3f d5 cb 90 3f cc df 79 3f
       1.00708 1.137274 1.1312205 0.9760711
0003f0 ef 95 72 3f a3 01 5e 3f 6f d0 79 3f 8a bd 81 3f
       0.9476003 0.8672125 0.9758367 1.0135968

base.mlp.layers.0.2.bias f4 [256]
000000 b8 17 cd bb 2d 1a 8e 3c 10 a6 bf 3d af 1d 50 3d
       -0.006258931 0.017346466 0.09357846 0.05080956
000010 48 37 ad 3d 6c e1 e2 3b d1 d6 37 bd e1 ee 07 3c
       0.0845781 0.006923845 -0.0448826 0.008296699
000020 08 01 d3 bc 4c d2 00 3e 1a 49 27 bd d3 0d 3f 3d
       -0.025757328 0.12580222 -0.0408412 0.046644043
000030 ff 36 b1 3b 0d 19 15 bd 4e 60 aa 3d d8 cd ba bc
       0.0054081674 -0.036400843 0.0831915 -0.022803232
000040 a2 25 a8 bd 78 38 9e bc 6c 48 37 3d fc 86 ff ba
       -0.08210303 -0.019314036 0.0447468 -0.0019495185
000050 6e 1d b4 3b da a8 e2 bb 68 c4 3d 3d 1b 15 00 3c
       0.0054966724 -0.0069171013 0.046329886 0.007817532
000060 cf bb 0f 3c 76 0c 28 3d 2c 1f 85 bc f1 6b 17 bd
       0.008772804 0.04102751 -0.016250215 -0.036968175
000070 93 07 0a 3b 67 c2 a8 bb 4c 89 14 bd f1 fd cd 3c
       0.0021061643 -0.0051501277 -0.03626375 0.025145503
000080 62 72 76 bb 5b f8 fe 3d b0 6d cb 3c 78 d6 a4 3d
       -0.0037604799 0.12449714 0.024832577 0.08048719
000090 65 64 a1 3c dd db 98 bb c4 b0 2b 3c 1f d7 48 bc
       0.019701192 -0.0046648816 0.010479156 -0.01225832
0000a0 54 ee 49 bd c7 45 28 3e 86 d0 d1 3c 2f 95 5f 3d
       -0.049299553 0.16432868 0.025612127 0.054585632
0000b0 e3 aa 1b 3d 06 74 14 3d dc a8 05 bd 58 61 9f ba
       0.038004767 0.03624346 -0.03263174 -0.0012159748
0000c0 99 56 d3 3c fd bf 01 3e a3 bb c3 bb 57 d7 8a bb
       0.025798129 0.12670894 -0.005973296 -0.0042370963
0000d0 0c 67 0e 3c c0 04 b7 3c 71 8e 8e 3c 80 43 0a 3d
       0.0086915605 0.022341132 0.017401906 0.03375578
0000e0 ea dd ce 3d 6e b2 09 3d bf a3 78 3c 0c ff 33 3b
       0.101009205 0.03361743 0.015175759 0.0027465252
0000f0 68 3b 9a 3d df 7e 40 3c 41 c9 6b 3c 44 d4 10 3d
       0.07530862 0.011748998 0.014391244 0.035358682
000100 b3 ec 43 bd 7e 53 3a 3d 32 44 04 3e 2f 18 78 bd
       -0.047833156 0.04548978 0.1291664 -0.06056994
000110 f9 b3 98 3d ac 43 3c 3d b1 1d 81 3b 81 03 43 bd
       0.07456202 0.045962974 0.003940307 -0.047610763
000120 17 74 00 bd f6 e1 99 3d ec e5 9b b9 87 20 78 bd
       -0.031360712 0.07513802 -0.0002973521 -0.060577895
000130 22 79 f7 3d b7 0b 82 3d 7d c7 ab bc 23 a6 2f bd
       0.12083651 0.06349891 -0.020969147 -0.04288305
000140 9b e2 0d 3d 15 ae 4e 3c cf 57 39 bd e6 cb c4 3c
       0.034639936 0.012614747 -0.045249756 0.024023008
000150 27 82 27 bc 76 56 b5 3b 37 82 28 bd 24 1b 73 3d
       -0.010223902 0.0055339886 -0.041139808 0.059352055
000160 57 a6 78 bd 3f 5b 38 3d 36 be 11 3d a7 a6 af bd
       -0.06070551 0.045008894 0.03558179 -0.08576708
000170 aa c9 d0 bc e9 33 82 3c b8 0d 85 3d c5 97 a6 3d
       -0.025486786 0.015893893 0.06496757 0.081344165
000180 6d 6c 66 3d ec 0f b2 bc 1b fd 5c bc ef 8d 14 3d
       0.056255747 -0.021736108 -0.013488079 0.03626817
000190 c5 b0 c8 3d 25 d6 e4 3d 4a 1b 5a 3c bd 73 1c 3d
       0.09799341 0.11173657 0.01331217 0.038196314
0001a0 9a f0 0a bd 52 c0 94 3d 6b 29 68 3d 0b d4 7f bd
       -0.03392086 0.07263245 0.056680124 -0.06245808
0001b0 70 98 5f bd 25 ba 98 3c 17 55 a5 3c 83 cb 00 3d
       -0.054588735 0.018643448 0.020182176 0.031444084
0001c0 41 95 dd 3d c3 3d 39 bc d1 c8 57 3d 25 e0 ee 3c
       0.108194835 -0.011306229 0.052681748 0.029159615
0001d0 3b 69 be 3c 54 35 4a bd 1b 30 20 3d 62 a8 15 3d
       0.023243537 -0.049367264 0.039108377 0.036537535
0001e0 7a 1d c7 3c 58 7a 0d 3d 8e 8e b5 3d 8b 3d d8 3d
       0.024306048 0.034540504 0.08865081 0.105586134
0001f0 67 7c 9c 3c e3 98 b3 3d df 25 d7 3c 12 16 27 3d
       0.019102288 0.08769395 0.026263176 0.040792532
000200 e1 06 76 3d 47 59 9b 3d 95 9b 54 bd a2 1f 46 bd
       0.060065154 0.07585388 -0.051906187 -0.04837001
000210 79 60 00 bc a5 14 6f 3d a5 dc 99 3c b1 47 e2 3d
       -0.007835501 0.058369298 0.01878197 0.1104883
000220 38 b9 0e 3b f6 12 cc bc 32 d4 0e 3d 91 b6 b9 bd
       0.002177788 -0.024911385 0.034870334 -0.09068025
000230 28 d5 75 3d f5 cc 48 3c 12 16 66 3c a2 e9 54 3d
       0.060017735 0.012255897 0.014043348 0.051980622
000240 03 7d ae 3b 92 4a 6d 3b 5f d0 33 3d fc 86 b3 3d
       0.005324961 0.0036207777 0.04389989 0.087659806
000250 3c 54 1c 3b 4e 46 20 3c 2c e6 1a 3c e3 de b3 3d
       0.0023853919 0.009782387 0.009454291 0.08782747
000260 a4 ec 21 3d 81 76 a6 3c 45 a7 7b 3b f9 bb e3 bd
       0.03953232 0.020320179 0.003839926 -0.11119837
000270 67 18 e4 bc 24 41 92 3d 28 1f 58 bd 5a fd dd 3c
       -0.027843667 0.07141331 -0.052764088 0.027098347
000280 3b 8b d2 3c 41 26 dd 3d 95 13 a4 3c a2 20 4f 3d
       0.025701156 0.10798312 0.020028869 0.05056823
000290 df f5 a3 bc b0 a5 c2 3c 79 92 67 3d 7b 99 89 bd
       -0.020014701 0.023760647 0.05653617 -0.06718727
0002a0 f9 b9 fe 3b 24 f2 58 3c eb d0 b6 bc 40 5e d4 3c
       0.0077736345 0.013241325 -0.022316417 0.025923848
0002b0 4c f7 8c bd 02 93 37 3c 49 f6 59 bc b1 1a 33 b9
       -0.06883106 0.011204483 -0.013303348 -0.00017080714
0002c0 7c 19 b7 bb 8e 95 64 3d d4 a4 da bc 26 04 23 3d
       -0.005587755 0.05580669 -0.026689924 0.039798878
0002d0 df b9 0a bd b5 fc f9 bc 5a 5c d9 bc 23 4d 1e 3d
       -0.033868667 -0.030516008 -0.026533294 0.038647782
0002e0 ec 4a 9a bd e8 c3 a1 3d 0b 29 58 3d 26 cc 53 bc
       -0.075338215 0.07898694 0.052773517 -0.012927091
0002f0 bb 00 2c bd cd a6 d8 3d b6 bb 18 3d 64 e6 89 3c
       -0.041992884 0.1057869 0.03728839 0.016833492
000300 9c 3c 5d bb 42 f0 d0 3c e1 39 96 bc 99 db ed bc
       -0.003375805 0.025505189 -0.018338146 -0.029035376
000310 92 70 e1 bc 47 2a d7 bb a5 85 16 3d ac e1 d1 3d
       -0.027519498 -0.006566319 0.036748547 0.102481216
000320 b0 ea c2 bc d2 3a 56 bd 91 75 9e 3b cd d8 a3 bb
       -0.023793548 -0.05230219 0.0048357924 -0.00500021
000330 9d ed 47 bb 45 8d 20 3d 0b 58 26 3d cd a1 d3 3b
       -0.0030506619 0.039197225 0.040611308 0.006458497
000340 07 6c fe 3c 88 89 61 3a ae 41 77 bc 65 ec 2b 3d
       0.03105737 0.00086035626 -0.015091343 0.04197349
000350 b0 79 29 bd e0 5b ac 3d bc 6c 2a 3d 75 e8 7a bc
       -0.041375816 0.08415961 0.041607603 -0.015314211
000360 7f 99 92 3c 49 92 f6 3c 0d d4 b0 3a 40 6e 56 bb
       0.017895458 0.030099051 0.001349093 -0.0032719523
000370 de d2 d2 3d f7 f1 75 bc fd 0d da bc b1 19 6a bc
       0.10294126 -0.015011302 -0.026617998 -0.014288352
000380 63 bb 1a 3a 11 08 8f bc e7 fd 05 bc aa 00 68 bd
       0.00059025566 -0.017459901 -0.008178211 -0.05664126
000390 42 12 33 bb fa fc 9c bc ee 41 01 3d 67 5c e7 3d
       -0.0027324115 -0.019163597 0.031557016 0.11296921
0003a0 e6 a0 12 3d 43 2c e8 3b 4c 7f 80 3d 4a a8 05 3c
       0.035797976 0.0070853545 0.0627428 0.008157799
0003b0 58 8b c2 bc ff fe f1 3d 37 06 6d 3c 39 cb bd 3d
       -0.023748085 0.11816215 0.014466814 0.09267277
0003c0 54 34 24 3d d2 62 d4 3a 31 ce fe 3c a7 f2 2a bd
       0.040088966 0.0016203767 0.03110418 -0.041735318
0003d0 96 51 15 3c 1c 87 ae bc 01 5b 36 3d 2a f4 f3 3d
       0.00911369 -0.02130466 0.04452038 0.11911805
0003e0 58 45 f9 3c 64 ec 98 3d 0f 8f f0 3b 4f 4a 96 3d
       0.030428573 0.07466963 0.0073412727 0.07338392
0003f0 49 d7 e2 bb e6 d8 48 3d f5 9e 8c 3d d0 33 e5 3c
       -0.0069226366 0.049034975 0.06866256 0.027978808

base.mlp.layers.1.0.weight f4 [128, 256]
000000 c3 d6 2e 3e 57 52 74 be ef 27 38 3d 5f 14 1f bc
       0.17074113 -0.23859535 0.04495996 -0.009709447
000010 e8 e1 31 3e 6c 97 16 be dc 2f be bc a5 2c ea bc
       0.17371333 -0.147062 -0.02321618 -0.028585741
000020 2b fa 2f bc 46 ff 17 bd 5c 74 e7 bd ab 29 88 3c
       -0.010740797 -0.037108682 -0.11301491 0.016621431
000030 08 30 03 3e 66 96 0d 3d 96 f4 13 3d 8b 74 2c bd
       0.12811291 0.03456726 0.036121927 -0.04210333
000040 d4 b7 20 be be 71 38 3e 3c 07 80 bd 42 fb 81 3c
       -0.15695125 0.18012139 -0.0625138 0.01586688
000050 2c 65 2a 3d fd e8 59 3d 45 25 99 be c8 af 0c be
       0.04160039 0.05320071 -0.29911247 -0.1373893
000060 c3 d9 1a be 45 b2 0a be c4 4a cd 3b d2 01 23 be
       -0.15122132 -0.13544567 0.0062650163 -0.15918663
000070 62 f8 97 3c e6 e4 62 bd 04 40 12 3e 47 8a 90 bd
       0.018551055 -0.055394076 0.14282233 -0.07057624
000080 79 78 52 bd 06 58 64 3d a8 42 0c be ed a1 70 bb
       -0.051384423 0.05574801 -0.13697302 -0.003671761
000090 49 f5 92 bd 91 be 69 bd 80 31 47 3c 44 2f 5a 3e
       -0.07175691 -0.057066504 0.012157798 0.21307093
0000a0 77 01 05 be 02 02 a9 3d fa bd 97 bc 8c 36 8f 3d
       -0.1298884 0.08252336 -0.018523205 0.06992826
0000b0 1f a5 31 3d eb 27 11 3e ba ab 7a 3e 16 d7 3a bd
       0.043370362 0.14175384 0.24479571 -0.04561528
0000c0 e3 77 13 be 43 bd db 3d c5 a2 62 3d 90 73 36 be
       -0.14401202 0.10729458 0.05533101 -0.17817521
0000d0 67 39 2d 3d 00 1e 27 be ad d0 9d bd 5a de 55 be
       0.04229107 -0.16320038 -0.07705817 -0.20885602
0000e0 23 d9 ee bd b6 34 0f 3e 67 95 22 be 14 92 50 bc
       -0.11662509 0.13984951 -0.15877305 -0.01273014
0000f0 c4 5e 8d 3b 73 9a bd 3d 1d 5d 92 3d b9 65 82 bd
       0.0043142755 0.092579745 0.07146666 -0.06367058
000100 c1 98 7a 3d 58 2e 6b be c4 7a bb 3d 55 4e 99 3d
       0.061180834 -0.22966897 0.09154275 0.07485644
000110 94 e5 69 bd d3 f5 ea bd 13 43 bb bd f8 b6 a7 3d
       -0.05710371 -0.114726685 -0.09143653 0.081891954
000120 e9 2b 91 be 84 e1 72 3d cc 9f b7 3d 7b 2f 29 3e
       -0.28353813 0.0592971 0.08966026 0.16522019
000130 de f5 1e 3e 40 b5 90 3c 4a 44 18 be 1a 03 48 bd
       0.15523478 0.017664552 -0.148698 -0.048831083
000140 de f2 ae bc 58 4d 65 be 13 de 14 3d 20 b5 54 3d
       -0.021356042 -0.22392786 0.0363446 0.051930547
000150 93 aa 83 bb 25 d6 54 bd 33 be 53 3d 48 ea 13 be
       -0.0040181368 -0.051962037 0.05169506 -0.1444484
000160 96 87 cb 3d 1c 31 ca bc 6e 16 d1 bd eb 16 ce 3d
       0.0993797 -0.02468162 -0.10209356 0.10062965
000170 df e7 3e bc cd 8d 0b 3e 59 f5 cc bd 5c 5c 0d 3e
       -0.011651962 0.13628311 -0.10007734 0.13804764
000180 84 7b fa ba 40 7e 8b bd 8c c1 b3 3d 7b 69 e8 bb
       -0.0019110297 -0.0681119 0.087771505 -0.0070926524
000190 2c 8a 56 3d ca 54 63 3d d3 cf d1 bd a5 2e c1 bc
       0.052377865 0.055500783 -0.102447174 -0.023581812
0001a0 4d b7 79 3e ac 6b 2b 3e 4c 6c 24 be e8 99 04 3e
       0.2438633 0.16740292 -0.16056937 0.12949336
0001b0 ab 8a 88 bc 40 45 a7 3d c3 2b fa 3d 4e 4f df bd
       -0.016667685 0.08167505 0.12215378 -0.10903798
0001c0 1b b4 4f 3d bf 5b fd 3d 5f 6d da 3d fe 2b a7 3d
       0.05070887 0.12371015 0.10665392 0.08162688
0001d0 a9 df 77 3e 91 3b 6f bd c2 aa 22 be 90 07 9e bc
       0.24206413 -0.058406416 -0.15885451 -0.019290715
0001e0 86 93 af bc 76 f9 96 bb d1 17 93 3d c6 ba d6 bd
       -0.02143265 -0.004607375 0.07182277 -0.10484843
0001f0 99 d0 e2 bd f6 38 40 3d d6 3c 02 3e db d1 8f bd
       -0.11074943 0.046929322 0.1271852 -0.07022449
000200 ee ca 6a 3d d4 8a 12 3d 00 af e6 bd 52 64 d3 bd
       0.057322435 0.035776928 -0.11263847 -0.10321869
000210 62 e2 20 3e 16 70 83 bd 93 ed 0e 3e 71 63 6e bd
       0.15711358 -0.06417863 0.13957815 -0.058200303
000220 28 66 07 3e 49 55 87 bd 51 c1 8c bd 6d e0 b2 bd
       0.13222563 -0.06608064 -0.0687281 -0.08734212
000230 0b 69 ad 3b f2 7a ab be 50 3c 10 bd ad cd c0 bd
       0.005292063 -0.33492237 -0.03521377 -0.094142295
000240 92 9c 88 3e eb 95 38 be 37 57 83 bd a5 df f5 bc
       0.26681954 -0.18025939 -0.06413119 -0.030013869
000250 39 f1 6e 3e bf 43 14 3d d7 0f f8 3d c4 58 05 3e
       0.23334207 0.03619742 0.12112396 0.13022143
000260 d1 e4 1a 3d a2 45 11 be 58 d2 c6 bd dd 2a 59 3d
       0.037815873 -0.14186719 -0.09708089 0.053019393
000270 d1 dd 39 3e 40 12 f8 3d 1a 6f 3a 3c b1 8f 17 bd
       0.18151022 0.12112856 0.011379028 -0.03700227
000280 45 d7 92 3e a0 04 15 3d f7 04 9f 3e 45 04 82 39
       0.28679863 0.036381364 0.31058475 0.00024798713
000290 59 17 d1 3d a5 0d 95 3e 21 e6 29 be 39 ee 6c bd
       0.10209531 0.29111972 -0.16591693 -0.057844374
0002a0 1f 25 88 bd 8f 81 84 be a2 ec 09 bd ea 01 97 3d
       -0.06647705 -0.25880095 -0.033672936 0.07373412
0002b0 ec de e5 bd f7 7e 34 3c 95 fb 9c bb dc 7a 0d be
       -0.112241596 0.011016599 -0.004790733 -0.13816398
0002c0 22 f2 d5 bc db a0 e8 3c 79 e8 b9 3d cb c5 39 3e
       -0.026116434 0.028397014 0.09077544 0.18141858
0002d0 dc f8 10 3e d4 57 1c 3d e9 d8 80 bd d7 26 21 be
       0.14157432 0.038169697 -0.06291372 -0.15737472
0002e0 b6 87 16 3e 28 2b 9c bd 56 f1 45 bc ea 92 35 bd
       0.14700207 -0.07625419 -0.012081465 -0.04432956
0002f0 23 79 92 3e 1f 1c 2f 3e ee 1d 9f 3d a8 ef 25 3e
       0.28608045 0.17100571 0.077693805 0.16204703
000300 c7 4b d0 bd a3 81 a2 bd 63 32 06 be 2d 54 d5 bd
       -0.101707034 -0.079348825 -0.13105159 -0.10416446
000310 29 45 c4 bd 20 85 2b 3d 1b c0 ef 3c e8 0e dc bd
       -0.09583504 0.041875005 0.029266408 -0.10745031
000320 62 f2 82 3d 7f 3e 06 be cd 28 aa bd fc 1c 59 3d
       0.06393887 -0.13109778 -0.083085634 0.053006157
000330 a4 e3 70 3d 05 20 0b be 11 6a 7e 3e 07 fe 54 bd
       0.058810845 -0.13586433 0.24845149 -0.05200007
000340 44 3c 47 3d ac f7 91 bd c3 19 25 be 82 68 ae 3c
       0.04864146 -0.07127318 -0.16123109 0.021290068
000350 a6 93 c9 3d 28 f4 f7 bd 9e a7 99 bd bf 6f c5 bd
       0.09842615 -0.12107116 -0.075026736 -0.096404545
000360 16 74 ec bd 6e 0a 03 3d 20 c1 16 3d 5f 64 92 be
       -0.11545579 0.03199237 0.036805272 -0.28592202
000370 1d 27 62 3d 37 f8 aa 3e ac 98 9c 3c f7 a6 42 3c
       0.055213083 0.33392498 0.019115768 0.011880628
000380 09 4d 0b bd e5 32 03 3d 80 fd 91 3d 31 54 d6 bc
       -0.034009013 0.03203096 0.071284294 -0.026163192
000390 6b 4c 11 be a6 a6 04 3e d1 6e cb bc ff 1f 92 bb
       -0.14189307 0.12954196 -0.024833115 -0.0044593806
0003a0 1a 9f 1c 3d 3d 49 2e bd 1e ad cf bd 0d fc 6c 3d
       0.03823767 -0.042550314 -0.10140441 0.05785756
0003b0 d7 d0 17 bd f8 41 f7 bc fc 09 49 bd cc 99 66 bd
       -0.0370644 -0.030182824 -0.049081787 -0.056299016
0003c0 28 50 0d 3d f6 79 22 3d d1 f7 17 3e 25 4b 59 3d
       0.03450027 0.039667092 0.14840628 0.05305018
0003d0 9e cd 14 3e 72 b7 6e 3c 48 cc 0b be 16 98 be 3d
       0.14531562 0.014570104 -0.13652146 0.09306352
0003e0 21 b8 47 3d 3b e0 ed bd 32 88 27 bd 42 ba 1d 3d
       0.048759583 -0.11615034 -0.04090137 0.038507707
0003f0 39 1a 80 be 29 6a be 3d fb a8 11 bb 17 95 59 bb
       -0.25020006 0.09297592 -0.0022225964 -0.0033200437

base.mlp.layers.1.0.bias f4 [128]
000000 29 b0 b7 bc 64 e1 c9 3c 1e 83 1e 3c 2c 57 0d 3d
       -0.022422867 0.024643607 0.009674815 0.03450696
000010 ce 3e 4a 3d cb 23 34 bd b5 db ba bd 82 6d d1 bd
       0.0493763 -0.043979447 -0.09123937 -0.10225965
000020 23 92 ce bc 69 5d 9c 3d 96 a7 89 3d ce e4 3d 3d
       -0.025216168 0.07635004 0.067214176 0.046360783
000030 ea 82 e6 bd 6a 6a c3 3b 71 75 1a bd d9 cc bd bd
       -0.112554386 0.0059636133 -0.037709657 -0.09267587
000040 fd 26 f9 3b 53 71 a3 3d 2a 8f 93 bc 46 c6 c4 3d
       0.0076035247 0.07980599 -0.018012602 0.0960813
000050 43 23 ee b8 b7 e7 b6 3c fe b0 a2 bd 75 6d ed 3d
       -0.000113552924 0.022327287 -0.07943915 0.11593143
000060 91 14 7e 3d 58 d8 03 3d 54 64 ac 3d ca 5f d4 3c
       0.062031332 0.032188743 0.084175736 0.025924582
000070 4a 38 ab 3d 7a 41 03 3a dd 22 51 39 0c 72 c0 3c
       0.08360346 0.000500701 0.00019944781 0.023491882
000080 ec 42 bd bc 71 4c 1c 3c 53 80 6f 3d 07 51 b0 bc
       -0.0231032 0.009539709 0.05847199 -0.021523012
000090 73 23 b7 3d 91 2f ed bd b6 cc f9 bd 13 a8 3a 3d
       0.08942308 -0.11581338 -0.12197249 0.045570444
0000a0 92 42 1f 3d de c6 10 3c c3 69 01 ba 03 48 91 bc
       0.038881846 0.008836476 -0.0004936719 -0.017734533
0000b0 a3 5c 0a bd 31 3a 08 3e 7f 55 9f 3c 3e a0 dc 3b
       -0.03377975 0.13303448 0.019449947 0.0067329695
0000c0 17 42 b8 bc 1a 49 05 3d f8 6c c9 bd 1e 72 cf bd
       -0.022492452 0.03254042 -0.09835237 -0.10129188
0000d0 76 4f 75 3c 06 a7 09 bd fe dc 4a bc 69 52 ab bd
       0.014972558 -0.03360655 -0.01238179 -0.08365328
0000e0 16 a5 24 3d f6 01 33 bd 73 66 37 bd 0e 19 a1 3c
       0.0401965 -0.043703042 -0.044775438 0.019665267
0000f0 8c b9 e6 3c ae 3c da 3c e1 6e 2b bd 71 6c 19 3e
       0.028164648 0.026640262 -0.04185379 0.14982773
000100 91 8d 45 3d ea 1a 11 bd 1d 65 56 be 87 b5 8e 3d
       0.04823071 -0.035426058 -0.20937009 0.06968217
000110 b2 c9 5d 3d 1b 79 3f 3d c6 32 81 3d db cb 83 3c
       0.05414743 0.046746355 0.063085124 0.016088417
000120 b7 7c 40 bc e5 0f a7 3b a1 be 13 3d cc 08 f4 bc
       -0.011748484 0.0050983303 0.03607047 -0.02978935
000130 86 57 0a bd 00 21 8b 3d 9c ab 0d 3d 1a eb c5 bc
       -0.033774875 0.067934036 0.034587488 -0.024159957
000140 a5 16 0d 3d f2 dd 0e 3e 7b 24 f8 3c cb c9 f4 3d
       0.034445424 0.13951853 0.030290833 0.119525515
000150 0b 21 8c 3c 0a 63 8e 3d f9 c2 b6 3d c3 7b 79 3d
       0.0171056 0.06952484 0.08923907 0.060909044
000160 68 f3 1a 3d 45 62 38 3d e2 cf 55 3c f4 b3 46 3d
       0.037829787 0.045015592 0.013050051 0.04851146
000170 6b c4 53 3d a8 dd 11 be e0 90 bb 3d 51 9a b7 bb
       0.05170099 -0.14244711 0.09158492 -0.0056031127
000180 60 04 54 3d 94 79 8f 3d e2 32 91 3d 67 4e 16 3d
       0.051761985 0.07005611 0.07089783 0.036695864
000190 3d 6e dc 3c e0 81 91 3d fb f3 bd bd 4c ca c9 bc
       0.026908034 0.0710485 -0.09275051 -0.024632595
0001a0 61 3b 76 3d 15 37 8f 3d 96 f7 dc ba 0e 32 63 bd
       0.060115222 0.06992928 -0.0016858454 -0.055467658
0001b0 8b ae df bd 6e 07 26 3d 87 d6 6d 3d f6 5f 08 3c
       -0.10921963 0.04053443 0.058065917 0.00832366
0001c0 0c 31 98 bb 6b c9 db bc 94 71 51 3d 7b 72 12 be
       -0.0046445187 -0.026829442 0.051133707 -0.14301483
0001d0 d5 3c cc 3d e9 9c 03 3c 98 8b 00 3d 7e f6 1e bd
       0.0997254 0.008033016 0.031383127 -0.038809292
0001e0 f4 34 43 3d 12 46 e4 3c 0f 97 fc 3c cf 8c ba bd
       0.047657922 0.027865443 0.03083375 -0.09108888
0001f0 3a 00 e0 bd 2d f9 d3 3c 09 fe a6 3d 63 3f 10 3c
       -0.10937543 0.025875652 0.08153922 0.008804175

base.mlp.layers.1.2.weight f4 [128]
000000 9f 27 80 3f e4 5a 7e 3f af a2 67 3f 51 31 62 3f
       1.0012091 0.9935744 0.9048261 0.883565
000010 cc bf 74 3f 39 1b 6f 3f 6f a0 6c 3f d6 1c 6f 3f
       0.9560516 0.93400913 0.924323 0.93403375
000020 d3 31 7e 3f e4 93 84 3f 41 96 6e 3f 99 84 8c 3f
       0.99294776 1.0357633 0.9319802 1.0977966
000030 ec 4d 5b 3f 5f 3b 7b 3f 10 5b 72 3f 89 9b 86 3f
       0.85665774 0.9813747 0.946702 1.0516216
000040 4c 5b 81 3f e1 3c 8a 3f f4 81 71 3f 9f 23 94 3f
       1.0105987 1.0799829 0.9433892 1.1573371
000050 f7 c8 77 3f cf b8 84 3f 1f 2a 51 3f ad a3 8c 3f
       0.96791023 1.0368899 0.81704897 1.098745
000060 e5 e7 86 3f 1f 2a 8b 3f fe 3e 8a 3f bc 6d 77 3f
       1.0539519 1.0872229 1.0800474 0.96651816
000070 1b 03 83 3f 97 42 7f 3f 50 8d 67 3f d4 bc 8b 3f
       1.0235323 0.99710983 0.9045 1.0917001
000080 9c f7 70 3f cf 29 78 3f fb a9 94 3f 6e 90 86 3f
       0.9412782 0.96938795 1.1614374 1.0512826
000090 1c cb 8e 3f 30 a3 73 3f 9a a6 66 3f 4f 43 92 3f
       1.1155734 0.9517088 0.90097964 1.1426791
0000a0 b5 82 90 3f 0f 7f 74 3f 8b 46 7a 3f f7 46 7e 3f
       1.1289889 0.95506376 0.9776389 0.99327034
0000b0 da 39 86 3f 80 89 8d 3f 99 8c 81 3f a3 82 8f 3f
       1.0486405 1.1057587 1.0121032 1.1211742
0000c0 88 40 7b 3f 9f 26 8d 3f 6a 8d 66 3f 89 d8 71 3f
       0.9814534 1.1027411 0.9005953 0.9447103
0000d0 3b 10 80 3f fd 3f 80 3f 4d d4 6e 3f 91 05 6c 3f
       1.0004953 1.0019528 0.93292695 0.92195994
0000e0 13 6f 6e 3f d8 1e 86 3f f9 26 71 3f 0c 65 78 3f
       0.93138236 1.0478163 0.9420009 0.97029185
0000f0 77 4e 87 3f 0f 8f 77 3f 9e 5a 6e 3f 8b ba 9d 3f
       1.057082 0.96702665 0.9310702 1.2322553
000100 10 2f 7e 3f 34 bf 8c 3f d8 64 58 3f b3 8c 8c 3f
       0.9929056 1.099585 0.84528875 1.0980438
000110 9d a3 8a 3f c0 47 84 3f 8d d0 90 3f 41 02 7d 3f
       1.0831181 1.0334396 1.1313645 0.98831564
000120 f2 59 6a 3f 56 2f 81 3f 9d db 73 3f e7 db 89 3f
       0.91543496 1.0092571 0.9525698 1.0770234
000130 7a b2 70 3f 44 0d 97 3f e7 48 7b 3f c6 94 85 3f
       0.94022334 1.1800923 0.98158115 1.0436027
000140 dc 88 8e 3f c5 7a 93 3f 00 43 83 3f 10 50 9c 3f
       1.1135516 1.1521841 1.0254822 1.2211933
000150 69 bc 72 3f a0 ba 79 3f d2 8c 8b 3f 2a 00 7c 3f
       0.9481874 0.9755039 1.090235 0.9843775
000160 68 b5 85 3f 0b 80 77 3f 78 59 92 3f 02 21 88 3f
       1.0445986 0.96679753 1.1433554 1.0635073
000170 c5 92 85 3f 64 24 6a 3f b4 08 81 3f 99 b9 89 3f
       1.0435416 0.9146178 1.0080781 1.0759765
000180 63 cc 88 3f 01 35 6c 3f b1 c2 87 3f 55 b5 79 3f
       1.0687374 0.9226838 1.060629 0.97542316
000190 77 50 8d 3f b2 72 90 3f c0 df 79 3f 97 81 74 3f
       1.1040181 1.1285002 0.9760704 0.9551024
0001a0 be 9f 83 3f 28 04 8b 3f d8 7f 82 3f 4f ed 79 3f
       1.0283124 1.0860643 1.0195265 0.9762773
0001b0 2f c5 83 3f a8 54 7a 3f 54 95 85 3f 09 5e 82 3f
       1.0294551 0.97785425 1.0436196 1.0184947
0001c0 bd f9 6e 3f fc 6a 62 3f f9 21 8b 3f 96 a3 6e 3f
       0.9334982 0.88444495 1.0869743 0.9321836
0001d0 32 e1 89 3f 69 ec 78 3f 61 49 8d 3f f9 c3 84 3f
       1.0771849 0.97235733 1.1038018 1.0372306
0001e0 b2 16 83 3f ee f9 8e 3f 5a 83 81 3f ec d7 60 3f
       1.0241301 1.1170022 1.011821 0.8782947
0001f0 79 d6 6a 3f b5 40 7f 3f 96 d9 8a 3f e7 1d 6f 3f
       0.9173351 0.9970811 1.0847652 0.93405

base.mlp.layers.1.2.bias f4 [128]
000000 9a 57 58 3d ab 3e 81 3d 7a a2 d1 3b 15 3d dc 3c
       0.05281792 0.06310781 0.0063975425 0.026884595
000010 20 ca be 3b b7 37 33 bc 67 cf 4c 3c 3a 67 50 bd
       0.005822435 -0.010938576 0.01250062 -0.050879695
000020 7a 91 8b 3d 47 fb 1d bc 34 8f 33 3d af b3 0a 3d
       0.06814857 -0.009642429 0.04383774 0.033862766
000030 37 3c 75 3c 79 6e 5e 3d a3 48 31 bc 43 f4 94 bc
       0.01496797 0.054304574 -0.010820541 -0.01818288
000040 7f e4 bf bc 78 77 d4 3c 09 d4 aa 3d 7a 88 28 3c
       -0.023424385 0.025935873 0.08341224 0.010286445
000050 06 8d 0c bb a6 93 5a bc 34 42 d8 3c 34 2b 01 3d
       -0.0021446361 -0.013340866 0.026398756 0.031535342
000060 a4 de 65 bc b5 84 16 bd e8 05 65 3d c5 01 d6 bb
       -0.014030132 -0.036747653 0.055913836 -0.0065309727
000070 94 6c 1c bd 72 4d 97 3c ec 72 c1 bc 23 ab f8 3b
       -0.038189486 0.018469546 -0.02361437 0.0075887605
000080 c7 08 79 3d fd 3a a5 3d 9e 13 90 ba e7 78 21 bd
       0.060799386 0.08067892 -0.0010992175 -0.039421942
000090 99 1b fd 3c 9e 3c f7 3c 5e 0c c2 bc da 7b 1b bd
       0.030896949 0.030180272 -0.023687538 -0.03795991
0000a0 15 a0 c9 bc 02 1c 48 3c e8 86 6d 3d 0d bd 03 bc
       -0.024612466 0.012213709 0.057989985 -0.008040679
0000b0 51 e6 7f bd 94 ad 74 3d ca c7 51 bd ed 26 76 bd
       -0.062475506 0.05973585 -0.051215924 -0.060095716
0000c0 26 77 f5 bc e0 3e f0 3d 6a 2f ee 3c a9 5e 2d bd
       -0.029964041 0.117307425 0.029075343 -0.042326603
0000d0 68 8e 92 bc 9b 8b bd bb b3 29 cf 3c 7a a3 0c bd
       -0.01789017 -0.0057844645 0.025288438 -0.03433559
0000e0 94 fa 68 3c d8 0a 9e bc 28 5a 19 bd d2 4a 04 3e
       0.014219899 -0.01929228 -0.037439495 0.12919167
0000f0 26 2a 13 3d 35 fa 95 3d fd a4 0c 3d 5a 87 30 3c
       0.035928868 0.07323114 0.034337033 0.010774458
000100 5f 31 f8 3b 4e 96 da bc 67 04 b5 3d 7b 28 3e 3c
       0.007574245 -0.026682999 0.0883873 0.011606331
000110 3d d2 13 bd 63 9d 9e 3c 16 6d dd 3b b4 d3 8b 3c
       -0.03608917 0.019362157 0.006757389 0.017068721
000120 ea ef e8 3a 4a 83 fd 3c 62 81 d3 3d 4e 9b 44 3a
       0.0017771695 0.030946393 0.10327412 0.0007499949
000130 cb af 18 bc f5 bd b2 bc 19 15 07 bd 00 a2 c3 bc
       -0.009319256 -0.021819094 -0.032979105 -0.023880959
000140 5d 42 d5 3d e7 87 8a 3d 09 7f 2f 3c 0c 2d 92 3c
       0.104130484 0.067642026 0.01071144 0.017843746
000150 e5 58 6f 3c 3f 6e cb 3c 0e 3b 31 3d 45 d6 08 3e
       0.014608596 0.024832843 0.04326921 0.13362987
000160 aa 5e ff 3b 59 02 1c 3d 29 18 6a 3d 83 a8 d3 bc
       0.0077932673 0.038088176 0.057151947 -0.025837189
000170 bd 74 2a bc 7f b2 8e 3d 75 f6 01 3e a4 70 9d bc
       -0.010403809 0.06967639 0.12691672 -0.01921875
000180 35 c6 10 bc 79 15 a5 3d 38 4b 41 bc b2 81 cd 3c
       -0.008836319 0.08060736 -0.011797719 0.025086258
000190 cc a8 87 3c 20 68 ef bc 3c 59 aa bb e9 0e c7 3d
       0.01655998 -0.029224455 -0.005198626 0.09719641
0001a0 63 34 45 3d 8e 79 5b ba b0 d9 d1 bb 21 a8 11 bd
       0.048145663 -0.00083723 -0.006404124 -0.03556073
0001b0 91 89 0a bd c4 b7 72 3d 12 2c ff 3c d6 df ad 3c
       -0.0338226 0.059257284 0.031148944 0.021224897
0001c0 77 70 f1 bc cd ff 8f 3d 6c e8 ec bc b2 91 29 bc
       -0.029472573 0.07031212 -0.028919421 -0.010349678
0001d0 2b 18 3a 3d e6 4a 7b bc 5e 77 1e 3c 47 9b dc 3c
       0.045433205 -0.015337681 0.009672014 0.02692951
0001e0 1d 29 38 bc d1 28 4e bb 43 17 62 3d a5 7e 5f bc
       -0.011240271 -0.0031457434 0.055197965 -0.013641034
0001f0 6f 07 ce 3d 03 db a4 3c 10 e3 b0 3b 9a c3 13 3d
       0.100600116 0.020123964 0.0053981617 0.036075212
