models/actor_eviltemp.pt (torch, 616298 bytes, 14 tensors)

base.mlp.layers.0.0.weight f4 [256, 425]
00000000: ca02 5ebe c616 ed3d cf55 11be 894d 97bd
00000010: 6cbf 64bd 7345 42be 66cc 7c3c 1087 f03d
00000020: 30d0 5ebd 8325 9a3c c170 5dbc cb82 0f3e
00000030: cdfd a9bd ead1 b83d 8724 31be c12e d13d
00000040: 34cb 833d 2b38 d2bd 2af8 0fbd 7a76 92bd
00000050: 34ee 403e dad7 023e 5fee ccbd 617f b4bd
00000060: a9f8 86be 2417 06be 20fc 263d da4d e63d
00000070: 5bce b13d 9662 3f3d 3958 61be 4fbf 0ebe
00000080: 20a6 f93d 2450 d33d 6987 8c3c 8a1b 9fbc
00000090: 967d 0d3e cccc 3c3d bf9e 083e 1aa9 943b
000000a0: 1831 6a3e 83ff a0be 91b8 113d a0eb ab3d
000000b0: b3c4 0abe 1723 82be a383 fcbd 56f7 66be
000000c0: 7bfb 613d 0484 4c3c 0cdf 04be faa5 25be
000000d0: 9f20 c0be c6d0 0a3c 6e7b e1bd 0959 c03d
000000e0: 6890 033e 25b0 a0be 0697 64bd d921 a33d
000000f0: 26ee 413e 3548 eb3b 15fd 023e 0b2b b33d
00000100: afdc 45bc e14c 253d 9006 a1bd bdd7 5d3d
00000110: 39a7 52bd 9881 21be e4d0 bfbc 18bd f7bd
00000120: 4f92 333e 0139 cdbc 1088 20be 5d60 843e
00000130: ca03 07be 7d11 033d f40a 373d 4416 84be
00000140: aaf9 e63d 7898 ac3c 0f6c da3d ac9f 703e
00000150: aa95 b3bd b72c f43d 687f 8d3c e553 1c3e
00000160: b3bd 31bd 5af8 febc 8c66 753c 7626 5cbd
00000170: 0959 a43d 89cc b1bd de8c 923e f4c8 103e
00000180: 47e7 de3d 1ec5 bb3a 382e 223b 638d c73d
00000190: 87ab b73d e880 823d d428 3ebd 5bad 84bc
000001a0: 3705 c2bd b170 1bbe afd5 763e 165f e53d
000001b0: bb33 dbbd c502 46be f879 493e 32a3 013e
000001c0: dbb1 c5bd ae6e 82be 4ef0 1abe 4465 0b3e
000001d0: 660a 2d3e c5bf 75bc eb04 933d d6b6 90be
000001e0: 528c b2bd 2687 ad3e 130a 0c3e b0b7 673d
000001f0: 83d4 6dbd fd40 40be 813f 753e 47e8 803d
00000200: 1c15 fbbc bd76 0d3e a743 25bd 633a 3a3e
00000210: e6bf d2bd 6f89 1a3e 8fad 2fbb 711d b13d
00000220: 94d5 3e3d 3a76 1d3e 9394 ef3d 606d 38be
00000230: 314b 9f3d 21ee a4be 1127 033e cb9b 95bc
00000240: 3056 f63d 3929 12be 128b 2abe 3d19 1abe
00000250: 2ffa a3bd 5ecd a53d 2543 973d 7a8f 01be
00000260: 75ef 983c 2201 533e 8331 be3d 5483 1b3d
00000270: efe1 583d 9386 11be 1628 8abd e828 1e3e
00000280: 5d88 7e3d dc45 1e3e 775c 03bd 3b9c 46bd
00000290: 2db1 473e 4372 59bd 2f1f 313e 7287 9d3c
000002a0: 16d9 843c c703 ce3d 3315 2ebe 79f1 8fbc
000002b0: 98c8 22bd fabb 92bd f9e6 83bc 78ab cebd
000002c0: fb8d acbe 34d7 453e 55e6 c33d cb69 68bd
000002d0: 496f e23d 8829 863d e210 293e 159c a23c
000002e0: 90a2 273d f8bf 3b3e 81e2 513a 6c76 88bd
000002f0: 1b02 c4bd c704 cebc 0269 863d 23fc eb3d
00000300: f168 6abe 2040 b53e 77fe 7fbb 0276 c4bd
00000310: 556b 2c3c ddbe 51bd c809 993d 3431 993c
00000320: 1186 c13c 07c2 d33c ad09 08be 628e c03d
00000330: bc81 803d 742e 93bd 1878 1bbd 8ba9 25bd
00000340: 8ac2 f7bc a6b4 4d3c fb8f ba3d a87d 033e
00000350: 7946 92be 8006 703d d06b 72be 9e64 f1bd
00000360: f554 bbbe 2574 533d 33e7 dfbd f1eb f6bd
00000370: dd49 24be 2585 7dbd 9a37 37bd c259 d33c
00000380: 9215 4fbe 6bff 903e 47a3 9c3d 1686 73be
00000390: 38a1 413e 135a 2fbe d2f7 99be 39bd 24be
000003a0: 4dc1 873c df31 12be 2581 3cbe 901c cdbd
000003b0: b18b e8bd a097 5dbd 2f01 353c 4169 973d
000003c0: 1b4b 48be 43af 3cbe f214 0fbd c718 efbd
000003d0: 753f 12be 80b0 64be 9c8a 343d 867f 9bbd
000003e0: 8fbd 1cbe f7a3 8b3d f81c 81be a004 ff3d
000003f0: bb30 6abd b0d6 d3bd 18d0 c83c c8f9 9a3c
-0.21680751 0.11576609 -0.1419289 -0.073878355 -0.055846617 -0.18971805 0.015429592 0.11744511
-0.05439776 0.018816715 -0.013515652 0.14014737 -0.08300362 0.09024413 -0.1729909 0.10213996
0.06435242 -0.102646194 -0.035148777 -0.07151504 0.18840867 0.12777653 -0.10006403 -0.08813358
-0.26361588 -0.13094765 0.04076779 0.11245318 0.08681937 0.04672488 -0.2200631 -0.13940166
0.12189889 0.1031802 0.017154412 -0.019422311 0.13817438 0.046093747 0.13341807 0.00453676
0.2287029 -0.3144494 0.035576407 0.08394551 -0.13551597 -0.25417396 -0.12329795 -0.22555289
0.05517147 0.012482647 -0.1297571 -0.16176596 -0.37524888 0.008472627 -0.110098705 0.09391982
0.12848055 -0.31384388 -0.05580809 0.0796544 0.18938503 0.0071802386 0.12791856 0.08748444
-0.012076541 0.04035652 -0.0786258 0.054160822 -0.051429007 -0.15772092 -0.023415036 -0.12096614
0.17536281 -0.025051596 -0.15676904 0.2585477 -0.13185039 0.0319991 0.04468818 -0.25798237
0.112780884 0.021068797 0.10665142 0.2349841 -0.087687805 0.11922591 0.017272666 0.15266378
-0.043393802 -0.031124283 0.014978062 -0.053747617 0.080247946 -0.0868159 0.28623098 0.14139158
0.108839564 0.0014325713 0.0024746787 0.09743764 0.08968263 0.06372243 -0.046425655 -0.016195944
-0.09473651 -0.15179707 0.24104951 0.11199777 -0.10703226 -0.19336994 0.19675434 0.1265991
-0.09653064 -0.25475067 -0.15130731 0.13612849 0.16898498 -0.014999335 0.071786724 -0.28264493
-0.0871817 0.33892173 0.13675718 0.056571662 -0.058063995 -0.18774791 0.23950006 0.062943034
-0.030649714 0.13814826 -0.04034772 0.18186335 -0.10290508 0.1509149 -0.002680633 0.08648194
0.046590403 0.15377131 0.1169826 -0.18010473 0.077780135 -0.32212928 0.12807871 -0.018262764
0.12028158 -0.14273538 -0.16654614 -0.1504869 -0.08006703 0.08095811 0.07385854 -0.12652388
0.01866887 0.20605901 0.09286787 0.03796704 0.052949842 -0.14211492 -0.06745927 0.15445292
0.062141765 0.15456337 -0.032070603 -0.048488837 0.19501181 -0.053087484 0.17297052 0.019229624
0.016216796 0.10059314 -0.17000274 -0.017571198 -0.039742082 -0.0716476 -0.016101347 -0.10091299
-0.33702073 0.19320375 0.09565417 -0.056741517 0.11056382 0.0655089 0.16510347 0.019849816
0.040926516 0.18334949 0.0008006469 -0.06663212 -0.09570714 -0.025148762 0.065629974 0.11522701
-0.22891594 0.35400486 -0.0039061585 -0.09592821 0.010523637 -0.051207412 0.07472569 0.01870022
0.023623498 0.025849355 -0.13284941 0.09402157 0.06274745 -0.071865946 -0.037956327 -0.040444892
-0.03024413 0.012555277 0.09109493 0.12840903 -0.2856939 0.05859995 -0.2367394 -0.11786769
-0.36588255 0.051624436 -0.109327696 -0.12056721 -0.16043802 -0.061894555 -0.04473076 0.025799636
-0.20223072 0.28319868 0.0764833 -0.23781618 0.18909156 -0.17124204 -0.30071884 -0.16087808
0.016571665 -0.14276837 -0.1840864 -0.100152135 -0.11354769 -0.05409968 0.0110476455 0.073931225
-0.195599 -0.18426232 -0.034932084 -0.11674648 -0.1428202 -0.22332954 0.0440775 -0.075926825
-0.15306686 0.06818383 -0.25217414 0.12452054 -0.05717538 -0.10343683 0.02451329 0.018917933

base.mlp.layers.0.0.bias f4 [256]
00000000: 2565 12be c39b 92bd b935 383d b154 053d
00000010: e31a 23bd 473e 333d d2c4 dabd 715e dfbc
00000020: a5e7 493d fea0 09be d66d 6f3c acac 8f3d
00000030: c758 b9bc e5ed 943d c3a9 a0bd 16da f93c
00000040: be73 e43c 3b28 9dbd 6b38 c73d 644f 5abd
00000050: c2ae 74bb 5b51 0d3e ffc5 a1bc 8b77 973d
00000060: 04bd 21bd 4f8b 053d 0fcb 8ebc 866a 0bbd
00000070: 8002 5cbd f703 9e3c 0c68 c6bd f538 57bd
00000080: fa79 9f3d 97a7 4a3d ac9a c3bc fd89 24bd
00000090: ab4f ef3b 3d1b 61bb 9016 c03d 1510 ac3d
000000a0: e453 573d bd9f 28bd 05eb 333d 450f a23c
000000b0: 03eb 15be dd89 553c c170 253d 81fc 8c3d
000000c0: 0f65 a7bc d3b6 adbd 9515 253c fffe f03d
000000d0: 6d50 73bd 5e55 c83d d990 d2bd 3c54 31bd
000000e0: b1d7 8fbd 93ce bc3d f1d2 02bc b220 4ebc
000000f0: ca3e 55bd 2c0b ab3c de56 93bd 742f 733c
00000100: d75e 9c3c cd90 9b3c b8a0 01be 7298 e2bd
00000110: cf11 c4bd 0f5e f8bc 9f24 03be e4a6 9cba
00000120: 8b24 11be 2843 053c 11fe e6ba b9e9 9abc
00000130: e5e1 de3c 7e57 93bd 520d 1abc 8ea7 a53d
00000140: e555 3abb 4604 b6bd 7734 07bc 429f ed3c
00000150: 8ba2 47bd a8ab a8bc feea 9cbd 764e afbc
00000160: fd29 cf3d b352 77bd b558 b73d 6811 663d
00000170: 4ec8 cbbc 256d 61bd d9dc 57bd 2bb0 abbc
00000180: 7cef c2bd 1f6b 163e c692 7d3a a3df 26bd
00000190: e4d1 4bbd da9f a6bc 9289 07bd 164f 49bd
000001a0: 8af2 82bb e88a 03be 0683 a9bd d3ff 3f3d
000001b0: 1d61 b43c 7b3e cabc 3b8b 57bd a701 33be
000001c0: dac1 6dbd 7271 773b 9eb6 5f3d 6bd2 a5bc
000001d0: 8abf 293d df3c 13bd 5c19 55bc 215e 4d3d
000001e0: e3d3 d1bd 9e89 f0bd f0f8 213d a770 9bbd
000001f0: 68f0 553d dfe2 e0bd 265d c83d 2ef7 acbd
00000200: 3718 96bc 3764 393b 2b8d a7bd 04a1 f7bd
00000210: 9e14 eabd cce0 a3bb 2b90 6fbb 907c 473d
00000220: 3f6a bbbd ca08 82ba 59d4 56bd 719d 67bc
00000230: b737 30bd 0d2f 47bc b334 4fbd 4a4b 5ebd
00000240: 8587 11bd e95f 86bc 8d22 eabb c0f7 95bd
00000250: 8705 f93d 2af7 29bd 2c34 e1bd aa1c ac3b
00000260: a8a4 8cbc 9d17 94bd 04bb 0f3d a579 cfbd
00000270: a2cd 68bb 10a5 f63a e4d7 99bd 6011 f83d
00000280: 02ac 843d fb85 aa3c f0dc 61bd d2a8 2dbe
00000290: 7436 80bc 7a45 82bd 3214 23be b910 913c
000002a0: 4ab7 943c 77d7 43bd ecc8 853d 0164 d2bd
000002b0: 5a20 fabd c737 763c 3b7e 0e3d 33d6 a0bd
000002c0: a9ee cfbd 64b7 53bb d18f 4c3d f03c 03bd
000002d0: 248e 1b3d f360 92bc 9250 be3d c370 3abe
000002e0: a2b7 cd3d 5092 2b3d c872 3bbd 702a 96ba
000002f0: fd83 933c fb8d 4abd 60b5 803d ffa3 31bc
00000300: 684b e83c 9231 6cbd 1dd0 7f3d 1af4 a2bc
00000310: 00b5 723d 718a 46be 1fbe d73c c21a 62bc
00000320: 973d 76bd 4b4f 023c ff5f 3dbd 9181 d3bd
00000330: b0f0 0f3d 3213 9e3d 083f e53b 8996 edbd
00000340: 1833 703c f2fb 023d 5bf7 0cbe bb5a 9c3c
00000350: 5c8b 59bc 672a dfbc c88c 833d d021 a0ba
00000360: 6322 52bc 571f 073e c4bb 903d 457d 18bd
00000370: 5af6 993c 3690 393d fbfc 0ebe bb57 303d
00000380: eb31 cb3c 51be b03b c8fd cf3d 4c3a 67bc
00000390: 5d5d 343d 566b 3bbb 8211 2bbd af96 a8bc
000003a0: 42a9 6cbc b352 193b 1b8b b23d 3a17 c8bd
000003b0: 97b8 773d aaf5 e83c d292 79bc 6255 803c
000003c0: f3dd 05bd 60b8 cabd 3552 673d cacf 0a3d
000003d0: 7223 79bd d093 26bc 7561 5bbd 42fa 1fbc
000003e0: ba4f 083d a59d 60bd e792 7b3d 7c2c 4f3d
000003f0: 116d c4bd abf8 0bbc 26b1 a33c 062f 7e3a
-0.14296396 -0.071586154 0.04497311 0.03255147 -0.039820563 0.043760564 -0.10682072 -0.027266713
0.04929318 -0.1344032 0.014613589 0.070153564 -0.02262534 0.07271937 -0.078448795 0.0304995
0.027887221 -0.07673689 0.09727558 -0.05329837 -0.003733561 0.13800566 -0.019747732 0.07395848
-0.0394869 0.03260356 -0.01743081 -0.034037136 -0.05371332 0.019289 -0.09687814 -0.052544553
0.07786937 0.049476232 -0.023877464 -0.04017066 0.0073031983 -0.003434851 0.093793035 0.08401505
0.05257024 -0.041167963 0.043925304 0.019782672 -0.14640431 0.013033357 0.040390734 0.06884099
-0.02043393 -0.084821366 0.010075946 0.11767387 -0.059402872 0.097819075 -0.10281534 -0.043293223
-0.07023562 0.092190884 -0.007984863 -0.012581037 -0.052061833 0.02087935 -0.07194303 0.014842857
0.019088192 0.018989945 -0.12658966 -0.11064233 -0.09573709 -0.030318288 -0.12806939 -0.0011951593
-0.14174096 0.008133687 -0.0017623325 -0.018910276 0.027207324 -0.07194422 -0.00940259 0.08088599
-0.0028432545 -0.08887534 -0.008252255 0.029006604 -0.048738997 -0.020589665 -0.07662009 -0.021399718
0.101154305 -0.060381602 0.089524664 0.056168944 -0.024875786 -0.05503573 -0.05270085 -0.020958027
-0.09518334 0.14689301 0.0009673055 -0.04074062 -0.049760714 -0.020339895 -0.03309018 -0.049147688
-0.003996198 -0.12845957 -0.08276944 0.046874832 0.022018963 -0.024687996 -0.052623015 -0.17481099
-0.0580462 0.0037756828 0.054617517 -0.020241937 0.04144243 -0.035946723 -0.013006534 0.050138596
-0.10245492 -0.117449984 0.039544046 -0.07589846 0.052231222 -0.10980772 0.09783392 -0.08445583
-0.018322093 0.0028288492 -0.081812225 -0.12091258 -0.11429714 -0.005001163 -0.0036554437 0.048702776
-0.09151124 -0.0009920832 -0.052448604 -0.014136658 -0.043021884 -0.012157214 -0.050587367 -0.05427102
-0.035529632 -0.016403155 -0.007145232 -0.07322645 0.121592574 -0.04149548 -0.10996279 0.0052524405
-0.017168358 -0.072310664 0.03509046 -0.10130624 -0.0035522957 0.0018817503 -0.07511881 0.12112689
0.064781204 0.02081584 -0.055142343 -0.16958931 -0.015650965 -0.06360908 -0.15925673 0.01770817
0.018153805 -0.047812905 0.065324634 -0.102729805 -0.12213202 0.015027947 0.03478835 -0.07853355
-0.10152943 -0.0032305354 0.04994184 -0.032040536 0.037977353 -0.017868495 0.09292711 -0.18207078
0.10044791 0.04188758 -0.04576376 -0.0011456739 0.018007273 -0.04945181 0.062845945 -0.010842322
0.028356269 -0.05766446 0.06245433 -0.019891787 0.059254646 -0.19388749 0.026335774 -0.013800325
-0.06011733 0.007953475 -0.046234127 -0.10327447 0.035141647 0.07718505 0.0069960393 -0.11600978
0.014660619 0.031978555 -0.13766234 0.019086232 -0.013277855 -0.027241899 0.06423336 -0.0012217108
-0.012825581 0.13195549 0.070670635 -0.03722884 0.018794227 0.045303546 -0.13963692 0.043052416
0.024804076 0.0053937812 0.10155827 -0.01411302 0.04403435 -0.0028597913 -0.041764744 -0.020579664
-0.014444651 0.002339524 0.087179385 -0.09770055 0.060478773 0.028437454 -0.015232759 0.015665714
-0.03268237 -0.09898448 0.056474883 0.03388957 -0.06082482 -0.010167077 -0.05355974 -0.009764256
0.03327916 -0.05483784 0.061419394 0.050579533 -0.09591115 -0.008543174 0.019981932 0.0009696338

base.mlp.layers.0.2.weight f4 [256]
00000000: 05df 723f c35d 873f 222a 823f eec9 863f
00000010: fb03 6b3f e2c8 8f3f c3b6 6b3f b26b 8b3f
00000020: 6a77 813f 0047 7b3f 9924 743f e34b 823f
00000030: db07 863f 1559 763f 7788 813f 7738 5e3f
00000040: bf27 7c3f 6262 713f 54c2 813f f7ee 823f
00000050: 08f3 8e3f bb8c 873f 3e3c 713f 7e13 743f
00000060: fc54 8c3f 882a 903f 35f1 813f f75d 883f
00000070: 9823 753f 727d 783f 223b 743f 1142 6f3f
00000080: 5eb8 803f f3c6 703f 8257 713f f541 803f
00000090: 208a 8c3f dbcb 7f3f 5f62 963f fa01 853f
000000a0: e4dc 8e3f e18a 8d3f ca82 7a3f 03b1 763f
000000b0: 3784 753f 0f59 823f a594 923f 9d14 8f3f
000000c0: 85ef 733f 117b 6c3f 342d 6f3f 0f13 933f
000000d0: d951 8b3f c5bb 923f 038a 753f fb6a 7a3f
000000e0: 38ea 693f 1b06 7d3f 7bfa 7a3f fc62 933f
000000f0: b9ad 763f 3368 6c3f 3d8a 8e3f fe53 773f
00000100: a5f9 833f 28f9 843f d406 793f 61e4 7f3f
00000110: 498d 803f aee4 7b3f 5bd8 793f cfc6 7e3f
00000120: eeaa 7d3f 2f9c 893f 75c7 703f e16e 863f
00000130: 0891 813f ca21 833f 29de 6d3f a8f1 763f
00000140: 141d 973f 01c7 823f f551 793f 5f20 823f
00000150: 5260 863f 185e 7a3f a6d3 7c3f 004b 893f
00000160: d511 893f 9e0b 7f3f 79bb 8a3f ec27 723f
00000170: f1a5 8d3f ceb2 763f 578c 763f fe67 6d3f
00000180: 4098 6a3f 3235 9d3f bfe3 813f 8f94 943f
00000190: 427f 783f eece 8b3f 0d34 833f 931a 793f
000001a0: 0769 493f 57a5 923f c06d 833f b055 803f
000001b0: 216d 893f 38a9 713f 6394 803f c998 803f
000001c0: 7477 583f 6b67 883f 0728 863f 8ca0 903f
000001d0: cd9e 683f c66d 8f3f 5eda 613f e8a2 823f
000001e0: 78c2 833f a7ef 893f 2a2f 8b3f 8b38 853f
000001f0: db91 723f 8780 8a3f dba8 983f 01bf 7d3f
00000200: e295 893f c7df 6b3f 3dea 6b3f 85e1 6b3f
00000210: b6e2 713f 6bfd 833f bbc8 863f b4ca 8c3f
00000220: ab2a 953f c436 753f 572d 7d3f aeea 923f
00000230: df6b 783f 6466 8f3f 38aa 843f e4ed 873f
00000240: 71ca 783f 7a3f 813f f16e 8b3f d9e4 813f
00000250: 8050 833f c4fa 843f 17a8 8d3f 274f 843f
00000260: 84d1 833f 6993 7b3f 8f27 903f a4fd 8b3f
00000270: f87a 653f 6012 803f 6f56 803f fb67 813f
00000280: 57fb 863f f40e 653f 7766 893f f1a0 823f
00000290: d80c 7e3f e2a3 863f 1c6d 8d3f 2c19 7d3f
000002a0: fafc 8c3f f6d6 7a3f 460f 803f a058 8b3f
000002b0: 2142 723f 9243 7c3f 41ca 7d3f fbe6 683f
000002c0: 9c3a 763f bcfb 733f 31ce 8b3f dac2 773f
000002d0: e0ae 663f 343c 943f fda1 953f b4d4 853f
000002e0: db9d 833f 8cf1 773f ab1c 673f 84b8 7c3f
000002f0: 707a 6d3f 1a38 813f d20a 923f 4824 8e3f
00000300: f4a1 9f3f ff24 893f 1f4c 8c3f 3f76 803f
00000310: 3dcc 853f 3f33 703f 9056 863f b994 933f
00000320: 81a9 7d3f f611 6e3f 5337 7c3f fc38 873f
00000330: 2440 7e3f 09eb 653f 4544 8b3f c1d7 4b3f
00000340: 4d8b 713f 58ce 863f d615 843f 6b44 853f
00000350: 901b 8b3f c208 883f 94e0 773f e39f 7d3f
00000360: 2ff4 843f e5f2 7c3f 82f0 833f ff10 873f
00000370: 4393 8f3f 0cf0 933f d3df 713f f656 8b3f
00000380: c154 833f f362 873f 56eb 853f deee 693f
00000390: 7015 8d3f de7d 863f 9bce 893f a96e 963f
000003a0: d2d7 803f 40b4 8f3f 29de 8d3f 34b2 7b3f
000003b0: df6e 943f cb5d 7b3f 3712 6c3f 99c5 753f
000003c0: 804d 8e3f 9d4c 8f3f 1156 8b3f 59f7 863f
000003d0: 934d 783f 9acd 693f 498c 793f 13b2 833f
000003e0: 1cde 5a3f 65d5 5f3f b436 943f 47ad 803f
000003f0: 5536 813f 70f7 673f 7d64 833f b2da 713f
0.9487155 1.0575489 1.0169108 1.0530374 0.9180295 1.123318 0.9207575 1.0892241
1.0114567 0.9815521 0.95368344 1.0179409 1.0471147 0.9622968 1.0119771 0.8680491
0.9849815 0.94290745 1.0137429 1.0229176 1.1167917 1.0589823 0.9423255 0.9534224
1.0963435 1.126298 1.0151736 1.0653676 0.95757437 0.97066414 0.9540273 0.93460184
1.0056264 0.9405357 0.9427415 1.0020128 1.0979652 0.99920434 1.174877 1.0391228
1.116116 1.1058007 0.9785582 0.9636385 0.9590487 1.0183429 1.1451613 1.1178166
0.9528735 0.92375284 0.9342835 1.1490191 1.0884353 1.1463553 0.95913714 0.9781949
0.91373014 0.9883744 0.9803845 1.1514583 0.9635883 0.92346495 1.1135937 0.96612537
1.031056 1.0388536 0.97276044 0.99957854 1.0043117 0.9839581 0.9759576 0.9952211
0.99088943 1.0750788 0.9405435 1.0502588 1.0122385 1.0244687 0.92917114 0.9646249
1.1805749 1.0216981 0.9739068 1.0166129 1.0498145 0.97799826 0.9876045 1.0726013
1.0708567 0.996271 1.0838462 0.94592166 1.1066266 0.96366584 0.9630789 0.92736804
0.91638565 1.2281859 1.0147628 1.1607836 0.9706918 1.0922525 1.025026 0.97306174
0.78675884 1.1456708 1.0267868 1.002615 1.0736428 0.9439883 1.0045284 1.0046626
0.8455727 1.0656561 1.0480965 1.1298995 0.9086731 1.1205375 0.88223827 1.0205965
1.0293722 1.0776261 1.0873768 1.040788 0.9475381 1.0820473 1.1926531 0.99119574
1.0748866 0.9213833 0.92154294 0.9214099 0.9448656 1.0311712 1.0530008 1.099936
1.1653646 0.9578669 0.9889731 1.1477869 0.970396 1.1203122 1.0364447 1.0619473
0.971839 1.0097497 1.0893232 1.0147964 1.0258942 1.0389028 1.1066922 1.0336655
1.0298314 0.98271805 1.1262072 1.093678 0.8964076 1.0005608 1.0026377 1.0109857
1.0545453 0.8947594 1.0734395 1.0205365 0.9923835 1.0518763 1.1048923 0.98866534
1.1014702 0.97984254 1.0004661 1.0886421 0.94632155 0.98540604 0.9913674 0.9097745
0.9618318 0.9530599 1.09223 0.96781695 0.9011059 1.1580873 1.169006 1.0455537
1.0282549 0.96852946 0.9027812 0.9871905 0.9276495 1.0095246 1.1409552 1.1104822
1.2471299 1.0714415 1.096073 1.0036086 1.0452954 0.93828195 1.0495167 1.1529762
0.9908677 0.92996156 0.9852192 1.0564265 0.9931662 0.8981176 1.0880209 0.7962609
0.9435318 1.0531721 1.0319164 1.0411505 1.0867786 1.0627673 0.96827054 0.9907209
1.0387019 0.9880813 1.0307772 1.0552062 1.1216816 1.1557631 0.94482154 1.0885913
1.026024 1.0577072 1.0462444 0.9138011 1.1022167 1.0507162 1.0766176 1.1752521
1.0065863 1.1226883 1.1083423 0.9831879 1.1596335 0.9818999 0.92215294 0.96004635
1.1117401 1.1195256 1.088564 1.0544235 0.9699337 0.9132935 0.97479683 1.0288719
0.8549516 0.8743499 1.1579194 1.005288 1.0094706 0.90611935 1.0265042 0.9447433

base.mlp.layers.0.2.bias f4 [256]
00000000: 6489 5d3c 04b9 9dbc 5557 17bd 57dd f93c
00000010: c8c8 923d a79d fbbd dea2 18bd 370a 5e3d
00000020: 6674 bdbc b0b8 2cbc c7b6 403c 6691 3c3d
00000030: fe8f c73c 1a59 dc3c c801 c3bc f8bd b13d
00000040: 2cce dcbb 626f 14bd 658f 06bd 8062 79bc
00000050: 96ce 293c 3535 6bbc 3073 533b c6f3 9a3d
00000060: 13c8 95bd b171 913c aea4 99b9 7b8a 0dbd
00000070: 4f56 cb3c 09bf 87ba 5a2f dabc aa89 8bbd
00000080: 540c 1b3d 9690 523d 15bb cdbb 42e3 d4bc
00000090: 01f3 18bc 8c7c 403d dd35 053c 7d6d 8e3d
000000a0: ff2c cabc 9c29 d9bc 8008 613d 430e 9b3b
000000b0: 8f1e 9b3d ed54 0ebd 4c23 95bd 2b12 ab3c
000000c0: 2775 523d f67c e13d 39a6 d1bc 0b4a d03d
000000d0: 30d5 4f3d fe85 fdbc ad34 4a3d ec0b 743d
000000e0: 8295 993c 42bf 083d b344 c0bd 177b bcbc
000000f0: c440 a73c 3ebd 923d bfe1 99bd be29 913d
00000100: 0cde 47bd 4ded 683d b464 17be 73ec c43c
00000110: 494a 67bd 7022 283c a4b1 803c 9f0a 87bc
00000120: 6156 6ebd 8d45 20bd 7c50 85ba cd4a 993c
00000130: 48f9 6d3c f164 91bc 0c69 0a3e 3859 6abd
00000140: 8afe 36bd 4efd 983c 9100 50bc 54ec 82bc
00000150: 65a4 cb3c 8541 873d 8eaa b33c 5731 35bd
00000160: 2d9c 1b3d 7e3b fd3b f5c8 623d dfcf 2a3c
00000170: aed6 ef3c b810 903d 382e c4bc 8cd2 3f3d
00000180: b45f fcbc 2707 14bd 7d23 1dbd 3443 3fbd
00000190: 9668 783c 9157 46bc 5522 ee3c 5ddf 8a3d
000001a0: 9d7e 373d 3b86 413d f6f4 01bd 0631 283d
000001b0: 043f e1bc e0a4 a73d 8e19 26bd dcca 653c
000001c0: b6f6 873d a90d 4f3c fb36 7d3d 10f6 2dbd
000001d0: 361d 253d 94d7 673c 6b3a 4cbc 895d fa3c
000001e0: bc44 8b3d dd37 38bd 5c2f f53a 43c6 cdbc
000001f0: be0c 803d f976 4dbc 0274 90bc 49a1 df3d
00000200: 88fb 75bd 17ae 583d 1b51 543d 5111 a33d
00000210: 4a65 c13d 1cd5 e13d bac9 633c 2d82 88bd
00000220: a64b 58bd e78e 373d 308d 7dbb 1e69 ef3c
00000230: 49dc 2ebc 5646 303b 3848 3ebd d689 09be
00000240: 1d03 d13c 424d 7b3b 2cf8 bdbc f1b8 44bd
00000250: fab9 5b3d 5503 aebd e80f 903d 23b5 1fbd
00000260: cf3a 5abd 3319 463b fd81 363d 2edd 70bd
00000270: 2b25 a0bb 6dab 86bd 756f 993b 5d53 fa3c
00000280: d812 55bd ba09 0c3d cb16 ee3b e933 b1bc
00000290: db3a c33c 03bd a7bd f56a 06bd 5d70 663d
000002a0: b7b3 b0bc e4ba 02bd 6db7 70bb 5f60 45bc
000002b0: a150 283d 3097 373d 821c 7f3d b652 153d
000002c0: 5d31 68bc 8f76 cd3d 1b40 213d 0040 9dba
000002d0: 4410 a23d a517 9abc ca17 d13d c12e 27bd
000002e0: 1808 193d 9947 eebb eea9 fcbc 8785 09bc
000002f0: c4a4 b43d c6f6 663d c40d e6bc 5a9f 89bd
00000300: 32c9 c63c 9ab0 823c 9f6a ef3d 97e9 163d
00000310: 93ec c43b 1a38 293d 5b53 aabd f204 a3bd
00000320: 98bf b8bb 38e0 6abc 0f2b 143d a99c 10bd
00000330: b3bc 57bc f7a0 07bc c7e0 f8bc 33c9 aebc
00000340: 62ea 783d aa09 6fbb b9e1 09bd afbd b43c
00000350: 932e ec39 a965 d8ba 6579 873d aec5 6e3d
00000360: 8626 023d e446 a63d 0110 833d 4676 963c
00000370: c72c a53b 661b 25bd 8fd0 553d 641f ca3c
00000380: 4664 8c3c fadf c9bd 4c04 dd3d 6501 6b3d
00000390: 25c4 92bb 0d94 17bc 81cb b5bb 07c4 c6bd
000003a0: 983f 0f3d 4493 c3bd 72cc 9c3d 5021 923d
000003b0: 8f9d 863d 2d30 33bc 9505 823d fd56 c63c
000003c0: 30b0 cbbd 05a2 c3bc 7e99 023d 7e03 8f3d
000003d0: 960f ddbc 6d1e d23d 8cef 53bc 33de 2dbd
000003e0: c29c 613d 8e35 9c3d 7cc5 cbbc c664 d73d
000003f0: 77ae 9fbd 43d9 723b fe3b 78bc 62c5 12bd
0.013521526 -0.019253261 -0.03694852 0.03050105 0.07167202 -0.12285929 -0.037264697 0.05420896
-0.023126792 -0.01054208 0.0117623275 0.0460371 0.024360653 0.026897956 -0.02380456 0.08678812
-0.006738445 -0.036239035 -0.032851595 -0.015221238 0.010364195 -0.014355947 0.0032264702 0.07566027
-0.07313552 0.017754408 -0.0002930513 -0.034555893 0.024821429 -0.0010356616 -0.026633907 -0.06813367
0.037853554 0.05140742 -0.0062784054 -0.025987271 -0.00933528 0.046993777 0.008130518 0.06954477
-0.024679659 -0.026509099 0.054939747 0.0047319247 0.07574188 -0.03474896 -0.07282123 0.020882687
0.051381256 0.110101625 -0.025591956 0.101703726 0.05074042 -0.030947682 0.04936664 0.059581682
0.018748049 0.033385523 -0.09388103 -0.023007913 0.020416625 0.07165001 -0.07513761 0.0708804
-0.048795745 0.056866933 -0.14784509 0.024038529 -0.05646733 0.010262117 0.015709706 -0.016484557
-0.058187846 -0.03912883 -0.0010171081 0.018712426 0.014524765 -0.017748328 0.13516635 -0.057213992
-0.04467634 0.018675473 -0.012695448 -0.01598183 0.024858663 0.06604294 0.021931913 -0.044236507
0.037990738 0.0077280393 0.05536743 0.010425537 0.029277172 0.07034439 -0.02394782 0.046831653
-0.030807354 -0.036139634 -0.038363922 -0.04669495 0.015161654 -0.012105838 0.029069105 0.067808844
0.044798482 0.047247153 -0.031727754 0.041062377 -0.027495869 0.08185744 -0.040551715 0.014025416
0.06638853 0.012637534 0.06182001 -0.04247099 0.04031106 0.014150519 -0.0124651 0.03056218
0.068002194 -0.04497515 0.0018706131 -0.025118953 0.062524304 -0.012540572 -0.017633442 0.109194346
-0.060054332 0.0529004 0.05183516 0.07962287 0.094431475 0.110269755 0.013903076 -0.06665454
-0.05280652 0.044814017 -0.003868889 0.029224928 -0.010672637 0.0026897392 -0.046455592 -0.13431486
0.02551418 0.003834561 -0.023189627 -0.048027936 0.053644158 -0.08496729 0.07034284 -0.038991105
-0.05327874 0.0030227422 0.04455756 -0.058804683 -0.0048872433 -0.065756656 0.004682476 0.030557329
-0.052019924 0.034188963 0.0072659007 -0.021631198 0.023831775 -0.08190348 -0.032816846 0.0562595
-0.02157007 -0.031916514 -0.0036730424 -0.012046902 0.04109252 0.044821918 0.062283047 0.036455832
-0.014171925 0.10032379 0.039367776 -0.0011997223 0.07913259 -0.018810103 0.102096155 -0.040816072
0.037361234 -0.0072717187 -0.030842748 -0.008393652 0.08820489 0.056387685 -0.028082736 -0.06719847
0.02426586 0.01595335 0.11690258 0.036843862 0.006009647 0.04131327 -0.0831668 -0.079599276
-0.005638074 -0.0143356845 0.036173876 -0.035305653 -0.013167548 -0.008278123 -0.03038062 -0.021336174
0.0607704 -0.0036474266 -0.03366253 0.022063104 0.00045048128 -0.0016509789 0.06614951 0.05829399
0.03177502 0.0811899 0.06399537 0.018366944 0.0050407383 -0.040309332 0.05220085 0.024673171
0.017137658 -0.09857173 0.10791835 0.057374377 -0.0044789487 -0.009251607 -0.005547941 -0.09705358
0.034972757 -0.09549573 0.07656182 0.0713526 0.06573021 -0.010936779 0.06348721 0.024211401
-0.099457145 -0.023880968 0.031884663 0.06983088 -0.026984971 0.102597095 -0.01293553 -0.042448234
0.055081137 0.07627402 -0.024874441 0.10517268 -0.077969484 0.0037055768 -0.015151022 -0.03583277

base.mlp.layers.1.0.weight f4 [128, 256]
00000000: 43c8 493e dd94 eebd 5ac2 dcbd ac6e 883e
00000010: 9bf1 8ebd 73aa 49be c0ff e5bd f624 71be
00000020: 031d 1abb 17f8 2abe abab 783d a987 173e
00000030: c8fc c9bc 7d06 ffbc cef6 4c3e 2bcc 863d
00000040: 1217 983d 3d49 453e dc20 82bd c1ee edbd
00000050: a334 2abd e484 20be c372 9d3e 2ab7 9b3d
00000060: b8d9 04be d9e3 76bd 5a86 66be 0874 6f3c
00000070: 6083 4d3e 5469 513d 4520 5bbd 31f9 66bd
00000080: f529 a83e 0a46 0dbd aca1 783e b6a0 023d
00000090: 0a74 12bd ef84 0dbe 5028 123d 1fdc 913d
000000a0: 346f 903d 27ab c0bd 6428 7f3d 46df 0fbd
000000b0: ec3a e5bd 4c04 1dbd 9f6a 5e3e 618a 66be
000000c0: ff83 f3bd 473d 04be 4b89 293d edd2 1abc
000000d0: e6ab 233e a459 183d 6cbf 65bd b245 4abd
000000e0: 2e62 9a3d c7cf 4cbe e9de 78bd b6b8 fe3c
000000f0: 917d 9abd 0244 0bbe 6895 46be d9dc 14bc
00000100: 3f7f a23d dd54 d4bd b18d 9bbc 2aad 953d
00000110: bf66 37be 59fe eebd 86cb 243e f359 913b
00000120: 3ce7 fabd c73b 8fbd 4df9 01bd 4df9 3b3e
00000130: 653f 773e c9bf 7abd 518a 853d 90d9 14be
00000140: 7283 f03d 3645 20be b122 53be 2e66 ae3d
00000150: 6692 93bd 9fa4 3f3e d30f 0ebd 5f47 03be
00000160: b7ff fbbd 86fb 3ebe 568b aebc 06d9 2f3e
00000170: 5390 ec3d 73f9 86bd dbff f9bd 8293 083e
00000180: 116a 023c 0804 a73d ec0f a7bd 7776 9c3e
00000190: 1d4d 9a3d 3aa7 46bd 90bb 073e ee68 8abb
000001a0: 40db 653e df24 5dbe ae55 5a3e 03c4 dbbd
000001b0: 4663 adbc e795 7fbe 6447 8cbe 1d8f c9bd
000001c0: c947 0bbe b953 273e 98ae a33d a923 8abe
000001d0: 820b 583e 99eb 063e 0264 2abe 14ba 5bbd
000001e0: 9df1 9cbe b3bd aebd 1340 5bbe 172f 4bbd
000001f0: 418b 9f3d 421a 983d c4f9 febd 6f49 1c3e
00000200: 4feb 19bd c3e1 413c 5bf5 52bd 022b 4cbe
00000210: adf2 94bd a2b7 5ebd 050b 4ebe 517c 2c3d
00000220: 0586 99be f451 fb39 b89d 9cbd 0ff6 823d
00000230: a7b9 19bd d447 bf3d 3a39 323e 9b94 4e3d
00000240: 34a1 84be e536 ea3d b753 05be 3ff7 4ebe
00000250: dada 953c 1734 883d 6cec a1be f7aa 03be
00000260: 34dd 573e de63 f83d d252 aebd 78fb 01be
00000270: 2a07 8ebd c45e 08be b094 c43d 7c7c 5cbe
00000280: ee3c d8bc 1f03 b8ba a1a6 8bbe 643d a7bc
00000290: 2b31 9abe 1a60 14bd a4c4 60be 8589 3e3e
000002a0: a199 39be 75fe 573e 0e49 1f3e 4ddc c5bd
000002b0: cb6f 1e3d e93e 1c3b 8222 cd3d 3f27 fcbb
000002c0: 9b56 debd e94a 88be e654 b9be d952 e9bb
000002d0: 2aa0 083e 08ed 08be 43ae 0abe fbc9 d4bd
000002e0: b87d 1dbe 5347 14bd a9f3 17be 87fc 2dbe
000002f0: 383a 6ebc d4a1 99bd a282 15be 186a 13be
00000300: 81b5 b1be 1480 40bc 8a9f d6bd c0a7 34be
00000310: 7966 40bc 9c96 f4bc cf83 91bd 1816 13be
00000320: bce6 73ba d6fa 41be 42f8 b8bd 8a67 0cbe
00000330: 229e 1e3e f561 81bc f1fc 293e 30f7 4abd
00000340: 1a60 a33d 72cc 163e a6de 843d f1cd 3a3d
00000350: 74e4 66bd 110e 12bd 1d2d 393e d5e0 90bd
00000360: 5402 02be 613f fa3d 9e41 39bd 8b27 1cbe
00000370: 557a 333e 6bac 59be 9147 5bbd cc5e 423d
00000380: c191 0bbe 6f46 d13d 013a 5e3d fb7b 07be
00000390: 0862 85bc ef17 623e d4b0 b13e 314d 2ebb
000003a0: c84f 073d 631f 503e 3926 b73d ca8a b3bd
000003b0: 30b4 b0ba 92b5 af3e 8875 8b3c 442f 6e3e
000003c0: 61f6 b03d 2a74 b43c 2241 e33d 133b f43c
000003d0: ce18 003d 6f1b 0ebe 8c98 a7bd 2202 483d
000003e0: 6b23 793c a2ed 433d 3489 8c3d f1e5 73be
000003f0: c36c 09be dd50 113e 4317 aabd 08f7 d6bc
0.197053 -0.11649487 -0.10779257 0.26646936 -0.06979676 -0.19693927 -0.11230421 -0.23549256
-0.0023515827 -0.16696201 0.06071059 0.14797844 -0.024656668 -0.031131024 0.20016024 0.06581911
0.07426275 0.1926622 -0.06353924 -0.11617804 -0.041554105 -0.15675694 0.3075162 0.07603295
-0.12973678 -0.060275886 -0.22512189 0.014615066 0.20069647 0.05112584 -0.05349757 -0.05638999
0.3284451 -0.034490623 0.24280423 0.031891547 -0.035755195 -0.13820241 0.035682976 0.07122063
0.0705246 -0.09407645 0.06229438 -0.03512504 -0.11192879 -0.038334176 0.2172036 -0.22513725
-0.11890411 -0.12914 0.0413907 -0.009449703 0.15983543 0.037194863 -0.056090757 -0.049382873
0.075382575 -0.20001136 -0.06075946 0.031093936 -0.07543481 -0.13600162 -0.19392931 -0.009085857
0.079344265 -0.10367749 -0.018988462 0.07308419 -0.17910288 -0.11669607 0.16093263 0.0044357716
-0.12251136 -0.069938235 -0.031731892 0.1835682 0.24145277 -0.061218057 0.065205224 -0.14536119
0.11743821 -0.15651402 -0.20618702 0.08515583 -0.07205658 0.18715142 -0.03468306 -0.12820195
-0.12304633 -0.18650636 -0.021306675 0.17172632 0.11550965 -0.065905474 -0.12207004 0.1333752
0.0079598585 0.08155066 -0.08157334 0.30559132 0.075342394 -0.048499323 0.13255143 -0.0042239344
0.22446918 -0.21596096 0.21321747 -0.10730746 -0.021165501 -0.24959527 -0.27398217 -0.0984175
-0.13601603 0.16340531 0.079922855 -0.26980332 0.2109814 0.13175811 -0.16639712 -0.053644255
-0.30653086 -0.08532276 -0.21411161 -0.049605455 0.077902324 0.07426883 -0.12449983 0.15262388
-0.037577923 0.011833611 -0.05150352 -0.19938281 -0.07272849 -0.054374345 -0.20121391 0.042110745
-0.2998506 0.0004793551 -0.0764727 0.06394588 -0.037530567 0.09339872 0.17404643 0.05043469
-0.25904238 0.114362516 -0.13020216 -0.20211504 0.018292833 0.0665056 -0.31625688 -0.12858187
0.21080476 0.12128423 -0.085118905 -0.12693584 -0.0693496 -0.133174 0.095986724 -0.21531862
-0.026396241 -0.0014039016 -0.27275565 -0.020415016 -0.30115637 -0.036224462 -0.21950012 0.18607147
-0.18125011 0.21093161 0.15555212 -0.0966116 0.038680833 0.0023841208 0.100163475 -0.007695108
-0.108563624 -0.26619652 -0.36197585 -0.007120472 0.13342348 -0.1337167 -0.13543038 -0.10390087
-0.15379989 -0.036200833 -0.14839043 -0.16990863 -0.014540248 -0.075015694 -0.14600614 -0.1439594
-0.3470879 -0.011749286 -0.104796484 -0.17642117 -0.011743181 -0.029856972 -0.071052186 -0.14363897
-0.00093040965 -0.18943343 -0.090317264 -0.13711372 0.1549001 -0.01579378 0.16600396 -0.049552143
0.07977314 0.14726427 0.06487779 0.045606557 -0.056370214 -0.035657946 0.18083616 -0.07074133
-0.126962 0.1221912 -0.045228593 -0.1524946 0.17527135 -0.21257178 -0.053535048 0.047453687
-0.1362982 0.10218512 0.054254536 -0.13230889 -0.016282097 0.22079442 0.34705222 -0.0026596303
0.03303507 0.20324473 0.08942837 -0.08766706 -0.0013481434 0.34318215 0.017023817 0.23260218
0.08640743 0.022028048 0.110964075 0.029813325 0.031273656 -0.13877653 -0.08183393 0.04883016
0.015206198 0.047834046 0.06862107 -0.23818184 -0.13420396 0.14191003 -0.08305218 -0.02624084

base.mlp.layers.1.0.bias f4 [128]
00000000: 77dd a83d f66b e7bc 9cc1 4abc 78c1 71bd
00000010: 4f96 15be ed03 c8bb 5074 fb3b 3a1d 153d
00000020: 26d1 ed3b 27d6 9dbd 3bf2 5abd edea 15bd
00000030: f9ca 65bc 272b 063d 22f5 d8bd 7ee1 abbc
00000040: 2002 9ebd d1a3 d53c 4b49 d8bd 6482 693d
00000050: d61b 093e abf2 14bc c1e3 64bd b620 903d
00000060: dbba b738 e729 6fbd d262 ea3d aaab 9abc
00000070: 8db9 fabc 934b 1e3c 7625 0fbd d2c4 52bd
00000080: 42d7 653d f938 ca3b a638 443d bd9a a0bd
00000090: 4423 b1bd 4297 c13d fc35 023e 542e cb3c
000000a0: 3074 1fbe 3af2 babd 7dfd b9bd 9d9f e7bc
000000b0: d7a9 9dbc 8025 88bd e075 07be 9276 e0bc
000000c0: 4121 cdbd ab8b b0bc 0b86 983c 7150 f9bc
000000d0: edd8 9cbd d0f8 843c 0b88 ccbb 14de 78bd
000000e0: 000e a4bd 029e 7d3d e4e0 93bc d824 debd
000000f0: 333d 34bd 2293 5dbd 9477 20bd 1d0d 18be
00000100: 62b2 ce3c aa23 c2bd a7ba bc3d b47b 56bc
00000110: b91e 6bbd 196d c7bc bf8c c1bc b93e 0bbd
00000120: c7e8 61bd e853 843c cc88 20bd d4a3 10be
00000130: e2d1 e0bd 8193 1ebd ee5d 213c fc36 9fbd
00000140: df3d 203c bf36 febb 4805 98ba f5d3 debd
00000150: 0893 11bd 6917 9ebd 7136 4dbd b8ba cd3d
00000160: 8faa bfbd c8c3 03bd c293 a13b 7760 04be
00000170: e43c 9f3d cb41 13bd 7860 423c 2ab8 91bd
00000180: 2d40 d9bc 5712 903c a0f7 a23c 1f9e 26bd
00000190: 0fe4 b9bc 6c25 b33c f48c cbbd c1b3 0abe
000001a0: 4d70 b83c 3fbd 25bc 9b18 1fbd 5f43 16be
000001b0: d5b2 9cbc 7441 adbd 0076 4bbd 3c38 d03c
000001c0: d0f9 f3bc a4ad 7e3d 9599 96bd 0496 e9bc
000001d0: 3bca f63b e695 863d 8c79 cdbb 7ff2 0ebd
000001e0: 34bf 61bd b990 523c 140f 2a3d 52ce 29bd
000001f0: 2ee9 0ebc a1dd 93bd c029 91bd 6798 533d
0.08245366 -0.028249722 -0.012375262 -0.059022397 -0.1460812 -0.0061039836 0.0076737776 0.036404826
0.0072575985 -0.07706862 -0.053453665 -0.036600996 -0.014025443 0.032755997 -0.105936304 -0.020981546
-0.07715249 0.02607909 -0.105608545 0.057009116 0.13389525 -0.00909106 -0.055881266 0.07037489
8.7609245e-05 -0.05838957 0.1144463 -0.018880684 -0.030606056 0.009661573 -0.034947835 -0.051457234
0.05611349 0.0061713425 0.047905587 -0.07842014 -0.086493045 0.09452678 0.12715906 0.024802364
-0.15571666 -0.09128232 -0.09081552 -0.028274352 -0.019246025 -0.066477776 -0.1322856 -0.027400289
-0.10016108 -0.021550974 0.018618604 -0.030433865 -0.07658563 0.016231924 -0.0062418035 -0.060758665
-0.08010483 0.061918266 -0.018051572 -0.10846871 -0.044003677 -0.054095395 -0.03917654 -0.14848752
0.025231544 -0.09479459 0.092152886 -0.013091017 -0.057402346 -0.024344014 -0.023626683 -0.033995364
-0.055153634 0.01615329 -0.03919296 -0.14124995 -0.10977532 -0.03871489 0.009849055 -0.07774159
0.009780376 -0.007757991 -0.0011598254 -0.10880271 -0.03554061 -0.07719309 -0.050100747 0.100453794
-0.09358703 -0.032169133 0.004930944 -0.12927423 0.07775286 -0.035951417 0.01186382 -0.07115205
-0.02651986 0.01758687 0.019893467 -0.04067814 -0.022691755 0.02186843 -0.09938994 -0.13545133
0.022514487 -0.010115921 -0.038841825 -0.14674138 -0.019128243 -0.0845975 -0.04967308 0.02541744
-0.029782206 0.062177315 -0.07353512 -0.028513916 0.007531432 0.065715596 -0.006270593 -0.03489923
-0.055113986 0.012851887 0.041518286 -0.041456528 -0.008722587 -0.07220007 -0.07088041 0.051659014

base.mlp.layers.1.2.weight f4 [128]
00000000: 68be 843f 5bbc 7a3f 5c9e 543f 45fa 613f
00000010: f531 903f 35d2 893f 76d4 733f 5090 703f
00000020: 2947 6c3f d3c5 8b3f 454e 693f 2e48 5f3f
00000030: b70b 773f 9fab 8b3f 44e7 723f efb0 8a3f
00000040: 1b7f 8a3f ea94 873f 19de 623f 0dc4 813f
00000050: 147b 723f 4cab 523f 01f4 723f 9a8b 873f
00000060: cdd0 783f 2887 8c3f d6a3 813f 6dee 653f
00000070: 047d 6f3f 492c 7f3f 1ad2 8a3f 37df 7d3f
00000080: 61ef 893f 38a2 7a3f 36da 833f ae36 923f
00000090: 56f5 913f 72cf 7c3f fe52 803f 42a9 5d3f
000000a0: 177e 6a3f 09b5 9f3f 2cc2 583f 46f3 8a3f
000000b0: 9619 8c3f bbd7 973f f1f6 703f d296 703f
000000c0: a47b 903f 589a 923f 8d19 7c3f a786 893f
000000d0: 113f 933f d499 8f3f 1d38 753f f196 873f
000000e0: ff38 823f a8a5 853f 9ce1 833f 659f 863f
000000f0: 117e 703f 994f 8c3f 4ed7 743f 9cb2 753f
00000100: 150b 713f 6979 873f 5473 773f 7b17 833f
00000110: 3e90 8a3f fd17 7e3f 3035 693f 37a6 713f
00000120: 30e4 843f 237a 813f 8e9b 8a3f 8110 823f
00000130: 0aaf 803f a792 733f b93d 923f beef 803f
00000140: 7984 6c3f 8fd7 833f 8138 833f 878b 5f3f
00000150: 35d8 713f f6da 743f bf3a 753f 50ed 803f
00000160: dfad 843f 982d 883f 98c1 693f 0ced 6c3f
00000170: dbd7 823f 063a 683f 9c58 8b3f 99a1 8b3f
00000180: b4dd 643f 0078 5a3f 7405 693f b624 773f
00000190: 53bc 613f 000e 813f 3059 8b3f 6677 963f
000001a0: 1042 6d3f a8dd 883f e8b7 803f 5710 7d3f
000001b0: 9cd5 8a3f e613 7d3f 44ae 823f 985b 963f
000001c0: b8ba 8e3f 2cd3 653f ab69 763f 7224 863f
000001d0: 398b 783f 2d55 813f 01e6 6e3f 8a12 753f
000001e0: 2f06 983f 1c47 6c3f 3d23 6b3f dd21 8f3f
000001f0: 8153 a53f 601e 883f d493 6d3f 1900 a53f
1.0370607 0.9794366 0.8305414 0.88272506 1.1265246 1.0767275 0.95246065 0.93970203
0.9229608 1.0919746 0.91135055 0.8721951 0.9650225 1.091175 0.94884133 1.0835246
1.082004 1.059232 0.88620144 1.0137955 0.9471905 0.8229263 0.9490357 1.0589478
0.97193605 1.0978746 1.0128124 0.89816934 0.93550134 0.9967695 1.0845368 0.99168724
1.0776178 0.97903776 1.0300968 1.1422937 1.1402996 0.98754036 1.0025327 0.8658639
0.9159865 1.2477123 0.8467128 1.0855491 1.0945308 1.1862711 0.941268 0.93980134
1.1287732 1.1453352 0.9847649 1.0744218 1.1503621 1.121882 0.9578875 1.0592939
1.0173644 1.0441179 1.0303226 1.0517393 0.9394236 1.0961791 0.9564103 0.9597566
0.94157535 1.0583926 0.9666035 1.0241541 1.0825269 0.99255353 0.9109678 0.9439425
1.0382137 1.0115398 1.0828722 1.0161287 1.0053418 0.9514565 1.1425086 1.0073164
0.9238964 1.0300158 1.0251619 0.87322277 0.9447053 0.9564661 0.95792764 1.0072422
1.0365561 1.0638914 0.91311026 0.92549205 1.0222124 0.90713537 1.0886416 1.0908691
0.8940079 0.85339355 0.91023946 0.9654039 0.88177985 1.0082397 1.0886593 1.1755188
0.9267893 1.0692644 1.0056124 0.9885306 1.0846438 0.9885849 1.0209432 1.1746702
1.1150732 0.8977535 0.96254987 1.0479872 0.97087437 1.0104119 0.9331971 0.95731413
1.1876887 0.92296004 0.91850644 1.1182209 1.2916108 1.063427 0.9280369 1.2890655

base.mlp.layers.1.2.bias f4 [128]
00000000: 6af2 7e3c 5fe7 b43d f28e a2bc 9503 6ebd
00000010: bb58 14be ff1d 08bd b01e 9e3d bd82 223d
00000020: 9219 e2bc 4c3d 68bd efad 9b3d 0d4b 1bbd
00000030: 707e 363d 61ea 453e c253 e6bc 8d8b 733c
00000040: a202 173d d82c e5bc 8589 f33d d27e d13c
00000050: 04db c53d 1946 393e 715f 883e 767f 9b3d
00000060: a0d5 413e 24e2 17bd 510f b33d 7553 223e
00000070: 2e4e d0bc e7ad 59bd 3082 dcbd 4757 393d
00000080: 6599 3fbc 7eca 573d 2241 c9bc 9131 cfbd
00000090: da62 a43c 59bb fc3d 894e e53d 7574 3e3d
000000a0: 107c c13b 02b0 36be 2b05 863d 6cf1 213d
000000b0: 3808 29be 7297 2bbe 7018 7d3b b113 dcbc
000000c0: 98c7 1dbe 5655 cabd 8480 f03c 763e 02be
000000d0: f97b c63d 836c 48bd 4deb 48bc 04ab 16be
000000e0: fb8d 373d 066b 653d 9c3d 55bc 2f19 09be
000000f0: 833c 693d 34e0 21bd 1c5f f23c 8058 e93c
00000100: 0820 493d 5f57 10bd 01eb 1d3e 88cb e6bc
00000110: 5e1b 563a 9c04 9f3c 6e43 733d b440 bb3c
00000120: 3e3a 10bd 36e8 093d d621 e6bd 51f5 51bd
00000130: 27a9 fc3c fda4 203d 0305 e0bd 5d14 9ebd
00000140: db0b a73c c6ff 0fbd b8d6 0a3c 3caf 023e
00000150: a9f4 6b3d d517 513d 37f1 163c 904d 643d
00000160: 66df 85bd 3098 7cbd 3ff7 693d cea8 a43d
00000170: 5d43 b83d 9901 473d 1522 503c b1d3 b2bd
00000180: 49d5 29ba 1b37 123d bf80 9e3d cb2c c33b
00000190: 00f8 993d c746 943d e654 2dbc 7835 03be
000001a0: e815 293d f8da 7bbd bd2b f53c 5d43 9b3d
000001b0: 885d a6bd 831a 14bc ef37 4ebd c0fb d9bd
000001c0: 5c68 e83d b0e0 eb3d 72fc e23c 78a2 d8bc
000001d0: 6941 16bd 1dc7 e43d 4709 973d b65c 6c3a
000001e0: 914c b8bd 96ca b03d cbb0 213d bc34 c8bd
000001f0: 91dc 1bbe 179d 36bd 1a04 f53d 6ffd 07be
0.015560726 0.08833193 -0.019843552 -0.058108885 -0.14486973 -0.03323173 0.07720697 0.039675463
-0.027600084 -0.056699082 0.076015346 -0.03791337 0.044554174 0.1932769 -0.02811611 0.0148648145
0.036867745 -0.027975485 0.11891464 0.025573168 0.096609145 0.18093146 0.26635316 0.075926706
0.18929148 -0.0370809 0.08743156 0.15852149 -0.025427904 -0.05314436 -0.10767019 0.04524925
-0.011694287 0.052683346 -0.02456719 -0.10116876 0.020066667 0.12340421 0.1119662 0.04649778
0.005904682 -0.17840579 0.065439545 0.03953688 -0.16507041 -0.1675699 0.0038619302 -0.026864858
-0.1540817 -0.09879558 0.029358156 -0.1271914 0.09691615 -0.04893161 -0.012263131 -0.14713675
0.044813138 0.05601027 -0.013015177 -0.13388513 0.056942474 -0.039520457 0.029586367 0.028484583
0.049102813 -0.035239574 0.15421678 -0.028173223 0.000816753 0.019411378 0.059390478 0.022858001
-0.035211794 0.03366872 -0.112369224 -0.051259343 0.030842377 0.039219845 -0.10938456 -0.07718728
0.020391395 -0.035156034 0.0084740445 0.12762159 0.057606373 0.05104812 0.009212784 0.055738032
-0.065367505 -0.061668575 0.057120558 0.080400094 0.089972235 0.048585508 0.012703438 -0.08731783
-0.00064786203 0.035697084 0.077394 0.0059562675 0.07518005 0.07240062 -0.010579323 -0.12813365
0.041280657 -0.06148812 0.029928083 0.07581208 -0.081233084 -0.009039524 -0.05034631 -0.106437206
0.1134803 0.11517465 0.027708266 -0.026444659 -0.036683474 0.1117079 0.073748164 0.00090165006
-0.08998979 0.0863239 0.039475244 -0.09775683 -0.15220858 -0.044583406 0.11963673 -0.13280271

base.mlp.layers.2.0.weight f4 [64, 128]
00000000: 42b5 a13d 0e10 a63d 6d6f 4e3e 1faa cdbd
00000010: 1caf a5bd cf56 84bc 26fe 893e f531 f8bd
00000020: 5731 0c3e 174b fc3d 122b cdbd 0083 183e
00000030: e128 f0bd 706c a3be ad63 6d3d ca8b 413c
00000040: 4d1c 10be c934 26bc 0216 d3bd b199 0d3e
00000050: dcda 813e 71e6 ad3d 41b5 33be b71b dcbe
00000060: 042d c93d 5e61 ab3e fdfe a8be a742 12be
00000070: b0f4 323d f776 983d 864f 3f3e 3a86 813d
00000080: 26aa ef3c d3f8 203e 0b79 02be 273c 103e
00000090: 9141 d4bc df1a bebe 33ad 88be fc72 0d3d
000000a0: 442e 3f3e 0f91 943e 5f4e 563e 466f f5bd
000000b0: e424 cd3d 1e0f 57bc 1ce3 5f3d 18ea a73c
000000c0: 1d0c a43d 69aa 153d f08d a0be 219a e1bb
000000d0: 6c3f ddbd 05b1 8f3d 248b 823e 76a1 423e
000000e0: b88e 4bbd aa4b 1a3d defc 8bbd 03e9 483e
000000f0: 3ac8 993c 4aa0 2fbe a4f3 9b3e 91a7 043e
00000100: b27b 223e 702a abbd dceb 85be 4afc acbd
00000110: c7ef dcbd dd17 fc3c bd5f 7b3d a525 6e3e
00000120: 9ba6 5dbd 7a82 153b b3f0 2d3e 7ce3 5b3e
00000130: dbef 8cbd 1aa0 25bd 33cb f23e 53ec 3ebe
00000140: a950 973d 9d13 90be 5388 37be d030 163d
00000150: df06 99bd cd18 6abe 47a6 26be ed30 093c
00000160: 790a c2bd d257 673d ac36 223d 9770 6b3e
00000170: beef 8ebe 6d2f 683e 3b83 b73c e309 8b3e
00000180: 55a2 c93d 2cf5 8bbd 2043 23be d98a 8e3d
00000190: ec56 153e 534f df3d 69e6 6b3e ca29 80bd
000001a0: 0b03 cebd 06aa de3e ddd4 5f3e 8bcd 3a3e
000001b0: 2e36 57be 1b17 073d 4b42 a73e 6095 75bd
000001c0: a465 2d3d 4760 58be 2fd1 bb3d 145f 2d3e
000001d0: 811c c6bd 7eb0 433e 5ca7 d7bd 4765 8abd
000001e0: 2e4b 42be 7af7 f8bd fc92 733e 5929 803e
000001f0: eddb 353e 8233 c4bd c269 3c3e 3fca d13d
00000200: 9bd9 8bbe 1575 0ebe 9eeb 83be 52e3 163d
00000210: 7b2a 023d c334 1abe ee80 dcbc 505f b6bb
00000220: 3e3d c63d 665e db3d 9098 b8bd 5c37 323e
00000230: 033a a23d aff2 993e 9c80 f03d 7f31 003e
00000240: 6509 243c d16d e4bc 16c5 e43d 7562 0abd
00000250: 5cbc a4bd e71a 703d a26a 923b 02c4 2b3b
00000260: 527a 993e 4ca2 543e 5b19 343e 791c 493d
00000270: e24f dc3d d2d9 d53d 1b44 443e 420b 82bd
00000280: b152 42bd f664 a1be 0b78 dd3d e4d6 96bd
00000290: bbf3 88be e7a5 e83d c023 42bd f3cd f2bc
000002a0: cf9d 553e 6563 063e 2c23 603c f9fe 29be
000002b0: a5f3 093e 7f1a 233e c4b1 3d3d 4459 4c3d
000002c0: bb52 ec3d 5c5a 3a3e 623b 013e 7648 de3b
000002d0: 23f6 9ebd 1afc a1be 0c24 3dbe 0e55 503c
000002e0: 63d5 a6be bdf0 11bd d658 693e b3ba d93d
000002f0: 07f0 68bd 85cf d5bd d525 eabd 7ca6 513e
00000300: ab44 37bd 8073 c33c 179a e1bd 589f 5cbe
00000310: 1867 203d a5a3 fabd 577e 593e 53a3 563b
00000320: 7694 763c 5897 6cba 7daa 04be bd39 f0bc
00000330: fe7e 893e 2cda 7abc a8a5 e8bd 08d9 bb3c
00000340: 555c 403d f2ad 123e 3d73 3ebe 5dfa 3dbe
00000350: 40fd 143e f9ea b53d ac5d e93d 908b ffbd
00000360: 0d85 d33c 4b96 f23d 23b1 ebbd ba05 943d
00000370: 92af 1abe 2075 2abe 7392 b83c 838d 69bd
00000380: 8db9 9b3c f5f7 8fbd 16b0 d5bd 3ca1 d03b
00000390: 12e1 8dbe a9ad 03bf 629c d43d 666b 5f3e
000003a0: e4ca 9dbc 91ac 6dbb c38d 07be 8368 aa3e
000003b0: 8a3f d23e 3465 b9bc bd6c ca3d 139c 5a3e
000003c0: 03c4 1bbc c5aa aabd d3a9 01be 89b5 193e
000003d0: 51d6 703d 10f8 3f3e ff98 6abe de1b ab3d
000003e0: e1c5 bf3d ad1e 86be c87b a83d 64f9 323e
000003f0: aaeb d8bd ed10 8c3d 2ca7 2b3e a99b aebd
0.078959 0.08108531 0.20159693 -0.10042214 -0.0809004 -0.016154675 0.26951712 -0.121189035
0.13690697 0.1231901 -0.10017981 0.14893723 -0.11726547 -0.3191867 0.057956386 0.0118131135
-0.14073296 -0.010144421 -0.10306932 0.1382816 0.2536229 0.08491219 -0.17549612 -0.42989895
0.09823039 0.33472723 -0.3300704 -0.14283238 0.043690383 0.07444566 0.1868268 0.0632443
0.029255938 0.15719919 -0.12741487 0.14085446 -0.02591017 -0.37129876 -0.2669464 0.034533486
0.18669993 0.2901692 0.20928334 -0.11984114 0.10016802 -0.013126163 0.054659948 0.020497367
0.08010123 0.03653947 -0.3135829 -0.0068848287 -0.108031124 0.07016186 0.2549678 0.19006905
-0.049696654 0.037669815 -0.0683534 0.19620137 0.018772233 -0.17150989 0.3045932 0.12954547
0.15867499 -0.08357704 -0.2615651 -0.08446558 -0.107879214 0.030773098 0.0613706 0.23256548
-0.054113965 0.0022813366 0.1698635 0.21473497 -0.06881686 -0.040435888 0.47420654 -0.18644838
0.073884316 -0.28139964 -0.17923097 0.036667645 -0.07472014 -0.22861023 -0.16274367 0.008373481
-0.09474654 0.056480236 0.03960292 0.22992168 -0.27917284 0.22674341 0.022401443 0.2715598
0.098454155 -0.06833872 -0.15943575 0.06960077 0.1458394 0.10903802 0.23037113 -0.06257971
-0.10059174 0.43489093 0.21858545 0.18242471 -0.21016762 0.03298102 0.32667765 -0.05995691
0.04233326 -0.21130477 0.09170758 0.169308 -0.096734054 0.19110295 -0.10529968 -0.06757598
-0.18973991 -0.121565774 0.23786539 0.25031546 0.17759676 -0.09580137 0.18399718 0.102436535
-0.27314457 -0.13911851 -0.257657 0.036837883 0.031778794 -0.1505919 -0.026916947 -0.0055655614
0.0967965 0.107113644 -0.09013474 0.1740393 0.07921221 0.30067965 0.1174328 0.12518881
0.010012005 -0.027884396 0.11170404 -0.033785302 -0.08043739 0.058619406 0.004468278 0.002620936
0.29976135 0.20765036 0.17587797 0.04909942 0.10757424 0.104419366 0.19166605 -0.063498035
-0.047442142 -0.3152234 0.10813912 -0.07365206 -0.26748452 0.11359768 -0.047397375 -0.02963922
0.2086098 0.13123854 0.013680261 -0.1660117 0.1347185 0.15928076 0.04631211 0.049889818
0.11539217 0.18198532 0.12620309 0.0067835404 -0.077617906 -0.3163765 -0.18470782 0.012715591
-0.32584676 -0.035629977 0.22787794 0.10631313 -0.056869533 -0.10439972 -0.11432997 0.20473665
-0.04474322 0.023858786 -0.110157184 -0.2154516 0.039160818 -0.12238244 0.21239601 0.0032751157
0.015050044 -0.00090252375 -0.12955661 -0.029324407 0.268547 -0.015310805 -0.113597214 0.022930637
0.046963055 0.14324167 -0.18598647 -0.18552537 0.14549732 0.08882708 0.113948196 -0.12477791
0.02582028 0.11845072 -0.115083955 0.07227655 -0.15106037 -0.16646242 0.02253077 -0.05701972
0.019009376 -0.07029716 -0.10433976 0.006366877 -0.27710778 -0.5143686 0.1038139 0.21818313
-0.019261785 -0.0036266188 -0.13237672 0.3328286 0.410641 -0.022631265 0.098840214 0.213486
-0.009507182 -0.08333353 -0.12662439 0.15010656 0.058798138 0.18746972 -0.22909926 0.083549246
0.09363914 -0.2619528 0.082267344 0.17477947 -0.10591824 0.06839166 0.1676299 -0.085257836

base.mlp.layers.2.0.bias f4 [64]
00000000: c05e 64bd a517 a3bd 8fdb c9bb ea33 bcbd
00000010: 5a38 b4bd 2a06 58bd 25d3 6cbc 4724 80bd
00000020: acbb 95bd 0277 d3bd 5731 99bd a82a 77bd
00000030: c564 37bd ac5f 31bd fe85 bdbd 1c64 07be
00000040: 2dec 6bbd 99f2 e5bc e035 d7bd a41e 70bd
00000050: 0300 ecbd 240f 00be fef0 06bd d2e8 9fbd
00000060: bdd2 c7bd af6a 6cbd c972 77bb 1d17 8dbd
00000070: 64ec 89bd e1d4 61bd b10a ddbd 3946 bbbd
00000080: 54e8 babd b59c b9ba d82e 20be 5a9f 9cbc
00000090: 718b 55bc 3afe 81bd e44a 26bd d16c 1cbe
000000a0: dc60 03be 1fa9 11be d85e 2dbd d012 013d
000000b0: d248 ffbc 2c65 bcbd 743c 48bd 58df 81bd
000000c0: dab0 4abe efb1 03bc 4a6e 4bbd 2c29 18be
000000d0: 02a4 c9bd 81e7 e7bd 952d 26bd 2e62 bbbc
000000e0: f018 3ebd 7835 9ebd 88d4 8bbd 4dc4 82bd
000000f0: 642a 98bd ac17 86bd 4a06 62bd bf62 32be
-0.055754423 -0.07963494 -0.0061602066 -0.09189589 -0.08799811 -0.052740254 -0.014454638 -0.06256919
-0.07311186 -0.10325433 -0.07480114 -0.060343415 -0.044773836 -0.04330413 -0.092540726 -0.13221782
-0.05759828 -0.028069781 -0.10508323 -0.05862297 -0.1152344 -0.12505776 -0.03294467 -0.07808079
-0.09756992 -0.05771893 -0.0037757626 -0.06889174 -0.06734541 -0.055134658 -0.10793055 -0.09144253
-0.09126344 -0.0014161082 -0.1564287 -0.019118953 -0.013033734 -0.06347318 -0.040598765 -0.15275885
-0.12829918 -0.14224671 -0.04232678 0.03151208 -0.031162653 -0.091989845 -0.048885778 -0.063414276
-0.19794026 -0.008038028 -0.049665727 -0.14859456 -0.09845735 -0.11323453 -0.040570814 -0.022873964
-0.0464105 -0.07725042 -0.068276465 -0.06385098 -0.0742996 -0.06547484 -0.05518178 -0.17420481

base.mlp.layers.2.2.weight f4 [64]
00000000: 2720 9d3f c7a1 ab3f 504e c43f a434 cf3f
00000010: 054f c23f ff41 cd3f f8e6 c23f ce41 be3f
00000020: 9b4b cd3f fd5f ac3f 9210 8e3f 8ffe cc3f
00000030: fe70 9e3f b33a d63f 5db2 b93f 4239 9b3f
00000040: b72d be3f 61af 9f3f 7ab5 b73f b560 ad3f
00000050: 2a8d af3f fd84 ac3f 6ac9 a93f 3ad5 b43f
00000060: 7f31 963f fa15 e83f 10a3 c03f b03b cb3f
00000070: c484 cb3f b271 9c3f 671e c13f 5869 cc3f
00000080: 22ea c33f 2714 bc3f 5e78 e43f 77bb c73f
00000090: 81a2 d73f d59e dc3f bbe9 923f fda9 d03f
000000a0: d9a2 c13f 540c 9a3f 7dcc b13f da52 c23f
000000b0: 5a3d c53f 207b b43f f8e2 ce3f 787f bc3f
000000c0: 352b 933f 4579 f03f 599f e23f 6c87 bd3f
000000d0: 68c4 bb3f f60a cc3f e47a aa3f 900f da3f
000000e0: 2a4f bc3f 9a14 a63f db02 c73f 353f a63f
000000f0: f9b0 bd3f f17d f83f 01df a63f 62ae 973f
1.2275437 1.3408746 1.5336399 1.618794 1.5180365 1.6035765 1.5226736 1.4863832
1.6038698 1.3466793 1.1098807 1.6015185 1.2378232 1.6736664 1.4507557 1.2126849
1.4857701 1.2475396 1.4352257 1.3545138 1.3714955 1.3478085 1.3264592 1.4127572
1.1733855 1.8131707 1.5049763 1.587759 1.5899892 1.2222197 1.5087403 1.5969648
1.5305827 1.469365 1.7849233 1.5604085 1.6846467 1.7235972 1.1477579 1.6301876
1.5127822 1.2035012 1.389053 1.5181534 1.5409348 1.4100075 1.6163015 1.47264
1.1497561 1.8787009 1.7704879 1.4806952 1.4669313 1.5940845 1.3318753 1.7035999
1.4711659 1.2975037 1.5547746 1.2988039 1.4819633 1.9413434 1.3036805 1.1850092
