models/actor_evil256-128-64.pt (torch, 616406 bytes, 14 tensors)

base.mlp.layers.0.0.weight f4 [256, 425]
0	0xbe3ba8f8	-0.18326175
1	0x3de9b212	0.11410917
2	0xbe01581e	-0.1263127
3	0xbd8f57dc	-0.0699918
4	0xbd6b01f2	-0.057374902
5	0xbe171458	-0.14753854
6	0x3c7ccc66	0.015429592
7	0x3df08710	0.11744511
8	0xbd5ed030	-0.05439776
9	0x3c9a2583	0.018816715
10	0xbdab6015	-0.083679356
11	0x3e092d82	0.13396266
12	0xbd5ec083	-0.054382812
13	0x3e063c86	0.13109025
14	0xbe10e49d	-0.14149709
15	0x3dd47c44	0.10375264
16	0x3d9b2f55	0.07577387
17	0xbd9ec80d	-0.077530004
18	0x3d53244e	0.051548295
19	0xbd9c2580	-0.0762434
20	0x3e37e1f6	0.17957291
21	0x3e229335	0.15876468
22	0xbd8a19d2	-0.06743206
23	0xbd9b5474	-0.075844675
24	0xbe52b0b0	-0.20575213
25	0xbdcbae8d	-0.09945402
26	0xbcf0cf78	-0.029395804
27	0x3dd9394e	0.10606633
28	0x3dec6be7	0.11544018
29	0x3db35877	0.08757108
30	0xbe29d6ed	-0.16585894
31	0xbe1f4d0a	-0.15556732
32	0x3da40462	0.080086485
33	0x3dd537fd	0.104110695
34	0x3cf5432d	0.029939258
35	0xbc96ceef	-0.01840922
36	0x3e3e4215	0.18579896
37	0x3d5b59d5	0.053552467
38	0x3e093b5b	0.13401549
39	0x3d76cbe3	0.060253035
40	0x3e856233	0.26051483
41	0xbe90df97	-0.28295586
42	0xbd00a8c4	-0.031410947
43	0x3d9715d8	0.07377213
44	0xbdc66bbe	-0.09688519
45	0xbe643fd4	-0.22289973
46	0xbddd8862	-0.108170286
47	0xbe5ef877	-0.2177447
48	0x3d70c8df	0.058785316
49	0x3d594236	0.05304166
50	0xbe185459	-0.14875926
51	0xbd569060	-0.05238378
52	0xbe8facf7	-0.2806165
53	0xbd12c1a7	-0.035829213
54	0xbda452bf	-0.08023595
55	0x3db096c3	0.086225055
56	0x3e35bd20	0.17747927
57	0xbe8fa7c7	-0.2805769
58	0xbda10b1f	-0.07863449
59	0x3d5e4a66	0.05427017
60	0x3e34ebce	0.17668077
61	0xbc4a05dd	-0.0123304995
62	0x3e1ca086	0.1529561
63	0x3d82c1e3	0.06384637
64	0x3cb57c27	0.022153927
65	0x3bce4165	0.0062944167
66	0xbdb483ea	-0.08814223
67	0xbb719ab1	-0.0036865885
68	0xbcb826d2	-0.022479448
69	0xbe3abdca	-0.18236461
70	0xbd379548	-0.0448201
71	0xbe0d1717	-0.1377834
72	0x3e3ae63d	0.18251891
73	0x3c976370	0.018480033
74	0xbe29edf9	-0.16594686
75	0x3e4bad3f	0.19890307
76	0xbe358288	-0.17725575
77	0x3d2306a0	0.03980124
78	0x3da5b970	0.0809201
79	0xbe81d483	-0.25357446
80	0x3da8fb5a	0.082510665
81	0xbc358db5	-0.011081149
82	0x3daba24e	0.083805665
83	0x3e4fbfc4	0.20287997
84	0xbdc57ada	-0.09642573
85	0x3e3f69e2	0.18692735
86	0x3d707bb1	0.05871171
87	0x3e0d300e	0.13787863
88	0xbd31bdb3	-0.043393802
89	0xbcfef85a	-0.031124283
90	0x3c75668c	0.014978062
91	0xbd5c2676	-0.053747617
92	0x3da45909	0.080247946
93	0xbd355872	-0.0442738
94	0x3e9b9609	0.30387905
95	0x3d419c5e	0.047268264
96	0x3de6339b	0.11240312
97	0x3d5292ff	0.051409718
98	0x3d9a8e61	0.07546688
99	0x3de7c2e9	0.11316473
100	0x3d4ec870	0.05048412
101	0x3db1d69d	0.08683512
102	0x3ce03f33	0.027373886
103	0x3b80fa7f	0.0039361115
104	0xbd89ef76	-0.06735127
105	0xbe1ed34f	-0.15510295
106	0x3e69f205	0.2284623
107	0x3e1332ac	0.14374799
108	0xbd69b2a0	-0.057055116
109	0xbe1a7299	-0.15082778
110	0x3e5b8c8a	0.2144033
111	0x3d050550	0.03247577
112	0xbdbe658c	-0.09296712
113	0xbe4dfe27	-0.20116483
114	0xbdfa7baf	-0.12230622
115	0x3e2cdcd7	0.16881119
116	0x3e0d2165	0.1378227
117	0x3d03fa4a	0.032221116
118	0x3dad471a	0.08460827
119	0xbe5b288f	-0.2140219
120	0xbe050fb9	-0.12994279
121	0x3eac0892	0.3360029
122	0x3e36649f	0.17811821
123	0x3d684980	0.05671072
124	0xba8c1a5f	-0.0010689012
125	0xbe1c2297	-0.1524757
126	0x3e8a0f74	0.26964915
127	0xbc7e6533	-0.015527057
128	0xbcd0b501	-0.025476934
129	0x3e47e93e	0.19522569
130	0xbbc7a80d	-0.0060930313
131	0x3e4eab65	0.2018257
132	0xbdc01330	-0.0937866
133	0x3e3d6f6c	0.18499535
134	0xbc51f25a	-0.012814129
135	0x3cbe4a9c	0.023228936
136	0x3d4be844	0.049782053
137	0x3e250768	0.16116107
138	0x3d8df06c	0.069306225
139	0xbe3904c9	-0.18068232
140	0x3e032a76	0.12809166
141	0xbe98309f	-0.29724595
142	0x3e1e48b7	0.15457426
143	0xbc150bb4	-0.0090970285
144	0x3dff98eb	0.12480339
145	0xbe1c0810	-0.1523745
146	0xbdc6a981	-0.09700299
147	0xbdbc8ab3	-0.09206142
148	0xbda1172b	-0.07865747
149	0x3ddb506c	0.10708699
150	0x3dfef628	0.12449294
151	0xbe2922f1	-0.16517235
152	0x3d8197b1	0.06327761
153	0x3e6f726d	0.23383494
154	0x3d7fd946	0.062463067
155	0x3d0cfebb	0.034422617
156	0x3da6359c	0.08115694
157	0xbdf0da2b	-0.11760362
158	0xbcda9349	-0.02668156
159	0x3e28a9fa	0.16471091
160	0x3df8e40d	0.12152872
161	0x3e4d7133	0.20062713
162	0x3c3df1f8	0.011593334
163	0xbcf407c2	-0.029788855
164	0x3e5d62f8	0.21619785
165	0xbca912fd	-0.020638937
166	0x3e338ae1	0.17533447
167	0x3d529f47	0.05142143
168	0x3d5cb379	0.053882096
169	0x3d1e3946	0.03862884
170	0xbdf92723	-0.12165668
171	0xbc8ff179	-0.017571198
172	0xbd22c898	-0.039742082
173	0xbd92bbfa	-0.0716476
174	0xbc83e6f9	-0.016101347
175	0xbdceab78	-0.10091299
176	0xbe83f71b	-0.25774464
177	0x3e544221	0.20728351
178	0x3dc5bdf0	0.09655368
179	0xbd85c08b	-0.06530865
180	0x3e075e99	0.1321968
181	0x3db25b0c	0.08708772
182	0x3e476a97	0.19474255
183	0x3d1a88ee	0.037728243
184	0x3bb29eea	0.005451073
185	0x3e130a50	0.14359403
186	0xbd623350	-0.055224717
187	0xbd86078c	-0.06544408
188	0xbd18ef2a	-0.03733746
189	0x3c9d1755	0.019176165
190	0x3d4e1969	0.0503172
191	0x3e0c24ff	0.13685988
192	0xbe193b22	-0.14963964
193	0x3ebc7588	0.3680842
194	0xbb450b5b	-0.0030066583
195	0xbdd601a9	-0.104495354
196	0x3d0c02c1	0.034182314
197	0xbd33e49a	-0.043919183
198	0x3d5c8d19	0.0538455
199	0x3cf6e756	0.030139606
200	0x3d449e8f	0.048002776
201	0x3d4af6a0	0.049551606
202	0xbdd58b54	-0.10426965
203	0x3e232889	0.15933432
204	0x3d2a6991	0.041604582
205	0xbd6e4f68	-0.058181196
206	0xbcbde22e	-0.02317914
207	0xbca89cb2	-0.02058253
208	0x3cda7adc	0.026669912
209	0x3c27db8c	0.010245215
210	0x3dcdf525	0.10056523
211	0x3e1a9f66	0.15099868
212	0xbe8745b3	-0.26420364
213	0x3d6cdf6c	0.05783026
214	0xbe75d1e3	-0.24005847
215	0xbe34ffa8	-0.1767565
216	0xbebc98a8	-0.36835217
217	0x3d85a122	0.06524874
218	0xbd5a0fec	-0.05323784
219	0xbdd63e0f	-0.104610555
220	0xbe4452c3	-0.19172196
221	0xbce945a6	-0.028475594
222	0xbd4e77c6	-0.050407194
223	0x3c614e75	0.013751616
224	0xbe5cfd3e	-0.21580979
225	0x3e9560bc	0.29175365
226	0x3d4e172c	0.050315067
227	0xbe51094f	-0.20413707
228	0x3e39b078	0.18133724
229	0xbe2d9e66	-0.16954955
230	0xbec3a026	-0.3820812
231	0xbe212a6b	-0.15738837
232	0xbd17bdb8	-0.037046164
233	0xbe0a7509	-0.13521208
234	0xbe4f3ff5	-0.20239241
235	0xbe1ecc20	-0.15507555
236	0xbde57131	-0.1120323
237	0xbc725f4b	-0.014793227
238	0xbcced883	-0.025249725
239	0x3d48371c	0.04888068
240	0xbe7f4b59	-0.24931087
241	0xbe5c183d	-0.21493621
242	0xbcbaf9c5	-0.022824178
243	0xbdd71dfd	-0.10503767
244	0xbd572953	-0.052529644
245	0xbe78fa37	-0.243142
246	0x3d915e84	0.070981055
247	0xbd32a969	-0.043618593
248	0xbe0a98e5	-0.13534887
249	0x3da2ce0b	0.07949456
250	0xbe64e3ca	-0.2235252
251	0x3ddac662	0.1068237
252	0xbdcfd7ea	-0.10148604
253	0xbdc2470a	-0.09486206
254	0x3cc8d018	0.02451329
255	0x3c9af9c8	0.018917933

base.mlp.layers.0.0.bias f4 [256]
0	0xbdce681d	-0.10078452
1	0xbd331058	-0.04371676
2	0x3d28c7ee	0.041206293
3	0x3c87256c	0.016497336
4	0xbd2210be	-0.039566748
5	0x3c53ac40	0.012919486
6	0xbe0e00b2	-0.13867453
7	0xbc829d45	-0.015944133
8	0x3c33c692	0.010972636
9	0xbdf0a061	-0.1174934
10	0x3d05d650	0.032675087
11	0x3d565ab6	0.052332602
12	0xbc0d7921	-0.008634836
13	0x3c212723	0.009835991
14	0xbd178f95	-0.037002165
15	0x3d47b9d0	0.04876119
16	0xbc84bbf5	-0.016202906
17	0xbe0876fc	-0.13326639
18	0x3dba8cf6	0.091089174
19	0xbd928efe	-0.0715618
20	0x3adc7f09	0.0016822527
21	0x3e2effe9	0.1708981
22	0xbd38d59b	-0.045125585
23	0x3d9815d4	0.074260384
24	0xbce76512	-0.028246436
25	0xbc62dcb7	-0.013846568
26	0xbd652b9b	-0.05594979
27	0x3c05325c	0.008129682
28	0xbcc05128	-0.023476198
29	0x3c56bf5c	0.013107147
30	0xbd9f4c17	-0.07778185
31	0xbd500cd2	-0.050793476
32	0x3d71a329	0.058993492
33	0x3daf0606	0.08546071
34	0xbcc37d08	-0.02386333
35	0xbdd7f9fc	-0.105457276
36	0x3c125c4c	0.008933138
37	0xbc84de4a	-0.016219277
38	0x3d9d61ee	0.07684694
39	0x3da82db5	0.08211843
40	0x3c98558f	0.018595485
41	0x3c8da461	0.017290296
42	0x3d2cd878	0.04219863
43	0x3d3c38d1	0.04595262
44	0xbe053848	-0.13009751
45	0x3b9b7dd8	0.0047452264
46	0x3d55d936	0.0522091
47	0x3d228df7	0.03968617
48	0xbc82ce45	-0.015967498
49	0xbde2acf5	-0.11068145
50	0xbbf0689b	-0.0073366887
51	0x3dcb3392	0.09921946
52	0xbd5c602a	-0.053802647
53	0x3d89ec89	0.067345686
54	0xbdc7e923	-0.09761264
55	0xbd371d40	-0.04470563
56	0xbd9560bb	-0.072938405
57	0x3d48e50f	0.049046572
58	0x3cb4028c	0.02197387
59	0xbd1ee043	-0.03878809
60	0xbd73016d	-0.05932753
61	0x3d73e131	0.05954093
62	0xbd9e9b17	-0.07744425
63	0x3ca10e07	0.01966001
64	0x3cbb4b9c	0.022863202
65	0x3d5a83ab	0.053348225
66	0xbdd319aa	-0.103076294
67	0xbdad1cc7	-0.084527545
68	0xbd69e230	-0.057100475
69	0xbce8af46	-0.02840389
70	0xbdeae134	-0.11468735
71	0xbca5db1d	-0.020246083
72	0xbdbf71d1	-0.09347881
73	0xbcc50f7b	-0.024055233
74	0xbcafc3d7	-0.021455688
75	0xbc87e3d9	-0.016588138
76	0x3c920fd5	0.017829815
77	0xbd8a5e98	-0.067563236
78	0xbcbe82d8	-0.02325575
79	0x3da2e998	0.07954711
80	0x3cbc6e90	0.023001939
81	0xbde13a2b	-0.10997423
82	0x3b81b01e	0.0039577624
83	0x3d38309f	0.044968244
84	0xbc64ec30	-0.013972327
85	0xbd098f39	-0.033583853
86	0xbd6614b5	-0.05617209
87	0xbd5719b4	-0.052514747
88	0x3dee2df8	0.116298616
89	0xbd561063	-0.05226172
90	0x3d99ef2b	0.07516321
91	0x3d87df06	0.06634335
92	0xbd40fd74	-0.04711671
93	0xbd3363ae	-0.043796234
94	0xbcf1c2d8	-0.029511854
95	0xbc928d2b	-0.01788958
96	0xbd6d9f62	-0.058013327
97	0x3dfee2b6	0.124455854
98	0xbb75fe86	-0.003753574
99	0xbd844749	-0.06458909
100	0xbd4b7891	-0.049675528
101	0xbced6405	-0.028978357
102	0x3c4e46a9	0.012590089
103	0xbd5adf8e	-0.053435855
104	0xbd40db84	-0.047084346
105	0xbdef63e0	-0.116889715
106	0xbd8dac2c	-0.06917605
107	0x3d108650	0.03528434
108	0x3cd72030	0.026260465
109	0x3d2bf14f	0.041978177
110	0xbd448390	-0.04797703
111	0xbe1998c2	-0.14999679
112	0xbd16d49b	-0.03682385
113	0xbc012cf4	-0.007884253
114	0x3c8c974f	0.017161993
115	0xbdef49a7	-0.1168397
116	0x3c5accb7	0.013354472
117	0xbd77e609	-0.060522113
118	0xbbdc2209	-0.0067179245
119	0x3d76cc31	0.060253326
120	0xbdc9b876	-0.09849636
121	0xbdff8177	-0.12475865
122	0x3cd74ae4	0.026280828
123	0xbd5c448d	-0.053776313
124	0x3d261094	0.040543154
125	0xbd83526f	-0.06412207
126	0x3dad5a33	0.0846447
127	0xbd86d76d	-0.06584058
128	0xbb12dad8	-0.0022408273
129	0xbd05bff1	-0.032653753
130	0xbdc22fbf	-0.09481763
131	0xbdf7a104	-0.12091258
132	0xbdb0357e	-0.08603953
133	0x3ce47cbc	0.02789151
134	0x3d22c37f	0.03973722
135	0x3d1cc47b	0.038273316
136	0xbdd49d87	-0.103816085
137	0xbd8202cf	-0.06348192
138	0xbd2d3f1a	-0.042296506
139	0x3a70fcf5	0.0009192967
140	0xbcc5ceb9	-0.024146425
141	0xbcff1463	-0.03113765
142	0xbdabb9d4	-0.08385053
143	0xbcd952a7	-0.02652867
144	0xbd5a8fa4	-0.053359643
145	0xbd24e5a9	-0.040258083
146	0x3c1557c1	0.00911516
147	0xbde4331f	-0.11142563
148	0x3db080d4	0.08618322
149	0xbc174249	-0.009232112
150	0xbd979866	-0.074021146
151	0xbd125dcc	-0.035733983
152	0xbd00fd37	-0.031491484
153	0xbcbf3950	-0.023342758
154	0x3ca4fdce	0.020140555
155	0xbd8ab022	-0.06771876
156	0xbc360771	-0.011110173
157	0xbd00afd1	-0.03141767
158	0xbd914787	-0.07093721
159	0x3d83aea6	0.06429796
160	0x3dcb28c3	0.09919884
161	0xbc1a1b41	-0.009405912
162	0xbd696ee6	-0.056990527
163	0xbe206635	-0.15663989
164	0x3c1a3990	0.009413138
165	0xbd5fcaa7	-0.054636624
166	0xbdeab40c	-0.114601225
167	0xbd532370	-0.051547468
168	0x3c31abc2	0.010844173
169	0xbd17aaea	-0.03702823
170	0xbbfaa1f8	-0.0076487027
171	0xbd49e634	-0.049291804
172	0xbdc2da82	-0.09514333
173	0xbcb23abb	-0.02175652
174	0xbc72d350	-0.014820889
175	0xbce2b6fe	-0.027675148
176	0xbdcf4298	-0.101201236
177	0xbc89f878	-0.016842112
178	0x3d3177b8	0.043327063
179	0xbd79f2d6	-0.061022602
180	0x3d8a2273	0.06744852
181	0x3cad8bc8	0.021184817
182	0x3ddd21da	0.10797472
183	0xbdd0c75f	-0.10194277
184	0x3db6aa0d	0.08919153
185	0x3d165d1c	0.03670989
186	0xbd9fdf53	-0.078062676
187	0xbd2aae6d	-0.04167025
188	0x3c31d4c0	0.010853946
189	0xbd8b5477	-0.0680322
190	0xbd82561e	-0.06364082
191	0xbc9c8cdb	-0.019110134
192	0xbbc314f9	-0.005953428
193	0xbd858af2	-0.06520642
194	0x3dcd1c8a	0.10015209
195	0xbce4dfe9	-0.0279388
196	0x3d8e6ffe	0.069549546
197	0xbe535b98	-0.20640409
198	0x3d0df74d	0.034659673
199	0x3b07f1fe	0.0020743604
200	0xbd5d7356	-0.05406507
201	0x3d45c099	0.04827938
202	0xbd1fb3cb	-0.038989823
203	0xbd83980a	-0.064254835
204	0xbc672acb	-0.014109324
205	0x3dd2a96c	0.10286221
206	0xbc0c613a	-0.0085681025
207	0xbe0661f4	-0.13123304
208	0x3c6e4001	0.014541627
209	0x3d6c395b	0.057671886
210	0xbe07e330	-0.13270259
211	0xbc590eb3	-0.0132481335
212	0xbca79bb8	-0.020459995
213	0xbc46600b	-0.012107859
214	0x3c5f86e1	0.0136429975
215	0x3ce5187e	0.02796578
216	0xbc9b7fbc	-0.018981807
217	0x3de8df6e	0.11370741
218	0x3db693fd	0.08914945
219	0xbd43ba4e	-0.047785096
220	0x3c2ea6b3	0.010659861
221	0x3ca985a1	0.020693602
222	0xbe0523fa	-0.13002005
223	0x3d1a42df	0.03766143
224	0x3d410b01	0.047129635
225	0xbc165ea6	-0.009177839
226	0x3dd7118c	0.10501394
227	0xbd9a26a2	-0.075269
228	0x3cd3e882	0.025867704
229	0x3c652203	0.01398516
230	0xbdb0ceff	-0.08633231
231	0x3d38f273	0.045153093
232	0xbbe89179	-0.00709742
233	0x3bdb9533	0.0067011355
234	0x3dbaf040	0.09127855
235	0xbdcd7ea0	-0.100339174
236	0x3c361d5f	0.011115401
237	0x3d2d5b64	0.042323485
238	0xbc6fd09a	-0.014637137
239	0x3b9afd17	0.0047298777
240	0xbcd9c7ae	-0.026584473
241	0xbde5f3b0	-0.1122812
242	0x3c7c4299	0.0153967375
243	0x3d1d8ea8	0.038466126
244	0xbd6104cf	-0.054936226
245	0xbc97d36d	-0.018533433
246	0xbd1dc2be	-0.0385158
247	0xbce42114	-0.027847804
248	0x3cb23b64	0.021756835
249	0xbd87cb97	-0.066306286
250	0x3d3f9611	0.046773974
251	0x3c8368f4	0.016041256
252	0xbdaaadce	-0.08333932
253	0x3cf9cf00	0.030494213
254	0x3d192752	0.037391014
255	0xbbf34fc6	-0.007425281

base.mlp.layers.0.2.weight f4 [256]
0	0x3f722189	0.9458242
1	0x3f883018	1.0639677
2	0x3f840be5	1.031613
3	0x3f8803d3	1.0626167
4	0x3f7144f2	0.9424583
5	0x3f8a8b05	1.0823675
6	0x3f733cf8	0.95014906
7	0x3f8bef37	1.0932378
8	0x3f78138a	0.96904814
9	0x3f7f8dd1	0.9982577
10	0x3f76f4b1	0.9646712
11	0x3f810bad	1.0081688
12	0x3f876912	1.057894
13	0x3f6cd7d7	0.92516845
14	0x3f7ff251	0.9997912
15	0x3f6365dc	0.888273
16	0x3f80b2f1	1.0054609
17	0x3f68b14b	0.9089553
18	0x3f859cb2	1.0438445
19	0x3f804d74	1.0023637
20	0x3f8e18f3	1.1101364
21	0x3f8c1f94	1.0947137
22	0x3f6b54c4	0.9192622
23	0x3f6da8fb	0.9283597
24	0x3f8a1fbb	1.0790933
25	0x3f8ee140	1.1162491
26	0x3f773b83	0.9657518
27	0x3f8c28fc	1.0950007
28	0x3f82f0d6	1.0229747
29	0x3f723906	0.9461826
30	0x3f6d368b	0.9266135
31	0x3f662b67	0.89909977
32	0x3f7fa7c1	0.9986535
33	0x3f7dc572	0.991294
34	0x3f774110	0.9658365
35	0x3f81e3ff	1.0147704
36	0x3f8afe89	1.0858928
37	0x3f7f398c	0.99697185
38	0x3f95bc5c	1.1698108
39	0x3f8628b8	1.0481176
40	0x3f85c9cd	1.045221
41	0x3f8ee6c4	1.1164174
42	0x3f7d357e	0.9890975
43	0x3f77c0a2	0.9677831
44	0x3f72ea51	0.9488879
45	0x3f828c4f	1.0199069
46	0x3f95ac58	1.169322
47	0x3f8da576	1.106612
48	0x3f6e7d5c	0.93160033
49	0x3f72d766	0.9485992
50	0x3f6559b8	0.89590025
51	0x3f902c14	1.1263452
52	0x3f8b4cd4	1.0882821
53	0x3f8f2545	1.1183249
54	0x3f70597a	0.9388653
55	0x3f7ead7d	0.9948347
56	0x3f6db8d0	0.92860126
57	0x3f7c6ac8	0.98600435
58	0x3f7f082a	0.9962183
59	0x3f917663	1.1364254
60	0x3f75ba88	0.9598775
61	0x3f71ddd0	0.94479084
62	0x3f8b7b7e	1.0897062
63	0x3f774db3	0.96602935
64	0x3f83b01e	1.0288122
65	0x3f86aa11	1.052065
66	0x3f75553f	0.958332
67	0x3f82374d	1.0173126
68	0x3f80787f	1.0036772
69	0x3f7646c9	0.9620176
70	0x3f788e59	0.97092205
71	0x3f83171a	1.0241425
72	0x3f813835	1.0095278
73	0x3f85faa0	1.046711
74	0x3f72f520	0.9490528
75	0x3f8509d2	1.0393622
76	0x3f7b419d	0.9814699
77	0x3f80050c	1.000154
78	0x3f65c24d	0.89749604
79	0x3f72ec3b	0.9489171
80	0x3f94451f	1.1583594
81	0x3f81ca04	1.0139775
82	0x3f79971b	0.97496194
83	0x3f80f962	1.0076106
84	0x3f8358f1	1.0261518
85	0x3f8216ce	1.016321
86	0x3f80ee58	1.0072737
87	0x3f83be9d	1.0292546
88	0x3f8e035f	1.1094779
89	0x3f754929	0.9581476
90	0x3f8c1e76	1.0946796
91	0x3f6f06a1	0.9336949
92	0x3f89058e	1.070482
93	0x3f7c4734	0.9854615
94	0x3f768312	0.9629375
95	0x3f5d6bfd	0.864929
96	0x3f787776	0.9705728
97	0x3f9bb5f4	1.2164903
98	0x3f7dc502	0.99128735
99	0x3f9040ea	1.126981
100	0x3f7cc2a7	0.98734516
101	0x3f8c4d2a	1.0961049
102	0x3f82f8a7	1.0232133
103	0x3f8100aa	1.0078328
104	0x3f462386	0.77397954
105	0x3f90ac05	1.1302496
106	0x3f8076fe	1.0036314
107	0x3f825f0c	1.0185256
108	0x3f8b0ab4	1.0862641
109	0x3f758556	0.9590658
110	0x3f7ccac4	0.98746896
111	0x3f75a5d7	0.95956177
112	0x3f6083d7	0.8770117
113	0x3f8a6d8e	1.0814683
114	0x3f81ea08	1.0149546
115	0x3f8b754e	1.0895174
116	0x3f69d742	0.9134408
117	0x3f8cb01b	1.0991243
118	0x3f5d7e92	0.86521256
119	0x3f843b27	1.0330552
120	0x3f83634e	1.026468
121	0x3f8805ba	1.0626748
122	0x3f8cdf95	1.1005732
123	0x3f84b3bf	1.0367354
124	0x3f701b58	0.93791723
125	0x3f8e21f1	1.1104108
126	0x3f8e6941	1.1125871
127	0x3f80be51	1.005808
128	0x3f87be12	1.060488
129	0x3f735ab7	0.95060295
130	0x3f6e80c5	0.93165237
131	0x3f6fa201	0.93606573
132	0x3f80341e	1.0015905
133	0x3f8254c3	1.0182117
134	0x3f8a2394	1.0792108
135	0x3f8fd8d3	1.1238045
136	0x3f92e570	1.1476269
137	0x3f763d71	0.961875
138	0x3f82828c	1.019609
139	0x3f9198ae	1.1374719
140	0x3f7503fd	0.9570921
141	0x3f8ba10f	1.0908526
142	0x3f7ce376	0.9878458
143	0x3f888b6d	1.0667549
144	0x3f7b7134	0.9821961
145	0x3f7b0705	0.98057586
146	0x3f887b4e	1.066263
147	0x3f6fad23	0.9362356
148	0x3f82e833	1.0227112
149	0x3f88c8d2	1.0686285
150	0x3f8dd033	1.1079162
151	0x3f820609	1.0158092
152	0x3f84308b	1.0327314
153	0x3f78a056	0.97119653
154	0x3f8ee258	1.1162825
155	0x3f8b706f	1.0893687
156	0x3f6ced3d	0.92549497
157	0x3f8304a8	1.0235796
158	0x3f7e9c28	0.99457026
159	0x3f7d02c6	0.98832357
160	0x3f8923c3	1.0714039
161	0x3f624f03	0.8840181
162	0x3f881dd8	1.0634108
163	0x3f810eb5	1.0082613
164	0x3f855234	1.0415711
165	0x3f877105	1.0581366
166	0x3f903100	1.1264954
167	0x3f77679b	0.96642464
168	0x3f8f85a3	1.1212658
169	0x3f78d06c	0.97193027
170	0x3f758687	0.959084
171	0x3f8f4a94	1.1194634
172	0x3f71c01c	0.9443376
173	0x3f7f13eb	0.9963977
174	0x3f7d2bc1	0.9889489
175	0x3f69e8ee	0.9137105
176	0x3f7655ef	0.96224874
177	0x3f78892e	0.9708432
178	0x3f872f23	1.056126
179	0x3f7f5172	0.9973365
180	0x3f6fd5db	0.9368569
181	0x3f974dca	1.1820614
182	0x3f97cd25	1.185948
183	0x3f848690	1.0353565
184	0x3f82bf6b	1.0214666
185	0x3f73e4b7	0.95270866
186	0x3f6446dc	0.8917062
187	0x3f7ab9cb	0.9793975
188	0x3f6d2270	0.9263067
189	0x3f833029	1.0249072
190	0x3f8bf7c8	1.0934992
191	0x3f8a9fa6	1.0829971
192	0x3f9b5c8c	1.2137618
193	0x3f87bba7	1.0604142
194	0x3f91c089	1.1386882
195	0x3f834934	1.0256715
196	0x3f8989f3	1.0745224
197	0x3f6ff292	0.9372951
198	0x3f81c311	1.0137655
199	0x3f9462dd	1.1592671
200	0x3f7ca294	0.98685575
201	0x3f750c49	0.9572187
202	0x3f77acec	0.9674823
203	0x3f88ea55	1.0696512
204	0x3f7b1d55	0.9809163
205	0x3f6dc724	0.9288199
206	0x3f807948	1.0037012
207	0x3f517188	0.8181386
208	0x3f78e8e3	0.97230357
209	0x3f8a9f52	1.0829871
210	0x3f85f026	1.0463912
211	0x3f825f7b	1.0185388
212	0x3f88d1c6	1.0689018
213	0x3f85cd68	1.045331
214	0x3f79718a	0.9743887
215	0x3f811f0e	1.0087602
216	0x3f838b95	1.0276972
217	0x3f7e4706	0.99327123
218	0x3f8a582e	1.080816
219	0x3f86cef4	1.0531907
220	0x3f8f54ef	1.1197795
221	0x3f8f3316	1.1187465
222	0x3f765992	0.96230423
223	0x3f86f431	1.0543271
224	0x3f86d21c	1.053287
225	0x3f87fd4f	1.0624179
226	0x3f83af40	1.0287857
227	0x3f6627fb	0.89904755
228	0x3f8b7344	1.0894551
229	0x3f881c6f	1.0633677
230	0x3f81ee81	1.0150911
231	0x3f986b23	1.1907696
232	0x3f7c1255	0.9846547
233	0x3f953894	1.1657891
234	0x3f903a44	1.1267781
235	0x3f7e0312	0.99223435
236	0x3f9003d7	1.1251172
237	0x3f70c360	0.9404812
238	0x3f708376	0.93950593
239	0x3f73580f	0.9505624
240	0x3f902875	1.1262347
241	0x3f8ec567	1.1153992
242	0x3f88609d	1.0654484
243	0x3f8583ce	1.0430849
244	0x3f7b8b89	0.9825979
245	0x3f6eddef	0.93307394
246	0x3f7bdcb1	0.98383623
247	0x3f80dbd8	1.0067091
248	0x3f5bfec7	0.85935634
249	0x3f643d7b	0.8915631
250	0x3f91a8fc	1.1379695
251	0x3f7a170c	0.97691417
252	0x3f81d016	1.0141628
253	0x3f69310e	0.91090477
254	0x3f872c90	1.0560474
255	0x3f74e243	0.9565775

base.mlp.layers.0.2.bias f4 [256]
0	0x3d099d99	0.033597562
1	0xbc85e0db	-0.016342571
2	0xbd08fb50	-0.033442795
3	0x3d2ce711	0.04221255
4	0x3d647f9d	0.055785764
5	0xbda9df0f	-0.08294498
6	0xbd0fcb49	-0.035105977
7	0x3d80a167	0.06280785
8	0xbccca5a7	-0.024981333
9	0xbcdd7d57	-0.027037306
10	0xba690b48	-0.00088899257
11	0x3d5d1d2b	0.053982895
12	0x3bc2602e	0.0059318757
13	0x3d0af5db	0.033925872
14	0x3aa3381a	0.0012452633
15	0x3d9a8e60	0.07546687
16	0xbcb7e1a6	-0.022446465
17	0xbcd438e9	-0.025906043
18	0xbd4709b7	-0.04859325
19	0xbbfa15b3	-0.0076319813
20	0x3c22d9c8	0.009939618
21	0x3c665705	0.014058833
22	0x3c5bbca2	0.013411673
23	0x3d7d2498	0.061802477
24	0xbd3a3698	-0.04546222
25	0x3d0c14d5	0.034199554
26	0x3b94cbc0	0.0045408905
27	0xbcd13d9c	-0.025542073
28	0x3cd2819e	0.025696572
29	0x3c61a416	0.013772031
30	0xbc9bd220	-0.019021094
31	0xbcf714c9	-0.030161278
32	0x3d4f4fcd	0.050613213
33	0x3d4c8e06	0.04994013
34	0xbd05b7d7	-0.032646026
35	0xbd0f0ae0	-0.03492248
36	0xbbd234ef	-0.0064150016
37	0x3d3d200a	0.046173133
38	0xbc79115f	-0.0152018955
39	0x3d532b52	0.051554985
40	0xbd0a7c23	-0.033809792
41	0xbcce8d5e	-0.025213894
42	0x3d12da17	0.035852518
43	0x3c8fea97	0.017567916
44	0x3da9b94c	0.08287296
45	0xbcd79cfd	-0.026319975
46	0xbd87dc9b	-0.06633874
47	0x3ae776da	0.0017659322
48	0x3d1d4611	0.0383969
49	0x3dbf67fa	0.09346004
50	0xba4fd7bb	-0.00079285697
51	0x3da0540e	0.07828532
52	0x3cc94014	0.024566688
53	0xbd26298b	-0.040566962
54	0x3d89988b	0.067185484
55	0x3d16a353	0.036776852
56	0x3c59052a	0.01324586
57	0x3d0e87af	0.034797367
58	0xbda32e10	-0.0796777
59	0xbccbf239	-0.024895774
60	0x3c1f5939	0.009725862
61	0x3db4106e	0.08792196
62	0xbd7a4f47	-0.06111076
63	0x3d390a88	0.04517606
64	0xbd387b44	-0.04503943
65	0x3d877767	0.06614571
66	0xbdd0e78b	-0.10200413
67	0x3cfcee41	0.030875327
68	0xbd5ed264	-0.054399863
69	0x3d10a6fd	0.035315502
70	0x3c9afe7f	0.018920181
71	0x3b75b375	0.0037490998
72	0xbd73f0d9	-0.059555862
73	0xbd3cacd9	-0.046063278
74	0xbcfe3979	-0.031033264
75	0x3ce6a9bf	0.028157113
76	0x3d1fa0c3	0.038971674
77	0x3c2c9ed4	0.010535914
78	0x3de5bf52	0.11218132
79	0xbd1ac481	-0.037785057
80	0xbd0491e3	-0.03236569
81	0x3d0d414e	0.034486108
82	0xbb0e6cf2	-0.0021732417
83	0x3c06e577	0.00823342
84	0x3d408388	0.047000438
85	0x3ce0ffe5	0.02746577
86	0x3b41d853	0.0029578402
87	0xbc96e274	-0.018418528
88	0x3d771090	0.06031853
89	0x3d2fba36	0.042902194
90	0x3d1965c3	0.037450563
91	0x3cd47e4c	0.02593913
92	0xbaecf02f	-0.0018076951
93	0x3d74f5b3	0.05980463
94	0xbc9f494e	-0.019444134
95	0x3d84132f	0.064489715
96	0xbd57ef62	-0.052718528
97	0xbd3471da	-0.04405389
98	0xbcd1b824	-0.0256005
99	0xbcec8e5c	-0.028876476
100	0x3c1ea532	0.00968294
101	0xbc684a94	-0.014177937
102	0x3d25b34b	0.04045419
103	0x3d09cdd3	0.033643555
104	0xba81fd27	-0.0009917364
105	0x3d82761c	0.06370184
106	0xbc48c877	-0.012254826
107	0x3c3e8642	0.011628689
108	0xbb09543c	-0.0020954749
109	0x3d8989e3	0.06715753
110	0xbcb1462b	-0.021639904
111	0x3d856e75	0.06515209
112	0x3d55e6bf	0.05222201
113	0x3a5f550e	0.0008519449
114	0x3d0b6923	0.034035813
115	0xbd393e7b	-0.0452256
116	0x3cffe11d	0.031235272
117	0x3ce96686	0.02849127
118	0x3c22c5f1	0.009934888
119	0x3c8688c9	0.016422646
120	0x3d77f1c3	0.060533296
121	0xbd057434	-0.032581523
122	0xbcbb399c	-0.022854619
123	0xbca67463	-0.02031917
124	0x3d8ee1dd	0.06976674
125	0xbcf1860b	-0.029482862
126	0x3bf6e013	0.007534036
127	0x3daf552d	0.08561168
128	0xbd837aa5	-0.06419877
129	0x3cf302a3	0.029664343
130	0x3d1b890e	0.037972502
131	0x3d84ae0f	0.064785115
132	0x3dbc5169	0.09195215
133	0x3dddfbe8	0.10839063
134	0x3bb8b305	0.005636575
135	0xbd9ea39b	-0.07746049
136	0xbd840fbc	-0.064483136
137	0x3d08168f	0.03322464
138	0xbcc9cb9c	-0.024633221
139	0x3d2e0c84	0.042492405
140	0x39b44040	0.00034380145
141	0xbc7cf5d6	-0.015439471
142	0xbc945419	-0.018106507
143	0xbde924bb	-0.11383959
144	0x3c41d750	0.01183112
145	0x3c81d0db	0.01584666
146	0xbc6d3b4a	-0.014479468
147	0xbd98f800	-0.07469177
148	0x3d2451f5	0.040117223
149	0xbd83a39d	-0.06427691
150	0x3db8faf6	0.09032242
151	0xbd0b6b41	-0.034037832
152	0xbd564e21	-0.052320603
153	0x3ce3e433	0.027818775
154	0x3d3085ae	0.043096237
155	0xbd0b240c	-0.033969924
156	0xbcfaa5a4	-0.030596562
157	0xbdb5206c	-0.088440746
158	0x3c822c27	0.015890194
159	0x3d0c0f4b	0.034194272
160	0xbcea16a8	-0.028575256
161	0x3c11eba3	0.008906278
162	0x3c8c6ca3	0.017141646
163	0xbc509f14	-0.01273324
164	0x3ce286ba	0.027652133
165	0xbd9d1fe4	-0.07672098
166	0xbcf05be1	-0.029340686
167	0x3d29e6d9	0.04147992
168	0xbc46c87c	-0.01213276
169	0xbd2e22e6	-0.04251375
170	0x3c30ee75	0.01079904
171	0xbc8a3ff8	-0.016876206
172	0x3d2af309	0.041735683
173	0x3cebde2d	0.028792465
174	0x3d1e9710	0.038718283
175	0x3d1f4655	0.038885433
176	0xbc6349bd	-0.013872561
177	0x3d8b7480	0.0680933
178	0x3d448e5e	0.047987334
179	0xbcd77a25	-0.02630336
180	0x3d9fe51e	0.078073725
181	0xbd1c630d	-0.0381804
182	0x3db67cc6	0.089105174
183	0xbcf3b029	-0.029747086
184	0x3cdef42b	0.027216038
185	0x3bddd3d3	0.006769636
186	0xbd35ec81	-0.044415
187	0xbbca2efa	-0.006170151
188	0x3da089ec	0.078388065
189	0x3c90374b	0.01760449
190	0xbd13389d	-0.035942663
191	0xbd3097b9	-0.043113444
192	0x3bea2a80	0.0071461797
193	0x3c394673	0.0113083
194	0x3db5effa	0.088836625
195	0x3cca9657	0.02472989
196	0x3c83e622	0.016100947
197	0x3d2f243a	0.042759158
198	0xbd2a0a7b	-0.0415139
199	0xbd70a8f4	-0.058754876
200	0x3c1e0016	0.009643575
201	0xbc9d30f9	-0.019188391
202	0x3d68a07a	0.056793667
203	0xbcd6b97d	-0.026211495
204	0xbcfac21d	-0.030610139
205	0x3c8f9a1f	0.017529545
206	0xbce92c7b	-0.028463593
207	0xbd10f3e9	-0.03538886
208	0x3ceb9e9c	0.028762154
209	0xbba3e658	-0.0050018243
210	0xbd174cb1	-0.036938373
211	0x3bb6c06f	0.005577139
212	0x3c9708e1	0.018436851
213	0x3c8ffc8c	0.017576478
214	0x3d1b4edd	0.037917007
215	0x3d3771fa	0.04478643
216	0x3ce702cf	0.028199581
217	0x3d8b15ef	0.06791293
218	0x3d6980f7	0.057007756
219	0x3b520593	0.003204678
220	0xbaff7055	-0.0019488434
221	0xbc08b505	-0.00834394
222	0x3d0bd4f8	0.03413865
223	0x3bfca19d	0.0077096955
224	0x3cfdf007	0.030998243
225	0xbdcd8d3f	-0.10036706
226	0x3dc3aa96	0.09554021
227	0x3d76a1f9	0.060213063
228	0xbc83db9c	-0.016095929
229	0x3c9c09eb	0.019047698
230	0x3c7e9495	0.015538354
231	0xbd69db84	-0.057094112
232	0x3ca9534e	0.020669606
233	0xbdd066fc	-0.10175893
234	0x3dab6a87	0.08369928
235	0x3d822538	0.06354755
236	0x3d09f148	0.03367737
237	0x3c274853	0.0102101145
238	0x3d9fb277	0.07797711
239	0x3d10e76d	0.035376955
240	0xbd8dcd1e	-0.069238886
241	0xbd3d0fcc	-0.046157643
242	0x3ba3e0e9	0.0050011766
243	0x3d75c991	0.06000668
244	0xbc0ca79a	-0.008584881
245	0x3d8c3b73	0.068472765
246	0x3b2bd97f	0.0026222167
247	0xbd037367	-0.032092478
248	0x3cee4fb9	0.02909075
249	0x3d83ad5e	0.064295515
250	0xbc8b50fd	-0.017006392
251	0x3dbf9489	0.09354503
252	0xbdb5a91b	-0.08870145
253	0xbae65337	-0.0017572407
254	0xbc5b80be	-0.013397394
255	0xbcc18c7c	-0.023626558

base.mlp.layers.1.0.weight f4 [128, 256]
0	0x3e3d37a4	0.18478256
1	0xbdf98215	-0.12183014
2	0xbdfa0e05	-0.12209705
3	0x3e83c6f8	0.2573774
4	0xbd923670	-0.071392894
5	0xbe49e209	-0.19715132
6	0xbdfb37e0	-0.12266517
7	0xbe7637e6	-0.24044761
8	0xbb85efc4	-0.00408742
9	0xbe1f91c2	-0.15582946
10	0x3da29c49	0.07939965
11	0x3d8f94a6	0.07010774
12	0xbcaea4db	-0.021318844
13	0xbce99348	-0.028512612
14	0x3e510e16	0.2041553
15	0x3d824145	0.063601054
16	0x3dc81d4d	0.09771214
17	0x3e4204d6	0.18947157
18	0xbda8fd36	-0.08251421
19	0xbdecb18b	-0.11557301
20	0xbd6f1d9e	-0.058377855
21	0xbe159554	-0.14607745
22	0x3e8b604b	0.27221903
23	0x3da74cc3	0.08168938
24	0xbe1877f1	-0.14889504
25	0xbdcaebda	-0.09908266
26	0xbe06cf52	-0.13165024
27	0x3c8546f7	0.01626919
28	0x3e6aee88	0.22942555
29	0x3b7ebcd5	0.0038869877
30	0xbc882879	-0.016620861
31	0xbd357078	-0.04429671
32	0x3ea33a15	0.3188025
33	0xbd3fd04b	-0.046829503
34	0x3e867528	0.26261258
35	0x3d35eea7	0.04441705
36	0xbc44e521	-0.012017519
37	0xbdf7a202	-0.120914474
38	0x3cd9b282	0.026574377
39	0x3cbb8c09	0.022893922
40	0x3d4a96d0	0.049460232
41	0xbd943cc4	-0.072381526
42	0x3ca9596f	0.020672528
43	0xbd221251	-0.03956825
44	0xbdc00901	-0.09376717
45	0x3bbac88a	0.0057001757
46	0x3e4cfea8	0.20019019
47	0xbe71bb11	-0.23606516
48	0xbde9e28d	-0.11420164
49	0xbdd307e2	-0.10304238
50	0x3d055272	0.03254933
51	0xbd02c8b4	-0.031929687
52	0x3e302ebd	0.17205329
53	0x3d75fb1e	0.060053937
54	0xbd26d636	-0.04073163
55	0xbd72f960	-0.059319854
56	0x3d3be718	0.045874685
57	0xbe39121c	-0.18073314
58	0xbcfed865	-0.031109044
59	0x3cffd8df	0.031231342
60	0xbdadba1b	-0.084827624
61	0xbe0a4f83	-0.13506894
62	0xbe41dde9	-0.18932308
63	0xbd04ae57	-0.032392826
64	0x3dbf8baf	0.093528144
65	0xbdd1de75	-0.102475084
66	0xbba82b22	-0.005132095
67	0x3dc9cbc7	0.098533206
68	0xbe1ba9f6	-0.15201554
69	0xbe09aaab	-0.13444011
70	0x3e343221	0.17597248
71	0x3c83c16b	0.01608344
72	0xbdf93a17	-0.12169283
73	0xbd973224	-0.073826104
74	0xbd1bf860	-0.038078666
75	0x3e41c901	0.18924333
76	0x3e4b4ed7	0.19854294
77	0xbd8e6035	-0.06951944
78	0x3dbc8a40	0.092060566
79	0xbe31d796	-0.17367396
80	0x3e126942	0.14297965
81	0xbe1c83e8	-0.15284693
82	0xbe3bee3b	-0.18352596
83	0x3d134236	0.035951816
84	0xbe03f2e6	-0.12885627
85	0x3e3869d0	0.18009114
86	0xbca314a5	-0.019907305
87	0xbe22d5a4	-0.1590181
88	0xbdffbd01	-0.124872215
89	0xbe2f1425	-0.17097528
90	0xbd327e26	-0.043577336
91	0x3df1207b	0.11773773
92	0x3e038df8	0.12847126
93	0xbd8ae687	-0.06782251
94	0xbe014f43	-0.12627892
95	0x3e22de62	0.15905145
96	0xbd0e9936	-0.034814082
97	0x3dad5fec	0.08465561
98	0xbdc13115	-0.0943319
99	0x3e8ba47e	0.27273935
100	0x3dba445e	0.09095071
101	0xbd01a0d4	-0.03164752
102	0x3e033fac	0.12817258
103	0xbcf7ea84	-0.030263193
104	0x3e75e29d	0.24012227
105	0xbe502fe3	-0.20330767
106	0x3e5db606	0.21651468
107	0xbdb02369	-0.08600504
108	0xbcaa3f06	-0.020782005
109	0xbe77d1e5	-0.24201162
110	0xbe951d98	-0.2912414
111	0xbdb324fe	-0.0874729
112	0xbe254f02	-0.1614342
113	0x3e1e9753	0.15487413
114	0x3db8fd62	0.09032704
115	0xbe928d5c	-0.28623474
116	0x3e3d1a39	0.18467034
117	0x3e0f2d37	0.13982092
118	0xbe2a7f25	-0.16650064
119	0xbbc20034	-0.0059204344
120	0xbe831dce	-0.25608677
121	0xbd9b3df7	-0.07580178
122	0xbe303e4b	-0.17211263
123	0xbd5c7688	-0.053823978
124	0x3dae8f46	0.08523421
125	0x3d9ad74f	0.07560598
126	0xbe1e372b	-0.15450732
127	0x3e032af0	0.12809348
128	0xbcf7f562	-0.030268375
129	0x3d22137a	0.039569356
130	0xbd177e6d	-0.036985803
131	0xbe3cbfc4	-0.18432528
132	0xbd6d2c0c	-0.057903334
133	0xbdc2662d	-0.09492145
134	0xbe56fcab	-0.20994823
135	0x3d43948f	0.0477491
136	0xbe9c3793	-0.3051115
137	0x3cb63d9a	0.02224617
138	0xbd720417	-0.05908593
139	0x3d5269ce	0.051370434
140	0xbd1063a8	-0.03525129
141	0x3dfc1707	0.123090796
142	0x3e246cbf	0.16057108
143	0x3d3ba13b	0.04580806
144	0xbe900c81	-0.2813454
145	0x3e16380c	0.14669818
146	0xbda50de5	-0.08059291
147	0xbe460457	-0.19337593
148	0x3d193234	0.037401393
149	0x3dd62212	0.10455717
150	0xbe823190	-0.25428438
151	0xbde9a3f1	-0.114082225
152	0x3e535206	0.20636758
153	0x3dda498e	0.10658561
154	0xbde9f9f4	-0.11424628
155	0xbe037f4f	-0.12841533
156	0xbd5dc20b	-0.054140132
157	0xbdcfa71b	-0.10139295
158	0x3da43a9c	0.08018991
159	0xbe3a5dea	-0.18199888
160	0xbd17d24f	-0.0370658
161	0x3c914b06	0.01773597
162	0xbe6fd707	-0.2342187
163	0xbbb5f68e	-0.0055530732
164	0xbe92cb3f	-0.2867069
165	0x38dd950b	0.000105658626
166	0xbe310eb0	-0.17290759
167	0x3e38564d	0.18001671
168	0xbe21346c	-0.15742654
169	0x3e412768	0.18862689
170	0x3e0f6442	0.14003089
171	0xbd734794	-0.059394434
172	0x3d57104e	0.052505784
173	0x3cf404b9	0.029787408
174	0x3da50a4a	0.08058603
175	0x3ca9edf3	0.020743346
176	0xbd4b80bf	-0.04968333
177	0xbe776f28	-0.24163496
178	0xbeada615	-0.33915773
179	0x3b1a19f5	0.0023514007
180	0x3daa0f92	0.08303751
181	0xbe087b4c	-0.13328284
182	0xbe09f7ac	-0.13473386
183	0xbdb42714	-0.08796516
184	0xbe16699b	-0.14688723
185	0xbd8f03e2	-0.069831625
186	0xbe1187ef	-0.14212011
187	0xbe03aa7d	-0.12858005
188	0xbd2d1fa0	-0.042266488
189	0xbcddcc46	-0.027074944
190	0xbdbd9e09	-0.092586584
191	0xbe225a42	-0.15854743
192	0xbec5e792	-0.38653237
193	0x3cac7fba	0.021056999
194	0xbdcce91d	-0.100054
195	0xbe376b6a	-0.17912069
196	0x3b7f07b0	0.0038914494
197	0xbc0e2f03	-0.008678201
198	0xbd9119e9	-0.0708502
199	0xbdf5d768	-0.12003976
200	0xbc5d654a	-0.013512919
201	0xbe1b588d	-0.15170498
202	0xbdd23c3c	-0.10265395
203	0xbe222799	-0.15835418
204	0x3e0d6f33	0.1381195
205	0xbc1f1de5	-0.009711717
206	0x3e3896c6	0.18026266
207	0xbd37d76e	-0.044883184
208	0x3db8b853	0.09019532
209	0x3de67daf	0.11254441
210	0x3d994924	0.074846536
211	0x3d704e87	0.05866864
212	0xbd781a48	-0.06057194
213	0xbcb2977f	-0.021800755
214	0x3e206a9a	0.15665665
215	0xbda862bd	-0.08221958
216	0xbde61d93	-0.112361096
217	0x3dcc48af	0.09974801
218	0xbdb9268f	-0.090405576
219	0xbe0cfe6e	-0.13768932
220	0x3df469f3	0.11934271
221	0xbe680050	-0.22656369
222	0xbd1f9796	-0.038962923
223	0x3d7f00c6	0.062256597
224	0xbe49ea1a	-0.19718209
225	0x3d98b1b0	0.07455766
226	0x3d121ec8	0.035673887
227	0xbe01b189	-0.1266538
228	0xbd7c9390	-0.061664164
229	0x3e4a2046	0.19738874
230	0x3ea1b327	0.31581995
231	0xbc9b12f4	-0.018929936
232	0x3cd66562	0.02617139
233	0x3e3bf3ec	0.18354768
234	0x3da7bd89	0.08190448
235	0xbd880f73	-0.06643572
236	0xbb5a3cd5	-0.003330042
237	0x3e95147a	0.29117185
238	0xbc41f47b	-0.011838074
239	0x3e81e142	0.2536717
240	0x3dc10720	0.09425187
241	0x3d017d20	0.03161347
242	0x3de3ec70	0.11129081
243	0x3d418510	0.04724604
244	0x3d0d0339	0.0344269
245	0xbe20ae0e	-0.15691397
246	0xbddb5515	-0.107095875
247	0x3cc099ea	0.023510892
248	0x3b9c664e	0.004772938
249	0x3dd46f2c	0.10372767
250	0x3db96d9d	0.0905411
251	0xbe749579	-0.23885144
252	0xbe037dd1	-0.12840964
253	0x3e05f78e	0.13082716
254	0xbdcd86a8	-0.10035449
255	0xbcf62eb1	-0.030051561

base.mlp.layers.1.0.bias f4 [128]
0	0x3d8a153c	0.067423314
1	0xbd7c5883	-0.06160785
2	0xb75530b0	-1.2707125e-05
3	0xbd2c3a74	-0.042047933
4	0xbdcad020	-0.09902978
5	0x3c8e915c	0.017403297
6	0x3bd6a2d0	0.0065501705
7	0x3ca6e9f1	0.020375224
8	0xbc3c04c9	-0.01147575
9	0xbda5dd9a	-0.08098908
10	0xbd87a493	-0.06623187
11	0xbcb1a98a	-0.021687288
12	0xbd9975ff	-0.07493209
13	0x3ce0a02c	0.027420126
14	0xbda3d04f	-0.07998716
15	0xbd888b6f	-0.0666722
16	0xbdade202	-0.08490373
17	0xbc688f27	-0.014194286
18	0xbdc30c9b	-0.09523889
19	0x3d9aeeab	0.075650536
20	0x3e08c2dd	0.13355584
21	0x3b29e54a	0.002592402
22	0xbd2892b7	-0.041155543
23	0x3d786acf	0.060648736
24	0xbd0387ac	-0.03211181
25	0xbd19fabe	-0.037592642
26	0x3dbcd1ac	0.09219679
27	0xbcc3ead9	-0.023915695
28	0xbc4ca71f	-0.012491017
29	0x3c61b233	0.013775396
30	0xbcc7a0e4	-0.02436871
31	0xbd3d697d	-0.04624318
32	0x3cd7b155	0.026329676
33	0x39eb50e5	0.00044882964
34	0x3d868457	0.065682106
35	0xbd84c03f	-0.064819805
36	0xbdae53eb	-0.085121
37	0x3db59f5e	0.088682875
38	0x3dde34ce	0.108499154
39	0x3d542139	0.051789496
40	0xbe03d490	-0.12874055
41	0xbd428a2a	-0.047495045
42	0xbd57480c	-0.052558944
43	0xbd092663	-0.033483874
44	0x3b8874aa	0.004164298
45	0xbd442364	-0.047885314
46	0xbe03283b	-0.12808315
47	0xb9cde9c6	-0.00039274822
48	0xbdb6832f	-0.0891174
49	0xbd253df1	-0.040342275
50	0xbbf37c07	-0.0074305567
51	0xbd5586d2	-0.052130528
52	0xbc7065fe	-0.014672754
53	0x3c43a1ca	0.011940429
54	0xbc53caf8	-0.0129268095
55	0xbd5e00a6	-0.054199837
56	0xbdd38543	-0.10328152
57	0x3d227a52	0.039667435
58	0xbbb65644	-0.005564483
59	0xbdcd2c04	-0.10018161
60	0xbd77b1c0	-0.06047225
61	0xbdadbe25	-0.08483533
62	0xbd02bc4d	-0.03191786
63	0xbe0af9cb	-0.13571851
64	0x3cb39cc9	0.021925347
65	0xbda0a6ff	-0.07844352
66	0x3d95dd20	0.07317567
67	0xbd98e87f	-0.0746622
68	0xbcddcae0	-0.027074277
69	0xbcb4453c	-0.02200567
70	0xbce52430	-0.027971357
71	0xbc64f16e	-0.013973577
72	0xbd7fdd9f	-0.062467214
73	0xbb679b10	-0.0035340227
74	0xbcb6eb9f	-0.02232915
75	0xbe02c8ce	-0.12771913
76	0xbda552a6	-0.080724046
77	0xbc9b7cda	-0.018980432
78	0x3cb252cc	0.021767996
79	0xbd7da7f3	-0.061927747
80	0xbd790f8f	-0.060805853
81	0xbd8e2ef9	-0.06942553
82	0xbbca53be	-0.0061745336
83	0xbd843d28	-0.06456977
84	0xbd1fc74e	-0.03900843
85	0xbdd23196	-0.10263364
86	0xbca7e03a	-0.020492662
87	0x3de558fc	0.11198613
88	0xbdc3189e	-0.0952618
89	0xbd16bcd1	-0.036801163
90	0x3c4774e0	0.012173861
91	0xbdf18880	-0.117936134
92	0x3d56c4bb	0.05243371
93	0xbd7664e0	-0.060154796
94	0x3cb530e4	0.02211804
95	0xbd1e9cdc	-0.03872381
96	0xbae91e99	-0.0017785608
97	0x3cacae09	0.02107908
98	0x3c88ce54	0.016699947
99	0xbc676798	-0.01412382
100	0xbcddfeb8	-0.027098998
101	0x3cfe5c68	0.031049922
102	0xbdaab4c3	-0.08335259
103	0xbde26115	-0.11053673
104	0x3d27b273	0.040941667
105	0xbc02aba4	-0.007975493
106	0xbca66541	-0.020311953
107	0xbe1f9382	-0.15583614
108	0xbd4bccbd	-0.0497558
109	0xbd4b861f	-0.049688455
110	0xbcfaaa84	-0.030598886
111	0x3c913149	0.017723696
112	0xbd8a6aae	-0.06758629
113	0x3d539334	0.051654056
114	0xbd591a2c	-0.053003475
115	0xbc424408	-0.01185704
116	0xbcebc4d5	-0.02878038
117	0x3d56b289	0.05241636
118	0xbd62c059	-0.05535922
119	0xbca4d1c6	-0.020119559
120	0xbd1305f0	-0.035894334
121	0x3bb1244d	0.0054059387
122	0x3d159a38	0.036524028
123	0xbd12c8e4	-0.035836115
124	0xb9728a52	-0.00023130447
125	0xbd539d54	-0.05166371
126	0xbd4996e5	-0.04921617
127	0x3d8148a3	0.063126825

base.mlp.layers.1.2.weight f4 [128]
0	0x3f837610	1.0270405
1	0x3f79a9cb	0.9752471
2	0x3f58d03a	0.8469273
3	0x3f66f75e	0.902212
4	0x3f90f45b	1.1324571
5	0x3f8b915a	1.0903733
6	0x3f799285	0.97489196
7	0x3f6abbae	0.91692626
8	0x3f709a3c	0.9398534
9	0x3f8917cc	1.0710387
10	0x3f6f61ea	0.9350878
11	0x3f630066	0.8867248
12	0x3f79eb36	0.9762453
13	0x3f89a89d	1.0754582
14	0x3f7b897f	0.9825668
15	0x3f86b662	1.0524409
16	0x3f8a4044	1.0800862
17	0x3f887dfd	1.0663449
18	0x3f689e0b	0.90866154
19	0x3f8459e5	1.0339934
20	0x3f713ae5	0.9423049
21	0x3f579844	0.84216714
22	0x3f78b7aa	0.9715525
23	0x3f8920e4	1.0713162
24	0x3f737017	0.9509291
25	0x3f8b6866	1.0891235
26	0x3f7f7ba3	0.9979803
27	0x3f64eb19	0.8942123
28	0x3f75b865	0.9598449
29	0x3f7cc7ec	0.98742557
30	0x3f8897b0	1.0671291
31	0x3f7751fa	0.9660946
32	0x3f83a9fc	1.028625
33	0x3f7c48ef	0.9854879
34	0x3f83b0b5	1.0288302
35	0x3f920484	1.1407628
36	0x3f9009cf	1.1252993
37	0x3f801212	1.0005515
38	0x3f7b023a	0.9805027
39	0x3f566da9	0.8376108
40	0x3f6c3424	0.9226706
41	0x3f9f03e2	1.242306
42	0x3f5e742f	0.8689603
43	0x3f8abf02	1.0839541
44	0x3f9051f0	1.1275005
45	0x3f9af96d	1.2107369
46	0x3f6f8839	0.93567234
47	0x3f742638	0.9537082
48	0x3f8a2dff	1.0795287
49	0x3f947a51	1.1599828
50	0x3f7226ad	0.94590265
51	0x3f884109	1.0644847
52	0x3f95f4e8	1.1715364
53	0x3f8ee199	1.1162597
54	0x3f732867	0.94983524
55	0x3f86a9b2	1.0520537
56	0x3f80b5f1	1.0055524
57	0x3f831d10	1.0243244
58	0x3f8339a1	1.0251962
59	0x3f85533a	1.0416024
60	0x3f7586d0	0.9590883
61	0x3f872365	1.0557677
62	0x3f7b5875	0.9818185
63	0x3f76e547	0.964436
64	0x3f799ed5	0.97507983
65	0x3f87d3e5	1.061154
66	0x3f717f35	0.9433473
67	0x3f82d1ec	1.0220313
68	0x3f8c17a9	1.094472
69	0x3f8026ee	1.001188
70	0x3f70c702	0.9405366
71	0x3f74e811	0.95666605
72	0x3f869c02	1.051636
73	0x3f824d87	1.017991
74	0x3f8c18a1	1.0945016
75	0x3f7fc45e	0.9990901
76	0x3f811063	1.0083126
77	0x3f723e13	0.9462597
78	0x3f944cd6	1.1585948
79	0x3f80ed1a	1.0072358
80	0x3f6b9de9	0.92037827
81	0x3f804126	1.0019882
82	0x3f7ff100	0.9997711
83	0x3f5ff2cc	0.87479854
84	0x3f736f99	0.9509216
85	0x3f7a9863	0.97888774
86	0x3f77f859	0.96863323
87	0x3f80f716	1.0075405
88	0x3f8390cb	1.0278562
89	0x3f883f87	1.0644387
90	0x3f7027df	0.9381084
91	0x3f6b4a86	0.9191059
92	0x3f80e8c2	1.0071032
93	0x3f6318c1	0.88709646
94	0x3f8ce517	1.1007413
95	0x3f8d851f	1.105625
96	0x3f68f4cd	0.90998536
97	0x3f64b72b	0.8934199
98	0x3f69a997	0.912744
99	0x3f7e465a	0.993261
100	0x3f64a770	0.8931799
101	0x3f831842	1.0241778
102	0x3f89e78b	1.0773786
103	0x3f96f940	1.1794815
104	0x3f721421	0.94561964
105	0x3f8bf856	1.0935161
106	0x3f84ac3c	1.0365062
107	0x3f801387	1.0005959
108	0x3f85e4df	1.0460471
109	0x3f7e1a04	0.99258447
110	0x3f81d2e9	1.014249
111	0x3f9492e2	1.1607325
112	0x3f881f71	1.0634595
113	0x3f6bfbf0	0.921813
114	0x3f7a19d5	0.97695667
115	0x3f83fa83	1.0310825
116	0x3f77642c	0.96637225
117	0x3f7f0188	0.9961171
118	0x3f6b7bcc	0.91985774
119	0x3f7ab0b9	0.9792591
120	0x3f99c5a8	1.2013445
121	0x3f6d2ecd	0.9264954
122	0x3f69bfae	0.91308105
123	0x3f8cebcb	1.1009458
124	0x3fa04c45	1.2523276
125	0x3f895e7b	1.0731958
126	0x3f72d52a	0.9485651
127	0x3fa89134	1.3169312

base.mlp.layers.1.2.bias f4 [128]
0	0x3cc4cac5	0.02402247
1	0x3da20efc	0.07913014
2	0xbcb7bde7	-0.02242942
3	0xbd2fa285	-0.0428796
4	0xbe17b0a6	-0.1481348
5	0xbc148c75	-0.009066691
6	0x3d7a5586	0.061116718
7	0x3d16fc8f	0.036861952
8	0xbc5451c3	-0.012958947
9	0xbd85c8f4	-0.065324694
10	0x3d53ac20	0.051677823
11	0xbcb467b1	-0.0220221
12	0x3cf0db26	0.029401373
13	0x3e2fa4be	0.17152688
14	0xbd733653	-0.05937798
15	0xbb89ec09	-0.004209046
16	0x3cff738d	0.031183029
17	0xbd2e297d	-0.042520035
18	0x3ddb07e1	0.10694862
19	0x3d75b6f3	0.059988927
20	0x3dba9ba5	0.09111718
21	0x3e2ee4fa	0.17079535
22	0x3e77fc36	0.24217305
23	0x3d83789d	0.064194895
24	0x3e3260a2	0.17419675
25	0xbcdf70d6	-0.027275484
26	0x3d7db34f	0.06193858
27	0x3e107272	0.14106157
28	0xbcabc159	-0.020966219
29	0xbd3bc6c0	-0.04584384
30	0xbdc6e09b	-0.09710809
31	0x3d4f1d08	0.050564796
32	0xbceff1d4	-0.029290117
33	0x3d532ec0	0.051558256
34	0xbc55370d	-0.013013613
35	0xbdc3ee65	-0.095669545
36	0x3d104130	0.035218418
37	0x3e08e0ce	0.13367006
38	0x3dbd7e54	0.09252611
39	0x3d7e2184	0.06204368
40	0x38e5cae0	0.00010957359
41	0xbe3b90a4	-0.18316895
42	0x3d92a19c	0.07159731
43	0x3d02420a	0.03180126
44	0xbe2cb298	-0.16865003
45	0xbe265e42	-0.16246894
46	0x3c175602	0.009236814
47	0xbccdf58d	-0.025141502
48	0xbde41396	-0.11136548
49	0xbdc97be2	-0.09838082
50	0x3c213ca1	0.009841115
51	0xbde5e281	-0.11224843
52	0x3dc82801	0.09773255
53	0xbd0becb7	-0.034161296
54	0xbc327c31	-0.010893867
55	0xbe09d64f	-0.13460658
56	0x3d2cda18	0.042200178
57	0x3d0f8138	0.035035342
58	0xbc4ee734	-0.012628365
59	0xbdec48e7	-0.115373425
60	0x3d21e26e	0.03952258
61	0xbbc3eccc	-0.005979156
62	0x3c0987bc	0.008394178
63	0x3cd20948	0.025639191
64	0x3d2a0454	0.041508034
65	0xbd1dba08	-0.03850749
66	0x3e094890	0.13406587
67	0xbd3f0da2	-0.04664386
68	0xbb76f0cf	-0.0037680154
69	0x3c8a1499	0.016855525
70	0x3d5d6c1f	0.05405819
71	0x3d06547c	0.032795414
72	0xbd357273	-0.0442986
73	0x3c14a56b	0.009072642
74	0xbdcabf81	-0.09899808
75	0xbd133cca	-0.035946645
76	0x3cf58967	0.029972745
77	0x3d4301cd	0.04760914
78	0xbdf5fcde	-0.12011121
79	0xbd880206	-0.06641011
80	0xbb9ac8f8	-0.0047236644
81	0xbd3a8837	-0.04554006
82	0x3c31da96	0.010855338
83	0x3e04114a	0.1289722
84	0x3d42191a	0.04738722
85	0x3cc93b89	0.024564521
86	0x3a933f7c	0.001123413
87	0x3d8a2bb2	0.067466155
88	0xbd764ac5	-0.0601299
89	0xbd684b3d	-0.056712378
90	0x3d264afc	0.040598854
91	0x3db134d9	0.08652658
92	0x3da1d936	0.07902758
93	0x3d8b9d27	0.06817084
94	0x3c91da2e	0.017804231
95	0xbd917cad	-0.07103858
96	0xbcf80ebe	-0.030280467
97	0x3d224cd9	0.03962407
98	0x3d976421	0.07392145
99	0x3c26bc4f	0.010176732
100	0x3d7d25f4	0.061803773
101	0x3da5af89	0.08090121
102	0x3ca6e497	0.020372672
103	0xbe01a787	-0.12661563
104	0x3d4b27b9	0.04959843
105	0xbda4eec7	-0.08053356
106	0x3d28522a	0.041093983
107	0x3d84f1b8	0.06491417
108	0xbd836618	-0.06415957
109	0xbc1e24b6	-0.009652307
110	0xbd1d37a7	-0.038383152
111	0xbdbc5e34	-0.09197655
112	0x3dcfd32b	0.10147699
113	0x3dcea595	0.10090176
114	0x3c8dbc4f	0.017301707
115	0xbc858978	-0.016300902
116	0xbd26ce26	-0.040723942
117	0x3dc1d525	0.09464482
118	0x3d77ca9c	0.060495958
119	0xbb6ec802	-0.0036435132
120	0xbdafb428	-0.08579284
121	0x3da265c6	0.07929568
122	0x3d012a33	0.031534385
123	0xbdbb0e90	-0.09133637
124	0xbe0cd166	-0.13751754
125	0xbd5af3c2	-0.05345512
126	0x3de9196c	0.11381802
127	0xbdfeed83	-0.124476455
