models/actor_good256_2.pt (torch, 997510 bytes, 16 tensors)

base.feature_norm.weight f4 [420]
000000 c4 88 98 3f 95 fd 96 3f 2b 66 8f 3f ad 82 8d 3f
       1.1916738 1.1796137 1.1203054 1.1055504
000010 1f 2a 92 3f 5b 21 66 3f d9 50 70 3f 53 86 76 3f
       1.1419104 0.89894646 0.93873364 0.9629871
000020 be 57 6f 3f 26 60 6c 3f 51 e6 63 3f e8 84 77 3f
       0.9349326 0.9233421 0.8902331 0.96687174
000030 55 a4 6c 3f 49 2c 83 3f fe f9 5c 3f 34 12 60 3f
       0.9243825 1.024789 0.8631896 0.87527776
000040 2b a4 78 3f 48 3b 6b 3f 8a 51 7e 3f 3a 4c 64 3f
       0.971255 0.9188733 0.9934317 0.8917881
000050 5e 4b 86 3f 88 9d 7f 3f 79 6b 88 3f 61 ee 80 3f
       1.049175 0.9984975 1.0657798 1.0072747
000060 8b f4 87 3f d1 0a 66 3f 6d f0 65 3f 27 db 77 3f
       1.0621504 0.89860255 0.89819986 0.96818775
000070 55 c0 79 3f ef 05 83 3f 79 ee 7b 3f 4c 71 6d 3f
       0.975591 1.0236186 0.98410755 0.92751
000080 1b ba 6f 3f 6f 06 71 3f a7 17 6a 3f 2e 7e 7f 3f
       0.9364335 0.9415044 0.9144234 0.9980191
000090 40 63 75 3f 07 a4 80 3f d6 50 71 3f 7e d2 7c 3f
       0.9585457 1.0050057 0.9426397 0.98758686
0000a0 12 ea 71 3f 9e ea 73 3f 33 5e 74 3f fe 14 5e 3f
       0.9449779 0.9527987 0.95456237 0.8675078
0000b0 8c aa 6c 3f 4c 9c 81 3f 9c 52 84 3f ba 91 68 3f
       0.92447734 1.0125823 1.033771 0.9084736
0000c0 93 03 7a 3f c0 0d 6d 3f e7 e4 63 3f eb 25 73 3f
       0.97661704 0.92599106 0.8902115 0.94979733
0000d0 84 b2 81 3f b8 d8 7c 3f 03 db 6d 3f 32 45 75 3f
       1.0132604 0.98768187 0.9291231 0.9580871
0000e0 7e bd 83 3f eb 6c 76 3f b3 19 79 3f 38 20 6e 3f
       1.0292203 0.96259946 0.9730484 0.9301791
0000f0 48 86 7c 3f 21 32 8a 3f f5 ee 86 3f 5b 4f 6d 3f
       0.98642397 1.0796548 1.0541674 0.9269921
000100 ce 9f 6d 3f ec a1 70 3f 36 2b 6e 3f c0 27 74 3f
       0.9282197 0.93997073 0.93034685 0.95373154
000110 15 62 6f 3f ee 71 83 3f ee a5 81 3f 69 70 6d 3f
       0.93509036 1.0269144 1.0128763 0.9274965
000120 13 e7 85 3f 20 a4 80 3f 1a b8 83 3f da 6d 8b 3f
       1.0461143 1.0050087 1.0290558 1.0892899
000130 75 69 89 3f 66 51 8c 3f 07 08 8e 3f 6c 43 84 3f
       1.0735308 1.0962341 1.10962 1.0333076
000140 21 0b 75 3f f5 9f 7d 3f 23 6a 7e 3f 3a 11 72 3f
       0.95720106 0.990722 0.993807 0.94557536
000150 38 87 81 3f dd 13 80 3f 0e b5 78 3f 75 3e 84 3f
       1.011939 1.0006062 0.9715127 1.033156
000160 e6 1e 68 3f 92 18 72 3f bf ae 73 3f 9b ab 71 3f
       0.9067215 0.9456874 0.95188516 0.94402474
000170 bb a7 73 3f b2 30 73 3f 7c 8d 76 3f f0 06 71 3f
       0.9517781 0.9499618 0.9630964 0.9415121
000180 08 e0 76 3f 0f 10 69 3f 3b 49 83 3f bb aa 84 3f
       0.96435595 0.9104013 1.0256723 1.0364603
000190 73 27 80 3f 87 4b 7b 3f 08 55 7c 3f a0 92 7c 3f
       1.0012039 0.9816212 0.9856725 0.9866123
0001a0 ea 91 84 3f 8b de 84 3f f4 87 80 3f 0b 99 8a 3f
       1.035703 1.0380415 1.004149 1.0827955
0001b0 89 85 6d 3f cf 57 71 3f 1e 81 71 3f 4b 9f 80 3f
       0.92781883 0.9427461 0.9433764 1.0048612
0001c0 f4 48 79 3f 3d 45 6f 3f 4e 2a 6e 3f 44 84 6c 3f
       0.9737694 0.93465024 0.930333 0.9238932
0001d0 18 00 6f 3f c8 d5 6a 3f 77 97 81 3f 0f 97 7f 3f
       0.9335952 0.91732454 1.0124348 0.9983987
0001e0 6b 25 83 3f e7 ad 81 3f c0 27 82 3f 8c d4 72 3f
       1.0245794 1.0131196 1.0168381 0.9485557
0001f0 81 1c 66 3f 89 e3 78 3f dc df 77 3f db 39 80 3f
       0.89887244 0.9722219 0.9682596 1.0017656
000200 10 48 87 3f 56 9c 80 3f dd c3 72 3f 43 37 75 3f
       1.0568867 1.004771 0.94830114 0.9578745
000210 19 a4 72 3f 34 ff 78 3f d8 31 80 3f b2 aa 72 3f
       0.94781643 0.9726441 1.0015211 0.9479171
000220 e9 70 7e 3f 70 25 83 3f 15 f0 79 3f d2 90 57 3f
       0.9939104 1.02458 0.9763196 0.84205353
000230 96 4b 7e 3f 67 4e 72 3f ab 4e 79 3f 32 0b 7b 3f
       0.99334085 0.9465088 0.9738566 0.9806396
000240 39 f1 7f 3f 05 14 7c 3f 59 0b 81 3f d3 19 7f 3f
       0.9997745 0.9846805 1.0081588 0.9964878
000250 37 fa 73 3f a4 2d 82 3f 29 4b 66 3f 2e f0 4f 3f
       0.9530367 1.0170178 0.89958435 0.8122586
000260 bb 9b 7b 3f a7 4b 82 3f 25 90 87 3f 52 74 84 3f
       0.982845 1.0179337 1.0590864 1.0347998
000270 14 bb 79 3f 76 3c 63 3f 5b 5a 89 3f b2 12 8b 3f
       0.97551084 0.8876413 1.0730699 1.086508
000280 03 bc 8a 3f 9e 09 87 3f 5b ab 89 3f 3c 88 82 3f
       1.0838627 1.054981 1.0755419 1.0197825
000290 ef 37 82 3f 71 99 80 3f 08 4b 87 3f d6 63 88 3f
       1.017332 1.0046827 1.0569773 1.0655468
0002a0 a8 08 82 3f 38 b1 88 3f 4c e4 84 3f 82 95 75 3f
       1.0158892 1.0679083 1.0382171 0.95931256
0002b0 43 48 6c 3f d4 6f 72 3f 18 ad 6c 3f 92 01 70 3f
       0.9229776 0.94701886 0.9245162 0.93752396
0002c0 6b cc 82 3f b4 50 87 3f 4f 2d 69 3f 1e af 7b 3f
       1.0218633 1.0571504 0.9108476 0.9831408
0002d0 e2 e2 78 3f d3 77 89 3f 71 44 82 3f df 4f 84 3f
       0.97221196 1.0739692 1.0177137 1.0336875
0002e0 b5 d0 87 3f cc 9f 78 3f e2 04 83 3f d5 7b 76 3f
       1.0610567 0.9711883 1.0235865 0.962827
0002f0 a3 9f 81 3f 1b 02 82 3f 19 ce 87 3f 49 1b 62 3f
       1.0126842 1.0156893 1.0609771 0.88322884
000300 21 be 82 3f e7 ef 79 3f 1f 0e 7e 3f 17 0d 67 3f
       1.0214273 0.97631687 0.992403 0.9025435
000310 41 7c 80 3f 80 a9 7f 3f 8c 9e 72 3f d9 39 7c 3f
       1.0037919 0.9986801 0.94773173 0.9852577
000320 00 60 70 3f 97 3f 84 3f a0 31 80 3f 6d 32 85 3f
       0.93896484 1.0331906 1.0015144 1.0406014
000330 af 94 6d 3f 2f 56 8d 3f 78 56 69 3f 78 b4 81 3f
       0.92805 1.1041926 0.91147566 1.01332
000340 ec b4 73 3f 51 31 72 3f 5f 4d 78 3f 79 e9 77 3f
       0.9519794 0.946065 0.9699306 0.96840626
000350 01 f0 78 3f d4 27 70 3f c1 11 83 3f e4 8f 87 3f
       0.97241217 0.9381077 1.0239793 1.0590787
000360 a8 80 78 3f c7 1f 71 3f 32 8d 82 3f 66 ee 81 3f
       0.97071314 0.94189113 1.0199339 1.0150878
000370 2c db 84 3f 3a 3d 89 3f 79 8e 66 3f 4a 97 84 3f
       1.0379386 1.072181 0.90061146 1.035867
000380 1e 87 74 3f 3a d5 7e 3f 3e 17 90 3f 68 da 72 3f
       0.9551867 0.9954411 1.1257093 0.9486451
000390 20 7d 82 3f db 90 82 3f 8f 19 90 3f 15 66 7b 3f
       1.0194435 1.0200456 1.12578 0.9820264
0003a0 34 77 7f 3f 80 31 7a 3f ad ea 75 3f a5 83 78 3f
       0.99791265 0.9773178 0.9606121 0.97075874
0003b0 7d 2c 89 3f 1e 3d 85 3f ab 9b 8d 3f 8a 17 8a 3f
       1.0716702 1.0409276 1.1063131 1.0788434
0003c0 23 60 84 3f a7 97 85 3f c4 d0 8c 3f 88 4b 92 3f
       1.0341839 1.0436906 1.100121 1.14293
0003d0 ca af 9b 3f 91 e4 8c 3f ee cf 77 3f 3a a2 8a 3f
       1.2163022 1.1007253 0.9680165 1.0830758
0003e0 61 b6 6d 3f e7 58 82 3f 28 f4 84 3f 50 ef 7f 3f
       0.92856413 1.0183381 1.038701 0.99974537
0003f0 5d b5 7e 3f 00 c1 89 3f c2 2d 6b 3f ce fc 69 3f
       0.9949549 1.0762024 0.91866696 0.91401374

base.feature_norm.bias f4 [420]
000000 1b fc ab bc c3 a6 07 bd 20 5e e9 3c 6f c1 13 3d
       -0.020994237 -0.03311802 0.028487265 0.036073145
000010 e3 62 4e 3c 9f b7 de bd 11 82 59 3d 90 29 d0 3c
       0.012596819 -0.10874867 0.053102557 0.025410444
000020 07 7f ba 3d 3f 53 ac 3d 18 5a 6c 3c 6e 20 8e bc
       0.0910626 0.084143154 0.014425777 -0.017349448
000030 ff cc 0b 3d a3 ad 5b ba c4 a1 36 3a fa 20 8c bb
       0.034131046 -0.0008380061 0.0006966854 -0.004276392
000040 0f 4b b2 bc 23 9e 64 bd 69 7c 2b 3c be d7 9d 3b
       -0.021764306 -0.055814873 0.010466673 0.0048169782
000050 44 54 ff 3b 36 07 5b bd 39 c1 62 bc 2b 6f 3f bc
       0.0077920277 -0.053473674 -0.013840013 -0.011684219
000060 e9 fc 8d bc 57 ab 5e 3c 78 32 a6 3c 98 2a fb 3b
       -0.017332511 0.013590655 0.020287737 0.0076649897
000070 e3 3c 46 3c 35 d3 7b bc 21 d0 21 3c ed f7 8c bc
       0.012099477 -0.01537018 0.009876282 -0.017208064
000080 79 05 17 bc 94 49 e6 ba 87 c0 86 bc d9 53 cc ba
       -0.009217613 -0.0017569535 -0.016449226 -0.0015588953
000090 81 c7 92 3b e7 e8 32 bc d5 ca 27 bd a0 14 48 3d
       0.004479349 -0.010919786 -0.04096492 0.048847795
0000a0 de e9 2e bb 21 49 64 3b 58 2b db 3c 9f 5a e3 3c
       -0.0026689689 0.0034833627 0.026754066 0.027753172
0000b0 9b 5d f5 bb 7a 3c 84 bc cb f5 91 3c 1f a6 37 bc
       -0.0074879653 -0.016142119 0.017817399 -0.01120904
0000c0 63 08 20 bc 0b 1e 27 bb 41 fc 08 3d dc 38 f1 ba
       -0.009767625 -0.0025500085 0.033443693 -0.0018403786
0000d0 27 d2 9d bd 72 ab 0a bd 68 18 84 3c c4 0c 97 3b
       -0.07706099 -0.03385491 0.016124919 0.004609676
0000e0 28 d5 c7 3c c4 12 99 3b b6 27 32 3d 60 b9 2d 3d
       0.024393633 0.0046714265 0.043494903 0.042413116
0000f0 56 43 6d bc db 42 80 bc 34 77 98 bc 9b ce 5e 3c
       -0.014481386 -0.01565688 -0.018611528 0.013599063
000100 24 2a 4e 3a 97 c7 64 3c 47 c2 5d 3c 9b c0 80 bc
       0.0007864556 0.013963602 0.013535089 -0.015716841
000110 0c 12 32 3c 4b 18 65 3c 5e ee 7e 3d 00 cd 41 3d
       0.0108685605 0.013982843 0.062239043 0.047314644
000120 1a ee 00 3d 27 57 09 3d b4 6a 34 3d d8 39 00 bc
       0.03147707 0.03353038 0.044047073 -0.007826291
000130 d8 cd fd ba b9 f7 94 3b ef 3a a1 3c 7f 83 ce 3b
       -0.0019363714 0.0045461324 0.019681422 0.0063022966
000140 25 22 ce 3b c4 8c 70 3d 9e 19 0b 3d a3 27 e9 3c
       0.0062906914 0.058727995 0.033959977 0.028461283
000150 34 54 07 3d 00 ff fb 3c 59 8a 2b bd dc 36 00 3d
       0.033039287 0.030761242 -0.041879985 0.031302318
000160 de 3e c4 3d cd 60 1d 3d c6 70 46 3d 22 20 69 3d
       0.095823035 0.038422395 0.048447393 0.05691541
000170 db c1 43 3d 62 4b de bc d1 b1 cb 3c 5a 34 c7 3c
       0.047792297 -0.027135555 0.024865063 0.024316955
000180 73 67 c5 3c d4 18 eb 3b a0 ff 98 bc cd 73 0e 3c
       0.02409718 0.0071745906 -0.018676579 0.008694601
000190 50 cf 8e 3c bb a6 9d ba 06 fc ad 3b 9f a5 79 3c
       0.017432839 -0.0012027839 0.0053095846 0.015237241
0001a0 04 06 82 3b f7 5d c4 bc 67 dc f0 bc a9 55 07 bc
       0.0039680023 -0.023970587 -0.029401971 -0.008260169
0001b0 b4 1f 65 3d 00 87 2c bd cd 74 1d 3c c4 1f a7 bc
       0.055938438 -0.042120934 0.009610367 -0.02040089
0001c0 a9 9f 9d bc d1 4e 9f bb 06 b3 c2 bc 7e 2c 41 bd
       -0.019241171 -0.0048616906 -0.023767006 -0.04716157
0001d0 8d 6f 19 bd 0c 86 65 bd 3d a9 5a 3b 74 96 8d bd
       -0.0374599 -0.05603604 0.0033365034 -0.06913462
0001e0 a8 4c 78 3c 95 70 c0 bc 3b 84 06 bd 9a b3 8c bb
       0.015154995 -0.023491183 -0.03284095 -0.004293871
0001f0 67 b0 03 ba 15 97 27 3c e4 53 41 3d 7a ac 9c ba
       -0.00050235394 0.010228892 0.047199145 -0.0011953257
000200 36 c5 23 bd f5 37 18 bd 1f c4 4f bd e6 bd 98 bc
       -0.039982997 -0.03716274 -0.050724145 -0.018645238
000210 b4 c4 6d bd e8 39 90 bb 9e 66 bd bb 1d 5b a6 bb
       -0.05804892 -0.004401434 -0.005780055 -0.0050767795
000220 2d 87 21 3c eb f9 0d 3c 71 bd be 3b b4 b1 8d 3d
       0.009858889 0.008665542 0.005820923 0.0691866
000230 91 d0 a6 bc 88 50 d5 39 90 c8 3b bc 19 b7 26 bd
       -0.020363124 0.00040686526 -0.011461392 -0.04070196
000240 74 08 44 bd 38 d6 4c bd 15 bf 22 bd e6 36 05 bd
       -0.047859624 -0.050008982 -0.03973301 -0.03252306
000250 29 66 07 3d 63 c9 10 bc 86 ca 7e 3d e6 88 9a bc
       0.033056412 -0.008837077 0.06220486 -0.018864106
000260 b2 7d a6 3c 9d c4 29 bc a8 53 38 3b cf 5e 73 3b
       0.020323608 -0.010361818 0.0028126035 0.0037135368
000270 fa 66 ae 3c 2c dd 4c 3d b3 90 c0 3a 3b 21 a6 bc
       0.021289337 0.050015613 0.0014691561 -0.020279517
000280 a0 19 54 bc 58 f5 9a bc 2e 57 80 bc 76 02 2b 3d
       -0.012945563 -0.018915817 -0.01566657 0.041750394
000290 7f ee 4b 3d 23 94 1d 3d 4d b5 1d 3d e1 ec b7 3c
       0.049787994 0.038471352 0.03850298 0.02245182
0002a0 e9 e2 75 3c 5f 94 20 3c f8 55 6c 3d c6 d4 22 3d
       0.015007713 0.009800999 0.057699174 0.039753698
0002b0 dd e5 a0 3d a9 89 6a 3d 3d 05 99 3d 5b 03 8c 3d
       0.07856343 0.05726019 0.07471702 0.068365775
0002c0 43 fc 4b 3d 05 71 0b 3c 99 8a 27 3d cb e9 bc 3c
       0.049801122 0.008510833 0.04090366 0.0230607
0002d0 52 36 2a 3d 29 12 7e 3c 05 95 db 3c a6 cc 17 3c
       0.04155571 0.015507259 0.026804456 0.009265101
0002e0 42 62 a7 3b f1 95 8d 3b 32 73 99 3b a8 f0 88 bb
       0.005108149 0.004320853 0.004682922 -0.004179079
0002f0 8a 53 0d bc 35 23 e5 3b d1 bb 56 bb 9c f4 9e 3c
       -0.008625874 0.0069927224 -0.0032765756 0.019403748
000300 f0 d3 a8 3b bb 7c b9 3b ee fb 9b bb b0 51 9e 3b
       0.005152218 0.005660621 -0.004760257 0.0048315153
000310 ad 7d 99 bc 34 1b de 3b 2a e5 58 39 e7 59 50 bd
       -0.018736685 0.006778145 0.00020684736 -0.050866988
000320 50 78 5a 3c 2f b9 b4 bb 99 64 8d bb dc 57 65 bc
       0.013334349 -0.0055152397 -0.0043149707 -0.013997998
000330 ea 9d 86 3a 6b ef f5 bc 7c ba fd 3c 18 4f 38 3c
       0.0010270451 -0.03002139 0.030972712 0.011249326
000340 96 c7 05 3d e2 ec f5 3b 70 49 29 3d 52 a5 09 bb
       0.032661043 0.0075050453 0.0413298 -0.002100308
000350 7d 2c d7 3b 84 41 53 bc 85 7f 76 bc 41 5c bd bc
       0.0065665827 -0.012894038 -0.015045051 -0.02311528
000360 a1 5a 17 3d e4 4d 38 3b 3c 85 c7 3c 64 c5 21 3d
       0.036951665 0.0028122598 0.024355523 0.039494887
000370 7f 06 8c bb 5e 96 55 3a 50 29 0e 3d be a1 ff bb
       -0.0042732353 0.00081477116 0.034707367 -0.0078012636
000380 88 4e 3a bd 36 9a 00 bc 4a ba 01 3b b6 62 50 bc
       -0.04548505 -0.007849267 0.0019794875 -0.012718847
000390 85 b1 bc bc 7f ef 51 bc a7 4d b5 bc 97 96 b1 3c
       -0.023033867 -0.012813448 -0.022131754 0.021678252
0003a0 53 a0 c8 3b f8 ec 86 ba 91 4a 25 bd e1 57 eb 3c
       0.0061226278 -0.0010294011 -0.040354315 0.028728427
0003b0 fb d9 cd 3b ec 7a e5 3b 5a d3 b6 bb e8 15 fe 39
       0.006282089 0.007003179 -0.0055793943 0.00048462977
0003c0 4e 97 2b bc f1 16 a6 bc e0 d1 1f bc 5c 7b bc bc
       -0.010473086 -0.020274611 -0.009754628 -0.023008041
0003d0 0f 3e c8 bc 3a 21 01 bc c7 c6 97 3c 39 6f 2d 3d
       -0.024443654 -0.007881457 0.018527402 0.0423424
0003e0 1d 90 5a 3d 55 8c 48 3d c0 7a 22 3d 14 20 1f 3d
       0.053360093 0.048961956 0.039667845 0.03884895
0003f0 65 ab f2 3c e1 0e 29 3d 0f f4 ad 3d 44 7f c8 3d
       0.029622743 0.041273955 0.08493816 0.09789899

base.mlp.fc1.0.weight f4 [256, 420]
000000 32 32 99 bd f7 b8 99 3e 54 f1 1b be 39 bf 12 3c
       -0.07480277 0.3002393 -0.15228778 0.008956724
000010 6b 1d 81 be 8e 76 83 bd 74 28 8c 3d ea cc c5 3d
       -0.25217757 -0.06419097 0.06843653 0.09658225
000020 4b 5d 87 ba 41 0f 6b bc ff d8 6b bd dc b1 5a 3c
       -0.0010327486 -0.0143468985 -0.05757999 0.013348069
000030 92 18 9e 3c 92 09 ab bd ca 98 6c bd 3c e1 87 bd
       0.019298825 -0.08351435 -0.0577629 -0.06634757
000040 1f 98 db 3d 6d 3f b2 bc a1 25 15 3d 6b a9 28 3e
       0.10722374 -0.02175876 0.03641284 0.16470878
000050 64 63 33 bc 0b 65 cb bc 88 ce 08 bd 1e 52 80 bd
       -0.01094899 -0.024828454 -0.03340009 -0.062656626
000060 8d cb 80 3d 29 0c f0 3c b4 3c f9 bc 3b 67 89 bc
       0.06288824 0.029302673 -0.030424453 -0.016772857
000070 55 bd 96 bd de 29 96 3c 01 c2 51 bd 77 ed 28 bc
       -0.07360331 0.01833051 -0.051210407 -0.010310522
000080 fe f6 44 bd 8b a1 91 bd 75 cb 81 bd cb 2b 61 bd
       -0.048087113 -0.0711089 -0.063376345 -0.054973405
000090 4f ba 85 bb 33 9a 2c bd 79 19 42 3c 91 87 b9 bd
       -0.0040810476 -0.042139243 0.0118468935 -0.0905906
0000a0 64 a5 9a 3d ab f0 24 bc aa c1 ba bc a0 6e a8 3c
       0.07551077 -0.010067145 -0.022797424 0.020560563
0000b0 26 de 99 bd cd 2e 9b bd 28 ba ca 3d 40 5e 39 bc
       -0.075130746 -0.07577286 0.09898788 -0.011313975
0000c0 17 a5 85 3d a1 37 1e 3c 26 31 62 bd c6 77 4f 3d
       0.06525629 0.009656818 -0.055222653 0.050651334
0000d0 af bb 99 3d 05 ba 9c 3d 4e 92 fd 3b fa 91 a7 3c
       0.07506501 0.07652668 0.007738388 0.02045535
0000e0 ce d5 10 3d 70 c9 6a 3c b2 2f 9d bd 39 99 2d be
       0.03536015 0.014330253 -0.07675113 -0.16952981
0000f0 fb 49 f4 3b c4 c2 c1 3c 09 f4 f1 3d f7 ef f3 3d
       0.007455108 0.023652442 0.11814124 0.11911004
000100 ce 6d 05 be c4 76 22 bd c1 86 a3 bd 74 bb f0 3c
       -0.13030168 -0.039664045 -0.07984687 0.02938626
000110 4e 4e 03 be c2 f8 29 be 89 81 6e bb f9 54 85 3d
       -0.1282284 -0.165988 -0.0036393127 0.06510348
000120 8b 00 c9 bc 4a 8d be 3d a0 5d 6b bd 5c a5 e1 bd
       -0.024536392 0.093042925 -0.057462335 -0.11017868
000130 14 81 43 3c 23 90 aa bc 5f 72 16 3e 78 ae e5 3d
       0.01193263 -0.020820683 0.14692067 0.11214918
000140 97 0c 5f bd 37 49 06 be 4a c8 0b 3e ea b4 ea bd
       -0.054455366 -0.13113867 0.13650623 -0.11460288
000150 cf cf d4 bd 93 bf 08 bb d7 cf 91 3c da dc f9 bc
       -0.10391199 -0.002086614 0.017799301 -0.030500818
000160 44 10 83 3c 76 69 8b bd 61 a8 a6 3d 80 1e e7 3c
       0.015998967 -0.068072245 0.081375845 0.028212786
000170 92 de 70 3d 2c 0b 12 bd 01 d9 8d bd 37 4f 0d 3e
       0.05880601 -0.035655186 -0.06926156 0.1379975
000180 8c a3 e5 bd 66 5f 24 bd eb c8 25 3e 20 d9 49 be
       -0.11212835 -0.04013004 0.16189925 -0.19711733
000190 0c 08 8b bd ae ca 86 bd d8 c4 a0 3d 44 03 ec 3d
       -0.06788644 -0.06581627 0.07850045 0.1152406
0001a0 51 28 92 3c d5 30 2d bd b7 2c c7 b9 28 fa c1 3d
       0.01784149 -0.042282898 -0.00037989553 0.09471542
0001b0 0e c6 5b 3d 0f 50 18 3e 7e 43 86 bd 7a c1 a2 3c
       0.053655677 0.1487429 -0.06555842 0.019867647
0001c0 77 c9 82 3c 02 be 92 bd d8 f4 83 3d 04 11 d6 3d
       0.015965207 -0.07165147 0.064431846 0.10452464
0001d0 5e 3c 9e bd a3 20 98 bb c2 49 53 bc 95 28 a2 3d
       -0.07726358 -0.0046425625 -0.012896003 0.07917897
0001e0 8a 04 ee 3d 2f ce e7 3c fb f8 78 3d 1e 8b a9 3c
       0.116219595 0.028296558 0.06078432 0.020696219
0001f0 cf 63 2c 3d 58 b0 99 3d 0a 5a 3d bd 0f 11 2e bd
       0.042087372 0.07504338 -0.046228446 -0.042496737
000200 cd ae 36 bc cc 1c f0 3b 90 a6 0d 3e a9 8c fe 3d
       -0.011150074 0.0073276516 0.1383307 0.124291725
000210 4b d8 9e 3d 1c 4a 6f 3d 5e 30 24 be 04 ab 84 bb
       0.07756098 0.058420286 -0.16034076 -0.004048707
000220 1f 8b b6 3d 87 59 38 bd 8d dc 9b 3d 8c 62 81 3c
       0.08913254 -0.045007255 0.07610426 0.015794061
000230 1d 37 ee 3a 04 50 4a bd cc 46 af bd ec c5 c5 3c
       0.0018174384 -0.049392715 -0.08558425 0.024142228
000240 c0 44 ff bc cd 9d d1 bd 4d 70 d8 3d 0b 97 0e bd
       -0.031160712 -0.10235176 0.10568295 -0.034812015
000250 a4 ba a4 bc 5f d6 81 bc 69 33 87 bd 2f e0 e1 3d
       -0.020108528 -0.01584929 -0.066016026 0.11029088
000260 26 79 2a 3c 16 26 b0 3d bd fb 5c 3d b8 07 8a 3c
       0.010404861 0.08601014 0.053951014 0.016849384
000270 d4 31 03 bb 5b 9c a4 bc 77 aa db 3d c3 b3 26 3e
       -0.0020018714 -0.020094087 0.10725873 0.16279511
000280 80 0d 09 3e ae 36 8f 3d 43 d1 ce 3c 00 99 8f bd
       0.13384056 0.06992851 0.025246268 -0.07011604
000290 4f 48 cc bb bf 5d a1 bb d6 9c 00 bd ce ab 04 be
       -0.006234206 -0.0049245055 -0.03139957 -0.12956163
0002a0 c6 1c b6 3c 0b bf 3a be 5d e0 f1 3c 6a 04 bc 3b
       0.022230517 -0.1823694 0.02952593 0.005737831
0002b0 1e ff c0 bd ad a7 e4 bc 96 d1 4c bd 5c fc fb bc
       -0.0942366 -0.027911985 -0.050004564 -0.030759983
0002c0 47 9a f1 bd 5e 94 2d be c8 82 71 bd 0e c0 11 bd
       -0.11797004 -0.16951129 -0.058962613 -0.03558355
0002d0 29 54 01 3b bc 55 53 bc 69 69 ef bd fe f7 87 bd
       0.0019734001 -0.012898859 -0.11690027 -0.06639098
0002e0 3c 6f 60 bd ef 57 34 bd 4c a6 b8 bd b4 a7 88 3c
       -0.05479358 -0.044029173 -0.090160936 0.01668153
0002f0 c6 d5 80 3d c7 a9 ea b9 19 12 e0 bc bd bd e4 3d
       0.06290774 -0.00044758452 -0.02735238 0.11169002
000300 83 47 a1 bd ca 3d ce bd bd 26 e9 bc c4 73 84 3c
       -0.07874968 -0.10070379 -0.028460855 0.016168483
000310 78 ef ac bc d2 9a ec 3d f8 1d b0 bd d2 9c a1 3d
       -0.021110281 0.11552967 -0.08599466 0.07891239
000320 93 0e a6 bd 45 ad b0 3d 45 21 52 3d 53 16 11 3d
       -0.081082486 0.086267985 0.05130126 0.03542168
000330 b9 b6 a3 3d 04 f5 b6 3d da 70 21 3d 27 a9 3b 3e
       0.07993836 0.08933452 0.039414264 0.18326245
000340 5c c5 54 bd 94 ea 3b 3d 18 4b a8 3d 14 ce 5d 3c
       -0.05194603 0.045878008 0.08217448 0.013537902
000350 ad 97 00 bd e6 2e 3d 3d 50 17 29 bc 20 29 2f bd
       -0.03139465 0.046187304 -0.0103205 -0.04276383
000360 df 71 53 bd a9 55 b6 3c bd d4 a0 bd 59 2e 72 bd
       -0.051622268 0.022257643 -0.078530766 -0.05912623
000370 94 4e 84 bd b0 75 ae 3d c3 37 0c 3d b1 37 9a bb
       -0.064603 0.08518541 0.034232866 -0.004706346
000380 69 05 41 bc 4b a6 12 3e 83 7a 4d 3e 91 55 a3 ba
       -0.011781075 0.14321248 0.20066266 -0.0012461414
000390 f9 e5 05 3e c9 60 99 bd ca 28 00 3e be 3a 0b 3d
       0.13076009 -0.074891634 0.1251556 0.033991568
0003a0 e4 ad 03 3c 06 6d 90 3c 3b 55 55 bd bc 5a 09 be
       0.008037064 0.017630111 -0.052083235 -0.13413519
0003b0 1e 15 9c 3d 84 6e f9 3d a9 dc ed 3c d1 56 82 3d
       0.07621215 0.12179282 0.029035883 0.06364215
0003c0 9c 83 44 bc a9 dc 84 3c 1f 6f 7c 3d 0b d8 87 3e
       -0.011994269 0.0162185 0.06162941 0.26532015
0003d0 f3 db 7e 3c ca c8 9c 3d f8 6f e0 3d 11 f8 ec bd
       0.01555537 0.07655485 0.10958856 -0.115707524
0003e0 2f f3 1f 3d ef 1d 83 bd 57 2d 40 bc c9 37 41 3d
       0.039050277 -0.06402194 -0.01172956 0.04717234
0003f0 e9 aa e1 ba 6a 32 be bd 4a 4f 59 bd ad e2 13 3d
       -0.0017217073 -0.092869595 -0.05305413 0.036104847

base.mlp.fc1.0.bias f4 [256]
000000 b4 9b b3 38 1d c9 91 3b 99 6e fa 3c 96 3a b3 3a
       8.564387e-05 0.0044490234 0.030570315 0.0013674076
000010 b8 38 34 3c fd a5 bc 3c c4 b6 2a 3d 38 81 94 3c
       0.010999851 0.023028368 0.041678205 0.018128023
000020 0b 77 ba 3b 52 9b 55 bc 62 67 b6 3c 87 c6 80 bc
       0.0056904606 -0.0130375195 0.022266094 -0.015719665
000030 b5 f4 7e bd bf ba ec 3c 52 be 34 3c 37 2d 5f 3b
       -0.06224509 0.028897641 0.011031704 0.003405405
000040 88 e8 29 bc c0 96 a7 bc 28 22 db 3c 23 76 f7 bb
       -0.010370381 -0.020457625 0.026749685 -0.007551925
000050 b4 ca 5b bc 4a de 1b 3d b2 33 f5 3c 17 5b 90 3c
       -0.013415027 0.03805379 0.029931877 0.01762156
000060 79 6b 5f b9 d3 3d 82 bc e6 40 a6 3c e2 63 8e 3b
       -0.00021306974 -0.01589862 0.020294618 0.004345403
000070 b2 89 ad bb c3 ac 9a bc a1 42 bb 3b c2 01 dc bc
       -0.0052959556 -0.018881207 0.00571473 -0.026856307
000080 39 17 c8 bc 5a 7c 40 3a 5e 78 d4 3a e6 fe 28 3c
       -0.024425136 0.00073427486 0.0016210189 0.010314679
000090 ad 88 a1 bb 5c b8 4e bc bc 2e 07 bb 46 51 06 3c
       -0.004929623 -0.012617197 -0.002062722 0.008198088
0000a0 7a 22 46 3c d7 17 8f bc ac 9b e8 3c 5b 65 26 3c
       0.012093181 -0.017467422 0.028394543 0.010156001
0000b0 95 5e 5f 3c 69 76 8a 3c 49 ac 07 bd a9 6e 8d bd
       0.01363339 0.016902165 -0.03312329 -0.069058724
0000c0 1a 8e 5b bc 53 84 79 3b 51 e0 00 bc 1d 83 a0 bb
       -0.013400579 0.0038073256 -0.007865981 -0.0048984424
0000d0 e1 37 53 bc 3d cf 55 3c 6e ec 68 bc 0a 86 2d 3c
       -0.012891741 0.013049898 -0.0142165255 0.010591039
0000e0 bc 8e a7 bb 6b 37 09 3c 6e c3 0a 3d 40 6e 67 3c
       -0.005113451 0.008375029 0.033877783 0.014125407
0000f0 4f df 96 3c 6c 0f 2b ba f2 78 01 3d 5e 2f 58 bc
       0.018417029 -0.00065254304 0.031609483 -0.013194887
000100 1d 6a 51 bc 95 41 52 3b 6e 36 96 3c fc 3e 90 bc
       -0.012781647 0.0032082547 0.018336501 -0.017608158
000110 d8 1c 19 bc 7d 32 80 bc bc a0 fa 3a 88 88 00 bd
       -0.009345256 -0.015649075 0.0019121389 -0.031380206
000120 3d b6 12 bc 29 96 0c 3c 9f 43 b0 3c ef 6a 88 bd
       -0.008954582 0.008580723 0.02151662 -0.06661021
000130 7b b4 87 3c 3f fa 0e 3c 78 cf a0 bc d2 0f a2 3c
       0.016565552 0.0087266555 -0.019630179 0.019782934
000140 11 e6 4d 3d c9 9d a9 3c f2 10 ca bb 97 55 36 3d
       0.050268237 0.02070512 -0.006166571 0.04451522
000150 86 c7 4c 3d 9a 87 4d bb 01 6f 07 3d 0d 3a 0f bd
       0.049994968 -0.0031361342 0.033064846 -0.03496747
000160 87 1c e0 3a 7e 49 e9 bc 68 25 6d bc 70 05 8d 3c
       0.0017098346 -0.028477427 -0.01447425 0.017214507
000170 ae cf 36 bd 6b 8e 64 bc ae 9e a1 3c 11 e9 0d bc
       -0.044631653 -0.013949971 0.019728985 -0.008661524
000180 95 00 06 bd f1 59 e7 bc 92 0b 90 3c 42 d8 79 3c
       -0.0327154 -0.02824113 0.017583642 0.015249314
000190 04 85 64 3d b5 cf b6 3c 1a d6 64 3c ec 1f 07 3c
       0.055790916 0.02231584 0.013967061 0.008247357
0001a0 fc a1 ad bc 5b 11 9b bc 0c a2 9d 3c 34 2f ba 3c
       -0.021195404 -0.018929174 0.019242309 0.022727586
0001b0 9e df 21 3c 29 85 d4 39 f2 d0 aa 3c 4b 4e 01 bd
       0.009879975 0.00040535003 0.020851586 -0.031568807
0001c0 d9 74 f6 bc a3 a9 36 3d 7a 2d de 3c 7e cf a5 3c
       -0.030085014 0.044595372 0.027121294 0.020240542
0001d0 cc 37 2f bd 60 90 09 bb b7 f7 23 bc 94 da 21 3d
       -0.04277782 -0.0020990595 -0.01000779 0.039515093
0001e0 c4 d8 9f 3c 1b 2a 9e bb 1e 35 50 3c a6 00 ce 3c
       0.019512542 -0.0048267967 0.012707977 0.025146794
0001f0 7d 5f 69 3c 5c 91 63 bc 69 c9 59 3c 96 80 91 bc
       0.014243958 -0.013889637 0.013292649 -0.01776151
000200 15 61 21 3c 92 1a 80 bd 37 3a 1f bc c0 d0 8b 3b
       0.009849806 -0.06255068 -0.009718469 0.0042668283
000210 72 39 67 bc 65 a6 63 3c d3 f9 80 bc 10 7c f6 bb
       -0.014112817 0.013894652 -0.015744125 -0.0075221136
000220 b2 85 2d 3d 98 9b 07 3a 58 ca 82 bc 36 c3 a6 bb
       0.04236383 0.00051730266 -0.015965626 -0.005089189
000230 d8 1a 9d 3c ff 73 a9 3a 83 52 06 bb c4 ee 27 3b
       0.01917784 0.0012928246 -0.0020495958 0.0025624493
000240 c1 5d 33 3d a7 98 84 ba 3a 03 dd bc da 14 d5 3b
       0.043790583 -0.0010116295 -0.026979078 0.00650273
000250 36 0a 7b bd 78 53 c5 bb 2e 7c f6 3c cb cd 7c 3b
       -0.061289035 -0.006021913 0.03008851 0.003857481
000260 50 20 75 3d bc 16 15 3d c6 c8 8d 3b 6a 56 8e 3c
       0.05984527 0.036398634 0.0043269126 0.01737519
000270 a5 13 06 3c 55 ab 9a 3b 01 ab 13 3d 82 b9 c3 bb
       0.008183395 0.0047201314 0.036051754 -0.005973042
000280 0a 08 4c 3c 6e e9 21 bc 1e 98 a9 bb 24 42 f4 3c
       0.012453089 -0.009882314 -0.0051756045 0.029816695
000290 10 eb 05 bb c5 35 5b bc 89 fb 2b bd dd e6 d8 bc
       -0.0020434298 -0.013379519 -0.04198793 -0.026477272
0002a0 5b 54 34 3d 51 93 97 3c e5 15 df bc 64 1f 4b bb
       0.04402576 0.018502863 -0.02723212 -0.0030994052
0002b0 9c 1a 34 bd a1 64 18 3d 4d 34 c8 bb b4 b3 9a ba
       -0.04397069 0.037205342 -0.0061097504 -0.0011802823
0002c0 20 70 a5 bb a4 3d 1d 3d 01 55 ba 3a cc 3f 68 3c
       -0.0050487667 0.038388863 0.0014216007 0.014175367
0002d0 c5 c2 09 bd 6c b5 6c bc 08 d4 90 3c 07 b4 8c bc
       -0.033633012 -0.014447551 0.01767923 -0.017175687
0002e0 7a 57 16 3b 27 78 c8 3c 76 cf db bc d2 f7 34 bd
       0.0022940324 0.024471356 -0.026832324 -0.044181652
0002f0 41 4a e8 3b 49 c2 eb 3c e0 04 b4 bc 35 77 3b bb
       0.00708893 0.028779166 -0.02197498 -0.0028604988
000300 22 30 c5 bc 72 6b e2 3c 05 15 a7 bd 61 07 e2 bc
       -0.024070803 0.027639125 -0.08158306 -0.02759141
000310 64 e1 f4 3c a7 52 2e 3d 95 3b 90 bd 6d 1e d9 bb
       0.02989263 0.042559292 -0.07042614 -0.0066259415
000320 b3 2d ed bc 36 5f 15 3c 89 cc af 3c 3c e3 d9 3a
       -0.028952455 0.009116938 0.021459835 0.0016623507
000330 a6 cd 4a 3a 37 e8 a1 bc cd df 47 bc 4a 9c 41 3b
       0.00077363325 -0.019764049 -0.012199354 0.0029542618
000340 2f c2 e2 bc e3 1d 83 3d ca 2b 3f bd 0a 37 f5 3c
       -0.027680485 0.06402185 -0.04667262 0.029933471
000350 03 8d 6f 3d d4 c9 32 bc 35 f6 84 bc d0 4a d5 3a
       0.05848409 -0.010912377 -0.016230682 0.0016272906
000360 9a ba 95 bb 49 89 83 bc 2a 6b bd bb 07 fd 2c 3d
       -0.004569364 -0.016056674 -0.005780597 0.042233493
000370 be 69 f2 bc 84 da 45 3b 07 cb 4e bc e0 88 8b bd
       -0.029591437 0.003019006 -0.012621648 -0.06813216
000380 c9 5f 96 3b e7 a8 25 3d e6 6c eb bb ba 28 d1 3c
       0.004589055 0.04044428 -0.0071846126 0.025532115
000390 87 2e 8c bc 30 e7 21 bd 8c 78 02 bd 62 be d7 3c
       -0.01711203 -0.03952712 -0.031853244 0.026335899
0003a0 79 e2 9d 3c 91 86 9b bb c0 85 38 bd ca 6c ee bc
       0.01927303 -0.004746266 -0.04504943 -0.029104609
0003b0 78 97 39 3c 19 1a 4e 3d 36 fc 0a 3c af cd 80 bc
       0.011327617 0.050317857 0.008482983 -0.015723078
0003c0 5e 32 85 3c 67 cf 04 bd 30 16 0c bc d9 f1 e3 3c
       0.016259369 -0.032424357 -0.008550212 0.027825283
0003d0 a9 9b cd 3b 4a 93 94 3c 37 4b 39 ba 14 ec d6 3c
       0.0062746597 0.01813664 -0.0007068398 0.026235618
0003e0 60 21 77 bc 2b eb 01 bd 8b 6d 95 ba a7 19 97 bc
       -0.015083641 -0.031718414 -0.0011400444 -0.01844485
0003f0 90 ab c9 bb 35 4d 25 bd 8c d6 cf 3c 23 2d 40 bc
       -0.006154485 -0.040356833 0.025370859 -0.011729511

base.mlp.fc1.2.weight f4 [256]
000000 f7 2d 8e 3f f8 5a 85 3f de 52 81 3f ee d3 83 3f
       1.1107777 1.0418386 1.0103414 1.0299051
000010 46 70 83 3f ed 1f 7f 3f e6 62 84 3f 25 c6 6f 3f
       1.0268638 0.9965809 1.0342681 0.9366172
000020 c4 21 7d 3f cc bc 82 3f 71 f0 82 3f 74 4f 72 3f
       0.9887965 1.0213866 1.0229627 0.94652486
000030 28 20 7c 3f 80 56 82 3f 42 47 82 3f d7 87 71 3f
       0.98486567 1.0182648 1.0177996 0.943479
000040 db 48 77 3f 05 e6 78 3f a9 29 80 3f 7d 07 85 3f
       0.96595544 0.9722598 1.0012714 1.039291
000050 6b a4 6f 3f d5 ea 86 3f f6 80 75 3f a6 a8 75 3f
       0.93610257 1.0540415 0.95899904 0.9596046
000060 97 17 81 3f bd b4 85 3f 79 18 84 3f 4d 43 81 3f
       1.0085324 1.0445782 1.0319968 1.0098664
000070 b4 e0 6a 3f eb a6 7f 3f d7 ca 6b 3f ee 09 7f 3f
       0.9174912 0.9986407 0.92106384 0.99624527
000080 c0 5e 83 3f 0a cd 80 3f 09 81 71 3f 38 de 82 3f
       1.026329 1.0062573 0.9433752 1.0224066
000090 67 da 83 3f 96 ee 6a 3f 75 46 7e 3f 3b ad 73 3f
       1.0301026 0.91770303 0.9932626 0.95186204
0000a0 0a 71 7d 3f a2 5e 81 3f 25 4a 80 3f 61 25 7c 3f
       0.9900061 1.0107005 1.0022627 0.98494536
0000b0 71 6b 7e 3f c8 1d 81 3f bd 7e 82 3f 25 e9 82 3f
       0.9938269 1.0087214 1.0194927 1.02274
0000c0 97 91 87 3f dd ad 91 3f 75 ce 7a 3f 16 90 74 3f
       1.0591305 1.1381184 0.9797128 0.9553236
0000d0 18 a8 80 3f 78 71 84 3f 2b 0d 82 3f 24 35 7b 3f
       1.0051298 1.0347128 1.0160269 0.9812796
0000e0 9c 56 72 3f f8 29 7a 3f 47 36 76 3f 08 ed 7b 3f
       0.94663405 0.9772029 0.9617657 0.98408556
0000f0 3b 12 82 3f 54 96 87 3f b6 15 82 3f ec 43 82 3f
       1.0161813 1.0592752 1.0162876 1.0176978
000100 6e 88 80 3f 3e 91 77 3f d5 ad 7d 3f 84 6b 85 3f
       1.0041635 0.96705997 0.9909337 1.0423436
000110 61 b2 7d 3f 42 92 83 3f e8 d0 88 3f 5f e3 87 3f
       0.9910031 1.0279009 1.0688753 1.0616263
000120 f8 10 83 3f 39 17 80 3f 59 44 82 3f dc 9b 71 3f
       1.0239553 1.0007087 1.0177108 0.9437845
000130 34 d7 80 3f d1 8c 83 3f fe 71 84 3f 21 b8 75 3f
       1.0065675 1.0277349 1.0347288 0.95984083
000140 9d e7 86 3f bb 55 80 3f 98 b9 7a 3f 3f 4f 81 3f
       1.0539433 1.0026163 0.97939444 1.0102309
000150 4a 89 80 3f 84 bd 82 3f a5 0e 84 3f 31 19 86 3f
       1.0041897 1.0214086 1.0316969 1.0476438
000160 b5 81 86 3f ea 71 76 3f 72 e3 79 3f 67 05 78 3f
       1.0508333 0.9626757 0.9761268 0.96883243
000170 fd fd 7e 3f d0 81 81 3f 0d 8d 88 3f 73 c6 75 3f
       0.99606305 1.0117741 1.0668045 0.96005934
000180 c5 3e 7e 3f 65 a0 83 3f 3e 4c 7b 3f be 07 83 3f
       0.9931453 1.0283324 0.9816321 1.0236738
000190 af 7b 84 3f bd 66 7c 3f 4a aa 7e 3f 32 3a 8b 3f
       1.0350245 0.98594266 0.9947859 1.0877135
0001a0 48 ab 80 3f ff 3f 85 3f 3c 43 87 3f bd af 83 3f
       1.0052271 1.0410155 1.0567393 1.0288006
0001b0 bb 84 7c 3f 02 80 81 3f 31 53 76 3f 23 fa 83 3f
       0.9864003 1.011719 0.9622069 1.0310711
0001c0 7c a6 78 3f 7f e7 82 3f b3 a0 77 3f 09 83 79 3f
       0.97129035 1.0226897 0.9672958 0.9746557
0001d0 e1 16 6c 3f 7b e5 71 3f b9 d3 8a 3f e6 29 80 3f
       0.9222241 0.94490784 1.0845863 1.0012786
0001e0 8a 95 83 3f 0e 39 80 3f 5f 91 6b 3f 04 98 81 3f
       1.0280011 1.0017412 0.92018694 1.0124516
0001f0 99 fe 83 3f b3 d0 7c 3f 8e 76 82 3f e0 47 84 3f
       1.0312072 0.9875595 1.019243 1.0334435
000200 27 b1 7e 3f eb 55 7b 3f b9 89 6e 3f e9 79 85 3f
       0.99489063 0.98177975 0.931789 1.0427829
000210 32 84 73 3f 46 0c 84 3f 20 6a 6c 3f 2d c4 82 3f
       0.9512359 1.0316246 0.92349434 1.0216118
000220 a6 e6 8f 3f e9 d1 84 3f 93 79 77 3f 1c d2 79 3f
       1.1242263 1.037656 0.9666988 0.97586226
000230 8e f6 80 3f d7 49 74 3f c3 ad 83 3f 53 75 7d 3f
       1.0075243 0.9542517 1.0287403 0.9900715
000240 6c f9 83 3f 0d 0c 80 3f 3b 64 74 3f bc 4e 77 3f
       1.0310493 1.0003678 0.9546544 0.96604514
000250 a4 cb 65 3f 3a 06 7d 3f 34 e2 7c 3f e8 bc 83 3f
       0.89763856 0.98837626 0.9878266 1.0292025
000260 ed b3 79 3f c0 b7 8a 3f 7d 33 86 3f 77 db 7e 3f
       0.9754017 1.0837326 1.0484463 0.99553627
000270 58 2d 82 3f 47 b2 7a 3f 24 98 7f 3f b8 db 7a 3f
       1.0170088 0.9792828 0.99841523 0.97991514
000280 07 b8 87 3f a3 27 82 3f 7c 8a 78 3f 35 a2 82 3f
       1.0603036 1.0168346 0.9708631 1.0205752
000290 b6 9e 7d 3f 1a bc 7e 3f 3f 3e 7c 3f d5 98 75 3f
       0.990703 0.9950577 0.9853248 0.9593633
0002a0 ac d2 85 3f fa 5c 7a 3f 79 6a 85 3f 03 f8 88 3f
       1.0454917 0.9779812 1.0423118 1.0700687
0002b0 70 2e 72 3f c9 4b 81 3f ea 70 74 3f 86 e3 80 3f
       0.9460211 1.0101253 0.95484793 1.0069435
0002c0 18 d1 80 3f 11 97 83 3f f9 78 82 3f 58 00 81 3f
       1.006381 1.0280477 1.0193168 1.007823
0002d0 53 6c 84 3f 22 2a 7c 3f 4a b2 82 3f 11 e7 6e 3f
       1.0345558 0.9850179 1.021066 0.9332133
0002e0 ea af 86 3f 37 df 6d 3f eb 39 7d 3f 9b 9e 81 3f
       1.0522435 0.92918724 0.989165 1.0126528
0002f0 f9 46 78 3f 91 01 83 3f 10 57 67 3f c9 c1 76 3f
       0.96983296 1.0234853 0.9036722 0.9638944
000300 e8 b6 76 3f e4 5b 84 3f 76 80 6e 3f 43 b1 82 3f
       0.9637284 1.0340543 0.93164766 1.0210346
000310 df 11 8a 3f 70 2b 7c 3f 31 0c 74 3f a6 24 81 3f
       1.0786704 0.9850378 0.953311 1.0089309
000320 ec 6b 7f 3f 9f c8 88 3f 6c 4a 84 3f 2e 39 72 3f
       0.9977405 1.0686225 1.0335212 0.946185
000330 8d 2a 80 3f c0 73 7f 3f 2d 59 6e 3f 68 c3 7d 3f
       1.0012985 0.99785995 0.9310482 0.9912629
000340 f3 02 85 3f 61 26 81 3f 69 98 77 3f cf 86 86 3f
       1.0391525 1.0089837 0.96716934 1.050989
000350 7f 30 87 3f 6a be 6f 3f 14 21 7e 3f 91 8b 7a 3f
       1.0561675 0.93649924 0.99269223 0.9786921
000360 90 27 72 3f 54 29 7c 3f 60 69 84 3f 6f d9 8c 3f
       0.9459162 0.9850056 1.0344658 1.1003855
000370 61 54 79 3f 3e d7 81 3f 6b 63 82 3f 5b ad 62 3f
       0.97394377 1.0143812 1.018659 0.8854577
000380 9f 0c 77 3f d8 2c 86 3f 90 8a 7e 3f 6e 92 81 3f
       0.96503633 1.0482435 0.9943018 1.0122812
000390 95 60 83 3f 3d 6c 77 3f 82 ef 79 3f 71 ac 7e 3f
       1.026385 0.96649534 0.97631085 0.99481875
0003a0 23 5c 84 3f 80 9b 85 3f bf 5a 68 3f 75 59 82 3f
       1.0340618 1.043808 0.9076347 1.018355
0003b0 e1 5a 7f 3f 46 cc 8a 3f 91 d5 7d 3f 11 35 83 3f
       0.99748045 1.0843589 0.99154 1.025057
0003c0 69 01 74 3f 27 c2 84 3f 7c 42 81 3f bd 35 80 3f
       0.9531465 1.037175 1.0098414 1.00164
0003d0 15 9d 7d 3f 55 db 84 3f 31 46 87 3f 89 b4 86 3f
       0.99067813 1.0379435 1.0568296 1.0523845
0003e0 34 cf 79 3f 59 cb 81 3f f7 1e 88 3f c7 8f 6e 3f
       0.9758179 1.0140182 1.063445 0.93188137
0003f0 4b 89 85 3f 55 bd 7e 3f 39 88 8a 3f ee 9b 84 3f
       1.0432523 0.9950765 1.0822822 1.0360086

base.mlp.fc1.2.bias f4 [256]
000000 9f 78 96 bc 72 f0 2a 3b 01 0b 2e 3c 57 20 2a 3c
       -0.018368063 0.0026083258 0.010622741 0.010383687
000010 f8 c1 0b bc fd df 1f 3d 7e 07 9c 3c 31 8a 03 3c
       -0.0085301325 0.03903197 0.019046541 0.008028553
000020 2a bf ef b8 b7 5a 45 bc c5 f9 e2 3c 1d b7 f9 bb
       -0.00011432015 -0.012045554 0.02770699 -0.0076207058
000030 3f 18 b3 3c 90 f3 4f bc 07 1d c4 bc 44 bd b6 3c
       0.021862147 -0.012692347 -0.023939623 0.022307046
000040 86 3f 4e 3d 72 a0 0c 3d 3a 25 bd 3c 72 c2 b6 bb
       0.05035355 0.0343327 0.02308904 -0.005577379
000050 9b 00 ea 3c e5 f7 39 3c 2d 64 38 3d df fe 23 3d
       0.028564742 0.011350607 0.04501741 0.040037986
000060 41 3a 96 3c 22 00 95 bb 2e 61 09 3d d7 c1 df 3b
       0.018338325 -0.004547135 0.033539943 0.0068285274
000070 0d 65 3f 3d 93 a9 d2 bc e4 f1 1c 3c 23 3d f2 bb
       0.04672723 -0.025715625 0.009579156 -0.007392542
000080 cc c0 2e 3d 45 2d d1 bb e2 b4 80 3c a5 76 87 3c
       0.042664334 -0.0063835704 0.015711252 0.016536066
000090 8a 2b bf bc 5e 15 d0 3c af 4b d8 3c d9 82 0f 3b
       -0.02333619 0.025400814 0.026403276 0.002189806
0000a0 8f 75 64 bc a2 80 02 3d d9 f5 26 3b a1 7e 3e bb
       -0.013944044 0.031860955 0.0025476126 -0.0029067176
0000b0 5a 06 3e 3c 61 f6 eb 3c e4 c7 eb 39 5b 34 b5 bc
       0.011598194 0.028804006 0.00044971623 -0.022119692
0000c0 74 1f 9c bc f3 03 f2 3b 94 4b a7 3c bf 84 97 3c
       -0.019057967 0.0073857247 0.02042178 0.018495915
0000d0 a2 c7 f9 38 17 28 d2 3a 2c ac a2 bc 73 e2 16 bc
       0.0001191043 0.0016033676 -0.019857489 -0.009209263
0000e0 bd 2c b1 3c c7 8a 16 3d 74 b5 17 3d da a9 41 bc
       0.021627778 0.036753442 0.03703828 -0.011820281
0000f0 6e 8f 17 3b 63 0b eb bb db fd b4 3c f1 01 f5 3b
       0.0023126262 -0.0071729883 0.022093704 0.007477038
000100 d4 93 b1 bc ff 82 f3 3a 55 b8 88 bb b2 5d 09 bc
       -0.021676935 0.0018578469 -0.0041723647 -0.008384155
000110 a3 b9 c8 3a d5 8e 8f bc 2c 59 8c ba 30 15 27 bd
       0.0015314113 -0.017524162 -0.0010707728 -0.04079169
000120 54 d8 cc bc 71 c8 26 3c 45 35 2f 3b a0 f2 e1 3a
       -0.025005497 0.010179625 0.0026734632 0.0017238446
000130 f4 31 a4 3c e9 c7 40 bc a8 bf f2 bc f3 58 cc 3c
       0.02004335 -0.011766412 -0.029632404 0.024944758
000140 25 32 35 3c d7 0b b4 3c 53 d9 45 bc 02 78 d3 3c
       0.011059319 0.021978302 -0.01207574 0.02581406
000150 f1 96 00 3c cd 26 b0 bb 12 b8 ee 3a c9 2c 5c bc
       0.007848487 -0.005375719 0.0018212816 -0.013438412
000160 d9 4d 27 bc a7 02 49 3d 3d 8f 0e 3c dc c9 49 3a
       -0.010211431 0.049074795 0.008701143 0.0007697621
000170 c6 2a 87 bd 02 9e 8e 3c 9b 22 cc 3b dd 1d a0 bb
       -0.06599955 0.017409328 0.006229711 -0.0048863725
000180 9e df 39 bd 4d c9 18 bc 8a 94 15 3c 29 dd 33 3c
       -0.045379274 -0.009325338 0.009129653 0.010978022
000190 1d 73 07 3d f3 1b 9d 3c 66 a8 10 3c 49 a0 71 bc
       0.033068765 0.019178366 0.008829212 -0.014747688
0001a0 82 db fe bc 0c d2 ba bb 36 a1 a9 bb bc 0f a1 3b
       -0.031110529 -0.005701309 -0.0051766885 0.0049152058
0001b0 a7 55 32 3d 78 3b 30 bd df c9 4c 3c f6 00 e5 bc
       0.043538716 -0.043025464 0.012499302 -0.02795456
0001c0 44 b4 c9 3a 9a a5 86 3c 4a 40 bd b8 73 71 0b 3c
       0.0015388806 0.016436387 -9.024197e-05 0.008510935
0001d0 68 49 7d 3d 50 67 7a 3b 03 b3 f4 bc 22 6e 24 bc
       0.061837584 0.0038208552 -0.029870516 -0.010036023
0001e0 f0 98 62 3c be 0a 62 bc f7 0e 7f 3c cc 07 ea 3c
       0.013830408 -0.013796506 0.015567533 0.028568171
0001f0 6f 1d ba bb 8e e3 90 3c 21 d5 26 3d c8 3b d7 bc
       -0.0056797783 0.017686632 0.0407306 -0.026273623
000200 3c 73 1a bc 2e fd 16 bd 8b 01 4c 3d f9 20 d3 bc
       -0.009426888 -0.036862545 0.04980616 -0.025772559
000210 75 17 04 3d 05 c9 0a 3c 03 d4 6d 3d 55 58 2e bc
       0.032248933 0.008470778 0.05806352 -0.010641177
000220 01 0e 9f 3c 20 1f 02 bd b8 53 5c bc 3f d5 05 3c
       0.019415857 -0.031767964 -0.0134476945 0.008168518
000230 0c 0f 85 3c 67 d6 81 3c 6e cf af bb 58 23 1c bc
       0.016242526 0.015849305 -0.0053653037 -0.009529911
000240 35 4a 22 3d 1f a1 ce bc bb 99 09 3d 7e 0d 41 3c
       0.03962155 -0.025223313 0.033593874 0.011783002
000250 1e 86 44 bc 51 c7 a3 bc d7 b5 bc 3b 63 f5 34 bd
       -0.011994867 -0.019992502 0.0057589817 -0.04417933
000260 c6 05 95 3c 94 53 bd 3b 95 d5 3a 3c 94 8b af 3c
       0.01819123 0.0057777856 0.011403461 0.02142886
000270 a4 b4 ac bc 0c 07 cd 3c ba 82 05 3d c1 16 9f 3c
       -0.02108223 0.025027774 0.032595374 0.01942003
000280 c5 b8 a3 bc 14 45 0b 3d 18 b7 c5 3a 18 a9 a7 3c
       -0.019985566 0.034001425 0.0015084473 0.020466372
000290 fa 32 f3 bb a7 77 44 3d 32 21 3f bc bc 7c 42 bd
       -0.0074218484 0.047965672 -0.011665629 -0.047482237
0002a0 a1 46 b0 3c f6 21 e7 3c b0 a1 f6 bc 77 fd c1 bc
       0.021518053 0.028214436 -0.030106395 -0.023680432
0002b0 82 4b 93 3c a2 46 d6 3c 09 cb 22 3c a0 fd 33 3b
       0.01798034 0.026156727 0.009936103 0.0027464405
0002c0 f7 2f 31 bc e2 a6 f7 bb ca bc b5 bc ce e3 4c 3c
       -0.010814658 -0.007557736 -0.022184748 0.012505485
0002d0 70 b6 e4 bc e3 1a e4 3c 64 61 4b ba 26 ad de 3c
       -0.027919024 0.027844852 -0.0007758348 0.027182173
0002e0 1f 89 1b 3c 78 af 87 3a 3c a9 27 3c 6a 76 09 bd
       0.009493141 0.0010351976 0.01023322 -0.033560194
0002f0 de 28 ed 3c 15 e8 fd 3c f1 9e 56 3c 04 b4 84 3c
       0.028950151 0.030994454 0.013099418 0.01619912
000300 9d 0b c2 3c 86 9c 41 bc 36 a7 3e 3d 5d 24 f7 bc
       0.023687178 -0.011817103 0.046546184 -0.030168707
000310 f9 d5 86 bc 71 e5 43 3d 78 0a 12 3c 16 b0 5f 3d
       -0.016459452 0.047826234 0.008913629 0.054611288
000320 42 40 77 bc 17 e9 dd bc 5f 4b 1e 3d d5 f0 36 3d
       -0.015091004 -0.027088685 0.0386461 0.04466327
000330 d7 5c 98 3c 63 43 9c bb 7a 2b a9 3c 72 68 9c bc
       0.018598957 -0.0047687753 0.020650614 -0.019092772
000340 9f 91 43 bd 8d 66 ea 3c 14 fb 77 3d 78 b0 c8 3c
       -0.047746297 0.028613353 0.06054218 0.02449821
000350 38 8e 50 3c 6b ad e1 3c b5 0a 9f bb 45 d5 1b 3d
       0.01272922 0.027548512 -0.0048535713 0.038045187
000360 d7 91 31 3d 63 fe 0d 3c 30 54 33 3c 6c 0e af 3c
       0.043351974 0.008666608 0.010945365 0.021369182
000370 6b 43 43 bc 1a d5 45 3c bd 6c 42 3c 50 98 5e 3d
       -0.011917929 0.012074733 0.011866746 0.054344475
000380 3b 9b 24 3d c4 b9 02 3d ad a0 ed bc 75 73 5b ba
       0.0401871 0.03191544 -0.02900728 -0.00083713915
000390 fd 6b 16 bd ac b2 a7 3c 4d 4e 82 bc 7e c8 a4 3c
       -0.03672408 0.02047094 -0.015906477 0.020115133
0003a0 ac b3 ab 3c 44 e7 14 bd ce ce 44 3d 87 cc 08 bd
       0.020959698 -0.036353365 0.048048787 -0.033398177
0003b0 20 4e a1 bc 29 ac 31 3c 69 c4 02 3c c2 a5 b0 3c
       -0.019690573 0.010844269 0.007981398 0.021563414
0003c0 47 92 30 bb bc 0e a9 bc 7f 28 05 3c 02 d1 1c 3c
       -0.0026942657 -0.020636909 0.008127331 0.009571316
0003d0 3b b4 2b bd 6d 32 d1 3b b5 a1 fb bc 1a 7c c4 bc
       -0.041919928 0.006384185 -0.030716756 -0.023984957
0003e0 99 9b 75 bc ca bb 52 bd 15 da c3 bc a3 e9 f9 3c
       -0.014990711 -0.05144862 -0.0239077 0.030506914
0003f0 6a b2 a1 bb 86 73 5e bb 70 0a cd bc 21 6b 87 bd
       -0.0049345987 -0.003394337 -0.025029391 -0.0661223

base.mlp.fc2.0.0.weight f4 [256, 256]
000000 6a 09 25 be cb 58 d3 3d 89 e2 51 be 70 02 dd bd
       -0.16116872 0.1031967 -0.20496573 -0.107914805
000010 08 80 c0 bc e2 56 5e bc 88 3b 01 3e 1f 4a 21 3d
       -0.02349855 -0.013570519 0.12620366 0.039377328
000020 dc 0e 8b 3d 39 32 df bd 46 d8 d4 3d 79 4a 79 bd
       0.067899436 -0.10898251 0.103928134 -0.06086204
000030 fa 3d 00 be 54 5a 28 bd 6a cf 1c be a5 a7 aa 3c
       -0.12523642 -0.04110177 -0.15313497 0.020831892
000040 e5 38 25 bc cf 80 bd bd d1 7c 7d 3d 36 f9 f0 bd
       -0.0100843655 -0.09253084 0.061886612 -0.11766283
000050 7c bc 35 be 31 a8 0a 3d 76 78 48 3c 90 12 32 bd
       -0.17747682 0.033851806 0.012235751 -0.043474734
000060 b5 8e 07 be 1c cb fb bd 94 f6 fa 3d 19 fa f4 bc
       -0.13238032 -0.122945994 0.12254062 -0.029904412
000070 bc d4 b8 39 78 3b 90 be 60 83 92 bd 43 ef f1 bd
       0.00035253714 -0.2817037 -0.07153964 -0.11813214
000080 5d 33 af 3a af 00 3f 3d dc 2f bb 3d 31 46 d9 3d
       0.0013366748 0.04663151 0.09139988 0.10609091
000090 93 e4 73 bd 2f 07 93 3d cd 3a 64 bd f5 2b a4 bd
       -0.059544157 0.071791045 -0.05572014 -0.08016197
0000a0 9f 80 81 bd e9 4d 92 bd 57 8d 8a bd 5f de 22 bd
       -0.06323361 -0.071437664 -0.0676524 -0.03976285
0000b0 6f 43 bb 3d b5 53 62 3e ba 1e d3 bd 62 bb d5 3c
       0.09143721 0.22102244 -0.10308595 0.026090328
0000c0 33 bb 96 3d 11 b4 bf bd 35 fc 21 3d 0f 5e 0b bd
       0.07359924 -0.09360517 0.039547164 -0.03402525
0000d0 06 86 f2 3c e8 60 39 bd a3 54 91 bd f4 16 11 be
       0.029604923 -0.045258433 -0.07096221 -0.14168912
0000e0 63 40 58 bd dc d1 1d 3c 46 e4 f6 3d 3e d5 95 3c
       -0.05279578 0.009632554 0.120552585 0.018290158
0000f0 d3 8c 0d bb 90 f6 88 bd 71 0e 80 bb a5 62 4e 3d
       -0.002159883 -0.06687653 -0.0039079715 0.050387044
000100 a7 b0 f8 bb 42 2b 02 3e 29 c0 07 3e f4 c7 e7 bd
       -0.007589418 0.12711814 0.13256897 -0.11317435
000110 fd d6 90 bc 8a e8 6f bd c7 55 03 be bc b8 0f bd
       -0.01768064 -0.058571376 -0.1282569 -0.035088286
000120 a5 86 55 be bb 56 36 3e d4 ce 7c 3d 5f 90 ce 3b
       -0.20852144 0.17806523 0.061720684 0.0063038315
000130 15 1e 41 bd f4 1b b1 bd 39 ef a5 bc 75 e5 a3 3d
       -0.04714783 -0.0864791 -0.020255672 0.0800275
000140 80 ef 29 3c 33 1c 22 3e fd f2 e9 3d 23 cc 49 bd
       0.010372043 0.1583107 0.114232995 -0.049266946
000150 f1 53 10 be 18 9f ec bd 0d 48 9d bd af 2f c0 bc
       -0.14094521 -0.11553782 -0.07679758 -0.023460237
000160 37 6a 78 3c 40 9c 95 3d a5 08 a9 3d a2 c2 5e bd
       0.015162042 0.07305193 0.08253602 -0.054384835
000170 51 23 3b 3d 34 4f 24 be 07 99 aa 3d f0 05 cc bd
       0.045687977 -0.16045839 0.08329969 -0.0996207
000180 aa 72 6c 3d 0d 6e 02 3d 33 55 d1 bd 2d ee 83 bd
       0.05772654 0.031843234 -0.102213286 -0.06441913
000190 4f 65 7d bd 43 d2 f7 3d 00 a8 76 3d c0 59 76 3c
       -0.061864194 0.12100651 0.06021881 0.0150360465
0001a0 a0 3c b7 bd 69 b3 8a 3d 15 48 4f 3b 92 aa 33 3d
       -0.0894711 0.06772501 0.0031628658 0.04386384
0001b0 53 71 fa 3d 49 43 43 bd 7f 74 8a bc eb 6e e6 3d
       0.12228646 -0.04767159 -0.016901253 0.11251625
0001c0 20 6e 3a be 97 27 bf 3d c4 d3 d6 3d 03 2c 75 3d
       -0.18206072 0.09333723 0.1048961 0.059856426
0001d0 f5 34 09 3d 47 82 b4 bd a3 6b eb bd aa d4 ed bc
       0.03349777 -0.08813911 -0.114951394 -0.02903207
0001e0 a7 8e 07 3e 82 eb b3 3d 88 99 02 bd 12 99 33 be
       0.13238011 0.08785154 -0.0318847 -0.1753886
0001f0 6d 0d f5 bd c5 ad 9a 3d e4 51 0f 3d 4a c6 80 bd
       -0.119654514 0.07552675 0.034990206 -0.06287821
000200 7a 04 a7 3c 49 d3 e5 3d cc 2f 1d 3c 5c dc e2 bc
       0.020387877 0.1122194 0.009593915 -0.027692966
000210 65 80 7c 3d fa bc 49 be 81 dd ea bc 5b 2b 5f bd
       0.061645884 -0.19700995 -0.028670074 -0.054484706
000220 2f 3d 13 3e a9 8d 03 be af 61 2a 3e 38 4f a4 bd
       0.14378808 -0.12847008 0.16638826 -0.08022922
000230 30 5f 17 be 1e 92 1a bd 1e 63 7f bd 9f fc ef 3c
       -0.14782405 -0.037737004 -0.062350385 0.029295264
000240 ba 6f 6c 3d b3 26 14 bd 7c e7 08 bd 02 80 17 3d
       0.05772374 -0.03616972 -0.033423886 0.036987312
000250 18 56 38 3d b6 4d 42 3e 62 12 95 bd 71 45 28 3d
       0.04500398 0.18974957 -0.07278897 0.04108185
000260 15 ff 84 bd a3 b3 be 3d 3f 03 dd 3d c9 17 8a bd
       -0.064939655 0.09311607 0.10791635 -0.06742818
000270 a5 15 d0 bd c5 fe cf 3c a9 b0 bc 3d 90 3b a7 3b
       -0.10160378 0.025390038 0.09213383 0.005103536
000280 6b 3f 08 be b1 5e 09 be da 51 93 3b 25 ef 99 bd
       -0.13305442 -0.13415028 0.0044958415 -0.07516316
000290 99 a7 1f bc 77 99 d6 bd 69 9b 5c be 16 91 b0 bd
       -0.009744548 -0.1047849 -0.2154366 -0.08621423
0002a0 cf 59 2d bd 3e 41 13 be c3 2a 7d bc 5f d7 c8 bd
       -0.042321976 -0.14380357 -0.01545209 -0.09806704
0002b0 ec 3a 72 bc 2c b6 5d 3d ab 3a 27 bd aa a2 28 3c
       -0.014784556 0.05412881 -0.040827435 0.010292688
0002c0 d3 d1 12 3d 1d 09 97 bd 55 d0 c8 bd 73 0b 76 3c
       0.035844635 -0.07374785 -0.09805361 0.015017378
0002d0 86 31 74 3d 56 54 2e be 23 2d d2 3d 65 ac 13 3e
       0.05961754 -0.17024359 0.102625154 0.14421232
0002e0 6e 54 d6 bd 87 c2 ef 3b 97 c1 26 bd e8 dc 6d 3c
       -0.104653224 0.0073168906 -0.040711965 0.014518
0002f0 7f ed 73 be f3 07 17 bc d8 00 0d be dc 41 b6 bc
       -0.23821066 -0.009218204 -0.13769853 -0.022248201
000300 e9 ee 97 bd fa a3 1c 3e be da c5 bd ff 3b 23 3d
       -0.07418615 0.15296927 -0.096608624 0.03985214
000310 76 86 3f be 96 1c 0f bd 2b 25 e0 bd c1 92 87 be
       -0.18703637 -0.03493937 -0.10944589 -0.26479152
000320 86 19 5f bd 19 e4 1e be b6 3a e8 3d 33 10 80 bd
       -0.0544677 -0.155167 0.11339323 -0.0625309
000330 2f 8a 16 3e c1 b0 f1 3d 5b 63 8c 3d 63 93 c6 bc
       0.1470115 0.11801291 0.06854888 -0.024240201
000340 81 f4 c3 bd 95 f4 d4 3d 8f 93 11 3c c9 a0 0b bd
       -0.0956812 0.10398213 0.008885278 -0.034088884
000350 03 20 a7 3d a9 8a 07 3d 1c 12 59 be 4d 1b ae 3c
       0.081604026 0.03309122 -0.21198314 0.021253252
000360 07 84 08 3e 18 18 43 bc ac 4a 7d 3e 10 4e 6c 3e
       0.13331614 -0.0119076 0.24735516 0.23076653
000370 25 41 06 3e 56 bd 0f 3e e8 a1 b3 bd 0a 2e 81 3d
       0.13110788 0.1403707 -0.087711155 0.063076094
000380 a0 95 20 3d d5 03 da 3b 5d c7 fd 3c e1 a8 04 3d
       0.039205194 0.006653289 0.030978853 0.032387618
000390 70 da d3 bd 71 62 6a bd 55 d0 84 bd f3 f5 3d bd
       -0.10344398 -0.057222787 -0.06485049 -0.046377134
0003a0 1b 4f 74 3d 0b cc a3 bc 87 4a 17 3d 90 b5 b0 bb
       0.059645753 -0.019994756 0.03693631 -0.0053927377
0003b0 16 d8 38 3d 7b 9c 5e bd 75 dc 98 bd c4 53 39 3a
       0.04512795 -0.05434845 -0.07463924 0.0007069672
0003c0 a0 9d 4e 3e ce 59 08 3e 34 dd b1 3d 60 55 da 3c
       0.20177317 0.13315508 0.08684769 0.026652038
0003d0 25 cf 05 be fa 43 5c 3c fa 2a 40 be 52 a4 9d bb
       -0.130673 0.013443941 -0.18766394 -0.0048108483
0003e0 19 67 57 3d c7 45 d8 bd f6 c9 51 3c 14 58 c4 3c
       0.052588556 -0.10560184 0.012804499 0.02396778
0003f0 c6 ea f0 3d f8 27 56 be d8 f4 87 be 1c da 99 be
       0.117635295 -0.20913684 -0.26553988 -0.30049217
