models/actor_good64_1.pt (torch, 139682 bytes, 12 tensors)

base.feature_norm.weight f4 [420]
0	0x3fae464d	1.3615204
1	0x3f9ff005	1.2495123
2	0x3f9aafd6	1.2084911
3	0x3fa7803c	1.3086009
4	0x3f857bee	1.0428445
5	0x3f44a29a	0.7681061
6	0x3f7eaf77	0.9948649
7	0x3f57c045	0.84277755
8	0x3f573b03	0.8407442
9	0x3f698fb6	0.9123491
10	0x3f802bd1	1.0013372
11	0x3f6f8113	0.93556327
12	0x3f6e5d19	0.93110806
13	0x3f795539	0.97395664
14	0x3f82582c	1.0183158
15	0x3f86aa5f	1.0520743
16	0x3f6a3a02	0.9149476
17	0x3f772f56	0.96556604
18	0x3f832fc7	1.0248955
19	0x3f5b21af	0.8559827
20	0x3f6b2095	0.9184659
21	0x3f7b3617	0.9812941
22	0x3f6cec3f	0.9254798
23	0x3f5c45b1	0.8604384
24	0x3f4cb73d	0.799671
25	0x3f6ff761	0.93736845
26	0x3f8283cb	1.019647
27	0x3f821d5a	1.0165207
28	0x3f85e160	1.0459404
29	0x3f822723	1.0168194
30	0x3f6ac9e0	0.91714287
31	0x3f651cb4	0.8949692
32	0x3f8854b5	1.065085
33	0x3f789eda	0.9711739
34	0x3f7a2b25	0.97722083
35	0x3f828c63	1.0199093
36	0x3f7213e5	0.94561607
37	0x3f832e07	1.0248421
38	0x3f439d0f	0.7641153
39	0x3f4d6312	0.80229294
40	0x3f8378cb	1.0271238
41	0x3f52531d	0.8215807
42	0x3f53c82b	0.8272731
43	0x3f7a98e9	0.9788957
44	0x3f5666ba	0.837505
45	0x3f8673e9	1.0504123
46	0x3f76b53a	0.9637028
47	0x3f6e383c	0.93054557
48	0x3f8bbe21	1.0917398
49	0x3f816436	1.0108707
50	0x3f7b6598	0.98201895
51	0x3f6d070e	0.9258889
52	0x3f80b8b2	1.0056365
53	0x3f6a8d0a	0.9162146
54	0x3f4ebbfc	0.8075559
55	0x3f754272	0.9580451
56	0x3f470580	0.7774277
57	0x3f66081b	0.8985612
58	0x3f7b31b9	0.98122746
59	0x3f6a6ba2	0.91570485
60	0x3f8d33f7	1.1031483
61	0x3f386687	0.72031444
62	0x3f9191e6	1.137265
63	0x3f766d5b	0.96260613
64	0x3f84f772	1.0388014
65	0x3f679213	0.90457267
66	0x3f502b7d	0.8131636
67	0x3f68d499	0.909494
68	0x3f6deb04	0.9293673
69	0x3f70d03c	0.9406774
70	0x3f82a7ac	1.0207419
71	0x3f8078ee	1.0036905
72	0x3f4c8731	0.79893786
73	0x3f8ba05a	1.090831
74	0x3f8924b7	1.071433
75	0x3f86a4f6	1.0519092
76	0x3f89f567	1.0778016
77	0x3f774ffa	0.9660641
78	0x3f980567	1.1876649
79	0x3f7dda67	0.9916138
80	0x3f68427b	0.9072644
81	0x3f6c0387	0.9219288
82	0x3f6830ff	0.9069976
83	0x3f6b5a52	0.9193469
84	0x3f44cb36	0.76872575
85	0x3f82b3c2	1.0211108
86	0x3f90d255	1.1314188
87	0x3f86cbc6	1.0530937
88	0x3f574402	0.84088147
89	0x3f746364	0.9546416
90	0x3f5dbc4d	0.8661545
91	0x3f68afcb	0.9089324
92	0x3f443aeb	0.766524
93	0x3f83fd3d	1.0311657
94	0x3f788d7d	0.97090894
95	0x3f89c01e	1.0761755
96	0x3f8bea30	1.0930843
97	0x3f7b66a9	0.9820352
98	0x3f818046	1.0117271
99	0x3f88d408	1.0689707
100	0x3f797cd2	0.97456086
101	0x3f7d6cca	0.98994124
102	0x3f683e80	0.9072037
103	0x3f958525	1.1681257
104	0x3f729cd1	0.9477053
105	0x3f6c26ce	0.9224671
106	0x3f70960c	0.93978953
107	0x3f7d71bf	0.9900169
108	0x3f7556fa	0.9583584
109	0x3f622aa6	0.88346326
110	0x3f5cdc09	0.86273247
111	0x3f8b2456	1.0870464
112	0x3f5bd7b8	0.85876036
113	0x3f6b9a51	0.92032343
114	0x3f62e3f0	0.88629055
115	0x3f835e8e	1.0263231
116	0x3f819218	1.0122709
117	0x3f6aa747	0.91661495
118	0x3f73baa1	0.9520665
119	0x3f73910c	0.951432
120	0x3f82f8dc	1.0232196
121	0x3f8059aa	1.0027363
122	0x3f7d3623	0.9891073
123	0x3f59fe11	0.851533
124	0x3f42e649	0.7613264
125	0x3f88c865	1.0686156
126	0x3f91721e	1.1362951
127	0x3f87fdaa	1.0624287
128	0x3f7898e6	0.97108305
129	0x3f54e8c7	0.8316769
130	0x3f71d20f	0.9446115
131	0x3f779f37	0.9672732
132	0x3f7f18ab	0.99647015
133	0x3f63b7ab	0.8895213
134	0x3f829604	1.0202031
135	0x3f5e244d	0.8677414
136	0x3f6ac0fe	0.9170073
137	0x3f6aeddc	0.91769195
138	0x3f85f6f2	1.0465987
139	0x3f5e12c7	0.867474
140	0x3f4f56ca	0.80991805
141	0x3f6e0209	0.92971855
142	0x3f716683	0.94297045
143	0x3f8a515f	1.0806082
144	0x3f80cde5	1.0062834
145	0x3f72f470	0.9490423
146	0x3f3c2023	0.73486537
147	0x3f82c978	1.0217733
148	0x3f702da6	0.93819654
149	0x3f9ac811	1.2092305
150	0x3f3acf72	0.72972786
151	0x3f34e265	0.7065795
152	0x3f7a5574	0.9778664
153	0x3f802ada	1.0013077
154	0x3f5a38fb	0.85243195
155	0x3f7c47d3	0.98547095
156	0x3f8d755a	1.1051438
157	0x3f8d882b	1.105718
158	0x3f9e5509	1.2369701
159	0x3f8f59a9	1.1199237
160	0x3f85ba74	1.0447526
161	0x3f8efcb6	1.1170871
162	0x3f8d4887	1.1037759
163	0x3f855a53	1.041819
164	0x3f91753a	1.13639
165	0x3f7210c6	0.94556844
166	0x3f7d255f	0.9888515
167	0x3f970e3f	1.1801223
168	0x3f8260c9	1.0185786
169	0x3f930343	1.148537
170	0x3f8f051c	1.1173434
171	0x3f687af3	0.90812606
172	0x3f58f9fd	0.8475645
173	0x3f5c7dfa	0.86129725
174	0x3f6649eb	0.8995654
175	0x3f53ef32	0.8278686
176	0x3f85ce5a	1.0453598
177	0x3f906bae	1.1282861
178	0x3f6293a0	0.8850651
179	0x3f606ca6	0.87665784
180	0x3f7db300	0.9910126
181	0x3f8fc166	1.1230896
182	0x3f776d20	0.96650887
183	0x3f8a5373	1.0806717
184	0x3f8d50a9	1.104024
185	0x3f8d5d22	1.1044047
186	0x3f7272e2	0.9470655
187	0x3f6fc28e	0.9365624
188	0x3f6f4098	0.9345794
189	0x3f9964f5	1.1983935
190	0x3f799345	0.9749034
191	0x3f5894c7	0.84602016
192	0x3f70b6bd	0.94028836
193	0x3f659ebd	0.8969534
194	0x3f6cc631	0.92489916
195	0x3f55339f	0.8328189
196	0x3f5cdeca	0.8627745
197	0x3f796f0e	0.9743508
198	0x3f8dcf3b	1.1078867
199	0x3f7a5118	0.9777999
200	0x3f6c7c7c	0.9237745
201	0x3f79133e	0.97294986
202	0x3f567c95	0.8378385
203	0x3f66fddd	0.90231115
204	0x3f88dbd1	1.0692083
205	0x3f74e4bc	0.9566152
206	0x3f4cd237	0.8000826
207	0x3f4e32ea	0.8054644
208	0x3f66ffc5	0.90234023
209	0x3f60e200	0.8784485
210	0x3f85de0e	1.0458391
211	0x3f7fd910	0.99940586
212	0x3f5f7628	0.8728967
213	0x3f88bc9c	1.0682559
214	0x3f8729b0	1.0559597
215	0x3f827a5c	1.0193591
216	0x3f6af5b7	0.9178118
217	0x3f4c2437	0.7974276
218	0x3f654f02	0.8957368
219	0x3f8bcaa3	1.0921215
220	0x3f680321	0.90629774
221	0x3f86721e	1.0503576
222	0x3f5ac17f	0.854515
223	0x3f648635	0.89267284
224	0x3f6af50e	0.91780174
225	0x3f8a9286	1.0825965
226	0x3f7a6249	0.9780622
227	0x3f87d340	1.0611343
228	0x3f78f4db	0.9724862
229	0x3f9759b2	1.1824248
230	0x3f9b6d5b	1.2142748
231	0x3f7fa9ee	0.9986867
232	0x3f703084	0.9382403
233	0x3f7551c6	0.958279
234	0x3f7fa089	0.9985433
235	0x3f765c9f	0.9623508
236	0x3f8847e7	1.0646943
237	0x3f8e0d8c	1.1097884
238	0x3f8d03f8	1.1016836
239	0x3f92149b	1.1412538
240	0x3f808e8e	1.0043504
241	0x3fa56bda	1.2923539
242	0x3fa5d091	1.2954274
243	0x3f965fdd	1.1748005
244	0x3faa0da2	1.328541
245	0x3f922a08	1.1419077
246	0x3f7c20a1	0.9848729
247	0x3f92573f	1.1432875
248	0x3f76da8e	0.9642724
249	0x3f6e2231	0.9302092
250	0x3f89f493	1.0777763
251	0x3f821bb7	1.0164708
252	0x3f7f2ce7	0.9967789
253	0x3f8ef57e	1.1168668
254	0x3f58cda6	0.84688795
255	0x3f5bb566	0.8582367

base.feature_norm.bias f4 [420]
0	0xbd3c7895	-0.046013433
1	0x3d1a4189	0.037660155
2	0x3c98bc3e	0.018644448
3	0x3c87e350	0.016587883
4	0xbde5b9ef	-0.11217105
5	0xbe327184	-0.17426115
6	0x3d4222b3	0.047396373
7	0x3e21f257	0.15815102
8	0x3e26683d	0.16250701
9	0x3df75572	0.12076844
10	0xbd272c87	-0.04081395
11	0xbd175f33	-0.036956023
12	0x3c3de793	0.011590856
13	0x3d314230	0.043276012
14	0x3d02063b	0.031744223
15	0x3cef6947	0.029225005
16	0xbca1fa7a	-0.019772757
17	0xbd4e6f46	-0.050399087
18	0xbd6181ca	-0.055055417
19	0x3d7313ce	0.05934506
20	0xbb73c668	-0.0037197117
21	0xbda868dc	-0.08223125
22	0x39e4bab4	0.00043626653
23	0xbe1ace34	-0.15117723
24	0xbd7e8a25	-0.062143464
25	0xbcbf21ab	-0.023331484
26	0xbc8c5eb1	-0.017134996
27	0xbc6a4041	-0.014297546
28	0xbb0bc14d	-0.0021324933
29	0x3d666b8d	0.056254912
30	0x3b85a0a3	0.0040779873
31	0x3cd16bf6	0.025564175
32	0x3be340ef	0.006935231
33	0xbcd6ca99	-0.026219653
34	0xbe0a5978	-0.13510692
35	0xbb27440c	-0.0025522737
36	0xbd230c80	-0.039806843
37	0xbc74443a	-0.014908845
38	0xbd47840b	-0.04870991
39	0xbda06c1a	-0.07833119
40	0x3d4ac082	0.049499996
41	0xbd695fa6	-0.056975983
42	0x3d35bf64	0.044371977
43	0x3d049371	0.032367174
44	0x3dde8faf	0.10867249
45	0x3d0449cf	0.03229695
46	0xbb9a56c9	-0.0047100526
47	0x3d601025	0.054702897
48	0x3ad912e9	0.0016561422
49	0x3c293700	0.010328054
50	0x3c51f13f	0.012813865
51	0x3d67e924	0.056618825
52	0xbd7dbcb5	-0.061947543
53	0x39f6bdb6	0.00047062122
54	0x3d94bedd	0.07262967
55	0x3df773d8	0.12082642
56	0x3e3da2aa	0.18519083
57	0x3dcc5867	0.09977799
58	0x3d96fc30	0.0737232
59	0x3db9cbd7	0.090720825
60	0x3e22a59d	0.15883489
61	0x3e3a4ce7	0.18193398
62	0xbc93959b	-0.018015673
63	0x3cb37e74	0.021910883
64	0x3d53d281	0.051714424
65	0x3e0ffb33	0.14060669
66	0x3e00a337	0.12562262
67	0x3d377383	0.044787895
68	0x3c305d35	0.01076441
69	0x3d274e6e	0.04084628
70	0x3dc1fce3	0.094720624
71	0x3e00f6fc	0.12594217
72	0x3e3e90e9	0.18609966
73	0x3d94052a	0.072275475
74	0x3e05cb6b	0.13065879
75	0x3e023099	0.12713851
76	0x3d7f87a3	0.062385213
77	0x3e0333c0	0.1281271
78	0x3d47868f	0.04871231
79	0x3d9d5490	0.07682145
80	0x3db4e977	0.088335924
81	0x3d9ba81f	0.07600426
82	0x3dc2f33e	0.09519051
83	0x3d670da4	0.056409493
84	0x3d84ca49	0.06483895
85	0x3c09a712	0.008401649
86	0xbcec1880	-0.028820276
87	0x3d6d01c3	0.05786301
88	0x3e24a825	0.16079767
89	0x3d86a13f	0.06573724
90	0x3e21ee2e	0.15813515
91	0x3dd47ade	0.103749976
92	0x3e77c1a7	0.24194966
93	0x3bcc8489	0.0062413854
94	0x3d764fe1	0.060134772
95	0xbc26aced	-0.010173065
96	0xbca67e93	-0.020324027
97	0x3c3a86d5	0.0113846855
98	0xbd080869	-0.033211146
99	0xbd9a921e	-0.07547401
100	0xbd9458a6	-0.07243471
101	0xbdb6073a	-0.08888097
102	0xbd8a4bfd	-0.06752775
103	0x3c6e23bf	0.01453489
104	0x3c14e73c	0.009088334
105	0xbd86a3e9	-0.06574232
106	0xbcd22d8e	-0.025656488
107	0xbbe039dc	-0.006842835
108	0x3d822f52	0.06356682
109	0x3d5f7f90	0.054565012
110	0xbce9b0e8	-0.028526738
111	0xbdcf3d86	-0.101191565
112	0xbca2debb	-0.019881597
113	0xbd1683b3	-0.036746692
114	0xbd11c09e	-0.035584085
115	0xbd56a18b	-0.052400153
116	0xbd2a4689	-0.041571174
117	0xbd996d3a	-0.074915364
118	0x3bd5beaa	0.006522973
119	0x3d8c6cfd	0.06856725
120	0xbcdfb34b	-0.027307173
121	0x3d180ae9	0.03711978
122	0x3cdacd43	0.026709205
123	0x3cf20e52	0.029547844
124	0x3d8cfec5	0.06884531
125	0x3d6c634c	0.057711884
126	0x3d2c701f	0.042099115
127	0xbd78bf9b	-0.060729604
128	0xbcbe7ad0	-0.023251921
129	0xbd6b656b	-0.057469767
130	0xbcc7aae4	-0.02437348
131	0xbc6e0bd2	-0.014529185
132	0x3d26023a	0.040529467
133	0x3d87b457	0.06626194
134	0x3c7caa7f	0.015421509
135	0x3d37bfa5	0.0448605
136	0x3d0d06a5	0.034430165
137	0x3c32fe4f	0.01092489
138	0xbcf3d9b1	-0.02976689
139	0x3d76d77d	0.0602641
140	0x3db26356	0.08710353
141	0x3c4c80a7	0.012481845
142	0xbc2cd610	-0.010549083
143	0x3bd659c7	0.006541464
144	0x3d161853	0.03664429
145	0xbc27a28d	-0.010231626
146	0x3c0e9bd6	0.008704146
147	0x3bab63e5	0.005230414
148	0x3da4ae8c	0.08041105
149	0x3cc8f6c5	0.024531731
150	0x3e24388c	0.16037196
151	0x3cd4aa61	0.02596015
152	0x3c447f80	0.011993289
153	0x3d4ee074	0.050507024
154	0x3e1c7d2d	0.15282126
155	0x3d990367	0.07471352
156	0x3cff6965	0.031178186
157	0x3d50550b	0.050862353
158	0x3c56eb32	0.013117598
159	0xbb92adf9	-0.0044763056
160	0x3d25219a	0.040315248
161	0x3d27f53c	0.041005358
162	0x3be2f100	0.006925702
163	0x3bc0e4ce	0.0058866506
164	0x3d4c63ab	0.04989974
165	0x3d57b8f9	0.052666638
166	0x3cea5b54	0.028608002
167	0xbc341a64	-0.01099262
168	0x3cbe9669	0.02326508
169	0xbc971b68	-0.018445686
170	0x3dbe2612	0.09284605
171	0x3dfb0bb4	0.122580916
172	0x3e127b66	0.14304885
173	0x3e0c68c5	0.13711841
174	0x3defd069	0.11709673
175	0x3e43ad57	0.19109093
176	0x3d2c4a53	0.04206307
177	0x3b7fe106	0.0039044037
178	0xbc4a6464	-0.012353037
179	0x3b9d04d8	0.004791837
180	0xbc9078db	-0.017635753
181	0x3c10154e	0.008794142
182	0x3b302ab1	0.0026880915
183	0x3cd7d6de	0.026347574
184	0xbb21da5e	-0.0024696807
185	0x3c133b24	0.008986268
186	0x3d18ca98	0.037302583
187	0xbcace3da	-0.021104742
188	0x3cf2ff3d	0.029662723
189	0x3c2c0f66	0.010501718
190	0x3d5e872b	0.054328125
191	0x3dafa076	0.08575527
192	0x3d5ae9f4	0.05344577
193	0x3dd85ae5	0.10564212
194	0x3d05f687	0.03270581
195	0x3e043a39	0.12912835
196	0x3daa62db	0.083196364
197	0x3d23e598	0.04001388
198	0x3cfd3671	0.030909749
199	0xbdd6512d	-0.10464702
200	0xbcbd99d7	-0.023144646
201	0x3dec1406	0.11527257
202	0x3da8f70a	0.08250244
203	0x3dddc73c	0.108290166
204	0x3da5842c	0.080818504
205	0x3d6cafaf	0.057784732
206	0x3d9caf10	0.07650578
207	0x3dda23bf	0.10651349
208	0x3d812876	0.063065454
209	0x3d4d0337	0.050051894
210	0x3cdebe64	0.027190395
211	0x3dfce6a5	0.123486795
212	0x3cc7a772	0.024371836
213	0x3c7fe7e6	0.015619254
214	0x3be35613	0.006937751
215	0xbccddc30	-0.025129408
216	0x3daeacde	0.085290655
217	0x3d2bd54e	0.04195147
218	0xbcbbb6d8	-0.022914335
219	0xbd977a13	-0.07396331
220	0x3d826e6a	0.06368716
221	0x3d756f52	0.059920616
222	0x3dc3af9e	0.09554981
223	0x3d856e35	0.06515161
224	0x3cea1e14	0.028578795
225	0x3cd858a4	0.026409455
226	0x3dda72be	0.106664166
227	0x3be2f378	0.0069259964
228	0x3dd3a335	0.10333864
229	0x3bb915bf	0.0056483443
230	0x3c08f0e1	0.008358211
231	0x3d7f0483	0.062260162
232	0x3e3c49a0	0.1838746
233	0x3d4759b5	0.048669536
234	0x3dafceae	0.08584343
235	0x3dbc15c3	0.09183838
236	0x3d4e8b62	0.050425895
237	0x3d5dc72d	0.054145027
238	0x3d2c6b9b	0.042094808
239	0xbb3635b5	-0.0027803008
240	0x3d725de4	0.059171572
241	0xbb88a710	-0.004170306
242	0x3bd6dc01	0.006556988
243	0x3cd5993c	0.026074044
244	0x3c633b20	0.013869077
245	0x3d2a0db5	0.04151698
246	0x3df728cc	0.12068328
247	0x3ce40e4d	0.02783885
248	0x3dbd44ad	0.092416145
249	0x3d8eb2cb	0.06967696
250	0x3d1d42ad	0.038393665
251	0x3d7946f7	0.060858693
252	0x3d3ed1a4	0.046586648
253	0x3d4630fc	0.04838656
254	0x3e361d70	0.17784667
255	0x3e1eb6d3	0.1549943

base.mlp.fc1.0.weight f4 [64, 420]
0	0x3e244e23	0.16045432
1	0xbe16947a	-0.14705077
2	0x3dade563	0.08491018
3	0xbdf3a817	-0.11897295
4	0x3e82bd97	0.2553527
5	0x3d901ed6	0.070371315
6	0xbe08252d	-0.13295431
7	0x3cd7a81b	0.026325276
8	0x3d100a2b	0.035165947
9	0x3d9defeb	0.07711776
10	0xbe2bc379	-0.16773786
11	0x3dae4d0d	0.0851079
12	0x3e547492	0.20747593
13	0x3db6303a	0.08895917
14	0x3e912959	0.28351858
15	0x3e26c14f	0.16284679
16	0xbd40ae15	-0.047041018
17	0x3ca81e99	0.020522403
18	0xbd0e27cc	-0.034705922
19	0x3be354b3	0.006937587
20	0xbe82dfec	-0.25561464
21	0x3df0a70d	0.117506124
22	0xbd494da5	-0.049146313
23	0x3d638208	0.05554393
24	0xbe0040b3	-0.12524681
25	0x3d7528cb	0.059853356
26	0xbe8d8b34	-0.27645266
27	0x3dcddfdc	0.100524634
28	0x3cef319a	0.029198457
29	0x3e02c342	0.12769797
30	0xbc4b7feb	-0.012420635
31	0xbe8f94e5	-0.28043285
32	0xbc112af9	-0.008860343
33	0xbd005ad9	-0.03133664
34	0xbd8df9e0	-0.069324255
35	0xbe7fef0e	-0.24993536
36	0x3e305472	0.17219713
37	0xbe160a8f	-0.14652465
38	0xbdc66fe1	-0.09689308
39	0xbddebef9	-0.10876269
40	0x3e635f3d	0.222043
41	0xbdb6ee85	-0.08932213
42	0xbda4f57a	-0.080546334
43	0x3d47043b	0.04858802
44	0x3dd87103	0.1056843
45	0x3e2ad979	0.16684522
46	0xbd8373f1	-0.064185984
47	0xbc48a78e	-0.012246979
48	0x3dc7f600	0.09763718
49	0x3b5626e6	0.0032676994
50	0x3d980d0c	0.074243635
51	0xbc9b97f8	-0.018993363
52	0xbd423bc9	-0.047420297
53	0x3aa9d6a9	0.001295765
54	0x3d856310	0.06513035
55	0x3dd06473	0.10175409
56	0xbc8383de	-0.01605409
57	0x3e4c251c	0.19936031
58	0x3c658a53	0.01401003
59	0x3de787d7	0.11305206
60	0x3e112ead	0.14177962
61	0x3d9587c6	0.07301287
62	0x3e0cec99	0.1376213
63	0x3de697d0	0.11259425
64	0x3dc7b4a8	0.09751254
65	0x3c2f6f51	0.010707692
66	0x3e03bac4	0.12864214
67	0x3b01e095	0.00198177
68	0xbcefe415	-0.029283563
69	0x3bd2c099	0.006431651
70	0x3d7d59e3	0.0618533
71	0x3dc53102	0.09628488
72	0x3dfc10e3	0.123079084
73	0x3e1a01f6	0.1503981
74	0x3e2639fa	0.16233054
75	0xbdbe6b79	-0.092978425
76	0x3dce816f	0.10083281
77	0x3d221ebe	0.0395801
78	0x3d88aef3	0.06673994
79	0x3cde235e	0.027116474
80	0x3e12804a	0.14306751
81	0xbd46b810	-0.04851538
82	0xbdf8a09b	-0.12140008
83	0x3df0eff3	0.11764517
84	0x3e073054	0.1320203
85	0xbe1c1c53	-0.1524518
86	0x3cba9002	0.022773746
87	0x3e39d813	0.18148832
88	0xbc6d006c	-0.014465433
89	0xbd14f398	-0.03636512
90	0x3cbc12e2	0.022958223
91	0xbc416cce	-0.011805726
92	0x3e333a59	0.17502727
93	0x3d80a29d	0.06281016
94	0x3defbe37	0.117062025
95	0xbe4e03f2	-0.20118693
96	0xbda5546b	-0.08072742
97	0x3d9e7e3b	0.0773892
98	0x3da7c4b6	0.081918165
99	0xbdc2ad30	-0.09505689
100	0xbd5102a5	-0.051027913
101	0xbd82617b	-0.06366249
102	0xbd3abe25	-0.045591492
103	0x3d22099b	0.03955994
104	0x3dcdbae8	0.10045415
105	0xbd828d23	-0.06374576
106	0x3d655b5c	0.05599533
107	0x39842d8c	0.00025210937
108	0x3d3790f7	0.044815984
109	0xbdad2c15	-0.084556736
110	0x3cd1473f	0.025546668
111	0x3be7dc1c	0.0070757996
112	0x3cd966d7	0.026538296
113	0x3ccc57be	0.024944182
114	0xbdc7307f	-0.09726047
115	0xbdb820a0	-0.08990598
116	0xbde06854	-0.10957399
117	0xbe1910b0	-0.14947772
118	0x3dfb7bf1	0.12279499
119	0x3d16737e	0.036731236
120	0x3e898a07	0.2686312
121	0xbde24778	-0.11048788
122	0xbe5554ea	-0.20833173
123	0x3d1a72ca	0.037707128
124	0xbc4dcc69	-0.012560942
125	0xbe00174e	-0.1250889
126	0xbd4f230a	-0.050570525
127	0xbbdaff4c	-0.006683266
128	0x3da70e1e	0.081569895
129	0x3da7efd3	0.0820004
130	0xbcc25935	-0.023724178
131	0xbd9d7457	-0.07688206
132	0xbe014ecc	-0.12627715
133	0xbc608a15	-0.013704796
134	0x3cb258ca	0.021770854
135	0x3dfb64f2	0.12275113
136	0xbd1a2076	-0.037628613
137	0xbe26e900	-0.1629982
138	0xbcbf491d	-0.023350293
139	0xbe09951b	-0.13435785
140	0x3e65c1be	0.22437188
141	0xbdaa18b3	-0.08305492
142	0x3e68da1b	0.2273945
143	0x3dfb6d58	0.12276715
144	0x3e64fae6	0.22361335
145	0xbd66d698	-0.056356996
146	0x3db6ce94	0.089261204
147	0xbe0f3b38	-0.13987434
148	0x3dd3bc8f	0.10338699
149	0x3e90646c	0.28201616
150	0x3d2f9c6e	0.042873792
151	0x3e0c48ed	0.13699694
152	0x3dcc7cc5	0.099847354
153	0x3ca2083f	0.019779323
154	0x3d8fe1c1	0.07025481
155	0xbd1c6139	-0.038178656
156	0xbc152875	-0.009103884
157	0xbd8f4ffb	-0.06997677
158	0xbe231d1c	-0.15929073
159	0xbe47f280	-0.195261
160	0x3db96f1e	0.09054397
161	0x3d3d237a	0.04617641
162	0x3dc072cd	0.093968965
163	0x3d89f5a3	0.067363046
164	0x3d40702b	0.04698197
165	0x3cf69c87	0.030103935
166	0xbdca620d	-0.09881983
167	0x3dcfb245	0.10141424
168	0x3d3b0536	0.045659266
169	0x3de57ae1	0.11205078
170	0x3d900bdc	0.07033512
171	0x3d4ff919	0.050774667
172	0xbca6ab9f	-0.020345507
173	0x3dbaaade	0.091146216
174	0x3d1149d8	0.035470814
175	0x3c40cd61	0.011767716
176	0x3dba9a31	0.09111441
177	0x3e6734e1	0.22578765
178	0x3e43481b	0.19070475
179	0x3b7dc497	0.0038721913
180	0x3c903cf0	0.017607182
181	0x3c99b5da	0.018763471
182	0xbdb92c57	-0.0904166
183	0xba903721	-0.0011002758
184	0x3dcb277b	0.0991964
185	0x3c052fb7	0.008129052
186	0x3cd84cf0	0.026403874
187	0x3c5b462a	0.013383428
188	0x3e490b01	0.19633104
189	0x3e461908	0.19345486
190	0xbe20e35a	-0.15711728
191	0xbdd63d00	-0.104608536
192	0x3c908a9f	0.017644225
193	0x3ea6b375	0.3255879
194	0x3e331d4b	0.17491643
195	0xbe4d83c1	-0.20069791
196	0x3dbe0240	0.09277773
197	0x3e50d06b	0.20392005
198	0xbe02fed3	-0.1279252
199	0x3e887912	0.2665487
200	0x3c34a255	0.011025031
201	0xbdb9bf49	-0.09069688
202	0x3d83c032	0.06433143
203	0x3e2a707f	0.16644476
204	0x3e78b979	0.24289502
205	0xbd80186e	-0.062546596
206	0xbdde2f83	-0.10848906
207	0xbdc25657	-0.09489124
208	0x3e2a34eb	0.16621749
209	0x3e70df17	0.23522602
210	0x3da5b897	0.08091848
211	0x3dee6342	0.11640026
212	0xbdbeba53	-0.09312882
213	0x3e00aba8	0.12565482
214	0x3e5b43aa	0.2141253
215	0x3de169f0	0.11006534
216	0x3d24174a	0.040061273
217	0x3cfc75c7	0.03081788
218	0x3d633ff5	0.055480916
219	0x3e8c4401	0.27395633
220	0xbd084f89	-0.033278976
221	0xbcd75b03	-0.026288515
222	0x3d7636ba	0.060110785
223	0xbd253fff	-0.040344235
224	0x3eaa1025	0.33215442
225	0x3e6d091c	0.23148006
226	0x3dfa3793	0.12217631
227	0x3daf7f36	0.085691854
228	0x3e11834f	0.14210247
229	0x3df39bf7	0.11894982
230	0x3e21178e	0.15731642
231	0x3e488719	0.19582786
232	0x3de17218	0.1100809
233	0xbd1b4c7b	-0.037914734
234	0x3d96029b	0.07324716
235	0x3dedce6b	0.11611637
236	0x3e4fc007	0.20288096
237	0x3dc7effc	0.0976257
238	0x3ca5e679	0.0202515
239	0xbc9f373e	-0.019435521
240	0x3dee9e32	0.11651267
241	0x3e95a199	0.29224852
242	0x3e8eb7c3	0.27874574
243	0x3d94008b	0.07226666
244	0x3e5bc998	0.2146362
245	0x3ea59fd6	0.32348508
246	0x3e999e36	0.30003518
247	0x3e2782ff	0.16358565
248	0xbe9246df	-0.28569695
249	0x3d98dd7d	0.074641205
250	0x3ec5e729	0.38652924
251	0x3d2188d1	0.03943712
252	0x3dceedf7	0.10103982
253	0x3cdf3280	0.02724576
254	0x3c48fdc3	0.012267533
255	0x3d8c0e65	0.06838683

base.mlp.fc1.0.bias f4 [64]
0	0x3c90070f	0.01758149
1	0x3c236f36	0.009975245
2	0xbcc3efef	-0.02391812
3	0xbcf90e60	-0.030402362
4	0xbdb868ef	-0.090043895
5	0x3c788354	0.01516803
6	0xbccc523b	-0.024941554
7	0x3da27ed5	0.079343475
8	0x3d7ca239	0.061678145
9	0x3d2184e4	0.039433375
10	0xbd43ec01	-0.047832493
11	0x3ae84aec	0.0017722524
12	0xbd97353e	-0.07383202
13	0x3cb64653	0.02225033
14	0x3da2965e	0.079388365
15	0xbc2192d9	-0.009861671
16	0x3d0d3a9e	0.03447973
17	0x3cb6ccd9	0.022314476
18	0xbd450e47	-0.04810932
19	0x3ceb30ec	0.028709851
20	0xbd84f7b3	-0.064925574
21	0x3b74bde8	0.0037344638
22	0xbd4b6676	-0.04965826
23	0xbbfe7e56	-0.0077665253
24	0x3c92fcd5	0.017942825
25	0x3c641f4e	0.013923479
26	0x3c1dd531	0.009633348
27	0x3c3628d1	0.01111813
28	0x3cb4165e	0.021983322
29	0xbcd09081	-0.02545953
30	0xbb2609b5	-0.0025335376
31	0xbbed7d02	-0.007247568
32	0xbbe8b0ed	-0.0071011693
33	0x3c085b31	0.008322523
34	0x3d3c1968	0.045922667
35	0x3b9d8640	0.0048072636
36	0x3d95640f	0.07294475
37	0x3df0d404	0.11759189
38	0xbd63161d	-0.05544101
39	0x3cfddcd3	0.030989086
40	0x3b85a610	0.004078634
41	0x3d8afb8c	0.0678626
42	0x3cb7d4e2	0.022440378
43	0x3d4f291f	0.050576326
44	0xbc809f03	-0.015700823
45	0x3d928dd1	0.071559556
46	0xbc3cc2d8	-0.011521064
47	0x3d74cff0	0.059768617
48	0xbc382b0f	-0.011240735
49	0xbd2ee5e5	-0.042699713
50	0xbc836d4c	-0.016043328
51	0xbd9eb46e	-0.07749258
52	0x3dbb1556	0.09134929
53	0x3c11bc1a	0.008894945
54	0xbd01efc1	-0.031722788
55	0xbdb5e45b	-0.08881446
56	0x3d596b93	0.053081106
57	0xbd032582	-0.032018192
58	0x3d21ce1e	0.03950321
59	0x3ca85adc	0.020551138
60	0xbda07474	-0.07834712
61	0xbb08090b	-0.0020757343
62	0x3dbdaa77	0.09261029
63	0xbdb16b16	-0.08663003

base.mlp.fc1.2.weight f4 [64]
0	0x3f6f7026	0.935305
1	0x3f810402	1.0079348
2	0x3f867252	1.0503638
3	0x3f881ffd	1.0634762
4	0x3f6ddbcc	0.9291351
5	0x3f8b87d5	1.0900828
6	0x3f94b641	1.161812
7	0x3f82b7f9	1.0212394
8	0x3f89b566	1.0758483
9	0x3f833668	1.0250978
10	0x3f7c796f	0.9862279
11	0x3f88f2de	1.0699117
12	0x3f82ab79	1.0208579
13	0x3f81eab0	1.0149746
14	0x3fa02ade	1.2513082
15	0x3f83db70	1.0301342
16	0x3f56cc48	0.8390546
17	0x3f8c7923	1.0974468
18	0x3f809265	1.0044676
19	0x3f6aecea	0.9176775
20	0x3f8f756c	1.1207709
21	0x3f997527	1.1988877
22	0x3f7070f7	0.9392237
23	0x3f7cc796	0.98742044
24	0x3f7d0618	0.98837423
25	0x3f831870	1.0241833
26	0x3f856fee	1.0424783
27	0x3f744a87	0.9542622
28	0x3f6cd86f	0.9251775
29	0x3f7fdd1e	0.99946773
30	0x3f706562	0.939047
31	0x3f5070c6	0.8142208
32	0x3f81694f	1.0110263
33	0x3f62394c	0.8836868
34	0x3f83669b	1.0265688
35	0x3f81b23f	1.0132521
36	0x3f8297ba	1.0202553
37	0x3f9040b3	1.1269745
38	0x3f709e44	0.93991494
39	0x3f8487bf	1.0353926
40	0x3f88806e	1.0664194
41	0x3f7d6939	0.9898868
42	0x3f88ce0d	1.0687882
43	0x3f66f716	0.90220773
44	0x3f70a3d7	0.94
45	0x3f8c6439	1.0968086
46	0x3f7162ee	0.9429158
47	0x3f666043	0.89990634
48	0x3f8a1a76	1.0789325
49	0x3f653bee	0.8954457
50	0x3f8d0a09	1.1018687
51	0x3f4346b9	0.7627979
52	0x3f85020f	1.0391253
53	0x3f886e0f	1.0658587
54	0x3f6b5618	0.91928244
55	0x3f8c51b1	1.096243
56	0x3f9441e3	1.1582607
57	0x3f85b0f9	1.0444633
58	0x3f71ad07	0.94404644
59	0x3f9c2081	1.219742
60	0x3f7e73fd	0.99395734
61	0x3f88c080	1.0683746
62	0x3f817e37	1.0116643
63	0x3f67ce01	0.9054871

base.mlp.fc1.2.bias f4 [64]
0	0x3bbe2bed	0.005803576
1	0x3ca664f6	0.020311814
2	0xbc89feb3	-0.016845083
3	0xbc88d2c2	-0.01670206
4	0x3d0afdfa	0.033933617
5	0xbcd37fb8	-0.025817737
6	0x3cc90efc	0.024543278
7	0xbc55e1b9	-0.013054305
8	0xbcf0e693	-0.029406821
9	0x3d42a0ca	0.04751662
10	0x3c2b6d47	0.0104630655
11	0xbde0bb8d	-0.109732725
12	0xbc5108ce	-0.012758447
13	0x3c43d9a4	0.011953745
14	0x3cd01e38	0.025405034
15	0xbceb1967	-0.028698636
16	0x3e3aaae2	0.18229249
17	0x3d552540	0.052037477
18	0x3d8d8624	0.06910351
19	0x3c4cb0bd	0.01249331
20	0xbba1be52	-0.004936018
21	0xbde4bc02	-0.11168672
22	0xbc1d1032	-0.009586381
23	0x3cbdf760	0.023189247
24	0x3c6ea4ed	0.014565689
25	0x3d73a21d	0.059480775
26	0x3cac3422	0.021020953
27	0xbbab5c7e	-0.005229532
28	0x3d8bd7c1	0.06828261
29	0xbcd0e91b	-0.025501778
30	0x3dcafdcc	0.09911689
31	0x3ddc6eaa	0.10763295
32	0x3daa5d6e	0.083186015
33	0x3be8fc54	0.007110158
34	0x3d65b88c	0.0560842
35	0x3d4c492c	0.04987447
36	0x3ae363df	0.001734849
37	0xbcb6a5e8	-0.022295907
38	0x3c8f9041	0.01752484
39	0x3d441fb5	0.0478818
40	0xbcc4442a	-0.023958284
41	0xbd0733e6	-0.03300848
42	0x3bd1ff61	0.0064086174
43	0xba88d311	-0.0010438879
44	0xbcad99fa	-0.021191586
45	0xbd19f679	-0.03758857
46	0xbc7aef3a	-0.015315825
47	0x3df5de8e	0.120053396
48	0xbd2a6de9	-0.041608725
49	0xbc4beb6d	-0.012446267
50	0xbc8cfc1d	-0.01721006
51	0x3db8fea4	0.09032944
52	0xbc508076	-0.01272594
53	0xbca27f31	-0.01983604
54	0x3d56853c	0.052373156
55	0x3cc73993	0.024319446
56	0xbb0e8b90	-0.0021750666
57	0xbca3b6c6	-0.019984614
58	0xbcf1ed98	-0.029532239
59	0xbce3e320	-0.027818263
60	0x3c873c3e	0.016508218
61	0xbc11f959	-0.008909547
62	0x3d6d3e58	0.057920784
63	0xbcc74335	-0.024324039

base.mlp.fc2.0.0.weight f4 [64, 64]
0	0x3ee1f772	0.44134098
1	0xbe08a850	-0.13345456
2	0x3e9ecc4d	0.31015244
3	0x3c989e4f	0.018630175
4	0x3dfc2830	0.12312353
5	0xbd22fc2d	-0.039791275
6	0x3e199656	0.14998755
7	0x3adb020c	0.0016708984
8	0x3e1818a3	0.14853148
9	0x3e23a0b5	0.15979274
10	0xbe9d377c	-0.30706394
11	0x3dce4558	0.1007182
12	0xbe3c72ab	-0.18403117
13	0xbe9733f8	-0.29531837
14	0xbe1eadd7	-0.15496002
15	0x3d74e888	0.05979207
16	0x3e03732a	0.128369
17	0xbe879777	-0.26482746
18	0x3ea8c599	0.32963255
19	0xbdf31bbb	-0.118705235
20	0x3e8bcd20	0.27304935
21	0xbdc1283d	-0.09431503
22	0x3ebddfc3	0.3708478
23	0xbbdf0dd3	-0.006807068
24	0x3e32770e	0.17428228
25	0x3e91724a	0.28407508
26	0xbe2a514d	-0.16632576
27	0xbe72af5a	-0.23699704
28	0xbd33758b	-0.04381327
29	0x3ebd81ba	0.37013036
30	0x3e8a7c62	0.27048022
31	0xbe45bf5b	-0.19311278
32	0x3ebf584d	0.37372056
33	0xbc868eca	-0.016425509
34	0x3dce8593	0.10084071
35	0xbc47b1d4	-0.012188394
36	0xbe20a051	-0.15686156
37	0x3e438e6a	0.19097295
38	0xbe8cc296	-0.27492207
39	0x3e0ebdfe	0.13939664
40	0x3eab6acd	0.3347992
41	0xbda485ca	-0.08033331
42	0x3e3d9c73	0.18516712
43	0x3cbf6aad	0.023366297
44	0x3d98c0c8	0.07458645
45	0xbe354d18	-0.1770519
46	0x3eb73ca1	0.35788444
47	0xbe4623d4	-0.19349605
48	0x3d553b23	0.05205835
49	0xbdc093ba	-0.094031766
50	0x3ef082c8	0.46974778
51	0x3de70739	0.112806745
52	0x3e4f0ace	0.20218965
53	0xbd023e25	-0.031797547
54	0x3e81a360	0.25319958
55	0x3e8d8554	0.27640784
56	0xbd930e3e	-0.07180451
57	0x3e100509	0.14064421
58	0x3e976096	0.29565877
59	0xbe842238	-0.25807357
60	0x3ddb4e13	0.10708251
61	0x3ecf64a7	0.4050648
62	0x3d046a0e	0.032327704
63	0x3ed9179f	0.42400834
64	0x3e22e9b6	0.15909466
65	0xbe26d224	-0.162911
66	0x3e38004f	0.17968868
67	0x3e933415	0.28750673
68	0xbb820872	-0.003968292
69	0xbe47bdc1	-0.19505979
70	0xbe8e1b9e	-0.27755445
71	0xbeb4b810	-0.3529668
72	0xbe45d258	-0.19318521
73	0x3e8e5dc0	0.278059
74	0xbda61763	-0.081099294
75	0xbd605e73	-0.054777574
76	0x3c9450b7	0.018104894
77	0x3dbd9b38	0.09258121
78	0x3f037bc3	0.5136072
79	0x3e8d64eb	0.27616057
80	0xbe13d0dd	-0.14435144
81	0x3e4a0868	0.19729769
82	0x3e5619db	0.209083
83	0x3e7d5f90	0.24743485
84	0x3d06b5b2	0.032888122
85	0xbbaa23e5	-0.0051922672
86	0xbd466018	-0.048431486
87	0x3ccac307	0.0247512
88	0x3e0d138a	0.13776985
89	0x3cf2ac23	0.029623097
90	0x3f096f0c	0.5368507
91	0xbd69415b	-0.056947093
92	0x3d78738c	0.06065707
93	0xbcf0c63c	-0.0293914
94	0x3e88a1ed	0.2668604
95	0x3eaaa3f3	0.33328208
96	0xbf0a1248	-0.53934145
97	0xbdb15138	-0.08658069
98	0xbea9c32d	-0.3315672
99	0xbe7a60e7	-0.24451028
100	0x3df0162a	0.117229775
101	0x3e8712fe	0.26381677
102	0x3d4da4da	0.050206043
103	0x3e8639c8	0.2621596
104	0xbe0237f2	-0.12716654
105	0xbcb54e81	-0.02213216
106	0xbd773685	-0.06035473
107	0x3dcbc448	0.09949547
108	0x3db17ab3	0.08665981
109	0xbdf65322	-0.12027575
110	0x3d968275	0.073491015
111	0xbc7eed81	-0.015559555
112	0xbe80dde3	-0.25169286
113	0x3e8222ac	0.25417078
114	0x3e2d986d	0.16952677
115	0x3f1ba6d3	0.6080143
116	0xbe544810	-0.20730615
117	0x3dfeb0dc	0.12436077
118	0xbe04b3d5	-0.12959225
119	0xbd96cc7c	-0.07363221
120	0x3e06453c	0.13112348
121	0x3def8288	0.11694819
122	0xbe1148b2	-0.14187887
123	0x3e3b01a1	0.1826234
124	0x3df301a8	0.1186555
125	0xbe840cab	-0.25790915
126	0xbe01c6d6	-0.12673506
127	0x3e59fe48	0.21288407
128	0xbd0532d2	-0.03251917
129	0xbbb99582	-0.0056635747
130	0xbe9ddd3a	-0.30832845
131	0x3d95e0d5	0.07318274
132	0x3d0faa98	0.0350748
133	0x3e6ded55	0.23235066
134	0xbee2e98f	-0.44318816
135	0xbe8beaaf	-0.27327487
136	0xbe293a0a	-0.16526046
137	0xbe244b80	-0.16044426
138	0xbe1bd8dd	-0.15219446
139	0x3de62b83	0.11238768
140	0x3dee2a07	0.1162911
141	0xbef74109	-0.48291805
142	0x3de02d64	0.109461576
143	0xbe0ce0ef	-0.1375768
144	0x3e46d255	0.19416173
145	0x3e2e4a21	0.17020465
146	0x3ea41e1b	0.3205422
147	0x3e7fe52d	0.24989767
148	0x3e2499d5	0.16074307
149	0x3ea78702	0.3272019
150	0xbe90dd81	-0.28293994
151	0xbeb78408	-0.3584292
152	0x3e4b4aae	0.19852707
153	0xbe45f8ec	-0.19333237
154	0x3c8ca4a1	0.017168345
155	0xbe3237b1	-0.17404057
156	0x3e89a3e5	0.26882854
157	0xbe3a5234	-0.1819542
158	0x3e46c76a	0.19412008
159	0x3db26f6c	0.08712658
160	0xbe30b36f	-0.17255948
161	0x3e6974e6	0.227985
162	0x3dca3e69	0.09875185
163	0x3d644f26	0.055739544
164	0xb9273523	-0.00015946156
165	0xbdacc7d5	-0.084365524
166	0x3deb7126	0.11496191
167	0xbedba725	-0.4290096
168	0xbe88a8a7	-0.26691172
169	0xbbf6b16d	-0.007528475
170	0xbe981eb8	-0.29710937
171	0x3dfc98dd	0.12333844
172	0x3cd30932	0.02576122
173	0x3d912c4a	0.070885256
174	0xbdcf9870	-0.10136497
175	0x3d950b2a	0.0727752
176	0xbee35a60	-0.44404888
177	0xbe681050	-0.22662473
178	0xbdce187d	-0.100632645
179	0xbae0054a	-0.001709142
180	0x3e17f693	0.14840154
181	0x3c971d2d	0.01844653
182	0x3dc6cd69	0.09707148
183	0xbcec8277	-0.028870804
184	0x3e155981	0.14584924
185	0x3d0596a4	0.032614365
186	0x3e616751	0.22012068
187	0x3e78509c	0.242495
188	0x3eeb5013	0.4595953
189	0x3c761370	0.015019283
190	0x3dd9a35a	0.1062686
191	0x3e3e959f	0.18611763
192	0xbc05843e	-0.008149205
193	0x3d012863	0.031532656
194	0x3e042b12	0.12907055
195	0xbc4ca966	-0.01249156
196	0xbdd2ecdd	-0.10299084
197	0xbeb0297d	-0.34406653
198	0x3ddc8dd0	0.10769236
199	0xbd7572d3	-0.059923958
200	0x3e941ae1	0.28926757
201	0x3ea81265	0.32826534
202	0x3d0c7ade	0.034296863
203	0xbeb6af99	-0.35680845
204	0xbdb299bb	-0.08720728
205	0xbbad6b72	-0.0052923495
206	0xbe31a3ca	-0.17347637
207	0x3eb16c42	0.34652907
208	0xbe090525	-0.13380869
209	0xbe1be2b2	-0.15223196
210	0x3e53c633	0.20681076
211	0xbf11ded6	-0.56980646
212	0xbe2209b6	-0.15824017
213	0xbebee9d3	-0.3728777
214	0xbe957ddf	-0.29197595
215	0xbd1ba22e	-0.037996463
216	0xbe4ac765	-0.19802625
217	0xbdbd0ed9	-0.092313476
218	0x3bb9f2ef	0.005674712
219	0xbe629117	-0.2212566
220	0x3e1870d5	0.14886792
221	0x3d86abd3	0.065757416
222	0x3e6dbb60	0.23216009
223	0x3dab3a84	0.0836077
224	0x3d0a2b51	0.033732716
225	0xbd18e800	-0.037330627
226	0x3ddaba8d	0.10680113
227	0xbcfdccee	-0.030981507
228	0xbd98f410	-0.07468426
229	0x3e0e95bb	0.13924305
230	0x3ed87daf	0.4228339
231	0xbeac2c99	-0.33627775
232	0x3eb25b24	0.3483516
233	0xbd5070c0	-0.050888777
234	0xbd0a9482	-0.033833034
235	0x3ef4a5f1	0.47782853
236	0xbe8752be	-0.26430315
237	0xbdbc8976	-0.09205906
238	0x3d98049e	0.07422756
239	0xbe34d9dd	-0.17661233
240	0x3e34456d	0.17604609
241	0x3d5f5bde	0.05453097
242	0xbe622ce0	-0.22087431
243	0x3e0182e6	0.1264759
244	0x3ce9cea1	0.028540911
245	0xbeb027a4	-0.34405243
246	0x3e0bbd89	0.1364652
247	0x3d9147ab	0.07093748
248	0xbeb089e3	-0.344802
249	0x3d0df789	0.034659896
250	0xbe036ac8	-0.12833703
251	0xbeb1aeb9	-0.34703615
252	0x3d5d96f4	0.05409904
253	0x3f01016b	0.5039279
254	0xbeaa9b54	-0.3332163
255	0x3e3ddb8f	0.18540786

base.mlp.fc2.0.0.bias f4 [64]
0	0xbd085413	-0.033283304
1	0xbe0cc1b5	-0.13745768
2	0x3c66f029	0.014095345
3	0xbd8f4bf6	-0.0699691
4	0x3d908029	0.070556946
5	0xbce5decb	-0.028060338
6	0xbddbe7ba	-0.10737558
7	0xbd3dd6cc	-0.046347424
8	0xbdd21413	-0.10257735
9	0x3d752abd	0.05985521
10	0xbde65cec	-0.11248192
11	0xbdc13967	-0.09434777
12	0xbdb3b12a	-0.08774026
13	0x3c5fca38	0.013659053
14	0xbd0e2bc8	-0.03470972
15	0xbbb07817	-0.0053854096
16	0xbdda74b0	-0.106667876
17	0x3d16b154	0.036790207
18	0xb9019247	-0.00012356891
19	0x3bd96317	0.006634127
20	0x3cad1784	0.021129377
21	0x3dc40e46	0.09573035
22	0xbd7729c5	-0.06034257
23	0x3b1289f6	0.0022360063
24	0x3e0677f4	0.13131696
25	0x3cc39652	0.02387539
26	0xbce34d80	-0.027746916
27	0xbde9b589	-0.11411578
28	0xbaa8065a	-0.0012819276
29	0x3d3fad26	0.046795987
30	0x3d2c7c4b	0.042110723
31	0x3dafa2f7	0.08576005
32	0xbace0275	-0.0015717285
33	0xbd92cfe5	-0.07168559
34	0xbdf0fa9b	-0.11766549
35	0x3d213488	0.03935674
36	0xbcc429c7	-0.023945702
37	0x3de1abb4	0.11019078
38	0xbcb2a163	-0.02180547
39	0xbd601478	-0.05470702
40	0xbe31c06a	-0.17358556
41	0x3da2a7cc	0.07942161
42	0xbdaf37a6	-0.08555536
43	0x382e0ada	4.149494e-05
44	0x3c8e7b37	0.017392738
45	0xbd3f0660	-0.04663694
46	0x3d0aac67	0.033855822
47	0x3d7d24c9	0.06180266
48	0xbb3912ca	-0.002823996
49	0x3daaac40	0.08333635
50	0xbceced1f	-0.028921662
51	0x3d1c5513	0.03816707
52	0xbd7e0044	-0.062011972
53	0xbdd7939c	-0.10526201
54	0x3c4804fb	0.012208219
55	0xbcab584a	-0.020916123
56	0xbd7a2291	-0.06106812
57	0xbd2d89e3	-0.042367827
58	0xbd996247	-0.07489448
59	0x3ca442ba	0.020051349
60	0xbde88c8c	-0.11354932
61	0xbe095abc	-0.13413519
62	0x3bed52ae	0.007242522
63	0xbc2b6ba0	-0.0104626715

base.mlp.fc2.0.2.weight f4 [64]
0	0x3f9b1358	1.2115278
1	0x3f9ae58e	1.2101305
2	0x3fa1a3e3	1.2628139
3	0x3f8ab5fb	1.0836786
4	0x3fa6aee0	1.3022118
5	0x3f8afedb	1.0859026
6	0x3fad49a2	1.3538096
7	0x3f970c9b	1.1800722
8	0x3f979fa1	1.184559
9	0x3f9d59df	1.2293051
10	0x3f8aa358	1.0831099
11	0x3f812a33	1.0091003
12	0x3f9c3a3f	1.2205275
13	0x3fa04820	1.2522011
14	0x3fc1c70e	1.5138872
15	0x3f97d49a	1.1861756
16	0x3f7c2fa8	0.9851022
17	0x3fa4affc	1.2866206
18	0x3f912c0d	1.1341568
19	0x3fa6e8d3	1.3039802
20	0x3fa0de2b	1.25678
21	0x3fa7341d	1.3062779
22	0x3f9d80de	1.2304952
23	0x3fa6da00	1.3035278
24	0x3fa8dac0	1.3191757
25	0x3f96235d	1.1729542
26	0x3f9329b8	1.1497107
27	0x3faddb25	1.3582503
28	0x3f9874e9	1.1910678
29	0x3fb26b65	1.3939024
30	0x3f9c097c	1.2190394
31	0x3f945722	1.1589091
32	0x3f92e54a	1.1476223
33	0x3f96ffa4	1.1796765
34	0x3f8f514f	1.1196688
35	0x3f967191	1.1753408
36	0x3fa4b3e4	1.2867398
37	0x3fa532cb	1.2906126
38	0x3f9789f1	1.1838971
39	0x3f9b81d3	1.2148994
40	0x3f8613fb	1.0474848
41	0x3f9b94d4	1.2154794
42	0x3f94ebfd	1.1634518
43	0x3f8ef7ae	1.1169336
44	0x3f92bcfd	1.1463925
45	0x3f9b675e	1.214092
46	0x3f9bb2f9	1.2163993
47	0x3fadd107	1.3579415
48	0x3f9fd003	1.2485355
49	0x3fb3162b	1.399114
50	0x3f80fe86	1.0077674
51	0x3f9206b7	1.1408299
52	0x3f9ef86f	1.2419566
53	0x3fa49d7f	1.2860564
54	0x3fb09dbe	1.3798139
55	0x3f9fa1c2	1.247124
56	0x3fa67371	1.300398
57	0x3f9009ba	1.1252968
58	0x3f9fbaaa	1.247884
59	0x3f9bae92	1.216265
60	0x3fa6985b	1.3015245
61	0x3f89b2e5	1.0757719
62	0x3f934462	1.1505244
63	0x3f945d27	1.1590928

base.mlp.fc2.0.2.bias f4 [64]
0	0x3cb330de	0.021873888
1	0xbd022dd2	-0.03178198
2	0x3c8e2113	0.017349755
3	0x3d8ef5df	0.0698049
4	0x3d357803	0.044303905
5	0x3d09b16a	0.03361646
6	0x3cda0d80	0.026617765
7	0xbcbb9da8	-0.022902325
8	0xbd5d3458	-0.054004997
9	0xbcd140d7	-0.025543613
10	0xbcbea942	-0.023274068
11	0x3d80a042	0.06280567
12	0xbc5b3818	-0.013380073
13	0x3cf9d133	0.030495262
14	0x3d078aff	0.03309154
15	0xb9175d18	-0.00014435162
16	0xbcbf52bb	-0.023354879
17	0xbc8880e7	-0.016663028
18	0x3b87c27e	0.0041430583
19	0xbb65ee58	-0.003508469
20	0xbc259ee8	-0.010108687
21	0xbd2a21bc	-0.041536078
22	0x3cf106db	0.029422214
23	0x3b4a3d93	0.0030859455
24	0x3cbdf46b	0.023187837
25	0x3d0e7a57	0.03478464
26	0x3cb1df29	0.021712856
27	0x3dbc5179	0.09195227
28	0xbc1230f3	-0.008922803
29	0xbc8b2f22	-0.016990248
30	0xbc87003b	-0.016479602
31	0x3d138024	0.036010876
32	0x3d199797	0.037498083
33	0x3bda0bbf	0.0066542323
34	0x3b335205	0.002736212
35	0x3c096d23	0.008387837
36	0xbc889174	-0.01667092
37	0xbcbb8718	-0.022891566
38	0x3c349d88	0.0110238865
39	0x3cecfa19	0.02892785
40	0xbc656c42	-0.014002861
41	0xbd2e8a0a	-0.042612113
42	0xbd7ca045	-0.061676282
43	0x3dcc02cd	0.09961472
44	0x3ac04edc	0.001467194
45	0x3d07aedc	0.033125743
46	0x3c70888a	0.014680991
47	0x3dd1d136	0.10244982
48	0xbd79514a	-0.06086854
49	0x3cfe69a2	0.031056229
50	0x3d536a4c	0.051615044
51	0xbd113031	-0.03544635
52	0xbd2fa6b1	-0.04288358
53	0xbdd70c72	-0.10500421
54	0xbc6e1002	-0.014530184
55	0x3d328816	0.043586813
56	0xbdead68c	-0.11466703
57	0xbbd88c27	-0.0066085043
58	0x3bd75c00	0.0065722466
59	0xbce04ebe	-0.027381297
60	0xbdcc277e	-0.0996847
61	0x3cdd068f	0.026980666
62	0x3b9cd1e7	0.0047857645
63	0x3bdfdf45	0.0068320357

act.linear.weight f4 [24, 64]
0	0xba95b466	-0.0011421561
1	0xbb199f71	-0.0023440982
2	0x3aac13c0	0.0013128445
3	0xba937bcd	-0.0011252105
4	0x3b2246d6	0.002476146
5	0xba51f09e	-0.0008008572
6	0x3a72e2e2	0.00092653756
7	0xba62bcfc	-0.00086493767
8	0xbb14d307	-0.002270879
9	0xba4733ef	-0.0007598986
10	0xba910fdc	-0.0011067349
11	0x39f7c23b	0.00047256224
12	0x3a396b02	0.00070731353
13	0xba0018a4	-0.0004886484
14	0xb8a8d7d8	-8.051068e-05
15	0xbac8a5a4	-0.0015308154
16	0x3a159b0a	0.00057070015
17	0xbabd29cd	-0.0014432013
18	0x3abe0e64	0.0014500138
19	0x3a65ef78	0.00087713404
20	0xbb422b45	-0.0029627841
21	0x3b1161e7	0.0022183598
22	0xba4a42e1	-0.0007715654
23	0x390a3a4f	0.00013182427
24	0x3ae3d274	0.0017381446
25	0x3a1de4be	0.000602316
26	0xbadf10eb	-0.0017018592
27	0xb84a2846	-4.819806e-05
28	0xba085185	-0.00052001356
29	0x396091f3	0.00021416675
30	0x3b0ec1d7	0.0021783018
31	0x39bd2aae	0.00036080688
32	0x3acbf91b	0.001556191
33	0xba5d6afc	-0.0008446423
34	0x3a05681c	0.0005089061
35	0xba807007	-0.0009799012
36	0xb98f5c74	-0.00027343968
37	0x38e36e80	0.00010844786
38	0x3aebfa74	0.0018003718
39	0x3a915a01	0.0011089445
40	0x3a3c3c1c	0.0007180588
41	0x3b009ac3	0.0019623495
42	0xba282421	-0.0006414075
43	0x3af2d6f2	0.0018527193
44	0xbadfbcea	-0.0017069851
45	0xbaa8930e	-0.0012861209
46	0xba588334	-0.0008259297
47	0x3a73918f	0.0009291404
48	0xbab0ef9b	-0.0013499142
49	0xba021647	-0.0004962426
50	0x3a83da70	0.0010059606
51	0xb9a0809d	-0.00030613402
52	0x39ced4cc	0.00039449928
53	0x3aa98206	0.0012932427
54	0x38eb1752	0.00011210017
55	0xba9baa12	-0.0011876246
56	0xbaa424c4	-0.0012523164
57	0xb920e62b	-0.00015344533
58	0x3ae85b21	0.0017727354
59	0xba7a9e4a	-0.000956033
60	0xbab1b255	-0.0013557175
61	0xba3a322f	-0.0007102815
62	0xba94ab70	-0.0011342596
63	0xbaa377ce	-0.0012471618
64	0x3c5f46e3	0.013627741
65	0x3e8c1748	0.27361512
66	0xbe721bbf	-0.23643397
67	0x3e74a539	0.23891152
68	0x3cd6061c	0.02612596
69	0xbe46759d	-0.19380803
70	0x3f26973a	0.65074503
71	0xbdd5d03d	-0.10440109
72	0x3eccc2b4	0.39992297
73	0xbe296e23	-0.1654592
74	0x3e858409	0.26077297
75	0xbd76ac94	-0.060223177
76	0x3e9afc9d	0.30270854
77	0xbd9f34a6	-0.07773714
78	0x3f5a041a	0.8516251
79	0x3cc199fb	0.023632994
80	0x3df1a21a	0.117984965
81	0xbdd67bea	-0.104728535
82	0x3dfa11ff	0.12210464
83	0xbee2f655	-0.4432856
84	0xbe835282	-0.25648886
85	0x3e5fa26b	0.21839301
86	0x3e6a8b66	0.22904739
87	0x3e62480f	0.220978
88	0xbe9cb72c	-0.306085
89	0x3e1c56d8	0.15267503
90	0xbdd7817c	-0.10522744
91	0x3e3d3c28	0.18479979
92	0x3d96b052	0.07357849
93	0xbe8946bd	-0.26811782
94	0x3e640bcc	0.22270125
95	0xbd0a27d2	-0.03372938
96	0x3e9d236c	0.30691087
97	0x3f29ff2f	0.66405004
98	0xbd10e674	-0.035376027
99	0xbead405e	-0.3383817
100	0x3f2145ba	0.6299702
101	0x3e34c437	0.17652975
102	0xbf3bfb3c	-0.7343023
103	0x3db5abce	0.0887066
104	0x3da7b516	0.08188836
105	0xbf0eb346	-0.557423
106	0xbe6dabf4	-0.23210126
107	0xbf428467	-0.7598328
108	0xbebd8575	-0.37015882
109	0xbea6ec97	-0.3260238
110	0xbe81b02c	-0.2532972
111	0xbef45bdf	-0.47726342
112	0x3e475db3	0.19469337
113	0xbe9884a2	-0.2978869
114	0xbf32d35a	-0.69853747
115	0x3eb629d0	0.35578775
116	0x3e8dec79	0.27719477
117	0x3e0bdf83	0.13659482
118	0xbe536f7f	-0.20648001
119	0xbed5dd2e	-0.4177031
120	0x3e844e3c	0.25840938
121	0xbdcd1f09	-0.10015685
122	0xbe95b4ca	-0.29239494
123	0x3e4e8b0d	0.20170231
124	0x3bdf8b83	0.006822051
125	0x3e78947e	0.24275395
126	0x3e630011	0.22167994
127	0xbd13d445	-0.036091108
128	0xbeccdc84	-0.4001199
129	0x3d45ac10	0.048259795
130	0xbe62b501	-0.2213936
131	0xbeb7994e	-0.3585915
132	0x3e98ba0d	0.29829445
133	0xbe318ea4	-0.1733957
134	0xbe485866	-0.19564971
135	0xbda61378	-0.08109182
136	0xbe5f943b	-0.21833889
137	0x3ee2725d	0.44227877
138	0xbebb72c0	-0.36610985
139	0xbe73d0a9	-0.23810066
140	0xbdd43058	-0.10360783
141	0xbe3517a7	-0.17684804
142	0x3f62a77c	0.8853681
143	0x3e07214a	0.13196293
144	0xbf044fc0	-0.5168419
145	0xbe9df5fa	-0.30851728
146	0x3c89246d	0.016741002
147	0xbd91684a	-0.0709997
148	0x3c30ad83	0.010783556
149	0xbc848ce6	-0.016180467
150	0xbddb6e21	-0.10714365
151	0xbe9bc471	-0.3042331
152	0x3e85fb7c	0.2616843
153	0x3e500622	0.2031484
154	0xbd9c0a95	-0.07619206
155	0xbe5dcaa2	-0.2165933
156	0xbe1be64c	-0.1522457
157	0xbebce3b8	-0.36892486
158	0x3dc46087	0.09588724
159	0xbea18243	-0.31544694
160	0x3f1ddcbe	0.6166495
161	0x3ea62b88	0.32455087
162	0xbf3c21ff	-0.73489374
163	0xbd369e84	-0.044584766
164	0x3b85b325	0.0040801936
165	0x3e401893	0.18759374
166	0xbe0b3f01	-0.13598253
167	0xbefff60d	-0.4999241
168	0x3c996d33	0.018728828
169	0x3d852366	0.06500892
170	0xbd590687	-0.05298474
171	0xbef7e650	-0.48417902
172	0x3e2745ab	0.1633517
173	0xbea10465	-0.31448665
174	0x3f7b5d13	0.98188895
175	0x3e38edad	0.18059416
176	0x3f1163b6	0.5679277
177	0xbe23c877	-0.1599444
178	0xbe997a32	-0.2997604
179	0x3e079605	0.13240822
180	0xbd76ba9c	-0.06023656
181	0x3eb9b1b0	0.36268377
182	0x3f7ae552	0.98006165
183	0xbea023c9	-0.31277302
184	0x3e7baccb	0.24577634
185	0xbe4f22aa	-0.20228067
186	0x3c79fc21	0.015257866
187	0xbecbf38a	-0.39834243
188	0x3e2107dd	0.15725656
189	0x3ed8776b	0.4227861
190	0x3e74fdf6	0.23925003
191	0x3ddb2fcb	0.10702475
192	0x3e22b503	0.15889363
193	0xbce140dd	-0.02749675
194	0x3da575ad	0.080790855
195	0xbdfa4d74	-0.12221804
196	0x3f752113	0.9575359
197	0x3e3e4a71	0.18583085
198	0xbb2bc292	-0.0026208502
199	0xbd1a5ed4	-0.03768809
200	0x3ec135db	0.377364
201	0x3cc15d55	0.023604074
202	0x3dca6798	0.0988304
203	0xbed61b32	-0.41817623
204	0x3df747d1	0.12074245
205	0x3eb2b13d	0.34900847
206	0x3efc7876	0.49310654
207	0x3f0e539f	0.55596346
208	0xbedc661e	-0.4304666
209	0x3e4a445a	0.19752637
210	0x3cf8cb0f	0.030370263
211	0x3c2fef29	0.010738173
212	0x3e11842e	0.14210579
213	0x3aaea3b8	0.0013323938
214	0x3e9b1fa4	0.30297577
215	0xbea67c69	-0.32516792
216	0xbe6cb6e5	-0.23116644
217	0x3de3e4d2	0.111276284
218	0xbe065f5f	-0.13122319
219	0x3db827d0	0.08991969
220	0xbe3a05d4	-0.18166286
221	0xbddeccf5	-0.10878936
222	0x3dd025e8	0.1016348
223	0x3f03ad9d	0.5143679
224	0xbe4f71d2	-0.20258263
225	0xbed896c0	-0.42302513
226	0xbe8a9445	-0.27066246
227	0xbe02d109	-0.12775053
228	0xbc2f3ccf	-0.01069565
229	0xbf227318	-0.6345687
230	0x3e564092	0.20923069
231	0xbdd3d434	-0.10343209
232	0xbcb1522a	-0.021645624
233	0xbd68d0de	-0.056839816
234	0xbeb934f0	-0.361732
235	0xbd1e9034	-0.03871174
236	0xbe9ee43f	-0.31033513
237	0xbe24b51a	-0.1608471
238	0xbde40cf2	-0.111352816
239	0x3d994c5b	0.07485267
240	0x3e99d6e1	0.30046752
241	0x3d814513	0.06312003
242	0x3d0fe480	0.035130024
243	0xbe728e74	-0.23687154
244	0xbe9d9a85	-0.30781952
245	0xbe5ae08e	-0.21374723
246	0x3da4a0eb	0.08038505
247	0xbee9f9a8	-0.45698285
248	0xbd805182	-0.062655464
249	0x3cf4d382	0.029886011
250	0x3e16ef57	0.14739738
251	0x3d365b54	0.04452069
252	0xbcb82a58	-0.022481129
253	0xbea8875c	-0.3291577
254	0xbe18299d	-0.14859624
255	0x3eedc892	0.46442086

act.linear.bias f4 [24]
0	0x00000000	0.0
1	0xbe2f0bb7	-0.17094313
2	0x3b06e0ac	0.0020580692
3	0x3d4e2997	0.050332632
4	0x3e3fed25	0.18742807
5	0xbdfb06a2	-0.122571245
6	0x3dbbc531	0.09168471
7	0xbdc79a0d	-0.0974618
8	0x3d387957	0.045037594
9	0xbe94cb05	-0.29061142
10	0x3e8c7202	0.2743073
11	0x3b9f21e3	0.0048563345
12	0xbf0a7af6	-0.54093874
13	0x3ecc90b5	0.39954153
14	0xbe8fb4e7	-0.28067705
15	0x3c2e30a1	0.010631711
16	0x3de70c3f	0.11281633
17	0xbe93493a	-0.28766805
18	0xbd8bc40d	-0.06824503
19	0x3d20b857	0.0392383
20	0x3e82d06b	0.25549635
21	0x3cba95c7	0.022776498
22	0xbcba91ce	-0.022774603
23	0x00000000	0.0
