models/critic_good256_2.pt (torch, 968794 bytes, 15 tensors)

base.feature_norm.weight f4 [415]
000000 19 27 7b 3f c7 62 80 3f 3e 38 74 3f 44 bc 82 3f
       0.98106533 1.0030144 0.9539832 1.0213704
000010 9b 39 7e 3f 98 01 81 3f 2f fc 83 3f 18 f4 83 3f
       0.9930665 1.0078611 1.0311335 1.0308867
000020 33 85 82 3f a3 45 83 3f 65 b3 80 3f 40 79 81 3f
       1.0196899 1.0255626 1.0054747 1.0115128
000030 1e 1d 7e 3f 1e 17 85 3f cc 1a 87 3f 21 71 8f 3f
       0.9926318 1.039768 1.0555053 1.1206399
000040 94 47 84 3f 31 e2 7c 3f 5a 4c 84 3f e4 8a 88 3f
       1.0334344 0.9878264 1.0335801 1.0667386
000050 fd d5 80 3f 2a a6 70 3f 47 15 84 3f 54 15 77 3f
       1.0065304 0.94003546 1.0318993 0.9651692
000060 e7 2f 7b 3f 5a 05 78 3f 82 ed 81 3f f0 34 74 3f
       0.9811997 0.96883166 1.0150607 0.95393276
000070 7d 7e 71 3f 5d ca 82 3f 6f 63 84 3f 37 a7 80 3f
       0.9433363 1.0218006 1.0342845 1.005103
000080 24 9f 83 3f 60 37 81 3f 1b a0 8d 3f 1e d6 77 3f
       1.0282941 1.0095024 1.1064485 0.9681109
000090 95 a0 7e 3f 24 02 77 3f e5 d7 72 3f e1 06 74 3f
       0.9946378 0.9648764 0.9486068 0.95322996
0000a0 ed a0 6a 3f 03 3f 78 3f 33 ab 69 3f 40 9c 7a 3f
       0.91651803 0.9697115 0.91276854 0.9789467
0000b0 f4 5e 5a 3f 18 2d 7a 3f ac 58 6b 3f 79 2d 81 3f
       0.85301137 0.9772506 0.9193218 1.0092002
0000c0 18 56 77 3f 02 19 83 3f f1 40 73 3f 18 02 76 3f
       0.96615744 1.0242007 0.9502097 0.96096945
0000d0 ac 77 5f 3f cd f8 75 3f 22 60 75 3f d2 bc 79 3f
       0.8729198 0.96082765 0.9584981 0.9755374
0000e0 35 4b 71 3f 8c 74 73 3f 6f 7c 80 3f 13 53 80 3f
       0.9425538 0.9509971 1.0037974 1.0025352
0000f0 3a 42 6d 3f 2b f1 73 3f 1e 5b 83 3f a5 bf 80 3f
       0.9267918 0.9528987 1.0262182 1.0058485
000100 34 0b 88 3f 24 f0 70 3f cb a3 81 3f 3f c9 74 3f
       1.0628419 0.94116426 1.0128111 0.9561958
000110 bf d7 69 3f 8d 5b 7a 3f 9f a2 7b 3f f0 71 7f 3f
       0.9134483 0.97795945 0.98295015 0.9978323
000120 17 6c 72 3f fc 30 77 3f ea 86 81 3f 3e 7c 72 3f
       0.9469618 0.9655912 1.0119298 0.9472083
000130 15 da 83 3f 25 6a 83 3f 2f c3 81 3f 04 68 89 3f
       1.0300928 1.0266768 1.013769 1.0734868
000140 d3 b4 9a 3f 70 c1 90 3f f0 84 91 3f e2 b8 80 3f
       1.2086433 1.1309032 1.1368694 1.0056422
000150 29 12 81 3f b8 4b 82 3f dc 94 80 3f bc af 82 3f
       1.0083667 1.0179358 1.0045428 1.020988
000160 b6 c9 6a 3f 32 68 6e 3f e9 96 7f 3f 6c 10 78 3f
       0.91714036 0.9312774 0.99839646 0.9690006
000170 c5 8f 73 3f b6 e5 76 3f 06 a3 6a 3f c3 21 68 3f
       0.9514125 0.9644426 0.91655004 0.90676516
000180 ac c0 5b 3f 29 77 59 3f 41 82 76 3f 2f a5 70 3f
       0.8584087 0.8494745 0.962925 0.9400205
000190 5f 47 82 3f 1b 54 84 3f 62 68 85 3f 77 32 76 3f
       1.0178031 1.0338167 1.042248 0.96170753
0001a0 f0 83 60 3f f7 50 65 3f 04 bc 79 3f e3 fd 70 3f
       0.8770132 0.8957667 0.97552514 0.941374
0001b0 72 83 6d 3f 91 b6 56 3f ba 5a 70 3f 10 d9 68 3f
       0.92778695 0.83872324 0.9388844 0.9095621
0001c0 2e fa 65 3f 60 e3 6f 3f 43 33 6c 3f e1 73 71 3f
       0.8983487 0.9370632 0.9226572 0.9431744
0001d0 47 a8 83 3f 9b 65 84 3f 2a 1c 5f 3f bb 98 67 3f
       1.0285729 1.0343508 0.8715235 0.90467423
0001e0 9d 7e 5e 3f 5f 2d 71 3f e3 44 6b 3f 63 c7 68 3f
       0.86911947 0.94209856 0.9190199 0.9092924
0001f0 96 77 4b 3f 51 28 6c 3f 45 1d 78 3f 97 a7 5c 3f
       0.7947935 0.9224902 0.9691966 0.8619322
000200 3b 60 80 3f f1 86 56 3f d7 c2 73 3f 3e 60 6a 3f
       1.0029367 0.83799654 0.95219177 0.91553104
000210 b3 95 81 3f b6 ac 7a 3f d1 8b 73 3f 53 41 5b 3f
       1.012381 0.97919786 0.9513522 0.8564655
000220 d2 05 7c 3f ea d7 56 3f 06 e6 55 3f eb c9 69 3f
       0.9844638 0.8392321 0.8355411 0.9132373
000230 ff 61 70 3f b9 31 6b 3f 64 6e 67 3f 3a 63 6c 3f
       0.9389953 0.91872746 0.9040282 0.9233891
000240 1f cc 6f 3f f2 2f 7a 3f c9 88 72 3f f1 1a 84 3f
       0.9367084 0.9772941 0.9473997 1.0320722
000250 b2 2d 72 3f d2 06 7c 3f 0d fa 7a 3f 21 5c 81 3f
       0.94600976 0.98447907 0.980378 1.010624
000260 5a d7 81 3f e8 6e 61 3f 22 db 82 3f e1 f5 80 3f
       1.0143845 0.88059855 1.0223124 1.0075036
000270 08 7b 85 3f ba 4b 80 3f 36 92 72 3f 73 2f 80 3f
       1.0428171 1.002311 0.9475435 1.001448
000280 48 8c 7d 3f 2c 9b 7e 3f 54 eb 7d 3f 4b fc 95 3f
       0.9904218 0.99455523 0.9918721 1.1717619
000290 dd d3 95 3f ae a5 a9 3f 04 9f 82 3f 39 01 7e 3f
       1.170528 1.3253686 1.0204778 0.99220616
0002a0 06 50 82 3f d5 55 7f 3f a0 78 82 3f 32 67 81 3f
       1.0180671 0.99740344 1.0193062 1.0109618
0002b0 60 78 7a 3f 65 e0 79 3f 23 e4 81 3f ff e3 82 3f
       0.9783993 0.97608024 1.0147747 1.0225829
0002c0 69 0f 73 3f c2 ff 54 3f 00 ce 5e 3f ac 46 76 3f
       0.9494539 0.83202755 0.8703308 0.96201587
0002d0 e3 af 6c 3f eb bd 7a 3f e9 d4 7f 3f f5 82 85 3f
       0.9245588 0.9794604 0.9993425 1.043059
0002e0 c3 1b 87 3f 3a 90 82 3f f3 45 5e 3f e5 79 59 3f
       1.0555347 1.0200264 0.86825484 0.8495162
0002f0 d3 72 4b 3f 76 93 70 3f 31 d4 70 3f 1c b0 6b 3f
       0.7947208 0.9397501 0.9407378 0.92065597
000300 33 97 58 3f 5d c7 5c 3f 9b 26 66 3f c8 6d 73 3f
       0.8460571 0.86241704 0.8990266 0.9508939
000310 fb 0b 75 3f 25 0f 7a 3f 0f 9a 78 3f ed 5f 7e 3f
       0.95721406 0.9767936 0.97110075 0.9936512
000320 8c a9 79 3f 1f 00 72 3f 81 24 6e 3f 5b 2e 65 3f
       0.97524333 0.94531435 0.9302445 0.8952386
000330 60 1f 51 3f 5e 26 6c 3f 8b 6b 78 3f 2e e1 6c 3f
       0.816885 0.92246044 0.970391 0.92531097
000340 7f 14 7d 3f 36 92 52 3f ca ed 6f 3f 39 19 66 3f
       0.988594 0.8225435 0.9372221 0.89882237
000350 6b b1 70 3f 11 2b 80 3f 33 b2 64 3f 33 ff 85 3f
       0.9402072 1.0013143 0.8933441 1.0468506
000360 7b 7c 66 3f 4d e7 7a 3f 66 cc 71 3f 89 72 55 3f
       0.9003369 0.98009187 0.9445251 0.8337789
000370 fb d2 61 3f 36 d1 83 3f 84 2b 6f 3f 7f a2 78 3f
       0.88212556 1.0298221 0.93425775 0.9712295
000380 12 90 80 3f 0c df 75 3f 69 a6 73 3f fb 51 56 3f
       1.0043967 0.9604347 0.95175797 0.8371884
000390 c1 ec 6f 3f e7 1e 69 3f 45 81 7e 3f c6 f6 6f 3f
       0.9372063 0.9106278 0.99416 0.9373592
0003a0 9d 44 81 3f 91 06 83 3f be 8d 77 3f 74 35 71 3f
       1.0099064 1.0236379 0.96700656 0.9422219
0003b0 63 43 81 3f a8 53 83 3f 9b 62 83 3f 23 71 85 3f
       1.009869 1.0259905 1.0264467 1.0425152
0003c0 9d 89 87 3f 81 29 6d 3f 1a d4 62 3f 04 c2 80 3f
       1.0588871 0.92641455 0.8860489 1.0059209
0003d0 17 31 81 3f ab 70 7c 3f 06 30 97 3f 1f 5e 95 3f
       1.0093106 0.9860942 1.181153 1.1669348
0003e0 10 25 9e 3f 34 96 81 3f e8 fc 80 3f ed 54 83 3f
       1.235506 1.0123963 1.0077181 1.0260292
0003f0 e0 cf 80 3f 95 09 80 3f 5b 06 79 3f c8 cb 6f 3f
       1.0063438 1.0002924 0.9727532 0.9367032

base.feature_norm.bias f4 [415]
000000 7c eb a9 bc b3 1e 65 39 8e 6e 4e 3d 2f 75 a0 bb
       -0.02074217 0.00021850578 0.050398402 -0.004896782
000010 07 06 52 3c 53 f0 e0 bb 65 ba 95 b9 bf 27 a5 bc
       0.01281882 -0.0068645864 -0.0002855837 -0.020160554
000020 f5 ba f3 bc a7 4f ff ba 94 08 ba bc 52 7e 7f bd
       -0.029752234 -0.0019478694 -0.022709168 -0.062376328
000030 b2 50 a9 bc 6d 5a a0 bc 4a 8e b1 bb 3c ad dc bb
       -0.020668361 -0.019574368 -0.0054185735 -0.0067345183
000040 ec 64 e1 bc 54 ea 0d bd 68 22 b0 bc fe 3f 3a bc
       -0.027513944 -0.0346473 -0.021500781 -0.011367796
000050 45 9c 00 bd 50 e4 ef bc 09 f5 f0 3c 37 3c 1e bd
       -0.03139903 -0.029283673 0.029413717 -0.038631644
000060 70 54 be bc 73 7f 4e bc 0d a6 47 bc cb fa 3a bc
       -0.023233622 -0.012603628 -0.012185586 -0.011412333
000070 73 40 bf bc 18 e5 0a bd 85 65 cd bb b4 39 1c bc
       -0.023346161 -0.033909887 -0.0062682056 -0.009535242
000080 39 6a 17 bc 82 fa 2f 3b 8d 6e 40 3c b8 53 a6 bc
       -0.009241634 0.0026852195 0.011745107 -0.020303592
000090 83 d3 a8 bc 3d d1 b0 bc 78 e7 14 3d 71 8d c3 bb
       -0.02060867 -0.021584148 0.03635356 -0.005967789
0000a0 c4 83 34 bd d7 36 7b bd cc f5 9a bc f4 fe bc bb
       -0.044070974 -0.061331596 -0.018916033 -0.0057676975
0000b0 b6 2d 4f bc 1a 56 db ba c8 3f 45 bd b9 8a a4 bc
       -0.012645176 -0.0016734034 -0.04815653 -0.02008568
0000c0 75 ba 37 3b 1c 17 9c bc 80 ae 03 3c 32 3c df bc
       0.002803472 -0.019053988 0.0080372095 -0.027250383
0000d0 29 f2 8e 3c 68 bf 3c 3c ae 07 dd bb be b1 90 bc
       0.017449455 0.011520244 -0.0067453003 -0.01766288
0000e0 4d 4d f8 bc 30 7a 91 bc df 15 c5 bb 24 46 34 bc
       -0.030310297 -0.017758459 -0.00601457 -0.011003051
0000f0 c5 e7 23 bd 28 08 60 bd 5c 73 d1 bc a3 be 70 3b
       -0.040015955 -0.05469528 -0.025567703 0.0036734722
000100 04 6a 9e bc 55 39 e3 3c 84 b9 0e 3b 9b 84 49 3d
       -0.019337662 0.027737299 0.0021778056 0.049198728
000110 6b b3 9a 3c 5c 58 dc bb 9b 23 2e 3d 71 6d 18 3d
       0.018884381 -0.0067244004 0.042514425 0.037213746
000120 61 92 11 3d 51 6e a0 3c 21 92 ec 3c ec ea 91 bc
       0.03553999 0.019583853 0.028878273 -0.017812215
000130 4d 07 f1 3c 89 a8 78 bc 8b 21 91 bc ec 43 5d bc
       0.029422427 -0.015176901 -0.01771619 -0.013504963
000140 3a 73 21 3d 8e 5a e8 3c cc 31 04 bd e8 41 ca 3b
       0.03941653 0.028363492 -0.032274053 0.0061724074
000150 75 6c 62 bb c6 0a 32 bc de 53 88 3a 6e 1c 0f bc
       -0.0034549509 -0.010866826 0.0010400971 -0.0087348055
000160 3f 5e ea bc 0e 07 46 3b 5e b0 40 bc 8a 61 bb bc
       -0.028609393 0.0030216607 -0.011760799 -0.022873659
000170 92 d1 ac bc 37 68 c6 bc ab 22 2f bd 68 15 89 bc
       -0.021096025 -0.024219615 -0.04275767 -0.01673384
000180 a6 b0 19 bc 6b 11 43 bd 4c cc a8 bb 0a 7a 9f bc
       -0.009380495 -0.047624033 -0.005151307 -0.019467372
000190 06 b7 57 b8 13 b8 aa bb bb fb 3e 3c 0e 7c 56 bc
       -5.143045e-05 -0.0052099316 0.011656697 -0.0130911
0001a0 5a 17 0e 3c 4a 69 b9 bc ea 60 50 bd fb b9 95 bc
       0.00867256 -0.022633214 -0.050873674 -0.018277159
0001b0 33 51 a6 bc 06 bd bc bc 2d 6e fb ba a9 29 e1 bc
       -0.02030239 -0.023039352 -0.0019182615 -0.027485685
0001c0 ee 9a 38 bd 44 24 19 bc d5 2f b4 bc 0f e1 13 3d
       -0.045069627 -0.009347025 -0.021995464 0.036103304
0001d0 96 f8 74 3c ad 6f 88 3c d8 9e ac 3c 7d 86 93 bc
       0.014951846 0.016654814 0.021071836 -0.018008465
0001e0 c9 d0 c3 bc f2 ae c4 ba a2 d6 aa bc 29 87 87 bd
       -0.023903267 -0.0015005751 -0.020854298 -0.06617577
0001f0 4d f6 8e bb 98 15 60 bc 00 dd 90 3c cd 2d 84 bc
       -0.0043628574 -0.013677023 0.017683506 -0.01613512
000200 ef 2e ed bb 80 d0 3e bd fb 24 de 3c 58 3c 96 bb
       -0.007238261 -0.04658556 0.027117243 -0.0045848303
000210 29 1b ca bb 05 10 51 3b 24 54 bb 3c 00 aa 91 3c
       -0.0061677885 0.0031900418 0.02286727 0.017781258
000220 7e 61 94 bc a4 98 1d 3d b7 6e 8f 3b cd 3c 75 bc
       -0.018112894 0.038475648 0.004377212 -0.014968109
000230 6e 17 c7 bb 01 26 d5 bc fe 8c 3f bd 1e d3 14 bd
       -0.006075791 -0.026019098 -0.04676532 -0.03633415
000240 ee 1d f7 bc 29 0f 0b bd 87 c4 b7 bc c2 97 a5 bc
       -0.030165639 -0.033950005 -0.022432579 -0.020213965
000250 03 80 fe 3c f2 66 70 3c 0d be bf 3c 5b 5a 49 bc
       0.0310669 0.014672982 0.023406053 -0.012289609
000260 2f 11 02 3c 68 01 fd 3c 63 9c f5 3b 6d 95 b2 3c
       0.007938667 0.03088446 0.0074954494 0.021799767
000270 8c 67 0f bc b9 e5 64 ba f5 c9 3d bc 1c f0 c7 3c
       -0.008752715 -0.0008731741 -0.011583795 0.024406485
000280 70 69 7e bb ab f3 8a 3c fc ef 57 bc 45 be 18 3d
       -0.003882017 0.016961893 -0.013179775 0.03729083
000290 e5 6e df 3c 22 ab 0a bd 8a 13 6c bc e7 f2 b7 3c
       0.027274558 -0.03385461 -0.014408955 0.022454692
0002a0 70 d6 ab bb d9 62 bb 3b 3b 86 2a bc c3 63 46 3c
       -0.005244069 0.0057185707 -0.01040798 0.012108746
0002b0 f4 ca 0f bc 4e 6e ca 3c f3 b3 12 3c 18 39 89 bc
       -0.008776415 0.0247108 0.008954036 -0.016750857
0002c0 2c b0 8b bc 33 1e a5 3c ed 79 e1 3c c4 36 e7 3c
       -0.017051779 0.020156002 0.027523959 0.028224356
0002d0 4b 83 bb bc 00 2c 0d 3c d8 96 e6 b9 99 26 25 3d
       -0.022889754 0.008616447 -0.00043981406 0.040320013
0002e0 c3 23 f0 3c 9b b5 64 3c 39 a3 12 3c 8e fe c9 3c
       0.029313928 0.013959314 0.008950048 0.024657514
0002f0 7f ea bf 3c 8e 7b 15 3d a7 df f1 3a b4 25 b1 3c
       0.023427246 0.036494784 0.0018453494 0.021624424
000300 73 ec a3 3c 64 a7 f6 3c 3b 48 4e 3c a6 6e 5f 3b
       0.020010209 0.030109115 0.012590463 0.0034093051
000310 78 2f 89 bc 69 9d d8 bb aa f5 02 3d 79 e6 f4 3c
       -0.016746268 -0.0066105616 0.031972565 0.029895054
000320 23 07 43 bb 26 70 0a 3d 1b da a8 3b 81 e8 b0 3c
       -0.0029758892 0.03379836 0.0051529533 0.021595242
000330 45 71 67 3d 68 5a a3 3c 4f 14 04 3d 13 86 2c 3d
       0.056504507 0.01994057 0.03224593 0.04212005
000340 85 9c d1 bb 66 46 b3 39 18 9f ec 3c d4 0c 10 3d
       -0.0063968324 0.0003419399 0.028884456 0.035168484
000350 11 3f 4c 3a f1 58 0a 3d d2 8c 1a 3d f2 96 f2 3c
       0.000779138 0.033776227 0.037731953 0.029612992
000360 af 41 69 3d 5c 14 9b 3a d7 b3 68 3d 20 00 81 3d
       0.056947406 0.0011831629 0.056812134 0.06298852
000370 61 0f 48 3d 9d 31 1a 3c bd e3 91 3d 67 a3 21 3d
       0.04884279 0.009411243 0.07123516 0.039462473
000380 b8 8b d5 3c bc 75 45 3c 42 15 20 3c 2e f9 d1 3b
       0.0260676 0.012051996 0.009770693 0.0064078784
000390 14 7e c3 3c 79 c9 33 3d 14 70 36 3c cf 39 d9 3c
       0.02386383 0.04389331 0.01113512 0.026516823
0003a0 47 63 ad 3c 95 78 34 ba 7c 51 0e 3d ab fe 81 3d
       0.021165503 -0.0006884423 0.03474568 0.06347402
0003b0 b9 d3 e8 3c 1b 9e 54 3d d2 ec 2f 3d f6 01 3c 3d
       0.02842127 0.051908594 0.04295046 0.045900308
0003c0 65 42 32 3d 4f d5 14 3c 9e 95 88 3d 08 54 49 3d
       0.04352035 0.00908406 0.06669162 0.049152404
0003d0 e5 5d e1 3c 98 2f 5d 3d 55 8a 2e 3d 55 3d 0c 3d
       0.027510593 0.054000467 0.042612392 0.03423818
0003e0 f0 c3 0a bd d4 a4 45 bb 7a 65 7d ba 0a 16 86 bc
       -0.033878267 -0.003015806 -0.0009666305 -0.01636793
0003f0 77 82 81 bb 60 93 a7 3b fd 3c 44 3d 22 39 83 3d
       -0.00395232 0.005114004 0.047909725 0.064073816

base.mlp.fc1.0.weight f4 [256, 415]
000000 3f 5e 31 b9 01 0c d6 bd de 9a 02 bc 39 bf fd bd
       -0.00016915145 -0.10451508 -0.0079714935 -0.123899885
000010 83 79 6e bd b3 cc be 3c 6c 3c 17 3e 07 15 d9 3d
       -0.05822135 0.023290968 0.14769143 0.10599714
000020 4c d7 70 be 18 e8 75 bd df 9b d1 bd 7e 8a 1d bb
       -0.23519629 -0.060035795 -0.10234808 -0.0024038847
000030 3a 3e 13 bd 70 cf 8f 3d 20 9d 07 3e 9f 7d a0 3c
       -0.035948016 0.070219874 0.13243532 0.01959115
000040 89 a8 88 bd 87 8c ec bd 64 c9 22 3d 4c 8f fa bc
       -0.066727705 -0.11550241 0.039742842 -0.030585907
000050 16 56 05 3e 21 9e d9 3d c3 f0 e6 3d 77 ed a3 3b
       0.1302112 0.10625864 0.112763904 0.0050026732
000060 49 6f 61 be 1e dd f1 3c 7f 3f 03 bc 7b 92 0e 3e
       -0.22015108 0.029524382 -0.008010744 0.13923065
000070 7c 9c 9e 3d d5 52 bf 3d e7 a3 ab 3d 69 18 aa bd
       0.07744691 0.09341971 0.08380871 -0.08305437
000080 d6 c8 90 3b c2 9d c9 3d 68 c1 d9 bc a0 2e 2b be
       0.0044184728 0.09844543 -0.026581481 -0.16717005
000090 9b aa 88 bc e0 9b 1c bd 6a fb 05 3c 01 48 c6 3a
       -0.016682914 -0.03823459 0.008177618 0.001512766
0000a0 fe d8 74 3b 3b c5 48 3c fa e6 05 bd 9f 5a 0c 3d
       0.0037360783 0.012254055 -0.03269098 0.03426611
0000b0 a9 f6 94 bc b2 49 46 3c e9 e9 d3 bc 62 a3 6f 3c
       -0.018184023 0.012102531 -0.025868373 0.014626356
0000c0 6b bf 53 3d b3 09 de bb 29 62 2a 3e cf 69 c5 bd
       0.051696222 -0.0067760586 0.16639008 -0.09639322
0000d0 bc ac 82 3d 6a c4 8a bc cf 34 3d 3e 3f 76 37 3d
       0.06380603 -0.01693936 0.18477176 0.044790503
0000e0 50 9d fc bd 4a 13 7d bd e6 fd 8b 3c a9 35 dd bd
       -0.123346925 -0.061785974 0.017088842 -0.108012505
0000f0 86 08 1b 3d 9c 93 48 bd ab e2 5d bd 37 bc ed 3d
       0.037849925 -0.048968896 -0.054171246 0.11608165
000100 b2 97 1c 3d 8b cf bc 3c a7 79 ac bd 7e 5e 8d 3c
       0.038230605 0.023048183 -0.08421641 0.017256971
000110 09 c8 ff bc b1 0b d1 bc b4 0d b2 bd b6 a0 21 be
       -0.031223314 -0.02551827 -0.0869402 -0.15783963
000120 85 f1 96 3d c5 5f 2e 3d 7f b9 13 3d ca 97 69 bd
       0.07370285 0.0425718 0.036065575 -0.057029523
000130 ad a6 7a 3e 78 04 ae bc 8d c6 a4 bb 26 7c 82 bd
       0.24477644 -0.021242365 -0.005028552 -0.06371336
000140 25 65 83 3e 13 40 f5 3d 28 c9 0f be 57 9c 2d be
       0.25663105 0.11975112 -0.14041579 -0.1695417
000150 17 07 b8 bd 9f 0d db bd 43 8e c4 3d 8b 66 29 bd
       -0.08985727 -0.106959574 0.09597447 -0.04135756
000160 b8 2b 8a bc 5d 6a 8a bc a4 84 35 bd a0 98 23 3c
       -0.01686655 -0.016896421 -0.04431595 0.009985119
000170 8c 96 5f 3d 0a 35 b8 bc 38 cb 61 bc 96 0c 16 3c
       0.054586932 -0.022486228 -0.013781361 0.009158274
000180 e6 de 2d bd 3e ca ff 3c 26 c4 e9 bd 5c 98 e3 bc
       -0.0424489 0.031224366 -0.114143655 -0.027782612
000190 77 5b b0 bd 43 48 85 3d 60 ac ca bc 70 15 60 3c
       -0.086111955 0.065079235 -0.024740398 0.013676986
0001a0 45 42 8e bd 40 bd f3 3d f0 c1 f2 bd b0 7e f6 bc
       -0.06946234 0.11901331 -0.11853397 -0.030089706
0001b0 88 56 a6 bc 58 f8 c7 bd 2e 77 ca 3c 2b d8 58 bd
       -0.020304933 -0.09764165 0.024715032 -0.05294053
0001c0 b4 91 16 be 52 17 71 be 56 e9 04 be cf f5 99 3d
       -0.14704019 -0.23544052 -0.12979636 0.075175874
0001d0 f1 66 93 3d 71 44 e7 3d d3 e0 fa 3c 82 b3 d4 3d
       0.07197369 0.11292351 0.030624783 0.10385801
0001e0 1d 4b a7 3b 07 a1 43 bd ba 50 74 bd 96 4d bb bd
       0.0051053897 -0.04776099 -0.0596473 -0.09145658
0001f0 80 96 a5 bd c1 1e a7 bd 31 2b 68 3d fe 87 63 bd
       -0.08085346 -0.08160163 0.056681816 -0.055549614
000200 d0 59 17 be 91 a4 c8 bd 83 5f 3c bd 8c cb 51 3d
       -0.14780354 -0.097970136 -0.045989525 0.051219508
000210 bd c3 58 3d b7 1b 93 bb 42 b0 65 bd fd 32 98 3d
       0.052921046 -0.004489388 -0.056076296 0.074316
000220 df de 05 be 3b ab 1c bd b2 c4 31 3c 6e dc 0c 3d
       -0.130733 -0.038249236 0.0108501185 0.034389906
000230 dd 09 27 bd 26 9a a1 bc c3 b5 50 3c 86 4a 21 3d
       -0.04078089 -0.019726824 0.012738648 0.03937771
000240 5b b3 f4 3d df 66 43 3d 66 b3 ee bc a7 fe 2c bd
       0.11948272 0.047705527 -0.029138278 -0.042235043
000250 14 fe 45 bd 54 e2 f6 3b d5 3d 93 3d a5 2e a6 bd
       -0.04833801 0.0075343046 0.07189528 -0.081143655
000260 38 d0 a8 3c e8 ad cd 3d b4 9f 27 3d 85 a2 90 3c
       0.020607099 0.100429356 0.04092379 0.01765562
000270 0d 34 72 bd be 57 46 be fe d0 31 bd 46 b6 0d 3d
       -0.05913167 -0.19369408 -0.0434122 0.034597658
000280 50 16 4e be af c2 dc bd d3 e9 40 bd 18 b7 31 bd
       -0.20125699 -0.107793204 -0.047097992 -0.043387502
000290 04 cc ba bc 5b 7d b7 be 00 d8 d6 bd 65 e0 8f 3d
       -0.02280236 -0.35837826 -0.104904175 0.07025222
0002a0 21 c5 db bc a3 c4 fc 3d dd de 8d bd 5b db f2 bd
       -0.026827397 0.12342193 -0.069272734 -0.11858245
0002b0 1a 75 94 bd 84 e4 c6 bc 41 1e ed bc cd e6 00 be
       -0.07248898 -0.024278887 -0.02894509 -0.12588044
0002c0 69 18 fa 3b a4 82 36 be 44 c2 c6 3c de 23 81 3d
       0.0076323044 -0.17823273 0.024262555 0.06305669
0002d0 b3 27 f3 bd 6a ec d4 bd 93 e2 11 bd 77 2c 84 bd
       -0.118728064 -0.10396655 -0.03561647 -0.064537935
0002e0 d8 98 4a 3c b9 11 24 bc 78 a4 08 3d 00 e7 dd bd
       0.012365542 -0.010013991 0.033359975 -0.108350754
0002f0 ff ae c0 3d 67 f3 ad bd f0 86 a4 bd 0b 78 44 3c
       0.09408378 -0.08493691 -0.0803355 0.011991511
000300 85 59 98 bd 7a 7d e2 bd cd 41 66 bc 96 56 58 3d
       -0.074389495 -0.11059089 -0.014053774 0.05281695
000310 fa 7f 21 be 73 2e 81 bd d0 40 7b bd 43 12 28 3b
       -0.15771475 -0.063076876 -0.061341107 0.002564565
000320 a2 5d 97 bc 9c ef 68 3d d5 7c 7d 3c ac 42 a7 3c
       -0.018477265 0.056869134 0.015471657 0.020417534
000330 ea 7d d2 bd 77 0a 07 bc 3c 03 2f 3d 3a 8f 71 3d
       -0.102779225 -0.008242241 0.042727694 0.058974482
000340 0d 07 44 3d 04 82 7b 3c b0 83 e5 bd f3 5e 63 3d
       0.047858287 0.015350822 -0.11206758 0.055510473
000350 c4 f6 8f bc 2f fc b8 bd 1f 53 4c bc ec 85 2a bb
       -0.017573722 -0.09032475 -0.0124709895 -0.0026019765
000360 2a 17 d3 bb cb 84 e8 bc ef 8e 62 3d 2c 94 bc b9
       -0.0064419704 -0.028383633 0.055312093 -0.0003596855
000370 3e e4 02 be dc 55 4f be 0a 5f 88 3d 83 21 af 3d
       -0.1278238 -0.20247597 0.06658752 0.08551314
000380 4a 78 83 3d e6 1a 09 be 27 4a 5c be e7 2c d3 bd
       0.06419428 -0.13389167 -0.21512662 -0.10311299
000390 3b 73 63 bd 7a 94 f1 bd e5 f7 b1 bd 26 89 98 bc
       -0.055529814 -0.11795898 -0.0868986 -0.018620085
0003a0 5f b7 58 bd 19 52 dd bd 07 5f f9 bb 48 04 49 bc
       -0.05290925 -0.108066745 -0.007610205 -0.012269087
0003b0 c7 77 61 3d 04 93 96 3c c8 19 09 3e 59 9d cb bd
       0.05504587 0.01838065 0.13388741 -0.09942121
0003c0 ea 86 b5 bd 92 af f3 3d 87 d0 04 3e 42 d6 02 be
       -0.088636234 0.11898722 0.12970172 -0.12777045
0003d0 3b dc e1 bd d6 30 83 3d e9 7b b6 3d ac 1a 30 3e
       -0.11028334 0.06405799 0.08910353 0.17197675
0003e0 a5 67 38 be d2 39 cb bd 60 3c f1 bc 72 c3 72 bd
       -0.18008287 -0.09923138 -0.029447734 -0.059268422
0003f0 3c 5e f2 bb f0 f3 2f 3d 5f fe a2 bd 78 ef 8c bc
       -0.0073964875 0.042957246 -0.07958674 -0.017204031

base.mlp.fc1.0.bias f4 [256]
000000 63 7f 0b 3d 49 c1 01 bd fe 2d 5d 3c 72 4a cd bc
       0.034057032 -0.03167847 0.013499735 -0.025059912
000010 d4 8b c1 3b ba 0b 06 3c 7a 7a 00 bc d2 9d 7f 3c
       0.0059065614 0.008181507 -0.007841701 0.015601592
000020 bf 7b c1 bc 1d b5 98 3c 88 44 41 bc e3 ab cb bc
       -0.023618577 0.018641049 -0.011796124 -0.024862235
000030 0c 2e b8 bc 3f 64 5d bc a8 e6 b6 3c e7 a2 73 bc
       -0.022482894 -0.01351267 0.022326782 -0.014870382
000040 ec 36 82 bb f4 c0 9a 3b a5 f8 0a bd 9f 25 14 3d
       -0.0039738324 0.004722709 -0.033928532 0.03616869
000050 ac 38 25 bc d7 55 0b bc 13 bb 4f bc 10 df ef 3c
       -0.010084312 -0.0085043525 -0.012678879 0.02928117
000060 82 4b 3b 3c 8e 63 c1 bc df f3 17 bd 81 6c 76 3c
       0.011431577 -0.023607042 -0.037097808 0.015040518
000070 6f 27 0b 3c 59 6c db ba c7 9a bf 3c 1a 90 ad 3c
       0.008493288 -0.0016740664 0.023389233 0.021186877
000080 21 c8 b3 bc 33 8d db ba e2 0c 1d bd a8 ac 07 bb
       -0.021946015 -0.0016750455 -0.038342364 -0.0020702276
000090 b0 df ea 3c ec 2a 87 bb 2b 92 7c 3c f3 13 ff bc
       0.028671116 -0.0041249897 0.015415709 -0.031137442
0000a0 b9 5c 0b 3d 86 35 aa bc ae 33 64 3c fb 36 f9 3c
       0.034023974 -0.020777475 0.013928337 0.030421725
0000b0 9c b9 0e bd 8a cc 76 bc ab 60 a4 bb 65 76 64 3c
       -0.03484498 -0.015063414 -0.0050164065 0.013944243
0000c0 ac 46 40 bb 12 da 0f 3c 90 ed a5 3c 17 0e 9b bc
       -0.0029338999 0.008780019 0.02025488 -0.018927617
0000d0 e3 41 9a 3c 83 70 b3 bb 50 ef 65 bc 5f fc af 3c
       0.018830245 -0.005476059 -0.014034107 0.021482645
0000e0 d5 02 1a bd 7a 06 a5 3b 6f 83 a8 bc c4 71 b3 bb
       -0.037600357 0.0050361725 -0.020570485 -0.0054762084
0000f0 72 3d 05 bc 41 db b5 bc 88 46 a1 bc a1 33 52 3c
       -0.0081323255 -0.022199275 -0.019686952 0.012829692
000100 48 0f 00 bd 35 9c bb bc 97 21 c3 3b 94 61 16 b8
       -0.031264573 -0.022901634 0.005954932 -3.5853664e-05
000110 f1 a3 33 bd 05 3f c7 3c 15 c1 74 3c 76 f9 19 bb
       -0.04385752 0.024322042 0.0149386125 -0.0023494638
000120 78 44 57 3c 72 dc 32 bd aa cf 4f 3c 9c df 48 bc
       0.013138883 -0.043667264 0.012683788 -0.012260344
000130 51 d8 83 3c f0 b8 40 bd de 42 e5 bc 0f 58 b6 3c
       0.016094359 -0.04705137 -0.027985986 0.022258786
000140 e9 82 14 bd d1 a2 44 bd fd 65 00 bd b9 e5 97 3c
       -0.03625766 -0.048006836 -0.031347264 0.018542157
000150 b9 ea 0d bd be 5a 17 bd 50 e5 2a bd cf c1 12 bd
       -0.034647677 -0.036951773 -0.041722596 -0.03582936
000160 92 5e 1b bc e4 94 9b 3c a9 69 64 bb 97 77 87 bb
       -0.009482997 0.018991895 -0.0034853017 -0.0041341293
000170 9f 75 82 3c 7d 81 d3 3b 92 45 03 bd d3 1a 93 bb
       0.015925227 0.006454645 -0.03204877 -0.0044892817
000180 85 82 30 bd f9 94 13 bd 14 12 0c bd 4d cd f6 bb
       -0.043093223 -0.036030743 -0.03419693 -0.007531798
000190 3e e7 7d b9 a5 af 59 bd a7 d4 84 bc 94 eb 38 bd
       -0.00024214105 -0.053146023 -0.016214682 -0.04514654
0001a0 ee 28 1e bd 18 59 f5 bc ba 00 0a bd 82 b4 8e bc
       -0.038613252 -0.02994971 -0.0336921 -0.017420057
0001b0 34 8b 00 bd 8a 93 f8 bb a3 eb b4 bb 05 66 03 bd
       -0.031382754 -0.0075859474 -0.005521254 -0.032079715
0001c0 bb 6a ec 3c c8 a2 f9 3c 71 59 d5 3b ce 41 0e bb
       0.028859487 0.030473128 0.0065109064 -0.0021706703
0001d0 03 48 4f bc 73 02 6d bc e2 23 05 3c 1e a7 88 3c
       -0.012651446 -0.014465916 0.008126231 0.01668125
0001e0 ba c7 bd 3c 8f e8 9e bc e9 b9 e2 3b 64 43 44 3c
       0.023166526 -0.019398002 0.006919135 0.011978958
0001f0 04 58 fd bc 98 45 52 bd fa 34 70 bc 0e 10 40 bd
       -0.030925758 -0.0513359 -0.014661068 -0.04689031
000200 16 47 11 bd 39 b3 0d 3c 05 b0 03 bc 91 34 0b bd
       -0.035468183 0.008648687 -0.008037572 -0.033985678
000210 87 12 05 bd 59 9e 1c bc a5 2d fa 3c 76 12 ca 3c
       -0.032488372 -0.009559237 0.030539343 0.024667006
000220 32 bc eb bc 37 c5 dc bc 39 25 7f bb 4d ec 21 bc
       -0.028776262 -0.026949508 -0.0038932099 -0.009882999
000230 a3 0d ef bc 1a 5a 98 3c f3 92 64 3c 18 29 fe 3c
       -0.029181307 0.018597651 0.013951051 0.031025454
000240 6e da 06 bd 40 df 57 3c a4 e8 77 bb bd a9 be bc
       -0.032923155 0.013175786 -0.0037827874 -0.023274297
000250 df 89 d3 bc 1a bc c7 3c f4 9b 38 bd 93 b2 94 bc
       -0.025822578 0.024381686 -0.045070603 -0.018151557
000260 06 ca 7e 3c 93 ba 28 bd f0 d8 1e bd a7 cb 2f bd
       0.015551096 -0.041193556 -0.038781106 -0.042918827
000270 53 cc 44 bd e9 38 82 3c fd ec 1e bd c1 90 8f 3b
       -0.04804642 0.015896278 -0.03880023 0.0043812697
000280 9e 1d 30 bd 6e a9 8a bc ee f8 07 3b 2a 14 2d 3b
       -0.042996995 -0.016926493 0.002074774 0.0026409724
000290 5d 4e 25 bd b5 45 cf 3b 60 8e 5e bc 55 ab 2c bb
       -0.040357936 0.0063254484 -0.0135837495 -0.002634724
0002a0 4b b7 3c 3c 57 71 7c 3c 05 d7 ce bc 23 23 08 bd
       0.01151831 0.015407882 -0.025249014 -0.033236634
0002b0 84 4e 97 3b 3d 85 08 ba a3 62 6e bd 58 70 4a 3c
       0.004617514 -0.00052078423 -0.058199536 0.012355886
0002c0 be 8f 66 bc bb da 8f bc ba 89 7f bd 51 ae be bc
       -0.014072357 -0.017560354 -0.062387206 -0.02327648
0002d0 b1 ec a3 3c 32 77 9d 3c f7 b8 e3 bc da 4a 1f bd
       0.020010324 0.019221876 -0.027798159 -0.038889743
0002e0 cb 05 c7 3b e0 5d 57 bc 0d 7a dc bc 8c 9e 82 bc
       0.0060736886 -0.01314494 -0.026913667 -0.015944742
0002f0 87 5c d9 bc 09 3d c1 3c 1e e2 12 ba b6 5d 55 bd
       -0.026533378 0.023588674 -0.0005603152 -0.052091323
000300 b6 87 22 bc 6a 1c 2e bd dd 10 0d bd ce ab e2 bc
       -0.009920051 -0.042507567 -0.03443991 -0.027669813
000310 e0 26 d3 3b 11 0b 28 bd 88 0f 9f bc d4 4d 0b 3c
       0.0064438432 -0.04102618 -0.019416586 0.008502442
000320 ab 0b a0 bc 1a f4 0d 3d 5e 88 3c 3b 7d dc ed bc
       -0.019536814 0.03465662 0.0028767805 -0.029035801
000330 1a eb 74 bb aa 13 88 3c 4f e2 61 bc 1e 1b 31 3c
       -0.0037371577 0.016610939 -0.013786866 0.010809688
000340 f3 3f 70 3c c6 a2 26 bd 08 c3 24 bd 99 fb 43 3c
       0.014663684 -0.040682577 -0.04022506 0.011961841
000350 a5 53 05 3d e3 f0 9a bc 9b 94 0c bc cc f2 a0 3c
       0.032550473 -0.018913692 -0.008580352 0.019647025
000360 03 91 89 3c 69 64 32 bb f2 5b 50 bc 5a d1 5d bd
       0.01679278 -0.0027220494 -0.012717234 -0.05415473
000370 d3 24 9c bc c6 4b b9 3c 92 79 9f bb cf 08 a7 3c
       -0.019060528 0.02261914 -0.004866787 0.020389942
000380 de 30 e0 bc 9c 4e 88 bb 96 bb 5f 3c c1 75 1e bd
       -0.027367052 -0.0041597616 0.013655564 -0.038686518
000390 e3 0a b3 bc 3f 30 5f bd be da e1 3b 2e 91 8f bc
       -0.021855777 -0.05448937 0.006892531 -0.017525282
0003a0 1b 37 ea bc de 2c d7 bc df fa 99 bc ef 34 52 3c
       -0.02859073 -0.026266512 -0.018796382 0.012830003
0003b0 4b 7d 37 3c e7 d8 93 3b f0 08 b1 3b b8 53 92 3c
       0.011199306 0.0045119408 0.0054026768 0.017862186
0003c0 35 7b 0b bd e6 58 c7 3c 52 57 fe bc 82 89 94 3c
       -0.034053046 0.024334382 -0.031047497 0.018131975
0003d0 45 35 7a bd cb 07 41 bd c8 51 d5 3c 09 56 38 bc
       -0.061085958 -0.047126573 0.026039973 -0.011250981
0003e0 8e 63 9c 3b 38 34 52 3b 70 fd 2f bd 0a 2e e0 3b
       0.00477261 0.0032074582 -0.042966306 0.006841426
0003f0 02 02 ea 3a 75 fd b6 bc 77 75 21 bd a7 c0 55 bd
       0.0017853382 -0.022337655 -0.039418664 -0.05218568

base.mlp.fc1.2.weight f4 [256]
000000 da 2c 8c 3f ac 2e 83 3f 25 a1 7c 3f d0 b4 83 3f
       1.0951188 1.0248618 0.9868339 1.0289555
000010 18 50 7b 3f ab 88 85 3f ad 3a 7d 3f 35 4a 7d 3f
       0.9816909 1.0432333 0.9891766 0.98941356
000020 56 7c 86 3f 9c 62 7e 3f db 37 77 3f fc f6 86 3f
       1.0506694 0.99369216 0.96569604 1.0544124
000030 d9 84 85 3f be 18 86 3f 40 cf 78 3f f0 6d 84 3f
       1.0431167 1.0476301 0.9719124 1.034605
000040 b3 f6 7e 3f 85 ea 75 3f 03 da 8a 3f d0 ce 86 3f
       0.99595183 0.96060973 1.0847782 1.0531864
000050 22 e8 8a 3f 50 26 86 3f 21 18 7d 3f 98 ca 7a 3f
       1.0852091 1.0480442 0.9886494 0.97965384
000060 3b 48 82 3f ac 23 84 3f 38 82 83 3f e4 4b 7d 3f
       1.0178293 1.0323386 1.0274115 0.98943925
000070 75 a5 78 3f 31 ab 6d 3f 0c cf 7a 3f 67 32 86 3f
       0.9712747 0.9283934 0.9797218 1.0484132
000080 2a 7d 89 3f 39 d5 7d 3f 24 81 88 3f 54 6e 75 3f
       1.0741322 0.99153477 1.066441 0.9587147
000090 05 8b 81 3f 09 80 80 3f ec bd 7d 3f e0 9d 84 3f
       1.012055 1.0039073 0.9911792 1.036068
0000a0 29 f1 86 3f 38 6a 73 3f fe 6b 7e 3f 92 95 79 3f
       1.0542346 0.9508395 0.99383533 0.9749385
0000b0 1d fe 82 3f 33 6d 86 3f 42 75 82 3f 33 ea 7b 3f
       1.0233799 1.0502075 1.0192034 0.98404235
0000c0 c2 72 82 3f da 1c 7a 3f 95 2e 7b 3f 6a f6 7d 3f
       1.0191271 0.97700274 0.98117954 0.99204123
0000d0 b8 60 7e 3f e9 e6 6e 3f 44 72 7b 3f 39 d1 78 3f
       0.9936633 0.9332109 0.9822123 0.9719425
0000e0 92 7d 70 3f cb 89 83 3f 97 b5 7a 3f 51 4e 81 3f
       0.93941605 1.0276426 0.97933334 1.0102025
0000f0 62 ec 7e 3f e2 a7 81 3f 8d c6 85 3f d4 2d 7c 3f
       0.9957944 1.0129359 1.0451218 0.9850743
000100 34 cd 7d 3f 14 00 77 3f bd d9 83 3f df 52 80 3f
       0.9914124 0.96484494 1.0300823 1.002529
000110 9a 77 82 3f b0 8a 7e 3f 3b 3a 7e 3f 0e 09 80 3f
       1.019275 0.9943037 0.993076 1.0002763
000120 d0 e5 7e 3f 9b d5 81 3f 9a 65 86 3f 61 81 85 3f
       0.99569416 1.0143312 1.0499756 1.0430108
000130 e2 c2 7f 3f 6b 64 83 3f 04 d5 82 3f 0a 7a 7a 3f
       0.9990674 1.026502 1.0221257 0.97842467
000140 76 68 81 3f fd c7 81 3f 21 2f 89 3f b4 e0 80 3f
       1.0110004 1.0139157 1.0717508 1.0068574
000150 2e be 81 3f 68 db 7d 3f 41 61 7d 3f 27 bc 7b 3f
       1.0136163 0.9916291 0.9897652 0.9833397
000160 08 68 82 3f 20 6e 82 3f 17 64 7a 3f e0 de 88 3f
       1.0187998 1.0189857 0.97808975 1.0693016
000170 cb f0 7c 3f 8a ee 73 3f b0 52 86 3f 4c 8d 8a 3f
       0.9880492 0.95285857 1.0493984 1.082437
000180 a4 8e 85 3f b7 8c 80 3f 3c e5 83 3f 3b d0 84 3f
       1.0434155 1.0042943 1.0304332 1.0376047
000190 2f cf 79 3f f6 83 80 3f 05 ab 7e 3f a0 76 78 3f
       0.9758176 1.0040271 0.99479705 0.9705601
0001a0 0c 6a 83 3f 3f 5f 84 3f c7 54 82 3f 9b bc 83 3f
       1.0266738 1.0341567 1.0182122 1.0291933
0001b0 8d 55 85 3f d0 9a 7b 3f f5 3f 7d 3f 14 98 82 3f
       1.0416733 0.982831 0.98925716 1.020266
0001c0 a6 94 7d 3f 65 b2 8a 3f 7e 7d 81 3f 40 78 81 3f
       0.99054945 1.0835692 1.0116422 1.0114822
0001d0 40 66 7b 3f 2d e7 83 3f cb 43 6e 3f 14 2f 78 3f
       0.98202896 1.0304924 0.93072194 0.96946836
0001e0 9b 3b 81 3f 4d bc 81 3f f5 5b 79 3f 0a 08 80 3f
       1.0096315 1.013559 0.9740594 1.0002453
0001f0 93 f2 77 3f f7 34 84 3f bb f5 70 3f d9 15 83 3f
       0.96854514 1.0328664 0.94124955 1.0241042
000200 cf 54 7d 3f b2 c2 7c 3f 6a b7 87 3f e5 e8 7b 3f
       0.9895753 0.9873458 1.0602849 0.98402244
000210 83 eb 7a 3f 3f cf 7c 3f 93 44 80 3f 58 45 7b 3f
       0.9801561 0.9875373 1.0020927 0.98152685
000220 43 94 75 3f 02 f7 82 3f 93 6d 82 3f dd 9b 85 3f
       0.95929354 1.0231631 1.0189689 1.0438191
000230 e1 63 7f 3f 02 45 79 3f 4d 6b 7c 3f 51 15 7d 3f
       0.9976178 0.9737092 0.9860123 0.9886065
000240 1f 65 85 3f 1e 88 7b 3f d7 e3 8a 3f b3 d6 7e 3f
       1.0421485 0.98254573 1.0850781 0.99546355
000250 ba 06 84 3f 07 68 80 3f 6e 0d 7c 3f a5 1d 7d 3f
       1.0314553 1.0031747 0.9845799 0.9887336
000260 d4 0d 7b 3f 9e 13 79 3f ed 54 84 3f 96 1c 67 3f
       0.98067975 0.9729556 1.0338417 0.90277994
000270 4a b7 84 3f b4 99 88 3f 04 63 83 3f ac 41 82 3f
       1.0368435 1.0671906 1.0264592 1.0176291
000280 3c aa 82 3f 45 be 81 3f d4 be 71 3f c1 53 78 3f
       1.0208201 1.0136191 0.94431806 0.970028
000290 50 2e 83 3f 99 63 83 3f 5f 75 80 3f 1e 3e 7f 3f
       1.0248508 1.026477 1.0035819 0.9970416
0002a0 b7 b9 7b 3f 24 13 75 3f be 4c 85 3f 27 77 80 3f
       0.98330253 0.9573233 1.0414045 1.0036362
0002b0 dc b1 75 3f 14 61 6d 3f 6e 98 80 3f 65 ea 78 3f
       0.95974517 0.92726254 1.0046518 0.9723266
0002c0 8b 84 7e 3f 82 e3 75 3f 0c 05 81 3f 0f 58 83 3f
       0.99420995 0.96050274 1.0079665 1.0261248
0002d0 24 b7 7f 3f a7 02 74 3f 2c 27 8d 3f a3 ac 81 3f
       0.99888825 0.9531655 1.1027579 1.013081
0002e0 ed 33 7a 3f 7d e5 78 3f b2 2a 79 3f 44 40 82 3f
       0.9773548 0.9722517 0.9733077 1.0175862
0002f0 9a d2 84 3f 36 8e 7c 3f d2 d7 71 3f ae 82 87 3f
       1.037677 0.98654497 0.9446994 1.0586755
000300 5a ba 84 3f 7c 7f 83 3f 12 29 83 3f 0f c1 7f 3f
       1.036937 1.027328 1.0246909 0.9990396
000310 b4 13 7d 3f fe e4 85 3f 17 f6 78 3f 95 ec 86 3f
       0.9885819 1.0460508 0.97250503 1.0540949
000320 55 10 75 3f 73 ea 85 3f 34 42 7e 3f 52 c7 83 3f
       0.95728046 1.0462173 0.9931977 1.0295203
000330 c6 28 7a 3f 21 f1 77 3f f9 cc 7c 3f f7 e8 81 3f
       0.97718465 0.9685231 0.98750263 1.014922
000340 fc 91 81 3f a6 72 80 3f a6 56 84 3f 54 59 81 3f
       1.0122676 1.0034988 1.0338943 1.0105386
000350 94 0f 81 3f 96 fb 79 3f 92 4a 74 3f 78 0f 7d 3f
       1.0082879 0.97649515 0.95426285 0.9885173
000360 ac 1b 6d 3f 21 eb 7d 3f c0 3b 85 3f df 79 79 3f
       0.9262035 0.99186903 1.0408859 0.97451586
000370 ea 5f 84 3f 29 35 7f 3f 12 3b 77 3f 67 aa 7e 3f
       1.0341771 0.9969049 0.9657451 0.99478763
000380 71 66 7b 3f c4 7b 7a 3f 1c c5 7d 3f f0 2a 83 3f
       0.9820319 0.978451 0.9912889 1.0247478
000390 5b 32 83 3f a3 b1 85 3f ca 58 79 3f 3b c6 83 3f
       1.0249742 1.0444835 0.97401106 1.029487
0003a0 87 ae 82 3f db c0 82 3f 68 63 7c 3f f3 4b 86 3f
       1.0209512 1.0215105 0.9858918 1.0491928
0003b0 6b 4a 83 3f 14 81 6e 3f a7 d9 82 3f c8 41 82 3f
       1.0257086 0.9316571 1.0222672 1.0176325
0003c0 3a 4f 79 3f 4e 67 81 3f 70 fd 7b 3f 9b f5 80 3f
       0.97386515 1.0109651 0.9843359 1.0074953
0003d0 79 49 84 3f 88 8c 76 3f 34 41 85 3f 98 ab 78 3f
       1.0334922 0.96308184 1.0410523 0.9713683
0003e0 5e a7 6e 3f 37 a0 81 3f 5c 70 80 3f e7 bc 78 3f
       0.9322413 1.0127019 1.0034289 0.9716324
0003f0 b8 38 78 3f 1f 57 76 3f fd 74 8d 3f 64 e6 82 3f
       0.96961546 0.96226686 1.1051327 1.022656

base.mlp.fc1.2.bias f4 [256]
000000 85 5c af 3c 24 bb b0 bc 6b 75 68 3c 09 60 06 3b
       0.021406421 -0.02157361 0.014188151 0.0020504019
000010 99 c8 81 3c 8d ac 94 3c f4 0c bf 3b be 26 0e 3d
       0.015842723 0.018148685 0.0058304016 0.034704916
000020 76 59 bf bc 9c 81 42 3c ce eb e4 3b 41 6e ae bc
       -0.023358088 0.011871722 0.006986118 -0.021292808
000030 63 10 cc 3a 13 d4 3e 3c ef 87 90 3c 38 ca 71 bc
       0.0015568848 0.011647242 0.017642943 -0.014757685
000040 c5 98 c0 3b 23 45 92 3c 42 9f 6c bc d5 f1 e8 3c
       0.0058775865 0.017855233 -0.014442267 0.028435627
000050 27 af ec bb 1a 36 d6 bc 3b f4 18 bc e4 71 ad 3c
       -0.007223028 -0.026148845 -0.009335573 0.021172471
000060 c9 3f e0 3b 76 99 1e bc 09 6c 2a bc f7 bb 6d 3c
       0.0068435413 -0.009680143 -0.010401734 0.014510146
000070 f3 88 48 3c 59 1a 36 3c 4c 27 3c 3c 35 a4 ce 3c
       0.0122396825 0.01111468 0.0114839785 0.025224784
000080 3d b5 9a ba a8 07 2c 3d 96 b5 1c bd a5 e9 ea 3c
       -0.0011803281 0.04199949 -0.03825911 0.028675864
000090 c1 6a 1a 3d 8d d9 ab 3c 43 a9 b2 3c 79 e5 70 bc
       0.037699465 0.02097776 0.021809226 -0.014703148
0000a0 2a 13 16 3d 3a 7e cb 3b 7e 64 1d 3c d7 1b 8d 3c
       0.03663937 0.0062101157 0.009606479 0.01722519
0000b0 cc 61 53 bc 66 e7 1a 3c 49 93 f3 3c e8 3a 3a 3c
       -0.012901735 0.009454584 0.029733317 0.011366583
0000c0 00 58 e9 3b e8 89 0c 3c 53 22 fb 3c 01 c1 1f 3d
       0.007121086 0.008577801 0.030656016 0.039002422
0000d0 8a 87 ce 3c 7f 8f 45 3b 9f 64 bc 3b 47 f3 02 3d
       0.025211114 0.0030145345 0.0057492997 0.03197029
0000e0 22 5d b5 3c ff 77 e8 3b 4f 43 b1 3c 25 d5 84 bc
       0.022139136 0.007094383 0.02163854 -0.016214916
0000f0 ef 86 52 3c a8 fc 64 bc f4 f9 9b bc 4e 7f 33 3c
       0.0128495535 -0.013976254 -0.019040085 0.010955645
000100 e5 d5 34 bc 4a 44 f6 3b f5 70 2d 3d a9 4d 2a 3b
       -0.011037325 0.007515465 0.042344052 0.002598623
000110 13 88 86 bc 8d 80 e5 3c 64 ff d6 3c 7b ba 85 3c
       -0.016422307 0.0280154 0.026244827 0.016324272
000120 50 a3 75 3c 06 27 1c bc 3e bf 19 3c fd 24 48 3b
       0.01499255 -0.009530788 0.009383975 0.0030539625
000130 ac 41 da 3c 33 8e 53 bc fb e1 59 3c 12 47 7a 3c
       0.026642643 -0.012912321 0.013298507 0.015275734
000140 4d b6 06 bd 88 0e 0c bc 7a f3 ff b9 93 f9 d9 3c
       -0.0328887 -0.008548386 -0.00048818794 0.026608264
000150 fd 3a a2 bc d5 3c ac 3b 88 0d e5 bb 10 07 c2 3a
       -0.019803518 0.005256275 -0.0069901384 0.001480313
000160 73 05 ba bb 25 dc aa 3c 33 96 e6 3c 02 dc 8a bc
       -0.005676919 0.020856926 0.028147792 -0.016950611
000170 39 50 56 3c 4b 27 34 3c 5b 21 a9 bc d0 72 67 bc
       0.01308065 0.010995696 -0.020645788 -0.0141264945
000180 15 f6 b4 bc a3 3a 18 3c b8 ba cd bc 10 00 09 bc
       -0.022089997 0.009291324 -0.025113449 -0.008361831
000190 f3 f7 d1 39 00 e9 07 bc 1e 12 be ba e8 4a b8 ba
       0.00040048323 -0.008295298 -0.0014501249 -0.001406041
0001a0 a9 fd f9 bc d9 23 07 bd ef 77 77 bc 89 01 a5 3c
       -0.030516462 -0.03299317 -0.015104278 0.020142334
0001b0 a5 d6 d0 bb aa 61 64 ba 16 a0 bc 3c 8d 50 15 3c
       -0.006373244 -0.0008712063 0.023025554 0.009113443
0001c0 e0 43 8d 3c fd 60 e7 3c 3d f4 f6 3b 90 2f a1 3c
       0.01724428 0.02824449 0.0075364397 0.019676
0001d0 b4 ed f5 3b bd 86 b8 bb b8 b7 f0 3c 14 b2 e4 3c
       0.007505143 -0.0056312964 0.029384479 0.027916946
0001e0 82 58 b4 3c 86 6c 2c 3c 35 c5 92 3c 16 03 f4 3c
       0.02201486 0.010523921 0.017916301 0.029786628
0001f0 0c c1 e5 3b 33 2b 96 bc 04 0b 3f 3c de 1e 8d 37
       0.0070115384 -0.018331146 0.011660341 1.6822883e-05
000200 81 38 3c bc f6 ce 12 3c fd 1c b4 bb de 9a 42 3b
       -0.011488081 0.008960476 -0.0054966197 0.0029694359
000210 93 24 c6 3a 66 85 00 3d 99 a6 da 3c b4 fe 8a 3c
       0.0015117101 0.03137722 0.026690768 0.016967155
000220 cb 67 81 3c ce 6f 74 bc c4 54 53 bc 54 65 2f bc
       0.015796563 -0.014919234 -0.012898628 -0.010705311
000230 35 ed a5 3b fc 29 11 3d f0 84 ea 3c 12 53 85 3c
       0.0050636777 0.03544043 0.028627843 0.016274963
000240 09 3f 9a bc 31 a7 54 3c be f5 b3 bb a2 6b 88 3c
       -0.018828886 0.012979315 -0.0054919412 0.016652886
000250 90 1c 7d bb 62 64 41 3c a2 02 0f 3c e5 9b 7e 3b
       -0.003862176 0.011803718 0.008728655 0.0038850245
000260 a2 82 f2 3c 2a b6 c4 3c e8 2f f3 b9 2c 9b e9 3c
       0.029603306 0.024012644 -0.00046384265 0.028516375
000270 71 25 12 bb 3e 04 a8 3c 50 4a 74 bc 15 32 64 3a
       -0.002230015 0.020509835 -0.014910296 0.00087049726
000280 f9 ff 76 bc 9b 49 dd 3c 00 c5 d8 3c 71 14 39 3d
       -0.015075677 0.027012637 0.026461124 0.04518551
000290 11 a9 72 bc 75 46 25 3c f9 6a 42 3d a4 43 77 3c
       -0.014810816 0.010087599 0.0474653 0.01509181
0002a0 7a 7b 8f 3c a3 75 d7 3c 6d b1 95 bc 8a 3a 8f 3b
       0.017514933 0.02630121 -0.01827308 0.004370992
0002b0 63 25 52 3c cc 58 31 3d b2 16 99 bc bc fd 13 3d
       0.0128262965 0.043297574 -0.01868758 0.03613065
0002c0 05 af b9 bc ae 3d ab 3c b3 17 20 bb 38 4d 5f bc
       -0.022666464 0.020903435 -0.0024428188 -0.01362925
0002d0 ef fc f3 3b dd 4e 20 3d 78 0b 94 bc f1 0e 36 bc
       0.0074459235 0.03913771 -0.018071875 -0.011111961
0002e0 84 24 ed 3c 43 a1 80 3d 48 4c a1 bb 40 e8 fa 3b
       0.028948076 0.06280758 -0.0049224235 0.007657081
0002f0 13 7c 82 bc e1 0c 11 3d f1 48 ac 3c 3e ed d8 bc
       -0.015928304 0.035412673 0.021030875 -0.026480313
000300 f1 0f af bb ad 26 5b bc 62 c6 a7 bc 74 f5 37 3a
       -0.0053424765 -0.01337592 -0.020480338 0.00070174714
000310 b8 7a 29 3c 4d 30 cf bc 04 ed c7 3c 9b 43 95 3b
       0.0103442 -0.025291586 0.02440501 0.0045551783
000320 9d e8 4f 3c c6 31 9f 3c d4 6f cf 3b 68 f9 8d bc
       0.012689737 0.019432914 0.0063304696 -0.01733084
000330 04 07 8c 3b 61 44 60 3c ff 4d a9 bc 28 28 70 3a
       0.0042732973 0.013688178 -0.020667074 0.0009161257
000340 3c 0d d2 3b 66 3d e7 bb d4 0a d3 bc 16 32 33 3c
       0.006410269 -0.00705688 -0.025762 0.010937234
000350 f9 5b dc 3c 28 6f cb bb 2f a4 76 3b f5 79 a9 3c
       0.026899325 -0.006208319 0.0037634482 0.020688036
000360 eb 39 d9 3c 2a af 96 bc 41 c1 21 bc 38 c4 76 3c
       0.026516875 -0.018394072 -0.0098727355 0.015061431
000370 cd 38 8e bc 9c 74 f9 3c b0 1a d6 3b 76 50 06 3d
       -0.01736107 0.030451111 0.006533943 0.032791577
000380 97 3c 9f 3c 9d 51 7f 3c 56 a3 81 3c 37 54 89 bc
       0.019438071 0.015583423 0.015824955 -0.01676379
000390 65 84 a7 ba e7 a3 65 bc 6b 30 f4 ba ed eb 66 bc
       -0.0012780546 -0.014016128 -0.0018630152 -0.014094335
0003a0 4b 4b de bc ff 2f b2 bb 40 b0 3c ba 3e ae 73 3c
       -0.027135512 -0.0054378505 -0.0007197894 0.014873086
0003b0 5f 11 35 3c 18 0c bb 3c 46 60 f1 bb 82 34 fc 3a
       0.011051505 0.022832915 -0.007366213 0.0019241723
0003c0 ee bd 00 bc 5d 5f 07 3d 67 b9 4a 3c 98 35 6f 3c
       -0.007857783 0.03304993 0.012373305 0.01460018
0003d0 d0 63 ba bc 68 df 21 bb e8 f6 ea 3c c7 b9 87 3c
       -0.022752672 -0.002469981 0.028682187 0.016568078
0003e0 4a b2 0a 3c fe c4 38 3a 4d 01 f6 bb f1 49 10 3d
       0.008465359 0.0007048397 -0.0075074793 0.035226766
0003f0 9d c4 8f 3c 62 1b d3 bb 9f 48 8c bc ea d0 f5 bb
       0.017549807 -0.0064424733 -0.017124472 -0.007501711

base.mlp.fc2.0.0.weight f4 [256, 256]
000000 40 eb 8e bd bf 05 0c 3e 81 86 12 3e d7 c4 61 bd
       -0.06978464 0.13674067 0.14309122 -0.05511936
000010 d3 b9 a0 bd 27 4c 6b bd 1c 6c 5a 3e 99 89 5c 3c
       -0.07847943 -0.05744567 0.21330303 0.01346054
000020 77 d2 d3 bc d5 7b 4a bc d9 31 e8 3c 52 43 1c 3e
       -0.025857193 -0.012358625 0.028344082 0.15260056
000030 cc d3 12 3e 49 aa 2c 3e 3a f8 15 be 1c 21 6a 3d
       0.14338607 0.16861834 -0.14645472 0.05716048
000040 45 36 fb 3b 7f aa 05 3e b0 11 45 bd b3 e9 88 be
       0.0076663815 0.1305332 -0.04811257 -0.26740798
000050 1d 96 a2 bc b5 18 cb 3d 77 c2 97 3d 82 ea 79 3c
       -0.01984697 0.09916822 0.07410138 0.015253665
000060 71 27 b4 bd 1d d6 75 3d 8c fb 15 bd ec 9e 08 bd
       -0.08796585 0.060018647 -0.036616847 -0.033354685
000070 cc cf 17 be f7 09 5e 3d f4 19 2c bd 50 89 a7 bd
       -0.14825362 0.054208722 -0.04201694 -0.08180487
000080 9c fa 15 3d 62 6a 00 be 64 63 b5 3d 12 38 6b 3d
       0.036615953 -0.12540582 0.08856848 0.05742652
000090 97 e4 71 3c 0a 0b a2 bd ce 0f a1 be 53 6b 98 3d
       0.014763973 -0.07912262 -0.3145737 0.074423455
0000a0 ea f9 0e bc 9f 6e e1 bd 7d 11 83 bd 20 2c 6d 3d
       -0.008726576 -0.110074274 -0.0639982 0.05790341
0000b0 59 0e 8b bc d2 e5 c9 bd 34 46 26 bd 2f 4c b8 39
       -0.016974615 -0.09858288 -0.040594295 0.00035151976
0000c0 04 7c 12 3c 8e 08 4b ba de 08 3d bc 7b 77 08 3e
       0.0089407 -0.000774511 -0.011537759 0.13326828
0000d0 20 c9 cf bc f2 98 3e bc 25 66 a9 bc 77 a3 0a bd
       -0.025364459 -0.011633145 -0.02067859 -0.0338473
0000e0 36 6d 58 bd 82 8c 4f 3e cd ed 8b bd dc 02 8f 3d
       -0.052838527 0.20268443 -0.06832466 0.06982967
0000f0 7f 64 e8 bd 3e d8 82 bd f3 a7 86 3a 23 41 e0 3d
       -0.11347293 -0.06388901 0.0010273441 0.10949924
000100 36 54 a4 3c 1e dc c3 3d 79 c2 ec bd 7d b8 07 3d
       0.020059686 0.095634684 -0.1156053 0.033134926
000110 32 9b 4f 3c d5 a5 8c 3d c2 25 a0 bc 36 b4 b5 3d
       0.012671279 0.068675674 -0.019549254 0.08872263
000120 06 5d 80 3d dd cf 84 bd 8d df 44 bd e9 a6 23 3e
       0.06267743 -0.06484959 -0.048064757 0.1598164
000130 c1 20 19 3e b9 2e e2 bd b5 e9 a3 3d 85 ee d1 3d
       0.14953901 -0.11044068 0.080035605 0.10250572
000140 6f fa ea bc 9f 69 e0 bd b2 c3 71 3d 22 85 68 bc
       -0.02868387 -0.109576456 0.05902452 -0.014191898
000150 c5 c7 ac 3b de 52 81 3d b1 ab b2 bd 6b 5f 32 bd
       0.005272838 0.06314634 -0.08724154 -0.04354803
000160 39 f9 55 3e ed 7c 5a 3d 56 fd 99 b9 a9 74 3c be
       0.20895852 0.053341795 -0.00029371184 -0.18403877
000170 0a bd bc 3c 59 04 21 be 88 78 fb 3d af e3 ff 3b
       0.02303936 -0.15724315 0.12278849 0.0078091244
000180 5e 0a b9 bd 0a 2f 03 3d 37 88 85 bc a0 44 00 3e
       -0.090351805 0.03202728 -0.016300304 0.12526178
000190 72 21 98 3c 38 90 4b 3c 36 45 3b 3b 80 d6 20 3d
       0.018570635 0.012424521 0.0028575188 0.039267063
0001a0 03 46 85 3c a1 b7 0c bd 85 0d 21 bd 24 f2 0e be
       0.016268736 -0.03435481 -0.039319534 -0.13959557
0001b0 53 bc be 3c 8a 54 3b bd 9e 11 0c be 16 80 1e bd
       0.02328316 -0.04573492 -0.13678595 -0.03869637
0001c0 6b 35 58 be 1c 84 0e bd 8c 0d 29 3e d0 a0 28 be
       -0.21114127 -0.034793958 0.16509074 -0.16467595
0001d0 e0 ab 0b 3d b3 f1 53 bd b0 f4 04 3d 0a 76 9c 3a
       0.03409946 -0.051744174 0.032459915 0.0011937034
0001e0 30 5e f2 bc 55 2b 5c bd 0f 13 e9 bc d7 8a 04 3d
       -0.029585928 -0.053752262 -0.02845147 0.03235897
0001f0 9c 6b d7 bd 9b 19 4f 3d 61 12 94 3c 0b c8 33 bd
       -0.10518572 0.05056153 0.01807517 -0.043891948
000200 64 46 7f 3e 8a a2 e1 bb 1c 23 66 bd 83 9d a0 bc
       0.24929196 -0.0068858312 -0.056185827 -0.019606357
000210 b5 48 a6 bd cd 05 51 3c fd 74 b2 bd db e2 02 3e
       -0.081193365 0.012757731 -0.0871372 0.12781851
000220 ea 74 58 3d e5 e8 57 bd 07 11 4f bd 92 1a 92 bc
       0.052845873 -0.05271234 -0.050553348 -0.017834935
000230 8a 01 99 3d a6 ec 18 3d 95 26 c8 bc 44 a7 4b bb
       0.07470997 0.03733506 -0.02443246 -0.003107504
000240 88 b0 a1 3d 09 b7 da bd ef 71 da bd 59 f9 0f bb
       0.07894999 -0.106794424 -0.10666262 -0.002196869
000250 30 74 01 3d 9d 2f 99 3d 85 22 b0 bc 37 02 42 3d
       0.031604946 0.07479785 -0.021500835 0.047365393
000260 e0 da ac bd c5 63 4d 3d 52 36 80 bd 8b ed 0f 3d
       -0.084401846 0.050143976 -0.06260361 0.035138648
000270 15 51 78 bc f3 14 77 be 82 39 74 3e f1 5b bf 3c
       -0.01515605 -0.24129085 0.23850062 0.02335927
000280 11 9d 33 3d 49 f0 11 bd 6e 84 cb 3d 4d e8 c5 bd
       0.043850962 -0.035629544 0.09937368 -0.096634485
000290 d8 dd 0a 3c a0 12 28 bd a2 31 4e bc ad 88 bb 3d
       0.008475743 -0.041033387 -0.012585076 0.09156928
0002a0 78 94 db 3d 66 81 64 bd cd 61 e6 3c 3d 98 09 bd
       0.107216775 -0.055787466 0.028122807 -0.03359245
0002b0 26 cc 20 bd 42 72 11 3e ad e0 dc 3c 00 4b 2d bd
       -0.03925719 0.14203742 0.026962603 -0.042307854
0002c0 69 d0 df b9 fb 2d 52 3c 59 30 7f 3e c0 4b b7 bd
       -0.00042689152 0.012828345 0.24920787 -0.08949995
0002d0 72 e4 52 bd 84 54 12 3e 71 fd b1 3d a7 d1 77 3d
       -0.051487394 0.14290053 0.08690918 0.060502674
0002e0 5c 54 11 3e 4d d1 4e bd 72 c3 c4 3d 8f 82 5b 3c
       0.14192337 -0.050492574 0.09607591 0.013397827
0002f0 48 de 9a 3c 78 62 f1 3d 68 43 92 3d ec 4c 4c 3e
       0.01890482 0.117863595 0.07141763 0.19951218
000300 96 a2 46 3e 26 c6 28 3b 71 a5 7c 3d 0b 24 3e 3d
       0.19397959 0.0025752871 0.061681215 0.046421092
000310 50 ed ab bd 13 49 16 3d 59 2f bd bc 4a ea d5 bd
       -0.08394873 0.036690783 -0.023093866 -0.10445078
000320 12 42 e0 bd 1c 1c 5c be 08 ea 4a be 3f d6 6f 3c
       -0.10950102 -0.21495098 -0.19815838 0.014638483
000330 3a e5 04 3e 34 81 8c bd 87 c1 0b bd b8 fd e5 bb
       0.12978068 -0.06860581 -0.03412011 -0.007018771
000340 54 1f 93 bc bb 29 a7 bc a9 66 a2 3b d7 1f d1 bd
       -0.017959274 -0.02040564 0.0049560857 -0.10211151
000350 dc 8c 36 be c7 4f 40 3d de 14 48 3c 35 4c 0d 3d
       -0.17827171 0.04695108 0.012212006 0.034496505
000360 55 77 37 be 42 03 08 3e d5 65 fa bd b2 85 74 3c
       -0.17916615 0.13282493 -0.12226454 0.014924454
000370 65 6e 70 3e 4b 65 1b 3d 07 3f 32 3e d4 ad 0c be
       0.23479612 0.037938397 0.17406856 -0.13738185
000380 52 f6 72 bc 6e aa 8b bd 6a 49 00 3d d1 02 2f be
       -0.014829235 -0.06819616 0.031320013 -0.17090918
000390 9a 44 ef bc be b3 80 bc c2 ca 46 3d e7 06 22 bd
       -0.029207516 -0.015710708 0.04853321 -0.039557364
0003a0 f0 e2 31 3d ab 00 ab bd 44 f7 90 3d 7a 8f 97 bd
       0.043429315 -0.08349737 0.07078412 -0.07400413
0003b0 14 e4 d5 bd 77 8c 20 be 93 e4 c1 bd a4 0e b2 3d
       -0.10443893 -0.15678583 -0.09467425 0.08694199
0003c0 1c fa 89 3d fc 7b a8 bc f3 1f 51 bd 2d 92 42 3e
       0.06737158 -0.020566933 -0.05105586 0.19001074
0003d0 79 13 8f bb aa af 4a bd 64 12 41 bd 96 0f 33 bd
       -0.004366335 -0.049483933 -0.04713668 -0.043716036
0003e0 11 fb 74 bd 4c c6 44 3d 25 66 17 be 13 c5 9b bd
       -0.059809748 0.048040673 -0.14785059 -0.07605948
0003f0 14 9b ce 3d 31 01 a4 bd 21 75 66 be b2 e4 dd 3d
       0.100881726 -0.0800804 -0.22505619 0.10834636
