models/critic_good64_1.pt (torch, 132402 bytes, 11 tensors)

base.feature_norm.weight f4 [415]
1.0439025 1.098049 1.1271139 1.0149672 1.1020297 1.2237401 1.0003792 0.8887745
0.97388625 1.0409062 1.1204637 0.92733264 1.1404415 1.1103277 1.0245996 1.438675
1.1931156 1.1688776 0.9852647 1.3082759 0.87388575 1.146192 0.91634965 0.85137737
0.9949663 1.1702576 1.0607979 1.2237705 0.98043686 0.87902063 1.1466147 1.0317944
0.7958817 0.876365 0.9731822 1.0510164 0.92386186 0.90954024 0.9406217 1.1201476
1.157189 1.2357284 1.1366099 0.9146335 0.8823069 0.8025191 0.69896615 0.743648
0.74700963 0.78485256 0.96586424 1.0787898 0.9752106 0.7912056 0.80567557 1.0569378
0.87894475 0.9797654 0.6908477 0.8548509 0.8842237 0.6696698 0.7627087 0.68201345
0.80380476 0.9246249 1.0320051 1.0205853 0.93294716 0.9456014 0.98116446 0.9274421
1.0627171 0.81796527 0.78231734 0.6884956 0.7003045 0.9818803 0.73089814 0.9874577
1.5046127 1.2729071 1.3356295 1.1015967 1.1068586 1.0416427 1.0472401 1.1175909
0.9331746 0.9723526 1.070792 0.8589847 1.0627599 0.7842132 0.854921 0.6159494
0.6543271 0.75207806 0.94838905 1.0382457 0.7538453 0.9684602 1.0242574 0.89999133
0.86871356 0.83650905 0.8937175 0.74568546 0.78089625 1.1120114 0.71420383 0.6636745
0.677637 0.85280186 0.874864 0.8178713 0.7827638 0.92288107 0.8254288 0.86347413
0.90956616 0.87210804 0.83774066 0.82773685 0.90332025 0.85905915 0.7076703 0.83194005
0.9060046 0.9476564 0.8224937 0.7030335 0.9826548 0.92316234 0.97290003 0.95253783
0.9080026 1.0741476 0.7425006 0.8386805 0.7753186 0.83342326 0.75354904 0.9757057
0.91584593 0.7954333 0.86619025 0.7016721 1.0007105 1.0306661 0.91826344 0.93114436
0.85915214 0.9596374 0.9522588 0.8523367 1.0370516 0.88495004 1.1267842 1.051173
0.9643118 1.1867214 1.1223702 1.2954785 1.1539233 1.7066762 1.1274198 1.1379424
1.0965779 1.0878494 1.0992768 0.84635746 0.8791182 1.0787896 1.056951 1.0167472
0.8299535 0.8107678 1.0660236 1.0313236 0.8903029 0.8488713 0.91380686 1.0071801
1.0527555 0.98911 0.9840494 0.8367765 0.8814399 0.93429315 0.72406054 0.76780295
0.75979733 0.9117366 0.96018845 0.6732071 0.78251725 0.9641401 0.90669185 0.8312553
0.9457864 0.73764604 0.8119305 0.6541691 0.6939089 0.7656054 0.80859315 0.8143901
0.6520367 0.94761413 0.61146486 0.7713684 0.8605929 0.74031544 1.0626795 0.9246995
0.85055697 0.95348656 0.90791136 0.79192615 0.72723746 1.0602006 0.9392471 0.7673357
0.80695575 0.68772787 0.71187896 1.0391352 0.7158456 0.6319125 0.8296581 0.7200908
0.8646792 0.9237215 0.81500334 0.768812 0.9020445 1.0506661 1.3759884 1.0855259
1.1819402 1.1457967 1.273904 1.1468873 1.0142869 0.99126905 1.4588686 1.4767517
1.2991496 1.1249311 1.0984949 1.0779395 1.1194187 1.0570401 0.90770894 1.0017737
00000000: 999e 853f df8c 8c3f 4545 903f 72ea 813f
00000010: 4f0f 8d3f 84a3 9c3f 6d0c 803f ba86 633f
00000020: 9c50 793f 6a3c 853f 5b6b 8f3f ac65 6d3f
00000030: fdf9 913f 381f 8e3f 1426 833f 8126 b83f
00000040: 03b8 983f c89d 953f 4f3a 7c3f 9675 a73f
00000050: fab6 5f3f 6bb6 923f e495 6a3f def3 593f
00000060: 1db6 7e3f 00cb 953f 3ac8 873f 83a4 9c3f
00000070: e9fd 7a3f 7f07 613f 45c4 923f d711 843f
00000080: e7be 4b3f 7559 603f 7822 793f b587 863f
00000090: 3682 6c3f a1d7 683f 95cc 703f ff60 8f3f
000000a0: c51e 943f 592c 9e3f 6f7c 913f 6c25 6a3f
000000b0: ddde 613f e471 4d3f 72ef 323f b75f 3e3f
000000c0: 063c 3f3f 19ec 483f e142 773f c915 8a3f
000000d0: 67a7 793f 738c 4a3f c140 4e3f bd49 873f
000000e0: 8602 613f e8d1 7a3f 65db 303f 82d7 5a3f
000000f0: 7c5c 623f 7b6f 2b3f e140 433f 6f98 2e3f
00000100: 26c6 4d3f 38b4 6c3f be18 843f 8aa2 823f
00000110: a0d5 6e3f ef12 723f 982d 7b3f d86c 6d3f
00000120: 1d07 883f 2c66 513f f345 483f 3f41 303f
00000130: 2847 333f 825c 7b3f 241c 3b3f 07ca 7c3f
00000140: 2697 c03f 9fee a23f e8f5 aa3f 1f01 8d3f
00000150: 8bad 8d3f 8c54 853f f70b 863f 380d 8f3f
00000160: 88e4 6e3f 1aec 783f b60f 893f 6ce6 5b3f
00000170: 8408 883f 32c2 483f 1adc 5a3f dcae 1d3f
00000180: fb81 273f 3088 403f a0c9 723f 3ce5 843f
00000190: 01fc 403f 02ed 773f de1a 833f d565 663f
000001a0: 0364 5e3f 7525 563f acca 643f 3ee5 3e3f
000001b0: d1e8 473f 6456 8e3f 10d6 363f 92e6 293f
000001c0: 9e79 2d3f 3951 5a3f 16f7 5f3f 0360 513f
000001d0: 3563 483f ef41 6c3f 4d4f 533f a40c 5d3f
000001e0: 54d9 683f 7942 5f3f 2c76 563f 90e6 533f
000001f0: ff3f 673f 4deb 5b3f e129 353f 06fa 543f
00000200: ebef 673f 9c99 723f f28e 523f 01fa 333f
00000210: 448f 7b3f 5e54 6c3f fa0f 793f 85d9 733f
00000220: dc72 683f ab7d 893f 8514 3e3f c4b3 563f
00000230: 487b 463f 3a5b 553f 97e8 403f d9c7 793f
00000240: e174 6a3f 84a1 4b3f a5be 5d3f c8a0 333f
00000250: 4817 803f deec 833f 5013 6b3f 7a5f 6e3f
00000260: 65f1 5b3f ccaa 753f 3cc7 733f bd32 5a3f
00000270: 1bbe 843f 168c 623f 773a 903f d68c 863f
00000280: 23dd 763f 7de6 973f d4a9 8f3f 3dd2 a53f
00000290: c2b3 933f 5e74 da3f 4b4f 903f 19a8 913f
000002a0: aa5c 8c3f a63e 8b3f 1ab5 8c3f e2aa 583f
000002b0: e40d 613f c715 8a3f 2c4a 873f c624 823f
000002c0: d577 543f 7b8e 4f3f 7673 883f 6902 843f
000002d0: e4ea 633f a14f 593f 3fef 693f 47eb 803f
000002e0: b1c0 863f 5036 7d3f a9ea 7b3f fc36 563f
000002f0: 0ca6 613f d62d 6f3f 085c 393f bc8e 443f
00000300: 1482 423f 9267 693f e9ce 753f 4d57 2c3f
00000310: 0d53 483f e3d1 763f f51c 683f 26cd 543f
00000320: 0f1f 723f 5fd6 3c3f adda 4f3f a077 273f
00000330: 03a4 313f b7fe 433f f6ff 4e3f df7b 503f
00000340: e1eb 263f d796 723f f688 1c3f 6678 453f
00000350: d14f 5c3f 5085 3d3f e205 883f 1bb9 6c3f
00000360: 1abe 593f b217 743f e16c 683f acbb 4a3f
00000370: 3c2c 3a3f a7b4 873f 7f72 703f 1d70 443f
00000380: a794 4e3f ef0e 303f b33d 363f 6202 853f
00000390: a841 373f 05c5 213f 7964 543f df57 383f
000003a0: 9e5b 5d3f 0379 6c3f 0fa4 503f ddd0 443f
000003b0: 63ec 663f 3a7c 863f 6320 b03f 83f2 8a3f
000003c0: d149 973f 77a9 923f 490f a33f 34cd 923f
000003d0: 27d4 813f cfc3 7d3f 35bc ba3f 3306 bd3f
000003e0: 894a a63f befd 8f3f 7b9b 8c3f ecf9 893f
000003f0: 1d49 8f3f 174d 873f 9d5f 683f 1f3a 803f

base.feature_norm.bias f4 [415]
0.0038830175 -0.06888345 -0.09706146 -0.012586354 -0.07658395 -0.0319619 0.050680764 -0.033458654
-0.016139261 0.04267647 -0.010752058 -0.15432326 -0.04968833 0.04485672 0.054184925 0.10304625
0.008697596 -0.054577943 -0.070384726 0.049496878 0.004618021 -0.11308557 -0.022491243 0.09451609
0.050513793 0.045629725 -0.056792215 0.00189841 -0.04892923 -0.05493923 0.019487863 0.04541931
-0.13191192 -0.10570467 0.04530939 0.029546186 -0.020261941 -0.025845692 -0.05339461 0.045783486
0.10832127 -0.0062240786 0.06994748 0.056028232 0.07395829 0.07340423 0.061151218 0.020387094
-0.033413548 0.01633091 0.030999023 -0.063263886 -0.06953246 -0.047670186 0.072927676 0.0484854
0.10724543 0.06628061 0.10836177 -0.041922916 0.0478575 0.05268717 0.030877719 0.053209584
0.05381597 0.15009485 -0.0108215725 -0.025011955 0.024508554 -0.023608502 0.048575036 0.13802403
0.08132006 0.036154114 0.05820456 0.14159194 0.08947368 0.034939736 0.13666244 -0.05515637
0.09264993 0.099772096 -0.08384717 -0.037175685 -0.060230367 0.024653805 -0.036048036 -0.082319446
-0.08011112 0.02255487 0.00014871736 -0.07516489 0.0024047652 -0.07748693 -0.026493028 0.022960996
-0.09175645 -0.12189314 0.05718107 0.027076403 0.036669344 -0.06298864 -0.02333446 -0.039012253
-0.020301528 0.020702459 0.002575715 -0.011335691 0.027499663 -0.022211181 -0.023297822 -0.03674823
-0.101200394 0.013504737 0.092022814 0.03781507 0.026958426 0.054591466 -0.046511613 -0.051888138
-0.071823455 0.011961585 0.03326581 0.04308736 0.050998494 0.025086626 -0.07157539 0.015199396
-0.035240036 0.040267583 0.011494437 0.02981819 0.026640767 -0.009616276 -0.07063975 -0.04423535
-0.08233102 -0.056860946 -0.02210175 0.03941348 0.016948879 0.023229633 0.0023172474 0.05062084
0.043317094 -0.047645807 -0.08107625 0.02113256 -0.0547627 -0.04811465 0.0013096626 -0.02283712
0.037568882 0.039448813 0.019798841 0.13929412 0.03052269 -0.001416007 0.04219211 -0.015264848
0.033787016 0.0095447125 0.014387777 0.12902233 0.041153394 -0.0980831 -0.0922044 -0.09268572
-0.06992567 -0.04013683 -0.04504193 0.038808037 0.022848366 0.010900189 0.041772775 -0.093986094
-0.0030415654 0.07873897 0.00874549 0.050920647 0.007739595 0.05215654 0.0383035 0.10662357
0.040517133 0.059520584 -0.06148136 -0.0881096 -0.0020344702 0.07028742 -0.010332748 0.05603807
0.082200766 0.06265013 0.04679945 0.008324384 0.050288554 0.11921894 -0.02829706 0.069700904
0.07255644 0.045598198 0.07460229 0.033467513 -0.017172154 0.18000112 0.019825486 0.048081383
0.1047994 0.010451684 0.060140867 0.038911235 0.09476119 -0.01616537 0.020161893 0.038955245
0.05212501 0.06624197 -0.060166992 0.01257014 0.05344445 0.07138819 0.100249335 0.10182977
0.049355898 0.022703294 0.08137458 0.13671084 0.052113965 0.11275683 0.07123731 0.12437079
0.17538959 0.031801876 0.0074773505 0.021884123 0.16257463 0.06658472 0.111935444 0.038456734
0.023177706 0.12261978 0.10953077 0.035498254 -0.056532428 0.084727176 0.060656115 0.101020515
-0.019360306 -0.08211968 -0.066721305 -0.054681998 -0.08161759 -0.017624576 -0.060154814 -0.04432443
00000000: 397a 7e3b c412 8dbd 29c8 c6bd ff36 4ebc
00000010: 0cd8 9cbd 7bea 02bd a296 4f3d f10b 09bd
00000020: 7c36 84bc 86cd 2e3d 6629 30bc eb06 1ebe
00000030: fe85 4bbd aebb 373d 03f1 5d3d ea09 d33d
00000040: 5d80 0e3c 1f8d 5fbd de25 90bd 3dbd 4a3d
00000050: c552 973b 6899 e7bd 8e3f b8bc a791 c13d
00000060: 8de7 4e3d 3ce6 3a3d f49e 68bd 12d4 f83a
00000070: 046a 48bd f507 61bd 03a5 9f3c 9909 3a3d
00000080: eb13 07be b17b d8bd 5796 393d d80a f23c
00000090: 5ffc a5bc 58ba d3bc 4eb4 5abd 7787 3b3d
000000a0: 8bd7 dd3d 5bf3 cbbb a040 8f3d dc7d 653d
000000b0: 7277 973d f554 963d b379 7a3d d602 a73c
000000c0: a5dc 08bd 67c8 853c aaf1 fd3c 7f90 81bd
000000d0: 0967 8ebd d041 43bd 1b5b 953d a098 463d
000000e0: 7ea3 db3d 21be 873d c7ec dd3d 5db7 2bbd
000000f0: 3a06 443d 81ce 573d 45f3 fc3c 4bf2 593d
00000100: 226e 5c3d 77b2 193e f74c 31bc dfe5 ccbc
00000110: 2ac6 c83c 9e66 c1bc 9ef6 463d 2c56 0d3e
00000120: 228b a63d 5616 143d e867 6e3d 7afd 103e
00000130: fa3d b73d f81c 0f3d 3df1 0b3e a5eb 61bd
00000140: 3fbf bd3d 5055 cc3d 11b8 abbd 8845 18bd
00000150: 1eb4 76bd c7f6 c93c 1ba7 13bd 1997 a8bd
00000160: 4d11 a4bd fec4 b83c 03f1 1b39 0df0 99bd
00000170: 4499 1d3b 78b1 9ebd e807 d9bc b318 bc3c
00000180: ceea bbbd 1ca3 f9bd b336 6a3d 55cf dd3c
00000190: 9832 163d 3000 81bd e927 bfbc 50cb 1fbd
000001a0: 644f a6bc 3498 a93c 54cd 283b 56b9 39bc
000001b0: f946 e13c 39f4 b5bc 13db bebc 5085 16bd
000001c0: 2742 cfbd f942 5d3c 7576 bc3d fae3 1a3d
000001d0: ebd7 dc3c 4d9b 5f3d f682 3ebd a888 54bd
000001e0: 2d18 93bd 86fa 433c bb41 083d 5f7c 303d
000001f0: cce3 503d 7882 cd3c 1e96 92bd e306 793c
00000200: db57 10bd 9fef 243d 2a53 3c3c 4745 f43c
00000210: bd3d da3c 968d 1dbc 93ab 90bd 2030 35bd
00000220: 2a9d a8bd 06e7 68bd bb0e b5bc 0770 213d
00000230: 60d8 8a3c 124c be3c f6dc 173b cc57 4f3d
00000240: 446d 313d 4028 43bd 4e0b a6bd 311e ad3c
00000250: da4e 60bd de13 45bd fca8 ab3a e914 bbbc
00000260: d4e1 193d 1495 213d 2e31 a23c 1ea3 0e3e
00000270: b80a fa3c 5099 b9ba a2d1 2c3d 6a19 7abc
00000280: 4164 0a3d 6d61 1c3c b6ba 6b3c 6e1e 043e
00000290: 7690 283d cbdf c8bd a9d5 bcbd 03d2 bdbd
000002a0: 3135 8fbd 8466 24bd e37d 38bd 2df5 1e3d
000002b0: 7f2c bb3c b596 323c ee19 2b3d c87b c0bd
000002c0: 0055 47bb e641 a13d 3e49 0f3c 2b92 503d
000002d0: 6e9c fd3b 19a2 553d 21e4 1c3d 755d da3d
000002e0: 4bf5 253d dbcb 733d e1d3 7bbd ce72 b4bd
000002f0: bf54 05bb daf2 8f3d b04a 29bc 2d88 653d
00000300: e058 a83d b64e 803d c8b0 3f3d ff62 083c
00000310: 5ffb 4d3d 0f29 f43d 3ccf e7bc 59bf 8e3d
00000320: 7998 943d 2dc5 3a3d 16c9 983d 3b15 093d
00000330: 9eac 8cbc 3752 383e 0f69 a23c fcf0 443d
00000340: 11a1 d63d 8a3d 2b3c 4556 763d 6361 1f3d
00000350: 2812 c23d 3d6d 84bc 8e2a a53c 898f 1f3d
00000360: 0981 553d dfa9 873d aa71 76bd fdf2 4d3c
00000370: 91e8 5a3d f933 923d 864f cd3d 208c d03d
00000380: 6929 4a3d 42fc b93c b7a7 a63d edfd 0b3e
00000390: 7475 553d 0eed e63d dee4 913d 1db6 fe3d
000003a0: 5499 333e af42 023d 9004 f53b 5546 b33c
000003b0: f779 263e 925d 883d 693e e53d cf84 1d3d
000003c0: 2cdf bd3c 1420 fb3d ab51 e03d 9e66 113d
000003d0: 8c8e 67bd 7185 ad3d 8c72 783d d8e3 ce3d
000003e0: 8199 9ebc 5d2e a8bd 2ea5 88bd 3bfa 5fbd
000003f0: 1f27 a7bd 6a61 90bc e564 76bd 898d 35bd

base.mlp.fc1.0.weight f4 [64, 415]
-0.09193945 0.14166565 0.17094266 0.23472828 0.21234052 -0.16123953 -0.09831189 0.16236404
-0.029993702 0.08258754 0.24449411 -0.08427902 0.16938375 -0.3020534 0.33661565 -0.07847838
0.26258546 -0.09611625 0.059288327 0.13913688 0.1503639 -0.18978451 0.018548742 0.08617614
0.059184123 -0.3300431 -0.017388187 0.015835203 -0.025380196 0.054294404 -0.12588711 -0.2223975
0.11111855 0.20151742 0.12487205 -0.16527809 0.16937414 0.23918927 0.045166824 -0.21633054
0.15083186 0.17235436 -0.28248385 -0.14884292 0.35788825 0.058696743 0.021303965 -0.09408173
0.044729576 -0.07967127 -0.0098718265 0.03335475 -0.027242955 0.19264092 0.14683738 -0.09855523
0.093323104 0.1300164 -0.040684227 0.0040595853 -0.09738075 -0.03745509 0.114856206 0.055824764
0.004982289 0.06526287 -0.039751135 0.18044522 0.2548715 0.11134892 0.29288462 -0.051647384
-0.3523329 -0.03404653 0.050509736 0.02196831 0.06291267 0.0069249975 0.022737587 0.028182793
-0.11078 0.092095286 -0.2548368 0.023435393 -0.02796508 0.110127516 0.06717615 0.039703824
-0.13373074 -0.057463363 0.26676294 0.24244529 -0.21682414 -0.17766725 0.016162872 0.13128218
0.027070593 -0.14878456 -0.052708838 -0.32683575 -0.017291922 0.12781544 -0.06547955 -0.041110568
0.052467015 -0.02250101 0.20466742 -0.020469131 -0.17142068 0.036282986 -0.08396878 -0.008415042
-0.13097663 -0.12842919 -0.25674397 -0.041767918 0.2036138 0.06550272 -0.092605725 0.11438659
0.0042013763 0.15325098 0.0934595 -0.29957083 -0.14715627 0.3224955 -0.008398699 -0.119016334
-0.10577364 -0.29935107 -0.2501832 0.26730865 0.37723905 0.17150052 -0.19937643 0.13547495
0.10365164 -0.05898163 -0.24012426 0.03311109 -0.07614725 -0.12533368 0.045863215 -0.26149663
-0.22451805 0.0003506547 -0.08564207 0.15786427 0.103513196 -0.13488926 0.02753285 0.07278621
0.012321405 -0.19390677 -0.029502163 -0.13929307 -0.11591021 -0.18498607 -0.08631571 -0.09389293
-0.14941263 -0.05969707 -0.1189642 -0.5978643 -0.034632776 -0.017943788 0.13727735 0.17256832
0.13749443 0.18726014 0.079811126 -0.0966077 -0.11950794 -0.2410953 -0.16359642 0.13361295
-0.025919229 -0.22902401 -0.35806805 0.13869715 0.076059245 -0.0657434 0.2881688 -0.030176474
-0.24566843 -0.1339392 0.16395186 0.02807606 0.049495265 -0.112596385 0.024598308 0.054938857
0.00020206248 -0.12950994 -0.12264643 0.18280545 0.24049717 0.28341764 -0.01173341 -0.08340044
0.01869835 0.0066926344 0.121530905 0.09126798 0.19159722 -0.22363344 0.11605546 0.09777695
0.13668402 -0.39961284 0.002375063 0.06412859 0.47257006 0.062690265 -0.38242728 -0.12749246
-0.0996562 0.071318425 0.06477334 0.016399471 0.041804682 -0.008388415 0.031575747 0.078658916
0.030208502 -0.09075807 0.25479302 0.10013449 -0.035809297 -0.21651396 -0.18694827 -0.0105460035
-0.062362652 0.16866791 0.13412373 0.0999822 -0.25504848 -0.22976887 -0.05348919 0.08502057
0.17426328 -0.11790608 -0.37905675 0.03509327 0.42769882 0.31495705 -0.077847 0.09186192
0.1370747 0.26146305 0.25922137 0.17329776 0.15680346 0.13107535 0.19384454 -0.10188594
00000000: c04a bcbd cd10 113e 980b 2f3e 9c5c 703e
00000010: cb6f 593e fa1b 25be bf57 c9bd c242 263e
00000020: 5ab5 f5bc a823 a93d aa5c 7a3e 7b9a acbd
00000030: ef72 2d3e bea6 9abe e358 ac3e 46b9 a0bd
00000040: 9a71 863e 99d8 c4bd 51d8 723d e679 0e3e
00000050: fff8 193e df56 42be 88f3 973c 1e7d b03d
00000060: 0d6b 723d 69fb a8be ac71 8ebc d4b8 813c
00000070: 21ea cfbc cf63 5e3d 8de8 00be 2cbc 63be
00000080: 1f92 e33d 955a 4e3e ebbc ff3d a93e 29be
00000090: 6a70 2d3e 08ee 743e d900 393d c185 5dbe
000000a0: ab73 1a3e a97d 303e b9a1 90be 476a 18be
000000b0: 213d b73e ff6b 703d a785 ae3c ecad c0bd
000000c0: 5c36 373d b12a a3bd 71bd 21bc fe9e 083d
000000d0: 9e2c dfbc a943 453e 8a5c 163e 53d7 c9bd
000000e0: 2f20 bf3d 0523 053e 81a4 26bd 4506 853b
000000f0: 8f6f c7bd 826a 19bd bb39 eb3d 82a8 643d
00000100: 7842 a33b 8aa8 853d 16d2 22bd a2c6 383e
00000110: 847e 823e e70a e43d f9f4 953e 358c 53bd
00000120: fa64 b4be 6074 0bbd 4ce3 4e3d e3f6 b33c
00000130: 5cd8 803d 17eb e23b 2d44 ba3c 9adf e63c
00000140: a0e0 e2bd 749c bc3d f879 82be 95fb bf3c
00000150: 0617 e5bc 898a e13d a693 893d 7aa0 223d
00000160: b6f0 08be b45e 6bbd 2795 883e 9443 783e
00000170: 2607 5ebe 67ee 35be 0068 843c d66e 063e
00000180: 26c3 dd3c fb5a 18be 39e5 57bd 0457 a7be
00000190: caa7 8dbc 0de2 023e 241a 86bd 8e63 28bd
000001a0: a7e7 563d 0a54 b8bc 5694 513e e1ae a7bc
000001b0: e788 2fbe 789d 143d d3f7 abbd 3fdf 09bc
000001c0: bd1e 06be f182 03be f273 83be d614 2bbd
000001d0: 2380 503e 4a26 863d 12a8 bdbd 8443 ea3d
000001e0: b3ab 893b d3ed 1c3e b267 bf3d 5961 99be
000001f0: 22b0 16be 211e a53e b29a 09bc d6be f3bd
00000200: da9f d8bd 8b44 99be 0318 80be aedc 883e
00000210: 7a25 c13e d59d 2f3e 5629 4cbe f2b9 0a3e
00000220: 5047 d43d b996 71bd 22e3 75be 7f9f 073d
00000230: 17f3 9bbd 7957 00be 11db 3b3d e3e2 85be
00000240: 0fe8 65be 14d8 b739 1c65 afbd 2ca7 213e
00000250: bafe d33d 6920 0abe 928c e13c f010 953d
00000260: b8df 493c 7f8f 46be 85ae f1bc d8a2 0ebe
00000270: 5562 edbd fd6c 3dbe 4ac6 b0bd f04a c0bd
00000280: a0ff 18be ea84 74bd 81a3 f3bd a20d 19bf
00000290: 19db 0dbd dafe 92bc 6f92 0c3e c0b5 303e
000002a0: 57cb 0c3e 1fc1 3f3e 0474 a33d 42da c5bd
000002b0: 94c0 f4bd b0e1 76be d285 27be d5d1 083e
000002c0: 9054 d4bc 4585 6abe b254 b7be a006 0e3e
000002d0: f3c4 9b3d 7aa4 86bd dc8a 933e a734 f7bc
000002e0: 8190 7bbe 5c27 09be ffe2 273e c4ff e53c
000002f0: 8cbb 4a3d ef98 e6bd 6482 c93c 9107 613d
00000300: bce0 5339 419e 04be 0d2e fbbd 5a31 3b3e
00000310: e444 763e 1e1c 913e 7d3d 40bc dacd aabd
00000320: 482d 993c e34d db3b 32e5 f83d b5ea ba3d
00000330: 1032 443e 2a00 65be 7cae ed3d 483f c83d
00000340: e5f6 0b3e 0e9a ccbe f2a6 1b3b da55 833d
00000350: b4f4 f13e c163 803d 82cd c3be 628d 02be
00000360: 8d18 ccbd 650f 923d e3a7 843d 2f58 863c
00000370: 633b 2b3d 906f 09bc 9255 013d ed17 a13d
00000380: d277 f73c 5edf b9bd 3b74 823e 5013 cd3d
00000390: c5ac 12bd d6b5 5dbe 5e6f 3fbe 25c9 2cbc
000003a0: fb6f 7fbd 48b7 2c3e bb57 093e 78c3 cc3d
000003b0: b795 82be 8848 6bbe 7b17 5bbd 441f ae3d
000003c0: 1372 323e be78 f1bd ba13 c2be f6bd 0f3d
000003d0: 57fb da3e 0d42 a13e 3f6e 9fbd 1a22 bc3d
000003e0: 4f5d 0c3e 7cde 853e aab8 843e f874 313e
000003f0: 1691 203e 9e38 063e 2f7f 463e 93a9 d0bd

base.mlp.fc1.0.bias f4 [64]
-0.074565366 0.028485002 0.0624162 0.0869921 0.0012496634 -0.074867874 0.059388574 0.021693688
-0.048214946 -0.09348864 -0.08299211 0.07760039 -0.07451418 -0.016388683 -0.11455829 -0.09127984
0.04445593 -0.06794299 0.05460811 -0.07459034 0.03361762 0.027945964 -0.1101882 -0.06331684
0.049914945 -0.0870331 -0.0823059 -0.0744638 -0.11936865 -0.10577007 -0.07302152 0.014520452
0.03589697 -0.06554252 -0.044941887 0.059990186 0.057163008 -0.16362058 -0.019594092 0.09088389
0.0830065 0.048407294 -0.0974433 -0.0026452558 0.0154872 0.059838932 0.04152817 -0.06862205
0.004282234 -0.05310024 0.06048368 -0.11220591 -0.12316444 0.071095064 -0.0022821175 0.02598233
-0.12753624 0.02487622 -0.02301504 0.08978724 0.040670324 -0.114495866 0.043186463 -0.10172109
00000000: bab5 98bd 6159 e93c 21a8 7f3d ea28 b23d
00000010: bfcb a33a 5454 99bd 6f41 733d f6b6 b13c
00000020: 097d 45bd f976 bfbd c4f7 a9bd f4ec 9e3d
00000030: e49a 98bd 8f41 86bc 899d eabd edf0 babd
00000040: 6c17 363d b225 8bbd c1ac 5f3d d2c2 98bd
00000050: a1b2 093d efee e43c 5aaa e1bd 42ac 81bd
00000060: 9d73 4c3d 693e b2bd ff8f a8bd 7a80 98bd
00000070: 8d77 f4bd fa9d d8bd 4f8c 95bd 31e7 6d3c
00000080: b408 133d 283b 86bd fc14 38bd 45b8 753d
00000090: c223 6a3d 278c 27be ca83 a0bc 5521 ba3d
000000a0: 50ff a93d ba46 463d 5a90 c7bd 075c 2dbb
000000b0: 06be 7d3c ab19 753d 7119 2a3d b889 8cbd
000000c0: fb51 8c3b a37f 59bd bcbd 773d 36cc e5bd
000000d0: a33d fcbd 4a9a 913d 948f 15bb e5d8 d43c
000000e0: dc98 02be 37c9 cb3c 0a8a bcbc 5fe2 b73d
000000f0: ed95 263d cf7c eabd 4ae4 303d 2653 d0bd

base.mlp.fc1.2.weight f4 [64]
1.0882463 0.91878057 1.0729234 1.03507 0.9614819 1.0247751 1.1346536 1.0498698
1.1018552 0.9598885 1.099313 1.0366062 1.0713722 1.0675889 0.87620133 1.1501378
0.91315717 1.0729676 0.9833177 1.0620328 0.95772284 0.90247756 0.9887849 1.1088443
0.9470115 1.0090326 1.0313784 1.0556799 1.0575426 1.0970764 1.0153685 0.9737325
1.0189097 1.0489829 1.0790907 1.0110568 1.0303046 1.1104355 0.96850204 0.9858332
1.0329858 0.9254902 1.0960865 0.9586741 0.8320907 0.81543106 0.942059 1.007938
0.97492474 1.0344477 1.1490529 1.0163171 1.0893766 0.89644194 1.1068473 0.87078935
1.1628736 0.97819686 1.0375966 1.0185751 0.94268394 0.9686957 1.0120488 1.1563914
00000000: a84b 8b3f 3435 6b3f 8e55 893f 2c7d 843f
00000010: ae23 763f d52b 833f 543c 913f 2262 863f
00000020: 9709 8d3f 41bb 753f 4ab6 8c3f 83af 843f
00000030: b922 893f c1a6 883f bb4e 603f b737 933f
00000040: abc4 693f 0157 893f b5ba 7b3f b1f0 873f
00000050: 532d 753f c508 673f 0221 7d3f 9cee 8d3f
00000060: 586f 723f fb27 813f 3504 843f 8520 873f
00000070: 8e5d 873f 006d 8c3f 98f7 813f 8846 793f
00000080: a26b 823f 1245 863f a51f 8a3f 4f6a 813f
00000090: 05e1 833f c022 8e3f c0ef 773f 915f 7c3f
000000a0: e138 843f edec 6c3f 904c 8c3f aa6b 753f
000000b0: e503 553f 17c0 503f c72a 713f 1d04 813f
000000c0: ab94 793f c868 843f 2a14 933f ae16 823f
000000d0: b170 8b3f 387d 653f 2cad 8d3f 0dec 5e3f
000000e0: 0bd9 943f 1c6b 7a3f f7cf 843f ab60 823f
000000f0: bc53 713f 71fc 773f d18a 813f a204 943f

base.mlp.fc1.2.bias f4 [64]
0.04392469 0.0016563265 0.01630503 0.027435767 -0.042046178 -0.016959235 -0.00425879 -0.0726167
0.17869984 0.015417405 -0.038082846 -0.04479708 0.06168208 -0.04888034 0.075786434 0.029748382
0.050250567 -0.071755454 -0.05315616 0.04474978 0.0083488505 0.028713489 -0.05653511 -0.017136618
0.059729617 -0.023573415 -0.030044336 -0.02529622 0.019968871 0.011642724 -0.04016787 0.0540585
-0.0088371765 -0.017519148 0.13015825 0.06763193 -0.039661918 -0.035069175 -0.020341039 0.013198743
0.06766881 0.0057855686 0.000700011 -0.08524725 0.03509836 0.0068600657 -0.04385057 0.0020908678
-0.0033496183 0.052663445 -0.027608266 0.0032092999 -0.006801817 0.025114262 0.06911755 0.055238828
0.029529158 -0.009974555 0.009447289 0.020365056 0.05198992 0.18721047 -0.009695307 0.041170403
00000000: 60ea 333d 1819 d93a 2092 853c f9c0 e03c
00000010: 9d38 2cbd 18ee 8abc 528d 8bbb 10b8 94bd
00000020: 17fd 363e 4999 7c3c c2fc 1bbd 257d 37bd
00000030: 59a6 7c3d c036 48bd eb35 9b3d e1b2 f33c
00000040: 8ad3 4d3d 86f4 92bd 46ba 59bd 8c4b 373d
00000050: 9ec9 083c 8d38 eb3c 5c91 67bd 1862 8cbc
00000060: 0ba7 743d 091d c1bc 8a1f f6bc 053a cfbc
00000070: c295 a33c 20c1 3e3c 1087 24bd 726c 5d3d
00000080: cec9 10bc 5184 8fbc 3448 053e 9c82 8a3d
00000090: 8974 22bd b2a4 0fbd 40a2 a6bc 8a3f 583c
000000a0: f295 8a3d de94 bd3b f180 373a 1c96 aebd
000000b0: 4cc3 0f3d 67ca e03b a89c 33bd f106 093b
000000c0: 4585 5bbb a0b5 573d bb2a e2bc 1e53 523b
000000d0: c7e1 debb 6dbc cd3c 818d 8d3d 1c42 623d
000000e0: 22e7 f13c 516c 23bc cdc8 1a3c 9ed4 a63c
000000f0: 62f3 543d 1ab4 3f3e 11d9 1ebc 4ca2 283d

base.mlp.fc2.0.0.weight f4 [64, 64]
0.0021686722 0.019996122 0.009993407 0.13066426 -0.2318603 -0.17299259 0.47162282 -0.067190714
-0.069930725 -0.2021659 -0.26722693 0.006941466 -0.06670253 -0.27953056 -0.21762753 -0.13588518
0.36245072 -0.2798332 0.08885814 -0.082337104 -0.33424065 -0.114588566 -0.24216081 -0.076068655
-0.08519699 -0.1882284 0.09085842 -0.06478823 0.047613606 -0.05018516 -0.0933887 0.21045502
-0.04412116 -0.38753963 0.18253624 0.04923368 0.06920413 -0.28169852 -0.017882064 -0.22902265
0.31928492 0.17840987 -0.07172682 -0.3918392 0.02006344 0.3495155 0.04962679 0.23389968
-0.04509377 0.11333889 0.10634251 -0.0066248756 -0.12555774 0.08214012 0.23707262 0.28636512
-0.070540465 -0.08926103 -0.13274813 0.1363295 -0.02962309 -0.06252981 0.070138246 -0.029148644
-0.18680453 0.18669404 0.27028838 0.21893442 0.20126925 0.12584114 0.418853 -0.19662833
-0.20985198 0.06237513 -0.19867094 0.11780864 -0.17094468 -0.1851595 -0.06253939 -0.13531885
-0.15445076 0.16161132 -0.022394385 -0.03046718 0.055709243 0.15307923 -0.12111463 0.097794876
-0.22375485 0.15246995 0.19836242 -0.29855695 0.06104435 0.05465431 0.26138464 -0.07572313
0.0648801 0.04535961 0.06278284 -0.044450704 0.4287511 -0.022888329 0.14804114 0.25711188
-0.07972638 0.114259005 0.14542733 -0.13195947 -0.15996608 0.017268352 0.44097117 0.12978911
-0.046633966 -0.34618646 0.15085207 0.06920233 -0.057320893 -0.01263123 -0.57636124 0.049497765
-0.21211873 -0.20785038 -0.2933501 -0.008434683 0.19881392 -0.19855109 -0.16053136 -0.02717636
-0.18303128 0.08355937 0.2788293 0.050112158 0.06918695 -0.08756987 0.04153396 0.08755771
-0.07404563 -0.040592138 -0.029691689 -0.12142484 0.014494237 -0.16818282 -0.29778782 -0.15298688
0.12001645 0.023635 0.16341054 0.055129126 -0.25840372 0.34024963 -0.13437203 -0.118121274
-0.06736857 -0.32622808 0.031603705 0.13346605 0.1811086 0.120483115 0.10583581 -0.08773817
0.016658591 0.08564321 -0.03566641 -0.13484004 0.16715477 -0.27930832 0.13206364 0.11193073
0.0054447534 -0.4540209 0.07683422 0.02914571 0.09354845 -0.12659724 -0.041368093 0.22710773
0.0065231784 -0.04783456 0.023244979 0.07167127 -0.35775796 -0.17202008 -0.37241971 -0.12646657
-0.24826315 0.055480663 0.24209876 0.079106644 -0.13391133 0.002046959 0.24919493 -0.50623906
-0.046737354 -0.17420235 0.118120216 -0.21456192 -0.1016286 0.47160485 0.43958017 0.21433094
-0.20847912 0.010423139 0.07654433 0.18630207 0.20606564 0.15801464 0.2572226 0.0502138
-0.03310841 0.2729241 -0.21001503 0.4687317 -0.08515464 -0.63963956 -0.03346667 0.34630245
0.089065336 0.044498872 0.5582413 0.17369114 0.52358127 0.14480439 -0.037633967 -0.58578676
-0.050958477 -0.32205844 0.13254924 0.079360664 0.0095345555 0.16487178 -0.16286686 0.21646367
-0.24542446 -0.47289163 0.22450894 0.06620458 0.0776114 0.056021385 0.20376237 0.41954318
0.94161624 0.12689719 -0.6689913 -0.15733612 0.2029856 -0.3035194 -0.03584734 0.13544501
0.0053065317 0.15976022 -0.22813131 -1.0504991 0.08554466 0.058871187 -0.21961676 0.21206392
00000000: 4820 0e3b e8ce a33c 63bb 233c dacc 053e
00000010: c96c 6dbe f824 31be 8c78 f13e 499b 89bd
00000020: d737 8fbd 9404 4fbe f8d1 88be 3d75 e33b
00000030: 569b 88bd a11e 8fbe c0d9 5ebe 7c25 0bbe
00000040: 2493 b93e 4c46 8fbe 42fb b53d 5ba0 a8bd
00000050: 9721 abbe 69ad eabd 01f9 77be e2c9 9bbd
00000060: c27b aebd f2be 40be fb13 ba3d b1af 84bd
00000070: 7c06 433d f48e 4dbd 9342 bfbd 8581 573e
00000080: 64b8 34bd 986b c6be c8ea 3a3e 41a9 493d
00000090: e5ba 8d3d ca3a 90be 687d 92bc ea84 6abe
000000a0: 5079 a33e 14b1 363e 83e5 92bd 269f c8be
000000b0: 155c a43c b2f3 b23e 7645 4b3d 6683 6f3e
000000c0: 3fb4 38bd 381e e83d 1aca d93d 7c15 d9bb
000000d0: 3592 00be 1439 a83d 2ac3 723e 739e 923e
000000e0: 8577 90bd 7dce b6bd 20ef 07be f699 0b3e
000000f0: 1fac f2bc a10f 80bd a4a4 8f3d 23c9 eebc
00000100: b049 3fbe b92c 3f3e 3d63 8a3e 5830 603e
00000110: 8719 4e3e 80dc 003e e773 d63e f058 49be
00000120: 70e3 56be 107d 7f3d 6570 4bbe a845 f13d
00000130: 1f0c 2fbe 749a 3dbe a714 80bd 0691 0abe
00000140: 5728 1ebe 707d 253e 6e74 b7bc 4f96 f9bc
00000150: 602f 643d cdc0 1c3e f20a f8bd ae48 c83d
00000160: fe1f 65be 1521 1c3e 851f 4b3e 75dc 98be
00000170: a409 7a3d 33dd 5f3d 35d4 853e ba14 9bbd
00000180: dcdf 843d 00cb 393d 4a94 803d f111 36bd
00000190: 4485 db3e 4e80 bbbc 1998 173e 2ba4 833e
000001a0: 9647 a3bd a000 ea3d e7ea 143e 6220 07be
000001b0: 26ce 23be 5c76 8d3c f9c6 e13e 70e7 043e
000001c0: 4203 3fbd 5a3f b1be f778 1a3e f4b9 8d3d
000001d0: 50c9 6abd 38f3 4ebc 698c 13bf 2bbe 4a3d
000001e0: a735 59be bbd6 54be fc31 96be a031 0abc
000001f0: e095 4b3e fa50 4bbe 5562 24be f5a0 debc
00000200: 8d6c 3bbe 2d21 ab3d b7c2 8e3e 6842 4d3d
00000210: e3b1 8d3d d557 b3bd 831f 2a3d 7551 b33d
00000220: 3ca5 97bd f143 26bd fc3b f3bc 96ad f8bd
00000230: 3c79 6d3c 1e38 2cbe a577 98be 98a8 1cbe
00000240: 2fcb f53d 309e c13c 1855 273e 14cf 613d
00000250: 7e4d 84be 3335 ae3e d298 09be 91e9 f1bd
00000260: 88f8 89bd 5e07 a7be e372 013d 53ab 083e
00000270: 8874 393e dabf f63d 72c0 d83d 12b0 b3bd
00000280: 9977 883c b565 af3d f116 12bd 8213 0abe
00000290: 9f2a 2b3e 8001 8fbe b13b 073e f03b e53d
000002a0: e769 b23b 6d75 e8be 425b 9d3d fcc2 ee3c
000002b0: 5496 bf3d b5a2 01be 9771 29bd ee8e 683e
000002c0: 63c0 d53b 2cee 43bd 416c be3c 63c8 923d
000002d0: 0d2c b7be 0826 30be ccad bebe 7480 01be
000002e0: b238 7ebe b13f 633d bde8 773e aa02 a23d
000002f0: 0d20 09be 4626 063b f52c 7f3e e298 01bf
00000300: ab6f 3fbd 1a62 32be 03e9 f13d 1fb6 5bbe
00000310: a822 d0bd 3176 f13e a710 e13e 9279 5b3e
00000320: 8d7b 55be d0c5 2a3c 46c3 9c3d f8c5 3e3e
00000330: df02 533e 97ce 213e aeb2 833e fcac 4d3d
00000340: af9c 07bd b5bc 8b3e 2e0e 57be 9afd ef3e
00000350: 8e65 aebd 6bbf 23bf 5914 09bd 8e4e b13e
00000360: e367 b63d 7344 363d e7e8 0e3f 17dc 313e
00000370: 6c09 063f 9a47 143e 1326 1abd 1ff6 15bf
00000380: d6b9 50bd d8e4 a4be fdba 073e d887 a23d
00000390: d336 1c3c 26d4 283e 92c6 26be a7a8 5d3e
000003a0: 8d50 7bbe da1e f2be ace5 653e 4496 873d
000003b0: baf2 9e3d ae76 653d 15a7 503e 5dce d63e
000003c0: c30d 713f 56f1 013e 0443 2bbf b81c 21be
000003d0: 75db 4f3e e566 9bbe a9d4 12bd 19b2 0a3e
000003e0: 6ae2 ad3b 2f98 233e 419b 69be c176 86bf
000003f0: 0a32 af3d ea22 713d 37e3 60be 4927 593e

base.mlp.fc2.0.0.bias f4 [64]
0.11782536 0.045196418 0.008659824 -0.16436829 -0.16374794 -0.09646789 -0.17972378 -0.037823595
-0.0093666455 -0.08247103 -0.2148754 0.00492552 -0.334344 0.010396115 -0.050109506 -0.009451073
0.053299785 -0.012692126 -0.23421036 -0.29910144 0.09668376 -0.039040122 -0.038628004 0.012781417
0.10806323 0.031005519 -0.1986288 0.026067797 -0.21099344 0.038907833 -0.1964785 0.057514105
0.07956044 -0.23445463 -0.09240825 0.0062677064 0.0048456294 0.033138365 0.046827395 -0.09244868
0.07299267 0.07771999 -0.08851564 -0.020472514 -0.18345541 0.039190106 -0.10328749 -0.07691194
0.041603897 0.018126145 0.10572449 -0.07568547 0.017308732 -0.037887804 -0.016404266 -0.01434325
-0.29675 0.15772463 -0.026978992 0.040387165 -0.26247537 0.101368256 -0.13143723 0.05918079
00000000: 6c4e f13d e11f 393d efe1 0d3c 2950 28be
00000010: 8aad 27be f590 c5bd 8309 38be eaec 1abd
00000020: 8f76 19bc 92e6 a8bd 4c08 5cbe 4266 a13b
00000030: 232f abbe 7754 2a3c a03f 4dbd acd8 1abc
00000040: e050 5a3d a3f2 4fbc d7d4 6fbe d323 99be
00000050: 2302 c63d 89e8 1fbd 6638 1ebd 2669 513c
00000060: 4150 dd3d 49ff fd3c 5965 4bbe 228c d53c
00000070: aa0e 58be d25d 1f3d a931 49be e993 6b3d
00000080: 95f0 a23d e014 70be 8940 bdbd 5561 cd3b
00000090: 16c8 9e3b 18bc 073d 15ce 3f3d bc55 bdbd
000000a0: 2e7d 953d a82b 9f3d b047 b5bd f9b5 a7bc
000000b0: bcdb 3bbe ce85 203d 6488 d3bd 0284 9dbd
000000c0: d968 2a3d 487d 943c 1586 d83d fc00 9bbd
000000d0: 0bcb 8d3c 3e30 1bbd 3d62 86bc f3ff 6abc
000000e0: 9eef 97be 9182 213e 0c03 ddbc 036d 253d
000000f0: 2c63 86be 299a cf3d 7b97 06be 8e67 723d

base.mlp.fc2.0.2.weight f4 [64]
1.3498743 1.3753554 1.5721582 1.3638465 1.3884666 1.3594928 1.365577 1.3694109
1.6294523 1.4873905 1.4218053 1.325115 1.4203378 1.3321383 1.4471048 1.3978544
1.3860563 1.2788857 1.3756742 1.3952619 1.4410052 1.325688 1.4109205 1.2024825
1.3093368 1.4077275 1.3506792 1.4102774 1.34001 1.5120776 1.3536131 1.4008088
1.293772 1.4143491 1.3527851 1.3480701 1.3117616 1.2624884 1.5709444 1.4183757
1.3980619 1.3521286 1.3750988 1.3449155 1.4279984 1.3595773 1.3794591 1.3470204
1.3448853 1.2614305 1.4085147 1.4014537 1.4368792 1.4116485 1.4095858 1.3943273
1.3314841 1.2558093 1.4574164 1.5125915 1.3812689 1.3476399 1.3368139 1.3480357
00000000: aec8 ac3f a50b b03f 7b3c c93f 8692 ae3f
00000010: 46b9 b13f dc03 ae3f 3acb ae3f db48 af3f
00000020: e591 d03f d062 be3f b7fd b53f 5e9d a93f
00000030: a1cd b53f 8283 aa3f bb3a b93f e5ec b23f
00000040: 4b6a b13f 87b2 a33f 1816 b03f f197 b23f
00000050: dc72 b83f 25b0 a93f 0b99 b43f f2ea 993f
00000060: 5998 a73f 6a30 b43f 0ee3 ac3f f883 b43f
00000070: 7385 ab3f c28b c13f 3243 ad3f b44d b33f
00000080: 529a a53f 6409 b53f 1028 ad3f 908d ac3f
00000090: cee7 a73f 3899 a13f b514 c93f 568d b53f
000000a0: b1f3 b23f 8d12 ad3f 3d03 b03f 3126 ac3f
000000b0: a7c8 b63f a106 ae3f 1e92 b03f 2a6b ac3f
000000c0: 3425 ac3f 8e76 a13f 364a b43f d662 b33f
000000d0: a8eb b73f e6b0 b43f 4f6d b43f 5179 b23f
000000e0: 126e aa3f 5cbe a03f 9f8c ba3f 999c c13f
000000f0: 6bcd b03f 777f ac3f b81c ab3f 6f8c ac3f

base.mlp.fc2.0.2.bias f4 [64]
0.31721368 0.35339698 0.41399965 -0.3270932 -0.32594612 -0.31574148 -0.319068 0.39036193
0.4201594 -0.3819792 -0.38998532 0.32755265 -0.40710166 0.31075507 -0.3642267 -0.36827934
0.3416778 0.31421214 -0.3487101 -0.36146283 0.38348112 0.29939923 -0.38983366 0.2810095
0.31570265 0.29608557 -0.28398576 0.27989823 -0.29579914 0.34276327 -0.30708462 0.3375958
0.31056327 -0.35076466 0.3012972 0.3370342 0.2944414 0.29269147 0.34615338 -0.3984525
0.32137048 0.31696847 -0.33116376 0.33495358 -0.40143245 0.34483132 -0.3123272 -0.31948406
0.2968946 0.28389007 0.35306415 -0.38293722 -0.36135083 -0.36253402 -0.41059175 -0.35083088
-0.29266104 0.2872289 -0.389117 0.3686784 -0.32640588 0.33438903 -0.28580415 0.3515536
00000000: d569 a23e 73f0 b43e c3f7 d33e c378 a7be
00000010: 69e2 a6be dea8 a1be e25c a3be 85dd c73e
00000020: 221f d73e c792 c3be 28ac c7be fbb4 a73e
00000030: a16f d0be 4a1b 9f3e ec7b babe 1c8f bcbe
00000040: 65f0 ae3e 6ae0 a03e 218a b2be a811 b9be
00000050: a357 c43e db4a 993e 4798 c7be 7ae0 8f3e
00000060: c7a3 a13e 8798 973e 9566 91be d24e 8f3e
00000070: fc72 97be ab7e af3e 323a 9dbe 5bd9 ac3e
00000080: 2602 9f3e 6d97 b3be a043 9a3e bf8f ac3e
00000090: 06c1 963e a8db 953e 043b b13e f701 ccbe
000000a0: ac8a a43e b149 a23e 4c8e a9be 097f ab3e
000000b0: 8e88 cdbe bb8d b03e 5ae9 9fbe 6a93 a3be
000000c0: 9202 983e 0a5a 913e d3c4 b43e 5910 c4be
000000d0: fa02 b9be 0f9e b9be 1539 d2be 1ba0 b3be
000000e0: abd7 95be ab0f 933e 583a c7be 6ac3 bc3e
000000f0: ac1e a7be 0a35 ab3e ec54 92be d5fe b33e

v_out.weight f4 [1, 64]
-0.42192382 -0.4986825 -0.43838948 0.42740515 0.42928168 0.4519724 0.436694 -0.35452062
-0.4126722 0.36240226 0.34147376 -0.36129883 0.32002458 -0.4303703 0.3280333 0.33541903
-0.4143162 -0.32273856 0.36861807 0.36678898 -0.4032981 -0.4322559 0.3230195 -0.38121983
-0.42033362 -0.52958834 0.5960264 -0.61054105 0.5149438 -0.47779226 0.46293885 -0.40671745
-0.4309658 0.38514653 -0.45922354 -0.36292133 -0.4459853 -0.41742733 -0.5291854 0.32457826
-0.4595472 -0.4422854 0.41046077 -0.3712061 0.31395814 -0.40046224 0.46903685 0.42286617
-0.48424202 -0.47756898 -0.44486466 0.27688077 0.30324677 0.36756337 0.26961187 0.37750506
0.5313775 -0.44650984 0.34785295 -0.50469154 0.43010265 -0.3583433 0.5754548 -0.34772462
00000000: 6606 d8be 5053 ffbe 9674 e0be d9d4 da3e
00000010: cfca db3e ed68 e73e 5b96 df3e ba83 b5be
00000020: c549 d3be ca8c b93e a6d5 ae3e 29fc b8be
00000030: 43da a33e 7f59 dcbe fbf3 a73e 0bbc ab3e
00000040: 4121 d4be fd3d a5be 82bb bc3e c4cb bb3e
00000050: 177d cebe a550 ddbe d062 a53e 3f2f c3be
00000060: f835 d7be 1a93 07bf 3095 183f 6b4c 1cbf
00000070: 5bd3 033f 30a1 f4be 5206 ed3e 453d d0be
00000080: 8da7 dcbe ed31 c53e 591f ebbe d3d0 b9be
00000090: 2f58 e4be 09b9 d5be b278 07bf 1f2f a63e
000000a0: c549 ebbe 3b73 e2be ea27 d23e ba0e bebe
000000b0: 1fbf a03e 6309 cdbe 9925 f03e ea81 d83e
000000c0: 92ee f7be ec83 f4be 4dc5 e3be 51c3 8d3e
000000d0: 2943 9b3e 4431 bc3e 910a 8a3e 5848 c13e
000000e0: 5b08 083f f09c e4be c819 b23e 7733 01bf
000000f0: 6a36 dc3e c678 b7be 0151 133f f608 b2be
