models/critic_evil256-128-64.pt (torch, 610216 bytes, 13 tensors)

base.mlp.layers.0.0.weight f4 [256, 425]
0.12952991 0.100816675 0.050152604 0.122234404 -0.77904546 -0.0029393795 0.09999217 0.089803986
-0.011900022 -0.029112795 0.045439716 0.039505355 -0.003583497 -0.081208885 -0.06636263 0.14623478
-0.024418708 0.06622681 -0.036053568 0.013857327 0.14737384 0.06552122 0.035239793 0.14572924
-0.097289756 0.07658298 0.17498693 0.07653311 -0.041473866 0.046876825 0.017257135 -0.061492536
-0.12893943 0.0034646783 -0.052621603 0.0012064452 0.0149697615 0.074252486 0.07264547 -0.05825064
-0.00021107559 -0.03185164 0.02012415 0.089757666 0.023609031 0.014748637 0.025872393 -0.04219406
0.013826424 0.056455407 -0.08604102 0.04007234 0.008656021 0.23212141 0.045579087 -0.021276297
-0.08870902 -0.43296966 0.04309201 0.08017971 0.05241818 0.02581457 -0.060851898 -0.03173073
0.17059827 0.038748894 0.039765093 0.025032934 0.09519821 -0.0128664905 -0.018076193 -0.07347944
-0.013838921 0.04450802 0.24898134 0.05121299 -0.24193978 0.23493715 -0.13919319 0.19960184
-0.08412854 -0.096313015 -0.043273173 0.011582383 0.06590569 -0.12521614 -0.20134658 0.12287854
0.14060023 -0.0861198 0.02808614 -0.071908385 0.0065998808 0.11665428 0.00825915 -0.26100802
-0.22787672 -0.59802794 -0.054736663 0.13437204 -0.001464608 0.039247636 -0.0064801527 0.008436627
0.044040244 0.17936783 -0.12338989 -0.155455 -0.2025679 0.11981434 0.21257411 -0.21731912
-0.14916381 0.100866206 -0.01703764 -0.029736947 0.05511481 -0.0485333 0.018357182 -0.004492328
0.2526984 -0.04037378 -0.15305401 -0.17538664 -0.28268272 0.12741128 -0.04922833 -0.16117133
-0.11942909 0.10111086 0.050065912 0.0319498 0.047762185 0.014180322 0.08020991 -0.035312954
-0.028211912 -0.22048053 -0.38748038 -0.25680432 -0.13620883 0.030491263 0.03034147 0.111950316
0.016081601 0.09851877 0.0798668 0.11725181 -0.03708601 0.038049433 0.14002599 0.059877228
0.002434149 -0.120917745 -0.21771605 -0.039703034 -0.471617 0.14559765 -0.030903319 -0.013649794
-0.002359629 -0.028111681 0.15937093 -0.05331086 -0.026024552 -0.10920602 -0.042483144 0.094565555
-0.19544134 -0.04529822 0.36279663 0.070847325 0.021640895 -0.053034265 -0.06346504 -0.14238559
0.22932807 -0.1270267 -0.17759116 -0.29117978 -0.75493795 0.061465718 -0.13713376 -0.029050194
0.087742016 -0.13184766 0.06677225 0.2991401 -0.26464692 0.18458481 -0.27931306 -0.8838635
0.24915552 0.11051619 -0.2684812 -0.18173265 -0.016715968 0.010348244 -0.036922537 -0.056540962
0.0024837053 0.10190818 0.23934722 0.091246516 0.37992057 -0.6082478 -0.32140145 -0.6051766
0.06655907 -0.15129668 -0.0884866 -0.07206523 0.010775184 0.078589015 0.057999983 0.09277706
0.31334025 0.35464856 -0.1820878 0.21259768 -0.39247438 -0.6399394 -0.46593714 -0.47635913
-0.07138745 -0.09862825 -0.079024784 -0.22062197 -0.14678761 -0.027246999 0.08606893 -0.26974663
-0.10692073 -0.08237438 -0.10312798 -0.5086342 -0.14040606 -0.78524584 -0.17916992 -0.23347563
0.22175144 0.02249465 0.09663611 0.14402027 -0.2195126 0.53953046 0.11010713 -0.022316556
0.07757537 -0.052312393 0.25318128 -0.55277133 -0.057402678 -0.07686366 0.045270525 -0.057820648
00000000: 7da3 043e f978 ce3d d16c 4d3d 0856 fa3d
00000010: 866f 47bf 9ba2 40bb b2c8 cc3d 27eb b73d
00000020: 4ff8 42bc f57d eebc ff1e 3a3d 5ed0 213d
00000030: 1ad9 6abb d850 a6bd 21e9 87bd 92be 153e
00000040: be09 c8bc eca1 873d e8ac 13bd d809 633c
00000050: 2be9 163e fd2f 863d 9a57 103d 0c3a 153e
00000060: da3f c7bd 8ad7 9c3d c62f 333e 64bd 9c3d
00000070: 80e0 29bd ea01 403d d65e 8d3c 99df 7bbd
00000080: b308 04be a80f 633b c089 57bd 9521 9e3a
00000090: bb43 753c b011 983d 26c7 943d 3998 6ebd
000000a0: 2c54 5db9 de76 02bd 67db a43c ded2 b73d
000000b0: ba67 c13c 44a4 713c 57f2 d33c aed3 2cbd
000000c0: 3a88 623c c93d 673d 4636 b0bd e522 243d
000000d0: fcd1 0d3c 3cb1 6d3e 23b1 3a3d a14b aebc
000000e0: 13ad b5bd 33ae ddbe 3f81 303d 4335 a43d
000000f0: 72b4 563d 1479 d33c d73f 79bd 15f8 01bd
00000100: 50b1 2e3e 29b7 1e3d b9e0 223d de11 cd3c
00000110: 47f7 c23d f9cd 52bc 8614 94bc 637c 96bd
00000120: a4bc 62bc 0b4e 363d f7f4 7e3e b6c4 513d
00000130: 10bf 77be 5d93 703e a988 0ebe 6d64 4c3e
00000140: 954b acbd c23f c5bd 363f 31bd 09c4 3d3c
00000150: 90f9 863d a938 00be cc2d 4ebe bea7 fb3d
00000160: 82f9 0f3e 945f b0bd e814 e63c b444 93bd
00000170: d043 d83b 70e8 ee3d 6351 073c d8a2 85be
00000180: 8458 69be 5c18 19bf 8d33 60bd d398 093e
00000190: 17f8 bfba 21c2 203d 7657 d4bb c739 0a3c
000001a0: 8b63 343d 33ac 373e d7b3 fcbd 982f 1fbe
000001b0: f66d 4fbe 3861 f53d 07ad 593e e788 5ebe
000001c0: 66be 18be f192 ce3d 8592 8bbc e69a f3bc
000001d0: 11c0 613d dbca 46bd cd61 963c 6134 93bb
000001e0: af61 813e fa5e 25bd 31ba 1cbe 8e98 33be
000001f0: cabb 90be 1a78 023e a5a3 49bd 190a 25be
00000200: 3d97 f4bd 3613 cf3d ea11 4d3d cbdd 023d
00000210: 48a2 433d 9554 683c 1845 a43d 51a4 10bd
00000220: ab1c e7bc a6c5 61be d463 c6be db7b 83be
00000230: 547a 0bbe d0c8 f93c ad8e f83c 3546 e53d
00000240: 90bd 833c 35c4 c93d 3491 a33d b821 f03d
00000250: 80e7 17bd b9d9 1b3d f962 0f3e d341 753d
00000260: 3e86 1f3b b9a3 f7bd f5f0 5ebe a69f 22bd
00000270: c977 f1be 8d17 153e f528 fdbc 63a3 5fbc
00000280: 01a4 1abb 784a e6bc 2232 233e 7d5c 5abd
00000290: 7131 d5bc 68a7 dfbd ce02 2ebd 96ab c13d
000002a0: c621 48be a08a 39bd 7bc0 b93e 6718 913d
000002b0: 3f48 b13c 753a 59bd f5f9 81bd 87cd 11be
000002c0: fad4 6a3e 4a13 02be 75da 35be 8415 95be
000002d0: 9d43 41bf 7ac3 7b3d cb6c 0cbe acfa edbc
000002e0: 16b2 b33d 1303 07be e4bf 883d e428 993e
000002f0: cd7f 87be cd03 3d3e 1f02 8fbe e144 62bf
00000300: a022 7f3e 5056 e23d 5e76 89be 2018 3abe
00000310: edef 88bc ae8b 293c 163c 17bd 7f97 67bd
00000320: a9c5 223b 3cb5 d03d 7017 753e 74df ba3d
00000330: f384 c23e 21b6 1bbf bb8e a4be dbec 1abf
00000340: 1f50 883d 84ed 1abe 7638 b5bd ef96 93bd
00000350: 668a 303c 47f3 a03d 6491 6d3d e601 be3d
00000360: 226e a03e 7f94 b53e 3975 3abe 35b3 593e
00000370: 67f2 c8be 12d3 23bf 508f eebe 58e5 f3be
00000380: 9533 92bd 9cfd c9bd bfd7 a1bd baea 61be
00000390: 7e4f 16be 1935 dfbc e844 b03d 3b1c 8abe
000003a0: 41f9 dabd e6b3 a8bd c334 d3bd da35 02bf
000003b0: 9bc6 0fbe df05 49bf 5278 37be 3c14 6fbe
000003c0: cf12 633e b346 b83c 27e9 c53d 0d7a 133e
000003d0: e9c7 60be ab1e 0a3f d97f e13d 36d1 b6bc
000003e0: d6df 9e3d 8545 56bd faa0 813e 6c82 0dbf
000003f0: 121f 6bbd b26a 9dbd 966d 393d 58d5 6cbd

base.mlp.layers.0.0.bias f4 [256]
0.0016829978 -0.051542647 0.01540844 -0.019060632 -0.044282407 -0.020108921 0.010183455 -0.034920387
0.010688581 0.030359808 -0.02662746 0.008613612 -0.05532707 0.06433693 -0.018900331 0.028592627
-0.016292388 0.029789908 0.0813295 -0.11127564 0.03441983 0.018612118 0.005595239 0.0036027946
0.0060244687 -0.056290466 0.015661897 -0.04667922 0.030926663 -0.025051387 -0.005008579 -0.017669203
-0.032564178 -0.033633407 0.045238525 0.013488032 -0.056252964 0.04967613 0.012276519 0.018000655
0.026675094 0.0040620067 -0.030688856 -0.07257894 0.0015082202 -0.08974968 0.03989273 0.01408466
0.033292864 -0.018365806 -0.027476005 0.052297603 -0.07168493 -0.04151989 0.02910829 -0.031156827
-0.036222603 -0.028779486 -0.022403678 -0.027931966 -0.046759807 -0.034509026 -0.05781326 -0.021513043
0.035359547 0.011533668 -0.011599021 0.027031258 0.0233154 -0.024009407 0.0052548135 0.04529089
-0.0020634104 -0.014269776 -0.0045823376 0.0011049774 -0.0242162 0.036325052 0.00093038904 -0.047979575
-0.039906643 -0.012999812 0.028075006 0.015220909 0.002453702 0.02900171 -0.013365991 -0.027385866
-0.008240985 -0.00809393 0.0060788956 0.026602263 -0.012071529 5.113693e-05 -0.051052433 -0.004228099
-0.0045295004 0.03968198 0.021778699 0.040760104 0.017441545 0.02565291 -0.0019471899 -0.041716896
-0.0006719139 -0.030853411 -0.003626633 0.04243014 -0.09356538 0.022076081 -0.102375604 0.008601472
-0.06251534 0.04641779 0.03592953 -0.05406682 0.022308126 -0.017734699 0.023704583 0.059606504
0.022220174 0.033370122 -0.033597033 0.03674632 -0.032811057 0.05578733 -0.03836931 0.025727596
-0.0011041336 -0.026602458 -0.0063803927 0.05357356 0.052786864 -0.0042218287 -0.027802667 -0.06030654
-0.042537224 0.007688951 -0.09176406 0.027311554 -0.10152986 0.018042365 0.0020501793 -0.0015626962
-0.0027511627 -0.0258006 0.00584065 0.008899664 -0.01714632 -0.11541261 -0.012438437 -0.031402018
0.021419685 -0.01564438 -0.016039673 -0.050873064 0.02531516 0.037636563 -0.006502491 0.0086098425
0.045715112 0.019594656 0.011562346 0.06037552 0.019420283 -0.009471912 0.0034568736 0.02664509
0.0455898 0.030647727 0.04829574 0.09633219 0.0056151436 0.018203422 -0.017434092 0.038788747
0.08731953 -0.0010473939 0.019654283 -0.0020308157 -0.055151585 -0.0430164 -0.023732409 -0.049065325
-0.0025240546 -0.052976374 -0.006310465 -0.016590852 -0.02916141 -0.0005914068 -0.033407908 0.013504348
0.0008993079 -0.011456555 0.024140745 -0.041458283 -0.015294956 0.08444666 0.00015501818 -0.025808124
0.04941294 0.06835876 -0.034919925 0.031168923 -0.080770135 0.038424827 -0.027176313 -0.05723259
-0.02360026 0.0049820608 0.036576137 0.052112028 -0.014299193 -0.078808606 0.009142351 -0.06688974
-0.05412557 0.063959226 -0.0014108011 -0.025556263 -0.038222373 0.032556564 0.0073555624 -0.0066591413
0.04488813 -0.06137299 -0.07834054 -0.057636708 -0.0054298374 -0.09632241 0.047658723 0.037849262
0.07942251 0.05992325 -0.09485707 -0.047101818 0.0077170646 0.09595101 0.049735382 -0.024179725
0.006763231 -0.0178179 -0.08329946 0.0017013891 0.016168501 -0.032940544 -0.04955921 -0.03561113
0.007570118 -0.03876138 -0.047812965 0.0048573855 0.023569206 0.020319432 0.015964711 0.010944263
00000000: 0998 dc3a 621e 53bd ae73 7c3c 0b25 9cbc
00000010: 7861 35bd 77bb a4bc 82d8 263c ae08 0fbd
00000020: 281f 2f3c 22b5 f83c d521 dabc 1b20 0d3c
00000030: a39e 62bd 15c3 833d ded4 9abc 163b ea3c
00000040: 9d77 85bc f709 f43c 1590 a63d 7ce4 e3bd
00000050: cffb 0c3d 7178 983c 4458 b73b dd1c 6c3b
00000060: e868 c53b d590 66bd 614d 803c b632 3fbd
00000070: ea59 fd3c 9138 cdbc 021f a4bb 01bf 90bc
00000080: 0462 05bd 2fc3 09bd 084c 393d e8fc 5c3c
00000090: 8269 66bd 3379 4b3d 7423 493c 1c76 933c
000000a0: ba85 da3c 951a 853b 3267 fbbc 44a4 94bd
000000b0: 79af c53a aece b7bd 8f66 233d 59c3 663c
000000c0: 195e 083d e373 96bc 5c15 e1bc 0336 563d
000000d0: 8ccf 92bd c310 2abd 8274 ee3c 9a3c ffbc
000000e0: 275e 14bd f5c2 ebbc eb87 b7bc 94d1 e4bc
000000f0: 3687 3fbd 5659 0dbd 99cd 6cbd 1f3c b0bc
00000100: 2cd5 103d b6f7 3c3c d209 3ebc a870 dd3c
00000110: f0ff be3c 60af c4bc 9230 ac3b f182 393d
00000120: 483a 07bb c7cb 69bc 6f27 96bb e4d4 903a
00000130: 0d61 c6bc 94c9 143d 5ae5 733a 3b86 44bd
00000140: 2675 23bd 2afd 54bc 8efd e53c 1f61 793c
00000150: 4ace 203b fe94 ed3c 08fd 5abc 5358 e0bc
00000160: 3205 07bc 679c 04bc 7931 c73b fdec d93c
00000170: aac7 45bc dc7b 5638 5b1c 51bd dd8b 8abb
00000180: 346c 94bb 9289 223d 3e69 b23c 11f4 263d
00000190: 92e1 8e3c 0d26 d23c da38 ffba 56df 2abd
000001a0: 6123 30ba 4bc0 fcbc ceac 6dbb 3acb 2d3d
000001b0: 359f bfbd e6d8 b43c 4daa d1bd 30ed 0c3c
000001c0: 0b08 80bd 9520 3e3d d82a 133d 2b75 5dbd
000001d0: 88bf b63c 5c48 91bc 1d30 c23c f325 743d
000001e0: 1507 b63c 1caf 083d 0b9d 09bd 4f83 163d
000001f0: e364 06bd 4181 643d 2329 1dbd aec2 d23c
00000200: 93b8 90ba 66ed d9bc 9d12 d1bb f36f 5b3d
00000210: 0a37 583d 4457 8abb 6bc2 e3bc fe03 77bd
00000220: 833b 2ebd 99f3 fb3b ccee bbbd 7bbc df3c
00000230: e3ee cfbd 95cd 933c 4d5c 063b 62d3 ccba
00000240: da4c 34bb c85b d3bc ec62 bf3b e5cf 113c
00000250: 7076 8cbc 725d ecbd 96ca 4bbc 679f 00bd
00000260: 5678 af3c a528 80bc a265 83bc 4660 50bd
00000270: bd61 cf3c cc28 1a3d d912 d5bb 4c10 0d3c
00000280: c53f 3b3d f984 a03c fe6f 3d3c 524c 773d
00000290: 4917 9f3c 1430 1bbc b78c 623b ce46 da3c
000002a0: 5fbc 3a3d f110 fb3c c1d1 453d d049 c53d
000002b0: 3dff b73b 581f 953c f1d1 8ebc f3e0 1e3d
000002c0: 95d4 b23d b548 89ba 0502 a13c 6f17 05bb
000002d0: a1e6 61bd f731 30bd 786a c2bc b9f8 48bd
000002e0: 9c6a 25bb c1fd 58bd 04c8 cebb 8ae9 87bc
000002f0: e9e3 eebc a308 1bba bbd6 08bd 5741 5d3c
00000300: 88bf 6b3a 46b4 3bbc d0c2 c53c 29d0 29bd
00000310: b297 7abc 5ff2 ac3d 608c 2239 8f6b d3bc
00000320: 3965 4a3d adff 8b3d 3208 0fbd f855 ff3c
00000330: d06a a5bd 5a63 1d3d dca0 debc b86c 6abd
00000340: 5555 c1bc 8e40 a33b dcd0 153d 6c73 553d
00000350: 2a47 6abc 6866 a1bd cdc9 153c 7dfd 88bd
00000360: c6b2 5dbd 0efd 823d a1ea b8ba 5e5b d1bc
00000370: 108f 1cbd 085a 053d ee06 f13b ed34 dabb
00000380: 9edc 373d 3f62 7bbd 0171 a0bd 7814 6cbd
00000390: c7ec b1bb af44 c5bd cb35 433d d407 1b3d
000003a0: 45a8 a23d 1572 753d 6c44 c2bd d6ed 40bd
000003b0: 6edf fc3b f781 c43d 54b7 4b3d 8f14 c6bc
000003c0: 189e dd3b d8f6 91bc e898 aabd 2501 df3a
000003d0: ce73 843c aaec 06bd 99fe 4abd fadc 11bd
000003e0: c10e f83b 41c4 1ebd 87d7 43bd b42a 9f3b
000003f0: 3514 c13c f074 a63c 6dc8 823c 914f 333c

base.mlp.layers.0.2.weight f4 [256]
1.116103 1.0349277 0.98202574 1.0789521 0.9976769 0.9200452 1.0126251 1.0010012
0.99048805 1.1399149 1.0586615 0.99936426 1.0200852 0.99858874 1.0445136 0.9881698
0.9912055 1.0261216 0.9730843 1.0427593 1.0095764 1.0212014 1.028992 1.0064821
1.0677598 1.0427508 1.045555 1.0383172 0.9828075 0.90716755 1.0132539 1.0275694
0.9930541 1.0155087 1.1256473 0.92562777 1.0848901 0.9066892 1.0184096 1.0090992
1.111075 0.9270618 0.93721646 1.0402099 0.961243 0.940531 0.96712124 1.0267715
0.9632367 1.0486089 0.8338376 1.0413138 1.0480092 1.087314 1.0980743 1.0179266
1.0119787 1.1009765 1.0471258 0.94908917 0.9825205 1.0661372 0.8058155 1.0925927
1.0485421 1.0063263 1.104652 1.012159 1.0936948 1.099915 0.9989692 1.1104125
1.0185852 1.1177914 0.8567028 0.98477125 1.0424718 1.1083864 0.97661126 0.9342267
0.9340528 1.0709254 1.0325514 1.0656073 0.95710677 0.9827912 1.0697972 1.0908688
1.0120418 0.9985522 1.0591959 1.0237961 1.1656071 1.0115274 0.95644265 1.0141475
1.0571585 0.97551554 1.0857219 1.044986 1.0738324 1.0477563 0.96971536 1.0932494
1.0456576 1.0600791 1.1709046 0.99617106 0.9730509 1.0888624 1.0364765 1.043917
0.9255359 1.0562057 1.1000775 1.0431237 1.0862023 0.9805355 1.0334116 0.99775404
1.006996 1.0670182 0.87086654 1.123252 1.0147579 1.0971408 1.0062057 1.0934309
1.0267429 0.96892303 0.97646004 1.0028452 1.0041467 0.92949337 0.9785521 0.98893666
1.1500999 1.0419005 0.92575467 1.0371822 1.0031866 1.0511183 1.0813444 1.039816
1.0611496 1.0607771 1.1468753 0.9447424 1.0304133 0.9898241 1.1398216 1.0413182
1.028084 1.0273169 0.9705212 1.09678 1.0459384 1.0254418 1.0514122 1.0100123
0.99534565 1.0459315 1.0104525 0.98689574 1.0462571 1.0140492 1.0062108 1.0510174
1.1083531 1.034189 0.9829497 1.0628597 1.089743 0.98944753 1.0081304 0.991807
1.0334295 1.04375 1.0365884 1.0018661 1.0530843 1.0322688 1.0293068 1.026959
1.038351 1.0596316 1.1250364 1.0621967 1.0991534 0.9763719 1.0104847 1.0701181
0.94038373 1.0233558 0.8791917 0.905528 1.0456334 1.0834955 1.1085173 1.0002073
0.99107265 1.0339091 1.043117 1.0757718 1.0594771 1.0236543 1.0691543 1.0480886
0.9895744 1.0226933 1.2105714 0.9256495 1.0706751 0.91512007 1.059579 1.0779384
1.0907757 1.0568277 0.998489 1.0736215 0.9467123 0.9884565 1.0580385 0.9929257
1.1705056 1.0612167 1.1253496 0.99937093 1.1149558 0.90243435 1.0305601 1.0437865
1.0728885 0.99730146 0.95767605 1.0117582 1.0463517 1.0452195 0.99674904 1.0083578
1.0389178 0.9941299 0.99806446 1.0321106 0.96574074 1.045534 0.9699444 0.96607566
1.023098 0.94106454 1.0706881 1.0002588 1.1089429 0.946614 1.059771 0.9806222
00000000: 77dc 8e3f 8378 843f 0a66 7b3f 1a1b 8a3f
00000010: c167 7f3f 1588 6b3f b39d 813f cf20 803f
00000020: a090 7d3f bbe8 913f 3882 873f 56d6 7f3f
00000030: 2792 823f 83a3 7f3f 9fb2 853f b2f8 7c3f
00000040: a5bf 7d3f f457 833f 0d1c 793f 2379 853f
00000050: cd39 813f bab6 823f 03b6 833f 68d4 803f
00000060: 5aac 883f dc78 853f bfd4 853f 94e7 843f
00000070: 4699 7b3f 223c 683f 4eb2 813f 6587 833f
00000080: cb38 7e3f 30fc 813f 3615 903f f1f5 6c3f
00000090: aedd 8a3f c91c 683f 3f5b 823f 2a2a 813f
000000a0: b537 8e3f ec53 6d3f 6bed 6f3f 9925 853f
000000b0: 0514 763f a4c6 703f 4295 773f 406d 833f
000000c0: ae96 763f d138 863f 6276 553f c549 853f
000000d0: 2a25 863f 1b2d 8b3f b38d 8c3f 6b4b 823f
000000e0: 8588 813f ccec 8c3f 3808 863f 82f7 723f
000000f0: 7786 7b3f 2f77 883f ed49 4e3f 14da 8b3f
00000100: a136 863f 4dcf 803f 3d65 8d3f 6d8e 813f
00000110: 31fe 8b3f 04ca 8c3f 72bc 7f3f ff21 8e3f
00000120: 0061 823f ca13 8f3f e050 5b3f f819 7c3f
00000130: b76f 853f 9bdf 8d3f 3203 7a3f 7b29 6f3f
00000140: 161e 6f3f 1514 893f a52a 843f d265 883f
00000150: f304 753f 3498 7b3f 1def 883f 97a1 8b3f
00000160: 968a 813f 1ea1 7f3f bb93 873f c00b 833f
00000170: 9d32 953f bb79 813f 6dd9 743f 96cf 813f
00000180: f850 873f 63bb 793f eff8 8a3f 1ac2 853f
00000190: 5773 893f e11c 863f 443f 783f 99ef 8b3f
000001a0: 1cd8 853f acb0 873f 34e0 953f 1105 7f3f
000001b0: dd19 793f d85f 8b3f 43ab 843f 129f 853f
000001c0: ecef 6c3f c031 873f 57cf 8c3f 1485 853f
000001d0: ad08 8b3f 6004 7b3f d546 843f cf6c 7f3f
000001e0: 3fe5 803f 0d94 883f 1cf1 5e3f b9c6 8f3f
000001f0: 96e3 813f 1c6f 8c3f 59cb 803f 8bf5 8b3f
00000200: 506c 833f 570b 783f 49f9 793f 3b5d 803f
00000210: e187 803f 47f3 6d3f 6482 7a3f f42a 7d3f
00000220: 7936 933f ff5c 853f 42fe 6c3f 63c2 843f
00000230: 6b68 803f 0b8b 863f 7e69 8a3f b118 853f
00000240: c0d3 873f 8bc7 873f cfcc 923f a3da 713f
00000250: 95e4 833f 1d65 7d3f ade5 913f ea49 853f
00000260: 4298 833f 1f7f 833f 1474 783f 4963 8c3f
00000270: 4fe1 853f ad41 833f ad94 863f 1548 813f
00000280: f9ce 7e3f 15e1 853f 8256 813f 33a5 7c3f
00000290: c1eb 853f 5dcc 813f 84cb 803f bd87 863f
000002a0: 84de 8d3f 4e60 843f 97a2 7b3f c90b 883f
000002b0: b37c 8b3f 6f4c 7d3f 6b0a 813f 10e7 7d3f
000002c0: 6b47 843f 9a99 853f eeae 843f 263d 803f
000002d0: 77cb 863f 6221 843f 53c0 833f 6473 833f
000002e0: b0e8 843f 02a2 873f 3101 903f 10f6 873f
000002f0: 0fb1 8c3f 82f3 793f 9057 813f a1f9 883f
00000300: fdbc 703f 53fd 823f b512 613f afd0 673f
00000310: 51d7 853f fbaf 8a3f e5e3 8d3f cb06 803f
00000320: f0b6 7d3f 2257 843f dc84 853f e4b2 893f
00000330: f29c 873f 1b07 833f 0cda 883f c427 863f
00000340: bf54 7d3f 9de7 823f 01f4 9a3f 5ef7 6c3f
00000350: e20b 893f 4f45 6a3f 49a0 873f e3f9 893f
00000360: 8a9e 8b3f 2146 873f fa9c 7f3f 6e6c 893f
00000370: bd5b 723f 7c0b 7d3f ce6d 873f 6130 7e3f
00000380: 21d3 953f f3d5 873f 750b 903f c6d6 7f3f
00000390: dfb6 8e3f f005 673f 65e9 833f cc9a 853f
000003a0: 6954 893f 264f 7f3f 422a 753f 4b81 813f
000003b0: daee 853f c1c9 853f f22a 7f3f de11 813f
000003c0: 42fb 843f 4c7f 7e3f 2781 7f3f 331c 843f
000003d0: c93a 773f 0fd4 853f 474e 783f bc50 773f
000003e0: e0f4 823f 9be9 703f 4f0c 893f 7b08 803f
000003f0: d7f1 8d3f 4c55 723f 93a6 873f 0e0a 7b3f

base.mlp.layers.0.2.bias f4 [256]
0.019855319 0.048982706 0.010148065 -0.016144253 -0.014373895 0.06461724 0.0808113 -0.000120540375
0.040629435 0.023945972 0.017871026 0.0011073849 0.04396005 0.062364724 0.007509424 0.020171648
0.030749695 0.01472926 0.097991094 -0.04982694 0.022955032 0.010654375 0.046731602 0.05123122
-0.018297138 -0.041771732 0.007547784 0.039984003 0.08608171 0.036477882 0.033703748 0.073095046
0.05888371 -0.013423676 -0.00907881 0.018659987 -0.024740009 0.054444116 0.04817389 0.104128644
-0.018387444 0.075649366 0.06954751 0.07381591 0.018871376 0.03579683 0.038223255 0.022207785
0.07446269 -0.0723487 0.14025788 0.028987978 -0.047964316 0.0060141976 0.03982788 0.014808216
0.085185654 0.019849984 0.03213 0.002302847 0.019487342 0.027365925 0.13494748 -0.0041088792
0.020506853 0.021872442 0.022178754 0.04787695 0.028715294 0.04553624 0.0346571 0.04027557
0.031617545 0.016826963 0.0147194145 0.041759644 0.013267951 -0.018163247 0.016703894 0.079992555
0.053019226 0.008954563 0.04238922 0.03868415 0.064439766 0.016778365 0.012594576 -0.009653992
0.05868604 0.029491222 -0.0053460053 0.08433798 0.047959484 0.012455626 0.050888468 0.11517603
0.02295896 0.029571567 0.03010761 -0.0006441943 0.052961893 0.057281572 0.04169166 -0.0006657206
-0.036610335 0.029273074 0.023394741 0.037533652 0.018123543 0.0072150514 -0.03270344 0.0071785655
0.09250575 -0.030607954 0.03473126 0.022408731 0.03592829 0.031091515 0.06249149 0.034695122
0.06704245 -0.0020643347 0.072177604 0.06698327 0.0416873 0.0080830315 -0.025882743 0.010542299
0.012369813 0.02767293 0.012046886 0.030735703 0.05593071 0.052804776 0.009718499 -0.0140259275
0.07420625 -0.011366527 0.10318005 -0.011862337 -0.008344846 0.03298988 0.019305969 0.04865321
0.045478567 0.039529674 0.046293937 0.040667374 0.037451696 0.005532277 0.013569858 0.049111784
0.02631654 -0.028999029 0.0392288 -0.020254346 0.032033693 0.043232594 0.0023302832 0.019977964
0.08428873 -0.00031447288 0.044765845 0.05305514 0.04703452 0.020491859 0.036938597 0.031255275
-0.047353324 0.03814039 0.03126494 0.0902551 -0.017086845 0.035562463 0.021241501 0.04725259
0.08433913 -0.02099755 0.042954553 0.05987412 0.022750577 0.010198436 0.004158254 0.03156418
0.004798339 -0.061700743 -0.032346584 0.021633603 0.0560614 0.03597601 0.023173474 -0.002701652
0.05899158 0.033159994 0.12729669 0.0023662848 0.055860475 0.011740784 -0.033590592 0.01738053
0.055358753 0.03281234 0.06805234 0.019799376 -0.0013633989 0.03292348 0.0005641513 0.004856602
-0.016502146 0.022247626 0.0013573533 0.03361377 0.05673603 0.07342268 0.048262753 -0.048458423
0.042596553 0.03463142 0.029075202 0.039993588 0.080837764 0.021508703 0.038474474 0.05304199
-0.024488568 0.038717315 0.011229677 0.01988572 0.0041204724 0.065938115 0.050852373 0.03937399
0.02631942 0.04407161 0.032940753 0.040870845 0.02334456 0.07383349 -0.0007274722 0.04846851
0.008875059 -0.0150968805 -0.009815498 -0.013228492 0.061498746 0.039584488 0.052794747 0.04715461
0.03802233 0.029277002 -0.04316063 0.002057284 0.051594 -0.008107096 0.014983284 0.018376302
00000000: 9fa7 a23c 17a2 483d 1244 263c f440 84bc
00000010: 7c80 6bbc 0b56 843d 6580 a53d 9fca fcb8
00000020: 0d6b 263d 582a c43c 4266 923c ac25 913a
00000030: 740f 343d 2772 7f3d 9d11 f63b 033f a53c
00000040: c9e6 fb3c fe52 713c 8eaf c83d 5517 4cbd
00000050: 310c bc3c b08f 2e3c a369 3f3d d4d7 513d
00000060: e1e3 95bc d618 2bbd 6753 f73b 44c6 233d
00000070: 9c4b b03d d569 153d f10c 0a3d dbb2 953d
00000080: 0c30 713d faee 5bbc 4abf 14bc d4dc 983c
00000090: 8fab cabc cb00 5f3d fc51 453d 6641 d53d
000000a0: 44a1 96bc 0eee 9a3d ed6e 8e3d cc2c 973d
000000b0: 2598 9a3c b29f 123d fd8f 1c3d 1aed b53c
000000c0: e57f 983d 8e2b 94bd c39f 0f3e 3278 ed3c
000000d0: 3b76 44bd bf12 c53b 8f22 233d 299e 723c
000000e0: d175 ae3d 6f9c a23c bf9a 033d 5deb 163b
000000f0: eba3 9f3c 812e e03c ac2f 0a3e c7a3 86bb
00000100: fdfd a73c d62d b33c 38b0 b53c 9f1a 443d
00000110: 563c eb3c 3584 3a3d 9af4 0d3d fff7 243d
00000120: 6681 013d b3d8 893c b329 713c 290c 2b3d
00000130: d261 593c 17cb 94bc 9bd6 883c 23d3 a33d
00000140: b02a 593d 29b6 123c 52a0 2d3d 4573 1e3d
00000150: fff8 833d c872 893c 7b59 4e3c c72b 1ebc
00000160: c660 703d 9397 f13c 8b2d afbb 64b9 ac3d
00000170: 2a71 443d af12 4c3c 6d70 503d 69e1 eb3d
00000180: 6e14 bc3c 1240 f23c 3ca4 f63c 26df 28ba
00000190: 92ee 583d 15a0 6a3d e0c4 2a3d c183 2eba
000001a0: b8f4 15bd 16ce ef3c 54a6 bf3c e3bc 193d
000001b0: d377 943c 3d6c ec3b 0bf4 05bd 2c3a eb3b
000001c0: a873 bd3d 88bd fabc 5e42 0e3d 8492 b73c
000001d0: 8b29 133d a2b3 fe3c 14f7 7f3d 791c 0e3d
000001e0: 8d4d 893d ca49 07bb dad1 933d 862e 893d
000001f0: 4dc0 2a3d b16e 043c 0c08 d4bc 9bb9 2c3c
00000200: c2aa 4a3c 57b2 e23c 4d60 453c 71c9 fb3c
00000210: 9a17 653d d249 583d 573a 1f3c 01cd 65bc
00000220: 72f9 973d ab3a 3abc 1050 d33d 3f5a 42bc
00000230: d2b8 08bc 6520 073d 8d27 9e3c 9748 473d
00000240: bc47 3a3d dee9 213d b69e 3d3d d592 263d
00000250: f366 193d 1a48 b53b 1c54 5e3c 7029 493d
00000260: c995 d73c 5f8f edbc 61ae 203d 71ec a5bc
00000270: c335 033d a914 313d aab7 183b d4a8 a33c
00000280: 929f ac3d d6df a4b9 645c 373d 5950 593d
00000290: 45a7 403d 8bde a73c ed4c 173d 8805 003d
000002a0: 8ff5 41bd 1939 1c3d aa0f 003d aad7 b83d
000002b0: b6f9 8bbc f2a9 113d a802 ae3c ef8b 413d
000002c0: feb9 ac3d 0e03 acbc 1df1 2f3d 913e 753d
000002d0: 6b5f ba3c 5717 273c f641 883b 7149 013d
000002e0: 633b 9d3b ebb9 7cbd da7d 04bd f438 b13c
000002f0: a3a0 653d 955b 133d 4cd6 bd3c 330e 31bb
00000300: 28a1 713d c6d2 073d 105a 023e ac13 1b3b
00000310: f4cd 643d 6b5c 403c 4a96 09bd 9d61 8e3c
00000320: dcbf 623d 3b66 063d 065f 8b3d 4d32 a23c
00000330: 13b4 b2ba c5da 063d 8ee3 133a 2124 9f3b
00000340: 822f 87bc a740 b63c 38e9 b13a 98ae 093d
00000350: 0a64 683d a15e 963d 2aaf 453d 577c 46bd
00000360: b979 2e3d add9 0d3d 1e2f ee3c 51d0 233d
00000370: 458e a53d 0533 b03c 6997 1d3d 8f42 593d
00000380: 409c c8bc 0c96 1e3d aefc 373c 61e7 a23c
00000390: 0705 873b 900a 873d 944a 503d 9f46 213d
000003a0: d39b d73c 6f84 343d e2ec 063d 3068 273d
000003b0: 173d bf3c 0336 973d d5b3 3eba eb86 463d
000003c0: b268 113c e858 77bc 2fd1 20bc 51bc 58bc
000003d0: 1ce6 7b3d 5823 223d 4e3f 583d 3125 413d
000003e0: 4dbd 1b3d 53d6 ef3c 33c9 30bd 7fd3 063b
000003f0: 3b54 533d a0d3 04bc 737c 753c e689 963c

base.mlp.layers.1.0.weight f4 [128, 256]
-0.07339991 -0.015357318 -0.09353743 0.06276868 -0.17820418 0.113217205 -0.057366587 0.05038139
0.076116726 0.029940642 0.062880486 0.23771895 -0.02875496 0.19932294 0.04722885 0.20528968
0.01339168 -0.18518458 0.09299447 -0.19018303 -0.005986404 0.123530604 -0.08792457 0.17516662
0.08043163 -0.035109278 -0.051123794 -0.077432275 0.00027565676 -0.07310031 -0.173491 0.007137501
-0.20832066 0.0871839 0.0029920083 -0.031529717 -0.024435004 0.2217925 0.03713873 -0.010812465
-0.009835071 -0.02068598 -0.014672988 0.04195063 -0.11539564 -0.1756284 -0.04335221 0.031657893
-0.07582686 -0.06769847 0.040248826 0.10053825 -0.10867783 -0.00036789294 -0.025584795 -0.2416775
-0.03774616 -0.07328476 0.05043441 0.13133933 0.15428926 0.08271868 0.009151462 0.07377232
-0.008885594 0.10471385 -0.22483648 -0.06505275 -0.05494809 -0.12617663 -0.061950196 0.01073173
-0.070518486 -0.051077798 0.15348901 0.1672194 -0.016354524 -0.044851366 -0.07797882 0.10074771
-0.055446703 -0.111369565 0.058315556 -0.06255302 0.06331084 0.08168117 -0.14658059 -0.072502784
0.03518912 0.099254236 -0.046015132 -0.05288327 0.18801242 0.022238132 -0.05908285 0.21798754
-0.027165443 0.083696455 -0.29982758 0.114212394 0.03927088 -0.06712538 -0.021294726 0.12735018
-0.30092633 -0.12440814 -0.005827089 0.17223749 -0.028318722 0.10054394 -0.055738185 -0.074439585
0.039058983 0.039029855 0.1188223 0.14024425 0.0017082037 0.07866819 -0.13800278 0.1377331
0.05109152 0.2086296 -0.05127933 0.13632184 0.093272686 0.031426758 -0.11726718 -0.0039312197
0.017637359 0.15047106 -0.018891195 0.19661991 0.09496105 0.056915555 -0.04795862 0.00031981204
-0.0054131458 0.045745667 -0.031791233 0.0246322 -0.03477069 0.0073251086 0.16509347 0.08128665
0.21510048 0.0698865 0.053122904 0.12300757 0.19992873 -0.008699787 0.08217979 0.022229861
0.06399457 -0.11255645 0.05521307 0.08172364 -0.0013777827 -0.0803277 -0.010933686 0.05509554
0.049421184 -0.13498572 -0.034894068 0.14481173 -0.1967205 -0.03972311 0.03871419 0.14286642
0.055398826 -0.0004901117 0.22783618 0.18263108 -0.057101794 0.019398663 0.05202909 0.08111927
0.19904083 -0.18247874 0.03484292 0.00081189943 -0.20899053 0.0059959083 -0.009067107 -0.03543396
0.078834936 -0.10872347 -0.08622727 -0.17465112 -0.018138723 0.0060686977 0.0025563093 -0.02457996
0.115274325 -0.09320695 -0.21663466 -0.07056878 0.036314078 0.01022737 -0.07963284 0.13614552
-0.13531917 0.10721694 -0.08556983 0.08602935 -0.026539799 0.07285891 0.022075018 -0.120357096
-0.041342653 -0.13103761 -0.081646375 0.013065517 -0.037286557 0.0054799677 -0.09368168 -0.090855196
0.04068486 0.04732909 0.04890691 -0.048355944 0.21666211 0.14173007 0.19210942 0.042042412
-0.006263047 0.11889955 -0.09407418 -0.10721717 0.08216184 -0.036019962 -0.09496085 0.049587157
-0.07853155 0.01879195 0.10126347 0.018365355 0.11986658 0.10650864 -0.05861712 -0.1421157
-0.0586532 -0.20860401 -0.07501674 0.16952565 -0.0034275446 0.055260893 0.039316162 -0.04247143
-0.022720363 0.005967152 -0.11687021 -0.03421149 0.057308182 0.055608056 -0.009763604 0.09361758
00000000: b152 96bd 439d 7bbc 8d90 bfbd de8c 803d
00000010: 287b 36be 6cde e73d 3af9 6abd b75c 4e3d
00000020: 16e3 9b3d 1446 f53c 7cc7 803d 996c 733e
00000030: 868f ebbc 501b 4c3e 0a73 413d 7537 523e
00000040: c768 5b3c 07a1 3dbe e273 be3d 57bf 42be
00000050: 9929 c4bb 9dfd fc3d cc11 b4bd e15e 333e
00000060: 57b9 a43d bfce 0fbd 2f67 51bd d094 9ebd
00000070: 0686 9039 9eb5 95bd a0a7 31be b3e1 e93b
00000080: 0352 55be 798d b23d 9215 443b 4e25 01bd
00000090: eb2b c8bc 931d 633e c81e 183d c426 31bc
000000a0: 4723 21bc a575 a9bc f966 70bc 6cd4 2b3d
000000b0: 8d54 ecbd eed7 33be 1692 31bd b5ab 013d
000000c0: 1d4b 9bbd 7fa5 8abd f4db 243d ffe6 cd3d
000000d0: 7b92 debd c1e1 c0b9 3497 d1bc 4e7a 77be
000000e0: b89b 1abd 5216 96bd 5094 4e3d d17d 063e
000000f0: 01fe 1d3e 6968 a93d 04f0 153c f115 973d
00000100: e294 11bc 3774 d63d 893b 66be 603a 85bd
00000110: 4011 61bd 7234 01be 7dbf 7dbd 23d4 2f3c
00000120: ff6b 90bd f436 51bd 392c 1d3e 903b 2b3e
00000130: ecf9 85bc 11b6 37bd 5cb3 9fbd d154 ce3d
00000140: 151c 63bd ba15 e4bd 4bdc 6e3d cc1b 80bd
00000150: 1da9 813d 7548 a73d 3919 16be 577c 94bd
00000160: 7722 103d ce45 cb3d 5d7a 3cbd 219c 58bd
00000170: 5486 403e be2c b63c dc00 72bd 2038 5f3e
00000180: 108a debc 0c69 ab3d 0083 99be 30e8 e93d
00000190: 81da 203d 0879 89bd 4772 aebc 1668 023e
000001a0: 0413 9abe b2c9 febd 2af1 bebb 065f 303e
000001b0: aafc e7bc fbe9 cd3d b94d 64bd c873 98bd
000001c0: 50fc 1f3d c5dd 1f3d 1b59 f33d 309c 0f3e
000001d0: cee5 df3a ca1c a13d 9a50 0dbe e809 0d3e
000001e0: 5745 513d ffa2 553e 460a 52bd f497 0b3e
000001f0: c005 bf3d 58b9 003d c629 f0bd 76d1 80bb
00000200: 397c 903c 1615 1a3e b5c1 9abc bb56 493e
00000210: f07a c23d 4920 693d 4270 44bd 72ac a739
00000220: c260 b1bb cf5f 3b3d 8637 02bd 78c9 c93c
00000230: b66b 0ebd 7707 f03b 430e 293e 9d79 a63d
00000240: 4d43 5c3e a720 8f3d 6797 593d 65eb fb3d
00000250: 1eba 4c3e 8d89 0ebc e14d a83d 661b b63c
00000260: 960f 833d ff83 e6bd 1a27 623d b95e a73d
00000270: b796 b4ba d982 a4bd 3423 33bc dcab 613d
00000280: de6d 4a3d b239 0abe 15ed 0ebd 8749 143e
00000290: 1971 49be b3b4 22bd c592 1e3d 934b 123e
000002a0: e1e9 623d d77a 00ba e34d 693e a403 3b3e
000002b0: 92e3 69bd f2e9 9e3c 741c 553d dc21 a63d
000002c0: 5cd1 4b3e b5db 3abe 73b7 0e3d a6d5 543a
000002d0: 9d01 56be 5379 c43b 348e 14bc 3323 11bd
000002e0: 3674 a13d 69aa debd ec97 b0bd bed7 32be
000002f0: a997 94bc eddb c63b c187 273b ea5b c9bc
00000300: f214 ec3d 49e3 bebd 7ad5 5dbe 5d86 90bd
00000310: 12be 143d b390 273c 8b16 a3bd bb69 0b3e
00000320: 1c91 0abe 8e94 db3d 3c3f afbd 2830 b03d
00000330: fe69 d9bc 0d37 953d abd6 b43c c87d f6bd
00000340: ea56 29bd b92e 06be 3736 a7bd c010 563c
00000350: cab9 18bd 4d91 b33b 2edc bfbd 4a12 babd
00000360: 2ba5 263d 26dc 413d 9d52 483d e210 46bd
00000370: acdc 5d3e b021 113e 55b8 443e aa34 2c3d
00000380: 3f3a cdbb 9b81 f33d f7a9 c0bd ad94 dbbd
00000390: 7744 a83d ab89 13bd d67a c2bd e71b 4b3d
000003a0: 26d5 a0bd 93f1 993c 3963 cf3d f172 963c
000003b0: 9c7c f53d 3421 da3d 8118 70bd c786 11be
000003c0: 563e 70bd 4a9c 55be 60a2 99bd 2298 2d3e
000003d0: a8a0 60bb 3f59 623d fc09 213d 86f6 2dbd
000003e0: 0e20 babc 1988 c33b a659 efbd 5921 0cbd
000003f0: fcbb 6a3d 46c5 633d 86f7 1fbc 93ba bf3d

base.mlp.layers.1.0.bias f4 [128]
0.050041053 -0.13756534 -0.12061486 -0.0060942224 -0.1703865 0.07364091 -0.041206364 0.03190966
-0.08046224 -0.028503846 -0.16664577 0.046969254 -0.023875877 0.009500427 -0.05809008 0.028639864
0.00013089331 0.07105354 -0.06663952 0.0046961023 -0.076586336 -0.103609964 -0.024340214 -0.15927386
-0.11206967 -0.05124247 -0.18392172 -0.002746657 -0.099550135 -0.12921146 -0.012359058 -0.18924256
-0.10293506 -0.039963953 -0.15727583 -0.022697613 -0.016071001 -0.14594032 0.01513958 -0.13778718
0.032666355 -0.13046987 -0.0012064171 -0.08215467 -0.119606696 0.014944973 -0.07214155 0.01722602
0.020006798 -0.18331192 -0.08604433 0.007885777 -0.06602249 -0.14328334 -0.049053863 0.06844793
0.006870018 -0.03786672 -0.029880742 0.0014162937 0.058986664 0.0088269655 -0.083148815 0.0023284291
-0.112107165 0.06835149 -0.0295883 -0.0019527226 -0.18895976 -0.044618662 -0.12963036 0.044671
-0.08239522 -0.054392822 0.034605302 -0.061745495 -0.020751484 -0.03139361 0.08011793 -0.0430219
-0.155789 -0.06052519 0.046449643 -0.050073456 0.07544799 -0.12732725 -0.03854295 -0.045344234
-0.10794682 -0.13821825 -0.06304401 0.005643994 -0.13925438 -0.14221783 -0.1953279 -0.08487232
-0.07679235 0.03173949 -0.039510235 -0.136203 0.0078018024 -0.16122699 -0.09534977 -0.03208716
-0.062285576 -0.12965253 0.019239012 -0.09220726 -0.00379497 -0.061679326 -0.00028581257 -0.010686613
-0.008893319 -0.091099136 -0.1412928 0.026544264 -0.13233428 0.090534784 0.0051547396 -0.038582504
-0.122620665 -0.022805175 -0.020285249 -0.18400943 -0.05100743 -0.08639295 0.071829244 -0.08460451
00000000: d9f7 4c3d eedd 0cbe ec04 f7bd 0bb2 c7bb
00000010: cc79 2ebe 0cd1 963d 01c8 28bd b4b3 023d
00000020: 63c9 a4bd e680 e9bc 30a5 2abe d562 403d
00000030: 5897 c3bc aea7 1b3c ddef 6dbd 269e ea3c
00000040: 6840 0939 8584 913d 4d7a 88bd c3e1 993b
00000050: 4cd9 9cbd 7631 d4bd 2165 c7bc b018 23be
00000060: c884 e5bd a0e3 51bd fa55 3cbe 4201 34bb
00000070: f1e0 cbbd 0250 04be a57d 4abc cdc8 41be
00000080: 9ecf d2bd 3eb1 23bd ea0c 21be 58f0 b9bc
00000090: 55a7 83bc 6171 15be 000c 783c 1518 0dbe
000000a0: 28cd 053d e599 05be a420 9eba b540 a8bd
000000b0: 5bf4 f4bd c3db 743c f3be 93bd 951d 8d3c
000000c0: 4ce5 a33c 1fb6 3bbe 0238 b0bd 5933 013c
000000d0: cd36 87bd deb8 12be b4ec 48bd 6e2e 8c3d
000000e0: e31d e13b 221a 1bbd 75c8 f4bc eea2 b93a
000000f0: 009c 713d fa9e 103c ed49 aabd 8f98 183b
00000100: 7198 e5bd defb 8b3d 2a63 f2bc 7ff2 ffba
00000110: ab7e 41be 0fc2 36bd d2bd 04be f0f8 363d
00000120: d3be a8bd 02cb 5ebd 4abe 0d3d d8e8 7cbd
00000130: 04ff a9bc 9696 00bd df14 a43d bb37 30bd
00000140: 2787 1fbe 43e9 77bd fb41 3e3d d319 4dbd
00000150: 7a84 9a3d 1362 02be 36df 1dbd e0ba 39bd
00000160: 3913 ddbd 1689 0dbe 381d 81bd 41f1 b83b
00000170: b398 0ebe 8da1 11be 0904 48be 8ad1 adbd
00000180: 4f45 9dbd 4401 023d 7cd5 21bd cd78 0bbe
00000190: 43a6 ff3b b018 25be bd46 c3bd d36d 03bd
000001a0: 291f 7fbd a2c3 04be 229b 9d3c 29d7 bcbd
000001b0: 08b5 78bb 76a3 7cbd 1dd9 95b9 e716 2fbc
000001c0: 49b5 11bc 2f92 babd 0faf 10be 5b73 d93c
000001d0: a382 07be 4d6a b93d 17e9 a83b b008 1ebd
000001e0: 8b20 fbbd ebd1 babc 402d a6bc f86c 3cbe
000001f0: 2bed 50bd c9ee b0bd 361b 933d 2145 adbd

base.mlp.layers.1.2.weight f4 [128]
0.9848895 1.0012628 1.093056 1.0723906 1.108119 0.96178216 0.9615384 0.9206093
1.0667852 0.9793954 1.0416657 1.0337006 0.9013771 0.95419264 1.0259478 0.9660827
0.9071827 1.0539684 0.9780319 0.8656885 1.0637836 0.942137 1.0025046 1.0859355
1.0975814 1.0893013 1.104003 0.9572676 1.1627429 1.0392418 0.91004956 1.059995
0.98051137 0.90154105 1.0806029 1.066624 0.89839417 1.091787 0.8423867 1.050527
0.9690285 1.0869951 0.9752167 0.9141526 1.0459721 0.94677514 1.0264459 0.9533471
0.80028063 1.1684681 0.9869847 0.98638225 0.9154592 1.0244502 1.0647577 0.9957819
0.9055488 0.9298381 1.0024898 0.8936416 0.9793322 0.8763397 1.0180318 1.0058122
1.113231 0.9254471 1.0119045 1.0636073 1.1707176 1.0605642 1.0810407 0.8810367
1.0140642 1.0421951 1.0332052 1.084375 1.0399218 1.0284438 0.9980602 1.0403792
0.93869174 1.0395812 0.93390787 1.0074823 1.0307153 1.0642023 1.0752813 0.8684318
1.2284313 1.0644815 1.0882809 0.95319045 1.0399865 1.1116027 1.0431792 0.98461175
0.97789544 0.89219385 1.0524505 1.0319232 0.98313594 1.1657311 1.1228321 1.0856389
1.0359406 0.99303615 0.9164294 1.1250554 0.9576133 1.0043237 0.9719523 1.0237454
0.8359482 1.0931544 1.0370879 0.8606435 1.1080852 1.0297223 0.9183854 0.9855195
1.1018102 0.94738173 1.0816308 1.0973147 1.0372398 1.0431497 0.951409 1.0765184
00000000: b821 7c3f 6129 803f 42e9 8b3f 1844 893f
00000010: d8d6 8d3f 5b37 763f 6127 763f 0dad 6b3f
00000020: 6b8c 883f a8b9 7a3f 4d55 853f 4d50 843f
00000030: a6c0 663f f845 743f 4252 833f 3251 773f
00000040: 203d 683f 70e8 863f 4c60 7a3f c39d 5d3f
00000050: 102a 883f e42f 713f 1252 803f efff 8a3f
00000060: 8c7d 8c3f 3a6e 8b3f f84f 8d3f 7d0f 753f
00000070: c2d4 943f e005 853f 02f9 683f ebad 873f
00000080: cb02 7b3f 65cb 663f 3251 8a3f 2387 883f
00000090: 29fd 653f adbf 8b3f a8a6 573f ab77 863f
000000a0: 4012 783f a822 8b3f cda7 793f e805 6a3f
000000b0: 6ae2 853f db5f 723f 9462 833f 8e0e 743f
000000c0: 31df 4c3f 5d90 953f 08ab 7c3f 8c83 7c3f
000000d0: 895b 6a3f 2f21 833f fb49 883f 90eb 7e3f
000000e0: 0cd2 673f df09 6e3f 9651 803f b2c5 643f
000000f0: 84b5 7a3f cc57 603f de4e 823f 74be 803f
00000100: 5a7e 8e3f 1aea 6c3f 1686 813f 4924 883f
00000110: 13da 953f 91c0 873f 8b5f 8a3f 9f8b 613f
00000120: dbcc 813f a666 853f 1140 843f cdcc 8a3f
00000130: 281c 853f 0ca4 833f e080 7f3f 252b 853f
00000140: 1a4e 703f ff10 853f 9614 6f3f 2ef5 803f
00000150: 7bee 833f c837 883f d1a2 893f 8c51 5e3f
00000160: 3d3d 9d3f ee40 883f ca4c 8b3f 4a04 743f
00000170: 471e 853f ff48 8e3f e586 853f 840f 7c3f
00000180: 5b57 7a3f d166 643f b3b6 863f 0f16 843f
00000190: ccae 7b3f ad36 953f f6b8 8f3f 37f6 8a3f
000001a0: b499 843f 9e37 7e3f 1e9b 6a3f d101 903f
000001b0: 2526 753f ae8d 803f ded1 783f 170a 833f
000001c0: b400 563f 7cec 8b3f 4cbf 843f 2253 5c3f
000001d0: bcd5 8d3f f1cd 833f 4e1b 6b3f 024b 7c3f
000001e0: 1e08 8d3f 9c87 723f e172 8a3f cf74 8c3f
000001f0: 46c4 843f ee85 853f 8a8f 733f 5bcb 893f

base.mlp.layers.1.2.bias f4 [128]
0.069498084 -0.038417522 -0.120154716 0.029457925 -0.1574705 0.113927275 0.025423162 0.13191935
0.0047116345 0.053058222 -0.08861046 0.13715145 0.03408217 0.05596914 -0.00019430873 0.063949734
0.043108 0.12650482 0.0021190504 0.06619714 -0.069363914 0.06795516 -0.061872914 -0.09738796
-0.10098977 0.0026794723 -0.13819402 0.05971554 -0.17851117 -0.032098867 0.041141324 -0.08332015
-0.0058169556 0.011971006 -0.10184811 -0.01990487 0.026896091 -0.11090214 0.025398228 -0.057261627
0.06630517 -0.09230065 0.053703252 0.08704964 -0.062148955 0.094735436 -0.046873223 0.09414739
0.12446172 -0.19148222 0.019390972 0.09910019 0.07930914 -0.05756084 -0.08654622 0.11115666
0.06147311 0.12544885 -0.0065887924 0.03852981 0.106954515 0.019736566 -0.058585647 0.08980701
-0.09599053 0.15542698 -0.02729609 -0.03762915 -0.1844947 -0.08162946 -0.08081818 0.08921455
-0.021768725 -0.007405746 0.062097613 -0.077233 -0.03831847 -0.014516759 0.11989376 -0.048179097
0.073230356 -0.023488594 0.07525319 0.08159776 0.12546325 -0.061845794 -0.05834502 0.12223061
-0.165856 -0.07600447 -0.047396466 0.03163219 -0.09213092 -0.13600934 -0.074792 0.00028277887
0.02043362 0.06969392 -0.06443279 -0.022602197 0.07442532 -0.14453356 -0.14301409 -0.070816696
-0.05557602 -0.017520761 0.03249108 -0.0851026 0.020763509 0.048593037 0.014246935 0.021333035
0.084594354 -0.08138335 -0.051252916 0.075870596 -0.122391984 0.12173435 0.03160533 0.0194346
-0.12603049 0.044643298 -0.047910713 -0.13308866 -0.012555428 -0.049381755 0.1130086 -0.040249933
00000000: 0355 8e3d b15b 1dbd ad13 f6bd bf51 f13c
00000010: f23f 21be b452 e93d 3c44 d03c de15 073e
00000020: 0e64 9a3b 9453 593d 6779 b5bd 6e71 0c3e
00000030: bf99 0b3d e63f 653d 5abf 4bb9 14f8 823d
00000040: 0492 303d 7b8a 013e c4df 0a3b 5e92 873d
00000050: ab0e 8ebd 132c 8b3d 746e 7dbd 5773 c7bd
00000060: b9d3 cebd 169a 2f3b bc82 0dbe 4898 743d
00000070: a2cb 36be 1a7a 03bd ce83 283d c1a3 aabd
00000080: 299c bebb 0a22 443c be95 d0bd 8a0f a3bc
00000090: 3155 dc3c a920 e3bd f20f d03c 2b8b 6abd
000000a0: 01cb 873d 2008 bdbd f1f7 5b3d 1547 b23d
000000b0: e78f 7ebd a704 c23d 23fe 3fbd 59d0 c03d
000000c0: c9e5 fe3d ea13 44be d1d9 9e3c 0af5 ca3d
000000d0: d56c a23d eac4 6bbd 253f b1bd 1aa6 e33d
000000e0: 3acb 7b3d aa75 003e cce6 d7bb 6fd1 1d3d
000000f0: f80a db3d 94ae a13c 81f7 6fbd bdec b73d
00000100: af96 c4bd 4028 1f3e 0d9c dfbc 0621 1abd
00000110: 2eec 3cbe 592d a7bd 0184 a5bd 1eb6 b63d
00000120: 5354 b2bc e6ab f2bb 115a 7e3d 562c 9ebd
00000130: d4f3 1cbd b3d7 6dbc dc8a f53d 7257 45bd
00000140: ccf9 953d 276b c0bc 581e 9a3d ba1c a73d
00000150: 7079 003e 0452 7dbd 30fb 6ebd 0b54 fa3d
00000160: 28d6 29be 3ba8 9bbd cc22 42bd c190 013d
00000170: 23af bcbd 0846 0bbe 8c2c 99bd f041 9439
00000180: 6864 a73c b0bb 8e3d 57f5 83bd 3e28 b9bc
00000190: 4d6c 983d 9b00 14be 4972 12be 5808 91bd
000001a0: aea3 63bd b387 8fbc 5e15 053d 464a aebd
000001b0: 3c18 aa3c 7e09 473d fa6b 693c 9ec2 ae3c
000001c0: ce3f ad3d 50ac a6bd 94ee 51bd 0b62 9b3d
000001d0: a6a8 fabd dc4f f93d 9774 013d 4f35 9f3c
000001e0: 230e 01be e4db 363d 063e 44bd 6548 08be
000001f0: 48b5 4dbc 8644 4abd 0e71 e73d 1ddd 24bd

base.mlp.layers.2.0.weight f4 [64, 128]
0.23566964 0.00089184666 0.10802459 -0.3335668 0.05435058 0.12976941 0.085405774 0.07245349
-0.17233436 -0.16343872 0.014576776 0.05276447 -0.031026993 -0.103794806 -0.25068977 0.13299991
0.054713983 0.01693005 -0.07253088 0.23224652 0.022716206 0.04570711 -0.19486393 -0.17215465
0.03550448 -0.10883267 0.004675097 -0.070626654 -0.1647242 0.12603167 0.02959711 -0.01852726
-0.02016923 0.21363157 -0.012143326 -0.3580906 0.18321389 0.18093851 -0.2369367 0.10075877
-0.009164902 -0.16079663 0.20170276 0.0046397033 0.24703366 -0.06790073 -0.1446094 -0.16424005
0.07711615 0.034759503 -0.06814435 -0.03471813 -0.036611177 0.24729103 0.16212906 -0.04325548
0.26299652 -0.14058661 0.11787551 0.12968917 -0.041313805 0.083645605 0.1400454 0.08608374
-0.0020307451 0.15546876 -0.18531735 -0.32692477 0.02557096 0.014964525 -0.025017114 0.16523871
0.14390607 0.051927004 0.24778843 0.03158064 -0.18570043 -0.28362715 0.069784544 -0.012905668
-0.13259944 -0.04348807 0.06886987 -0.23035835 -0.17812826 -0.10130033 -0.03365078 -0.1063681
0.045677427 -0.19990824 -0.17643344 0.13979691 0.039857384 0.021906203 0.23185833 0.008915701
0.053474184 0.0707955 0.17104815 0.23384646 -0.27234074 -0.026989127 0.1884055 0.16557503
0.03323493 0.12097533 0.22284825 -0.15168668 0.24006394 -0.09393449 -0.13545087 0.105123825
-0.11721766 -0.020606682 0.13954623 0.14970277 -0.100636 0.039405838 0.077073276 0.15667309
0.047438223 0.10892872 -0.29452175 -0.019009931 -0.009212648 0.050659753 0.22241108 0.053667244
0.15922275 -0.12198462 -0.20349394 -0.104081295 -0.027055828 -0.10525519 0.056169663 0.18366918
-0.2927269 0.13192867 0.029738856 0.121257454 0.12518786 0.071063325 -0.2790554 -0.0067296033
0.31937584 0.30748406 0.07566192 -0.020132018 -0.07785857 -0.17058116 0.17136247 -0.083936565
-0.0829733 -0.037943393 -0.20374858 0.17963387 -0.2534429 0.0304244 -0.00793365 -0.18360275
0.08117955 -0.11130047 0.06717386 0.0028092249 0.020912232 -0.36307406 0.09323661 0.0046021016
0.03818046 0.13707423 0.047415428 0.02303112 -0.2062645 0.19213378 0.02300117 0.052245636
0.03869741 -0.2287122 -0.13574123 0.00023279904 -0.34271166 -0.03365212 -0.040864423 -0.00490708
0.0025616882 0.12672934 0.0059881913 0.043786563 -0.047725003 0.050723925 -0.18497854 0.10039679
-0.18618606 0.17721376 0.17309123 0.1322642 -0.039506506 -0.2710072 -0.36339352 0.2614512
-0.22093314 -0.239671 0.032758433 -0.056416772 -0.17893426 0.06830639 0.11305615 -0.18194996
-0.24606946 -0.2036988 0.07000123 -0.14602605 0.1273203 -0.13796867 -0.18968092 0.16053848
0.04050264 0.04808485 0.0908704 -0.17638965 -0.13148175 0.14410341 -0.18998814 -0.27491108
-0.10658965 0.18756512 -0.17978017 -0.21481328 0.14907132 -0.09461076 -0.104137935 0.09833549
-0.3665977 0.10189604 0.107577376 -0.09588539 -0.058740277 -0.03807651 -0.075641625 -0.043641448
0.23890999 -0.192128 0.04926148 0.10775837 -0.20052257 0.12113855 -0.05224788 -0.2532131
-0.23380731 -0.07758868 -0.14694375 -0.17919244 -0.42262438 0.051282417 0.10136594 -0.13512301
00000000: 6253 713e d1ca 693a ff3b dd3d 45c9 aabe
00000010: b79e 5e3d 46e2 043e 39e9 ae3d 7f62 943d
00000020: 6b78 30be 7b5c 27be 6ed3 6e3c 8f1f 583d
00000030: 522c febc 5f92 d4bd 695a 80be 2131 083e
00000040: c51b 603d e3b0 8a3c 128b 94bd 08d2 6d3e
00000050: 5617 ba3c 6137 3b3d 698a 47be 4f49 30be
00000060: 256d 113d aae3 debd 8e31 993b b5a4 90bd
00000070: 76ad 28be 720e 013e a375 f23c 7bc6 97bc
00000080: f139 a5bc 3cc2 5a3e cdf4 46bc a757 b7be
00000090: 6c9c 3b3e f247 393e 899f 72be 9d5a ce3d
000000a0: 6328 16bc dfa7 24be 2b8b 4e3e a708 983b
000000b0: 64f6 7c3e 8a0f 8bbd 7d14 14be 8b2e 28be
000000c0: 12ef 9d3d fb5f 0e3d 448f 8bbd 9934 0ebd
000000d0: 9af5 15bd dc39 7d3e 2905 263e a82c 31bd
000000e0: 7ba7 863e f0f5 0fbe b768 f13d 3dcd 043e
000000f0: aa38 29bd 634e ab3d 1068 0f3e ac4c b03d
00000100: 4016 05bb 3433 1f3e d5c3 3dbe af62 a7be
00000110: 317a d13c c42d 753c b1f0 ccbc 5634 293e
00000120: 1d5c 133e 69b1 543d 40bc 7d3e b35a 013d
00000130: 4128 3ebe 9437 91be 33eb 8e3d 4b72 53bc
00000140: 26c8 07be 8c20 32bd a50b 8d3d 0fe3 6bbe
00000150: 4167 36be 8c76 cfbd 66d5 09bd 85d7 d9bd
00000160: 4118 3b3d bfb4 4cbe f8aa 34be ec26 0f3e
00000170: 7f41 233d a374 b33c 456c 6d3e 2913 123c
00000180: bf07 5b3d 3bfd 903d 3f27 2f3e 7275 6f3e
00000190: 3f70 8bbe 4d18 ddbc 5fed 403e 808c 293e
000001a0: 5a21 083d eac1 f73d 5532 643e c153 1bbe
000001b0: 52d3 753e ba60 c0bd a2b3 0abe 294b d73d
000001c0: d00f f0bd 58cf a8bc 35e5 0e3e af4b 193e
000001d0: 3f1a cebd 0468 213d 98d8 9d3d e96e 203e
000001e0: 954e 423d 0516 df3d 8ecb 96be b7ba 9bbc
000001f0: a5f0 16bc 9a80 4f3d bbbf 633e 2fd2 5b3d
00000200: 4a0b 233e 13d3 f9bd b760 50be 9328 d5bd
00000210: 2fa4 ddbc 0890 d7bd 2912 663d c613 3c3e
00000220: 4de0 95be 4f18 073e e79e f33c d455 f83d
00000230: 3f31 003e a689 913d 59e0 8ebe 0184 dcbb
00000240: 3b85 a33e 8d6e 9d3e a3f4 9a3d e7eb a4bc
00000250: 5074 9fbd d4ac 2ebe a579 2f3e efe6 abbd
00000260: e8ed a9bd 886a 1bbd 78a3 50be f1f1 373e
00000270: 45c3 81be 973c f93c 24fc 01bc 5c02 3cbe
00000280: 7741 a63d 80f1 e3bd 7392 893d f91a 383b
00000290: 2150 ab3c d8e4 b9be d6f2 be3d 3acd 963b
000002a0: 1d63 1c3d 305d 0c3e ae36 423d c2ab bc3c
000002b0: 0037 53be b8be 443e f36c bc3c 85ff 553d
000002c0: 2d81 1e3d 8833 6abe c0ff 0abe 841b 7439
000002d0: e777 afbe ced6 09bd 7461 27bd 92cb a0bb
000002e0: ffe1 273b 56c5 013e 9738 c43b 8a59 333d
000002f0: 4b7b 43bd e4c3 4f3d 046b 3dbe d59c cd3d
00000300: 8fa7 3ebe 8677 353e d43e 313e 4470 073e
00000310: 93d1 21bd 75c1 8abe b70e babe efdc 853e
00000320: 4c3c 62be 516c 75be b52d 063d 4615 67bd
00000330: 8b3a 37be 38e4 8b3d fc89 e73d 1751 3abe
00000340: a2f9 7bbe 6b96 50be ce5c 8f3d da87 15be
00000350: 4160 023e a947 0dbe b73b 42be 3364 243e
00000360: 19e6 253d 9ff4 443d 431a ba3d 7d9f 34be
00000370: 27a3 06be d88f 133e 408c 42be 25c1 8cbe
00000380: ad4b dabd 1211 403e 4b18 38be 03f8 5bbe
00000390: 27a6 183e 49c3 c1bd 4546 d5bd 1e64 c93d
000003a0: b2b2 bbbe dfae d03d 8751 dc3d 8f5f c4bd
000003b0: a599 70bd 1df6 1bbd ffe9 9abd 60c1 32bd
000003c0: d2a4 743e 34bd 44be 68c6 493d 6cb0 dc3d
000003d0: ca55 4dbe 7d17 f83d df01 56bd 26a5 81be
000003e0: 2f6b 6fbe d0e6 9ebd 6c78 16be 397e 37be
000003f0: 3962 d8be 830d 523d f298 cf3d b05d 0abe

base.mlp.layers.2.0.bias f4 [64]
0.012529643 0.095640466 0.09404959 0.06867818 0.121135145 -0.06425687 0.0502617 0.0997042
0.10536918 -0.054941215 0.031718418 0.051172495 -0.14737771 0.122601956 0.12059218 -0.060770623
-0.09656985 0.1377757 -0.07743303 -0.19212693 -0.11587232 -0.09737446 -0.042398255 -0.12676813
0.062870175 0.041230492 -0.15890263 -0.12240948 0.12262214 -0.15326898 0.11912709 0.114008605
0.055708587 -0.06334594 0.040286988 -0.007775305 -0.15626405 -0.13325123 -0.077990234 0.09665079
-0.13785137 -0.051079255 -0.098675705 0.1324911 -0.15965821 0.072197765 -0.13934098 0.11364169
-0.15787017 -0.01428321 -0.13940676 0.06423269 0.098214574 -0.0503545 -0.0067398124 -0.14328061
-0.10825698 0.089016736 -0.1288895 -0.15835816 0.040393744 -0.10577728 -0.009974423 0.12025772
00000000: 2249 4d3c 26df c33d 129d c03d 25a7 8c3d
00000010: b415 f83d 1b99 83bd 36df 4d3d b731 cc3d
00000020: cccb d73d 0a0a 61bd 2ceb 013d 409a 513d
00000030: 2fea 16be bc16 fb3d 08f9 f63d 9eea 78bd
00000040: 6ac6 c5bd 1315 0d3e 3595 9ebd ecbc 44be
00000050: 784e edbd 436c c7bd cba9 2dbd 81cf 01be
00000060: 14c2 803d 4ee1 283d 5fb7 22be d2b1 fabd
00000070: 5121 fb3d 8bf2 1cbe e7f8 f33d 587d e93d
00000080: b02e 643d 84bb 81bd f803 253d fcc7 febb
00000090: af03 20be 0373 08be 58b9 9fbd d9f0 c53d
000000a0: e928 0dbe 7b38 51bd 7d16 cabd bfab 073e
000000b0: 717d 23be 6cdc 933d 67af 0ebe f9bc e83d
000000c0: b8a8 21be 2004 6abc a5c0 0ebe 6e8c 833d
000000d0: b924 c93d 8540 4ebd a5d9 dcbb 27b8 12be
000000e0: d6b5 ddbd 684e b63d 9cfb 03be a428 22be
000000f0: e973 253d c2a1 d8bd c36b 23bc ae49 f63d

base.mlp.layers.2.2.weight f4 [64]
2.8416553 2.5270612 2.5420558 2.3171844 2.4921286 2.5610123 2.9417558 2.7192256
2.342461 2.6664345 2.900907 2.8675106 2.5815597 2.433297 2.5537486 2.561032
2.5724132 2.683757 2.6535091 2.5548213 2.674945 2.5562544 2.6186388 2.6171975
2.581928 2.786351 2.6443386 2.5222042 2.4669096 2.5031528 2.4497426 2.4835737
2.7069147 2.6357088 2.849388 2.7413533 2.5371256 2.5883422 2.6638937 2.3274038
2.5747283 2.6614802 2.5687866 2.5439882 2.5168924 2.2371337 2.5632079 2.582755
2.5590956 2.6429179 2.6552653 2.7866428 2.4166691 2.6583827 2.809035 2.6425517
2.5736754 2.424784 2.5756207 2.530353 2.9371574 2.546516 3.0000439 2.348508
00000000: aedd 3540 5fbb 2140 0bb1 2240 c04c 1440
00000010: 097f 1f40 a0e7 2340 ba45 3c40 cb07 2e40
00000020: e2ea 1540 dda6 2a40 76a8 3940 4b85 3740
00000030: 4638 2540 23bb 1b40 9e70 2340 f3e7 2340
00000040: 6ba2 2440 adc2 2b40 18d3 2940 3182 2340
00000050: 4d32 2b40 ac99 2340 c797 2740 2a80 2740
00000060: 4f3e 2540 9353 3240 d83c 2940 cb6b 2140
00000070: d9e1 1d40 a833 2040 95c8 1c40 dff2 1e40
00000080: 173e 2d40 74af 2840 5f5c 3640 5572 2f40
00000090: 4460 2240 66a7 2540 3c7d 2a40 2ff4 1440
000000a0: 59c8 2440 b155 2a40 0067 2440 b4d0 2240
000000b0: c414 2140 332d 0f40 990b 2440 dc4b 2540
000000c0: 39c8 2340 9125 2940 deef 2940 5b58 3240
000000d0: b5aa 1a40 f122 2a40 3bc7 3340 911f 2940
000000e0: 19b7 2440 a92f 1b40 f8d6 2440 4ef1 2140
000000f0: 63fa 3b40 1efa 2240 b800 4040 f44d 1640
