models/critic_evil256_2_whithout_share.pt (torch, 979398 bytes, 15 tensors)

base.feature_norm.weight f4 [425]
00000000: 449f 773f ecd3 7f3f 3fb4 7a3f 071b 7b3f
00000010: 4a1d 743f 953a 813f 6486 7e3f c2f0 6e3f
00000020: 60fe 7e3f e510 7d3f 724c 883f e769 893f
00000030: 2c6f 8e3f e980 863f 7ea7 7c3f 71b6 713f
00000040: 160b 623f f5c9 663f daef 633f 40bb 783f
00000050: 42ef 723f 5876 723f 1192 713f baf5 803f
00000060: 78a0 7a3f eaf6 6a3f 8884 6b3f d7b8 6a3f
00000070: 0585 6f3f 0dea 613f ae66 723f 65df 6a3f
00000080: 3bc7 633f c0c7 6d3f c546 513f 059e 693f
00000090: 18ee 723f eac4 7b3f 5d52 823f 68af 793f
000000a0: 29a2 743f 031e 703f 681d 483f 831d 5c3f
000000b0: f28f 673f 1897 533f a942 5d3f 9d8b 6e3f
000000c0: 2a24 5e3f 162d 5d3f 2c23 763f 52f1 683f
000000d0: e059 713f e323 6c3f cd9b 633f 5f46 633f
000000e0: 50cb 743f a314 683f 9e83 623f 3ee0 663f
000000f0: bcc3 6f3f c441 6f3f 16fd 463f 77de 5f3f
00000100: ea16 7e3f 68d3 673f 6c84 633f bf41 743f
00000110: c480 6c3f a688 5e3f 1559 7d3f 08b5 813f
00000120: f456 6f3f 9dda 793f 017e 6b3f 8279 6e3f
00000130: 0a62 7b3f 1c52 7e3f b97e 833f 143a 7c3f
00000140: 74e1 593f fbec 723f eb5b 573f ffaf 6e3f
00000150: de9d 633f f481 8b3f 0ce0 933f f02a 893f
00000160: 5571 7e3f 5702 7f3f 0a29 7f3f df91 753f
00000170: 75e6 7a3f 1f6d 7c3f 47f0 7e3f dc31 723f
00000180: c4ea 543f b141 863f f017 763f 98ef 6b3f
00000190: 404a 703f e968 673f 7872 6a3f e501 6d3f
000001a0: 1903 6d3f 4464 673f 9d53 653f d502 763f
000001b0: ef54 723f 626d 783f 1d5b 803f d123 753f
000001c0: 29ba 623f 0c77 763f 33a2 623f cef6 613f
000001d0: 3926 4d3f ec8f 6f3f e9cd 5f3f f886 613f
000001e0: b36f 653f f9f4 7f3f dbd7 683f 2c87 693f
000001f0: 7c0e 803f 356c 6f3f 2b1e 633f 32d1 6c3f
00000200: f4e5 7a3f 3dd9 5a3f 7ddf 663f c010 6a3f
00000210: b48e 673f ac22 663f b775 713f c9c9 643f
00000220: 0ae2 623f 8557 613f 58ab 5d3f edef 7c3f
00000230: fb4d 693f 6be3 773f 9687 733f 2922 753f
00000240: b17b 603f b0a5 643f 6268 6c3f 7e08 743f
00000250: 6422 6e3f 9405 693f 82fb 653f 2a6b 773f
00000260: da61 683f fa93 693f 136a 753f a62f 783f
00000270: 1697 703f 05f1 813f 1917 6a3f aaa2 7f3f
00000280: d90a 803f 04ad 713f ce7d 783f 632f 723f
00000290: a61d 603f 1595 583f 5f3d 7f3f b051 7b3f
000002a0: 9c4f 893f c788 8e3f 126c a13f de37 783f
000002b0: 91a9 803f ea09 743f d809 803f ff75 7e3f
000002c0: d843 893f 327d 833f 8f0c 803f 221a 893f
000002d0: 6b53 7a3f 2f01 813f cc73 713f fdaa 793f
000002e0: 1a25 7c3f d65a 833f 7ab6 7f3f e1c7 803f
000002f0: 8c19 743f 428c 7f3f 532c 863f b58a 813f
00000300: 3a20 803f 7def 6c3f 63b0 693f 0123 7e3f
00000310: d145 743f 1339 683f 05d4 723f eef7 6d3f
00000320: 87e2 743f 823e 533f 754e 723f 9609 723f
00000330: 8e42 783f f7f6 6a3f 6d52 783f 7bbd 823f
00000340: f58b 753f 4196 603f df80 653f 1013 723f
00000350: 3451 763f 3bbd 713f a2bb 733f 00a1 793f
00000360: d1a7 653f c11a 643f fbbb 653f 32cb 6e3f
00000370: 19e9 743f 78b4 663f 5f5e 7f3f dc42 793f
00000380: 4be0 693f 1504 683f d3bb 703f 4a08 733f
00000390: 0129 733f a127 803f bf07 7d3f 5620 723f
000003a0: b2d4 743f c6a7 693f 17d3 6a3f 5de7 6d3f
000003b0: 36ff 723f c636 843f 89e3 773f 8bf0 823f
000003c0: 9cd2 623f 198d 7a3f bdfd 833f b74d 7d3f
000003d0: de64 8b3f f12c 7b3f acdb 823f 2150 823f
000003e0: d33e 783f 5220 7d3f c070 803f 9e26 973f
000003f0: 44be 993f adb9 983f 04f2 7f3f da43 753f
0.96727395 0.9993274 0.97931284 0.98088115 0.9535719 1.0096003 0.99423814 0.9333612
0.99606895 0.98853904 1.0648329 1.0735444 1.1127677 1.050809 0.9869307 0.9441901
0.88298166 0.9015191 0.8903786 0.9716072 0.9489633 0.9471183 0.94363505 1.007499
0.97901106 0.9178301 0.919991 0.91688293 0.93562347 0.8824776 0.94687927 0.91747123
0.88975877 0.9288292 0.8174861 0.91256744 0.9489455 0.9834734 1.0181385 0.97533274
0.95559937 0.93795794 0.7816987 0.8598253 0.9045402 0.82652426 0.8642984 0.9318178
0.8677393 0.8639692 0.9614742 0.90993226 0.94277763 0.9224226 0.8890961 0.8877925
0.9562273 0.9065649 0.8848208 0.90185916 0.9365804 0.93459725 0.7772993 0.8744883
0.99253714 0.90556955 0.88873935 0.9541282 0.9238398 0.8692726 0.98964053 1.0133371
0.93492055 0.975992 0.9198914 0.93154156 0.9819647 0.9934404 1.0273048 0.9852612
0.8510964 0.94892853 0.8412463 0.932373 0.8891276 1.0899034 1.1552749 1.0716228
0.9939168 0.99612945 0.99671996 0.95925707 0.980079 0.98604006 0.99585384 0.9460733
0.83170724 1.0488797 0.96130276 0.92162466 0.93863297 0.90394455 0.91580915 0.92581016
0.9258285 0.9038737 0.8958071 0.9609807 0.9466085 0.97041905 1.0027806 0.95757776
0.8856531 0.962754 0.88528746 0.8826722 0.8013645 0.9357898 0.8742357 0.8809657
0.89623564 0.99983174 0.9095437 0.9122188 1.000442 0.93524486 0.8871791 0.92506707
0.9800713 0.8548773 0.90184766 0.9143181 0.9045212 0.89896655 0.94320244 0.893704
0.8862616 0.8802417 0.86589575 0.988036 0.91134614 0.9683139 0.9512876 0.9575525
0.8768874 0.8931532 0.92346776 0.9532546 0.93021226 0.91024137 0.89836895 0.96647894
0.9077431 0.9124142 0.9586498 0.96947706 0.9398054 1.0151678 0.91441494 0.9985758
1.000331 0.94404626 0.9706696 0.94603556 0.8754524 0.8460248 0.9970302 0.9817152
1.072742 1.1135491 1.2611105 0.96960247 1.0051748 0.9532763 1.0003004 0.993988
1.0723829 1.0272582 1.0003833 1.07111 0.97783536 1.0078486 0.94317317 0.9752653
0.9849411 1.0262096 0.9988781 1.0060998 0.9535148 0.9982339 1.0482277 1.0120455
1.0009835 0.9255293 0.9128477 0.9927216 0.9541903 0.9071209 0.94854766 0.92956436
0.95658153 0.82517254 0.94650966 0.94545877 0.96976554 0.9178309 0.9700077 1.0214075
0.9591668 0.8772927 0.89649767 0.9456034 0.96217656 0.9442937 0.9520818 0.9751129
0.8970919 0.89103323 0.8973996 0.932788 0.9566818 0.90119123 0.99753374 0.97367644
0.9135787 0.9063123 0.94036597 0.94934523 0.9498444 1.0012094 0.98839945 0.9458059
0.9563705 0.91271627 0.9172835 0.9293116 0.9492067 1.0329216 0.96831566 1.0229658
0.88602614 0.9787155 1.031181 0.9894671 1.0890157 0.9811545 1.0223289 1.0180703
0.9697086 0.9887744 1.0034409 1.180866 1.201119 1.1931664 0.9997866 0.9580666

base.feature_norm.bias f4 [425]
00000000: 95a8 6fba 673d bb3c 808e 4bbc 58b8 e0ba
00000010: 92cc 3fbb 7e48 b2bb dd82 8c3c 5295 9e3d
00000020: 66ac 6c3c d234 af3c f32e f8bc 8349 3f3c
00000030: d52b 073c c99e ddbb 0b75 a2bc c52f c1bc
00000040: 1e02 74bd c7fb 19bd 26c0 60bd a93d 18bd
00000050: 0eaf ecbc 4b24 e6bc 77b0 d23a 24bb 3bbc
00000060: d5a5 34bc 0433 42bd e6bb 16bd 4f01 ccbb
00000070: 501c acbc bbfa abbd 976a 3abc 011e 71bd
00000080: 9c64 97bd 26e7 39bc 7761 5ebd 2c4a e7bc
00000090: 6532 ea3b d747 41bb b2e1 4dbc 256b b7bc
000000a0: 5fb7 32bd de64 13bd e6c7 dabc 6844 5ebc
000000b0: 250e 4f3b f4d1 babc 02b4 c0bd 2287 0fbd
000000c0: 4181 15bd 60f6 0ebc 5eb7 2fbd 40f4 1ebd
000000d0: ad13 16bc d3d7 aebc e29d 4abd 7a54 8bbb
000000e0: d974 01bd 282d 2f3a fe91 64bc bfa9 2b3b
000000f0: 8b36 d8bc aeeb e5bc e12d 97bd 8ada d5bc
00000100: 91b3 67bc 2a9f 3bbd 6183 58bd 4cf1 44bd
00000110: e418 1dbd ac8c 58bd 55a3 8c3b 9a34 09bc
00000120: 08ad eeba 56aa 3b3c 43cc bc3b f3a5 d23c
00000130: 208c 14bd fef5 6ebc f851 91bc 5547 8d3c
00000140: 3b0c 09bd 18c2 08bd a521 3cbd 4c3c ccbc
00000150: 4078 28bd 6c42 b83c 8678 943c 36ee cebc
00000160: 342f 173c 046f 2a3c 3100 913b 1a60 053d
00000170: 430b 063d f013 e7bc 27d3 2f3c 02e8 6dbd
00000180: 6e0c 98bc 8253 e5ba 8be6 1abd 7cf6 16bd
00000190: d08a 8fbc b44c 20bd 5efb bbbc 8f1b 84bd
000001a0: 787b 22bb 628d 2abd d25f fabb 70fb 47bd
000001b0: cd61 833c 4815 2abc c5c9 d13c 862c 01bc
000001c0: bb14 863b bc24 f5bb 3dd6 4abd 0113 bdbc
000001d0: 3d3e 86bd 2fd2 5bbc 55bc 5abc 07ef 1b3d
000001e0: f11d dbbc 12c7 4c3c fde6 553c ed99 c83c
000001f0: b1b0 883c 58aa b6ba 9829 af3c 9af5 393c
00000200: 7391 063c 3751 89bc ddfe 01bd 0475 07bc
00000210: 9ed9 653c 4c03 1e3c 2005 8b3c f2f7 8cbb
00000220: 64d0 3bbc 9531 d5bb b684 0c3d 3165 cf3b
00000230: e5d9 853d e29d 54b9 b89f 5f3a 8919 4b3c
00000240: 1090 d7bc d3bd fa3b 362b b139 06bf bd3c
00000250: 4907 a0bc 44a5 413c eadc 023c c097 893c
00000260: 37fb 0e3c 6dab 673d ca14 f23c 114a d43c
00000270: dd84 ec3c 72c2 673c d022 6a3c a1d6 613d
00000280: cf91 af3c 792f 8b3c 6099 173d edf2 0a3c
00000290: 3ee5 5a3d 726b cc3c 2e14 593c ffc9 1f3b
000002a0: ce09 db3c 212a 773c 48d9 b7bc 0a1f 193d
000002b0: 270e 8b3b 4152 523d 68ad 2c3c f160 483c
000002c0: e6a5 b03c 9b8d a6bb 2a8c 803c 4b43 0e3d
000002d0: 40e0 d33c 9abe bc3c 11d8 dcbc 9a9f adbb
000002e0: d427 4abc 6cd0 44bc 3a89 12bd 6dd5 143c
000002f0: 6899 a43c 1b2b ab3c 98f2 72bb de36 6a3c
00000300: e01c bd3c 5538 1c3d e5ae 1d3d 8a44 cb3c
00000310: 5fdf b13c cff0 dd3b c25b 83bc 938f 123d
00000320: 0ab7 f03c 1e61 d13c 3b00 f1bb 7489 b63c
00000330: 6e0f 1c3d b819 353d 9bbc 713d 99e3 f03c
00000340: bf45 e03c bb63 8f3d 2b34 103d 0a73 0a3d
00000350: db71 8f3c e3a8 8a3c 45a2 813c f021 173d
00000360: 9d58 d63b 07e8 c53c 03da e33b 1c45 083d
00000370: b7e1 443d b564 ed3c 9d2d 0f3d 5679 b13c
00000380: 0c7c 753d 54ec a03d c2a7 773d 005d db3b
00000390: 75f0 473c 7cb8 1b3d 8382 873c 4e71 d33c
000003a0: fe90 ce3b da9c fc3c 3b1b ca3c bc40 ce3c
000003b0: b054 c53d 266e adb8 f8ac dc3c eb6d 263d
000003c0: 9afa d93d 3e4f 583d ef55 d33c 0316 953c
000003d0: 669f db3c c2e2 6c3c 3156 ad3c d15e 8a3c
000003e0: 1d2f 3b3d 254b 433d 6072 ce3c 1121 813a
000003f0: 13c4 9c3c 43bb 8cbc 80bc be3b dd09 7d3d
-0.0009142247 0.022856427 -0.012424111 -0.0017144782 -0.002926622 -0.0054407706 0.017152244 0.07743324
0.0144454 0.021387491 -0.030295825 0.011675241 0.008250196 -0.0067633134 -0.019831201 -0.023582349
-0.05957233 -0.03759363 -0.054870747 -0.03716818 -0.028892066 -0.028093478 0.0016074319 -0.011458192
-0.011025866 -0.047411934 -0.036800288 -0.006225742 -0.021009594 -0.083974324 -0.011377952 -0.058866505
-0.073922366 -0.011346614 -0.05429217 -0.02823361 0.007147121 -0.0029492283 -0.012566017 -0.022389958
-0.043631908 -0.035984866 -0.026706647 -0.013566114 0.0031594124 -0.022805192 -0.09409334 -0.035040982
-0.03650022 -0.008725733 -0.042899482 -0.038807154 -0.0091599645 -0.021343147 -0.049466975 -0.0042520138
-0.031605575 0.0006682449 -0.013950823 0.0026193706 -0.026393196 -0.028066482 -0.073817976 -0.026105184
-0.014141933 -0.045806088 -0.052859668 -0.04808168 -0.038353816 -0.05286853 0.0042919316 -0.008374358
-0.0018209526 0.0114541855 0.0057616546 0.025713896 -0.036266446 -0.014585016 -0.017739281 0.017245928
-0.03345893 -0.033388227 -0.045930523 -0.024931096 -0.041130304 0.02249261 0.018123876 -0.025260072
0.009227563 0.010402445 0.0044250716 0.032562353 0.032725584 -0.02820775 0.010731495 -0.058082588
-0.018560614 -0.0017496201 -0.03781752 -0.03685616 -0.017522246 -0.03913565 -0.02294701 -0.06450569
-0.0024792831 -0.04163874 -0.007640817 -0.048823774 0.016037846 -0.01038105 0.025608907 -0.00788415
0.0040918267 -0.0074811857 -0.04952072 -0.02308035 -0.0655484 -0.013416811 -0.013350566 0.03806975
-0.026747676 0.012498634 0.01305556 0.02448746 0.016685816 -0.0013936264 0.021382138 0.01135006
0.008213389 -0.016762359 -0.031737197 -0.008267645 0.014028935 0.009644341 0.016970217 -0.0043020183
-0.011463258 -0.006506155 0.03430625 0.0063292016 0.06535701 -0.00020276711 0.0008530575 0.012396225
-0.026313812 0.0076520233 0.00033792265 0.023162376 -0.019534724 0.011819188 0.00798724 0.016795993
0.0087268865 0.05655997 0.029550929 0.025914224 0.028871948 0.0141454805 0.0142905265 0.055136327
0.021431832 0.01699041 0.037011504 0.00848077 0.05344128 0.024953578 0.01324944 0.0024381874
0.026738074 0.015085728 -0.022442475 0.037383117 0.0042436305 0.051347975 0.01053939 0.012230144
0.021563482 -0.0050827987 0.015691835 0.034732144 0.025863767 0.023040105 -0.026958497 -0.005298567
-0.012338597 -0.012012582 -0.0357754 0.009084088 0.020092681 0.020894578 -0.0037070867 0.014295308
0.023085058 0.03813966 0.03849687 0.024812955 0.021712957 0.0067730914 -0.016034964 0.035781454
0.029384155 0.025559004 -0.007354764 0.02228234 0.038100652 0.04421398 0.05901776 0.029405402
0.027377008 0.07001444 0.035206 0.033801116 0.017510345 0.016926235 0.015824446 0.0368976
0.0065413252 0.02415849 0.0069534793 0.033269033 0.04806682 0.028978685 0.03495561 0.021664303
0.059932753 0.07857576 0.06046272 0.006694436 0.0122033255 0.038017735 0.016541725 0.025810864
0.0063039055 0.030836511 0.024671188 0.025177352 0.096352935 -8.2697996e-05 0.026937947 0.04063217
0.106435016 0.052809946 0.025797812 0.018198973 0.026809406 0.01445836 0.021159263 0.016890915
0.045699228 0.047679085 0.025201023 0.0009851774 0.019136464 -0.017179137 0.005820811 0.061776984

base.mlp.fc1.0.weight f4 [256, 425]
00000000: ff90 dbbc cd20 92bd e864 4f3c b703 e7bc
00000010: d9e5 9a3d a630 563d df82 f23d 8994 673c
00000020: 491e a8bd 2370 7f3d 3dea f13d 9143 88bd
00000030: c6d7 c83d e0b0 623d 71c0 5f3d 3e44 1abd
00000040: c1f2 33bd d70b 98bc ab60 5f3b 7e06 a8bd
00000050: e847 acbc 542c a83d 6add 743d 103d 1d3e
00000060: 4fe1 f43c 964a 08bc f605 d83c c224 98bd
00000070: 2076 a33d ba09 be3d 83a4 0abe 6c50 4a3d
00000080: a825 29be 37c3 83bd f5ec 9f3d 28dd eb3b
00000090: 1af9 953d 1ff4 e73d 37f1 193c 7430 c2bc
000000a0: c9c0 5fbd 24cd 9ebd 9ea7 9cbd 7b82 5abd
000000b0: ea34 173e 8674 c2bc 3ad3 84bd 5ef1 e03b
000000c0: 3a83 733d 2092 bdbc 5b67 a63d 98e8 933d
000000d0: 659a 1e39 4f9b d7bc 8c0a 06bd d0c7 d8bc
000000e0: 9e02 e2bb 75e7 023d 5d7c ddbc 8225 32be
000000f0: 2000 c6bd 71b5 7abd e855 253c a3e4 023d
00000100: 01a6 4a3c b06b 153e d926 aa3d 669a 3e3d
00000110: ff35 1abd d947 233d 2f7f a3bd 6dee 7bbd
00000120: 6952 413d c8cb bcbc d8f5 c2bd 6576 ac3d
00000130: 6c71 643d 66c7 8abd 5255 4dbd 813b 853d
00000140: b7b3 a23b f020 c6bd 1186 09bd 4d52 09be
00000150: 5693 173d bbe3 1b3e 83e8 4b3e 9fb8 1bbe
00000160: 5db4 013d 5642 afbc c867 303d df70 e0bb
00000170: 2d90 c6bc e167 c83d ba8c 2e3e c75a 8ebd
00000180: 501a fd3d 2b38 133d f996 193e ca61 543c
00000190: 7cf6 003d 1e10 29be 3413 c43d 5dd1 19bd
000001a0: 4d22 a53d b02e 5a3d 64c7 ca3b 206a 11bb
000001b0: 889b dbbd 02d5 c1bd c31f dd3c b688 c13d
000001c0: f242 46bc 8c28 febc e78c 093d b6f2 64bd
000001d0: 1fc5 48bc bc47 683d 56bf c73d d1fd 31bd
000001e0: 0a14 fabd 439c 9fbc 4cb0 d13d e73d f13c
000001f0: 0b52 a0bd 79ed d1bc b767 14bd 99a7 a13d
00000200: 4743 013d c527 a43d f27f 56bd 4ca1 3a3c
00000210: facf a4bb d4d6 863d 4ed8 05bd dbb3 d53d
00000220: 9994 0e3e 1ad4 91bc e122 113d b1c7 fe3c
00000230: 3fce 473b 660c e63c ee34 1bbe b223 4dbd
00000240: 58e0 5b3c f6a3 5bbd 4de2 b43d 826c e83d
00000250: a369 203d 9ab8 9c3d 89c7 013d e18f c33d
00000260: 8d5e f9bc a030 bebd 673b 8ebd bbe4 533d
00000270: 66e1 babd c145 debd 78a1 243d 739f 843c
00000280: 18f4 74be 2b65 183d 3b4c 8dbc 572c 90bd
00000290: 6d42 5bbd d6f3 883d 9ccf 07be fb2e 59bc
000002a0: 8570 0e3e e6c8 743d 384e 65be 9085 babc
000002b0: 8508 ad3d 1737 ea3b bc7f e1bd ad75 61bc
000002c0: 3740 373d 9cdf e33d 0e4d a73d 0826 34be
000002d0: 3ef1 aa3a e8c4 cc3d 2a8c d03c 8f9d bf3c
000002e0: f984 d8bc 3f87 0fbc 7d21 803d e524 89bc
000002f0: 56ef 92bd 3373 633d dc1b 813c 2107 39bc
00000300: 7a59 c23c f75e 7bbd eff0 12bd 6530 d3bd
00000310: 8f76 023d a81f 0a3e 2e4a a43d ae69 6d3d
00000320: 44c0 0c3e 05bd 823d 4080 b53d 3474 af3c
00000330: 6426 843d 6a07 61bb 731b 52be b17f 16bd
00000340: ee4a 143e 9519 7cbb 4d7c b8bd d132 0dbe
00000350: 6322 b7bb 4abd 0d3d c74e cb3c b6a0 1a3c
00000360: debe 46bd c460 14bd 2d2b 90bd eb5f 713c
00000370: 3a22 47be 22b6 c1bd 4cce b53d ec38 1f3d
00000380: dc7e f53c acc9 cabd ade3 c23d 90b7 a73d
00000390: 35b9 cd3d f559 9cbb 7b87 083d 0df9 8e3c
000003a0: db19 15bd a0f5 d0bc 7fea 643b d71e 0c3c
000003b0: ada7 863d dfb1 d0bc d6b0 f7bd eefe ce3d
000003c0: ac5d 5ebb 0ab3 8dbc 8a8c dcbd 82cf 663d
000003d0: af5e c83d 0e8a adbc ecae 833b 554d acbc
000003e0: 44c2 c33d 40fc 03bd c9a2 a43d d133 3a3e
000003f0: 7960 933e c626 a8be 7d92 ea3c 2bbb 183c
-0.026802538 -0.071351625 0.012658335 -0.028200014 0.07563371 0.05229249 0.11841368 0.014134535
-0.082089014 0.0623628 0.118122555 -0.06653512 0.098067805 0.055344462 0.054626886 -0.037662737
-0.04393268 -0.018560333 0.0034084718 -0.08204363 -0.021030381 0.0821158 0.05978147 0.15355325
0.029892592 -0.008318564 0.02637003 -0.07428886 0.07981515 0.09279199 -0.13539319 0.049393103
-0.16518271 -0.06433719 0.07808868 0.0071979947 0.07322903 0.11325859 0.009395889 -0.023704745
-0.054627214 -0.07753971 -0.07649158 -0.053347092 0.14766279 -0.023737203 -0.06485601 0.0068647107
0.05945132 -0.023140967 0.08125182 0.07222098 0.0001512557 -0.026319174 -0.032724902 -0.026462466
-0.0068972846 0.031959016 -0.02703684 -0.1739712 -0.096679926 -0.061208192 0.010091282 0.031956326
0.01236868 0.14591861 0.08308191 0.046533965 -0.03764915 0.03986344 -0.07983243 -0.061506677
0.047197733 -0.02304639 -0.09519547 0.084210195 0.05577223 -0.067763135 -0.050130196 0.0650549
0.0049652713 -0.09674251 -0.03357512 -0.13410302 0.037005745 0.15223591 0.19912915 -0.15207146
0.03166615 -0.021393936 0.043067724 -0.006849393 -0.02423867 0.09785438 0.1704587 -0.06950908
0.12358534 0.035942238 0.14998998 0.012962768 0.031485066 -0.16510054 0.09573975 -0.03755318
0.08063183 0.05326718 0.00618832 -0.00221885 -0.107230246 -0.09464456 0.026992684 0.09449904
-0.012100922 -0.031025194 0.03358164 -0.05589553 -0.012254029 0.056709036 0.09753291 -0.04345495
-0.122108534 -0.019483691 0.10238704 0.029448463 -0.078281485 -0.025625931 -0.036231723 0.07893295
0.0315583 0.08015398 -0.052368112 0.011390995 -0.0050296756 0.06583944 -0.032676987 0.10434695
0.13923873 -0.017801333 0.035433654 0.03110108 0.0030487922 0.028082084 -0.1515691 -0.05008287
0.013420187 -0.053623162 0.08832226 0.11348821 0.039163243 0.076523975 0.031684432 0.09548927
-0.030440593 -0.09286618 -0.06944924 0.051731806 -0.091250226 -0.10853148 0.04019305 0.016189313
-0.2392124 0.037205856 -0.017248264 -0.07039707 -0.053530145 0.06687133 -0.1326279 -0.01325583
0.1391011 0.059761904 -0.2239312 -0.022768766 0.084488906 0.0071476805 -0.110106915 -0.013760966
0.044738974 0.111266345 0.08168994 -0.17592633 0.0013041866 0.099984944 0.02545746 0.02339056
-0.026430594 -0.0087602725 0.062563874 -0.016741225 -0.07174556 0.055529784 0.015760355 -0.011293204
0.023724306 -0.061369862 -0.035874303 -0.10311965 0.031851348 0.13488638 0.08021961 0.057962112
0.13745219 0.06383709 0.08862352 0.021417715 0.06452635 -0.0034336695 -0.20518284 -0.03674287
0.14481708 -0.0038467397 -0.090080835 -0.13788916 -0.005588816 0.03460435 0.024817837 0.009437731
-0.04852187 -0.036225095 -0.07039485 0.014732341 -0.1944665 -0.09458567 0.08877239 0.038872644
0.029967718 -0.09901747 0.09516082 0.08189309 0.10045091 -0.004771466 0.03333233 0.017452741
-0.03640161 -0.025507748 0.003492981 0.008552275 0.0657495 -0.02547544 -0.12094276 0.10107218
-0.0033930345 -0.017297287 -0.10768993 0.05635024 0.097836845 -0.021183994 0.004018655 -0.021032969
0.095585376 -0.032222986 0.08038861 0.18183829 0.2878454 -0.32842082 0.028634304 0.009321968

base.mlp.fc1.0.bias f4 [256]
00000000: 12f1 c83c 9a22 483c 7db3 a83a b9d2 7dbc
00000010: 6f08 31bd 2cf8 08bd b131 8a3a e73d 12bd
00000020: fdeb 33bc b43d d3bb b351 933c 8c48 40bc
00000030: da45 7f3c 22a0 a9ba 32e9 60bc 72fd 5dbb
00000040: 944f 2d3b 2a3a d8bc b775 2a3c 8494 52bc
00000050: bd58 7cba 216e e4bb bd41 2d3c c9a5 253c
00000060: 2cc9 c9bc a033 263c b0b3 0f3c dc2e f43a
00000070: 5c77 fcbc 4943 f6bc ecec dcbc 0bc9 33bb
00000080: 2984 7d3b e5a3 42bb 3647 5fbc 2d79 c1bb
00000090: c38a 3a3c 3275 6a3b e0a9 53bb 7b44 a3bc
000000a0: 3880 913c a9c3 bfbc d40e 2f3c 210b 19bc
000000b0: 561e 53bc 392b e8bc 4fe3 fb3a 6e21 6f3c
000000c0: 64ab 4e3c 447c 83bc 1569 a43c f487 a63c
000000d0: 8d04 03bd 5913 ccbc 4747 74bc ab98 c83c
000000e0: 1a2a 233c 77b0 40bb 675d 98bc a88d 023c
000000f0: fd07 b5bc 9c9e 0fbc 1798 1abc 217d 18bd
00000100: 9cb1 10bc c0d2 983b 0c6e b6bc 910e c53b
00000110: a4b0 53bc 3ef8 10bc bf64 5fbc 861e 93bb
00000120: 99b8 07bd a116 b83c b8e2 543c 3d67 dfbc
00000130: f7b9 5d3b c3bc b0ba f51c 89bc 5962 52b9
00000140: d1a1 18bc d296 23bc 72b7 e13b a78c 653c
00000150: bb4c ce3c 1e84 e7bc eaec 82bc 337d 96bc
00000160: 973f 84bc 1282 acbc 6b4f 19bb 8494 d83b
00000170: 4702 9dbc 80d0 02bd 12d2 15bd 010a c9bc
00000180: 4183 f2bb 426d cabc 4f4a d4bc 7204 973c
00000190: 81e7 753c 1137 b53c 326b 093d 10b4 363b
000001a0: abc1 45bb ca6e 13bd a66d 933c c0ea 563c
000001b0: 4709 9fbc 56db 4abc 26af 90bc 153d ee3c
000001c0: a284 533c 7077 903c 37f8 523c 9411 f6bc
000001d0: 0dbb e8bc 64ca d53c db30 dabc 8302 b3bc
000001e0: 77c9 2e3c de4e c83c 50ca 51bc 54ca 96bc
000001f0: 64eb 2f3b cb0e 2fbc bc93 093c 8ad6 ef3b
00000200: 9987 8bbb fd00 213c f779 16bc 50c2 d23c
00000210: 44d4 bf3b a148 52bc 7669 a0bb 0df0 bf3c
00000220: 4cad 583c cc13 373a 25f0 b3bc 576e afb9
00000230: a2f4 28bd 91af 1fbc 5bf2 45bc d475 82bc
00000240: 6ade 36bc 340e 3abc 7001 feb9 a137 ad3b
00000250: ac2a 03bd 9ce9 653c 29ad c23c ee6f cfbc
00000260: 06aa 60bb 304f f6bb 18c0 febc bedf 1a3c
00000270: 89d9 02bd bcda b1bc 89dc 58bc 3300 53bb
00000280: 12c8 7bbc d4df 86bc 3bba 4bbd 027e 3abc
00000290: 12fa 03bd fb2d 77bc 96d7 75bb b786 f8bc
000002a0: fc06 c53b 7ec2 a13a 92a5 94ba 63d6 9fbc
000002b0: 1194 603c 88a6 ddba ed29 f9bb 6eeb 39bb
000002c0: c999 c83b 48c7 fd3b 636c abbc 0575 ed3b
000002d0: 646b f6bc c212 c4bc 101f 1c3c 9076 61bc
000002e0: 6036 103c 25f8 f8bc ddf1 3abc 5c53 0abd
000002f0: 44a5 3bbb c436 d7ba 405c a0ba 8c8e 88bc
00000300: 58e5 8abc 67f2 87bc c74a 6dbc 4510 de3b
00000310: 1c52 b0bc d8cb abbc 1a75 f1bb 0fc5 443b
00000320: 2aa6 8e3c 70b1 52bc cc14 37bc a9bf bd3c
00000330: 7fd1 d2bb 7dff f1bb 869d 01bd 34be c4bc
00000340: 41a8 8ebc 0f36 583a b725 bebb 27cf fb3b
00000350: 5a18 acbc ea04 b8bc d716 85bb bd25 793c
00000360: 34df 57bc 1909 993b 5c58 0f3d b319 d63c
00000370: bed8 32b9 44ae 89bc 4955 30bc 430b 01bc
00000380: a8b8 bebc 717e 24bb 68fc 843a d78a 78bc
00000390: 9747 2cbc 72d2 0dbd 6442 1f3c 642b 4a3c
000003a0: 5273 8f3c cbf6 ccba 4bd6 5fbc e710 52bc
000003b0: 9d36 a43b c9ae 7dbb 4b30 a5bb f095 60bc
000003c0: e887 31b8 1d52 d83b f7d6 8c3c 5b3c 243c
000003d0: b5af babc c239 7abc ab20 4abc 083f 48bc
000003e0: cb09 a53b 469f bbbb 2cb6 deb9 905d 05bc
000003f0: f8c6 853b 5aa4 bfbc 5487 3bbc 22bf 8f3c
0.024529014 0.012215281 0.0012870874 -0.015492135 -0.043220934 -0.0334398 0.0010543374 -0.035703566
-0.010981557 -0.0064465646 0.017983293 -0.0117360465 0.015580619 -0.00129414 -0.013727473 -0.003387299
0.0026445137 -0.026394922 0.010404042 -0.012852792 -0.000962626 -0.006971136 0.010574755 0.010110327
-0.024632059 0.010144144 0.008770868 0.0018629688 -0.030818634 -0.030061381 -0.026968442 -0.0027433063
0.003868351 -0.002969974 -0.013627818 -0.005904338 0.011385622 0.003577542 -0.0032297298 -0.019930115
0.017761335 -0.023408728 0.010684688 -0.009341032 -0.012885651 -0.028340923 0.0019217524 0.014595373
0.012614105 -0.016050465 0.020069638 0.0203285 -0.03198676 -0.02491157 -0.014909572 0.02448686
0.009958768 -0.0029402056 -0.018599225 0.007968344 -0.022098536 -0.008765843 -0.009435675 -0.037228707
-0.008831408 0.004663795 -0.022269271 0.0060136993 -0.012920532 -0.008848248 -0.01363486 -0.0044897227
-0.03313503 0.022471728 0.012993507 -0.027270908 0.0033832768 -0.001348399 -0.01673744 -0.00020063798
-0.009315924 -0.009984689 0.0068883235 0.014010585 0.025183072 -0.02826124 -0.01598211 -0.018370247
-0.016143603 -0.021058116 -0.0023393284 0.0066095013 -0.019166125 -0.031937122 -0.03657729 -0.024540903
-0.0074009006 -0.024710301 -0.02591434 0.018434737 0.015008808 0.022120984 0.033549495 0.0027878322
-0.003017525 -0.03599433 0.01799662 0.013117492 -0.019413603 -0.012381395 -0.017661642 0.02908186
0.01291004 0.017635077 0.012876562 -0.030037679 -0.028409505 0.026097484 -0.026634624 -0.021851784
0.01066815 0.02445167 -0.012804583 -0.018407024 0.0026843185 -0.010684679 0.008397039 0.007319276
-0.004258108 0.009826896 -0.009184352 0.025727421 0.0058541615 -0.012834699 -0.0048953844 0.023429895
0.013224911 0.0006983846 -0.021965096 -0.0003346081 -0.041248925 -0.009746448 -0.012081708 -0.015925325
-0.011161426 -0.011355925 -0.00048447726 0.0052861725 -0.032023117 0.014032748 0.02376421 -0.025321927
-0.003428103 -0.007516764 -0.031097457 0.009452758 -0.03194574 -0.021710746 -0.013236173 -0.0032196164
-0.015367525 -0.016464151 -0.04973815 -0.011382582 -0.032220908 -0.015086646 -0.0037512532 -0.030337675
0.0060127955 0.0012341288 -0.0011340848 -0.019511407 0.013707177 -0.0016910592 -0.007603875 -0.0028369087
0.0061218482 0.0077447034 -0.020925706 0.007246616 -0.030080505 -0.023934726 0.00952889 -0.013761178
0.0088020265 -0.030391762 -0.011410204 -0.033770904 -0.0028632442 -0.001641952 -0.0012234524 -0.016669534
-0.016955063 -0.016595079 -0.01448316 0.006776842 -0.021523528 -0.020971224 -0.007368696 0.0030024683
0.017413218 -0.012859687 -0.011174392 0.02316268 -0.0064336653 -0.007385193 -0.031644367 -0.024016477
-0.017414214 0.00082478015 -0.005802836 0.0076846066 -0.021007705 -0.02246328 -0.0040615606 0.015206751
-0.013175774 0.004670274 0.034996375 0.026135301 -0.00017056146 -0.01680673 -0.010762521 -0.00787622
-0.02328141 -0.002509978 0.0010146024 -0.015169821 -0.010515115 -0.034624524 0.009720419 0.012339447
0.017511044 -0.0015637515 -0.013661931 -0.012821413 0.005011393 -0.0038708916 -0.0050411574 -0.013707623
-4.232666e-05 0.0066015855 0.017192347 0.0100241555 -0.022788862 -0.01527256 -0.01233689 -0.012222059
0.005036568 -0.005725774 -0.00042478868 -0.008139983 0.004082557 -0.023393799 -0.011445839 0.017547194

base.mlp.fc1.2.weight f4 [256]
00000000: 6d7f 7b3f 02e0 7b3f c347 8d3f 7dc6 773f
00000010: 6dfe 803f 2cb9 6b3f 46f5 813f b9e3 753f
00000020: 8b6e 883f 5bcc 793f 8a2b 813f 64bf 893f
00000030: 76f1 803f 2a7f 803f 2e9d 7e3f db76 853f
00000040: 7c7f 753f 1308 803f 53e8 843f bd95 673f
00000050: bd4a 6e3f 893c 843f c363 813f 58da 823f
00000060: 5a0b 753f f235 843f 705c 7c3f 6c49 833f
00000070: 10d0 813f 52cf 823f a0c8 813f 61de 813f
00000080: 9e27 933f 6878 813f dfba 853f f6e6 8a3f
00000090: 42d5 7d3f 9772 823f 0f92 843f 07e7 773f
000000a0: 2ed4 853f ecb0 733f 8b96 863f ef95 803f
000000b0: ba5e 7d3f 7226 823f fd05 783f d9dd 793f
000000c0: 1383 783f fde6 773f b379 853f 0ba3 7b3f
000000d0: 32c3 813f ded0 813f 663d 713f bb62 843f
000000e0: b7d2 7c3f 195c 793f b7b3 833f 4903 7c3f
000000f0: 0017 883f 55f1 7b3f 0bbc 803f 2b86 7d3f
00000100: 4997 813f 34a5 8a3f 8044 853f d516 843f
00000110: 7fd9 713f a29d 883f d371 7d3f 9bfb 813f
00000120: 99bd 833f 48d2 7d3f 627c 7d3f 5b53 833f
00000130: 4cb4 763f 20ba 793f bcc9 7c3f 2ece 823f
00000140: c3d2 773f 97a1 7f3f e853 733f c15c 733f
00000150: 5968 893f 26cb 813f a704 773f f358 7b3f
00000160: 9d92 823f 57f3 6e3f e920 803f a97b 773f
00000170: 3390 813f 1848 843f d14a 803f e138 883f
00000180: 9449 853f 7a56 813f d025 883f 0c4a 7e3f
00000190: 3294 783f dc45 8b3f 7570 833f 1036 7c3f
000001a0: 4019 7c3f e2b0 833f abb5 863f 4c9c 803f
000001b0: 3211 863f fb93 7a3f 4b19 7d3f 86b0 8b3f
000001c0: 47d5 8a3f e4f3 723f 245a 753f e683 823f
000001d0: 6a23 803f 20ee 843f 5f64 783f 852d 833f
000001e0: 6e47 793f 4a8f 803f e298 823f fb5e 903f
000001f0: 4f7c 883f f7e5 7e3f ac43 853f 091b 883f
00000200: 5252 7f3f dabd 7e3f be98 763f 414f 843f
00000210: 1dca 7a3f 6067 753f d5fb 7b3f f549 823f
00000220: 565a 703f f9ea 7e3f 4f33 7e3f 0af9 843f
00000230: 0783 823f d022 7a3f 6550 7d3f 2a28 833f
00000240: 418d 853f 8638 733f b789 7b3f e2e2 823f
00000250: 28c0 803f e2b0 7d3f b61d 863f 2b32 853f
00000260: 0d06 793f e87a 8b3f d424 823f 5dcd 803f
00000270: dec6 7c3f 3694 803f 2069 833f 5339 6c3f
00000280: 76cb 7f3f bf2a 803f 000b 763f 5b03 763f
00000290: ea34 7a3f bf99 833f d796 853f ef8e 843f
000002a0: a4cb 853f 075a 763f d3d0 6e3f 7f70 8b3f
000002b0: 11bb 813f b767 723f 1ddc 783f 1e80 763f
000002c0: 9f6f 783f c84b 7c3f c555 7e3f 7c31 803f
000002d0: 5e74 7d3f 7a62 7b3f 56d5 8b3f ee9b 803f
000002e0: a9ab 803f fd26 803f 73b1 7a3f d367 843f
000002f0: dcf6 803f e687 803f 91b2 783f 529b 7d3f
00000300: f2be 743f b67c 823f 2be3 773f e8ae 793f
00000310: 8c37 813f a463 743f fbd4 793f 9194 713f
00000320: 376e 813f 2992 853f aaee 823f c5b7 773f
00000330: a8aa 813f 58f0 843f c67b 7c3f d137 743f
00000340: 844f 8c3f 2b7f 843f 3e89 783f d563 723f
00000350: c6d6 843f 45e3 893f 7fb6 723f bfa6 793f
00000360: aad0 783f e649 813f 2b9c 853f 5234 893f
00000370: 81bd 7a3f 53b5 883f 51e7 833f 71cc 6f3f
00000380: 3280 803f b828 763f 184b 8c3f 9ac4 873f
00000390: 00e1 743f 0627 813f 5948 8e3f 1cd3 823f
000003a0: 1abb 763f 3b52 6f3f ce7e 933f fb82 833f
000003b0: ddee 8b3f 38a0 763f 01d4 773f e7df 803f
000003c0: c7d0 803f c0fa 783f e026 8e3f 85e9 783f
000003d0: 2a11 7b3f 4e5c 723f 366d 7b3f bb58 853f
000003e0: dd62 863f 138d 7a3f 3af8 7d3f 09a2 863f
000003f0: 0901 773f 3a68 813f 892a 853f d3a7 763f
0.9824131 0.98388684 1.1037525 0.96787244 1.0077645 0.92079425 1.0152977 0.960506
1.0658735 0.97577447 1.0091412 1.0761533 1.0073688 1.0038807 0.9945859 1.0426897
0.9589765 1.0002464 1.03834 0.9046286 0.9308279 1.0330974 1.010857 1.0222883
0.95720446 1.0328963 0.9857855 1.0256782 1.0141621 1.0219519 1.0139351 1.014599
1.1496465 1.011487 1.0447654 1.0851734 0.9915353 1.019122 1.0357074 0.96836895
1.0455377 0.95191836 1.0514692 1.0045756 0.98972666 1.0167983 0.9688414 0.9760414
0.97075003 0.96836835 1.0427765 0.9829566 1.0137694 1.0141866 0.9423431 1.034263
0.98759025 0.97406155 1.028922 0.9844251 1.0632019 0.9841512 1.0057386 0.9903285
1.0124294 1.0831666 1.041153 1.0319468 0.944725 1.0673106 0.99001807 1.0154909
1.0292236 0.9914899 0.9901792 1.0259813 0.9636886 0.9754963 0.9874532 1.0219171
0.9680597 0.9985594 0.95049906 0.95063406 1.0734969 1.0140121 0.96491474 0.981826
1.0200993 0.9334006 1.0010043 0.96673065 1.0122131 1.0334501 1.0022832 1.0642358
1.0413079 1.0104516 1.063654 0.99331737 0.9710113 1.0880694 1.0268694 0.9851999
0.9847603 1.0288355 1.0524191 1.0047698 1.0473998 0.9788205 0.9886672 1.0913246
1.0846337 0.949034 0.9584067 1.0196502 1.0010808 1.038517 0.97028154 1.0248266
0.9737462 1.0043728 1.0202906 1.1278986 1.0662936 0.9956965 1.0411277 1.063325
0.99734986 0.9950844 0.96326816 1.0336686 0.9796465 0.9586086 0.9843114 1.017882
0.9388784 0.9957729 0.9929704 1.0388501 1.0196236 0.9770937 0.989508 1.0246632
1.0433732 0.9500812 0.9825701 1.0225489 1.0058641 0.99098027 1.0477817 1.0405935
0.9727486 1.0896883 1.0167489 1.0062672 0.9874095 1.004523 1.0266457 0.9227497
0.9991983 1.0013045 0.96110535 0.9609887 0.9773699 1.0281295 1.0436658 1.035612
1.0452771 0.9623112 0.9328739 1.0893706 1.0135213 0.94689506 0.97210866 0.9628924
0.9704532 0.98553133 0.99349624 1.0015101 0.9900569 0.9819714 1.092448 1.0047586
1.0052387 1.0011898 0.97927016 1.0344185 1.0075336 1.0041473 0.9714747 0.99065125
0.9560386 1.0194309 0.96831006 0.9753251 1.0095077 0.9546454 0.9759061 0.9436732
1.011176 1.043523 1.0229084 0.96764785 1.0130205 1.0385847 0.98626363 0.9539767
1.0961766 1.0351309 0.97084415 0.9468358 1.0378044 1.0772482 0.94809717 0.9752006
0.97193396 1.0100677 1.0438284 1.0719092 0.9794541 1.0680336 1.0304967 0.9367133
1.0039122 0.9615588 1.0960417 1.0606873 0.9565582 1.0090034 1.1115829 1.0220675
0.96379244 0.9348485 1.1523073 1.0274347 1.093227 0.96338224 0.9680787 1.006833
1.0063714 0.97257614 1.1105614 0.9723132 0.98073065 0.94672096 0.9821352 1.0417703
1.0498921 0.9787151 0.9920689 1.0518199 0.96485955 1.0109932 1.0403606 0.9634983

base.mlp.fc1.2.bias f4 [256]
00000000: b19e 0c3d 2d86 703c 476b 993c e54b 1c3c
00000010: 3a06 99bc d4eb 403d 02a0 c23c 620d 5a3c
00000020: 593b c2bc e87c 8f3c 64fe 623c 92e4 22bc
00000030: a08d 8d3c 0c4b d9ba f66b 5bb9 9cb5 83bc
00000040: 106e 873c e226 7eba 4029 b63c 5b25 c23d
00000050: 61b6 b63c 8103 82bc 146c 47b9 5df1 e93c
00000060: 490f 7e3c 250e ba3c 8803 5d3c a915 a6ba
00000070: 825b febc 3844 c7bc ae4f 83bc 74c0 be3c
00000080: 0143 073c 52cc aa3a 38c4 823a 4c53 033c
00000090: 0f00 003d ce0b 3a3c d993 3f3c 363b 8a3c
000000a0: 634e d53c f8da fb3b 9465 2cbc 64fb 06bc
000000b0: 30e3 b03b 5fdf a2bb ad6a b53c a66b 4c3c
000000c0: 3d71 b03c efaa a63c 2a43 e53c 3389 a83c
000000d0: 7249 39bc 3492 34bc 58df 023d cbb9 d03c
000000e0: eed0 2b3c 93d2 3ebb a759 a0bc 8043 2d3c
000000f0: c109 d9bc 2c1c 14bb 8327 b93c 806d 3cbc
00000100: 1443 3ebc e0e6 2f3c da5b e6bc db71 553c
00000110: 92e2 fe3c 6bc7 90bc de46 613a 9302 9ebc
00000120: d06c 09bb 0952 bc3c 5db9 a03c e351 97bc
00000130: bb88 df3b a861 173c 5dc1 9c39 9b85 033c
00000140: 5e8e 6f3c 1b28 273d 6c9a 893c e955 153c
00000150: 1f35 0f3c 0946 35bc c099 4b3b 9be5 9cba
00000160: 75dd b2bc b97b 5c3c 4c53 733c 86f6 ce3c
00000170: c49f 5cbc 5728 c7bc 8fce c8bc 769b b9bc
00000180: 2930 013c cf3f 52bc cc54 09bd eb02 ad3c
00000190: aba4 643c 83b7 9c3c 29da 163d d46d 2a3c
000001a0: 55ea 5d3c 4431 c0bc 19a7 f53c e373 973c
000001b0: e09c 20bc aa2a 1fbc 0403 523c cb54 ad3c
000001c0: b541 133c 85e5 ba3c 40a5 493c 1265 3f3c
000001d0: e6d0 89bb c899 753c 1f96 803c 1c6b 3bbc
000001e0: b2dc 623c dbc6 7c3c 03d6 18bb 9364 dbbc
000001f0: 2ac6 e63b 1f44 8cbb 7dbf a63b 028f 69bb
00000200: e3c7 2c3c a60f b63c 8703 be3c e009 9e3c
00000210: 82da da3c 3b49 a23c a14e 183d 011f ad3c
00000220: 2d9c f23c ad27 1c3c 5898 3dba fe58 1a3c
00000230: cd07 a6bc bbc3 153d 9b85 733c 9d84 82bc
00000240: 8a76 6ebc 6bd1 8c3c 9a18 c33b faaa d1bb
00000250: 42e4 c4bb a414 ef3c 9e8a ab3c 4d6d 8cbb
00000260: 40c2 4c3c c4b0 5cbc e0b6 8cbc 9eb9 683c
00000270: 5e8c 86bc 6588 66bb 95ae 4cbb 5d07 c23c
00000280: 8653 cc3c c460 d0b8 9dd9 d8ba 3b2e f93c
00000290: 1e79 073b d80e 74bc 0170 893c d77b c0bc
000002a0: cff1 723c 37af 553c 7a5e 4d3c 2f31 0ebd
000002b0: 7977 ab3c e0ee 333c f97a 243c 427d 6e3c
000002c0: 8066 5c3c fac8 ec3c be47 793b 047b 023c
000002d0: 7290 b9bb 334c 65bc 6439 fc3c 69c7 ff3b
000002e0: cfad 233c d87f 31bc dd55 dc3b 29bb c7bc
000002f0: c5e9 a73b eb5c 743c d82c 5f3c f7ff 69bc
00000300: d4dd 953c 19e7 b3bc b4df 8eba 1964 fa3b
00000310: 1246 32bc 06f4 c33c 75bc edbb 1580 a83c
00000320: 998b 223c 44de 1fbc 9a05 2dbc 065b bd3c
00000330: f994 2fbc 0e28 c8bb eb60 2a3a c9d6 3f3c
00000340: 5b61 9fbc 36c6 373c e46f 933c 7ffb d73c
00000350: 3808 98bc af50 03bd dda4 643c bc0c f63c
00000360: c52c 693c 9b01 4d3b 2018 293d fa0c ac3c
00000370: 2f08 543c 395a 1bbd 2a9f eebb 41da 9c3c
00000380: 93f5 303c b87d 8e3c a4bf 083d de2c 94bb
00000390: e556 613c 68b0 01bc 2bca 373c 0d23 903c
000003a0: 140c 9c3c 1096 573c f1b5 d9bb 9915 f4bb
000003b0: 09fd 733d 390b 933c 8693 e93c 2c44 bdba
000003c0: 608e 8f3c ee68 c23c 8c1e 3aba 5855 9e3c
000003d0: cc2a 013d 997c 533c b28d 2d3c 1df1 d3bc
000003e0: 9e70 fcbb f6ac 873c 98df 3d3c 8860 bd3a
000003f0: 9bca 563c ac32 39bc 3e02 20bc a390 e93c
0.034331027 0.0146804275 0.018727912 0.009539579 -0.018679727 0.047099903 0.023757938 0.013308855
-0.02370994 0.017515615 0.013854597 -0.009942191 0.017279446 -0.0016578152 -0.00020925686 -0.016077809
0.016531974 -0.0009695125 0.022236466 0.09479781 0.022303762 -0.015870811 -0.00019018381 0.028557474
0.015506574 0.022711823 0.013489611 -0.001267125 -0.031049494 -0.024324521 -0.016029205 0.023285128
0.008255721 0.0013030863 0.0009976691 0.008015465 0.031250056 0.0113553535 0.0116929645 0.016873937
0.026038354 0.007686015 -0.010522265 -0.008238647 0.0053981766 -0.0049704756 0.022145594 0.012476837
0.021538371 0.02034518 0.027986128 0.020573234 -0.011309015 -0.011021186 0.03195128 0.025479218
0.010486824 -0.0029117211 -0.019574 0.010575175 -0.026493909 -0.00225998 0.022601848 -0.011500716
-0.011612672 0.010736197 -0.02811997 0.013027634 0.031113897 -0.017673215 0.0008593629 -0.019288337
-0.0020969398 0.022988336 0.019619638 -0.018471664 0.0068217195 0.009239592 0.00029898706 0.0080274595
0.014621345 0.040809732 0.016797267 0.009114721 0.008740692 -0.011064061 0.0031066984 -0.0011970283
-0.021834115 0.013457232 0.0148514025 0.025264036 -0.0134658255 -0.024311228 -0.024512557 -0.022657137
0.007885017 -0.012832596 -0.033528134 0.021119555 0.0139552755 0.019130474 0.036829147 0.010402162
0.013544639 -0.023460992 0.029986905 0.018487876 -0.009803027 -0.009714762 0.012818102 0.021158597
0.008987834 0.022814522 0.012307465 0.011681812 -0.004205811 0.014990278 0.015696583 -0.011439111
0.013846563 0.01542827 -0.002332092 -0.026781356 0.007042666 -0.0042805816 0.005088745 -0.0035638218
0.010545704 0.022224259 0.023195041 0.019291818 0.02671552 0.01981031 0.03718436 0.021132948
0.029615486 0.009530944 -0.0007232479 0.009420631 -0.020267392 0.036563616 0.014863397 -0.015932376
-0.014554629 0.017189702 0.0059538605 -0.006398556 -0.0060086558 0.029184647 0.020940121 -0.0042854906
0.012497485 -0.013469879 -0.017177045 0.014204411 -0.016424354 -0.0035176512 -0.0031231989 0.023685152
0.02494217 -9.936237e-05 -0.0016544346 0.030417552 0.0020671557 -0.014896117 0.01677704 -0.023496551
0.0148281595 0.013042263 0.012534732 -0.034714874 0.020930992 0.010982245 0.010039085 0.014556231
0.013452172 0.028904427 0.0038037146 0.0079638995 -0.005662971 -0.013995218 0.030789085 0.007805754
0.00999017 -0.010833703 0.006724103 -0.024381237 0.005124303 0.0149147315 0.013621531 -0.014282218
0.018294252 -0.021960782 -0.0010900409 0.007641327 -0.010880964 0.02392007 -0.007255132 0.020568887
0.009920978 -0.009757582 -0.010560418 0.023114692 -0.01071667 -0.0061082905 0.0006499427 0.011708924
-0.019455602 0.011216691 0.01799769 0.02636504 -0.018558607 -0.032059368 0.013955322 0.03003537
0.014231865 0.0031281475 0.041282773 0.021002281 0.012941404 -0.03792784 -0.0072821574 0.01914704
0.010800737 0.017393932 0.033385888 -0.00452195 0.013753627 -0.007915594 0.011217634 0.017594839
0.019048728 0.013158336 -0.0066440036 -0.0074488637 0.059567485 0.017949687 0.028512727 -0.0014439872
0.017523944 0.023731675 -0.0007099889 0.019327804 0.031534955 0.012908124 0.010592865 -0.025871808
-0.0077038547 0.016561966 0.011588953 0.0014448324 0.013109828 -0.011303585 -0.00976616 0.028511351

base.mlp.fc2.0.0.weight f4 [256, 256]
00000000: 97eb 4bbe ba97 13bd d0ce 2c3e 1870 0b3d
00000010: 33b7 efbd 0df8 953d c0cc 21bd f47b df3b
00000020: 2f24 be3d f285 60bc 8442 1a3e 7305 1b3e
00000030: 4822 b6bd 5115 19be 217b 00bd d883 493e
00000040: 1b67 8e3d 4d40 fabd 28c5 e83d 9fc0 cb3d
00000050: 81fb cebc aeca 01be 5f7d f93c ee0c 8dbb
00000060: 6b33 973d ed16 39bd 2e2a 46bc f31f 023e
00000070: ffea 87bd 2805 173e 5cfd 123e 3236 bc3d
00000080: 2632 7fbe d002 0b3e df9d ce3d e430 4ebd
00000090: 7902 3cbd f85b 023d 9601 51be 07c1 f93d
000000a0: 3c6f 5b3c fd92 973d 02b7 843d 3b3d 023b
000000b0: d5af 90bd e122 533d 87f2 2abe e503 bbbd
000000c0: 65bb 2b3d 3871 01be 3e01 133e a3bb 893c
000000d0: 62df 2d3d 24d9 3bbd 5432 463c 322b 71bc
000000e0: fcab fe3d 7736 83bc 1651 85be bb78 2d3d
000000f0: 737d 5fbd 5dfc 6f3d b9b4 fa3c 6592 de3c
00000100: 50e5 cbbd 96c9 e03d d608 5b3e af21 06be
00000110: 24d2 42bc fbc1 773d 0f7c 19be baee 533d
00000120: d68c e53b f03d 80bd ea89 9f3d 2016 99bd
00000130: 736c 3dbb 7204 59be bca2 cd3c a006 953d
00000140: 2285 1ebe 4c74 913e a420 0cbb cef0 a7bd
00000150: b590 103e c3cf d73a 113a 353c c4b8 223c
00000160: eb5a c03c 0f2c 693d 99c9 9abd b059 86be
00000170: b9ba 2e3e 3383 06bd 32ef 9abc d0b1 353d
00000180: 7dee fbbd 5b49 783d 24e5 583d be22 d3bd
00000190: 0811 c2bd cbf4 16be e023 f23c 5b46 b3bd
000001a0: d69c 443e 8be1 c03d 4d95 9d3d b7a6 5d3d
000001b0: 8663 be3d 19ea 57bb f8ba f03c b7ad d93d
000001c0: 4de2 53bc 1555 01bd 45b5 91bd 2e3d a1bd
000001d0: ef2f 783d 6f3d f8bd 92c2 923d fb3b b8bd
000001e0: 121b 883d 42e9 12bb 5e59 8f3d efff 8dbd
000001f0: b1af c8bb 06bf a73c 4760 eabd 32ca 433e
00000200: 3e94 e7bd 9bcc 22be 3ae0 f9bd 023d cbbd
00000210: 51c7 6abd b0d5 d73d b307 5dbe 9a42 8bbd
00000220: 26ea 0ebd b737 903c 81b3 4e3d 8fa8 47bd
00000230: f56c c53b 06ab 26bc 88f8 f0bd 156c c7bd
00000240: a41f c9bd 20fd 0abd 42c5 a23d e9a6 14be
00000250: 87b6 c73d af07 ebbc 5b6e 20be 4a35 1abd
00000260: 155f 78bd 47a4 5c3e b4be a03c 6ef5 05be
00000270: 5fa8 2c3d b64a 633e e474 3bbe 0aaf ca3d
00000280: b643 4f3e b771 fa3c 45ab 19bd dd4d a03d
00000290: 140d 363d af32 6dbd 986d 33be ecc4 00bd
000002a0: fbc1 4f3d 775c f5bd d65c bfbd ae7f a6bd
000002b0: 2459 84bc 5002 21bd 70e9 88bc cae2 7d3d
000002c0: cb80 873d 116c afbd a019 0ebe fcd7 b7bd
000002d0: 9595 1e3b 85fd 92bd 21cd ec3d bdb9 06bc
000002e0: 8673 c63c c07d f2bc 97c8 443e 4192 90bc
000002f0: 5165 7ebc 6e92 c6bd 8103 dcbc 8c87 2d3e
00000300: c35d c63c ad0a 1ebe 253d b3bc a052 50bc
00000310: 0765 813d 7f23 cabd a5a1 7bbd d8a2 a83d
00000320: 285e 2abe dd82 88bc 3f44 3fbd 4de2 83bc
00000330: 69c0 403d e626 ce3c ecb7 363e 452a 853c
00000340: 9d78 8c3d 4e4d 613c 9d8e a8bd 79a0 babc
00000350: 752f 0c3e 42be 243c 595b adbd 4096 a2bc
00000360: 2253 9b3d 73cb f7bc bf46 e0bc db8c 2f3d
00000370: be38 8d3d 4ec8 343d 49a8 0539 fe67 f63a
00000380: 7ebc babb 808d 973d 352c 013d 3c2b 8abd
00000390: 7cfc e0ba 1b7f bebd cda3 dd3d eae8 983b
000003a0: 9e32 f6bc e5cd a53c fbaa 02bd 8e57 6e3c
000003b0: 9463 a53d 2b72 263e ac70 9cba f29b 883d
000003c0: 0335 6c3d a55a 3abe 3edb 973e 8ee8 acbd
000003d0: 7b73 0d3e d7ce a93b aa4d abbc a652 5d3d
000003e0: 9dec 103d 0e93 0bbd 0b4f 4a3d f0df b4bd
000003f0: 1e23 bd3b 82bf 0f3e 2abf 9fbc 4e8d bebd
-0.19914089 -0.03603337 0.16875768 0.034042448 -0.11704864 0.073227026 -0.039501905 0.0068201963
0.09284245 -0.01370381 0.15064436 0.15138797 -0.088932574 -0.14949538 -0.031367425 0.196792
0.069532596 -0.12219296 0.113657296 0.09948849 -0.02526641 -0.12674972 0.03045529 -0.00430452
0.07382854 -0.04518788 -0.012095017 0.127075 -0.06636619 0.1474806 0.14354461 0.091900244
-0.24921474 0.13575292 0.10088705 -0.050339594 -0.045900796 0.03182599 -0.20410761 0.1219502
0.01339322 0.07401083 0.064802185 0.0019872922 -0.07064787 0.051546935 -0.1669408 -0.09131602
0.04192676 -0.12640846 0.14355943 0.016813105 0.042449363 -0.04586138 0.01209696 -0.014719771
0.12435147 -0.016017182 -0.26038426 0.042351466 -0.054562997 0.05859028 0.030603753 0.027169416
-0.09955847 0.109759495 0.2139009 -0.13098787 -0.011890922 0.06048773 -0.14988731 0.05174134
0.0070053143 -0.06261814 0.07789977 -0.07474923 -0.0028903752 -0.21193102 0.025102012 0.07276654
-0.15480474 0.2840904 -0.002138176 -0.08200227 0.14117701 0.0016465116 0.011061207 0.009931747
0.023480853 0.056926783 -0.07557983 -0.262403 0.17063417 -0.032839965 -0.018912885 0.04435903
-0.123013474 0.060616832 0.0529529 -0.10309361 -0.09475905 -0.14741819 0.029558122 -0.087536536
0.19200453 0.09418019 0.076944925 0.05411407 0.09296326 -0.003294593 0.029386029 0.106288366
-0.012932372 -0.03157528 -0.071146525 -0.07872997 0.060592588 -0.121210925 0.071660176 -0.08995815
0.06645788 -0.0022416865 0.06999467 -0.06933581 -0.0061244597 0.02047683 -0.11444145 0.191201
-0.11307572 -0.15898363 -0.12200971 -0.09923746 -0.05731899 0.105388045 -0.21584968 -0.067998126
-0.03489127 0.017604692 0.050464157 -0.048744734 0.0060249516 -0.010172611 -0.117661536 -0.09737412
-0.09820488 -0.033932805 0.0794778 -0.14516796 0.09751611 -0.028690187 -0.15667097 -0.037648477
-0.060637552 0.21547042 0.019622184 -0.13081905 0.04215276 0.22196469 -0.18306309 0.09896667
0.20240673 0.030571802 -0.03751685 0.07827351 0.044446066 -0.057909664 -0.17522275 -0.0314378
0.050722104 -0.11980527 -0.09343879 -0.08129822 -0.016155787 -0.039308846 -0.016712874 0.06198386
0.06616362 -0.08565534 -0.13876963 -0.089767426 0.0024198045 -0.07177261 0.11562563 -0.008222994
0.024225008 -0.029600978 0.19217144 -0.017647864 -0.015527085 -0.09695898 -0.02685714 0.16946238
0.024214631 -0.1543376 -0.021879742 -0.012715012 0.063180976 -0.098700516 -0.061433453 0.08234185
-0.1663748 -0.016663963 -0.046695944 -0.01609912 0.047058497 0.025165033 0.17843598 0.016255507
0.06858943 0.013751341 -0.08230326 -0.022781597 0.13689978 0.010055127 -0.08464689 -0.019847035
0.07584216 -0.03024838 -0.027377484 0.04285894 0.06895588 0.044136338 0.0001274656 0.0018799303
-0.0056987396 0.07400036 0.0315363 -0.067465276 -0.001716509 -0.09301587 0.10822258 0.0046664374
-0.030053433 0.02023978 -0.03190134 0.014547242 0.08075634 0.16254489 -0.0011935434 0.06670369
0.057667743 -0.1819864 0.29659456 -0.08442794 0.13813584 0.005182128 -0.020911057 0.054033898
0.035381902 -0.03407579 0.049391787 -0.08831775 0.0057720086 0.14037898 -0.019500334 -0.093042955

base.mlp.fc2.0.0.bias f4 [256]
00000000: e082 64bc 3406 d7bc 3c63 49bb 24a4 b8bc
00000010: 9e27 59bc 3668 e2bc 0e76 13bc ece9 7e3c
00000020: e51d 27bd 894e 02bd b542 8cbc dd86 143d
00000030: 9927 4cbd dbfa 63bd 1f6a 013d baeb 373c
00000040: 79ab efbc e848 f23c 9e00 963c ec88 34bc
00000050: 0b75 fabc 4b66 5b3c d3e5 1ebc 6963 10bd
00000060: d56d b7bc c512 44bd a79d aebc 488d a5bc
00000070: d10e a4bc e1a0 41bc 0bdd 30bc 4b39 26bd
00000080: 5e6d 9ebc 738d 9bbc 52d5 61bb 581f aebc
00000090: 7c62 19bd 4d73 9a3c 1f08 09bd 979e 513c
000000a0: 1585 b53c 3491 b53c 8940 75bc e705 e93c
000000b0: 34d9 283d 8db5 0a3d 2cf5 a2bc 48e7 9c3c
000000c0: ebb0 f93c bb25 30bb 3c41 09bc bed4 5dba
000000d0: b1c9 723c 7313 61bc dc77 da3c 09c1 3d3c
000000e0: 8817 02bc d60b 77bc d875 f13c ac35 85bc
000000f0: 2561 bcbc d510 5fbc 5a2a c9bc 4864 cb3c
00000100: 8753 2dbc d2e2 6a3c 4906 933c ea64 aabc
00000110: 63a8 dd3b 9754 953c ce9b 023c 2744 e03c
00000120: 4340 54bd c4c4 4fbc 4209 f5bc b428 a93c
00000130: 4c19 093c cffa f7bc 2078 2bbd fde2 82bc
00000140: d46d d5bc 1b28 dc3c 7279 153d 5673 973c
00000150: fb82 9abc ce7c cdbc 71ff 7cbc 64d0 d3bc
00000160: bae3 d5bc c945 de3c 4946 dd3c fdaf 8fbc
00000170: 8e68 dd3c 90a5 f9bc efd9 6bbc 9697 82bc
00000180: 05fd 13bd b736 d3ba 5438 7cbc cd49 a0bc
00000190: 313d d5bb 0797 43bd caab 8fbc fd0e 1dbc
000001a0: c562 8bbc 4414 91bc ddaa 01bd e601 32bd
000001b0: 66bb f2bc bdd9 e0bc 0614 d6bc db31 a8bc
000001c0: c746 613a 25c2 bcbc e159 e7bc 5694 46bc
000001d0: aa61 b93c a09b 463d 5cf3 4dbc 9db7 26bc
000001e0: ab6d bf3c 2d50 19bd 4410 03bb c597 c9bc
000001f0: 0c13 b0bc 1c34 92bb be23 e9bc 7bb5 64bc
00000200: 0151 89ba 7c71 efbb 15de 11bd a216 0eba
00000210: e232 013b 31da 06bd 60f4 153d eac7 e3bc
00000220: 737e 19bc 67ed c4bc 6f92 07bd dfe8 8f3c
00000230: bb84 f93b 6895 16bc a8b7 d23c 4767 03bd
00000240: ef4b f03c 61a1 aebc 646f 08bb ab2e 2bbd
00000250: 6926 17bd ef52 46bc 77b8 e9bc 5de1 e5bc
00000260: 3e4d c83c 4f7c ffbc 4858 f3bc dec8 fcbc
00000270: cc86 4ebc 3385 cdbc 0dad 96bc 6fd7 9dbc
00000280: 7cfd 0d3c 6c24 e63c 3f83 8dbc bab5 42bb
00000290: eac1 14bc f392 00bd b32c c93c b1b7 bbbc
000002a0: 5806 d83c 24a6 043d 2396 e4bc 1f89 e0bb
000002b0: 880f 9cbc 993c b4bc 0605 98bb 7385 143c
000002c0: 4118 22ba a3f1 12bc 6fe0 32bc e58d 96bc
000002d0: 0a6c 943b 8e54 593b ca33 9ebc 71d9 02bd
000002e0: b988 d73c 86dd 65ba 48b8 25ba 99ac cdbc
000002f0: 0e00 8e3c 05ef 23bc b1bc babc 05ea b3bc
00000300: 170e 463c 22bc 9a3b 893f e7bb 4b5c a3bc
00000310: cbeb 0dbd 0ecb 153d c727 80bc 7a5b 763c
00000320: 1d6c abbc 8265 46bd 0126 6abc 584b 3fbd
00000330: c865 cfbc 0bca a1bb 9888 9a3c fce1 02bd
00000340: 896f c7bc 42f6 d3bc 34ca bebc 16e2 2f3c
00000350: 0a8f f4bc da52 243c 61a8 00bd f7b9 00bd
00000360: f791 cabc 7d27 1e3c e7d6 ae3c 791f f9bc
00000370: 15e8 55bc 5785 1ebd 44a0 d53c da20 813c
00000380: e9da 2ebc 0f09 dfbc 1408 9abc 840e efbb
00000390: c26d 973c a202 82bc eb6e 55bc 5a5f f63b
000003a0: 657a a8bc 9cb7 80bc 4b16 613b cfa9 4b3d
000003b0: 9381 1bbd 3aec 3ebc 87b9 dc3c 3f2b 52bc
000003c0: d002 1bbc cec7 07bb 2c03 c4bc 7cda b4bc
000003d0: 195d 04bd fddb b5bc 1517 143c fa8b b73c
000003e0: 3c77 f43c d08e 213d ff04 6d3c 1a77 8dbc
000003f0: b8d5 c5bc 9731 dd3c 29f8 5dbd 55b7 1d3d
-0.013947219 -0.026248075 -0.0030729314 -0.022539206 -0.013254074 -0.027637582 -0.009000314 0.015558701
-0.040799994 -0.03181318 -0.017121652 0.03626143 -0.04984245 -0.055659156 0.031595346 0.011225635
-0.02925657 0.02957578 0.018310841 -0.011018973 -0.030573389 0.013391088 -0.009698349 -0.035251055
-0.02239124 -0.047869463 -0.021315409 -0.02020897 -0.020026596 -0.011818142 -0.010794888 -0.040581983
-0.01933926 -0.018988347 -0.0034459424 -0.02125518 -0.037447438 0.018853808 -0.03345501 0.012794158
0.022158185 0.022163965 -0.014969 0.028445197 0.041222766 0.033864547 -0.019892298 0.019153252
0.030479869 -0.0026877958 -0.0083773695 -0.0008462182 0.014818595 -0.013737547 0.026668482 0.011581668
-0.007940181 -0.0150785055 0.029475138 -0.016260944 -0.02299554 -0.013614853 -0.024556328 0.024828091
-0.0105789965 0.014336305 0.017947333 -0.020800073 0.006764458 0.018228812 0.007971717 0.027376248
-0.051819097 -0.01268119 -0.029911641 0.020649292 0.008367848 -0.030270962 -0.041862607 -0.015977377
-0.026053347 0.026874593 0.036492772 0.018487614 -0.018861284 -0.025083926 -0.015441761 -0.025856204
-0.026109565 0.027132886 0.027011054 -0.017539972 0.027027395 -0.030474454 -0.014395221 -0.015941422
-0.03612997 -0.0016114329 -0.015394289 -0.019566441 -0.0065075387 -0.047751453 -0.01753797 -0.009586093
-0.01701487 -0.017709859 -0.03165709 -0.04345884 -0.029630374 -0.027447576 -0.026132595 -0.020531585
0.00085936155 -0.023041794 -0.0282411 -0.012120327 0.022629578 0.04848826 -0.012570228 -0.010175613
0.023367723 -0.037429977 -0.0019998709 -0.024608502 -0.021493457 -0.0044617783 -0.028459426 -0.013959284
-0.0010476412 -0.0073072296 -0.035612185 -0.00054202427 0.0019714166 -0.032922927 0.036610007 -0.027805287
-0.009368527 -0.024038984 -0.033098634 0.017567096 0.0076146997 -0.009190895 0.02572234 -0.032080915
0.029333083 -0.021317186 -0.0020818347 -0.041792553 -0.036901865 -0.012104734 -0.028530343 -0.028061563
0.024450894 -0.031187205 -0.029705182 -0.0308575 -0.01260538 -0.025087928 -0.018393064 -0.019267766
0.008666392 0.02809354 -0.017274497 -0.0029710368 -0.009079436 -0.03139014 0.024557447 -0.02291474
0.026370212 0.032385007 -0.027903622 -0.0068522836 -0.019050375 -0.022001551 -0.0046392707 0.00906502
-0.00061834237 -0.0089687435 -0.010917767 -0.018378207 0.004529481 0.003316197 -0.019311804 -0.03194565
0.026310312 -0.00087686663 -0.00063217105 -0.025106715 0.01733401 -0.010005717 -0.022795053 -0.021962175
0.01208832 0.004722134 -0.0070571345 -0.01994147 -0.034648698 0.0365706 -0.015643967 0.015036458
-0.020925576 -0.04843665 -0.014291287 -0.046702713 -0.025317088 -0.0049374155 0.018863961 -0.031953797
-0.024345176 -0.02587426 -0.023289777 0.010735055 -0.029853363 0.010029519 -0.03141058 -0.03142735
-0.024727805 0.009652969 0.021342708 -0.030410515 -0.013055821 -0.03870138 0.026077397 0.015762735
-0.010672309 -0.027226 -0.01880268 -0.0072954316 0.018484954 -0.015870396 -0.013026933 0.007518691
-0.020566175 -0.015712552 0.0034345563 0.04972249 -0.03796537 -0.0116530005 0.026943935 -0.0128276935
-0.00946112 -0.0020718458 -0.023927294 -0.022076838 -0.032315347 -0.022199625 0.009038706 0.022405613
0.029842012 0.039442837 0.014466523 -0.017268706 -0.02414976 0.027001185 -0.054191742 0.038504917
