models/critic_evil64_1.pt (torch, 133682 bytes, 11 tensors)

base.feature_norm.weight f4 [420]
00000000: ee5c 843f c57b 8d3f bc90 853f 46c9 883f
00000010: 2b40 853f 9bb7 923f 7670 8f3f 4353 883f
00000020: cce0 8b3f fde8 993f 236f 1f3f 8c01 1c3f
00000030: 69ef 2f3f a22a 493f 80d9 1c3f ac12 623f
00000040: c1d1 673f fec5 1f3f dc9f 153f 7dee 0a3f
00000050: 1231 633f 4be1 373f 0add 663f 1ceb 713f
00000060: e332 543f ab32 063f 00e7 503f 31f9 393f
00000070: 5587 693f 8ea6 0d3f 8f55 1e3f f942 4a3f
00000080: c1c3 b53e 1c4d f13e efa6 ff3e 578c 883f
00000090: ff7a 6b3f 5571 603f f41e 813f f32b 8c3f
000000a0: 92b5 343f 0dbd 7e3f fc72 3f3f a0c0 7a3f
000000b0: cc45 513f 3ba1 323f d2a7 033f 9133 413f
000000c0: e792 363f 68bf e13e 0142 873f 133c 843f
000000d0: 3d47 8b3f ad56 503f 1216 6c3f 1f37 773f
000000e0: c4ad 5e3f 460c 533f f5d2 423f 7281 323f
000000f0: cc46 273f 0cbe 113f cf00 593f e26c 0f3f
00000100: c64f 403f 5ab9 7a3f 440f 823f 0d71 873f
00000110: 886a 733f faa0 763f b827 6d3f b88b 7f3f
00000120: 002d 6a3f ad89 7f3f fc84 493f ae66 603f
00000130: 52f0 2e3f 61c5 733f d81e 323f 824d 663f
00000140: e6a0 883f 011d a23f 4673 a53f 885b 8b3f
00000150: a4a0 893f 3f9d 853f 22e4 853f 3ee7 7e3f
00000160: 5e86 6e3f 537f 6a3f a1e8 353f 92e8 873f
00000170: 8aba 623f b120 533f 726b 523f 04aa 223f
00000180: 4d3e 193f 91b5 2b3f 5054 233f b0bd 533f
00000190: 05d9 323f 5ccf 2c3f 4d20 553f 8d12 6f3f
000001a0: 666e 5d3f 0354 4e3f 5476 883f 5e75 853f
000001b0: d468 333f 848c 783f 4b65 3e3f 8cfb 463f
000001c0: a676 3f3f b59b 0c3f fe2d 603f 608c 2f3f
000001d0: 383c 003f b9cd 3f3f f0a1 6c3f c7dc 5f3f
000001e0: 5c48 643f 0733 7b3f 7e35 7b3f b93e 1c3f
000001f0: 3c79 3b3f 4878 063f de95 303f 84c1 343f
00000200: 4a75 483f 230e 643f d970 0f3f 35da 0a3f
00000210: 5791 653f 5313 693f 1c1e 593f fa2c 7a3f
00000220: 0c1b 763f d3fc 843f 52ad 373f 3203 4b3f
00000230: d7ec 473f 6361 643f eaf2 433f e71a 383f
00000240: 0143 2c3f c610 033f 4ff2 0f3f 2ee9 243f
00000250: b418 823f 5966 903f df29 6c3f 4ac9 643f
00000260: 2972 723f 2658 5f3f 3ec5 9a3f 375c 5a3f
00000270: 7e4f 983f c06e 673f 6a3f 553f 966f 493f
00000280: 6908 4c3f df04 853f a17b 713f ad3b 943f
00000290: 10d8 9f3f 90a7 c03f 284f 863f 3cb5 8d3f
000002a0: 712d 8c3f 5313 8c3f a347 813f 4f8e 6d3f
000002b0: 7c7b 893f cf26 a43f 47d2 9c3f 26e4 893f
000002c0: cd3e 2d3f 74c0 433f 8e87 8b3f cae7 653f
000002d0: 018c 5a3f d0ea 633f 0ae6 4a3f afad 4f3f
000002e0: 845b 6f3f ce82 543f cfb0 743f 1c9f 6c3f
000002f0: 6dd1 5e3f e3fe 823f 550e 703f 883a 303f
00000300: 6ca4 473f ea91 5c3f fde7 473f 9c82 4f3f
00000310: 5327 4c3f 2392 393f 99c6 473f 8054 4b3f
00000320: f48f 493f 3000 443f 06b0 733f f472 5a3f
00000330: b444 4f3f 419a 643f 26ab 4d3f 3390 5f3f
00000340: 4b65 473f 87a5 723f d641 4a3f a31a 3c3f
00000350: 3b03 2f3f b0ef 463f 8883 563f 8b75 2c3f
00000360: 0938 683f b17c 543f 8a1b 5a3f 71bf 413f
00000370: e787 363f 1fa0 5c3f da14 673f bbeb 573f
00000380: 5063 5c3f 70dd 313f 603c 373f 2f73 2f3f
00000390: 52e8 0a3f 0aa2 233f 8438 4a3f 8fc1 6f3f
000003a0: 7b22 563f c861 863f 5094 693f fa57 3b3f
000003b0: 6219 8b3f f69d a33f 854e a53f d6e6 993f
000003c0: 1c3e 8f3f 745a 923f 93f5 843f 03b8 823f
000003d0: 7d5d 303f d052 7f3f 26f6 b33f 8956 ba3f
000003e0: 0fc3 b23f b325 803f de8c 823f 90cb 8d3f
000003f0: a336 883f e5b8 8b3f f3a9 833f e580 8a3f
1.034086 1.1053396 1.0434794 1.0686424 1.0410208 1.1462282 1.1206195 1.065041
1.0927978 1.2024227 0.62278956 0.6093986 0.68724686 0.7858068 0.6126938 0.8830974
0.90554434 0.6241149 0.5844705 0.54270154 0.8874675 0.71828145 0.9018103 0.94499373
0.82890147 0.52421063 0.8160248 0.7264586 0.91222125 0.5533227 0.618493 0.7900844
0.3550091 0.47129142 0.49932048 1.0667828 0.9198455 0.8767293 1.0087571 1.0950912
0.70589554 0.9950722 0.7478483 0.9795017 0.81747127 0.6977727 0.5142795 0.7546931
0.71317905 0.44091344 1.0567018 1.0330833 1.0881115 0.81382257 0.92221177 0.96568483
0.86983895 0.824406 0.76103145 0.6972877 0.653424 0.56930614 0.8476686 0.56025517
0.75121725 0.97939074 1.0160909 1.0581375 0.9508443 0.9633938 0.9263873 0.9982257
0.91474915 0.9981945 0.78718543 0.87656677 0.6833545 0.9522305 0.69578314 0.8996202
1.0674102 1.2665101 1.2925804 1.0887308 1.0752149 1.0438613 1.0460246 0.995716
0.9317378 0.9160053 0.7105809 1.061785 0.88565886 0.8247176 0.821952 0.63540673
0.5986069 0.67073923 0.63800526 0.82711315 0.69862396 0.67503905 0.8325241 0.9338768
0.8649658 0.8059694 1.0661111 1.0426443 0.7008183 0.9708941 0.7437331 0.7772758
0.7479042 0.5492509 0.8757018 0.6857357 0.50091887 0.7492328 0.92434597 0.87446254
0.8917291 0.98124737 0.981285 0.6103321 0.73231864 0.52527285 0.6897868 0.7060778
0.7830397 0.8908407 0.56031567 0.5423921 0.89674896 0.9104511 0.8481157 0.9772488
0.9613502 1.0389656 0.7174884 0.7930175 0.78095764 0.892111 0.7654253 0.7191605
0.6728974 0.5119747 0.5622911 0.64418304 1.0163789 1.1281234 0.9225139 0.8936964
0.94705445 0.8724388 1.2091444 0.8529696 1.1899259 0.90403366 0.8329989 0.7868589
0.7970033 1.0392112 0.9432927 1.1580712 1.2487812 1.5051136 1.0492907 1.1070933
1.0951368 1.0943397 1.0099987 0.9279527 1.074081 1.2824343 1.2251672 1.077275
0.6767395 0.76465535 1.0900743 0.8980681 0.8536988 0.8903017 0.7925726 0.81124395
0.93499017 0.8301209 0.9558229 0.9243028 0.8703831 1.0234035 0.9377187 0.6883931
0.7798526 0.8616015 0.7808836 0.8105867 0.79747504 0.7248861 0.7803741 0.7942581
0.7873528 0.76562786 0.95190465 0.85331655 0.8096421 0.8929787 0.80339277 0.87329406
0.77888936 0.94783825 0.7900671 0.73478144 0.68364304 0.77709484 0.8379445 0.67366856
0.907105 0.83002764 0.8519827 0.7568274 0.7130112 0.86181825 0.9026619 0.8434407
0.8608904 0.6947851 0.715765 0.6853513 0.5426074 0.63919127 0.78992486 0.9365472
0.83646363 1.049859 0.9124193 0.73181117 1.0867121 1.2782581 1.2914587 1.202357
1.1190829 1.1433854 1.0387443 1.0212406 0.6889265 0.99735737 1.4059494 1.4557658
1.3965777 1.0011505 1.0199239 1.1077747 1.0641674 1.09158 1.0286239 1.0820585

base.feature_norm.bias f4 [420]
00000000: 6e1d aabd 1a2f b6bd 1fe2 45bc 4940 6fbd
00000010: 099e 82bb 1e34 d63c 166e 89bd f5d3 82bb
00000020: 01e5 1bbd 4408 d53c 4133 c0bb 92e7 9bbd
00000030: 678d ba3c 57de 97bd cadb fcbc f6f6 cc3c
00000040: fab7 033d 12d6 13be 19ed 9dbd 64d0 4d3d
00000050: 369e f0bd e820 913b bedd f6bd 2ae1 013c
00000060: 4c82 96bd 498e 223a b276 05bd c5e5 f0bb
00000070: 0eb8 6fbd d323 c0bd aae9 0fbb deb2 58bd
00000080: 3c24 18be 8d16 b3bd c8ac 69bc dc77 433d
00000090: 8fb2 35bd d69e 0bbd 85c0 8dbd c93a 76bc
000000a0: 775e 043e 2a69 843d b0d3 9b3d 3258 cb3a
000000b0: 535b 613c 8204 1cbd 65fa 313c 8cc5 a9bd
000000c0: 63f2 543c b263 f0bb ce2e 27bc be8b 63bd
000000d0: a254 96bd f82d d63c c954 843d 16c9 eb3d
000000e0: da8b 393e 614b 1a3d 6c44 ed3d 5691 083e
000000f0: 0b4c 9a3a ea02 5c3d 9152 c83d 635f 023d
00000100: e1fd e53d 7230 183e 6572 0e3c 579f b8bc
00000110: e391 3a3d 08de b1bc 736d fe3b 7242 fc3d
00000120: b276 063e f1a4 b63c a698 033e 268a 853d
00000130: 440d 023d af21 5c3d dad0 cf3d fb5a dbbc
00000140: 195a bb3c a456 9a3d aacb 90bd 6da3 6ebd
00000150: 7c3e 5abd 1295 273d a427 8dbc 4a13 b33c
00000160: 6310 ccbc 3123 3dbd a4d7 843d 4f51 e5bc
00000170: 970f 45bd 1228 b4bb fbe7 d33c 4b4a 83bd
00000180: d1be 95bd 0c97 88bd 7bc1 b23c 7234 953d
00000190: f584 88bd e144 32bd d758 a33c f7e8 51bd
000001a0: ca3e a6bd e4a1 10bd 1c69 6c3c 1ed5 44bc
000001b0: ddd3 b1bc 1674 e53c fce3 213d 09cd 04bd
000001c0: a463 10be 1195 cb3c 3ca9 8b3d 4f23 2c3d
000001d0: 063b 11bc 2bbc a13c e23d 3dbc 92cd 96bd
000001e0: 12cc 6dbd 2a4c 9c3a 7d25 173d a701 9d3c
000001f0: f51a 2b3d 6d25 c3bc a34a 2bbc 85b2 9c3d
00000200: 7dd0 073d 55e1 d93d 0a71 0e3c 3307 723d
00000210: a6cf 043d 6fc6 8f3b e808 c43c 467e 41bd
00000220: b4d6 efbc cf80 cfbb 7baf 26bc c7b9 833d
00000230: 1665 5b3c d256 253d d61b a53d 6557 b8bc
00000240: de14 7a3d e851 d5bd 64d2 f63c 3fd4 06bd
00000250: 843e 34bd 0ec1 84bd 2cba f2bc e5f5 9f3d
00000260: cbdb 923d 58b7 0c3d 8e2c 833d d726 6a3d
00000270: a95e c43c 70a3 b837 b4f2 c6bb e034 2e3d
00000280: 033a 22bd 6488 643d 157c b7ba 7fb4 993d
00000290: 8427 8c3d 57f3 b4bd cde5 ae3b 60e5 9abd
000002a0: 1a46 2bbd 57e9 83bd b43b bc3c 04df 493d
000002b0: a3ba 4cbd 3ffc 91bc a046 3d3d 94ae 48bd
000002c0: 0765 b9bc 3415 d43c 59ba 603d 4e41 17bc
000002d0: 3123 a03d cfb0 8a3d 14bd df3c 0520 df3d
000002e0: 41a8 27bc 9d26 2a3d c112 f5bc 183a 8dbd
000002f0: 27cc 473b 9047 24bc cb9f 18bc f5a4 a93d
00000300: 84f2 e23d b9dd 8c3d 23c3 7d3d d116 eb3c
00000310: 422f 9d3d b9cf bf3d 4400 863d 7e7f 293d
00000320: 424b 393d 5196 53bc cc2e 00bd 5c89 e33c
00000330: 194d 29bd 1c19 00bd 92cf 8a3d 15e9 bf3c
00000340: aa6d a73d 7545 323d 67ae 8f3d 5cae 0e3e
00000350: 1dce dd3d d2d8 283d 1611 5d3d 8be1 b53d
00000360: c8c4 a5bc 759c fc3c dae3 66bd 51d6 5f3c
00000370: 1ccf e93d a46c 813d 76e8 fe3c 94fe 393d
00000380: 5c4b 893d 076a e53d b4cc 033e 9b7d 003e
00000390: a915 cf3d 88df 003d f0b5 f63c 2316 133e
000003a0: aeee 233e dfb0 0abd a688 37bd 300a af3d
000003b0: d894 d43d 7d7d 693d 10b2 193e c3a3 3e3d
000003c0: 13a9 913d 5a38 253d a6a2 903d 677a 1cbd
000003d0: 5f1b b2bb ea14 1b3d 8cbf 663d 5e18 b53d
000003e0: 6dcc 86bd 7156 04bc 9476 853b 7832 9fbd
000003f0: 343e 55bd ca68 95bd f078 163c 6154 24bd
-0.083063945 -0.08895703 -0.012077837 -0.058410916 -0.0039861244 0.026147898 -0.0671045 -0.0039925524
-0.038060192 0.026004918 -0.005865485 -0.07612528 0.022772504 -0.07415455 -0.030866522 0.025020104
0.032157876 -0.1443713 -0.077112384 0.050247565 -0.11748926 0.0044289716 -0.12054013 0.007927218
-0.07349071 0.0006201012 -0.0325839 -0.0073516094 -0.058525138 -0.09381833 -0.0021959343 -0.052904956
-0.14857572 -0.087445356 -0.014262386 0.04772173 -0.04435974 -0.034087025 -0.06921486 -0.015028664
0.1292666 0.06465371 0.076087356 0.0015513955 0.013754684 -0.038090236 0.010862921 -0.08289632
0.012997243 -0.0073361034 -0.01020403 -0.05555319 -0.07340361 0.026144966 0.06461484 0.115129635
0.18119755 0.037669543 0.11585316 0.13336691 0.001177193 0.053713717 0.09781373 0.03182925
0.11230064 0.1486223 0.008694266 -0.022536917 0.045549285 -0.021712318 0.007764512 0.12317361
0.13131216 0.022295447 0.128512 0.0652049 0.031750932 0.05374306 0.10147257 -0.026776781
0.02287011 0.07536057 -0.07070096 -0.058261324 -0.053282246 0.04091365 -0.017230816 0.021859784
-0.024910158 -0.04617614 0.06486443 -0.027992873 -0.04811057 -0.005497941 0.025867453 -0.06410655
-0.07311786 -0.06669435 0.021820774 0.07285394 -0.066659845 -0.04352272 0.019939823 -0.051247563
-0.08117445 -0.03531064 0.014429357 -0.012013702 -0.02170747 0.028009456 0.039524063 -0.0324221
-0.1410051 0.024851354 0.06819388 0.04202586 -0.00886417 0.019743046 -0.011550399 -0.07363428
-0.058055945 0.0011924554 0.036900986 0.019165827 0.041773755 -0.023821557 -0.0104548065 0.076512374
0.033157814 0.10638682 0.008693943 0.059088897 0.03242459 0.004387669 0.023930028 -0.047239564
-0.029277183 -0.006332494 -0.010173674 0.064319186 0.0133908 0.040366 0.0806195 -0.02250261
0.061055057 -0.10416013 0.030129619 -0.032917257 -0.044004932 -0.06482135 -0.02962979 0.078105725
0.071708284 0.034354538 0.064049825 0.057165947 0.023970919 2.2010616e-05 -0.006071413 0.042530894
-0.039606106 0.055794135 -0.0013998771 0.0750513 0.068434745 -0.08835476 0.005337453 -0.07563281
-0.0418149 -0.064409904 0.022977687 0.04928495 -0.04998268 -0.017820476 0.04620993 -0.048994616
-0.022631181 0.025889017 0.054865215 -0.009231878 0.07819212 0.06772005 0.02731184 0.10894779
-0.010232986 0.04154073 -0.02991617 -0.06895846 0.0030486675 -0.010026827 -0.009315441 0.08283416
0.110814124 0.06878228 0.061953675 0.028697403 0.07675029 0.09365792 0.065430194 0.04138135
0.045237787 -0.012914256 -0.03129463 0.027775459 -0.04133329 -0.031273946 0.06777872 0.023426572
0.08175214 0.04352327 0.070156865 0.139337 0.108303286 0.0412224 0.053971373 0.088809095
-0.020235434 0.030836323 -0.05636964 0.013661937 0.11416456 0.0631955 0.031116705 0.0454088
0.06703827 0.11201864 0.12871057 0.12547915 0.10111553 0.031463176 0.030116051 0.14363913
0.16009018 -0.033860084 -0.044808052 0.08546865 0.10379952 0.05700444 0.15009332 0.046542894
0.071123265 0.040336944 0.07062273 -0.03820267 -0.005435392 0.037861742 0.056335017 0.08842538
-0.0658196 -0.00807725 0.0040729735 -0.07773298 -0.052061275 -0.072953776 0.009184107 -0.040119532

base.mlp.fc1.0.weight f4 [64, 420]
00000000: 881c f63d 6a31 e33d ebf8 3d3e 5fea 163d
00000010: 52b0 103d 6ce3 13bf c83e ce3e bddd 483f
00000020: f362 3ebe db4c c8be d7a6 13be ba41 ccbd
00000030: 793f 643d 7e05 b2bd 7cb2 623e 9e55 ffbd
00000040: 2c9f 323e 528f bcbd 1216 82be 4072 393e
00000050: 4e6e a0be 6922 c3bd 6faa e0bd c813 193e
00000060: e38d 02be cb32 08bf 55fa 74bd 61b3 2d3e
00000070: 4399 643e 57ee 523d 4d29 fe3e 24a3 103d
00000080: d46d 753e e679 c8bd 00aa bcbe 5446 e6be
00000090: f2f7 593e b1b5 6a3e 5998 a0be ecff 92bd
000000a0: 586e aabe 4974 1bbe e299 f03d 8f09 a3bc
000000b0: 55ae 5a3d 109a f23c 8342 dc3d 7f8b 10bd
000000c0: 1079 41bd 7cd4 4bbd 2b47 3e3c 75e9 9ebd
000000d0: 9de3 123d d1ad 6b3e a4ad fd3d 084b b23d
000000e0: 1783 13bd d1d1 aa3e 246c 53be 909e d63d
000000f0: 92fd eb3d 7568 933e 5206 583d aca9 ac3b
00000100: 900b 913c 7e4b 793e a641 d43d 3d6b 0c3d
00000110: cce8 9a3d 4c22 233e c6d8 253e 7401 1b3e
00000120: 9cdb d2b8 7c33 163e f67c 3dbd ddbd ae3d
00000130: 0540 9f3d 4ee4 aabc 7833 b3bb 6cb5 25be
00000140: 2860 c6be 326d c3bb aa1b f3bd 0ba5 013e
00000150: ecaf 033e 701e 9c3d c88f 893e 4687 b53d
00000160: bed8 513d 7bf1 b2be 9779 1ebe cbc2 1cbe
00000170: 2487 d83d 61a3 00bc 0654 803d 69e2 12bf
00000180: 5c86 613d 528a 54bd 4e75 a63e d993 83bd
00000190: 8225 77bd e29a 253e c2ba 53be cb2b 043e
000001a0: 84b4 a2ba c576 83bc 1345 c3be da2d 37bd
000001b0: d07b 91be e2f5 053d f7d8 9dbd 9f35 903d
000001c0: 1c38 1c3e 6560 f3be 1a29 22be 3fe5 fabe
000001d0: e613 43bd 3d8b 7bbe 1d5b 8fbd 2e95 503e
000001e0: 66d3 58bd b299 d0bc 870c 4e3d 341e 203e
000001f0: 4752 e73d bc92 d43c af77 b5be b887 4dbd
00000200: 36ce 99be c0e9 88be 6607 c33d 2100 14bd
00000210: 37a2 d0be 17f1 183c 3d7d a3ba dd08 153c
00000220: d02e 9a3c 4314 29bc a053 9fbe 46d0 00be
00000230: b9f9 8b3d 3b9d 3fbd 5802 babd f9dd 4abe
00000240: 8131 eebc 0fc5 68be 4ea6 493e d1ab a8bd
00000250: e91e f53d 39ad 143e f5f1 1dbc 4a3f 1c3e
00000260: ea1f 48bd 2e48 38be 34b5 a5be 0ee6 ef3d
00000270: 42d9 153c 4873 20be 5761 c13d dbbd 80be
00000280: 6efe 2fbe 0e1e e03d b630 b8be 391d 8bbe
00000290: 9962 ebbe 2d44 883e 51e4 4d3e 5e74 963d
000002a0: 98de 743d d5e8 cb3d 3a68 ab3d 0d6b 6fbd
000002b0: bf9f 3c3d 3cc6 a2bd 5910 873d 9d99 cfbd
000002c0: d0bf a33d f671 bfbd e737 ccbe 80e6 e2bd
000002d0: 0fe0 9abd dd4c 593e dc42 843e a105 ca3a
000002e0: ba68 2b3d cc88 f5bd cf7c b2bd 84fc c5bc
000002f0: 4c26 3d3e fe75 723d 7d80 e23d 61c9 58be
00000300: 3217 1ebe 8626 5abb d0e2 68be 852a 59be
00000310: 1308 833e 7730 273e 86ba 943e 4b60 a83e
00000320: 9d62 2ebe 1b08 4bbc 10a5 4ebd a26d 24bc
00000330: 544b 273e 96e1 153d 086f 9fbd a1d5 94bd
00000340: 422e 853d 3763 17be 4cf2 72be 18ee b1bc
00000350: c17b 993e 18ce 2f3e 1c1c 1e3e da25 33be
00000360: cc9e c43d e8a5 ad3d 5d21 d7bd 3197 9d3d
00000370: 6923 b43c faf8 da3d 8e68 09bd 9370 c33d
00000380: 0fc6 85be 5559 92be 6350 5dbc 2f60 383e
00000390: 478d 563d 8e67 9d3b f9d4 89be 1bf7 47bc
000003a0: 107c 2d3e 41a0 003e b70f c4bb 52aa 9a3c
000003b0: 401c e1bd 22d1 4bbd f024 97bd 3c36 f2bc
000003c0: 88b3 403e 39f5 0a3e 4ece 4bbe f132 84bd
000003d0: 91b1 bdbb 455c 083e 88b7 aa3e 3fff ff3b
000003e0: 6593 983c 06ed 223e da7c b03d 65d4 033e
000003f0: b425 afba 2596 bf3d 4dcd 853d d52e a0bd
0.12017161 0.11093409 0.18551986 0.036844607 0.035324402 -0.57768893 0.40282273 0.78463346
-0.18592434 -0.39121136 -0.14419113 -0.09973474 0.055724595 -0.08692454 0.22138399 -0.12467502
0.17443532 -0.09207024 -0.25407463 0.18109989 -0.31334156 -0.095280476 -0.10970008 0.14948952
-0.12749438 -0.53202504 -0.059809048 0.16962959 0.2232409 0.05149683 0.49640885 0.035311833
0.23967677 -0.09788875 -0.3684845 -0.4497553 0.2128599 0.22920872 -0.31366232 -0.071777195
-0.3328731 -0.15181078 0.11748101 -0.019902019 0.053388912 0.029614478 0.107548736 -0.035289284
-0.047234595 -0.049763188 0.011613647 -0.07759372 0.0358616 0.23015524 0.12386635 0.08705717
-0.03601369 0.33363202 -0.20646721 0.10479462 0.11522974 0.28790632 0.052740403 0.00526925
0.017705709 0.24345204 0.10364084 0.034281958 0.07563934 0.15931052 0.16195974 0.15137273
-0.00010054486 0.14668077 -0.04626175 0.08532307 0.07775883 -0.020860817 -0.005468782 -0.16182488
-0.38745236 -0.005963945 -0.11870511 0.12660615 0.12860078 0.07622993 0.2686751 0.08863692
0.051232092 -0.3494986 -0.1547607 -0.15308683 0.10572651 -0.007851453 0.06266026 -0.57376724
0.055059776 -0.051889725 0.3251137 -0.06424684 -0.060338505 0.16172364 -0.20676711 0.1290733
-0.0012413417 -0.016047845 -0.38138637 -0.04472146 -0.28414774 0.032705195 -0.077073984 0.070414774
0.15255779 -0.4753448 -0.15835992 -0.49003026 -0.0476264 -0.24564834 -0.069998 0.20369408
-0.05293598 -0.025463913 0.050304916 0.15636522 0.1129499 0.025948875 -0.35442874 -0.05017826
-0.3004014 -0.26740837 0.095228955 -0.036132935 -0.4074876 0.009334824 -0.0012473237 0.009096351
0.01882115 -0.010319772 -0.31118488 -0.1257945 0.0683474 -0.046780806 -0.09082478 -0.19811238
-0.02907634 -0.22731422 0.19692346 -0.082358964 0.11968786 0.14519204 -0.009640207 0.15258518
-0.04885856 -0.17996284 -0.3236481 0.11713801 0.009146037 -0.15668976 0.09442394 -0.25144848
-0.17186901 0.109432325 -0.35974663 -0.27170733 -0.45973662 0.26614514 0.20106627 0.07346414
0.059782594 0.099565186 0.08369489 -0.0584517 0.046050783 -0.079479665 0.06594915 -0.10136721
0.0799557 -0.09347908 -0.398864 -0.11079121 -0.07562267 0.21220727 0.2583226 0.0015413054
0.041847922 -0.119889826 -0.087152116 -0.02416826 0.1847164 0.059194557 0.110596634 -0.2117057
-0.15438536 -0.0033287122 -0.22742772 -0.21207626 0.25592098 0.16327082 0.29048556 0.32885966
-0.17029805 -0.012392069 -0.050450385 -0.010035904 0.16337329 0.03659209 -0.077848494 -0.07267309
0.065029636 -0.14783941 -0.23725241 -0.021719977 0.2997723 0.17168462 0.1544041 -0.17494908
0.096006006 0.0847891 -0.105044104 0.07694853 0.021989541 0.1069202 -0.033546977 0.09542956
-0.2612767 -0.2858378 -0.013507935 0.18005441 0.052380826 0.0048036044 -0.26920298 -0.012204911
0.16941857 0.12561132 -0.0059833187 0.018880043 -0.109917164 -0.04975999 -0.07380092 -0.029566877
0.18818486 0.13570108 -0.19902918 -0.06455029 -0.00578899 0.13316448 0.33343148 0.00781241
0.01862497 0.1591073 0.086175635 0.12873991 -0.0013362677 0.0935481 0.06533299 -0.078214325

base.mlp.fc1.0.bias f4 [64]
00000000: a3af 02bd 8dae 3cbd 232b 9ebc 2c95 13be
00000010: ac7b ba3d 7941 8bbd b3b8 c2ba db15 13be
00000020: 02c2 be3d c372 bd3b bdc7 27bd 94f7 b4bd
00000030: c90d 353d 7d45 1ebe ce43 863d ac9a a7bc
00000040: 582c 95bd f75b 69bd 39f1 b8bd 54e7 ddbd
00000050: 7933 15bd 98b3 17bd f3ad d9bd 1aa7 d03b
00000060: b3d2 80bd 26f1 adbd e83e 82bd d346 99bd
00000070: 2fb0 9cbd 7155 8a3d 5de1 4d3d 0cb7 38bc
00000080: 96a3 083e 6809 043d 7875 85bd d502 fcbd
00000090: 8663 f93c 0df4 63bc 57c2 833d fcde cebd
000000a0: a580 13be 35cc db3d a0f2 c3bd c886 21be
000000b0: 648e d03c 7065 dfbd 2de0 b43c 24ba d63c
000000c0: d761 853d c129 82bd bc6d 8c3c b33d c13d
000000d0: 8f00 363c 4451 043d 27fc 0a3d 4ed6 453d
000000e0: e43b c0bc 96ce 9b3c 17fc 3cbd 0949 323d
000000f0: e865 a93d 0cf2 4abd 6ef0 72bd 9a86 773d
-0.03190578 -0.046064902 -0.019307679 -0.14412373 0.0910562 -0.06799597 -0.001485607 -0.14363806
0.09314348 0.005781503 -0.04096197 -0.08836284 0.0442026 -0.15456195 0.065559015 -0.020459495
-0.072838485 -0.05697247 -0.090303846 -0.10835138 -0.03642604 -0.03703651 -0.10628881 0.0063675763
-0.06290188 -0.08493261 -0.06359655 -0.07484212 -0.07650792 0.06754578 0.05026375 -0.0112741105
0.13343653 0.032235533 -0.06516546 -0.12305228 0.030442964 -0.013913167 0.06433552 -0.10101125
-0.14404543 0.10732309 -0.095677614 -0.15774071 0.025458522 -0.109080195 0.022079552 0.026211806
0.06512802 -0.0635562 0.01714217 0.09435596 0.011108532 0.032304063 0.033931877 0.04830008
-0.023466058 0.019019406 -0.04613885 0.043526683 0.0827139 -0.04954724 -0.059311323 0.0604311

base.mlp.fc1.2.weight f4 [64]
00000000: 9517 803f 0016 863f 8e0f 7d3f 4e80 923f
00000010: f302 843f b05d 813f 50d3 753f b56a 863f
00000020: 9081 773f 9b9f 673f f5e2 883f 501e 873f
00000030: 676b 7f3f 5879 a53f e043 7c3f 80bd 823f
00000040: ec5b 8b3f 3e16 873f e2b9 b93f 5ac0 7a3f
00000050: ca4e 923f 509b 823f 64fe 963f 5579 833f
00000060: 572c 623f 6cc6 823f 7365 673f 82c3 893f
00000070: f7a5 943f 8ec9 803f c888 763f 860e 6c3f
00000080: 99da 5f3f 3038 5a3f d352 893f 0620 973f
00000090: 4650 663f e099 813f bd41 743f e8a8 803f
000000a0: 2d3e 763f 19c8 833f a321 8a3f 8216 953f
000000b0: 5e02 6d3f 6a15 6e3f 655b 493f f091 803f
000000c0: 8fcc 863f 77bc 7b3f 7b0a 8d3f 7f5a 853f
000000d0: 8597 6c3f 9052 813f 14fd 663f f225 613f
000000e0: 0eb9 7a3f 13e8 823f a281 883f 2a2a 863f
000000f0: 84ca 613f 9b45 933f f502 8d3f 6a31 413f
1.0007197 1.0475464 0.9885186 1.1445405 1.03134 1.0106716 0.9602556 1.0501314
0.9668207 0.90477914 1.0694262 1.0556126 0.9977326 1.2927656 0.9854107 1.0214081
1.0887427 1.0553663 1.4509852 0.97949755 1.1430295 1.0203648 1.1796384 1.0271403
0.8834891 1.0216804 0.90389174 1.0762789 1.1613148 1.006151 0.9630246 0.9220966
0.8744293 0.85241985 1.0728401 1.1806648 0.8996624 1.0125084 0.9541281 1.0051546
0.9618862 1.029544 1.0791515 1.1647494 0.9258174 0.93001425 0.7865508 1.0044537
1.0531176 0.9833445 1.1018823 1.0418242 0.924187 1.0103321 0.90229917 0.87948525
0.9793862 1.0227073 1.0664561 1.0481617 0.8819964 1.1505617 1.1016527 0.75466025

base.mlp.fc1.2.bias f4 [64]
00000000: b34a 563c 3156 203d 3274 d63b 87a4 d7bd
00000010: 46dc 34bd b951 403d 4ede 9c3d 77c8 663c
00000020: b969 85bd 829c 533d 870d bbbc 2dbd 35bd
00000030: d55c bfbd c1b5 15bd 2639 3e3d 610d 353c
00000040: 2778 153c 4085 343d 4753 603d 9a26 10bc
00000050: 4aca 31bc 816f b43d 27a3 edbc d2ee e3ba
00000060: 2194 fb3d b612 523b dcf6 653d 4089 86bd
00000070: 9648 c03d 16af 0e3c ce9e 9a3c fba4 053d
00000080: 7fd8 ac3d 801b 66b8 9c25 c2ba 42fc 193d
00000090: 34a3 423d 1130 a83d 5dab 343c b4c5 b43c
000000a0: 9cdd 203c 20c3 073d 71da 71bc 0149 43bd
000000b0: 198b 4c3c 3d2b 4ebc 3789 c83a 90cc b03c
000000c0: dbe3 0dbd 9373 b43d cb98 33bc 00f3 00bc
000000d0: b44f e3bd 41ae d8bc b6d1 163e 1f5e b93c
000000e0: 6225 013e 6599 e83c 70c0 91bc 0d98 883d
000000f0: afb8 fe3c 44f2 10bc 0bc7 41bd 544c e33c
0.013079333 0.0391447 0.0065446133 -0.10529428 -0.04415538 0.046952937 0.07659589 0.0140858805
-0.065143056 0.05166293 -0.022833599 -0.044369865 -0.09343878 -0.036550287 0.04644122 0.011050553
0.009122885 0.04407239 0.05476692 -0.008798266 -0.010851452 0.0881033 -0.029008461 -0.00173899
0.12284113 0.003205461 0.056143627 -0.06569147 0.09388845 0.008708736 0.018874552 0.03262804
0.08439731 -5.4861885e-05 -0.0014812234 0.037594087 0.047518924 0.08212293 0.011027184 0.022066928
0.009818461 0.03314507 -0.014761553 -0.047677044 0.012484335 -0.012583551 0.0015299682 0.021581918
-0.034641128 0.088111065 -0.010961722 -0.007870436 -0.110991865 -0.026450278 0.14728436 0.022627888
0.12611917 0.028393457 -0.017791957 0.066696264 0.031093923 -0.008846823 -0.047308963 0.027746357

base.mlp.fc2.0.0.weight f4 [64, 64]
00000000: ce76 563e b397 3abe b980 c8bd 1615 273e
00000010: f9f1 72be 038f 3e3e 6d40 3bbd 3c57 ecbd
00000020: edb6 83be 3ffb 003e 53a3 26bf 387a 69be
00000030: cbd6 aabd 823c 0e3c 2c6b b33d dd1b 0cbb
00000040: 4875 56be a9bb 183d aa40 f5be 872c 95be
00000050: 5f54 a3bd 414b 563e 43fc 8bbe a353 4e3e
00000060: 444b 8e3e ef66 2b3e 1474 58bd ea4f d2be
00000070: 5dbe bbbe e713 6c3d 7e98 583d 41b1 763e
00000080: 4ea0 b83e dfa0 dd3d 6d67 4c3b 2389 f8bc
00000090: 97b0 1d3d 8c55 5b3d b375 243e e429 b33d
000000a0: f1e6 89be 74fc c0bb d077 61be c6b5 a13d
000000b0: ace3 96be 1a65 ed3c 0a21 c9be bf7b c9bc
000000c0: c016 8537 8f96 09bf 2a77 6dbe 8b86 8a3e
000000d0: c649 053e 8e2b 92be ae1c 2b3e f462 943e
000000e0: d2ff 47bc a129 033e fac2 e6bd 28ee ccbd
000000f0: 1ab0 423e fdf2 813d 1df3 07bd ab72 103e
00000100: 1696 05bd b137 01be b1d5 24be 13c1 16be
00000110: 5c7b 30be 952c 5ebd 0bc7 5f3e 323a f5bd
00000120: 5608 d33e a7e1 c0bd f869 c1bd eebc d5be
00000130: de1c 30be 23a4 f8be 8a30 053e 6255 463d
00000140: 6b5c 0ebe a720 dd3d d363 d83d 1ec3 333e
00000150: db46 7f3e ae93 bebe 54e8 6ebd 8f29 0c3e
00000160: 0ba9 57bd 06f6 d3be 4c69 f8bd 485f a2be
00000170: 3b2d 0a3f 01db 2c3d e5dc a83c 153c 28be
00000180: 0ced 3c3e a56b fcba eb03 bdbd 63a9 d2bc
00000190: 6546 4abd 876a f13d 3ffb 38be dc9c 4dbe
000001a0: 8bf3 b2bd dc8a 2e3e 6498 84be d0f7 23be
000001b0: 1483 253d 8d83 01be 9d3f 98be 0271 69be
000001c0: b51d aa3d a6fa 06bd 9b2d 28be 5887 6b3e
000001d0: 694f b9bd 86c3 17be 8583 2d3e f4dc 2d3d
000001e0: 18be 3f3e ee84 483e 954e 39be 5c86 e93d
000001f0: 55ba 4a3e c138 163d 0661 f03d b13a 143e
00000200: 252c 143f e307 653e 4a4a 63bd 6caa 80bc
00000210: 8d63 383e 6c8b 27be bf3e 603e ee86 12be
00000220: ce1f 193d 16e0 6cbd b11a 793e 90a8 913e
00000230: 55b3 febe eecb e73d fe68 55be f51a af3e
00000240: 58c2 0e3c 66f8 643e cb33 0dbe 8f22 703e
00000250: 6889 acbd 0e75 1abd 17fa 0d3e 707f 003c
00000260: d057 803d 156d 953d 2c80 1abe fb1b 3c3e
00000270: 32bc 3cbe 9cab e93d bae4 573e 9ba4 d93d
00000280: 4d26 28be 4aa4 2abe 52e0 29bd 8d8e 673c
00000290: 4c78 62bd 26aa a0be d2d7 983e 575e c9be
000002a0: 9445 d83d c0d3 99bc 8163 13bd cc61 e53d
000002b0: cdfd 6a3e 3fc7 06bd 27b8 a7bd b2d1 e13d
000002c0: 2f29 c2bd 48b5 d6bd bc2b d3be b1a3 933d
000002d0: 4496 4fbe 192f 343d 4316 e13d e795 5dbe
000002e0: 8c27 4a3e f5ab c7be d1dd 5f3e 5c68 8ebd
000002f0: 02b3 b73b 999d 743e 61e8 cb3d 024d d5bd
00000300: 2f06 47be 6c7c 88be 71a6 36be 294d 58be
00000310: 042b 403e aefa 8b3e 9ff1 c6bd ca5f 1f3e
00000320: b751 493d 846c 2d3d 2c8c 84bd 5869 553d
00000330: 4f70 eabc cf7a 5ebe 6fd9 9fbe 8ee5 86be
00000340: 1ede f03b db3a a13e 8137 76be 1a4c 56bd
00000350: 0fd9 7fbd f2cb 95be d669 de3c 17b6 08bd
00000360: 6e08 773e 9670 adbd 14e9 5fbe 3ae1 a0be
00000370: 8128 eabb cb26 ab3e 95c3 943d be9e 0d3d
00000380: 8167 6dbb 53fe 4e3e ac2f a7be 55fe eebe
00000390: 6a2a c6bc 23b8 b03d b348 8a3e de2d 4dbe
000003a0: 7e94 abbe b966 4c3e 3b56 20be 8ebe 923e
000003b0: 1640 6a3e 1161 4abc 6ccd 623d 1549 a33c
000003c0: 24aa 933e 0c64 163d a35e 9abd e1df 1f3e
000003d0: f016 b0bd d025 81bd 7bd2 86bd 6703 043e
000003e0: cbc6 a3bb 4f30 6e3e c320 2abe 079a 153e
000003f0: 8ec6 b63c 8f95 18bf 93d0 c9be 8cb0 a83e
0.20943758 -0.18221931 -0.09790177 0.16316637 -0.23725118 0.18609242 -0.045715738 -0.11540076
-0.257255 0.12595843 -0.65092963 -0.22800529 -0.0834175 0.008681418 0.08760676 -0.0021378912
-0.20943177 0.03728834 -0.47900897 -0.29135534 -0.07975077 0.20927145 -0.27340898 0.20149092
0.27791798 0.16738485 -0.052845076 -0.41076595 -0.36668673 0.057636168 0.052879803 0.24091054
0.36059803 0.10821699 0.0031189576 -0.03033883 0.038498487 0.05354838 0.16060524 0.087482244
-0.26934007 -0.0058894698 -0.22018361 0.07895999 -0.29470575 0.028978873 -0.3928302 -0.02459514
1.586543e-05 -0.5374536 -0.23189989 0.27055773 0.13016424 -0.28548855 0.16710159 0.28981745
-0.012206988 0.12808849 -0.112676576 -0.10006362 0.1901249 0.063451745 -0.033190835 0.14106242
-0.032613836 -0.12618901 -0.16097142 -0.1472209 -0.17234558 -0.054241735 0.21853273 -0.119739905
0.41217297 -0.0941804 -0.0944404 -0.41745704 -0.17198512 -0.48562726 0.13006797 0.04842127
-0.13902442 0.107972436 0.10565915 0.175549 0.24929373 -0.37222046 -0.058327034 0.13687728
-0.052651446 -0.41398638 -0.12129459 -0.3171332 0.53975266 0.042201046 0.020613143 -0.1642917
0.18449801 -0.0019258155 -0.09229263 -0.025715536 -0.04938354 0.117878966 -0.18064593 -0.20079368
-0.087378584 0.17045158 -0.25897515 -0.16012502 0.04040821 -0.12647839 -0.29736033 -0.22797015
0.083064474 -0.03295388 -0.16423647 0.23000848 -0.090483494 -0.1482068 0.16944702 0.042447045
0.18724859 0.19581959 -0.18096383 0.1140258 0.19797643 0.03667522 0.11737256 0.14475514
0.5787986 0.2236629 -0.05549077 -0.015706263 0.18006726 -0.16361779 0.21898936 -0.14309284
0.037383847 -0.057830893 0.24326588 0.28448915 -0.49746194 0.113181934 -0.20840833 0.34200254
0.008713327 0.22360381 -0.13789289 0.23450683 -0.08424646 -0.03770929 0.13864933 0.0078428835
0.06266749 0.07296196 -0.15087956 0.18370049 -0.18431166 0.11409685 0.21083346 0.10627099
-0.1642086 -0.16664234 -0.041473694 0.014133108 -0.055290505 -0.31379813 0.29852158 -0.39329788
0.10560146 -0.018777728 -0.035983566 0.11200294 0.2294838 -0.03290486 -0.08189421 0.11026324
-0.094805114 -0.104837954 -0.41244304 0.07208956 -0.20272166 0.04399023 0.10990574 -0.21639214
0.19741648 -0.3899838 0.2186196 -0.06953499 0.005606056 0.23888244 0.09956432 -0.10415079
-0.19435953 -0.26657426 -0.1783693 -0.21123184 0.18766409 0.2733969 -0.09714054 0.15563884
0.049150195 0.042339817 -0.06472048 0.052102417 -0.028618006 -0.21726535 -0.31220576 -0.2634701
0.007350697 0.31490216 -0.2404461 -0.05231867 -0.062462863 -0.2925716 0.027150076 -0.03337678
0.2412431 -0.0846874 -0.21866256 -0.31421834 -0.0071459417 0.33428034 0.07263867 0.034575216
-0.0036225023 0.20214204 -0.32653558 -0.46678415 -0.024190146 0.08628871 0.2700859 -0.20037028
-0.33511728 0.1996106 -0.15657894 0.28661007 0.2287601 -0.012352244 0.055371687 0.01993231
0.28840744 0.036716506 -0.07537582 0.15612747 -0.08598125 -0.0630604 -0.06583115 0.12891923
-0.004998063 0.23260616 -0.1661406 0.14609538 0.022311475 -0.5960321 -0.39416942 0.32947195

base.mlp.fc2.0.0.bias f4 [64]
00000000: 0843 d23d f392 253e 40db bebd 2879 8d3d
00000010: 5dbc 57bd 94e7 333d 12e0 e83d 51fe c2bc
00000020: 4837 3dbd d7f4 76be 7170 4ebd 21d8 6abd
00000030: b2e1 803c ab91 b73b 4dcc 87bd fe39 69be
00000040: ec17 7a3d 7aac 983c 887e 93bc 0ceb 37be
00000050: ff33 8abd e94a 11be 6672 8e3c 5ca1 373d
00000060: e38f acbb f943 77bd dda1 0a3d 78eb d13d
00000070: 8b48 20bc d25a d1bc 01e3 5a3d cfca 793d
00000080: 2d4f 353b 595d 7e3d d7df d0bd 50a7 50bd
00000090: 5768 f0ba 5d72 d03d d5b7 953d 5912 a83c
000000a0: c4f8 02bd d70a 32bd 8e95 163d 7a88 5cbe
000000b0: ee4f 943c 704d 083e 3c4c 5ebd 9766 923c
000000c0: 7589 0c3d b270 823c 8df3 7a3d f251 99be
000000d0: ebd1 943c dad1 8fbd 6454 b5bd 8d96 e43c
000000e0: e026 0cbd cdb3 04be a9b1 bdbd a37c c8bd
000000f0: 64fc cbbd 86da 18be d37b b73d 4381 24be
0.102666914 0.16169338 -0.09319162 0.06907874 -0.05266987 0.043922022 0.11370863 -0.023802908
-0.0461953 -0.24116836 -0.0504002 -0.057335023 0.01573262 0.005602082 -0.06630764 -0.22776029
0.06105797 0.01863693 -0.01800467 -0.17960757 -0.06748199 -0.14188732 0.017388534 0.04483162
-0.005266176 -0.06036756 0.03384577 0.1024999 -0.009782921 -0.025556002 0.053439144 0.06098443
0.00276656 0.062100742 -0.10198944 -0.05094081 -0.0018341643 0.10178063 0.07310454 0.020516561
-0.031975523 -0.04346737 0.03676372 -0.21536437 0.01810452 0.1331079 -0.05427192 0.017871184
0.034310777 0.015922878 0.061267424 -0.29945332 0.018166503 -0.07022448 -0.08853987 0.02790382
-0.03421676 -0.12959214 -0.092624016 -0.097893976 -0.09960249 -0.1492711 0.089591645 -0.16064934

base.mlp.fc2.0.2.weight f4 [64]
00000000: 379e b13f e09e b53f 8b03 ab3f b3a9 973f
00000010: 63cf ba3f f492 b23f 4f6e a03f 34b7 b73f
00000020: 3639 c23f 3ff5 a93f 8b4a ad3f 2ac2 a73f
00000030: 0ead b23f 7432 c73f 6529 a83f 4f5d ae3f
00000040: 011d b03f 975c b23f 07ad af3f 573e ac3f
00000050: 5ab5 a73f 2d09 aa3f 6c97 a63f 876b ab3f
00000060: d007 ac3f bdfe ab3f 7aa5 b63f 31ee b43f
00000070: 0b69 ba3f c711 b23f 68b1 c03f 31bc a73f
00000080: 492a ac3f b811 b93f 252b a83f 6a86 ab3f
00000090: 8bdd bf3f 001a ac3f 23ac a03f fb20 c03f
000000a0: 4ce0 b63f fae4 aa3f 97a3 b33f 05d9 ae3f
000000b0: 0493 a73f 5e72 ab3f 6d82 af3f b183 ab3f
000000c0: 14c8 ab3f 7e5f a03f 701e b73f 85aa aa3f
000000d0: f308 bb3f c99b a43f 69c3 a83f 79e4 ba3f
000000e0: 483f ac3f 2b75 aa3f 4bba ae3f ca2e af3f
000000f0: ec13 ab3f 6183 ab3f 215d ad3f 0c1d a93f
1.3876408 1.418911 1.3360456 1.1848663 1.4594539 1.3951097 1.2533664 1.4352784
1.5173709 1.3277968 1.3538374 1.3106129 1.3959062 1.5562272 1.3137633 1.3622226
1.3758851 1.3934506 1.3724679 1.3456525 1.3102219 1.328405 1.301496 1.339219
1.3439884 1.3437115 1.426925 1.413519 1.4563307 1.3911675 1.505414 1.3104306
1.3450404 1.4458532 1.3138167 1.3400395 1.4989485 1.3445435 1.2552532 1.5010065
1.42872 1.3351128 1.4034299 1.3659979 1.3091741 1.3394277 1.3711678 1.3399564
1.3420434 1.2529142 1.4306164 1.3333288 1.4612106 1.2860042 1.3184634 1.4600974
1.3456812 1.3317007 1.3650602 1.3686154 1.3365455 1.3399469 1.3544046 1.3211989

base.mlp.fc2.0.2.bias f4 [64]
00000000: 17b4 c13e 12e5 cf3e 58a2 d0be 31da 8a3e
00000010: e97d d0be 0209 bf3e f277 9b3e 14c2 b73e
00000020: 1314 dcbe c809 9abe 159b c1be 2847 b6be
00000030: dd3e b93e 55ef d73e c723 acbe d0e0 aabe
00000040: 75b6 9ebe 9cfb c43e 638c adbe f218 a4be
00000050: c324 a7be d9cc 9dbe 3ac7 b8be d900 bfbe
00000060: 2461 acbe ff20 9ebe 785f b43e 9f08 db3e
00000070: 0395 9a3e b62d af3e 2ce5 bc3e 5795 9f3e
00000080: e71b ac3e a6a1 d53e 08f2 95be f5ca 9bbe
00000090: 26e8 cdbe 9566 af3e 123d 983e e5e3 d8be
000000a0: 393c ce3e a83f 99be de6a b2be d90b aebe
000000b0: 64dc a43e cc0e cd3e aa41 b1be d556 ab3e
000000c0: 331f a93e 56b5 8c3e dcf0 cf3e 8412 9abe
000000d0: 9aab db3e 1ea3 91be c0ca 8fbe 96d1 b53e
000000e0: d42c ccbe ed05 9abe 47b8 a4be eac2 b9be
000000f0: ed74 aabe 2a52 a4be 3c37 ca3e b825 a1be
0.3783271 0.40604454 -0.40748858 0.27119592 -0.40721062 0.3731156 0.3036495 0.35890257
-0.42984065 -0.30085588 -0.3781363 -0.35601163 0.36180773 0.42174783 -0.33621046 -0.33374643
-0.3099858 0.38473213 -0.3389617 -0.32050282 -0.32645234 -0.3082035 -0.36089498 -0.37305334
-0.33667862 -0.3088455 0.35229087 0.42780015 0.30191812 0.34214562 0.36893594 0.31168625
0.33615038 0.4172489 -0.29286218 -0.3042828 -0.40216178 0.3425795 0.29734093 -0.4236137
0.4028032 -0.29931378 -0.34847158 -0.33993414 0.32199395 0.40050352 -0.3462041 0.33464685
0.33031616 0.27482098 0.4061345 -0.3009225 0.4290436 -0.2844476 -0.28084373 0.35511464
-0.3987795 -0.30082646 -0.32171842 -0.3628152 -0.33292332 -0.32093936 0.39495265 -0.3147409

v_out.weight f4 [1, 64]
00000000: cdd5 ad3e 5a74 b83e bfc3 9cbe 7739 073f
00000010: a05b b7be 6f40 c53e 5626 cd3e a6f8 c93e
00000020: da22 d8be f09d f5be b0aa 98be 2f16 98be
00000030: 9f77 a93e 1ed9 d33e f3a4 b4be 3a6d c8be
00000040: 9ba1 f8be 3e18 a23e 2a88 c5be 447d d4be
00000050: 59a4 c0be c29a e5be 9dce 85be 1a5c 9dbe
00000060: 67f0 a0be 4fa7 ecbe 5cf6 e73e da1f af3e
00000070: 4803 113f 2c79 bb3e a34f e53e 3690 db3e
00000080: 3868 ae3e 773b a93e 0070 06bf b03b f3be
00000090: b744 b7be 20e4 c03e fd5e cf3e 3434 b3be
000000a0: eebc a23e aa47 00bf bf69 c4be c41f c5be
000000b0: 0fcc b93e 3a6d 993e 2675 c1be e253 ca3e
000000c0: 6043 bf3e 8d88 103f 2658 b63e 470b fbbe
000000d0: bd47 be3e 56d5 10bf 26d6 20bf 7398 d63e
000000e0: d444 87be 55aa f8be cd31 debe 635f b0be
000000f0: b64f bebe 6085 d6be 7364 833e e058 dbbe
0.3395218 0.3602627 -0.30618092 0.5282206 -0.35812092 0.3852572 0.4006831 0.39447516
-0.4221409 -0.4797206 -0.29817724 -0.29704425 0.33099076 0.41376585 -0.35282096 -0.39145833
-0.48560795 0.3165912 -0.38580447 -0.4150182 -0.37625387 -0.44844633 -0.26134196 -0.3073433
-0.31433412 -0.46221396 0.45305145 0.34203988 0.5664563 0.36615884 0.4478732 0.42883462
0.34063888 0.3305318 -0.5251465 -0.47506475 -0.35794613 0.37674046 0.40502158 -0.35000765
0.31784767 -0.5010935 -0.38361928 -0.38500798 0.36288497 0.29966146 -0.3778469 0.39517123
0.3735609 0.5645836 0.35614127 -0.4903204 0.37164107 -0.56575525 -0.62826765 0.41913185
-0.264197 -0.48567453 -0.4339737 -0.34447774 -0.3717019 -0.41898632 0.25662574 -0.42841244
