models/critic_goodtemp.pt (torch, 604988 bytes, 13 tensors)

base.mlp.layers.0.0.weight f4 [256, 420]
-0.13489154 -0.042341307 0.08273992 0.061136603 0.026337337 -0.0073781046 0.008959496 -0.08893498
-0.059102014 0.10348478 -0.0039322027 -0.10282908 0.08930481 0.056141715 -0.055356476 -0.050516207
-0.022382483 0.08872404 0.21451859 -0.1802537 0.036358967 0.0002468158 -0.16453627 -0.10685476
-0.08967305 0.08049486 -0.08007016 0.025025528 0.026342649 0.069700636 0.009281672 0.10483741
0.03361638 0.15984032 -0.009719829 -0.10709877 0.16063908 -0.058498334 -0.03222255 -0.39349452
-0.06409504 0.024054479 0.041888367 -0.031383332 0.0023201555 -0.008217066 0.25687784 0.015642075
-0.0446142 -0.023494832 0.08982829 0.08309398 -0.10247857 -0.19373947 -0.04136266 0.09981539
0.013399076 0.014290258 -0.09705452 -0.0841696 -0.09307226 -0.022680188 0.055822108 0.14469273
0.14565037 0.058470044 -0.017062828 0.15123774 -0.31847012 -0.21626651 -0.038064595 -0.20087369
-0.025871271 0.13238533 -0.2455578 0.076376244 -0.09553935 0.084724665 -0.07624029 -0.09151324
-0.12978418 -0.08474263 0.06617056 0.0060265455 0.17677525 0.37400782 0.08709667 -0.39683872
0.031431824 -0.049328387 -0.06773961 0.09309721 0.03984045 -0.04642031 -0.12084022 -0.10634477
-0.015353564 -0.13995989 0.014039367 0.0044632517 -0.0013415397 0.044988602 0.021606289 -0.33499005
-0.07801255 -0.22954549 -0.027259102 -0.06570775 0.12084676 0.115395956 3.1476287e-05 -0.07558854
0.014941992 -0.08880789 -0.065114245 0.03752696 -0.0047511715 -0.023198593 -0.13158797 0.053448904
-0.117808625 -0.17021479 -0.021907184 0.052440315 0.008505403 0.068135634 -0.042815905 -0.04701544
0.06964088 -0.032828573 0.068618104 -0.067760445 -0.008316392 -0.0028200515 -0.011139071 -0.22647141
-0.23933165 -0.16110593 -0.014698148 -0.051145535 -2.181204e-05 -0.04638323 -0.12114934 0.060950134
-0.17966503 0.041745722 -0.062397473 0.020298943 0.02138257 -0.030713655 0.037121404 -0.26914808
0.035451163 0.041899364 0.09782445 -0.010257266 -0.0725059 0.1413502 -0.13835138 0.0035885607
0.08488929 -0.20368384 -0.051295433 -0.15117301 -0.093223095 0.1784403 0.17531651 0.06699139
-0.104398064 0.0015997699 -0.14893726 -0.119551845 0.0037753587 0.011318852 -0.05433066 -0.14347805
-0.13340977 0.0910514 0.18383747 -0.023013735 -0.3297447 -0.09575112 -0.076455906 0.012134286
-0.095875636 -0.25313553 0.21938531 0.1595641 -0.21572685 -0.27891895 0.1681335 -0.26440525
-0.14473991 0.0035672633 0.059196524 0.116037905 -0.046077654 -0.18208577 -0.105083235 -0.05001235
0.052113365 0.06775693 0.18762773 -0.23094232 -0.24340217 0.16417089 -0.0009300844 -0.29548755
-0.019246811 -0.041383132 0.18856779 -0.027480137 -0.08050461 0.13634095 -0.30675778 -0.042235494
0.24323009 0.19832563 -0.14721979 -0.09165311 0.06359565 0.089290515 0.090239145 -0.34559253
-0.14403044 -0.0133615965 -0.010155694 -0.3164189 0.054571673 -0.18477683 -0.06795931 -0.0036246574
-0.1338915 -0.24317509 -0.2708477 -0.033133354 -0.112962775 0.20654182 0.057388395 -0.24817033
-0.079275824 -0.1855608 -0.043738946 0.19829354 0.07651579 0.1597999 -0.078491256 -0.055685434
0.23935764 0.17809767 0.18608996 -0.29531536 0.11168261 -0.2586043 0.02886573 0.13932355
00000000: 0221 0abe 146e 2dbd 8c73 a93d 606a 7a3d
00000010: 66c1 d73c 07c4 f1bb daca 123c 8b23 b6bd
00000020: f414 72bd d4ef d33d b5d9 80bb 0d98 d2bd
00000030: 71e5 b63d dbf4 653d 79bd 62bd 15ea 4ebd
00000040: 785b b7bc f3b4 b53d c3aa 5b3e 6d94 38be
00000050: 24ed 143d 0e67 8139 327c 28be abd6 dabd
00000060: 81a6 b7bd 7dda a43d d3fb a3bd 5602 cd3c
00000070: 8acc d73c 35bf 8e3d 2712 183c ffb4 d63d
00000080: 54b1 093d 2ead 233e eb3f 1fbc 9a56 dbbd
00000090: 927e 243e f39b 6fbd cbfb 03bd 1d78 c9be
000000a0: 4344 83bd e60d c53c 2393 2b3d cf8b 00bd
000000b0: c00d 183b dfa0 06bc 7e85 833e cf23 803c
000000c0: 61bd 36bd 3c78 c0bc e5f7 b73d 2d2d aa3d
000000d0: 49e0 d1bd a463 46be e46b 29bd 036c cc3d
000000e0: cc87 5b3c b021 6a3c 85c4 c6bd 1c61 acbd
000000f0: ab9c bebd cdcb b9bc b9a5 643d 552a 143e
00000100: 5f25 153e 497e 6f3d 58c7 8bbc 11de 1a3e
00000110: 840e a3be f874 5dbe 9fe9 1bbd d5b1 4dbe
00000120: fdef d3bc 0590 073e 8173 7bbe 266b 9c3d
00000130: 22aa c3bd 2084 ad3d df23 9cbd 4b6b bbbd
00000140: 25e6 04be 8b8d adbd 6e84 873d 547a c53b
00000150: 9204 353e f47d bf3e bd5f b23d 722e cbbe
00000160: a8be 003d 900c 4abd 11bb 8abd c0a9 be3d
00000170: bd2f 233d 3923 3ebd 147b f7bd 49cb d9bd
00000180: 848d 7bbc a551 0fbe 6005 663c 7840 923b
00000190: 9ad6 afba f845 383d acff b03c d183 abbe
000001a0: 0bc5 9fbd f90d 6bbe 7b4e dfbc c991 86bd
000001b0: 827e f73d b754 ec3d 6805 0438 2ace 9abd
000001c0: 42cf 743c e9e0 b5bd 9e5a 85bd dfb5 193d
000001d0: b7af 9bbb fa0a bebc ffbe 06be 3ded 5a3d
000001e0: a645 f1bd c94c 2ebe b276 b3bc a8cb 563d
000001f0: 3f5a 0b3c b28a 8b3d bb5f 2fbd 4393 40bd
00000200: e19f 8e3d 4177 06bd a687 8c3d fdc5 8abd
00000210: 7a41 08bc 9dd0 38bb a680 36bc 1fe8 67be
00000220: 5b13 75be f4f8 24be 80d0 70bc fb7d 51bd
00000230: 00f9 b6b7 57fc 3dbd 251d f8bd d9a6 793d
00000240: 1cfa 37be 90fd 2a3d 7e94 7fbd f849 a63c
00000250: 802a af3c 349b fbbc 9d0c 183d c7cd 89be
00000260: 3d35 113d ab9e 2b3d 2f58 c83d 180e 28bc
00000270: f97d 94bd 1bbe 103e fcab 0dbe 0f2e 6b3b
00000280: 70da ad3d 7f92 50be 291b 52bd 19cd 1abe
00000290: c0eb bebd 0eb9 363e 2c86 333e c832 893d
000002a0: a7ce d5bd 5faf d13a 0283 18be 99d7 f4bd
000002b0: 026c 773b b572 393c d389 5ebd e9eb 12be
000002c0: 929c 08be 2879 ba3d e43f 3c3e 4d87 bcbc
000002d0: 4cd4 a8be 2a19 c4bd ea94 9cbd e2ce 463c
000002e0: 725a c4bd fb9a 81be 8ba6 603e c564 233e
000002f0: 80e7 5cbe 77ce 8ebe 302b 2c3e 2060 87be
00000300: b336 14be bfc8 693b 0e78 723d 48a5 ed3d
00000310: ecbb 3cbd b174 3abe e135 d7bd c0d9 4cbd
00000320: d374 553d 25c4 8a3d 7c21 403e 257c 6cbe
00000330: 6b3e 79be 6a1c 283e e8d0 73ba 254a 97be
00000340: 7dab 9dbc 5c81 29bd ea17 413e 061e e1bc
00000350: 9adf a4bd f69c 0b3e 5b0f 9dbe 20ff 2cbd
00000360: 4f11 793e e015 4b3e c9c0 16be a0b4 bbbd
00000370: 703e 823d f2dd b63d 4dcf b83d 81f1 b0be
00000380: b77c 13be 99ea 5abc 1164 26bc a801 a2be
00000390: 8c86 5f3d 2336 3dbe 402e 8bbd a98b 6dbb
000003a0: da1a 09be e402 79be 8dac 8abe d7b6 07bd
000003b0: 0759 e7bd b37f 533e 1810 6b3d 5d20 7ebe
000003c0: 5d5b a2bd a603 3ebe 9c27 33bd 760d 4b3e
000003d0: 4fb4 9c3d 96a2 233e 06c0 a0bd 6916 64bd
000003e0: 2b1a 753e 3c5f 363e 5e8e 3e3e 9333 97be
000003f0: dab9 e43d c867 84be d377 ec3c d5aa 0e3e

base.mlp.layers.0.0.bias f4 [256]
-0.010756232 -0.0020557651 -0.055646047 -0.025801186 0.08802421 -0.055296913 0.00092025223 -0.053320784
-0.037017778 0.007462725 0.037324846 -0.05257362 -0.0016867104 -0.03954719 0.0048492793 -0.057403192
-0.040648688 -0.06088854 -0.057398774 -0.033120584 -0.0958264 -0.054617696 0.001531197 -0.054992437
-0.0078540025 0.0052815806 -0.05541078 0.06085677 -0.07267555 0.018225206 0.011971313 0.03066851
-0.022978822 -0.059030477 0.023959283 0.009387462 0.025963508 0.03688632 -0.014529068 -0.050423857
0.016321449 0.054018103 0.009447776 -0.047171444 -0.045108873 -0.053204384 -0.05882442 0.011975071
-0.03215784 0.045830008 0.004487366 -0.006716121 0.04949979 -0.029587958 0.0879205 0.02508783
0.09687026 -0.049985062 -0.00055951363 -0.007718322 0.03165324 -0.0077124736 -0.009696056 -0.0011725334
-0.073955484 0.042225856 0.016634801 -0.017981207 0.011771322 -0.00011126853 0.037887003 -0.018823216
0.027004886 -0.018502964 -0.054703888 0.040641677 -0.04799888 0.024721961 -0.011243452 0.08390927
-0.042397972 0.07637996 0.041509192 -0.069873825 -0.018018274 -0.06193593 -0.022381527 0.022273444
-0.08205148 -0.03349108 -0.033146404 -0.008053282 0.048472267 -0.04694373 0.0032307135 0.021278387
0.033959556 -0.03888929 -0.020035174 -0.04233917 -0.027629402 0.016457409 -0.009942976 0.01314151
-0.05772838 -0.03937134 0.014714889 -0.00350541 0.06564287 0.00210823 -0.06260468 -0.005313419
-0.033015944 -0.09536247 0.042346682 -0.01702198 -0.045742013 -0.015834084 0.057767894 0.097923525
-0.027721975 -0.057192 -0.04431924 -0.0047209063 -0.107235625 -0.0093882205 0.08706411 -0.035576183
0.051268615 0.036332652 0.030417416 -0.022133904 -0.015154213 0.00024280304 0.028042672 0.011730549
0.04919356 -0.03162828 -0.07071903 -0.010923475 -0.002585907 -0.083352625 0.0067930967 -0.06248085
-0.06978856 0.006790753 0.033994295 -0.073510624 0.13456641 -0.06707554 -0.02192981 -0.04066247
-0.004284671 0.03846834 -0.084404826 -0.10764759 -0.046069574 -0.018592421 -0.030148208 0.03202834
-0.033222277 -0.02996117 0.0140662985 0.049165465 0.051228464 -0.049887113 0.009481805 0.023359314
-0.060043007 -0.037762627 0.00975209 0.021382682 0.03162766 -0.09368266 -0.00770016 -0.042798143
0.03275321 -0.028872073 0.028830618 0.0003091401 -0.02898499 -0.08366178 0.033799622 -0.04265747
-0.08317735 -0.06652691 -0.023775652 -0.095439404 -0.045155667 0.041691642 0.039222654 -0.04995219
-0.059115328 0.029417321 -0.01729999 0.10225369 -0.0019651216 0.057959683 0.027716473 0.0049255425
0.00952184 -0.027423901 -0.05860511 0.0122946305 0.016767895 -0.034722224 -0.049792744 -0.059346292
-0.043334626 0.030571986 0.042981047 0.02989626 -0.015622721 -0.05297368 0.025599439 -0.01343172
-0.018179962 0.0032408522 0.014615062 0.06762114 -0.07471394 0.04315359 -0.040827192 -0.053738188
-0.038319726 0.0805352 0.03931368 -0.026151668 -0.06571464 0.008757186 0.053959228 -0.07583336
0.031357747 -0.02698534 -0.06410277 -0.0017585425 0.08032833 -0.042220972 -0.044493094 -0.006976249
-0.042146638 -0.022733597 0.12566493 -0.062439807 -0.009169119 -0.08553645 0.015551949 0.0013342163
-0.03883816 -0.0040575387 0.013875738 -0.033054825 -0.027032822 -0.014334736 -0.045481242 0.017970758
00000000: e83a 30bc 04ba 06bb 1ced 63bd 025d d3bc
00000010: 0946 b43d 047f 62bd 153d 713a e566 5abd
00000020: f49f 17bd e089 f43b f0e1 183d 7057 57bd
00000030: 9c14 ddba 3cfc 21bd b4e6 9e3b 9c1f 6bbd
00000040: 3d7f 26bd 4366 79bd fa1a 6bbd 73a9 07bd
00000050: a240 c4bd ceb6 5fbd 72b2 c83a c03f 61bd
00000060: 13ae 00bc 1c11 ad3b 6af6 62bd f344 793d
00000070: ebd6 94bd 074d 953c 5323 443c 873c fb3c
00000080: 153e bcbc f1c9 71bd 4246 c43c dfcd 193c
00000090: 6cb1 d43c 1c16 173d 540b 6ebc 3f89 4ebd
000000a0: 8fb4 853c 1642 5d3d d8ca 1a3c d836 41bd
000000b0: 15c4 38bd d7ec 59bd e0f1 70bd 1733 443c
000000c0: f0b7 03bd 3fb8 3b3d c10a 933b e812 dcbb
000000d0: 4bc0 4a3d 7262 f2bc aa0f b43d fe84 cd3c
000000e0: ea63 c63d 23bd 4cbd 53ac 12ba fae9 fcbb
000000f0: d4a6 013d ebb8 fcbb 35dc 1ebc b1af 99ba
00000100: f975 97bd 05f5 2c3d b545 883c 534d 93bc
00000110: 81dc 403c d658 e9b8 672f 1b3d 2533 9abc
00000120: 5a39 dd3c 8793 97bc 2f11 60bd e377 263d
00000130: 799a 44bd b685 ca3c 7536 38bc a0d8 ab3d
00000140: 7fa9 2dbd 196d 9c3d 8b05 2a3d 021a 8fbd
00000150: 0f9b 93bc 88b0 7dbd 7759 b7bc cc76 b63c
00000160: 9b0a a8bd f12d 09bd 86c4 07bd eaf1 03bc
00000170: db8a 463d 1248 40bd 61ba 533b 0350 ae3c
00000180: 2d19 0b3d 604a 1fbd ce20 a4bc d66b 2dbd
00000190: 0e57 e2bc b0d1 863c dde7 22bc 7d4f 573c
000001a0: 9874 6cbd d843 21bd b816 713c 05bb 65bb
000001b0: c56f 863d 3b2a 0a3b e236 80bd 301c aebb
000001c0: ba3b 07bd 664d c3bd b773 2d3d ae71 8bbc
000001d0: fa5b 3bbd 7bb6 81bc 079e 6c3d 218c c83d
000001e0: 3219 e3bc 2942 6abd 1788 35bd d5b1 9abb
000001f0: 5a9e dbbd 0dd1 19bc ab4e b23d 55b8 11bd
00000200: 0aff 513d 8cd1 143d f22d f93c 2952 b5bc
00000210: 6049 78bc f298 7e39 bfb9 e53c 7d31 403c
00000220: 307f 493d a88c 01bd 24d5 90bd 60f8 32bc
00000230: 5278 29bb c8b4 aabd a098 de3b ebeb 7fbd
00000240: 4eed 8ebd f784 de3b 9a3d 0b3d bd8c 96bd
00000250: c7cb 093e e75e 89bd 25a6 b3bc b18d 26bd
00000260: 6d66 8cbb fa90 1d3d 70dc acbd 5776 dcbd
00000270: 73b3 3cbd 224f 98bc 60f9 f6bc 2630 033d
00000280: 1514 08bd 2171 f5bc 5576 663c ba61 493d
00000290: f0d4 513d 6e56 4cbd 9359 1b3c 085c bf3c
000002a0: a8ef 75bd fcac 1abd 3bc7 1f3c bc2a af3c
000002b0: 018c 013d b2dc bfbd a051 fcbb 1b4d 2fbd
000002c0: 3b28 063d 2085 ecbc 302e ec3c 1514 a239
000002d0: ee71 edbc de56 abbd 7971 0a3d 99b9 2ebd
000002e0: e358 aabd 433f 88bd 28c5 c2bc bc75 c3bd
000002f0: 26f5 38bd dbc4 2a3d efa7 203d ab9a 4cbd
00000300: ea22 72bd 98fc f03c b5b8 8dbc 626a d13d
00000310: 45c9 00bb 2267 6d3d a80d e33c 7266 a13b
00000320: 7e01 1c3c 17a8 e0bc e90b 70bd 6b6f 493c
00000330: d35c 893c e438 0ebd 7af3 4bbd 1915 73bd
00000340: a67f 31bd 1a72 fa3c e50c 303d 00e9 f43c
00000350: 71f6 7fbc eefa 58bd eab5 d13c b810 5cbc
00000360: 25ee 94bc 7a64 543b 0374 6f3c f47c 8a3d
00000370: 9f03 99bd d2c1 303d 6a3a 27bd 931c 5cbd
00000380: 25f5 1cbd a4ef a43d 6207 213d 063c d6bc
00000390: 6695 86bd 4d7a 0f3c 5a04 5d3d 854e 9bbd
000003a0: fb70 003d 5c10 ddbc 5048 83bd e57e e6ba
000003b0: 2e83 a43d e6ef 2cbd 643e 36bd 0599 e4bb
000003c0: f4a1 2cbd cf3b babc 4fae 003e e2c0 7fbd
000003d0: 133a 16bc bc2d afbd 9acd 7e3c dfe0 ae3a
000003e0: c314 1fbd 1af5 84bb 1057 633c 7f64 07bd
000003f0: f073 ddbc 3edc 6abc 8a4a 3abd 6937 933c

base.mlp.layers.0.2.weight f4 [256]
1.0029184 1.0552752 1.054804 1.0972891 1.0103456 1.0685387 1.0460901 1.0521084
1.1115745 1.1376573 1.0552783 1.0144087 1.1704203 1.1242007 1.0643022 1.0671383
1.0627344 0.8678786 1.0539466 1.1140697 0.9972589 1.0316582 0.9467484 0.8381206
0.9737448 1.0238409 1.0274181 1.0517582 0.9683794 1.0343965 1.0516877 0.95942867
1.0479227 1.1298016 0.96964693 1.0407325 1.1684605 1.0076869 1.1037229 1.0374173
1.115988 1.0000031 0.9923955 1.0645775 0.9772926 1.0040451 1.0106983 1.0469078
1.0153725 0.97704077 0.984622 1.0034796 1.1712829 1.076567 1.0193919 1.0537786
1.0783857 1.1036727 1.0731704 1.0168011 0.98996776 0.976798 1.0073577 1.003415
1.0474781 0.9652423 0.9856373 1.0277975 1.0624031 1.1388932 1.0254762 0.90385723
1.0716012 1.0425802 1.0366585 1.0781257 1.0324383 1.0868721 1.0220035 0.949573
1.0165113 1.0220685 1.0325274 1.0411657 1.0079925 1.101421 1.0017796 1.1803821
1.0034612 1.0111877 1.0246606 1.11508 1.026807 1.0324899 1.0396397 1.0670273
1.0008891 1.0492479 1.141958 1.1132467 1.1443664 1.0256739 1.0558448 0.9250329
1.0838091 0.89514273 1.0165194 0.9820648 0.93328124 1.1007931 1.0098423 1.0114121
0.9624298 1.1076962 0.9753048 1.0665728 1.0504402 1.071832 0.9067505 1.179778
1.048119 1.060029 1.1225134 1.0314516 1.1320043 1.1196609 1.0547253 0.933641
0.98004305 0.9824452 0.96706593 1.1030517 0.9870438 1.0134131 1.1023415 1.1840891
0.9691445 1.0233767 1.0516288 1.1193528 0.9221609 1.1084771 1.0842613 0.9668945
0.9725766 1.0439497 0.95738316 1.0399015 1.1175233 1.1587791 1.0584174 0.9919862
1.0563012 1.0576103 1.0183742 1.109799 1.1436216 0.97478604 1.0340016 1.1562186
1.0007143 1.0928677 1.0358505 0.99275166 0.91204315 0.9942357 1.0406665 1.1491255
1.1011122 1.0980853 1.1427891 1.0237676 1.004523 0.93379664 0.9289254 1.0239582
0.99800676 1.0304873 1.084879 1.0583425 1.0366224 1.065264 0.8509517 1.001917
0.9589693 0.9154031 1.0688348 1.1529926 1.05566 1.0374533 1.042855 1.0403821
1.1310092 0.963464 1.0677092 1.0804284 0.98556197 0.99850667 0.89077693 1.0452634
1.1186169 1.0167658 1.1094348 1.0307959 1.1560333 1.0518885 1.0410342 1.1029016
1.1122245 0.99548537 1.1187514 0.97445405 0.9848486 1.0315998 1.0261333 1.0052431
1.0418514 0.94621927 1.0070602 1.0352442 1.0046952 1.1045665 1.0411264 1.0334821
1.1693051 0.9840988 0.9893891 1.0806049 0.98526126 0.992492 1.007198 1.0045015
0.99863505 0.9861417 1.1120905 1.0536346 0.9718841 1.0547271 1.0551165 1.0546414
1.0330573 1.0655901 1.0523345 0.993151 1.0456874 1.0661122 1.197355 1.1000576
1.0335932 1.0779157 1.2238276 1.0793246 1.1568295 0.9683748 1.1449447 1.1210108
00000000: a15f 803f 4213 873f d103 873f f873 8c3f
00000010: 0153 813f e0c5 883f 48e6 853f 7dab 863f
00000020: 1348 8e3f c19e 913f 5c13 873f 25d8 813f
00000030: 55d0 953f cfe5 8f3f 0e3b 883f fd97 883f
00000040: ae07 883f 4b2d 5e3f b9e7 863f d699 8e3f
00000050: 5c4c 7f3f 600d 843f 1a5e 723f 128f 563f
00000060: 5747 793f 380d 833f 7082 833f 03a0 863f
00000070: b6e7 773f 1b67 843f b49d 863f 1e9d 753f
00000080: 5522 863f 579d 903f c83a 783f b936 853f
00000090: 1d90 953f e2fb 803f cb46 8d3f 17ca 843f
000000a0: b2d8 8e3f 1a00 803f a20d 7e3f 1344 883f
000000b0: d92f 7a3f 8d84 803f 905e 813f 1301 863f
000000c0: baf7 813f 581f 7a3f 3010 7c3f 0572 803f
000000d0: 99ec 953f f3cc 893f 6f7b 823f 38e2 863f
000000e0: 8b08 8a3f 2645 8d3f a65d 893f 8a26 823f
000000f0: 876e 7d3f 6f0f 7a3f 19f1 803f e76f 803f
00000100: c313 863f 1f1a 773f ba52 7c3f de8e 833f
00000110: d3fc 873f 41c7 913f ce42 833f 3063 673f
00000120: 3a2a 893f 4573 853f 3ab1 843f 0600 8a3f
00000130: f026 843f a01e 8b3f 03d1 823f 3717 733f
00000140: 0b1d 823f 24d3 823f dc29 843f eb44 853f
00000150: e605 813f 5dfb 8c3f 503a 803f c316 973f
00000160: 6b71 803f 996e 813f 1428 833f f1ba 8e3f
00000170: 696e 833f a128 843f ea12 853f 5a94 883f
00000180: 221d 803f c14d 863f ae2b 923f de7e 8e3f
00000190: 997a 923f 4849 833f ec25 873f f5ce 6c3f
000001a0: 42ba 8a3f 1328 653f 4f1d 823f 9968 7b3f
000001b0: 85eb 6e3f cae6 8c3f 8342 813f f475 813f
000001c0: cd61 763f fdc8 8d3f 93ad 793f 7585 883f
000001d0: d374 863f ca31 893f cd20 683f f702 973f
000001e0: c328 863f 08af 873f 85ae 8f3f 9b06 843f
000001f0: 84e5 903f 0c51 8f3f 3d01 873f 1903 6f3f
00000200: 1ae4 7a3f 8781 7b3f a291 773f cc30 8d3f
00000210: e7ae 7c3f 85b7 813f 8719 8d3f 3b90 973f
00000220: db19 783f 02fe 823f c69b 863f f446 8f3f
00000230: bd12 6c3f 94e2 8d3f 13c9 8a3f 6686 773f
00000240: c8fa 783f 25a0 853f 1017 753f 7e1b 853f
00000250: 010b 8f3f e052 943f 397a 873f cff2 7d3f
00000260: e134 873f c65f 873f 165a 823f e50d 8e3f
00000270: 3162 923f 948b 793f 2a5a 843f f9fe 933f
00000280: 6817 803f 17e3 8b3f c096 843f f924 7e3f
00000290: a97b 693f 3b86 7e3f 8f34 853f 8b16 933f
000002a0: 3ff1 8c3f 0f8e 8c3f ea46 923f d10a 833f
000002b0: 3694 803f 4c0d 6f3f 0ece 6d3f 1011 833f
000002c0: 5f7d 7f3f 02e7 833f 51dd 8a3f c477 873f
000002d0: 0bb0 843f 925a 883f f8d7 593f d13e 803f
000002e0: 037f 753f dc57 6a3f 94cf 883f 4395 933f
000002f0: de1f 873f 45cb 843f 467c 853f 3e2b 853f
00000300: e9c4 903f 94a5 763f b2aa 883f 7a4b 8a3f
00000310: ca4d 7c3f 229e 7f3f f509 643f 31cb 853f
00000320: d72e 8f3f 6225 823f f601 8e3f 1ff1 833f
00000330: e6f8 933f 48a4 863f 9c40 853f e12b 8d3f
00000340: 5f5d 8e3f 21d8 7e3f 3f33 8f3f d275 793f
00000350: 0a1f 7c3f 760b 843f 5658 833f ceab 803f
00000360: 635b 853f 6d3b 723f 59e7 803f e282 843f
00000370: da99 803f 6f62 8d3f a143 853f 2449 843f
00000380: caab 953f e6ed 7b3f 9b48 7d3f 4351 8a3f
00000390: 153a 7c3f f513 7e3f ddeb 803f 8193 803f
000003a0: 8ca6 7f3f c873 7c3f fb58 8e3f 80dd 863f
000003b0: 65cd 783f 4c01 873f 0f0e 873f 7dfe 863f
000003c0: 393b 843f 4265 883f e6b2 863f 253f 7e3f
000003d0: 16d9 853f 5d76 883f ee42 993f b0ce 8c3f
000003e0: c84c 843f 24f9 893f 62a6 9c3f 4f27 8a3f
000003f0: fd12 943f 69e7 773f 8c8d 923f 487d 8f3f

base.mlp.layers.0.2.bias f4 [256]
-0.04515953 0.06701243 -0.008810543 -0.046611913 0.04600475 0.015011329 -0.03530542 -0.038639452
-0.019165738 -0.0029042833 0.09285104 -0.019531418 -0.037736442 0.012733556 0.038900837 -0.03839576
0.020204708 0.17114238 -0.024834149 0.013300043 -0.018229507 -0.0046981173 0.024534263 0.041938245
0.0649661 -0.07994171 0.011660625 0.018549997 -0.047154568 0.02707996 0.015044869 0.062753566
0.043361995 -0.025500575 0.09433219 0.0043393155 0.0023432453 0.011602656 -0.013882871 -0.018139591
0.08747349 -0.015161695 -0.011419852 -0.011329319 0.046133604 -0.020821601 -0.05362927 0.007955892
0.01884193 0.07665369 0.09224128 0.010484191 0.02057068 -0.02739238 0.03725697 0.0076665445
0.054400224 0.024357865 0.037351966 -0.0624515 0.053219892 0.028350791 0.027189689 0.0038577118
-0.00631432 0.03332319 0.015102412 -0.028810788 -0.035662692 0.018113796 0.053788643 0.09826068
0.014190933 -0.0006450146 0.030516867 -0.022205107 0.0076836236 -0.03240385 -0.041838072 0.110495254
-0.040669896 0.028556356 0.024608372 -0.008729548 0.06469983 0.010380708 0.0042376253 -0.08043878
-0.01263948 0.003940746 0.009927579 0.106549695 -0.000702819 -0.02309336 0.103245914 0.0634224
0.020925116 -0.011208716 -0.022948647 -0.007805976 0.029409733 0.040555783 0.019337755 0.06894276
-0.017874137 0.023918537 -0.043799803 0.057110693 0.06553051 0.029369783 -0.07329914 0.009455373
0.02172072 -0.027466139 0.06626088 0.040906034 0.03540468 0.008443289 0.09145789 0.07356882
-0.008889554 0.032619968 0.04325818 0.03569232 -0.08019282 -0.0034663125 0.117777 0.07273008
0.03481382 0.08203312 0.03688516 0.0014506361 0.030097634 0.025204383 -0.0017493016 0.019731773
0.05397578 -0.037930105 0.034737837 -0.08323205 0.07226544 -0.042285692 -0.023254687 -0.0081304535
0.08410397 -0.006132766 0.059638403 0.02282938 0.14253089 -0.087014906 -0.027384438 -0.015237563
-0.02113156 0.067137755 -0.03414373 0.00051787595 -0.034371234 0.0102495635 -0.040306747 0.06743988
-0.008831034 -0.0651046 0.073330805 0.015335108 0.08634061 -0.00058666425 -0.06972178 -0.016086325
-0.0382854 -0.06746718 -0.104479104 0.04280017 0.08696006 0.0065772715 0.08330235 0.020575618
0.02645254 0.04548983 -0.05145781 -0.028704586 0.039366584 -0.018588532 0.091498435 0.024737464
-0.020482734 0.00471497 -0.015417038 -0.029850557 -0.036468096 0.08268167 0.014881797 0.011980222
-0.02033989 0.08991855 -0.0005024257 0.11230153 0.060915876 0.12269217 0.075960174 -0.005062979
-0.0954168 0.002872759 0.0046009785 0.0015093347 0.050534602 -0.004104179 -0.016218858 0.008125899
-0.01949742 0.0954894 0.14356287 0.097207636 0.02490735 -0.047093727 0.030253977 -0.024764862
-0.02776482 0.06530635 0.052307077 0.058806624 -0.0032710098 0.068551905 0.008745452 0.0050016358
-0.052059557 0.10391554 0.034727115 0.0093933875 0.0021541754 0.072204396 0.1197451 -0.01762139
0.04735059 -0.009841453 -0.055369668 0.05871631 0.06483497 0.008003055 0.005037877 -0.01839609
-0.038497467 -0.03050396 0.08537422 0.022206413 0.004652757 -0.019165015 -0.07786265 -0.0044412203
-0.010607925 0.005966383 -0.050326057 0.055085253 0.01510572 0.022191219 -0.0436003 0.052310787
00000000: 33f9 38bd d03d 893d 195a 10bc 22ec 3ebd
00000010: 7a6f 3c3d 14f2 753c 6b9c 10bd 6744 1ebd
00000020: 7701 9dbc ca55 3ebb b028 be3d 5a00 a0bc
00000030: 8791 1abd 68a0 503c 7c56 1f3d df44 1dbd
00000040: 5884 a53c f33f 2f3e fc70 cbbc 6ce8 593c
00000050: 0c56 95bc aaf2 99bb 14fc c83c 70c7 2b3d
00000060: f20c 853d 7bb8 a3bd 350c 3f3c 2af6 973c
00000070: 2625 41bd cbd6 dd3c c17e 763c f184 803d
00000080: 599c 313d 95e6 d0bc 3c31 c13d d130 8e3b
00000090: 2291 193b 1119 3e3c fb74 63bc 7b99 94bc
000000a0: 4d25 b33d c268 78bc 551a 3bbc 9c9e 39bc
000000b0: 97f6 3c3d 1092 aabc 5eaa 5bbd 6e59 023c
000000c0: 645a 9a3c 9cfc 9c3d ffe8 bc3d e2c5 2b3c
000000d0: d883 a83c fc65 e0bc c49a 183d a337 fb3b
000000e0: c5d2 5e3d 258a c73c 60fe 183d 25cd 7fbd
000000f0: 1afd 593d eb3f e83c e9bc de3c aad1 7c3b
00000100: 5be8 cebb e67d 083d 1b70 773c 9a04 ecbc
00000110: 0b13 12bd 6263 943c 7b51 5c3d e53c c93d
00000120: 1681 683c 3216 29ba 82fe f93c 7ce7 b5bc
00000130: e8c6 fb3b e6b9 04bd 665e 2bbd 564b e23d
00000140: 7a95 26bd 05ef e93c 7f97 c93c 6106 0fbc
00000150: 5881 843d d813 2a3c c7db 8a3b 16bd a4bd
00000160: d215 4fbc 6021 813b 49a7 223c ba36 da3d
00000170: 623d 38ba 492e bdbc 9872 d33d 9ae3 813d
00000180: 266b ab3c c3a4 37bc cdfe bbbc 46c9 ffbb
00000190: aeec f03c d21d 263d 366a 9e3c dd31 8d3d
000001a0: c86c 92bc cff0 c33c 6c67 33bd e7ec 693d
000001b0: dc34 863d e698 f03c dc1d 96bd b5ea 1a3c
000001c0: a7ef b13c ab00 e1bc c9b3 873d 168d 273d
000001d0: 7f04 113d b955 0a3c 464e bb3d 40ab 963d
000001e0: 7ea5 11bc 849c 053d 7d2f 313d 1c32 123d
000001f0: 223c a4bd 132b 63bb 1135 f13d 82f3 943d
00000200: f098 0e3d fb00 a83d e514 173d 4523 be3a
00000210: 508f f63c 6c79 ce3c d248 e5ba 87a4 a13c
00000220: b515 5d3d 995c 1bbd 4349 0e3d 9175 aabd
00000230: e7ff 933d c333 2dbd 9d80 bebc 9835 05bc
00000240: b43e ac3d 5ff5 c8bb 6647 743d ae04 bb3c
00000250: 9ef3 113e df34 b2bd 5455 e0bc f9a6 79bc
00000260: 181c adbc 857f 893d 4cda 0bbd 11c2 073a
00000270: dac8 0cbd c9ed 273c b018 25bd eb1d 8a3d
00000280: 0bb0 10bc 8f55 85bd 762e 963d 1b40 7b3c
00000290: 59d3 b03d 5fca 19ba 4bca 8ebd 78c7 83bc
000002a0: 27d1 1cbd 3c2c 8abd 24f9 d5bd 3b4f 2f3d
000002b0: 1e18 b23d 2786 d73b 6c9a aa3d 338e a83c
000002c0: ffb2 d83c 8b53 3a3d 6dc5 52bd e125 ebbc
000002d0: db3e 213d fa46 98bc 8863 bb3d 39a6 ca3c
000002e0: 68cb a7bc 0980 9a3b bf97 7cbc 2889 f4bc
000002f0: 925f 15bd 0255 a93d c8d2 733c b148 443c
00000300: d79f a6bc 3727 b83d 38b5 03ba 58fe e53d
00000310: ed82 793d 0846 fb3d 0291 9b3d 59e7 a5bb
00000320: e269 c3bd e644 3c3b cec3 963b ded4 c53a
00000330: 5ffd 4e3d 597c 86bb 69dd 84bc 7e22 053c
00000340: 0eb9 9fbc f28f c33d 2502 133e cc14 c73d
00000350: 800a cc3c 5ae5 40bd 30d7 f73c aedf cabc
00000360: 0c73 e3bc 56bf 853d f23f 563d 37df 703d
00000370: 705e 56bb f164 8c3d 1649 0f3c c3e4 a33b
00000380: 673c 55bd acd1 d43d 053e 0e3d b9e6 193c
00000390: 112d 0d3b e6df 933d eb3c f53d bc5a 90bc
000003a0: b1f2 413d 0c3e 21bc 4ecb 62bd 8380 703d
000003b0: 32c8 843d 3f1f 033c c614 a53b 66b3 96bc
000003c0: 85af 1dbd 71e3 f9bc aed8 ae3d 39ea b53c
000003d0: 2876 983b f3ff 9cbc 7476 9fbd a887 91bb
000003e0: ddcc 2dbc a681 c33b b222 4ebd 13a1 613d
000003f0: fb7d 773c 5cca b53c 3a96 32bd d643 563d

base.mlp.layers.1.0.weight f4 [128, 256]
0.02625889 -0.11856189 -0.09367487 0.037448704 0.05476938 0.106429994 -0.11751983 0.120525405
-0.05863779 0.023236077 0.087618396 -0.10715192 -0.2927029 -0.048761953 0.04198442 0.1845277
0.107288435 -0.0432865 -0.09095679 -0.101335414 0.026318574 -0.092209615 0.019033197 0.16409123
-0.22597648 0.19232313 0.024714664 -0.070246026 -0.21673761 0.012941407 -0.1492382 -0.01792962
-0.075283684 -0.031191017 0.16763969 0.21188982 -0.115621306 -0.0803314 0.13809147 -0.1109021
-0.06981177 0.06097638 -0.27925822 -0.037755534 0.04424813 -0.017158063 0.10913347 0.1113921
-0.009590105 0.13600889 0.03350507 -0.017240036 -0.010744965 0.025135158 0.13619556 -0.021920234
0.032355778 0.15555418 -0.03753156 -0.084886454 -0.009766274 -0.10271969 0.024247736 0.1115171
-0.2310853 0.049982835 -0.12788603 -0.18916363 -0.28895175 -0.14124645 -0.08606174 -0.1193265
0.27228266 0.069628716 -0.1263302 -0.044744782 -0.091283835 0.0049091997 -0.07479911 -0.054987196
0.12955758 -0.06974319 0.0014159308 -0.12527262 0.041831177 -0.24444152 0.019354286 0.27713934
0.088238016 0.122514434 0.085812904 -0.24141523 -0.021016464 -0.16600737 -0.022843625 -0.06990138
0.0020369743 -0.027871264 -0.16701499 -0.18851562 -0.18446048 0.17171194 -0.0728934 -0.18624395
0.25055945 0.29802132 0.19621171 0.07705082 -0.07641454 0.013366358 0.039545994 0.20170708
0.22704227 -0.030884538 0.0037547858 -0.0074175997 -0.24086086 0.0019220448 0.079887584 -0.13801354
0.026477197 -0.18629377 -0.11077019 -0.050444867 -0.06729352 0.03307456 0.08124529 0.061039735
-0.047764715 0.065465756 0.028786447 -0.08790834 0.32017556 0.057500195 -0.043727946 -0.08917686
0.03652288 -0.17593545 0.02938303 -0.023170615 -0.114816256 -0.018385159 -0.08458308 -0.097795844
-0.07115882 -0.065254584 -0.17126283 0.10494738 -0.06337784 0.08219013 0.049682595 0.1684559
0.07088844 0.04916192 -0.10424191 -0.08185698 -0.047136948 -0.12241509 0.08770962 0.08953279
-0.06240262 -0.0060375924 -0.03673105 0.077624075 0.06393432 0.10272246 -0.21647651 0.13420999
-0.046068083 0.15532117 -0.14694877 0.05319299 -0.08679889 0.03586242 0.1348775 -0.008165254
-0.16617392 0.11788253 0.27290946 -0.09747441 -0.0015401192 0.015170651 -0.16682437 -0.064382434
-0.11917369 -0.24285614 -0.03555444 -0.067151345 0.0989921 -0.045910306 0.10850094 -0.135575
-0.10795508 -0.0023544568 -0.036285214 0.03594527 -0.1537759 -0.13541992 -0.10215991 0.022554038
0.22149892 -0.005621865 -0.008948761 -0.049090482 -0.030668765 0.02701268 0.017062014 -0.065978415
-0.09855007 -0.010805525 0.16979963 0.06642744 -0.19906244 0.087699264 0.010557764 -0.015408345
-0.10316767 0.11687028 -0.08033006 0.11409472 0.047416057 -0.12339731 0.0038471923 -0.010596868
0.103777215 -0.04121364 0.14226134 -0.020423468 -0.13168278 -0.10477168 -0.02983131 -0.20156452
-0.15186614 0.22600037 0.07339749 0.048864547 0.061916213 0.144056 0.32339233 -0.25674352
0.23390914 0.057342947 0.037518967 -0.23642662 0.16982846 0.08385705 -0.13802695 0.08885054
0.060412563 -0.15226306 -0.123118855 -0.12413632 0.020731091 0.28153056 0.0057029137 0.015450933
00000000: e21c d73c 94d0 f2bd 9cd8 bfbd d063 193d
00000010: db55 603d f8f7 d93d 3dae f0bd 06d6 f63d
00000020: 2e2e 70bd 9659 be3c 4671 b33d 7772 dbbd
00000030: 28dd 95be 9dba 47bd dbf7 2b3d d4f4 3c3e
00000040: 0aba db3d 2f4d 31bd 8e47 babd f188 cfbd
00000050: 0d9a d73c 65d8 bcbd 82eb 9b3c 8807 283e
00000060: 6166 67be 5bf0 443e 6876 ca3c 26dd 8fbd
00000070: 77f0 5dbe 3208 543c e6d1 18be 23e1 92bc
00000080: 552e 9abd 4e84 ffbc bda9 2b3e a5f9 583e
00000090: ddca ecbd ca84 a4bd da67 0d3e a420 e3bd
000000a0: 79f9 8ebd 5ec2 793d effa 8ebe 8ca5 1abd
000000b0: 873d 353d 118f 8cbc 5e81 df3d 8b21 e43d
000000c0: d11f 1dbc ea45 0b3e 9d3c 093d fa3a 8dbc
000000d0: a60b 30bc 3fe8 cd3c d976 0b3e 1092 b3bc
000000e0: 7e87 043d 9849 1f3e b1ba 19bd f3d8 adbd
000000f0: b902 20bc b35e d2bd 30a3 c63c 1463 e43d
00000100: a0a1 6cbe cdba 4c3d 8ef4 02be 1cb4 41be
00000110: 7cf1 93be e9a2 10be 2341 b0bd 7461 f4bd
00000120: a268 8b3e 8099 8e3d b45c 01be 4e46 37bd
00000130: 05f3 babd 5add a03b 4730 99bd 413a 61bd
00000140: beaa 043e 85d5 8ebd c196 b93a 7747 00be
00000150: 2b57 2b3d e14e 7abe e18c 9e3c 35e5 8d3e
00000160: 22b6 b43d d9e8 fa3d adbe af3d 8e35 77be
00000170: b82a acbc d6fd 29be 8e22 bbbc 7428 8fbd
00000180: c27e 053b 4752 e4bc fa05 2bbe 3d0a 41be
00000190: 35e3 3cbe 41d5 2f3e 2349 95bd bcb6 3ebe
000001a0: 5449 803e 4096 983e b9eb 483e d2cc 9d3d
000001b0: 3a7f 9cbd 92fe 5a3c fbfa 213d 4d8c 4e3e
000001c0: c57d 683e 9201 fdbc da12 763b 560f f3bb
000001d0: 3ba4 76be 1fed fb3a 1a9c a33d 6c53 0dbe
000001e0: b5e6 d83c cbc3 3ebe 7bdb e2bd 479f 4ebd
000001f0: 2fd1 89bd 3179 073d ee63 a63d cd04 7a3d
00000200: efa4 43bd e912 863d 8ed1 eb3c 4a09 b4bd
00000210: 0dee a33e 5385 6b3d 131c 33bd 5ca2 b6bd
00000220: 0499 153d 6c28 34be aeb4 f03c 4dd0 bdbc
00000230: c924 ebbd 799c 96bc e539 adbd 3049 c8bd
00000240: b7bb 91bd 32a4 85bd 865f 2fbe a7ee d63d
00000250: 3ecc 81bd 4d53 a83d fa7f 4b3d b47f 2c3e
00000260: f52d 913d 025e 493d c87c d5bd a2a4 a7bd
00000270: ac12 41bd c3b4 fabd 1aa1 b33d f85c b73d
00000280: e499 7fbd ffd6 c5bb 4c73 16bd 5ff9 9e3d
00000290: ffef 823d 2760 d23d 05ac 5dbe 586e 093e
000002a0: e3b1 3cbd 830c 1f3e bd79 16be e5e0 593d
000002b0: 9ec3 b1bd 79e4 123d 541d 0a3e 8fc7 05bc
000002c0: 7f29 2abe 656c f13d caba 8b3e aaa0 c7bd
000002d0: d3dd c9ba 528e 783c 02d4 2abe f0da 83bd
000002e0: 5611 f4bd 48af 78be 88a1 11bd a586 89bd
000002f0: 5fbc ca3d 720c 3cbd be35 de3d 2cd4 0abe
00000300: 8e17 ddbd 3b4d 1abb ce9f 14bd 593b 133d
00000310: 6e77 1dbe 85ab 0abe 3739 d1bd 3fc3 b83c
00000320: 9dd0 623e 9f37 b8bb d39d 12bc 1a13 49bd
00000330: 103d fbbc b249 dd3c a3c5 8b3c b11f 87bd
00000340: 9ed4 c9bd a809 31bc f4df 2d3e 1c0b 883d
00000350: 06d7 4bbe ac9b b33d 79fa 2c3c 4873 7cbc
00000360: 9249 d3bd af59 ef3d 1684 a4bd 7eaa e93d
00000370: 5737 423d bbb7 fcbd 2d21 7c3b 7c9e 2dbc
00000380: 2689 d43d a2cf 28bd f5ac 113e 1e4f a7bc
00000390: dad7 06be 8992 d6bd cb60 f4bc ee66 4ebe
000003a0: cc82 1bbe a46c 673e 6c51 963d 3126 483d
000003b0: db9b 7d3d 6b83 133e ae93 a53e e373 83be
000003c0: e185 6f3e 70e0 6a3d 7dad 193d d219 72be
000003d0: 83e7 2d3e 3fbd ab3d f056 0dbe 46f7 b53d
000003e0: 2a73 773d d9ea 1bbe bd25 fcbd 2f3b febd
000003f0: 40d4 a93c c624 903e 82df ba3b e925 7d3c

base.mlp.layers.1.0.bias f4 [128]
3.580562e-05 0.038523987 -0.0759456 -0.06826753 0.022245403 0.0017033261 -0.065749764 0.06660829
-0.12840661 0.08964919 -0.10990932 0.026531124 -0.18035176 -0.0149859935 -0.020875068 -0.050142948
-0.013774743 -0.13395193 -0.19548935 0.070872486 -0.16440505 -0.007517092 -0.07237521 -0.041224092
-0.037590623 -0.102510385 -0.07442848 -0.02524183 -0.23603225 -0.11002881 0.039030842 -0.18813294
-0.060883325 0.061261382 -0.012114741 -0.19737728 -0.05337989 0.050043765 -0.08640969 0.020759974
-0.1539511 0.017771285 0.072677106 -0.12911789 -0.15272787 -0.075454615 -0.08834007 0.03091735
-0.0067811306 -0.03564009 -0.16761331 -0.024860399 -0.16040416 0.00563222 -0.04422735 -0.10791763
-0.0025504534 -0.11361524 0.08577373 -0.18322784 -0.05707413 -0.0458612 -0.1595663 -0.07908686
-0.031481 -0.02908191 0.0125137875 0.11286487 -0.051349618 -0.16809979 -0.077691026 -0.07508128
-0.085771166 -0.11459039 -0.21828173 -0.057693742 -0.20500825 -0.03110503 -0.08870574 -0.12445855
-0.12921682 -0.07688011 -0.031866774 -0.10177325 -0.051103495 -0.12082411 -0.17687881 -0.043189853
-0.036265697 -0.111749545 -0.050353244 -0.1096502 -0.027872693 -0.12699774 -0.10770327 0.00057748583
0.03260258 0.01333401 -0.08081193 -0.02858822 -0.024417343 -0.14338537 -0.13342462 -0.08024183
-0.082984656 0.019687602 -0.0636353 -0.23243369 -0.115139045 -0.17535305 -0.12605098 -0.057844475
-0.1302849 -0.054772113 -0.028709482 -0.034662664 -0.13488248 -0.019461371 -0.08955651 0.04942758
-0.028757917 0.037147444 -0.11741919 0.065330155 -0.11309104 -0.0373112 -0.08858094 -0.063932136
00000000: fe2d 1638 54cb 1d3d 5e89 9bbd d9cf 8bbd
00000010: fe3b b63c 2442 df3a d0a7 86bd ed69 883d
00000020: 067d 03be ff99 b73d 2318 e1bd cd57 d93c
00000030: 22ae 38be d087 75bc 3102 abbc b162 4dbd
00000040: 76af 61bc b22a 09be 5c2e 48be 9825 913d
00000050: cc59 28be f051 f6bb 7439 94bd 98da 28bd
00000060: a0f8 19bd f7f0 d1bd f56d 98bd f4c7 cebc
00000070: 70b2 71be c956 e1bd cede 1f3d eca5 40be
00000080: cb60 79bd 37ed 7a3d e87c 46bc 451d 4abe
00000090: dfa4 5abd b1fa 4c3d 90f7 b0bd d210 aa3c
000000a0: 5ba5 1dbe 1695 913c bcd7 943d 7b37 04be
000000b0: b264 1cbe f387 9abd a3eb b4bd 6246 fd3c
000000c0: 3f34 debb 58fb 11bd d3a2 2bbe 09a8 cbbc
000000d0: fd40 24be 7c8e b83b bd27 35bd eb03 ddbd
000000e0: 8225 27bb 1baf e8bd 23aa af3d 14a0 3bbe
000000f0: 90c6 69bd f4d8 3bbd 5965 23be 4bf8 a1bd
00000100: 39f2 00bd 303d eebc a106 4d3c b225 e73d
00000110: fa53 52bd 5a22 2cbe 791c 9fbd 37c4 99bd
00000120: cba8 afbd 5eae eabd 3f85 5fbe 4650 6cbd
00000130: afed 51be facf febc 5bab b5bd 20e4 febd
00000140: 6a51 04be 5273 9dbd bc86 02bd 7e6e d0bd
00000150: e651 51bd a272 f7bd b81f 35be d8e7 30bd
00000160: 578b 14bd f2dc e4bd 343f 4ebd 4990 e0bd
00000170: 4655 e4bc b20b 02be 8893 dcbd 6b62 173a
00000180: 488a 053d e476 5a3c ba80 a5bd d831 eabc
00000190: e106 c8bc 9dd3 12be 77a0 08be d455 a4bd
000001a0: dcf3 a9bd e547 a13c 3953 82bd 1903 6ebe
000001b0: 05ce ebbd c08f 33be 8213 01be 54ee 6cbd
000001c0: 6869 05be b958 60bd 2630 ebbc 70fa 0dbd
000001d0: a21e 0abe 746d 9fbc 6769 b7bd 9374 4a3d
000001e0: b995 ebbc eb27 183d 7979 f0bd d1cb 853d
000001f0: 469c e7bd a1d3 18bd ed69 b5bd daee 82bd

base.mlp.layers.1.2.weight f4 [128]
0.96888655 0.90958714 0.9908172 1.1239611 0.94032097 0.85020137 1.0184087 0.89286417
1.0848491 1.0763314 1.1211907 0.95137334 0.94564414 0.9173546 1.0731772 1.0243802
1.0099874 1.006354 0.9578704 1.0181612 0.92414206 0.98865324 0.9667275 1.0507662
0.96797305 1.0621496 1.0046827 1.0534203 1.0080285 1.0803427 0.82706755 1.0684346
1.1129897 1.0448656 0.9100746 1.0362893 0.94593 0.955251 0.9947526 1.0718069
1.0885205 0.968937 0.99424314 1.0028741 1.0288901 1.0420375 1.0303236 0.8775952
1.0829331 0.9728099 1.0763998 0.95058113 1.0541666 0.9704723 1.051687 1.0769247
0.99205625 1.1170727 0.9868232 1.1417516 0.9465649 0.9858045 1.1174438 1.1015042
1.0703685 1.0094635 0.9664713 1.0324023 1.0498823 1.101446 1.1000695 1.0139933
1.061329 1.1286165 1.0495781 1.0015273 0.96403694 0.8617393 1.0763782 1.0876738
1.0631121 1.0045059 0.9604929 1.0268149 0.9527218 0.93975675 1.062132 0.97029847
0.93761224 1.0338137 0.96734315 1.0263641 0.8685243 1.0217277 1.0600048 0.9897973
0.862993 1.0024284 1.0829248 0.9036894 0.98930264 0.9936708 1.0422297 0.9556695
1.1321789 0.9171409 0.9243056 1.029231 1.1008686 1.1596968 1.0400317 1.0166727
1.0467008 0.9476828 0.977508 1.0073173 1.0202204 0.9371178 0.9996602 0.9790554
0.9185398 1.1237195 0.9641345 0.95772284 1.038493 0.9636692 1.0909755 1.018173
00000000: f308 783f b4da 683f 32a6 7d3f f5dd 8f3f
00000010: e0b8 703f cca6 593f 375b 823f bf92 643f
00000020: 56dc 8a3f 3ac5 893f 2d83 8f3f 348d 733f
00000030: bc15 723f c0d7 6a3f df5d 893f e41e 833f
00000040: 4447 813f 35d0 803f ff36 753f 1b53 823f
00000050: 9394 6c3f 6118 7d3f 747b 773f 827f 863f
00000060: 15cd 773f 85f4 873f 7199 803f 7ad6 863f
00000070: 1407 813f ab48 8a3f b3ba 533f 77c2 883f
00000080: 7276 8e3f 28be 853f a6fa 683f 21a5 843f
00000090: 7828 723f 548b 743f 1ba8 7e3f f830 893f
000000a0: a454 8b3f 410c 783f b886 7e3f 2e5e 803f
000000b0: acb2 833f 7c61 853f a5e1 833f 14aa 603f
000000c0: 8d9d 8a3f 120a 793f 78c7 893f 4959 733f
000000d0: eeee 863f df70 783f ae9d 863f abd8 893f
000000e0: 66f7 7d3f 3dfc 8e3f 72a0 7c3f eb24 923f
000000f0: 1452 723f af5d 7c3f 6608 8f3f 17fe 8c3f
00000100: d601 893f 1a36 813f aa6a 773f c225 843f
00000110: 8b62 863f 2ffc 8c3f 14cf 8c3f 88ca 813f
00000120: a1d9 873f 8176 903f 9358 863f 0c32 803f
00000130: 20cb 763f f29a 5c3f c3c6 893f e538 8b3f
00000140: 0f14 883f a693 803f dde2 753f ac6e 833f
00000150: 93e5 733f e693 703f f1f3 873f 7b65 783f
00000160: 5b07 703f 0254 843f cda3 773f e65f 833f
00000170: 9c57 5e3f f9c7 823f 3dae 873f 5b63 7d3f
00000180: 1ced 5c3f 934f 803f 489d 8a3f 3058 673f
00000190: f042 7d3f 3661 7e3f c867 853f c2a6 743f
000001a0: 3deb 903f bfc9 6a3f 4b9f 6c3f d7bd 833f
000001b0: 43e9 8c3f f270 943f c21f 853f 5522 823f
000001c0: 4bfa 853f 579b 723f f73d 7a3f c6ef 803f
000001d0: 9596 823f f4e6 6f3f bbe9 7f3f 60a3 7a3f
000001e0: 6d25 6b3f 0ad6 8f3f 85d1 763f 532d 753f
000001f0: 57ed 843f 06b3 763f 16a5 8b3f 7e53 823f

base.mlp.layers.1.2.bias f4 [128]
0.020462932 0.0787113 0.02098622 -0.052145693 0.05731875 0.0352873 0.003043519 0.075419836
-0.0859801 0.085909925 -0.11870545 0.10030274 0.02177766 0.043736584 -0.047889836 0.043255694
0.021322139 -0.046615247 0.025427615 0.12915875 0.039306823 0.04616348 0.05390844 -0.027379492
-0.049050555 -0.04080212 -0.014620991 0.013661015 -0.032864537 -0.11980386 0.052072622 -0.09817469
-0.11078796 0.11288981 -0.004212127 -0.040175542 0.04929932 0.1455589 -0.031287797 0.0029419856
-0.09131814 0.02201246 0.10314694 -0.02714352 -0.00662414 -0.07323917 -0.034639087 0.068738885
-0.020282652 0.044538535 -0.0839937 -0.036224674 -0.053559653 0.05939137 0.030465761 -0.040306598
0.049765877 -0.10794498 0.11272672 -0.12011697 -0.043989476 0.0039033503 -0.13688582 -0.030044422
-0.07370401 -0.0025058184 0.0926838 0.14270319 -0.06301504 -0.03278477 -0.12789425 0.011866192
-0.16436763 -0.12560979 -0.022389045 -0.04838865 0.009581027 0.037395485 -0.08831163 -0.05875272
-0.07486199 0.014886116 -0.039857693 -0.025314843 -0.040383644 0.022975296 -0.057340194 0.047660578
-0.0114845075 -0.049030326 0.0064746523 -0.020966126 0.046975873 -0.046579562 -0.08615759 0.021889241
0.18738827 -0.0064479965 -0.052659854 -0.047643613 0.052477047 -0.009617243 -0.042159613 -0.047926567
-0.1319509 0.11467568 0.076909006 -0.026531983 -0.121034615 -0.13980505 -0.07202587 -0.025045983
-0.04762711 -0.035826795 -0.00013232752 0.093931586 0.005292417 -0.050932292 8.8811365e-05 0.07587669
-0.048234884 0.018027937 0.04413228 0.06300507 -0.08722385 -0.03307629 -0.08999255 -0.053722534
00000000: e1a1 a73c 6433 a13d 4beb ab3c b996 55bd
00000010: 11c7 6a3d 6a89 103d c775 473b b775 9a3d
00000020: 5616 b0bd 8bf1 af3d d81b f3bd 866b cd3d
00000030: 1067 b23c 2225 333d 2228 44bd e22c 313d
00000040: c4ab ae3c a1ef 3ebd 934d d03c 3142 043e
00000050: 3100 213d eb15 3d3d 19cf 5c3d f54a e0bc
00000060: 3ce9 48bd 2020 27bd e28c 6fbc 73d2 5f3c
00000070: f79c 06bd ba5b f5bd 1a4a 553d d00f c9bd
00000080: cce4 e2bd c632 e73d e205 8abb 1c8f 24bd
00000090: 15ee 493d 640d 153e a227 00bd 54ce 403b
000000a0: 0105 bbbd 7953 b43c b43e d33d 165c debc
000000b0: 500f d9bb 6bfe 95bd b7e1 0dbd f9c6 8c3d
000000c0: ce27 a6bc 0a6e 363d e404 acbd 5360 14bd
000000d0: 5e61 5bbd 5d44 733d 5593 f93c 8818 25bd
000000e0: 4ed7 4b3d 4212 ddbd 44dd e63d e3ff f5bd
000000f0: 4f2e 34bd 5acf 7f3b cc2b 0cbe b81f f6bc
00000100: 21f2 96bd a838 24bb 01d1 bd3d c920 123e
00000110: 070e 81bd 5349 06bd b6f6 02be 6b6a 423c
00000120: fd4f 28be da9f 00be 3b69 b7bc 2d33 46bd
00000130: bdf9 1c3c 022c 193d badc b4bd b1a6 70bd
00000140: 3e51 99bd e5e4 733c d241 23bd 1361 cfbc
00000150: 5269 25bd b036 bc3c 8ddd 6abd bd37 433d
00000160: 8429 3cbc 06d4 48bd 5229 d43b 27c1 abbc
00000170: c669 403d 36ca 3ebd 6473 b0bd 1151 b33c
00000180: b6e2 3f3e b749 d3bb dcb1 57bd f325 43bd
00000190: 2cf2 563d a491 1dbc 8faf 2cbd a64e 44bd
000001a0: 231e 07be 15db ea3d 7882 9d3d 9a59 d9bc
000001b0: ffe0 f7bd 0e29 0fbe 4d82 93bd 3c2d cdbc
000001c0: a514 43bd 1ebf 12bd 66c1 0ab9 345f c03d
000001d0: 036c ad3b 619e 50bd 3d40 ba38 3d65 9b3d
000001e0: f191 45bd 53af 933c 0dc4 343d cd08 813d
000001f0: 6ba2 b2bd 017b 07bd 044e b8bd 290c 5cbd

base.mlp.layers.2.0.weight f4 [64, 128]
-0.0062204017 0.082359955 0.010484629 -0.18744616 -0.033520926 0.08011004 -0.034662746 -0.02850461
0.10827396 -0.12358981 -0.24146801 -0.045086 -0.04482503 0.16500789 -0.2946687 0.02419361
0.033017922 -0.24141738 -0.048961215 -0.03019127 -0.2379417 -0.14812115 -0.0099056475 -0.26250947
-0.060793858 0.07079223 0.0074100606 0.12754647 0.022890264 -0.11999728 0.14119735 -0.1094147
-0.36852446 -0.1680794 0.0018663954 -0.07239898 0.0028474596 -0.028713148 -0.21372966 -0.106360696
-0.14700231 0.14178637 0.13606758 0.073821016 0.091384865 -0.25052643 0.106424175 -0.055866346
-0.13625333 -0.22591794 -0.13032903 -0.27109674 0.15799776 0.11209373 -0.09412053 -0.21636367
0.044073366 -0.09033335 0.05035374 0.06632545 -0.2149503 0.06385811 0.07487192 0.12669042
-0.09308309 -0.017176542 -0.034279276 0.05210776 -0.019996997 0.012719607 -0.20185463 0.066608325
-0.058050472 -0.09420373 -0.009076523 -0.23108076 -0.054245584 -0.10405727 -0.085301764 -0.2939529
-0.35424626 -0.13434206 0.010580261 0.3099936 0.13439563 -0.030712202 -0.09282062 0.15812603
0.100592874 -0.20148054 0.043652024 -0.17093237 -0.21229123 0.034452904 0.05485645 0.21701969
-0.057368543 0.14511542 -0.21325369 0.14123723 -0.16661751 0.095439315 -0.1781943 -0.1023526
-0.19519727 -0.04485392 -0.30157068 0.09271979 -0.10426269 -0.38002375 0.06672099 -0.1630917
0.016204108 -0.16431756 0.14461699 -0.23363736 -0.30307463 0.06825588 -0.15440463 -0.056510143
-0.010336003 0.057991065 -0.02410543 0.100059465 -0.027188955 -0.027440019 -0.17930716 -0.22568329
0.21997592 0.0065946477 0.016688023 -0.027443573 0.1646388 -0.027260171 -0.1639727 -0.0848779
-0.06434716 -0.09827417 -0.082008496 -0.14786804 -0.22956097 0.16280608 -0.07804066 0.22749984
0.3723489 0.09697812 -0.19183837 -0.07776936 0.1660106 -0.010282767 0.15319832 0.20271826
0.23620993 0.056369744 0.2698441 -0.06965519 0.050445803 -0.08986434 0.08854608 -0.021048874
-0.13018113 0.20021455 0.005341186 0.14788264 0.12083629 0.1350004 -0.019495789 -0.26607862
-0.16101141 -0.016485881 0.08294043 -0.07240785 0.0014998437 0.09593096 -0.014194068 0.08152985
0.1633456 -0.13790986 -0.17361252 0.04814197 -0.090186015 0.106397286 0.18783778 -0.0062304684
0.32258406 0.11986211 0.2547526 -0.10472632 0.10384583 -0.0813768 -0.18966283 -0.049772084
-0.021266721 -0.22145543 0.051148288 -0.25393024 -0.033755228 0.1510196 -0.04114572 0.020644546
0.2141337 -0.17169058 0.0041966806 0.10405909 -0.25144276 0.14265542 -0.110934205 -0.009816972
-0.060187668 0.29099458 0.0936417 -0.15917616 0.38454074 -0.11276725 -0.20298149 -0.20888887
0.36837512 -0.07666223 0.32121834 -0.051216677 0.052009623 0.07428417 0.023357023 0.25558236
-0.11529469 0.18439233 0.0791263 -0.15506247 0.18128325 -0.08995789 0.07537661 0.16579024
-0.10040668 -0.2683544 0.07178506 -0.036252532 -0.15208603 -0.11897402 -0.14957553 0.24659964
-0.050376076 0.12732825 0.14240211 0.14581655 -0.22116199 0.15652642 -0.07760287 0.100175105
0.049488604 0.21532816 -0.122838356 -0.01508423 -0.22692381 0.22857332 0.062875904 -0.037733033
00000000: 83d4 cbbb 56ac a83d b9c7 2b3c e3f1 3fbe
00000010: 3d4d 09bd bc10 a43d 86fa 0dbd 8082 e9bc
00000020: bdbe dd3d a81c fdbd 6443 77be 19ac 38bd
00000030: 739a 37bd d4f7 283e d1de 96be ad31 c63c
00000040: cd3d 073d 1e36 77be 8e8b 48bd af53 f7bc
00000050: fda6 73be 12ad 17be 4c4b 22bc a467 86be
00000060: fb02 79bd 84fb 903d 18d0 f23b 8b9b 023e
00000070: 5d84 bb3c 22c1 f5bd 0a96 103e d014 e0bd
00000080: 3daf bcbe 021d 2cbe d6a1 f43a eb45 94bd
00000090: 729c 3a3b d637 ebbc f3db 5abe a3d3 d9bd
000000a0: c687 16be 7230 113e 4d55 0b3e 792f 973d
000000b0: fd27 bb3d 0045 80be ebf4 d93d 1cd4 64bd
000000c0: fe85 0bbe 0857 67be f974 05be 31cd 8abe
000000d0: 2aca 213e 6691 e53d 44c2 c0bd 708e 5dbe
000000e0: 4686 343d b100 b9bd b93f 4e3d a3d5 873d
000000f0: ee1b 5cbe 0ac8 823d 7356 993d 22bb 013e
00000100: 59a2 bebd d2b5 8cbc 6d68 0cbd f26e 553d
00000110: bed0 a3bc e665 503c fbb2 4ebe f269 883d
00000120: 55c6 6dbd e3ed c0bd b2b5 14bc 6fa0 6cbe
00000130: 9e30 5ebd fa1b d5bd b1b2 aebd ff80 96be
00000140: c45f b5be f790 09be d558 2d3c 7bb7 9e3e
00000150: 029f 093e 2898 fbbc bd18 bebd caeb 213e
00000160: a303 ce3d ea50 4ebe 77cc 323d e508 2fbe
00000170: df62 59be 7d1e 0d3d 28b1 603d 693a 5e3e
00000180: 47fb 6abd 2399 143e 2d5f 5abe 7ea0 103e
00000190: c89d 2abe b075 c33d 9178 36be 3d9e d1bd
000001a0: cbe1 47be beb8 37bd 7967 9abe e0e3 bd3d
000001b0: ad87 d5bd 7992 c2be 04a5 883d 8301 27be
000001c0: 7abe 843c dd42 28be 7a16 143e a23e 6fbe
000001d0: 992c 9bbe bdc9 8b3d 3f1c 1ebe 2e77 67bd
000001e0: 5758 29bc 0a88 6d3d c078 c5bc faeb cc3d
000001f0: 5fbb debc e4c9 e0bc 4c9c 37be 8519 67be
00000200: 5e41 613e ea17 d83b 52b5 883c 58d1 e0bc
00000210: 1397 283e b950 dfbc 76e8 27be 77d4 adbd
00000220: 72c8 83bd f843 c9bd 12f4 a7bd b86a 17be
00000230: 0812 6bbe a3b6 263e c8d3 9fbd b8f5 683e
00000240: 84a4 be3e 779c c63d 4771 44be 8b45 9fbd
00000250: affe 293e 0d79 28bc 05e0 1c3e 6095 4f3e
00000260: 04e1 713e f6e3 663d 0229 8a3e 61a7 8ebd
00000270: 42a0 4e3d cc0a b8bd a657 b53d b06e acbc
00000280: 344e 05be 0b05 4d3e 1e05 af3b 8c6e 173e
00000290: 0479 f73d 8b3d 0a3e a2b5 9fbc 753b 88be
000002a0: 2de0 24be 660d 87bc acdc a93d 914a 94bd
000002b0: 6796 c43a 7377 c43d 3c8e 68bc 1ff9 a63d
000002c0: 1244 273e 3e38 0dbe 7bc7 31be 8430 453d
000002d0: 72b3 b8bd d2e6 d93d 8c58 403e f528 ccbb
000002e0: bd29 a53e 447a f53d ef6e 823e c17a d6bd
000002f0: 1fad d43d e1a8 a6bd f936 42be d0dd 4bbd
00000300: 8c37 aebc 36c5 62be de80 513d 2503 82be
00000310: ec42 0abd e2a4 1a3e 6a88 28bd c01e a93c
00000320: dd45 5b3e a8cf 2fbe 4f84 893b ef1c d53d
00000330: 1bbd 80be 4314 123e 7931 e3bd 5dd7 20bc
00000340: 5887 76bd 3efd 943e 38c7 bf3d 13ff 22be
00000350: 86e2 c43e 84f2 e6bd 61da 4fbe f7e6 55be
00000360: aa9b bc3e 1601 9dbd bb76 a43e 94c8 51bd
00000370: 0b08 553d 4d22 983d 3a57 bf3c b1db 823e
00000380: 9f1f ecbd 58d1 3c3e f80c a23d b2c8 1ebe
00000390: 51a2 393e d83b b8bd 0d5f 9a3d ebc4 293e
000003a0: 04a2 cdbd bf65 89be 0c04 933d 897d 14bd
000003b0: 71bc 1bbe a7a8 f3bd 542a 19be 9e84 7c3e
000003c0: 2557 4ebd 5662 023e dcd1 113e ef50 153e
000003d0: 4a78 62be 7648 203e 41ee 9ebd 9b28 cd3d
000003e0: 90b4 4a3d fc7e 5c3e ad92 fbbd d923 77bc
000003f0: b75e 68be 200f 6a3e 15c5 803d f48d 1abd

base.mlp.layers.2.0.bias f4 [64]
0.024221333 0.03284518 0.018162968 0.051874746 0.012408944 -0.21199399 -0.08078058 -0.04572043
-0.15744203 -0.10504786 -0.00041822114 -0.009610939 -0.2138955 -0.25094453 -0.041646488 0.045540668
0.0041973647 -0.1001614 -0.22890903 0.06222996 0.10863859 -0.008707095 -0.061971094 0.0337012
0.034592394 0.16506097 0.04135745 -0.027106002 0.0348462 -0.18593325 -0.119040914 0.03759889
-0.14745538 0.043620225 0.076136954 -0.23262115 0.04084473 0.039030246 0.10407189 0.0141572235
-0.26702756 0.15379068 0.071433134 -0.13239324 0.00020635931 0.12900935 0.008516947 0.11013209
0.03579349 -0.22995403 -0.20726897 -0.022004928 -0.34462476 0.037393298 0.12534091 0.06060528
0.08859209 -0.16290522 0.08036659 0.008589309 0.043651797 0.04510527 0.0070585534 0.027320744
00000000: d16b c63c ab88 063d 81ca 943c 9d7a 543d
00000010: e24e 4b3c f414 59be 4a70 a5bd 5845 3bbd
00000020: 7c38 21be 5523 d7bd b144 dbb9 3377 1dbc
00000030: 6c07 5bbe cd7b 80be 8295 2abd da88 3a3d
00000040: 0c8a 893b 6c21 cdbd 2167 6abe d8e4 7e3d
00000050: e97d de3d 34a8 0ebc 67d5 7dbd 450a 0a3d
00000060: c1b0 0d3d be05 293e 6e66 293d 680d debc
00000070: e4ba 0e3d 4965 3ebe b9cb f3bd 4b01 1a3d
00000080: 8bfe 16be 1fab 323d b1ed 9b3d 3d34 6ebe
00000090: ce4c 273d 2ede 1f3d a523 d53d b3f3 673c
000000a0: d6b7 88be 4e7b 1d3e 894b 923d 1892 07be
000000b0: 2862 5839 071b 043e aa8a 0b3c ef8c e13d
000000c0: 329c 123d 1279 6bbe 513e 54be ae43 b4bc
000000d0: a872 b0be b729 193d 5e59 003e 3e3d 783d
000000e0: c56f b53d a0d0 26be 3d97 a43d 2cba 0c3c
000000f0: 3acc 323d 4ec0 383d 704b e73b c1cf df3c

base.mlp.layers.2.2.weight f4 [64]
2.510459 2.1954212 2.8198295 2.2617466 2.4097848 2.311365 2.413857 2.319871
2.4124792 2.3258624 2.8872402 2.294827 2.3202336 2.2999825 2.444834 2.756989
2.4211864 2.464294 2.367085 2.5418901 2.1174316 2.8732479 2.3086333 2.6263955
2.4065182 2.2127483 2.6226707 2.347686 2.5702655 2.3431673 2.4522889 2.6004398
2.3443584 2.7840536 2.283233 2.3202293 2.515645 2.5407648 2.4132974 2.645171
2.340984 2.1952753 2.537536 2.3462017 2.720318 2.2378647 3.0639338 2.098036
2.655221 2.312945 2.3382685 2.7895124 2.2917182 2.3098338 2.2542114 2.502618
2.4201536 2.3248594 2.2710452 3.0255628 2.7336242 2.2270846 2.4153721 2.4930673
00000000: 5cab 2040 c881 0c40 1678 3440 75c0 1040
00000010: ea39 1a40 67ed 1340 a27c 1a40 c478 1440
00000020: 0f66 1a40 eeda 1440 8bc8 3840 72de 1240
00000030: b57e 1440 ea32 1340 2978 1c40 8272 3040
00000040: b8f4 1a40 feb6 1d40 527e 1740 54ae 2240
00000050: 0084 0740 4be3 3740 a6c0 1340 dd16 2840
00000060: 6504 1a40 ab9d 0d40 d6d9 2740 7d40 1640
00000070: 3b7f 2440 74f6 1540 4df2 1c40 9b6d 2640
00000080: f809 1640 ef2d 3240 7d20 1240 a37e 1440
00000090: 5400 2140 e49b 2240 7773 1a40 7b4a 2940
000000a0: afd2 1540 647f 0c40 fd66 2240 2b28 1640
000000b0: b119 2e40 2d39 0f40 7e17 4440 3946 0640
000000c0: 24ef 2940 4a07 1440 31a6 1540 5f87 3240
000000d0: 83ab 1240 51d4 1340 0045 1040 e52a 2040
000000e0: cce3 1a40 7fca 1440 ce58 1140 d2a2 4140
000000f0: b3f3 2e40 8e88 0e40 7595 1a40 6a8e 1f40
