models/critic_good256_2_whithout_share.pt (torch, 974278 bytes, 15 tensors)

base.feature_norm.weight f4 [420]
1.0547602 0.9896483 1.0317383 0.96840006 1.0063375 1.0183337 1.0111625 0.99393564
1.0139039 0.960971 1.0366702 1.026215 1.0405986 1.0390673 0.9954867 1.0123755
0.97858936 0.9752276 1.0453002 0.96160275 1.1243874 1.0849142 1.0255466 1.058167
1.0865495 0.8704616 0.98921067 0.96810025 0.95600677 0.93606305 0.98826635 0.9564901
0.92353916 1.0147513 0.9686593 1.0405533 1.0643986 1.0508435 1.1267991 1.0569564
0.77343285 0.848316 0.889823 0.923739 0.94055194 0.9309593 0.9171795 0.89620715
0.933037 0.89033484 0.99719715 0.9906943 1.0015211 0.968938 1.0010941 0.87635523
0.872141 0.9254469 0.9735931 0.9067128 0.97018075 0.98004824 0.92160577 0.9935518
0.97347456 0.97104406 0.94136626 0.9345911 0.9147167 0.9227151 0.99177337 0.9782498
0.8759232 0.957249 1.0048641 1.1114516 0.9583616 1.0260574 1.0451249 1.037953
0.9723523 0.9907596 0.9679266 0.94927955 0.9776369 1.1591129 1.161273 1.1197479
1.0005504 0.970631 1.0084139 0.9941138 0.9706654 0.9055093 1.0404074 0.9366047
0.9232667 0.8880265 0.9348973 0.87786984 0.92236245 0.8657603 0.93498284 1.0021353
0.97978956 0.92879856 0.9365703 0.97792 0.93629396 0.90875983 0.9827481 0.97063565
0.9400771 0.9078523 0.8550353 0.9416331 0.8458767 0.9696997 0.8738729 0.9567335
0.8576238 1.0175272 0.94089717 0.89492613 0.9933717 0.9212585 0.9560555 0.96028215
0.9544762 0.824458 0.8054334 0.9769403 0.9097181 0.9265071 0.98308647 0.97390044
0.933112 0.9308235 0.88087565 1.0117466 0.93809676 0.9960129 0.9262076 0.9927319
0.8843906 0.924084 0.90591896 0.9094392 0.9137532 0.94803864 0.91225815 0.94731086
0.9267764 0.97857517 0.9349374 0.99957126 0.96118426 0.99839336 0.8807233 0.985362
0.968365 0.87360734 1.0185046 0.93875194 0.8794871 0.884265 0.93411976 0.9072142
1.1560194 1.1784533 1.3281455 0.9938084 1.0044534 0.98896116 0.9920243 0.9913197
0.9971889 1.0756596 0.98119783 1.0395044 0.9916399 1.0655048 0.9279093 0.978128
0.9589971 1.0308399 0.9507988 1.031983 0.94321233 1.0141329 1.0560406 1.0036253
1.0128238 0.9500702 0.8495868 0.9784841 0.9437442 0.8921009 0.981247 0.9567778
0.9575388 0.8057678 0.97910196 0.9237312 0.97430253 0.9243024 0.8891491 0.9693369
0.8951583 0.8968094 0.89529157 0.9754199 0.9841592 0.9160397 0.9503839 0.97087073
0.8964491 0.9425356 0.94125926 0.9949878 0.96514344 0.92031574 0.97883713 0.9331755
0.9383695 0.89869094 0.9506803 0.9986927 0.95511854 1.0277041 0.9899283 0.93779093
0.93860525 0.98356754 0.9020937 0.9967534 0.9495874 1.0408037 0.95599455 0.99992424
0.9260982 0.9819652 1.0281622 1.0161961 0.9458577 0.9802136 1.0459304 1.0181172
0.99216974 0.97600514 0.98885024 1.2133611 1.231731 1.1906903 0.99956775 0.97317266
00000000: 6202 873f 9759 7d3f 0010 843f 11e9 773f
00000010: abcf 803f c258 823f c66d 813f 9172 7e3f
00000020: 9ac7 813f 3202 763f 9cb1 843f 035b 833f
00000030: 5632 853f 2800 853f 37d8 7e3f 8595 813f
00000040: d584 7a3f 84a8 793f 66cc 853f 992b 763f
00000050: edeb 8f3f 78de 8a3f 1c45 833f 0472 873f
00000060: 0e14 8b3f 92d6 5e3f e93c 7d3f 6bd5 773f
00000070: dcbc 743f d4a1 6f3f 06ff 7c3f 89dc 743f
00000080: 106d 6c3f 5fe3 813f 0efa 773f da30 853f
00000090: 373e 883f 0a82 863f f43a 903f 594a 873f
000000a0: b2ff 453f 3d2b 593f 71cb 633f 297a 6c3f
000000b0: 03c8 703f 5953 6e3f 47cc 6a3f d56d 653f
000000c0: 83db 6e3f fcec 633f 5048 7f3f 249e 7d3f
000000d0: d831 803f 520c 783f da23 803f d158 603f
000000e0: a244 5f3f 17ea 6c3f 663d 793f 541e 683f
000000f0: c45d 783f 71e4 7a3f 5bee 6b3f 6959 7e3f
00000100: a135 793f 5896 783f 61fd 703f 5d41 6f3f
00000110: e02a 6a3f 0f37 6c3f dce4 7d3f 946e 7a3f
00000120: 813c 603f 450e 753f 639f 803f 0c44 8e3f
00000130: 3057 753f d955 833f a7c6 853f a5db 843f
00000140: 15ec 783f 6ca2 7d3f 0aca 773f fc03 733f
00000150: 6946 7a3f d05d 943f 98a4 943f e653 8f3f
00000160: 0912 803f 467b 783f b513 813f 3e7e 7e3f
00000170: 877d 783f 75cf 673f 122c 853f 53c5 6f3f
00000180: 355b 6c3f b455 633f 6e55 6f3f 14bc 603f
00000190: f21f 6c3f 78a2 5d3f 095b 6f3f f845 803f
000001a0: 7dd3 7a3f bec5 6d3f 12c3 6f3f f758 7a3f
000001b0: f6b0 6f3f 7ca4 683f 6195 7b3f 947b 783f
000001c0: e5a8 703f 0269 683f 98e3 5a3f de0e 713f
000001d0: 608b 583f 3d3e 783f 22b6 5f3f 7dec 743f
000001e0: 3c8d 5b3f 553e 823f a3de 703f e119 653f
000001f0: 9c4d 7e3f 99d7 6b3f 0ec0 743f 0dd5 753f
00000200: 8d58 743f ae0f 533f e230 4e3f c218 7a3f
00000210: 49e3 683f 922f 6d3f 8eab 7b3f 8a51 793f
00000220: 6ee0 6e3f 734a 6e3f 1181 613f ea80 813f
00000230: 1c27 703f b4fa 7e3f f11b 6d3f ae23 7e3f
00000240: 6c67 623f c590 6c3f 4eea 673f 02d1 683f
00000250: bbeb 693f a9b2 723f c089 693f f782 723f
00000260: 3841 6d3f e783 7a3f 0f58 6f3f e7e3 7f3f
00000270: 2c10 763f b596 7f3f 1577 613f af40 7c3f
00000280: c5e6 773f bba4 5f3f 5c5e 823f 0c52 703f
00000290: 1126 613f 315f 623f 7922 6f3f 313f 683f
000002a0: 72f8 933f 8fd7 963f ac00 aa3f 3a6a 7e3f
000002b0: ee91 803f 8f2c 7d3f 4ef5 7d3f 21c7 7d3f
000002c0: c647 7f3f 37af 893f c82f 7b3f 7b0e 853f
000002d0: 1ddc 7d3f 7662 883f 778b 6d3f 9966 7a3f
000002e0: d580 753f 90f2 833f 8d67 733f 0518 843f
000002f0: 5d76 713f 1bcf 813f 572c 873f cb76 803f
00000300: 36a4 813f cd37 733f 857e 593f ef7d 7a3f
00000310: 3899 713f b960 643f 0133 7b3f 64ef 743f
00000320: 4321 753f cc46 4e3f 6da6 7a3f a679 6c3f
00000330: e46b 793f 159f 6c3f 479f 633f 7726 783f
00000340: 1829 653f 4d95 653f d431 653f 1eb5 793f
00000350: dbf1 7b3f 9481 6a3f 5c4c 733f fc8a 783f
00000360: b07d 653f 034a 713f 5ef6 703f 85b7 7e3f
00000370: a413 773f d099 6b3f 1295 7a3f 97e4 6e3f
00000380: fc38 703f 9c10 663f c95f 733f 53aa 7f3f
00000390: a682 743f cf8b 833f f16b 7d3f 1113 703f
000003a0: 6f48 703f 15cb 7b3f 9def 663f 3b2b 7f3f
000003b0: 2918 733f 0e39 853f 0fbc 743f 09fb 7f3f
000003c0: c614 6d3f 1262 7b3f d29a 833f b712 823f
000003d0: bb23 723f 47ef 7a3f 0ce1 853f aa51 823f
000003e0: d6fe 7d3f 79db 793f 4a25 7d3f 6b4f 9b3f
000003f0: 5da9 9d3f 8a68 983f ace3 7f3f d821 793f

base.feature_norm.bias f4 [420]
0.005091072 -0.013162215 0.029637877 -0.011884005 -0.018951671 0.0031992544 0.00558806 0.02328845
-0.006484267 0.04581724 -0.002868691 0.015826339 0.00641027 0.0017046207 -0.043167662 -0.019835874
-0.016618121 -0.021894215 -0.012488506 -0.019955002 0.00042011222 -0.01186615 -0.011297948 -0.00015146959
-0.0034381012 -0.049967542 -0.061694875 1.0966527e-05 -0.009978584 -0.029240679 -0.013514996 -0.036056068
-0.058522306 -0.011974004 -0.025068764 -0.039208338 0.020522757 0.005176295 0.00011409019 -0.00060686877
-0.022162983 -0.05115667 -0.031113382 0.020806273 0.0064999084 -0.019806124 -0.059788805 -0.08382051
-0.020116674 -0.038143557 -0.016258664 -0.007521902 -0.045080017 -0.016223265 -0.057091657 -0.010301882
-0.024380997 0.008919011 -0.012831907 -0.0054759975 -0.023906626 -0.040077344 -0.03645506 -0.022378296
-0.005598832 -0.029053016 -0.028600665 -0.020972075 -0.015633246 -0.04509485 0.0032545342 -0.019915897
-0.006293642 0.015814377 0.00476673 0.041326743 -0.0020600038 -0.040092494 -0.0030361726 0.0044676857
-0.015632417 -0.030969113 -0.043197915 -0.04278503 -0.029635413 0.023760108 0.021873672 -0.022475205
0.0076762196 0.03318822 0.0014755406 0.01643365 0.040291376 0.0056907334 0.012578274 -0.08873473
-0.0061342116 0.030583238 -0.0069496157 -0.045797717 -0.026249686 -0.040733557 -0.021570168 -0.032773267
0.011914932 -0.017344167 -0.029005066 -0.044676717 0.03430627 0.014011646 0.02957377 -0.0005892107
0.020991672 -0.0014006667 -0.039475527 -0.0050227055 -0.035969555 0.011281726 -0.011223231 0.0027250983
-0.0020308655 0.004751757 0.011824749 0.0113509325 0.01384097 0.02003253 -0.0004949876 -0.014058478
0.0005606998 -0.029713906 -0.02139934 -0.0018581063 -0.003595634 0.014020247 0.029589081 -0.020846913
0.0004378589 0.024354557 0.0045959326 -0.0036661297 0.04253961 0.0049836924 0.04089728 0.0046018264
-0.021132402 -0.015508363 0.01073227 0.027223116 0.008277818 0.012977995 0.008742368 0.00069419283
0.01172937 0.016709786 0.05946473 0.039903108 0.016885635 0.014594411 0.002143862 0.03831074
-0.001122654 0.0009163559 0.06071134 0.029476082 0.0042929794 0.018567443 0.002602219 0.010610949
0.025351439 0.018042158 -0.021222612 0.010506668 0.007858831 0.015648492 0.012155116 0.015699655
0.012579441 -0.016078966 0.011115219 0.0063607586 -0.004215184 0.01669405 -0.045630693 -0.021843793
-0.016639343 -0.016732361 -0.0117773805 -0.008032459 -0.010104903 0.01860871 0.0070560314 0.018479673
0.020931996 0.029143842 0.044132665 0.043341093 0.012198769 -0.009861923 0.012528531 0.026603363
0.031605676 0.026309269 0.014332761 0.03157989 -0.0021706924 0.03657508 0.05044869 0.045647305
0.029527878 0.038759455 0.057289485 0.04306421 0.0013885677 -0.008554417 0.0130768325 0.033455033
0.0016047382 0.011646286 0.015278649 0.03498095 0.022377906 0.035874747 0.021837069 0.031978264
0.033692192 0.081904106 0.044875108 0.020790378 0.017167078 0.03207445 0.018426944 0.04150357
0.0011041667 0.022172453 0.032857183 0.0017858992 0.03757017 0.0023794868 0.038828395 0.044535942
0.04670397 0.03994315 0.004541461 0.03102438 0.06285957 0.068344735 0.04488721 0.042098854
0.016081251 0.047748066 0.015103334 -0.0056278156 0.022262953 -0.02407117 0.01322968 0.037847377
00000000: 02d3 a63b 55a6 57bc 22cb f23c 21b5 42bc
00000010: 8940 9bbc 95aa 513b 0b1c b73b 6bc7 be3c
00000020: f979 d4bb dcaa 3b3d a600 3cbb 3da6 813c
00000030: 3e0d d23b 946d df3a 93d0 30bd d87e a2bc
00000040: ba22 88bc 7f5b b3bc 979c 4cbc ac78 a3bc
00000050: 8242 dc39 3e6a 42bc 071b 39bc cfd3 1eb9
00000060: c451 61bb c4aa 4cbd c4b3 7cbd e0fc 3737
00000070: 377d 23bc 268a efbc 006e 5dbc 87af 13bd
00000080: 16b5 6fbd 9d2e 44bc 025d cdbc ec98 20bd
00000090: 571f a83c e99d a93b b443 ef38 4616 1fba
000000a0: 258f b5bc a889 51bd 7ee1 febc eb71 aa3c
000000b0: 2ffd d43b 7440 a2bc 1be5 74bd 16aa abbd
000000c0: b9cb a4bc 6b3c 1cbd e430 85bc 4a7a f6bb
000000d0: d3a5 38bd a7e6 84bc f1d8 69bd 3ac9 28bc
000000e0: a8ba c7bc 0b21 123c eb3c 52bc ff6f b3bb
000000f0: d4d7 c3bc 2428 24bd e751 15bd b052 b7bc
00000100: 6876 b7bb 9700 eebc f14b eabc a1cd abbc
00000110: 4b11 80bc 61b5 38bd 064a 553b aa26 a3bc
00000120: e53a cebb 278d 813c 3b32 9c3b 3b46 293d
00000130: 2101 07bb 0738 24bd 86fa 46bb aa65 923b
00000140: 8e0f 80bc f0b2 fdbc 4cf0 30bd 5b3f 2fbd
00000150: f7c5 f2bc 8fa4 c23c 6a30 b33c ec1d b8bc
00000160: cc88 fb3b 5ff0 073d ed66 c13a dd9f 863c
00000170: 9208 253d 5579 ba3b 1b15 4e3c 8eba b5bd
00000180: 7f01 c9bb b389 fa3c 9ab9 e3bb 6396 3bbd
00000190: 9509 d7bc 3bd8 26bd ecb3 b0bc 433d 06bd
000001a0: d936 433c 5b15 8ebc 089c edbc effe 36bd
000001b0: bb84 0c3d 1a91 653c b144 f23c 4375 1aba
000001c0: baf6 ab3c 9396 b7ba 17b1 21bd 8295 a4bb
000001d0: d054 13bd fdd6 383c a5e1 37bc 9097 323b
000001e0: 4518 05bb a0b4 9b3b 98bc 413c 43f9 393c
000001f0: 3cc5 623c 431b a43c 0ec2 01ba 8855 66bc
00000200: edfb 123a 946a f3bc ab4d afbc b48b f3ba
00000210: baa4 6bbb 2eb5 653c cd64 f23c 25c7 aabc
00000220: 6d90 e539 3583 c73c 7a99 963b 7343 70bb
00000230: 043e 2e3d 3e4e a33b e883 273d ebca 963b
00000240: dc1d adbc ca16 7ebc 67d6 2f3c 0303 df3c
00000250: af9f 073c a8a1 543c 263c 0f3c 7efa 353a
00000260: 8b2c 403c f6e2 883c 4a91 733d 7171 233d
00000270: be53 8a3c 651d 6f3c 0980 0c3b b9eb 1c3d
00000280: 0426 93ba 9a37 703a 74ac 783d d377 f13c
00000290: 1fac 8c3b c01a 983c fe89 2a3b 8cd9 2d3c
000002a0: d2ad cf3c 26cd 933c 0bdb adbc 2924 2c3c
000002b0: 54c2 003c 4431 803c 4026 473c 909c 803c
000002c0: 001a 4e3c 09b8 83bc 9c1c 363c e96d d03b
000002d0: 871f 8abb f6c1 883c 40e7 3abd c1f1 b2bc
000002e0: 3b4f 88bc 4e12 89bc eaf5 40bc 939a 03bc
000002f0: 098f 25bc 4b71 983c 4836 e73b af62 973c
00000300: 9479 ab3c 11bf ee3c 74c4 343d 6e86 313d
00000310: 58dd 473c e793 21bc 7844 4d3c 4cef d93c
00000320: f474 013d 8986 d73c f5d3 6a3c ea59 013d
00000330: 2d42 0ebb c0cf 153d 49a3 4e3d abf8 3a3d
00000340: 73e4 f13c 3cc2 1e3d 61a8 6a3d 1964 303d
00000350: 9a00 b63a d327 0cbc 3640 563c 2508 093d
00000360: 1456 d23a 10d0 3e3c 4c53 7a3c 2f48 0f3d
00000370: df51 b73c 66f1 123d a7e3 b23c a4fb 023d
00000380: d300 0a3d 57bd a73d f6ce 373d 9550 aa3c
00000390: f9a1 8c3c 8060 033d 1af4 963c a6ff 293d
000003a0: b0b9 903a 01a3 b53c 4195 063d d514 ea3a
000003b0: 2ee3 193d 2af1 1b3b 860a 1f3d 526b 363d
000003c0: a94c 3f3d 6e9b 233d 89d0 943b d726 fe3c
000003d0: 85bc 803d 53f8 8b3d a7db 373d d96f 2c3d
000003e0: d4bc 833c 7a93 433d f973 773c 8a69 b8bb
000003f0: cc60 b63c e730 c5bc 4dc1 583c da05 1b3d

base.mlp.fc1.0.weight f4 [256, 420]
0.0055763 -0.12321124 -0.08039445 0.020251332 -0.06576677 -0.0739199 0.04168576 -0.013434803
0.058762368 -0.03978263 -0.028089432 0.0396254 0.020791996 0.005746857 -0.17027058 -0.07685038
-0.08227705 -0.09905828 -0.052374095 -0.009790261 -0.031174053 -0.015974097 -0.010516094 -0.082171135
-0.12785622 -0.044739373 0.011241899 -0.024089325 -0.033388034 -0.09074442 -0.17682761 0.026277935
0.0065422244 -0.16274516 -0.20355046 -0.12237328 0.00769919 -0.21970676 -0.12229728 0.16011864
-0.10956689 -0.041019306 0.16121866 0.002079751 0.16651711 0.16805291 -0.122793525 0.21719235
0.07337682 -0.12937208 -0.0613672 -0.099163696 0.0657494 -0.20855054 0.024406692 0.07177271
-0.023256866 0.0023365505 -0.06329842 0.12512998 0.038982775 -0.33836967 0.009860855 0.03946758
-0.12177634 -0.034429345 -0.15757345 -0.13519634 -0.26902384 0.09640469 0.06405013 0.07845979
-0.031028762 0.10679159 0.045966197 0.034082763 0.011235037 0.031331796 0.25601053 -0.061722804
0.069044404 -0.0010676377 -0.03691451 0.12567167 0.0015771477 0.010457435 -0.21077362 0.0060242815
-0.03847383 0.046029586 0.15419865 0.057685416 0.05117935 -0.10622049 -0.009740893 0.037096605
-0.05921793 -0.01172825 -0.090925224 -0.08036571 -0.022094576 -0.027872995 -0.067753054 -0.012797551
-0.070856005 -0.028877977 -0.115106896 -0.05732288 0.019659042 -0.0835813 -0.06608695 0.037279367
-0.07249246 -0.036555525 -0.07780471 -0.06549784 -0.041209307 -0.059046578 -0.054795437 0.13362435
0.054077283 -0.0249789 -0.0018373131 0.025558619 -0.023849607 -0.027372751 0.035123315 -0.016858421
0.0028437104 0.005516716 0.014932949 -0.03458017 0.0735883 0.10844646 0.031984154 0.044851214
0.10004556 -0.16296779 0.14779341 -0.025034161 -0.017419057 0.09475158 0.04709692 0.01552332
0.120162666 -0.122473575 -0.104660966 0.051546693 -0.0242012 -0.06403894 0.02309353 -0.047414966
0.111863166 -0.044299133 0.10696091 0.015278803 0.016211128 -0.050524723 0.07435151 0.08639963
-0.073386155 0.16486402 0.008277377 -0.012458061 0.24228774 0.03234889 0.16876505 -0.12164014
0.06544414 -0.08951934 0.016225684 0.040738266 0.088782966 0.016301733 0.0035012378 0.06252474
0.07940073 0.012952871 -0.008020342 -0.0776407 0.027526103 0.02274135 -0.12958354 -0.04887035
0.2419159 0.014670356 -0.016195396 0.033041414 0.04677215 -0.082487725 -0.07649494 -0.113858834
-0.010026712 0.19554313 -0.019574713 0.04666727 -0.067859925 0.07892048 0.07746093 -0.100432634
-0.13520986 0.08311051 0.13223161 0.00082396786 -0.1228181 -0.009501084 -0.008009849 0.050813366
-0.049625475 -0.0033580998 0.13583009 -0.00870018 -0.09352959 -0.08174345 0.11551788 0.026010863
0.01501883 0.030111983 0.05187655 -0.015957229 -0.0013249263 -0.005936134 -0.06459899 0.029477606
0.064153396 0.0125080645 0.01830655 -0.01619669 0.0518465 -0.15973766 -0.09727494 0.0026163838
-0.23869388 0.093774304 -0.0031422002 0.009276889 -0.061025694 0.05797594 -0.013172733 0.015785683
-0.039725706 -0.120340966 0.053068727 0.12773862 0.06275871 0.11740734 0.118033744 0.1425328
-0.062462475 0.13515422 0.14841476 0.0055085574 0.00047104544 -0.02409595 -0.118989564 0.028859137
00000000: 65b9 b63b 2d56 fcbd d8a5 a4bd 1fe6 a53c
00000010: bab0 86bd 5163 97bd b0be 2a3d a61d 5cbc
00000020: cfb0 703d 1cf3 22bd cf1b e6bc 3e4e 223d
00000030: fa53 aa3c 2150 bc3b 695b 2ebe bb63 9dbd
00000040: df80 a8bd 11df cabd 3886 56bd 5567 20bc
00000050: ba60 ffbc 1cdc 82bc b24b 2cbc 5749 a8bd
00000060: beec 02be a240 37bd f12f 383c fa56 c5bc
00000070: e4c1 08bd 36d8 b9bd 4c12 35be d344 d73c
00000080: 2860 d63b aba6 26be 886f 50be d89e fabd
00000090: 7d49 fc3b cffa 60be ff76 fabd 24f6 233e
000000a0: 9b64 e0bd dc03 28bd 8116 253e 6f4c 083b
000000b0: 7683 2a3e 1016 2c3e 2c7b fbbd ac67 5e3e
000000c0: 9646 963d 1d7a 04be 2c5c 7bbd 5616 cbbd
000000d0: 9fa7 863d 468e 55be 8bf0 c73c 92fd 923d
000000e0: 2f85 bebc d020 193b 9aa2 81bd 1322 003e
000000f0: 67ac 1f3d ca3e adbe 6c8f 213c c2a8 213d
00000100: e065 f9bd c905 0dbd ef5a 21be e970 0abe
00000110: 7ebd 89be d26f c53d b72c 833d 87af a03d
00000120: 0830 febc 8db5 da3d 0d47 3c3d 5e9a 0b3d
00000130: 2913 383c c555 003d d013 833e 0dd1 7cbd
00000140: 2767 8d3d faef 8bba ab33 17bd 13b0 003e
00000150: 4cb8 ce3a a955 2b3c 0ad5 57be 5667 c53b
00000160: bc96 1dbd 8589 3c3d 40e6 1d3e 8b47 6c3d
00000170: 70a1 513d 218a d9bd 4498 1fbc 9cf2 173d
00000180: 808e 72bd d927 40bc 0137 babd c796 a4bd
00000190: afff b4bc e855 e4bc 1dc2 8abd d2ac 51bc
000001a0: f41c 91bd 8291 ecbc 2abd ebbd 65cb 6abd
000001b0: 000c a13c ac2c abbd 9858 87bd 40b2 183d
000001c0: ed76 94bd 3fbb 15bd 1358 9fbd bb23 86bd
000001d0: 17cb 28bd d3da 71bd 2e71 60bd d2d4 083e
000001e0: 2480 5d3d 8da0 ccbc ffd1 f0ba 4f60 d13c
000001f0: 4060 c3bc d23c e0bc 77dd 0f3d ac1a 8abc
00000200: 8b5d 3a3b 91c5 b43b 54a9 743c f0a3 0dbd
00000210: 76b5 963d 2d19 de3d d101 033d e8b5 373d
00000220: b0e4 cc3d 07e1 26be 2857 173e 7114 cdbc
00000230: 69b2 8ebc 1e0d c23d b3e8 403d 8655 7e3c
00000240: d817 f63d 6dd3 fabd 7d58 d6bd a022 533d
00000250: 9841 c6bc d926 83bd a52e bd3c 3236 42bd
00000260: 8418 e53d 0273 35bd 520e db3d f253 7a3c
00000270: 33cd 843c 03f3 4ebd 9b45 983d 4af2 b03d
00000280: 7b4b 96bd 1dd2 283e d69d 073c e51c 4cbc
00000290: 471a 783e 4580 043d bfd0 2c3e 771e f9bd
000002a0: 9407 863d ea55 b7bd baeb 843c 2bdd 263d
000002b0: d8d3 b53d 368b 853c 0675 653b f90c 803d
000002c0: da9c a23d 4738 543c c167 03bc 1602 9fbd
000002d0: 6c7e e13c 114c ba3c 8cb1 04be 472c 48bd
000002e0: cdb8 773e ef5b 703c 35ac 84bc 6f56 073d
000002f0: 2794 3f3d 53ef a8bd 61a9 9cbd d22e e9bd
00000300: 1447 24bc 753c 483e 265b a0bc 2e26 3f3d
00000310: 25fa 8abd 10a1 a13d d6a3 9e3d a0af cdbd
00000320: 7474 0abe d835 aa3d b967 073e 8cff 573a
00000330: 0e88 fbbd 6faa 1bbc be3b 03bc ad21 503d
00000340: 1544 4bbd 9113 5cbb 0b17 0b3e 338b 0ebc
00000350: 718c bfbd 1c69 a7bd a394 ec3d bc14 d53c
00000360: 8a11 763c 68ad f63c 817c 543d bcb8 82bc
00000370: 26a9 adba e783 c2bb 7a4c 84bd 057b f13c
00000380: db62 833d a0ee 4c3c 9ef7 953c ecae 84bc
00000390: ff5c 543d 4592 23be 1538 c7bd a377 2b3b
000003a0: 2b6c 74be be0c c03d 5fed 4dbb 18fe 173c
000003b0: 14f6 79bd 2e78 6d3d 72d2 57bc fa50 813c
000003c0: 6cb7 22bd 5375 f6bd 985e 593d eacd 023e
000003d0: a387 803d 4273 f03d adbb f13d 1ef4 113e
000003e0: a7d8 7fbd de65 0a3e 0afa 173e 2181 b43b
000003f0: a6f6 f639 df64 c5bc cdb0 f3bd ff69 ec3c

base.mlp.fc1.0.bias f4 [256]
-0.02477814 -0.012057475 -0.017124495 -0.019252228 0.0067088217 -0.010995237 0.021537913 0.021829607
0.00017047362 -0.03503965 0.00047629848 -0.017629243 -0.02677767 0.0117949145 -0.014838105 0.024317194
-0.02140907 0.004834798 0.011000469 -0.017789507 -0.012646829 0.0075329645 0.0066436557 -0.01597702
-0.003174179 -0.012084029 0.0063148886 -0.02122986 -0.019822473 -0.018066635 -0.02906364 0.01238905
0.0026015886 -0.027648851 -0.018020606 0.014614997 0.00905937 -0.032319352 -0.013779122 -0.011788441
-0.0159464 -0.018491331 -0.0074248384 -0.031208387 -0.032965932 0.016199425 0.004265784 -0.014632361
-0.009382199 -0.019162605 -0.032011844 -0.0043389057 -0.021367013 -0.033437707 0.027558591 -0.029339094
-0.017825922 0.00826897 0.028994508 0.013917246 0.014059707 0.0062340577 0.020178158 -0.010503884
-0.012600256 -0.035702582 0.012780657 0.021007184 -0.008857707 -0.0059774364 -0.018684339 0.0051264185
-0.023565903 0.02012939 0.022833277 0.010977222 -0.015957957 -0.019752963 -0.020463271 -0.005887293
0.009826285 -0.008156491 0.015855802 -0.004405717 0.0012297893 -0.03195468 -0.014020483 -0.0133837275
0.01851835 -0.023064524 0.02002378 -0.014897527 0.0064980225 -0.025508277 -0.025741696 -0.019128611
0.010765683 -0.019789157 -0.025577806 0.011143492 -0.021693934 0.010628444 -0.024062635 -0.03186142
-0.028118815 -0.011610753 -0.039383482 0.001626041 -0.015234958 -0.009393908 -0.032628465 0.01546655
0.004495565 0.006308534 0.030961504 0.0098808855 0.0024276834 0.015939567 -0.00012585537 -0.03462629
0.014062619 0.01248171 0.0048163086 0.020420868 -0.03569057 -0.029892862 0.015944919 0.014354905
-0.016570544 -0.02088897 -0.022939533 0.01594565 0.0059955204 0.011587585 -0.027730973 0.0075842733
-0.037140913 -0.01895222 -0.023115918 -0.04156421 0.0003538285 0.005182093 0.005504552 -0.022241568
0.023867784 0.00029203793 -0.005731126 0.008092605 -0.012013148 -0.005728754 -0.030624479 -0.00869317
-0.003136551 0.017938301 -0.019236427 0.013556357 -0.017515473 -0.012238738 0.014882662 -0.017818108
0.007458067 -0.02123534 0.012366909 0.008688327 -0.011321947 -0.007480321 -0.0040919706 -0.019259477
0.012381938 -0.037199922 -0.020843944 0.019398412 0.0015616646 -0.039597698 -0.033657 0.0012136365
-0.023303056 -0.012372192 0.00069800677 -0.012869843 0.02181411 0.013049477 -0.005838395 0.011446273
-0.025041144 -0.02479098 -0.019697763 -0.011017372 -0.021028971 0.011972308 0.009610646 0.006813666
0.013346666 0.01051391 0.011624248 -0.030772986 0.0072581284 0.007246247 -0.03244773 -0.030678967
-0.01370517 -0.053096674 -0.003342107 0.0068562888 -0.007702522 0.012846529 -0.0027197187 -0.021674974
-0.0021369744 -0.019212615 -0.0065115783 -0.0048726327 -0.013591576 0.014867912 0.010464208 0.0065066987
-0.02712236 -0.0030095803 0.009730196 -0.0055232104 0.014440666 -0.031034235 -0.009686399 -0.015039634
-0.034012157 -0.012925864 -0.031218087 -0.021635685 -0.025333876 0.007698905 -0.011359103 -0.018410724
-0.012252409 -0.01816241 0.014382371 0.008671726 0.014323376 0.00738086 -0.022223737 -0.010659835
-0.030242098 -0.016480962 -0.03971451 0.0017610989 -0.014064691 0.012947387 -0.031280827 0.0058641196
0.021803807 -0.023395956 0.007665764 -0.030464122 -0.011723133 -0.0029482632 -0.01897497 -0.003167749
00000000: 87fb cabc b78c 45bc ab48 8cbc d9b6 9dbc
00000010: add5 db3b 5e25 34bc 4770 b03c 01d4 b23c
00000020: 2ac1 3239 bc85 0fbd b3b7 f939 346b 90bc
00000030: d85c dbbc 753f 413c 861b 73bc da34 c73c
00000040: 1362 afbc 3a6d 9e3b 503b 343c 4dbb 91bc
00000050: a534 4fbc 16d7 f63b 06b3 d93b 3de2 82bc
00000060: e305 50bb 17fc 45bc 20ed ce3b 3eea adbc
00000070: bd62 a2bc 7b00 94bc df16 eebc 71fb 4a3c
00000080: 6a7f 2a3b d87f e2bc f39f 93bc be73 6f3c
00000090: c06d 143c 4c61 04bd d4c1 61bc 4e24 41bc
000000a0: 06a2 82bc 227b 97bc 0f4c f3bb bba8 ffbc
000000b0: 4907 07bd a8b4 843c fdc7 8b3b 92bc 6fbc
000000c0: cbb7 19bc e5fa 9cbc da1e 03bd 612d 8ebb
000000d0: e009 afbc faf5 08bd 8ec2 e13c 8a58 f0bc
000000e0: ab07 92bc 937a 073c e485 ed3c 2905 643c
000000f0: af5a 663c 1147 cc3b aa4c a53c 7c18 2cbc
00000100: 4e71 4ebc df3c 12bd f665 513c 4217 ac3c
00000110: ea1f 11bc 5fde c3bb e60f 99bc 84fb a73b
00000120: 480d c1bc 64e6 a43c da0c bb3c ced9 333c
00000130: 43ba 82bc f7d0 a1bc 97a2 a7bc 31ea c0bb
00000140: 6dfe 203c cea2 05bc 07e4 813c d55d 90bb
00000150: e230 a13a e9e2 02bd 2bb6 65bc 6c47 5bbc
00000160: cbb3 973c d0f1 bcbc e908 a43c c214 74bc
00000170: 5ded d43b bcf6 d0bc 40e0 d2bc 9bb3 9cbc
00000180: 8c62 303c df1c a2bc 8c88 d1bc 3193 363c
00000190: 7ab7 b1bc ed22 2e3c 011f c5bc 1f81 02bd
000001a0: 6e59 e6bc 073b 3ebc 9350 21bd e220 d53a
000001b0: 0c9c 79bc e8e8 19bc 6da5 05bd 6a67 7d3c
000001c0: 884f 933b d2b7 ce3b fba2 fd3c 70e3 213c
000001d0: c519 1f3b b293 823c 0bf8 03b9 4cd4 0dbd
000001e0: e666 663c 1680 4c3c 20d2 9d3b aa49 a73c
000001f0: 4630 12bd e0e1 f4bc eb9e 823c d630 6b3c
00000200: f3be 87bc 581f abbc b0eb bbbc 74a0 823c
00000210: 1276 c43b dbd9 3d3c 112c e3bc 7f85 f83b
00000220: 1221 18bd b041 9bbc 985d bdbc 3c3f 2abd
00000230: 0f82 b939 8cce a93b 875f b43b f333 b6bc
00000240: 5f86 c33c ab1c 9939 2bcc bbbb d896 043c
00000250: cbd2 44bc 46b8 bbbb 30e0 fabc cc6d 0ebc
00000260: 988e 4dbb 58f3 923c b695 9dbc 7b1b 5e3c
00000270: 9c7c 8fbc fd84 48bc 69d6 733c 48f7 91bc
00000280: cd62 f43b bcf5 adbc 939e 4a3c 7c59 0e3c
00000290: b07f 39bc 7b1d f5bb f015 86bb 0dc6 9dbc
000002a0: 9ddd 4a3c f25e 18bd ebc0 aabc 6be9 9e3c
000002b0: c5b0 cc3a 3231 22bd ecdb 09bd e212 9f3a
000002c0: 0de6 bebc bcb4 4abc 71fa 363a 09dc 52bc
000002d0: 81b3 b23c 79cd 553c 0250 bfbb 2689 3b3c
000002e0: 1623 cdbc 7416 cbbc 345d a1bc 3582 34bc
000002f0: f344 acbc 8027 443c f975 1d3c 2c45 df3b
00000300: f9ab 5a3c 8942 2c3c a173 3e3c a117 fcbc
00000310: 98d5 ed3b ed71 ed3b e9e7 04bd 7552 fbbc
00000320: a68b 60bc e67b 59bd 4007 5bbb b8aa e03b
00000330: 7065 fcbb 3f7a 523c 4f3d 32bb b78f b1bc
00000340: 7b0c 0cbb c663 9dbc 145f d5bb 9baa 9fbb
00000350: 34af 5ebc 8b98 733c 1272 2b3c 2536 d53b
00000360: b62f debc 613c 45bb 666b 1f3c 0cfc b4bb
00000370: 8b98 6c3c 823b febc b4b3 1ebc cc68 76bc
00000380: 5550 0bbd 01c7 53bc 13bd ffbc 523d b1bc
00000390: fd88 cfbc 1947 fc3b 881b 3abc 16d2 96bc
000003a0: 54be 48bc 56c9 94bc 09a4 6b3c db13 0e3c
000003b0: 98ac 6a3c 24db f13b 8e0e b6bc 97a6 2ebc
000003c0: 47be f7bc 1503 87bc afab 22bd acd4 e63a
000003d0: 976f 66bc 4721 543c 5320 00bd cd27 c03b
000003e0: e69d b23c e0a8 bfbc 1731 fb3b e58f f9bc
000003f0: 6212 40bc a637 41bb 6571 9bbc 029a 4fbb

base.mlp.fc1.2.weight f4 [256]
1.032399 1.0499562 0.9831906 1.0255185 0.9930493 0.99682003 0.9967132 1.0794563
0.9705216 0.98354465 0.9623846 0.9880872 0.9828491 1.0671657 1.0164001 1.0081123
1.0277718 1.1047173 0.9849116 1.0760125 0.972965 1.0085648 1.0177802 1.0139041
0.9962575 1.0510978 0.98629844 0.93577844 1.039461 1.0253772 1.0305362 0.92260474
0.99753934 1.0009747 1.0270126 0.93706375 1.0174499 0.98443276 1.0135332 1.0151911
0.98497146 0.97907495 0.9920371 1.0189115 1.0331604 0.9874482 0.9680502 1.0490173
1.052156 1.0083561 1.0176859 0.9726745 1.0631838 0.95767665 1.0160793 0.93894523
1.0384331 0.9818056 1.024339 1.0055088 1.0429586 0.97046185 1.0297326 1.0429428
0.9874438 1.003694 0.9953876 0.9844688 1.0128485 1.0510468 0.9855391 1.0095036
1.0173686 1.0321208 1.028921 0.97654545 1.0049925 1.0285923 1.0889266 1.0347236
1.010935 1.0145477 0.97724116 1.0090144 1.0162764 1.0200086 0.95786804 1.0136518
1.006812 0.9867251 0.9725442 1.1073394 0.9937121 1.0449982 0.9869474 0.9965208
0.99048716 1.0257187 0.98780155 0.981874 1.011399 1.0072234 0.9836122 0.9956597
0.9943451 0.9957356 1.0080391 0.9946376 0.97565097 0.98412764 1.0660932 0.95418125
1.0228736 1.0065349 0.9768242 1.0222965 1.0037689 0.9740068 0.9414674 1.0151144
0.989812 1.1492763 1.0173811 1.0820247 1.0100428 0.98065 0.9572732 1.0377504
0.9997917 1.008315 0.9424186 0.98945284 1.0350399 1.017867 0.9937111 0.99572104
0.9662027 1.0006287 1.0328128 1.0148973 0.96946734 1.0395383 1.0018749 1.0259314
0.9647012 0.9655281 1.0538015 1.0892363 0.9948008 1.0232085 1.0032479 1.0026401
1.0352749 1.0662211 1.0190755 1.0460855 1.0341938 1.0280203 0.99050725 1.0178304
1.0096492 1.0338649 0.9870209 0.96365243 0.99656504 0.9932691 1.0102183 0.9692137
1.0579536 0.9770411 0.9945491 0.98828447 0.9734352 1.0149516 1.0064981 0.9983975
0.97360027 1.0011828 1.042368 0.9928492 1.0005687 1.0211923 0.9759288 0.96961415
1.004773 1.0493472 1.040863 0.9701469 1.0102499 0.9273417 1.017915 0.9931741
0.9602246 0.98762375 1.1302725 1.0191488 0.98038125 1.0095155 1.0361134 0.9707483
0.94990826 1.041074 1.0508244 1.0952448 0.99521327 1.01819 1.0106312 1.0131371
1.061106 1.0299441 1.0241225 1.0640364 1.00852 1.0285627 0.97270614 1.0401391
1.022675 1.00767 0.953429 1.0400062 0.9680578 0.9821608 0.9589464 0.985301
0.97598547 1.0002955 1.0262324 1.0488412 1.06877 0.9996707 0.9663063 1.0079074
1.0535501 0.9917825 1.1133378 0.98506117 1.021963 1.0125457 0.98354495 1.0069971
1.0227933 1.0083913 1.0330119 0.9900812 1.0716566 0.99400735 0.99054134 0.98323935
1.0043844 1.053192 0.9648335 1.0025656 1.0017586 1.1098464 0.9727993 1.0120907
00000000: a725 843f f764 863f 61b2 7b3f 3144 833f
00000010: 7b38 7e3f 992f 7f3f 9928 7f3f a02b 8a3f
00000020: 1b74 783f 95c9 7b3f d65e 763f 48f3 7c3f
00000030: 009c 7b3f e398 883f 6619 823f d309 813f
00000040: 078e 833f 6067 8d3f 2b23 7c3f c7ba 893f
00000050: 3c14 793f a718 813f 9f46 823f 9cc7 813f
00000060: bb0a 7f3f 5f8a 863f 0e7e 7c3f 2d8f 6f3f
00000070: 0f0d 853f 8f3f 833f 9ce8 833f d32f 6c3f
00000080: bd5e 7f3f f01f 803f 2675 833f 69e3 6f3f
00000090: cc3b 823f c903 7c3f 75bb 813f c8f1 813f
000000a0: 1727 7c3f a8a4 7a3f 25f6 7d3f b16b 823f
000000b0: 9a3e 843f 68c9 7c3f 23d2 773f 3346 863f
000000c0: 0cad 863f d011 813f 8843 823f 3201 793f
000000d0: 6816 883f 4c2a 753f e30e 823f b75e 703f
000000e0: 60eb 843f 9d57 7b3f 8a1d 833f 83b4 803f
000000f0: ab7f 853f 3070 783f 47ce 833f 267f 853f
00000100: 1ec9 7c3f 0c79 803f b9d1 7e3f 2606 7c3f
00000110: 05a5 813f b488 863f 4a4c 7c3f 6a37 813f
00000120: 2239 823f 891c 843f afb3 833f e2fe 793f
00000130: 98a3 803f eaa8 833f f261 8b3f d371 843f
00000140: 5166 813f b3dc 813f 7a2c 7a3f 6227 813f
00000150: 5815 823f a48f 823f d736 753f 58bf 813f
00000160: 37df 803f 049a 7c3f a8f8 783f 4cbd 8d3f
00000170: eb63 7e3f 80c2 853f 96a8 7c3f fd1b 7f3f
00000180: 9190 7d3f c04a 833f 90e0 7c3f 185c 7b3f
00000190: 8675 813f b2ec 803f 02ce 7b3f 8ee3 7e3f
000001a0: 678d 7e3f 87e8 7e3f 6d07 813f 92a0 7e3f
000001b0: 43c4 793f caef 7b3f be75 883f 3945 743f
000001c0: 86ed 823f 23d6 803f 2711 7a3f 9dda 823f
000001d0: 807b 803f 8258 793f 0204 713f 45ef 813f
000001e0: 5264 7d3f 7c1b 933f 8b39 823f c97f 8a3f
000001f0: 1549 813f e10b 7b3f db0f 753f 01d5 843f
00000200: 59f2 7f3f 7710 813f 5842 713f c84c 7d3f
00000210: 307c 843f 7749 823f da63 7e3f 93e7 7e3f
00000220: 0f59 773f 9a14 803f 3633 843f 28e8 813f
00000230: 032f 783f 970f 853f 703d 803f b851 833f
00000240: a8f6 763f d92c 773f f8e2 863f 186c 8b3f
00000250: 44ab 7e3f 7ff8 823f 6d6a 803f 8356 803f
00000260: e383 843f ef79 883f 1171 823f 21e6 853f
00000270: 7660 843f 2b96 833f e291 7d3f 4448 823f
00000280: 2f3c 813f af55 843f 67ad 7c3f edb1 763f
00000290: e31e 7f3f e246 7e3f d54e 813f 641e 783f
000002a0: 066b 873f 5e1f 7a3f c59a 7e3f 3600 7d3f
000002b0: 0d33 793f efe9 813f eed4 803f fb96 7f3f
000002c0: de3d 793f c226 803f 516c 853f 5d2b 7e3f
000002d0: a312 803f 6eb6 823f 78d6 793f a238 783f
000002e0: 679c 803f 0251 863f 003b 853f 8c5b 783f
000002f0: de4f 813f 4466 6d3f 0a4b 823f a840 7e3f
00000300: 48d1 753f e9d4 7c3f c5ac 903f 7873 823f
00000310: 44fa 7a3f ce37 813f 5d9f 843f f682 783f
00000320: 302d 733f ea41 853f 6a81 863f fb30 8c3f
00000330: 4cc6 7e3f 0d54 823f 5d5c 813f 7aae 813f
00000340: 52d2 873f 35d5 833f 7216 833f 5832 883f
00000350: 2f17 813f f1a7 833f 4503 793f 4723 853f
00000360: 04e7 823f 55fb 803f ec13 743f ec1e 853f
00000370: a3d2 773f e46e 7b3f 837d 753f b03c 7c3f
00000380: 2fda 793f af09 803f 955b 833f 6e40 863f
00000390: 75cd 883f 6bea 7f3f da5f 773f 1c03 813f
000003a0: bbda 863f 75e5 7d3f da81 8e3f f82c 7c3f
000003b0: afcf 823f 199b 813f 9ac9 7b3f 48e5 803f
000003c0: e4ea 823f f712 813f bc39 843f f675 7d3f
000003d0: 0b2c 893f 4477 7e3f 1e94 7d3f 93b5 7b3f
000003e0: ab8f 803f ffce 863f 54ff 763f 1254 803f
000003f0: a039 803f 720f 8e3f 6009 793f 308c 813f

base.mlp.fc1.2.bias f4 [256]
-0.022635728 0.014881188 -0.01803933 -0.012581324 0.028158879 -0.002812956 0.023665665 0.02799146
0.033911977 -0.0018042977 0.011165376 -0.007454501 0.0045558778 0.015007909 -0.016153984 0.032842536
0.007427406 0.008162611 0.011837566 -0.019459015 0.012405356 0.032542266 -0.0048498125 -0.008018461
0.01196199 -0.013300667 0.021940144 0.018598132 0.0065740617 -0.003088877 -0.024718089 0.016291957
0.0147127025 -0.001269509 -0.0034096928 0.027194174 0.021410124 0.03550937 -0.012845311 -0.0078033563
-0.0034165038 0.021324161 0.015544065 -0.016951844 -0.010277606 0.013141727 0.011351391 -0.010746168
-0.010510476 -0.00580036 -0.014131164 0.023641093 -0.024293888 0.026873438 0.018846447 0.019029383
0.003951239 0.013310696 0.023899155 0.021574417 0.007279258 0.016745146 0.017212225 -0.009869176
0.0070653656 -0.005860652 0.015015672 0.017060494 -0.013134114 -0.0018412386 0.0025536905 0.0054584313
-0.005307726 0.0031851886 0.010912802 0.018209707 0.0036563615 -0.017890953 -0.009265584 -0.011128106
-0.009423886 -0.0016070291 0.013014792 0.008544632 0.014003404 -0.022682352 0.01795668 -0.00044919335
0.016347853 -0.013752796 0.023638435 -0.034465104 0.01983563 -0.010206428 -0.00018337491 -0.0027492635
0.009795026 0.0015948461 -0.017314719 0.027771847 -0.017361064 0.02767559 0.03143623 0.0071063535
-0.015871389 0.00056309236 -0.0070943898 0.005556279 0.009045108 0.02398755 -0.014001615 0.027083352
0.009595981 0.009867003 0.03068692 -0.0038553718 0.020319777 0.01828266 0.03235155 -0.009618752
0.021675913 -0.024645492 0.015251053 0.01786093 -0.013527019 -0.007783497 0.029799517 0.025693037
0.013253519 0.00049437315 0.009343903 0.012030103 0.01787353 0.021225117 0.0017104081 0.022474531
0.013620372 -0.009887442 -0.012065904 -0.012228123 0.0017782048 0.027985575 0.03490776 -0.020980217
0.022214992 0.012478413 0.002300736 0.008639816 0.015378639 -0.0047584134 -0.006246291 0.009848909
0.008192419 0.02510213 -0.0213103 0.023741147 -0.020007918 -0.0074199806 0.02394664 -0.016657481
0.018553363 0.020455992 0.02827701 0.015947055 0.005260285 -0.0015504445 0.018223625 -0.00915177
0.016993716 0.016997745 -0.0022665334 0.018318089 0.026786117 -0.01504947 -0.011735465 -0.003601103
0.023594376 -0.007974187 0.0072278054 -0.0010211503 0.035574634 0.021555217 0.009491207 0.010653533
-0.0025395497 -0.021388965 -0.019794248 0.022794366 0.0020834452 0.0212821 0.015332024 0.014868932
0.018266082 0.025499916 -0.010498123 -0.012506225 0.019349966 0.010867515 -0.020287193 0.01202611
0.039856024 -0.012329853 -0.003659472 -0.01182022 0.017216515 0.02059091 0.0051485146 -0.005528896
-0.016040511 -0.018797258 -0.014688921 0.021065366 -0.008859473 0.011765761 0.059866108 -0.00029270392
-0.0049986998 -0.0024025778 0.019517645 0.007717893 0.019150823 -0.014721779 0.014842893 0.0086010825
-0.010840221 0.0104148695 -0.012275666 -0.016077336 -0.010044572 0.013619032 0.031717423 0.008180912
-0.02192601 -0.0069237854 0.042192385 0.0077814898 0.015384715 0.023650102 0.0017697242 -0.023350975
-0.021497281 -0.012502787 -0.02805895 0.009455985 -0.016413108 0.015026295 0.006172049 0.026693497
0.022107212 -0.0067939833 0.0097092725 -0.0037800174 0.007963215 -0.0017494385 -0.003967139 0.037791654
00000000: 906e b9bc 3ad0 733c 38c7 93bc e621 4ebc
00000010: 73ad e63c 9259 38bb 7fde c13c 594e e53c
00000020: 49e7 0a3d 2f7e ecba fbee 363c e344 f4bb
00000030: 7949 953b bce3 753c 5c55 84bc e585 063d
00000040: 9961 f33b 79bc 053c 5af2 413c 8368 9fbc
00000050: d63f 4b3c 0a4b 053d 2deb 9ebb dd5f 03bc
00000060: 39fc 433c 0aeb 59bc d1bb b33c 1c5b 983c
00000070: 3a6b d73b c26e 4abb 977d cabc b676 853c
00000080: 8c0d 713c a765 a6ba 2775 5fbb 51c6 de3c
00000090: 4964 af3c 4672 113d 2475 52bc 4cb3 ffbb
000000a0: 6ce7 5fbb 02b0 ae3c 89ac 7e3c 98de 8abc
000000b0: 6763 28bc 6650 573c 2ffb 393c b210 30bc
000000c0: 2234 2cbc f210 bebb 6686 67bc f7aa c13c
000000d0: fa03 c7bc af25 dc3c dd63 9a3c 82e3 9b3c
000000e0: 6579 813b 1b15 5a3c 29c8 c33c d5bc b03c
000000f0: d886 ee3b 1e2d 893c a700 8d3c 53b2 21bc
00000100: 9584 e73b b60a c0bb 4b04 763c 73c2 8b3c
00000110: 7830 57bc b755 f1ba d15b 273b a4dc b23b
00000120: 6fec adbb 99be 503b 9ccb 323c 862c 953c
00000130: 919f 6f3b 0c90 92bc adce 17bc a952 36bc
00000140: a566 1abc f3a2 d2ba ff3b 553c c9fe 0b3c
00000150: 896e 653c 57d0 b9bc e319 933c b681 ebb9
00000160: efeb 853c 6853 61bc 64a5 c13c 482b 0dbd
00000170: 557e a23c dd38 27bc 5448 40b9 fd2c 34bb
00000180: 517b 203c 280a d13a 99d7 8dbc c981 e33c
00000190: ca38 8ebc ebb7 e23c 47c3 003d 6adc e83b
000001a0: b704 82bc 7d9c 133a 0e78 e8bb 7211 b63b
000001b0: ef31 143c 8a81 c43c 0867 65bc e8dd dd3c
000001c0: 7638 1d3c 36a9 213c 2363 fb3c 68aa 7cbb
000001d0: a975 a63c 84c5 953c 0f83 043d f897 1dbc
000001e0: af91 b13c 58e5 c9bc 8ddf 793c 1651 923c
000001f0: 6ea0 5dbc b50c ffbb 1e1e f43c 347a d23c
00000200: 4a25 593c d298 013a 2b17 193c e919 453c
00000210: 826b 923c 4ce0 ad3c c62f e03a 821c b83c
00000220: fb27 5f3c f0fe 21bc 12b0 45bc 7758 48bc
00000230: a712 e93a 0142 e53c 70fb 0e3d b4de abbc
00000240: 37fc b53c 4272 4c3c f2c7 163b 048e 0d3c
00000250: b0f6 7b3c 77ec 9bbb b0ad ccbb 525d 213c
00000260: 7f39 063c fba2 cd3c f092 aebc cb7c c23c
00000270: a5e7 a3bc 4f23 f3bb be2b c43c 4575 88bc
00000280: 39fd 973c 5393 a73c 30a5 e73c 66a3 823c
00000290: 785e ac3b 4938 cbba b649 953c 4ef1 15bc
000002a0: 6836 8b3c db3e 8b3c 1f8a 14bb d10f 963c
000002b0: 8f6e db3c 0d92 76bc 1c46 40bc 7c00 6cbb
000002c0: fe48 c13c 2aa6 02bc 3ad7 ec3b 1ed8 85ba
000002d0: b5b6 113d 9194 b03c 0281 1b3c 288c 2e3c
000002e0: 936e 26bb e937 afbc 8c27 a2bc 40bb ba3c
000002f0: 698a 083b cc57 ae3c 2b33 7b3c d29c 733c
00000300: c0a2 953c 33e5 d03c 5200 2cbc e9e6 4cbc
00000310: d283 9e3c a90d 323c 5431 a6bc 2909 453c
00000320: 1240 233d 2703 4abc c1d3 6fbb 99a9 41bc
00000330: a609 8d3c 45ae a83c dfb4 a83b be2b b5bb
00000340: 6467 83bc b5fc 99bc cda9 70bc 4691 ac3c
00000350: 5327 11bc 2ec5 403c 2a36 753d 0e76 99b9
00000360: 22cc a3bb 9174 1dbb 78e3 9f3c 61e6 fc3b
00000370: 30e2 9c3c 9e33 71bc 9b2f 733c 8eeb 0c3c
00000380: 2f9b 31bc 21a3 2a3c e01f 49bc 9eb4 83bc
00000390: fd91 24bc 5c22 5f3c 21ea 013d 3b09 063c
000003a0: 2d9e b3bc ece0 e2bb ecd1 2c3d defb fe3b
000003b0: 2c10 7c3c dcbd c13c 17f6 e73a 8b4a bfbc
000003c0: 111b b0bc 7dd8 4cbc e2db e5bc 47ed 1a3c
000003d0: c874 86bc d930 763c e63e ca3b 52ac da3c
000003e0: 2f1a b53c 10a0 debb a413 1f3c 2bba 77bb
000003f0: 2578 023c 6a4d e5ba c6fe 81bb 6ccb 1a3d

base.mlp.fc2.0.0.weight f4 [256, 256]
0.22446394 0.038641427 -0.12700772 -0.09268312 0.036028404 -0.005473591 -0.11047148 0.06744102
0.009431369 -0.10472618 -0.08933535 0.20221898 0.11704675 0.08819488 0.10172208 -0.15830278
0.07165691 -0.020814883 0.09469696 0.0040642093 0.10812299 -0.13246225 -0.16713049 0.2653382
0.0513463 -0.0031134852 0.051331807 0.008587554 -0.08991429 0.18540539 0.028182691 0.11376454
-0.023886506 -0.048540343 0.10974676 -0.10668237 -0.12212226 0.010751431 0.05597828 0.023125984
0.025633803 0.048213266 0.0028396472 0.12926206 0.077451564 0.06249821 0.0634309 -0.04643083
0.05846594 0.017539388 0.16741651 -0.07465175 -0.10883537 -0.043623462 0.04707642 -0.040369786
-0.027668582 -0.11792336 -0.14317435 -0.012691792 -0.056149174 -0.002044637 0.03734208 0.040326223
-0.09693579 0.027248887 0.07177876 -0.16190274 0.0025279762 -0.09894212 0.036515314 0.008605485
0.047431115 0.023328116 -0.018285569 0.11063063 -0.022714298 0.06418935 0.12598453 -0.11382431
-0.047528245 0.049042214 0.06257911 0.03587135 -0.20157653 -0.14836435 -0.074165456 -0.008645569
0.12691207 0.038186736 0.1320681 -0.10255696 0.099855535 0.056714293 -0.02287751 0.11644616
-0.1661692 0.09300254 0.072978765 -0.025724735 0.1255894 0.08553545 -0.06343776 -0.09340242
-0.023919472 -0.12392155 0.116109274 -0.055903424 -0.059342384 0.16108866 -0.08028446 -0.15381926
-0.17658395 0.123606354 -0.09350839 -0.038575605 -0.07209112 0.10894963 0.06589743 -0.09936275
0.10492091 0.018348563 -0.07359053 -0.043228775 0.061614674 -0.22199799 0.013002915 -0.014972049
0.10444311 -0.020363443 -0.18132223 -0.028132793 -0.13949783 0.07484456 0.06062746 -0.0077345525
-0.09862399 0.026601236 -0.0076249805 0.06319331 -0.10811256 0.15707025 0.07574423 0.13794297
-0.043923832 0.005192358 -0.04251944 0.011575196 -0.13716836 -0.013911233 -0.0861137 -0.038888328
-0.13063198 -0.13012978 0.09575623 -0.14732307 0.1665341 -0.0077345953 0.06972219 -0.017086498
0.051380217 -0.073707014 0.098535605 0.0069379625 -0.034985133 -0.0719622 0.042933255 -0.1277743
0.10107524 -0.048016056 0.053469006 0.10291864 0.011260929 0.15046819 0.13574693 -0.04777777
0.046835955 -0.08149846 -0.016661357 0.106497094 -0.041655593 0.03370876 0.099772796 0.037799865
-0.019283056 -0.11265825 -0.0034104928 -0.061675962 0.0002107695 -0.018401237 0.06333164 0.092922635
-0.009155712 0.22130036 0.041853093 -0.051861186 -0.05661705 0.001105815 -0.07162656 -0.113040954
0.014642366 0.010301582 -0.0090968795 -0.051167715 -0.12493604 0.046908848 0.09977435 0.11141908
-0.156952 0.08777049 0.033759315 0.070439704 -0.016530266 0.0110742245 -0.0117492005 -0.137723
0.058115553 0.1485379 -0.07552336 -0.14413321 -0.034407374 -0.029620234 -0.19163024 -0.011921892
-0.006587422 -0.005733584 0.11600389 -0.05414456 0.0667809 -0.057867564 0.057104167 0.0039593684
-0.015252832 0.054765046 -0.09323356 0.051203147 0.034354873 0.028632315 0.099745505 -0.10041374
-0.005305668 0.11698108 0.17071556 0.038597874 -0.031355552 -0.016690139 -0.249319 -0.13863054
-0.026391782 0.032600593 0.021213062 -0.042219337 0.24919455 -0.08037995 -0.0151911145 -0.019942664
00000000: e0d9 653e 7946 1e3d 500e 02be a6d0 bdbd
00000010: 8592 133d cf5b b3bb df3e e2bd 841e 8a3d
00000020: 0786 1a3c ae7a d6bd 74f5 b6bd 7e12 4f3e
00000030: 35b6 ef3d 849f b43d aa53 d03d 201a 22be
00000040: dcc0 923d f983 aabc 7bf0 c13d 0f2d 853b
00000050: 966f dd3d 2fa4 07be 4124 2bbe 69da 873e
00000060: 7f50 523d 9d0b 4cbb 4d41 523d d0b2 0c3c
00000070: fc24 b8bd e9da 3d3e 63df e63c 62fd e83d
00000080: a2ad c3bc 3dd2 46bd e9c2 e03d 497c dabd
00000090: 3c1b fabd c526 303c 7b49 653d b472 bd3c
000000a0: fbfd d13c 467b 453d 6019 3a3b 465d 043e
000000b0: ed9e 9e3d 20fe 7f3d 0fe8 813d 412e 3ebd
000000c0: fb79 6f3d c3ae 8f3c 3c6f 2b3e 04e3 98bd
000000d0: 14e5 debd 84ae 32bd 34d3 403d ca5a 25bd
000000e0: 39a9 e2bc cd81 f1bd 4c9c 12be 3cf1 4fbc
000000f0: adfc 65bd 51ff 05bb 02f4 183d 1c2d 253d
00000100: 4586 c6bd 0f39 df3c be00 933d d5c9 25be
00000110: 67ac 253b 2ba2 cabd 1591 153d 05fe 0c3c
00000120: 2147 423d 9b1a bf3c 9ecb 95bc 5092 e23d
00000130: 5613 babc b575 833d 1702 013e b81c e9bd
00000140: faac 42bd 7de0 483d 7a29 803d d6ed 123d
00000150: 146a 4ebe d3ec 17be 0fe4 97bd 25a6 0dbc
00000160: 3df5 013e b269 1c3d dc3c 073e 6209 d2bd
00000170: 0f81 cc3d 3f4d 683d 9e69 bbbc 537b ee3d
00000180: 4228 2abe 1e78 be3d e475 953d aebc d2bc
00000190: 829a 003e 362d af3d a8eb 81bd c549 bfbd
000001a0: c5f2 c3bc 95ca fdbd b3ca ed3d fdfa 64bd
000001b0: 0011 73bd 6df4 243e 2e6c a4bd cc82 1dbe
000001c0: 6cd2 34be 5425 fd3d 5481 bfbd 7401 1ebd
000001d0: 82a4 93bd fc20 df3d 3bf5 863d b37e cbbd
000001e0: c6e0 d63d ba4f 963c a2b6 96bd a810 31bd
000001f0: ab5f 7c3d 7153 63be 2e0a 553c 534d 75bc
00000200: 45e6 d53d 3cd1 a6bc 89ac 39be be76 e6bc
00000210: 85d8 0ebe 1b48 993d 8054 783d 2172 fdbb
00000220: 60fb c9bd d6ea d93c f9da f9bb 7e6b 813d
00000230: 1e6a ddbd 06d7 203e ca1f 9b3d ec40 0d3e
00000240: 7ae9 33bd a824 aa3b dd28 2ebd e4a5 3d3c
00000250: dd75 0cbe f1eb 63bc 615c b0bd 5e49 1fbd
00000260: 64c4 05be be40 05be d81b c43d dcdb 16be
00000270: ea87 2a3e 7d72 fdbb 82ca 8e3d fcf8 8bbc
00000280: 1074 523d b4f3 96bd 09cd c93d d957 e33b
00000290: 924c 0fbd eb60 93bd c8da 2f3d 44d7 02be
000002a0: 8900 cf3d 7cac 44bd 5102 5b3d 02c7 d23d
000002b0: c27f 383c 5514 1a3e 3e01 0b3e 9fb2 43bd
000002c0: 0fd7 3f3d aae8 a6bd 667d 88bc 261b da3d
000002d0: 0e9f 2abd 3212 0a3d ae55 cc3d 08d4 1a3d
000002e0: 80f7 9dbc 5eb9 e6bd 9382 5fbb ef9f 7cbd
000002f0: 0202 5d39 31be 96bc 05b4 813d 394e be3d
00000300: d701 16bc 909c 623e 266e 2b3d 656c 54bd
00000310: 48e7 67bd fff0 903a f2b0 92bd 0482 e7bd
00000320: 89e6 6f3c f7c7 283c 140b 15bc 3d95 51bd
00000330: 77de ffbd 7e23 403d 7f56 cc3d b02f e43d
00000340: 06b8 20be 04c1 b33d 3547 0a3d b142 903d
00000350: 7b6a 87bc aa70 353c b87f 40bc 4207 0dbe
00000360: 930a 6e3d 521a 183e feab 9abd a897 13be
00000370: bfee 0cbd 22a6 f2bc b83a 44be 0a54 43bc
00000380: 4ddb d7bb cae0 bbbb 7393 ed3d b0c6 5dbd
00000390: 6dc4 883d 8a06 6dbd 0fe6 693d 97bd 813b
000003a0: 04e7 79bc 5051 603d 3df1 bebd 64ba 513d
000003b0: b2b7 0c3d 518e ea3c 5f47 cc3d b8a5 cdbd
000003c0: 2bdb adbb c793 ef3d 0fd0 2e3e ce18 1e3d
000003d0: ae6e 00bd c2b9 88bc 7b4d 7fbe 2af5 0dbe
000003e0: 9433 d8bc 3388 053d 04c7 ad3c 2fee 2cbd
000003f0: db2c 7f3e 3e9e a4bd 27e4 78bc cc5e a3bc

base.mlp.fc2.0.0.bias f4 [256]
-0.014454369 -0.014270168 -0.0012528214 -0.02218171 0.021110076 -0.019470174 -0.029743535 -0.0064617274
-0.0393126 0.03411319 -0.012986053 -0.0350374 -0.016572729 -0.016555974 -0.048188854 -0.028455522
0.033573702 0.0055734725 -0.017646182 0.0045701866 0.020704191 -0.005729081 0.0211759 0.021907834
-0.023083078 -0.014633348 0.018149022 -0.0053831497 -0.03564798 -8.3583654e-05 -0.008699999 -0.016176304
-0.016103124 -0.05127315 0.016642721 -0.025929958 -0.021716688 0.027495945 0.019155864 -0.013804771
0.005482104 -0.0049237506 -0.0073716245 0.004111631 0.016502049 0.017689232 0.0055152713 -0.012882534
0.00010623454 -0.030841533 -0.022310255 -0.01636108 -0.0201339 -0.010406331 -0.009412898 0.03373676
0.01530127 -0.026458872 -0.02468585 -0.0069051594 0.03814326 0.0071961908 0.047003623 -0.029996341
-0.008286708 -0.021852182 -0.033549886 -0.025816651 -0.02038809 -0.05183133 -0.018585533 -0.03415251
0.025841927 -0.008643097 -0.016276048 -0.0035893936 0.001785824 0.04602609 0.022666225 -0.03665454
-0.025770348 -0.02770604 -0.0073338826 0.0048122993 -0.047662262 -0.029577358 0.0038721028 -0.051371172
0.017789092 -0.030434236 0.013763776 -0.024743635 -0.015671253 -0.009009682 -0.021699104 -0.011467821
0.016281566 -0.024646353 -0.021194281 -0.02641811 0.0052303597 -0.024140107 -0.027174342 -0.0427809
-0.03001343 -0.03287582 -0.02329106 -0.033000372 0.02720382 -0.016686793 0.0033010456 -0.018216679
-0.009039677 0.021164346 0.002778304 -0.019112814 0.007420536 -0.020859469 -0.008645753 -0.022902139
-0.0146598825 -0.021945978 0.036357142 -0.013308058 -0.034396183 0.015922474 -0.023569377 -0.018539308
-0.03855195 -0.05737748 0.03637212 -0.014919439 0.03610371 -0.02981944 -0.020656578 0.016675737
0.0013361634 -0.024023656 0.007349096 0.036082365 -0.022186358 0.001549492 -0.0019791464 0.024875907
-0.022148786 -0.016783098 0.023853488 0.00797324 -0.026298711 0.0152355805 -0.0125526255 0.01381563
0.037676796 -0.016594587 0.008449509 0.027880942 0.020037252 0.024879886 -0.036017455 0.049345173
0.010458956 -0.040448915 -0.012625436 -0.029381037 -0.023417018 0.037600428 -0.008011307 -0.02238009
0.023655454 0.008778037 -0.02312987 2.174855e-05 -0.021872351 -0.034100667 -0.048181344 -0.029448917
-0.001445972 -0.013433534 -0.0073839193 0.0161381 0.017146243 -0.010717507 0.023240184 -0.03601002
0.044743147 -0.04112855 0.010444251 -0.01699704 0.022702677 0.0046060486 -0.025027232 -0.027210409
-0.02173104 0.032927744 0.011608293 -0.020677576 0.026704568 -0.016990047 0.0077290363 -0.010181128
0.023337923 -0.022841714 -0.022113578 -0.024530591 -0.017285654 -0.03295718 -0.017421488 0.029474754
-0.03886783 -0.008565308 0.01991795 -0.011713721 -0.0019409347 0.036641717 -0.017463448 -0.019921206
0.03254872 -0.015280404 -0.007184812 0.006801939 0.02606101 0.0016597757 -0.01333032 -0.041595038
0.027440814 0.012875338 0.02098854 -0.025048569 -0.014678306 -0.035152435 -0.020824214 -0.036421906
-0.03667142 0.0034300964 0.02157509 -0.02737041 0.02194856 0.0038215532 -0.014455876 -0.002011932
-0.025575174 0.02999835 -0.02545255 -0.028512618 -0.014924115 -0.016001744 -0.03899919 -0.053898487
0.027983783 0.00071928016 0.014198975 -0.011992697 -0.034445006 -0.01757216 -0.037870925 0.021810692
00000000: 05d2 6cbc 6ccd 69bc b635 a4ba 6bb6 b5bc
00000010: 0aef ac3c ea7f 9fbc b7a8 f3bc e6bc d3bb
00000020: 4006 21bd 46ba 0b3d 74c3 54bc 6083 0fbd
00000030: 88c3 87bc 65a0 87bc ad61 45bd 8e1b e9bc
00000040: 9484 093d ada1 b63b ba8e 90bc 81c1 953b
00000050: d69b a93c 04bb bbbb 1579 ad3c 0f78 b33c
00000060: b918 bdbc b6c0 6fbc 42ad 943c 2265 b0bb
00000070: 9e03 12bd a249 afb8 718a 0ebc 2b84 84bc
00000080: b3ea 83bc cb03 52bd 5156 883c 106b d4bc
00000090: 32e7 b1bc 2d3f e13c c2ec 9c3c 682d 62bc
000000a0: 39a3 b33b 6a57 a1bb ab8d f1bb dcba 863b
000000b0: 4e2f 873c 02e9 903c 73b9 b43b 4411 53bc
000000c0: 3cca de38 62a7 fcbc ffc3 b6bc ac07 86bc
000000d0: d9ef a4bc 517f 2abc 8e38 1abc 8f2f 0a3d
000000e0: 2eb2 7a3c 47c0 d8bc fb39 cabc ad44 e2bb
000000f0: 1b3c 1c3d 06ce eb3b df86 403d e3ba f5bc
00000100: f9c4 07bc 5903 b3bc 9b6b 09bd 717d d3bc
00000110: ec04 a7bc 174d 54bd b040 98bc 81e3 0bbd
00000120: 73b2 d33c c79b 0dbc 5955 85bc 083c 6bbb
00000130: 4f12 ea3a da85 3c3d 85ae b93c 1223 16bd
00000140: 561c d3bc c7f7 e2bc 1151 f0bb 7eb0 9d3b
00000150: 8139 43bd 374c f2bc 1bc3 7d3b 946a 52bd
00000160: 6eba 913c 3851 f9bc 7681 613c 2ab3 cabc
00000170: 0061 80bc 589d 13bc 52c2 b1bc 87e3 3bbc
00000180: eb60 853c 26e7 c9bc a19f adbc cb6a d8bc
00000190: 7063 ab3b 79c1 c5bc ba9c debc 063b 2fbd
000001a0: bade f5bc cca8 06bd e5cc bebc 662b 07bd
000001b0: 8cda de3c beb2 88bc 5b56 583b 253b 95bc
000001c0: 271b 14bc da60 ad3c 3514 363b 7a92 9cbc
000001d0: f827 f33b 7ae1 aabc eba6 0dbc 449d bbbc
000001e0: 0130 70bc 0dc8 b3bc 3aeb 143d 0a0a 5abc
000001f0: 03e3 0cbd d96f 823c 9114 c1bc bfdf 97bc
00000200: a6e8 1dbd a604 6bbd effa 143d aa70 74bc
00000210: 7ce1 133d e647 f4bc fc37 a9bc 8e9b 883c
00000220: 3422 af3a 42cd c4bc afd0 f03b 1acb 133d
00000230: 2ac0 b5bc 5318 cb3a 91b4 01bb 8fc8 cb3c
00000240: 5f71 b5bc b57c 89bc 6468 c33c 31a2 023c
00000250: 6570 d7bc a89e 793c 87a9 4dbc f45a 623c
00000260: fc52 1a3d 5ff1 87bc cf6f 0a3c 9366 e43c
00000270: 2a25 a43c e7d0 cb3c 0a87 13bd 2a1e 4a3d
00000280: 0a5c 2b3c c3ad 25bd ebda 4ebc 80b0 f0bc
00000290: 0cd5 bfbc e802 1a3d db41 03bc 7356 b7bc
000002a0: 15c9 c13c c1d1 0f3c da7a bdbc a870 b637
000002b0: a52d b3bc 24ad 0bbd cd59 45bd db3e f1bc
000002c0: c586 bdba 5318 5cbc cef4 f1bb 0c34 843c
000002d0: 4776 8c3c 7c98 2fbc 3362 be3c 3e7f 13bd
000002e0: 9744 373d 6976 28bd 5d1e 2b3c 603d 8bbc
000002f0: f7fa b93c 56ee 963b e905 cdbc 5de8 debc
00000300: 4b05 b2bc 3edf 063d b630 3e3c 0564 a9bc
00000310: 8ac3 da3c b62e 8bbc db43 fd3b bfce 26bc
00000320: 2c2f bf3c 8c1e bbbc 8927 b5bc 61f4 c8bc
00000330: a59a 8dbc 1cfe 06bd 82b7 8ebc 0a75 f13c
00000340: e033 1fbd 8155 0cbc f82a a33c e8ea 3fbc
00000350: f666 feba a015 163d 810f 8fbc cc31 a3bc
00000360: ce51 053d a95a 7abc 926e ebbb cde2 de3b
00000370: e67d d53c d58c d93a 6a67 5abc 8f5f 2abd
00000380: 8fcb e03c 15f3 523c 29f0 ab3c a832 cdbc
00000390: 477d 70bc 00fc 0fbd 8b97 aabc 232f 15bd
000003a0: c534 16bd 78cb 603b 3ebe b03c e937 e0bc
000003b0: 77cd b33c 0673 7a3b 57d8 6cbc 9eda 03bb
000003c0: 0783 d1bc 1abf f53c de81 d0bc 4b93 e9bc
000003d0: 4684 74bc 1716 83bc 9dbd 1fbd a9c4 5cbd
000003e0: 3f3e e53c 138e 3c3a d1a2 683c 047d 44bc
000003f0: 3516 0dbd 7ef3 8fbc 8b1e 1bbd 56ac b23c
