models/critic_evil256_2.pt (torch, 973914 bytes, 15 tensors)

base.feature_norm.weight f4 [420]
0	0x3f82ea86	1.0227821
1	0x3f82e13f	1.022499
2	0x3f82081b	1.0158724
3	0x3f7f1c29	0.99652344
4	0x3f8113e2	1.0084193
5	0x3f8a5652	1.0807593
6	0x3f8d4f20	1.1039772
7	0x3f8b3c59	1.0877792
8	0x3f8ac0f1	1.0840131
9	0x3f9262a2	1.143635
10	0x3f66d6ad	0.9017132
11	0x3f553943	0.832905
12	0x3f619d0f	0.8813028
13	0x3f700f0f	0.9377298
14	0x3f6aa3ac	0.91655993
15	0x3f766e17	0.96261734
16	0x3f669e89	0.90085655
17	0x3f70c219	0.9404617
18	0x3f6f6616	0.93515146
19	0x3f89c38b	1.07628
20	0x3f80ff06	1.0077827
21	0x3f818da8	1.0121355
22	0x3f805aad	1.0027672
23	0x3f6c2399	0.9224182
24	0x3f7b01be	0.98049533
25	0x3f6204d6	0.8828863
26	0x3f5714cf	0.84016126
27	0x3f669f51	0.9008685
28	0x3f61557d	0.8802107
29	0x3f57e1fd	0.84329206
30	0x3f726aa6	0.9469398
31	0x3f76014e	0.9609574
32	0x3f6d50bd	0.9270132
33	0x3f5d177e	0.8636397
34	0x3f72635a	0.9468285
35	0x3f708fdc	0.9396951
36	0x3f7c6f9a	0.9860779
37	0x3f70061a	0.9375931
38	0x3f75b5a8	0.9598031
39	0x3f73f6c3	0.95298404
40	0x3f5a790d	0.8534096
41	0x3f516dc3	0.8180811
42	0x3f60b92f	0.8778257
43	0x3f694df1	0.91134554
44	0x3f4d9d02	0.803177
45	0x3f5e36b2	0.8680221
46	0x3f50a44c	0.815007
47	0x3f6be4a7	0.9214577
48	0x3f656ef4	0.89622426
49	0x3f6c5d61	0.92329985
50	0x3f7b33ed	0.9812611
51	0x3f753fe7	0.9580063
52	0x3f5c73a0	0.8611393
53	0x3f67af4b	0.9050185
54	0x3f5fc3f4	0.87408376
55	0x3f73fc9a	0.95307314
56	0x3f5c0366	0.85942686
57	0x3f636ff2	0.8884269
58	0x3f590a01	0.8478089
59	0x3f7dfa99	0.99210507
60	0x3f75e3b9	0.960506
61	0x3f5f0704	0.8712008
62	0x3f658e1f	0.89669985
63	0x3f5fe56d	0.8745945
64	0x3f5fa8ed	0.87367135
65	0x3f693c6a	0.9110781
66	0x3f83261a	1.0246003
67	0x3f801a33	1.0007995
68	0x3f67794c	0.9041946
69	0x3f7f4ec6	0.99729574
70	0x3f7adbac	0.9799144
71	0x3f7b1c7a	0.98090327
72	0x3f81cfd1	1.0141546
73	0x3f6dca92	0.9288722
74	0x3f7d756b	0.9900729
75	0x3f5cff3a	0.86326945
76	0x3f74e0b9	0.956554
77	0x3f683309	0.90702873
78	0x3f6b70f6	0.9196924
79	0x3f78ad83	0.9713976
80	0x3f8e9a10	1.1140766
81	0x3f932ef8	1.1498709
82	0x3f923c46	1.1424644
83	0x3f810217	1.0078763
84	0x3f8081de	1.0039632
85	0x3f8039a0	1.0017586
86	0x3f7f2d04	0.99678063
87	0x3f8187ab	1.0119528
88	0x3f70d121	0.94069105
89	0x3f79e6fc	0.9761808
90	0x3f81a4ae	1.0128381
91	0x3f7dac74	0.9909127
92	0x3f7b6a6c	0.9820926
93	0x3f711563	0.9417326
94	0x3f5f15ea	0.87142813
95	0x3f6962ec	0.9116657
96	0x3f6603f9	0.8984981
97	0x3f642c97	0.8913054
98	0x3f6f5455	0.93488055
99	0x3f7381e3	0.95120066
100	0x3f6ce647	0.92538875
101	0x3f786882	0.97034466
102	0x3f828d9d	1.0199467
103	0x3f69d7c0	0.91344833
104	0x3f5ae382	0.855034
105	0x3f6ad70d	0.9173439
106	0x3f739530	0.9514952
107	0x3f66a595	0.9009641
108	0x3f63c9a0	0.8897953
109	0x3f5ccbdc	0.86248565
110	0x3f72da42	0.94864285
111	0x3f5a7862	0.8533994
112	0x3f60e05d	0.8784235
113	0x3f655b41	0.8959237
114	0x3f574a77	0.84098
115	0x3f6eac30	0.9323149
116	0x3f75fe62	0.9609128
117	0x3f75c8c7	0.96009487
118	0x3f4f595d	0.8099573
119	0x3f684137	0.9072451
120	0x3f632e85	0.8874286
121	0x3f605b2b	0.8763911
122	0x3f6a4dd1	0.9152499
123	0x3f673c5b	0.9032647
124	0x3f466ccc	0.7750976
125	0x3f707fb8	0.93944883
126	0x3f72bc83	0.94818896
127	0x3f5a00cd	0.8515747
128	0x3f6eb12e	0.93239105
129	0x3f57cf76	0.84300935
130	0x3f566d33	0.83760375
131	0x3f6a8546	0.9160961
132	0x3f74c384	0.95610833
133	0x3f72f0a1	0.9489842
134	0x3f78ce04	0.97189355
135	0x3f4bda1a	0.7962967
136	0x3f753ad3	0.95792884
137	0x3f53d230	0.82742596
138	0x3f5db34b	0.86601704
139	0x3f590447	0.8477215
140	0x3f6d3592	0.92659867
141	0x3f6ec8e2	0.9327527
142	0x3f612181	0.8794175
143	0x3f5dca81	0.8663712
144	0x3f62bd38	0.88569975
145	0x3f602449	0.87555367
146	0x3f6d6715	0.92735416
147	0x3f6865b4	0.90780187
148	0x3f785b2d	0.97014123
149	0x3f7a5f7d	0.97801954
150	0x3f819ba1	1.0125619
151	0x3f831207	1.0239877
152	0x3f6ef968	0.93349314
153	0x3f745b02	0.95451367
154	0x3f7981cb	0.97463673
155	0x3f834d29	1.0257922
156	0x3f8414ce	1.0318849
157	0x3f75ce9a	0.96018374
158	0x3f7330af	0.9499616
159	0x3f73ca28	0.9523034
160	0x3f6d7671	0.9275885
161	0x3f69ca54	0.91324353
162	0x3f69e693	0.91367453
163	0x3f8f8832	1.1213439
164	0x3f96bc1b	1.1776155
165	0x3fa35392	1.2759879
166	0x3f8275d2	1.0192206
167	0x3f8044a4	1.0020947
168	0x3f807b3a	1.0037606
169	0x3f7a6c9e	0.97821987
170	0x3f827d96	1.0194576
171	0x3f75cb21	0.96013075
172	0x3f80a818	1.0051298
173	0x3f82f7a0	1.0231819
174	0x3f8a4789	1.0803081
175	0x3f849681	1.035843
176	0x3f6f9dd1	0.93600184
177	0x3f5f5c93	0.8725063
178	0x3f5d29e4	0.86392045
179	0x3f66211e	0.8989428
180	0x3f68db43	0.90959567
181	0x3f714cbb	0.94257706
182	0x3f784e61	0.96994597
183	0x3f7a6962	0.9781705
184	0x3f851ccb	1.0399412
185	0x3f84df52	1.0380652
186	0x3f69f56f	0.91390127
187	0x3f5dce1e	0.86642635
188	0x3f63037b	0.88677186
189	0x3f7e46ab	0.9932658
190	0x3f7daaf6	0.9908899
191	0x3f6ee561	0.93318754
192	0x3f6a4de6	0.91525114
193	0x3f6a42c1	0.9150811
194	0x3f64812e	0.8925961
195	0x3f73d1ee	0.952422
196	0x3f686def	0.90792745
197	0x3f5f5ff6	0.872558
198	0x3f73349b	0.95002145
199	0x3f79c291	0.9756251
200	0x3f72f503	0.9490511
201	0x3f69d8f0	0.91346645
202	0x3f5c678d	0.86095506
203	0x3f5cc328	0.86235285
204	0x3f55f890	0.835824
205	0x3f69cc3a	0.9132725
206	0x3f7cbb5f	0.98723406
207	0x3f6859fc	0.90762305
208	0x3f731b4b	0.9496352
209	0x3f699248	0.9123883
210	0x3f66be34	0.90133977
211	0x3f5ab402	0.8543092
212	0x3f60e4e6	0.8784927
213	0x3f756d87	0.9587025
214	0x3f57bd94	0.8427365
215	0x3f7e4c41	0.99335104
216	0x3f6ec9ae	0.9327649
217	0x3f71b9fe	0.94424427
218	0x3f7cb28d	0.98709947
219	0x3f6a39c7	0.9149441
220	0x3f64b404	0.8933718
221	0x3f7dd89b	0.9915864
222	0x3f73472f	0.9503049
223	0x3f7e0c11	0.9923716
224	0x3f76a0f3	0.9633934
225	0x3f6d2aa9	0.9264322
226	0x3f6bdd1b	0.92134255
227	0x3f49d634	0.78842473
228	0x3f6868b1	0.90784746
229	0x3f621b1c	0.88322616
230	0x3f6e581d	0.931032
231	0x3f7bcf30	0.9836302
232	0x3f79277c	0.97325873
233	0x3f86b82b	1.0524954
234	0x3f73e772	0.9527503
235	0x3f78bbd4	0.971616
236	0x3f8865b5	1.0656039
237	0x3f879e6c	1.0595222
238	0x3f864456	1.0489604
239	0x3f874024	1.0566449
240	0x3f8f3d88	1.1190653
241	0x3f6d5142	0.92702115
242	0x3f6e92d0	0.9319277
243	0x3f81fd87	1.0155495
244	0x3f776156	0.966329
245	0x3f5eb9e7	0.87002414
246	0x3f964528	1.1739855
247	0x3f92bea1	1.1464425
248	0x3f996c22	1.1986125
249	0x3f81d74a	1.0143826
250	0x3f7870b2	0.9704696
251	0x3f80392a	1.0017445
252	0x3f7a3727	0.97740406
253	0x3f80a201	1.004944
254	0x3f7128b8	0.94202757
255	0x3f7bf78d	0.9842461

base.feature_norm.bias f4 [420]
0	0x3b9ff3fa	0.004881379
1	0xbc4446a9	-0.011979737
2	0xbc0ba817	-0.008523962
3	0x3c4908ca	0.012270162
4	0xbae5e17e	-0.0017538515
5	0xbc3e35bb	-0.01160949
6	0x3bd0be1a	0.006370318
7	0xbc384ac4	-0.011248294
8	0xbcff61f6	-0.031174641
9	0xbbc21e3f	-0.005924016
10	0xbd114a23	-0.035471093
11	0xbd5c1b96	-0.053737246
12	0xbd5fe571	-0.05466217
13	0xbd5e625b	-0.054293018
14	0xbcb6876b	-0.02228137
15	0xbc1a1a80	-0.009405732
16	0xbc0c8ba6	-0.008578217
17	0xbcba2990	-0.022724897
18	0xbbda0806	-0.0066537885
19	0x3c168cf1	0.0091888765
20	0xbc13d612	-0.009023206
21	0xbcb48c42	-0.022039536
22	0x3c87d467	0.016580774
23	0xbd09d24d	-0.033647824
24	0xbd1ba9f0	-0.038003862
25	0xbcc5a6db	-0.024127414
26	0xbd5a56e3	-0.053305518
27	0xbc971aa7	-0.018445326
28	0xbc4d9479	-0.012547606
29	0xbd863767	-0.06553536
30	0xbbabdc2f	-0.005244754
31	0xbd1fb7d5	-0.038993675
32	0xbc9f73be	-0.01946437
33	0xbc9b3a29	-0.018948631
34	0x3be81a2d	0.0070831985
35	0xbd2ba337	-0.0419037
36	0xbc134647	-0.008988923
37	0xbc5c8848	-0.013460226
38	0x3c001493	0.007817405
39	0xbb607924	-0.0034251893
40	0xbda48fb7	-0.08035224
41	0xbca2a6e4	-0.01985497
42	0xbcd8fa9d	-0.02648669
43	0xbca9bc4f	-0.020719675
44	0xbd4e829c	-0.050417528
45	0xbc0fe668	-0.0087829605
46	0xbd118fab	-0.035537403
47	0xbc8623dd	-0.016374523
48	0xbd2df904	-0.042473808
49	0xbc888a3c	-0.016667478
50	0x3cc9be7b	0.024626961
51	0xbcc3e84a	-0.023914475
52	0x3c148086	0.0090638455
53	0xbc11e3c5	-0.008904402
54	0x3cb446bd	0.022006387
55	0xbce975cf	-0.028498558
56	0xbd08b496	-0.033375345
57	0xbd075d7f	-0.03304815
58	0x3b3cd80d	0.00288153
59	0x3c0bbc67	0.008528805
60	0xbd3e7405	-0.046497364
61	0xbd437128	-0.047715336
62	0xbcb11122	-0.021614615
63	0xbcc3e293	-0.02391175
64	0xbd2c5beb	-0.042079847
65	0x3d1127a8	0.03543821
66	0xbbf6f4a3	-0.007536487
67	0x3c9317c1	0.017955663
68	0x3cad1e83	0.021132713
69	0xba4ae890	-0.0007740343
70	0x3c6faa38	0.014627986
71	0x3d1f814f	0.038941678
72	0x3c520091	0.012817518
73	0x3cdce108	0.026962772
74	0xba6c6b9e	-0.0009018722
75	0x3c8b998d	0.017040992
76	0x3bcf5933	0.006327772
77	0xbb9fef0c	-0.0048807915
78	0x3bb24e32	0.0054414505
79	0x3b912dc9	0.004430507
80	0x3d03e453	0.03220017
81	0x3ccfd39a	0.025369454
82	0xbd03a86e	-0.03214305
83	0xbb39087d	-0.002823382
84	0x3ba91745	0.0051602446
85	0x3bb5eabc	0.005551664
86	0x3a85e634	0.0010215701
87	0xbb462e0a	-0.0030239844
88	0xbc7ebff5	-0.015548696
89	0xbd0d0ffb	-0.03443907
90	0xbcd2b3f3	-0.025720572
91	0x3c9813f4	0.018564202
92	0xbc8e2f61	-0.017356576
93	0xbc93d54e	-0.018046048
94	0xbbf87ff0	-0.0075836107
95	0xbcca51af	-0.024697153
96	0xbc6f1f41	-0.014594854
97	0xbd3ce218	-0.046114057
98	0x3ca200c1	0.01977575
99	0xbc006e2f	-0.00783877
100	0x3bd3bc4b	0.0064616553
101	0x3c4e3e97	0.012588165
102	0x3b39176c	0.002824272
103	0xbc48a438	-0.012246184
104	0xbb6dd84f	-0.003629226
105	0xbcda1320	-0.026620448
106	0xbcf283fe	-0.029603954
107	0x3ae63514	0.0017563426
108	0xbcd4d904	-0.025982387
109	0xbd2a0003	-0.041503917
110	0xbc7d9210	-0.015476719
111	0xbcb77937	-0.022396667
112	0xbd0885a6	-0.033330582
113	0xbc76b16a	-0.015056947
114	0xbc7cf1c1	-0.015438498
115	0x3d15aa9b	0.036539655
116	0x3c38e727	0.01128558
117	0xbc0a7d0c	-0.008452665
118	0x3c4454a7	0.011983073
119	0xbc1b4159	-0.009476029
120	0xbca47ebe	-0.020079967
121	0x3b7de7d2	0.0038742912
122	0xbd160030	-0.036621273
123	0xbd2c54a0	-0.042072892
124	0xbd0c49ac	-0.034249946
125	0xbcde9f56	-0.027175587
126	0x3a880fd9	0.00103807
127	0xbd3df858	-0.046379417
128	0x3c29095c	0.010317173
129	0xbcfbdd81	-0.03074527
130	0xbc7c63cb	-0.015404652
131	0xbcba7670	-0.022761554
132	0x3ce8ecb8	0.028433189
133	0xbb43e412	-0.002989058
134	0x3ba8ab36	0.005147363
135	0x3d035a99	0.032068823
136	0x3d252941	0.040322546
137	0x3cb5fd62	0.022215549
138	0xbd1b5fb4	-0.037933066
139	0xbcf8fe3e	-0.03039467
140	0xbcf75a5a	-0.03019445
141	0xbd1906ca	-0.03735999
142	0xbd0c9bb1	-0.034328166
143	0xbc9c7143	-0.019096976
144	0xbd464e21	-0.048414353
145	0xbc9f7fe5	-0.019470165
146	0xbd17445f	-0.036930438
147	0x3b1674ad	0.0022957728
148	0x3a587f05	0.00082586735
149	0xbc0ac133	-0.008468914
150	0xb9981fbe	-0.0002901535
151	0x3c2370cf	0.009975626
152	0x3d977118	0.07394618
153	0x3a259f21	0.00063179625
154	0x3d2a7ac5	0.04162099
155	0x3c7bcdec	0.01536892
156	0x3b468a02	0.0030294661
157	0x3cd3d0be	0.025856372
158	0x3bc2648b	0.005932396
159	0xbc2587f3	-0.010103214
160	0x3cc9e96c	0.024647437
161	0xbcbe6f5c	-0.02324646
162	0xbb034481	-0.0020029845
163	0x3d033233	0.032030296
164	0x3cd0e1d9	0.025498318
165	0xbcecfdea	-0.02892967
166	0xbc31259d	-0.01081219
167	0x3baa868c	0.0052040275
168	0x3aaf804d	0.0013389677
169	0x3cbb3ac4	0.02285517
170	0xbc057eb1	-0.008147881
171	0xbc73ae13	-0.0148730455
172	0x3c405f61	0.01174149
173	0x3d019129	0.031632576
174	0x3c241755	0.010015328
175	0x3c011091	0.007877485
176	0x3b28d91b	0.002576417
177	0xbc174d03	-0.00923467
178	0xbccc85db	-0.024966171
179	0xbc0117d5	-0.007879217
180	0x3c5f25c2	0.013619842
181	0x3c04243b	0.008065279
182	0x3ceafe40	0.028685689
183	0x3cba9653	0.022776758
184	0x3c45df8f	0.012077226
185	0x3c897d69	0.016783433
186	0x3a9724a0	0.0011531301
187	0x3be375a1	0.0069415127
188	0x3bb801bb	0.0056154407
189	0x3cb33a48	0.021878377
190	0x3d0a20d9	0.033722732
191	0xbbbde5cb	-0.0057952157
192	0x3a27022d	0.00063708687
193	0x3cfe0e76	0.031012755
194	0x3c308c31	0.010775612
195	0x3baa6802	0.005200387
196	0x3aefdd51	0.001830021
197	0x3bfafc8c	0.0076595005
198	0x3d093344	0.033496156
199	0x3bf8c379	0.0075916615
200	0xbbdc314c	-0.006719744
201	0x3c860124	0.016357966
202	0x3d6cd332	0.0578186
203	0x3b06792c	0.0020519001
204	0x3d655699	0.05599079
205	0x3cd9318f	0.02651289
206	0xbc45cd7c	-0.012072917
207	0x3d095490	0.03352791
208	0x3bafb763	0.0053624376
209	0x3965991e	0.00021896182
210	0x3c07f6b4	0.008298565
211	0x3cff78b4	0.031185485
212	0x3c5eca4f	0.013598039
213	0x3d17564b	0.03694753
214	0x3c9b624e	0.018967774
215	0x3b18d113	0.0023317977
216	0x3cc84173	0.024445271
217	0x3c554fd9	0.013019525
218	0xbc1e3099	-0.009655141
219	0x3c2c9f55	0.010536035
220	0x3d44b955	0.04802831
221	0x3c79e066	0.015251255
222	0x3d39ccdd	0.04536139
223	0x3cda300b	0.026634237
224	0x3c928b8f	0.017888812
225	0x3be6de9e	0.007045581
226	0x3b7e2a25	0.0038782444
227	0xbbf09375	-0.007341797
228	0xbb2af403	-0.0026085384
229	0x3c995e07	0.018721594
230	0x3c97e186	0.018540155
231	0x3d562787	0.05228379
232	0x3d4f7c74	0.050655797
233	0xbc37a6fe	-0.011209248
234	0x3c7709e1	0.015078039
235	0x3dc34e8b	0.09536465
236	0x3d082617	0.03323945
237	0x3d07445a	0.03302417
238	0x3d225e43	0.039640676
239	0x3ca9d703	0.020732408
240	0x3cdc4ccd	0.02689209
241	0x3d27657a	0.04086826
242	0x3d8b0d72	0.06789674
243	0x3d488a09	0.048959766
244	0x3c04af09	0.008098372
245	0x3d6561d0	0.056001484
246	0x3cacf1b9	0.021111356
247	0x3d030c9a	0.03199444
248	0xbd05c988	-0.0326629
249	0xbb707478	-0.0036690515
250	0x3cfa51db	0.03055661
251	0x3c3b0eb1	0.011417077
252	0x3ce49a70	0.027905673
253	0x3b5cb3df	0.0033676547
254	0x3c5fe9f1	0.013666616
255	0x3d281f67	0.041045573

base.mlp.fc1.0.weight f4 [256, 420]
0	0x3caad12d	0.020851696
1	0xbd04af74	-0.032393888
2	0x3d8c6a62	0.068562284
3	0xbe11388a	-0.14181724
4	0xbd5cd5ea	-0.05391494
5	0x3d806990	0.062701344
6	0x3e87e836	0.2654435
7	0xbd4063d5	-0.046970207
8	0x3c0b608c	0.008506905
9	0xbe080867	-0.13284455
10	0xbcd5b24a	-0.026085991
11	0xbce59095	-0.028023044
12	0x3d035bee	0.032070093
13	0xbd2af974	-0.041741803
14	0x3c1b40dd	0.009475914
15	0xbc70ab90	-0.014689341
16	0xbdbc5a94	-0.09196964
17	0x3d8abbb7	0.06774085
18	0xbce18c5d	-0.02753275
19	0x3dee7826	0.1164401
20	0x3dcf317d	0.10116861
21	0x3d9b252a	0.07575448
22	0xbd9c8f79	-0.07644553
23	0x3d2f766c	0.042837545
24	0x3dc18213	0.09448638
25	0xbd626251	-0.055269543
26	0x3d321c36	0.043483935
27	0x3ded3d5f	0.11583971
28	0x3d32c7f3	0.043647718
29	0x3c9ea29b	0.019364646
30	0x3e087f8d	0.13329907
31	0xbd787356	-0.060656868
32	0xbcf23d1b	-0.029570153
33	0x3e0d2956	0.137853
34	0xbd59e18e	-0.05319362
35	0xbdbfcb3b	-0.09364935
36	0xbe09657c	-0.1341762
37	0xbe1279f6	-0.14304337
38	0x3d77e8fd	0.06052493
39	0xbd5c81be	-0.05383467
40	0xbcb21443	-0.021738177
41	0x3ca70cc3	0.020391827
42	0x3dc7b801	0.09751893
43	0xbd87714b	-0.06613406
44	0xbda40fc5	-0.0801082
45	0xbd2f3b00	-0.042780876
46	0x3d8ee034	0.06976357
47	0x3e290fe6	0.16509971
48	0xbc617575	-0.013760914
49	0x3c806e6c	0.015677653
50	0xbcf6c706	-0.030124199
51	0x3dd1323a	0.10214658
52	0xbb2df7d0	-0.0026545413
53	0x3de698df	0.112596266
54	0xbc335de0	-0.0109476745
55	0x3d60ed78	0.054913968
56	0xbd1193de	-0.035541408
57	0xbcca2f04	-0.024680622
58	0x3df47d27	0.119379334
59	0x3bfeb0f8	0.007772561
60	0xbd6a61f9	-0.05722234
61	0x3d10551e	0.035237424
62	0xbc492644	-0.01227719
63	0xbce28503	-0.027651316
64	0x3d63a1b2	0.055574127
65	0xbc35dee3	-0.011100504
66	0x3d23df8e	0.04000812
67	0xbc7142cc	-0.014725398
68	0xbae1a454	-0.0017215111
69	0xbcea8d6e	-0.028631892
70	0x3d41de8a	0.04733137
71	0x3d025811	0.031822268
72	0x3d8f89f3	0.070087336
73	0xbe2f21c3	-0.17102723
74	0xbc9392e1	-0.018014373
75	0x3da644a7	0.08118563
76	0x3d8c25ea	0.06843169
77	0xbbad0104	-0.005279662
78	0xbd142cff	-0.036175724
79	0xbcd3e5df	-0.025866447
80	0xbc9ea505	-0.019365797
81	0xbbbed5a7	-0.005823809
82	0x3dc4ddc7	0.09612613
83	0x3c967c43	0.0183698
84	0xbcc3871b	-0.023868134
85	0x3b533697	0.0032228583
86	0x3d2630f0	0.040574014
87	0xbaf75fe8	-0.0018873187
88	0xbd1df140	-0.038560152
89	0xbe0ca065	-0.1373306
90	0x3da618f1	0.08110226
91	0x3ddb32d2	0.107030526
92	0xbd7a8330	-0.061160266
93	0xbdc5bed1	-0.09655536
94	0xbbb8ad4f	-0.0056358944
95	0x3e0dc1a8	0.13843405
96	0xbcd45ca9	-0.02592309
97	0x3d45e865	0.04831733
98	0x3d00f124	0.03147997
99	0x3df1acc3	0.1180053
100	0xbcf8599b	-0.030316165
101	0xbcada69e	-0.021197613
102	0x3d6e5197	0.05818328
103	0xbdbe9595	-0.09305874
104	0xbd9235ed	-0.07139192
105	0xbd1cccce	-0.038281254
106	0x3d9d82b7	0.076909475
107	0xbc626bf6	-0.013819685
108	0xbd84567d	-0.06461809
109	0x3d484219	0.04889116
110	0x3c2fa2a1	0.010719926
111	0xba7663a4	-0.0009399003
112	0x3d57d753	0.052695584
113	0xbc846304	-0.016160496
114	0x3dedb14a	0.11606081
115	0x3d822652	0.06354965
116	0xbd5a52ba	-0.05330155
117	0x3e2062d1	0.15662695
118	0xbddeb924	-0.108751565
119	0xbe37270b	-0.17885987
120	0x3c483dba	0.012221748
121	0xbcfa81cf	-0.030579476
122	0x3d28cbfb	0.041210156
123	0xbc26d709	-0.010183104
124	0xbe17872a	-0.14797655
125	0x3da3fdac	0.080073684
126	0x3c94bd26	0.0181566
127	0x3d539fd9	0.051666114
128	0x3d8e9823	0.069626115
129	0xbb4b578a	-0.003102752
130	0x3e124673	0.14284687
131	0x3e030f16	0.12798724
132	0x3d00763f	0.03136277
133	0xbcd88ed9	-0.026435303
134	0x3dbfff8f	0.09374916
135	0x3ce2702e	0.027641382
136	0xbe0bc5b6	-0.1364964
137	0xbe0f7aae	-0.14011642
138	0x3c8b1878	0.016979441
139	0xbd96b9d8	-0.07359666
140	0x3ddcc65b	0.10780021
141	0xbd0fddb1	-0.03512353
142	0xbd4ea931	-0.050454322
143	0x3d94f610	0.07273495
144	0xbe09d314	-0.13459426
145	0x3d5ab106	0.05339148
146	0xbcbb5258	-0.022866413
147	0xbd2131cd	-0.039354134
148	0x3e174833	0.14773636
149	0x3d8531d8	0.065036476
150	0x3e401759	0.18758906
151	0x3b8794fe	0.0041376343
152	0xbdae4374	-0.085089594
153	0x3d755dcb	0.0599039
154	0x3da32efe	0.079679474
155	0x3c95b4e7	0.018274738
156	0x3bcf4e5f	0.0063264812
157	0xbd23900a	-0.03993229
158	0x3da3a48e	0.07990371
159	0x3dd32d46	0.103113696
160	0xbe26ffde	-0.16308543
161	0xbd9d2745	-0.07673506
162	0xbbff341b	-0.007788194
163	0x3d412e35	0.047163207
164	0x3d97f4c8	0.07419735
165	0x3d9ef6a8	0.0776189
166	0x3b0fad9e	0.0021923552
167	0xbe0a1ad3	-0.13486795
168	0x3dbc0aaf	0.09181725
169	0xbb1958e4	-0.002339893
170	0x3cd16a92	0.025563512
171	0xbdfda303	-0.12384608
172	0x3a5e5455	0.00084811944
173	0x3dda2960	0.10652423
174	0x3e0889f5	0.13333876
175	0x3d049c11	0.0323754
176	0xbcde1fbf	-0.027114747
177	0xbc88aa3d	-0.016682738
178	0xbdf0c63b	-0.117565595
179	0x3b048c5b	0.002022526
180	0x3d40f3fa	0.047107674
181	0xbd240012	-0.04003913
182	0x3de1cede	0.11025785
183	0xbd021204	-0.031755462
184	0xbcb18606	-0.021670353
185	0x3e32efdf	0.17474316
186	0x3cc8221f	0.024430333
187	0xbdcfed89	-0.10152728
188	0xbdd727e6	-0.10505657
189	0xbd5646dc	-0.05231367
190	0xbcdcc239	-0.026948081
191	0xbd38a8a7	-0.045082714
192	0x3d482150	0.048859894
193	0xbd266366	-0.040622137
194	0x3cc7512c	0.024330698
195	0x3da78bcc	0.08180961
196	0xbd15e328	-0.036593586
197	0xbdabf14a	-0.083956316
198	0x3d9667c7	0.07344013
199	0x3df41788	0.11918551
200	0x3df497bf	0.11943006
201	0xbd5eff5a	-0.05444274
202	0x3dfb9a80	0.12285328
203	0xbc53e86a	-0.01293383
204	0x3a1559b0	0.00056972634
205	0xbbfcebfa	-0.0077185603
206	0x3bf7747e	0.0075517287
207	0x3d836739	0.064161725
208	0xbdd0a331	-0.10187376
209	0xbd72b91a	-0.059258558
210	0x3d7be69c	0.061499223
211	0xbc8f2f65	-0.017478654
212	0xbc0e6695	-0.00869145
213	0x3dc45eda	0.09588404
214	0x3d50880c	0.050910994
215	0x3d1006be	0.03516268
216	0xbca12f1f	-0.01967579
217	0xbdf85548	-0.12125641
218	0x3d28a2f0	0.041171014
219	0xbd812500	-0.06305885
220	0x3d10a39c	0.03531228
221	0xbd97a916	-0.074052975
222	0x3d6f138b	0.058368247
223	0x3d5f3764	0.054496184
224	0xbdd8bd31	-0.105829604
225	0xbb9306a9	-0.004486878
226	0x3d41c35c	0.04730545
227	0xbd4b370f	-0.049613055
228	0x3da8d309	0.08243377
229	0x3d0233f2	0.03178782
230	0xbd7d9cec	-0.06191723
231	0xbe329b18	-0.17441976
232	0x3dd8960a	0.10575493
233	0x3cb4bef9	0.02206372
234	0x3bdaaf3d	0.006673722
235	0x3d94f0d9	0.072725005
236	0xbdb00038	-0.08593792
237	0x3dd50c05	0.10402683
238	0xbc64f686	-0.013974791
239	0xbc98800b	-0.018615743
240	0xbce56b21	-0.028005185
241	0xbd5bccfe	-0.053662293
242	0xbd5af114	-0.053452566
243	0x3e1b6535	0.15175326
244	0x3c819aa5	0.01582081
245	0xbc78bdfa	-0.015182013
246	0xbd2c757e	-0.042104237
247	0x3da82f5b	0.08212157
248	0x3e881c5b	0.26584134
249	0xbb45069f	-0.003006376
250	0xbd02df91	-0.03195149
251	0x3d6fb5bf	0.058522936
252	0xbd3acd47	-0.045605924
253	0xbce34979	-0.027744995
254	0xbd9cf3a6	-0.0766366
255	0xbd961066	-0.073273465

base.mlp.fc1.0.bias f4 [256]
0	0xbbbaa9f2	-0.0056965286
1	0x3cb4ae79	0.022055851
2	0xbcc34d68	-0.023840621
3	0x3cda6a19	0.02666192
4	0x3c89bf16	0.01681475
5	0xbc1fe600	-0.009759426
6	0x3cf3de1c	0.029768996
7	0xbd03414d	-0.032044698
8	0xb90b4442	-0.00013281501
9	0xbc6e2bef	-0.014536842
10	0xbcefd469	-0.02927609
11	0x3aaa3b58	0.0012987657
12	0x3b92fd97	0.0044857967
13	0x3c8cc5e5	0.017184207
14	0x3bd59517	0.006518017
15	0xbaba2362	-0.0014201219
16	0xbc6c5aa8	-0.014425911
17	0xbc955d4c	-0.018232964
18	0x3d2c2642	0.042028673
19	0x3cb69c80	0.022291422
20	0x3c66dcc1	0.014090718
21	0xbd14e6ed	-0.03635304
22	0xbc5f1fac	-0.013618391
23	0x39f2b6ee	0.0004629413
24	0xbc969957	-0.018383665
25	0x3ce09516	0.02741484
26	0x3d020ec6	0.03175237
27	0xbd00e635	-0.031469543
28	0xb9f832fb	-0.0004734023
29	0xbc5e5cff	-0.013571977
30	0x3c0864bf	0.008324801
31	0xbcd837a0	-0.026393712
32	0xbcfb4715	-0.030673543
33	0xbd19b074	-0.037521794
34	0xbd4a3432	-0.049366184
35	0x3a4b85c4	0.0007763768
36	0xbd7c95e4	-0.061666384
37	0xbcdc885b	-0.026920488
38	0xbbc93155	-0.006139914
39	0xbc9e031c	-0.019288592
40	0x3cb59917	0.022167725
41	0x3bb091ef	0.0053884904
42	0x3c91b678	0.017787203
43	0xbc348ee0	-0.011020392
44	0xbb676596	-0.0035308353
45	0xbc51c8db	-0.012804235
46	0xbc960e9f	-0.018317519
47	0xbd25eaf9	-0.04050729
48	0xbc0a2c28	-0.008433379
49	0xbccadb3f	-0.024762748
50	0x3c08f952	0.008360224
51	0x3c893046	0.016746651
52	0xbccacede	-0.024756845
53	0xbc83d535	-0.016092876
54	0xbc64519e	-0.013935475
55	0xbd1266bb	-0.035742503
56	0xbcabc47e	-0.020967718
57	0xbcf1bc12	-0.029508624
58	0x3ca3c076	0.019989233
59	0xbc6a3916	-0.014295837
60	0x3c7bd284	0.015370015
61	0x3b35f830	0.002776634
62	0x3ceec3fd	0.029146189
63	0xbd001a75	-0.03127523
64	0x3c71f5d8	0.014768086
65	0xbd00695b	-0.031350475
66	0x3cbbd343	0.022927886
67	0x3c9336a4	0.01797039
68	0xbc81c9a5	-0.015843222
69	0x3c9f998a	0.019482393
70	0xbbdc2ab9	-0.00671896
71	0xbd462029	-0.048370514
72	0x3c4592a1	0.012058885
73	0xbd1c0727	-0.03809276
74	0xbd0a94ff	-0.0338335
75	0xbca785bb	-0.02044951
76	0xbc0a5b2f	-0.008444591
77	0xbc7a72c5	-0.015286152
78	0x3b2f73c1	0.0026771876
79	0xbd0563d8	-0.03256592
80	0xbcb5acde	-0.022177156
81	0xbb5d7e46	-0.0033797189
82	0x3c1a2ee7	0.009410596
83	0xbd07e2f9	-0.033175442
84	0x3ad7aae6	0.001645413
85	0xbd1864b2	-0.037205406
86	0x3ca45e17	0.020064397
87	0x3cc55044	0.024086125
88	0x3c757f90	0.014984027
89	0xbbf6f544	-0.007536562
90	0xbcd64d04	-0.02615977
91	0xbc6225dd	-0.013802973
92	0xbcc2a2f0	-0.023759335
93	0xbd508f42	-0.05091787
94	0xbd2593db	-0.04042421
95	0x3cd5bd6c	0.0260913
96	0x3c12b9bf	0.008955418
97	0x3c9af447	0.018915309
98	0x3b5cf0a4	0.003371277
99	0xbccbf6a3	-0.024897879
100	0xbd547b15	-0.051875193
101	0xbc83d8cb	-0.016094586
102	0xbc46fad9	-0.012144768
103	0x3c82c533	0.015963173
104	0xbd028d3c	-0.031872973
105	0xbcc3fdfe	-0.023924824
106	0x3a53edd0	0.0008084448
107	0xbd1d50ab	-0.03840701
108	0xbd305ba2	-0.043056138
109	0xbd1eddb0	-0.038785636
110	0x3cb5b654	0.022181667
111	0x3cd83822	0.026393954
112	0xbbf6cc3c	-0.007531671
113	0xbb2aa34d	-0.0026037276
114	0xbca5351c	-0.020166926
115	0x3c45161d	0.012029198
116	0xbc70f544	-0.014706913
117	0xbc1b95cb	-0.009496163
118	0x3d407a3f	0.046991583
119	0xbcb43611	-0.021998437
120	0xba2e94c6	-0.0006659742
121	0xbc6c7c4f	-0.014433934
122	0x3ccf3a08	0.025296226
123	0xbd66dbec	-0.056362078
124	0xbcae896a	-0.021305759
125	0xbbb5bdec	-0.005546322
126	0xbc474e21	-0.0121646235
127	0xbbf36be0	-0.007428631
128	0x3c261eaa	0.010139147
129	0xbce07fc8	-0.02740468
130	0xbc54cfd9	-0.012989008
131	0xbbda83a1	-0.0066685234
132	0xba760002	-0.00093841564
133	0xbd85748a	-0.06516369
134	0x3cadb8e4	0.021206327
135	0xbc9ceded	-0.01915642
136	0x3c331e6c	0.010932546
137	0xbcaec0db	-0.021332195
138	0xbd789dec	-0.06069748
139	0xbccbaabb	-0.024861684
140	0xbca1f6c3	-0.019770985
141	0xbc6bcca5	-0.014392053
142	0xbcdc93eb	-0.026926002
143	0xbd06fa45	-0.03295352
144	0xbd55b65d	-0.05217587
145	0xba9a8c7e	-0.0011791138
146	0xbb322642	-0.0027183448
147	0xbca95ecd	-0.020675087
148	0xbca95c99	-0.020674037
149	0xbab75d21	-0.0013989547
150	0xbd04d716	-0.032431684
151	0x3c607f89	0.013702282
152	0x3b9255f0	0.004465811
153	0xbcc02940	-0.02345717
154	0x3c7344a8	0.014847912
155	0xbaa73ec5	-0.0012759796
156	0xbbb75cec	-0.005595794
157	0x3c91daa4	0.017804451
158	0x3c28ce0b	0.010303031
159	0xbd2d3658	-0.042288154
160	0xbcc5361b	-0.024073651
161	0x3a8420c1	0.0010080562
162	0xbcbc9fa1	-0.023025336
163	0x3baa91e0	0.005205378
164	0xbd252a5c	-0.0403236
165	0x3bc5cc6d	0.0060363323
166	0xbca705f8	-0.020388588
167	0x3c8e08ea	0.017338235
168	0x3c9f8d54	0.01947657
169	0xbb890b17	-0.00418223
170	0xbb2e51bd	-0.0026599013
171	0x3cae1f77	0.021255238
172	0xbc6b21c1	-0.014351309
173	0xbc735cef	-0.0148537
174	0xbd1e71e6	-0.03868284
175	0x3a25ba7b	0.0006322038
176	0xbc853aad	-0.01626333
177	0x3ce2d116	0.02768759
178	0x3c73e8fd	0.014887092
179	0xbd2fd04d	-0.04292326
180	0x3c9e59d1	0.019329937
181	0xbc934482	-0.017977003
182	0x3c1b05c5	0.009461825
183	0x3c80c13e	0.015717145
184	0x3caca86f	0.02107641
185	0x3c326dd2	0.010890441
186	0xbd25f8f5	-0.040520627
187	0xbbb910b2	-0.005647742
188	0x3c82994a	0.015942235
189	0xbcc04c7d	-0.023473972
190	0xbd1962dc	-0.037447795
191	0x3ccb35cb	0.024805924
192	0xbc786e51	-0.01516302
193	0x3bcdf3a2	0.006285147
194	0x3c221d16	0.00989463
195	0x3a9e00cd	0.0012054682
196	0xbbfb8d96	-0.0076767905
197	0xbce22db6	-0.027609687
198	0xbc70f48b	-0.014706741
199	0xbc9dd5d8	-0.019267008
200	0x3ce8aa84	0.02840162
201	0xb9559f5b	-0.00020372627
202	0xbc788dce	-0.015170528
203	0xbcbadca0	-0.02281028
204	0xbba8a2d4	-0.0051463638
205	0xbc4c2bf6	-0.012461653
206	0xbd052f5a	-0.03251586
207	0xbaf3b268	-0.0018592598
208	0xbcc20c07	-0.023687376
209	0xbd531e82	-0.051542766
210	0xbb90e98d	-0.0044223727
211	0x3bcbd12a	0.0062200027
212	0xbc39f6cf	-0.011350348
213	0xbcef8f96	-0.029243272
214	0xbd18b482	-0.03728152
215	0x3c12dad5	0.008963306
216	0xbbc6d5f7	-0.006067987
217	0x3c49ae98	0.012309693
218	0x3cb38ccd	0.021917725
219	0xbcd34474	-0.025789477
220	0x3c4ea97c	0.01261365
221	0xbccf80f0	-0.025330037
222	0xbcc8be86	-0.024504911
223	0x3abea53b	0.0014545092
224	0x3abab700	0.0014245212
225	0xbc6d8794	-0.014497656
226	0x3c9385cf	0.01800814
227	0xbc3c8f20	-0.011508733
228	0xbc8ebae8	-0.017423108
229	0x3b8e430b	0.0043414882
230	0x3bb95717	0.005656134
231	0x3c34373c	0.010999497
232	0xbbdfe834	-0.0068331007
233	0x3bb40fdc	0.0054950546
234	0x3c672b98	0.014109515
235	0xbd013c9f	-0.031551953
236	0x3ba58ccc	0.0050521847
237	0x3c9dffb8	0.019286975
238	0x3ad96a9d	0.0016587559
239	0x3c16a512	0.009194629
240	0xbd516cfe	-0.051129334
241	0x3c424ff6	0.0118598845
242	0xbd12b181	-0.035813812
243	0x3cd9302c	0.026512228
244	0xbcbd0a36	-0.023076158
245	0x3be1854a	0.0068823444
246	0xbbd12188	-0.006382171
247	0xbc7f8d08	-0.015597589
248	0x3cbf5518	0.023356006
249	0xbbbff203	-0.0058577075
250	0xb9e47b66	-0.00043579488
251	0xbc6193fa	-0.0137681905
252	0xbd2c1bd2	-0.04201872
253	0xbcb3b986	-0.02193905
254	0xbcb105ca	-0.021609206
255	0xbd4453d1	-0.047931496

base.mlp.fc1.2.weight f4 [256]
0	0x3f7217d1	0.9456759
1	0x3f7720e6	0.96534574
2	0x3f83992c	1.0281119
3	0x3f80af39	1.0053474
4	0x3f8085f9	1.0040885
5	0x3f8126ab	1.0089926
6	0x3f82f5e0	1.0231285
7	0x3f7f69d9	0.99770886
8	0x3f7aedee	0.980193
9	0x3f8112c3	1.0083851
10	0x3f7e5ad3	0.99357337
11	0x3f858d72	1.0433791
12	0x3f8042cf	1.0020388
13	0x3f7db55c	0.9910486
14	0x3f8391ff	1.027893
15	0x3f771fb4	0.9653275
16	0x3f796cbe	0.9743155
17	0x3f7f2ce6	0.99677885
18	0x3f85a217	1.0440091
19	0x3f8653e5	1.0494353
20	0x3f69ac5f	0.9127864
21	0x3f70acd5	0.9401372
22	0x3f7a6e74	0.9782479
23	0x3f84dd49	1.0380031
24	0x3f779012	0.9670421
25	0x3f819108	1.0122385
26	0x3f7a9ab5	0.97892314
27	0x3f84fc37	1.038947
28	0x3f816ea9	1.0111896
29	0x3f7ab886	0.9793781
30	0x3f794f17	0.97386307
31	0x3f8690f3	1.0512985
32	0x3f85daa2	1.0457346
33	0x3f8f4521	1.1192971
34	0x3f82e90b	1.0227369
35	0x3f7b4a2d	0.9816006
36	0x3f82e8e4	1.0227323
37	0x3f7d8068	0.9902406
38	0x3f846ac3	1.0345081
39	0x3f83400c	1.025392
40	0x3f6c9c68	0.92426157
41	0x3f767793	0.96276206
42	0x3f857643	1.0426716
43	0x3f717810	0.94323826
44	0x3f7d35b7	0.9891009
45	0x3f871944	1.0554585
46	0x3f810481	1.00795
47	0x3f74bcdc	0.95600677
48	0x3f7ccc2a	0.9874903
49	0x3f84d6f9	1.0378104
50	0x3f6c485c	0.9229791
51	0x3f831e94	1.0243707
52	0x3f83454c	1.0255523
53	0x3f78494d	0.9698685
54	0x3f7cb3f1	0.9871207
55	0x3f8165cd	1.0109192
56	0x3f751570	0.95735836
57	0x3f80e8a6	1.0070999
58	0x3f6e9c8f	0.9320764
59	0x3f7901cf	0.97268385
60	0x3f7c8a5b	0.98648614
61	0x3f782fba	0.96947825
62	0x3f78808f	0.97071165
63	0x3f82d72c	1.0221915
64	0x3f80fc93	1.007708
65	0x3f80ee06	1.0072639
66	0x3f858be4	1.0433316
67	0x3f802780	1.0012054
68	0x3f7c8dc7	0.98653835
69	0x3f760aea	0.96110404
70	0x3f742ee8	0.95384073
71	0x3f7f15da	0.9964272
72	0x3f7e7fc0	0.9941368
73	0x3f7ff72c	0.9998653
74	0x3f7fed90	0.99971867
75	0x3f780a0d	0.96890336
76	0x3f814ce1	1.0101587
77	0x3f766e1f	0.9626178
78	0x3f880de9	1.0629245
79	0x3f69a6a2	0.91269886
80	0x3f86f985	1.0544897
81	0x3f7ee27b	0.9956433
82	0x3f834dd4	1.0258126
83	0x3f87ec04	1.0618901
84	0x3f7f3d35	0.9970277
85	0x3f851b95	1.0399042
86	0x3f81fd31	1.0155393
87	0x3f7c6d81	0.9860459
88	0x3f748cc1	0.95527273
89	0x3f7ed4a4	0.99543214
90	0x3f7b6b60	0.98210716
91	0x3f80114c	1.0005279
92	0x3f7e1013	0.9924328
93	0x3f873cec	1.0565467
94	0x3f81ae4f	1.013132
95	0x3f805fe6	1.0029266
96	0x3f6ba970	0.92055416
97	0x3f7cea6a	0.9879519
98	0x3f80fdb7	1.0077428
99	0x3f799eed	0.97508126
100	0x3f8383aa	1.0274556
101	0x3f774610	0.9659128
102	0x3f86324d	1.04841
103	0x3f72c45d	0.94830877
104	0x3f8593ac	1.0435691
105	0x3f8a164c	1.0788054
106	0x3f795c1d	0.9740618
107	0x3f6789c5	0.90444595
108	0x3f82007b	1.0156397
109	0x3f89f755	1.0778605
110	0x3f7f7f89	0.9980398
111	0x3f7ff5e2	0.9998456
112	0x3f84afdd	1.0366169
113	0x3f7a7fe6	0.9785141
114	0x3f812893	1.0090507
115	0x3f816349	1.0108424
116	0x3f863257	1.0484113
117	0x3f73b9b4	0.95205235
118	0x3f89dc0b	1.0770277
119	0x3f814098	1.0097837
120	0x3f7d5e8b	0.98972386
121	0x3f70bda2	0.94039357
122	0x3f7ae4aa	0.98005164
123	0x3f7f6d29	0.9977594
124	0x3f877cfb	1.0585016
125	0x3f733c50	0.95013905
126	0x3f7ca0e4	0.98683
127	0x3f851b71	1.0399
128	0x3f875fe2	1.0576136
129	0x3f861413	1.0474876
130	0x3f82bd2d	1.0213982
131	0x3f7d12c7	0.98856777
132	0x3f7f313f	0.9968452
133	0x3f828da9	1.0199481
134	0x3f8011fa	1.0005486
135	0x3f7a26a5	0.97715217
136	0x3f7a90b1	0.9787703
137	0x3f7b38da	0.98133624
138	0x3f86604c	1.0498137
139	0x3f821c0c	1.0164809
140	0x3f7b5b23	0.9818594
141	0x3f79f14a	0.976338
142	0x3f80d373	1.0064529
143	0x3f73fd29	0.95308167
144	0x3f829d49	1.020425
145	0x3f805a16	1.0027492
146	0x3f7f4c7b	0.99726075
147	0x3f81dcb2	1.0145476
148	0x3f7d4b97	0.98943466
149	0x3f7f26c4	0.99668527
150	0x3f76c3cb	0.96392506
151	0x3f83c10b	1.0293287
152	0x3f7db2e2	0.9910108
153	0x3f7db970	0.9911108
154	0x3f800435	1.0001284
155	0x3f6ab53d	0.916828
156	0x3f7d3e95	0.9892362
157	0x3f7ee42f	0.9956693
158	0x3f83c224	1.0293622
159	0x3f8051b8	1.0024939
160	0x3f83fc8b	1.0311445
161	0x3f77caa2	0.9679357
162	0x3f7fa855	0.9986623
163	0x3f73f03f	0.9528846
164	0x3f7c4771	0.9854651
165	0x3f801644	1.0006795
166	0x3f8517e2	1.0397913
167	0x3f80b48e	1.0055101
168	0x3f7f6496	0.99762857
169	0x3f86087a	1.0471337
170	0x3f8458e5	1.0339628
171	0x3f6a33ad	0.914851
172	0x3f75e74c	0.96056056
173	0x3f8239ec	1.0173926
174	0x3f6ca484	0.9243853
175	0x3f820cd9	1.0160171
176	0x3f855791	1.0417348
177	0x3f92207d	1.1416165
178	0x3f8922ad	1.0713707
179	0x3f7f4b10	0.9972391
180	0x3f7bd4b3	0.9837143
181	0x3f811f88	1.0087748
182	0x3f711b1b	0.94181985
183	0x3f7bd797	0.9837584
184	0x3f7c56b0	0.98569775
185	0x3f821935	1.0163943
186	0x3f878097	1.0586118
187	0x3f764653	0.96201056
188	0x3f79e22e	0.9761075
189	0x3f795d55	0.9740804
190	0x3f82c8f7	1.021758
191	0x3f7ce7a0	0.9879093
192	0x3f832372	1.0245192
193	0x3f732b97	0.9498839
194	0x3f776dfb	0.9665219
195	0x3f7ad5f5	0.9798272
196	0x3f840e9f	1.0316962
197	0x3f815c70	1.0106335
198	0x3f7ef982	0.9959947
199	0x3f7672ae	0.9626874
200	0x3f821b85	1.0164648
201	0x3f753009	0.9577642
202	0x3f7d64df	0.9898204
203	0x3f869459	1.0514022
204	0x3f840153	1.0312904
205	0x3f80cf08	1.0063181
206	0x3f85bb2f	1.0447749
207	0x3f842926	1.0325058
208	0x3f82be80	1.0214386
209	0x3f7af147	0.9802441
210	0x3f8637be	1.0485761
211	0x3f814a26	1.0100753
212	0x3f8065e8	1.0031099
213	0x3f88db62	1.069195
214	0x3f7f4ebd	0.9972952
215	0x3f859104	1.043488
216	0x3f787555	0.97054034
217	0x3f7d66dc	0.98985076
218	0x3f81b48b	1.0133222
219	0x3f84eb26	1.0384262
220	0x3f81628f	1.0108203
221	0x3f87824f	1.0586642
222	0x3f8423d3	1.0323433
223	0x3f812d70	1.0091991
224	0x3f830bbe	1.0237958
225	0x3f860ffc	1.0473628
226	0x3f7d16f9	0.9886318
227	0x3f806a39	1.0032417
228	0x3f7b5981	0.9818345
229	0x3f7a5337	0.97783226
230	0x3f80f5d1	1.0075017
231	0x3f78cd98	0.9718871
232	0x3f83c887	1.0295571
233	0x3f78f36d	0.9724644
234	0x3f849381	1.0357515
235	0x3f77ef4a	0.968495
236	0x3f7fb0f8	0.9987941
237	0x3f7c83c1	0.9863854
238	0x3f7882c6	0.97074544
239	0x3f71ef5b	0.9450585
240	0x3f7a6de1	0.9782391
241	0x3f83b294	1.0288873
242	0x3f85561b	1.0416902
243	0x3f7a45b0	0.97762585
244	0x3f845578	1.0338583
245	0x3f83286e	1.0246713
246	0x3f81a532	1.0128539
247	0x3f790fd2	0.97289765
248	0x3f822cd1	1.0169927
249	0x3f80d39f	1.0064582
250	0x3f82f5f1	1.0231305
251	0x3f7d6f2a	0.9899775
252	0x3f740c7b	0.95331544
253	0x3f858186	1.0430152
254	0x3f82dae2	1.0223048
255	0x3f81a394	1.0128045

base.mlp.fc1.2.bias f4 [256]
0	0x3b8225a8	0.003971774
1	0x3d0b9733	0.03407974
2	0xbbdbdd4d	-0.0067097307
3	0x3c9ca960	0.019123733
4	0x3ccc3d73	0.024931645
5	0xbc431ab6	-0.011908224
6	0x3ce3acfd	0.027792448
7	0xbbd4508c	-0.0064793285
8	0x3cbe86fe	0.023257729
9	0xbc15f200	-0.009151936
10	0xbb18c973	-0.0023313432
11	0x3ca00dc1	0.019537808
12	0x3c9fff2d	0.019530857
13	0x3c7c6826	0.01540569
14	0x39f57cfc	0.00046823162
15	0x3b7f82b0	0.0038987808
16	0x3bf932e9	0.007604946
17	0x3c606ac4	0.01369733
18	0x3ca1de96	0.019759458
19	0x3c4948a4	0.012285385
20	0x3ca8a964	0.020588584
21	0x3c631e8d	0.013862264
22	0xbc6ad902	-0.014333965
23	0xbcbbc600	-0.022921562
24	0xbc22dab4	-0.009939838
25	0x3cb69801	0.022289278
26	0x3c5723fd	0.013131139
27	0xbcf02c27	-0.029317928
28	0x3cda6332	0.026658628
29	0x3b194e38	0.002339257
30	0x3d0d0bc1	0.034435038
31	0xbcbfbbc7	-0.023404969
32	0xbc89ecaa	-0.016836483
33	0xbc25421b	-0.010086562
34	0xbc600326	-0.013672626
35	0x3c999783	0.018749004
36	0xbc58e12f	-0.013237282
37	0xbc46bbb4	-0.012129713
38	0xbc20635d	-0.009789315
39	0x3cba8cf0	0.022772282
40	0x3cffe04b	0.03123488
41	0x3c80540a	0.015665073
42	0x3b74d13e	0.0037356163
43	0x3ccb6dce	0.024832632
44	0x3c64cc5c	0.013964739
45	0x3a9f12d1	0.0012136345
46	0xbbe24998	-0.0069057457
47	0x3adf6a21	0.0017045179
48	0x3c45b5ce	0.012067271
49	0xbc163dc2	-0.009169998
50	0x3d034489	0.032047782
51	0x3c1f840c	0.009736072
52	0xbcb859ef	-0.022503821
53	0x3ccbb91e	0.024868544
54	0x3c17cdd4	0.009265382
55	0xbcdb6d18	-0.026785418
56	0x3cf2c662	0.029635612
57	0x3c5528ad	0.013010186
58	0x3c231042	0.009952607
59	0x3a6631d2	0.00087812275
60	0x3cc0b746	0.023524892
61	0x3c889112	0.016670737
62	0x3ccb3224	0.024804182
63	0xbc565b7c	-0.013083335
64	0x3c63545b	0.013875092
65	0x3a74f415	0.00093442324
66	0x3cc5617b	0.024094334
67	0x3c67b80f	0.014143004
68	0x3ca4f0d7	0.020134373
69	0x3d278216	0.040895544
70	0x3c2ab9cb	0.010420273
71	0xbc05c416	-0.008164426
72	0x3c55aec9	0.01304216
73	0xbc7dc925	-0.015489851
74	0x3b62dfde	0.0034618299
75	0x3ce9c1c9	0.028534787
76	0x3c49fb43	0.012327972
77	0x3d315123	0.04329027
78	0x39b5b264	0.00034655922
79	0x3cbc79bf	0.023007272
80	0xb9dc909e	-0.00042069418
81	0x3b970e00	0.004609823
82	0x38b054af	8.4081075e-05
83	0xbc4ddd09	-0.012564906
84	0x3bb05c54	0.0053821
85	0xbcb2db38	-0.021833047
86	0x3c52d5c1	0.012868346
87	0x3ccbad6c	0.024862967
88	0x3cb197a4	0.021678753
89	0x3a1a2da6	0.0005881436
90	0xbc0a1727	-0.0084283715
91	0x3c62cba1	0.013842494
92	0xbbdad54e	-0.00667826
93	0xbc951df4	-0.01820276
94	0xbcacdee8	-0.021102384
95	0x3ceb227b	0.028702965
96	0x3caef366	0.021356296
97	0x3ce06dec	0.027396165
98	0xba8ce31b	-0.0010748835
99	0x3c00a334	0.007851411
100	0xbc834785	-0.016025314
101	0x3c83c9ba	0.016087402
102	0xbaeeb9c6	-0.0018213324
103	0x3c91a8cb	0.017780682
104	0x3a087cc6	0.0005206581
105	0xbc7d2632	-0.015451001
106	0x3b9433f2	0.004522794
107	0x3b8cb29e	0.0042937538
108	0xbc6b545d	-0.0143633755
109	0xbbb70d13	-0.0055862754
110	0x3cd4e2e8	0.025987104
111	0x3c3e58b5	0.011617829
112	0xbb1a43df	-0.002353899
113	0x3d2a62ad	0.04159801
114	0xbc98763d	-0.018611068
115	0x3ce01fd4	0.027358927
116	0xbc26355c	-0.010144558
117	0x3b07a616	0.002069836
118	0x3cbd78fa	0.023128975
119	0xbc16c41c	-0.00920203
120	0x3cb0d141	0.021584155
121	0x3ce25899	0.027630137
122	0x3ce3d1b2	0.027809951
123	0xbc8fa4e4	-0.01753468
124	0x3c37ed49	0.011226007
125	0x3cde33c3	0.027124291
126	0x3b21f93b	0.0024715203
127	0x3994173c	0.0002824607
128	0x3cc10442	0.0235616
129	0xbca080a7	-0.019592596
130	0xbb180817	-0.0023198181
131	0xba277246	-0.00063875725
132	0x3c24b295	0.010052343
133	0xbca8ee7e	-0.020621534
134	0x3cbd7203	0.023125654
135	0x3b1ac413	0.0023615404
136	0x3ca9a14f	0.0207068
137	0x3c40998f	0.011755361
138	0xbd0c7aa2	-0.03429664
139	0xbc317ca6	-0.010832941
140	0xbb998c26	-0.0046858964
141	0x3c347774	0.011014808
142	0xbbb6a02b	-0.0055732927
143	0x3cfee0e9	0.031113105
144	0xbb9a1745	-0.004702481
145	0x3c4d9402	0.012547495
146	0x3cada9b9	0.021199094
147	0xbbf45d09	-0.0074573797
148	0xbaf662dc	-0.0018797773
149	0x3ca55bf0	0.02018544
150	0x3b1a0b13	0.0023505136
151	0x3bf20304	0.0073856134
152	0x3c0f1101	0.008732081
153	0xbc8cd37f	-0.017190693
154	0x3cb90b1e	0.022588309
155	0x3c607e5d	0.013702002
156	0xbc63f266	-0.013912773
157	0x3cdccab8	0.026952133
158	0x3d21fbd3	0.0395468
159	0xbc0bee34	-0.008540679
160	0xbc2a468d	-0.010392797
161	0x3cb669d8	0.022267267
162	0x3bae73e5	0.0053238743
163	0x3c8814b7	0.01661144
164	0xbc4d9b26	-0.012549197
165	0x3b9b8b52	0.004746833
166	0xbbecad14	-0.007222781
167	0x3c51fb64	0.012816284
168	0x3c48e193	0.012260812
169	0xbc0861ad	-0.008324069
170	0x3a960e32	0.0011448322
171	0x3cceecb4	0.025259353
172	0x3b634e6e	0.00346842
173	0xbb716675	-0.003683475
174	0x3cd8f8ab	0.026485762
175	0x3b8c404d	0.004280126
176	0xbce09aa5	-0.02741749
177	0x3c984cfe	0.0185914
178	0x39b7c646	0.00035052205
179	0xbc5d471f	-0.013505726
180	0x3d1acc7f	0.03779268
181	0x3c8dec6f	0.017324654
182	0x3c5d7f26	0.013519084
183	0x3cda9b25	0.026685307
184	0x3d0b93dc	0.034076557
185	0x3b5fd0dc	0.003415159
186	0xbc661a13	-0.0140443025
187	0x3c6c02df	0.014404981
188	0x3c775c37	0.015097669
189	0x383855f0	4.3949054e-05
190	0xbc6538a4	-0.013990555
191	0x3cc44b8c	0.023961805
192	0x3c4811a8	0.012211241
193	0x3c29e733	0.010370064
194	0x3cc51a76	0.02406047
195	0x3d1ff146	0.039048456
196	0xbc3890b6	-0.0112649705
197	0xbc8eb5e5	-0.017420718
198	0xbc0441ca	-0.008072326
199	0xbc798f8a	-0.015231976
200	0x3cf9b635	0.03048239
201	0x3c6b8ac6	0.014376348
202	0xbc1d519d	-0.009601978
203	0xbcc5e2df	-0.024156032
204	0x3ca25780	0.019817114
205	0x3bf98cc2	0.0076156566
206	0xbce40ef6	-0.027839165
207	0x3c8af5ca	0.016962904
208	0xbb86e5f5	-0.0041167685
209	0xb7dfc404	-2.6674948e-05
210	0xbcc5bf5d	-0.0241391
211	0x3c9f8571	0.01947281
212	0x3c87c459	0.016573118
213	0xbcef08d6	-0.029179018
214	0xbc6720a2	-0.014106901
215	0x3ca82a67	0.020528032
216	0xbb18285d	-0.0023217418
217	0x3c408edf	0.011752813
218	0x3ccba91a	0.024860907
219	0xbcbf6454	-0.02336327
220	0x3cd4bc9c	0.025968842
221	0xbc60991c	-0.013708379
222	0xbcaa0729	-0.020755367
223	0x3c01fad8	0.007933341
224	0xba0084f8	-0.00049026264
225	0xbcc50997	-0.024052424
226	0x3c9acffa	0.018898
227	0x3c16e193	0.0092090545
228	0xbc818f65	-0.015815446
229	0x3c1e1d55	0.009650548
230	0x3caaf75f	0.020869909
231	0x3c561e16	0.0130686965
232	0xbbff1044	-0.0077839214
233	0x3b8bff6a	0.004272391
234	0x3c5d4f5a	0.013507688
235	0x3af19656	0.0018431644
236	0x3cde0c8c	0.027105592
237	0x3c910f03	0.017707353
238	0x3bca323f	0.0061705406
239	0x3d0ad669	0.033895884
240	0xbb4fc2c3	-0.003170178
241	0x3c85f69d	0.016352946
242	0xbc884475	-0.016634205
243	0x3cb49825	0.022045204
244	0xbcb78d52	-0.022406254
245	0x3c8f1874	0.017467715
246	0xbccea66a	-0.025225837
247	0x3c12134b	0.008915733
248	0x3d046417	0.032322016
249	0x3bb76338	0.0055965446
250	0x3c2438e2	0.010023328
251	0x3cd8db2c	0.026471697
252	0x3cb62e0e	0.022238757
253	0x3b464d70	0.0030258559
254	0xbcb8c31e	-0.022553977
255	0xbb815625	-0.003947037

base.mlp.fc2.0.0.weight f4 [256, 256]
0	0xbd041cd2	-0.032254048
1	0xbe3e5aa2	-0.18589261
2	0xbce56457	-0.028001947
3	0xbe81f0af	-0.2537894
4	0xbd6059ac	-0.054773018
5	0x3df21062	0.11819531
6	0x3cdc5f7f	0.026901005
7	0x3d4fdd57	0.050748195
8	0xbe7fc54d	-0.24977608
9	0x3de8dca5	0.113702096
10	0xbe33f705	-0.17574699
11	0x3e01462b	0.12624423
12	0xbd1301df	-0.035890456
13	0x3da962e2	0.082708135
14	0xbe3f86a6	-0.18703708
15	0xbdc6c3b2	-0.09705295
16	0x3d3c18f8	0.04592225
17	0x3d86708b	0.065644346
18	0xbc61d9f9	-0.013784879
19	0x3c210bb1	0.009829448
20	0x3d333548	0.043751985
21	0xbd4fdcba	-0.05074761
22	0x3e25bf86	0.16186342
23	0x3d1e4096	0.038635813
24	0x3d5e90a4	0.05433716
25	0x3ca73ecd	0.020415688
26	0xbdd37191	-0.103243954
27	0xbdee7509	-0.116434164
28	0xbe06d8be	-0.13168618
29	0xbce65522	-0.028116766
30	0x3b0452fe	0.0020191069
31	0x3cb3299c	0.021870427
32	0xbc29a563	-0.010354373
33	0xbe4ef08e	-0.20208952
34	0xbd927d26	-0.071527764
35	0xbdb8d351	-0.090246804
36	0xbe2e2afe	-0.17008588
37	0x3d39dc98	0.04537639
38	0xbd76a3ad	-0.060214687
39	0xbdde435a	-0.1085269
40	0xbbfdc00b	-0.0077438406
41	0x3e11d33a	0.14240733
42	0xbdcc8bcf	-0.09987604
43	0x3dee8729	0.116468735
44	0xbd07167f	-0.03298044
45	0xbe00a715	-0.12563737
46	0xbd90d16e	-0.070711955
47	0xbd83b304	-0.06430629
48	0xbb3d3cec	-0.0028875424
49	0x3cc460bb	0.023971906
50	0x3c910f09	0.017707365
51	0xbe0a8ca4	-0.13530213
52	0x3e3a83c9	0.18214335
53	0xbd1b31cc	-0.037889287
54	0xbc6fe9a7	-0.014643109
55	0xbc8fb763	-0.0175435
56	0xbd5cc448	-0.053898126
57	0x3d81d6dd	0.0633981
58	0x3d8ea77a	0.06965537
59	0xbddf0144	-0.10888913
60	0xbdb60cbe	-0.08889149
61	0x3caab6b6	0.020839076
62	0xbddb3d8a	-0.10705097
63	0x3b50e724	0.0031876052
64	0x3e2598ee	0.1617162
65	0x3bada085	0.0052986764
66	0x3be4ada7	0.006978709
67	0xbd06a90f	-0.03287607
68	0xbe123b59	-0.14280452
69	0x3da3051d	0.0795996
70	0xbd5786e6	-0.052618884
71	0x3c9843f7	0.018587096
72	0x3c2282da	0.009918893
73	0x3d92ec05	0.071739234
74	0x3dc30a7c	0.09523484
75	0x3da15ad5	0.07878653
76	0x3d1a3a2a	0.037653126
77	0x3e1a5637	0.15071951
78	0xbd163aee	-0.036677293
79	0x3d490dda	0.049085476
80	0x3d76e403	0.060276043
81	0xbd8aae3c	-0.06771514
82	0x3e1349c6	0.14383611
83	0xbd65de5d	-0.056120265
84	0x3e18a308	0.14905941
85	0x3e256ba9	0.1615435
86	0x3d6f149f	0.058369275
87	0xbc79e758	-0.015252911
88	0xbca0965f	-0.019602953
89	0xbe69eb1b	-0.22843592
90	0xbda3ad21	-0.07992006
91	0x3e116ddb	0.14202063
92	0x3e14853c	0.1450395
93	0xbcc58d41	-0.024115207
94	0xbd07814b	-0.033082288
95	0xbe16655d	-0.14687105
96	0x3d17ee39	0.03709242
97	0x3de1b7bd	0.110213734
98	0x3e039364	0.12849194
99	0x3e00b33d	0.12568374
100	0xbd949aad	-0.072560646
101	0xbd93a930	-0.07210004
102	0x3d3622a3	0.044466626
103	0x3da8f731	0.08250273
104	0xbe028816	-0.12747225
105	0xbe151fc3	-0.14562897
106	0x3cdd0e8d	0.026984477
107	0xbc0ea1f1	-0.008705602
108	0x3d986829	0.07441742
109	0xbdcb1db5	-0.099177755
110	0xbc1f32aa	-0.009716669
111	0xbe8d4f8f	-0.2759976
112	0xbc157256	-0.009121498
113	0x3ba8976f	0.0051450054
114	0xbd4170be	-0.04722666
115	0xbe6a0fdc	-0.22857612
116	0xbd9f5897	-0.07780569
117	0x3e0a51c8	0.1350776
118	0x3d87094f	0.06593572
119	0x3bb94daf	0.0056550126
120	0xbcbd70a4	-0.023125
121	0xbdab485c	-0.08363411
122	0xbdd3d659	-0.10343618
123	0xbd3a092c	-0.045418903
124	0x3e37eec0	0.1796217
125	0x3d5b2017	0.0534974
126	0xbddabb85	-0.10680298
127	0xbe74ea27	-0.23917447
128	0x3d8d6777	0.069045
129	0x3e26e5c0	0.1629858
130	0xbcce407a	-0.02517723
131	0x3d651404	0.05592729
132	0xbe115bc9	-0.1419517
133	0x3ccd065d	0.025027448
134	0xba86fb12	-0.0010298213
135	0x3d3dbc75	0.046322305
136	0x3d173ea1	0.036924962
137	0xbdf7de0f	-0.12102901
138	0xbcf0eee5	-0.029410789
139	0xbd82dea8	-0.063901246
140	0xbc652f51	-0.013988332
141	0x3b44a77a	0.003000705
142	0xbd1fbab2	-0.038996406
143	0xba83054d	-0.0009996087
144	0x3dfec064	0.12439039
145	0x3daad23a	0.08340879
146	0xbd97520c	-0.07388696
147	0x3e72300c	0.23651141
148	0x3dceb141	0.10092402
149	0xbd5a6970	-0.05332321
150	0x3d8abd5b	0.06774398
151	0x3db9d0fd	0.090730645
152	0x3d82564d	0.06364117
153	0x3d9c2dbe	0.07625912
154	0xbe3661ec	-0.17810792
155	0x3db303d1	0.08740962
156	0x3d97498d	0.073870756
157	0x3ea29cb9	0.31760195
158	0x3d3aa221	0.045564774
159	0xbdb04407	-0.08606725
160	0xbc024e10	-0.007953182
161	0x3da6186a	0.08110125
162	0xbd15a3e5	-0.036533255
163	0xbcb664a0	-0.022264779
164	0xbdb69a43	-0.08916142
165	0x3ce5369c	0.027980141
166	0xbe64021a	-0.22266427
167	0xbdbf657b	-0.09345528
168	0x3d29b09c	0.041428193
169	0x3d93e875	0.07222072
170	0x3dfcc72f	0.12342679
171	0xbe1c7a9f	-0.15281151
172	0xbd901de3	-0.070369504
173	0x3d81f40d	0.06345377
174	0xbdbb4618	-0.09144229
175	0xbcb72029	-0.022354202
176	0xbd23f53a	-0.04002879
177	0x3cc10b67	0.023565007
178	0xbd99c7f5	-0.07508842
179	0xbd6c8687	-0.057745483
180	0xbcec315b	-0.028832128
181	0xbe0de37e	-0.13856313
182	0xbc4a2ab9	-0.012339287
183	0xbd65061f	-0.05591404
184	0x3d9909cc	0.07472572
185	0xbd243ecd	-0.040098954
186	0x3cbfd814	0.023418464
187	0x3d92f596	0.07175748
188	0xbd532b83	-0.051555168
189	0xbd7b64df	-0.061375495
190	0xbd51df07	-0.051238086
191	0x3d105062	0.03523291
192	0xbdff7cc9	-0.12474973
193	0x3da3fa8b	0.08006772
194	0x3d797116	0.060898863
195	0xbe14f5f0	-0.14546943
196	0x3cec8881	0.028873684
197	0x3d6779e9	0.056512747
198	0x3e3fd021	0.18731739
199	0x3da30d1b	0.07961484
200	0xbe0ab46e	-0.13545391
201	0xbd6f1525	-0.058369774
202	0xbc531991	-0.0128845135
203	0x3df53b53	0.11974206
204	0x3d66defd	0.056365002
205	0xbd10bf22	-0.03533853
206	0x3d85f6f0	0.0654124
207	0x3e137373	0.14399509
208	0xbb1ddf7d	-0.0024089508
209	0x3db822bd	0.08991001
210	0x3cc1edef	0.023673026
211	0xbe3f3061	-0.18670799
212	0xbdbb5037	-0.09146159
213	0xbd1c0a39	-0.038095687
214	0xbd734cd9	-0.05939946
215	0xbe4c8e20	-0.19976091
216	0x3e1a984e	0.15097162
217	0xbd35af19	-0.04435644
218	0xbe30582e	-0.17221138
219	0x3d96d2c8	0.07364422
220	0xbd8c8d0f	-0.06862842
221	0x3db5f7e3	0.08885171
222	0xbde50f78	-0.11184591
223	0xbb92a126	-0.004474777
224	0x3d404630	0.046941936
225	0x3db3ddae	0.087825164
226	0xbce17e0d	-0.027525926
227	0x3d9debb7	0.07710975
228	0x3c462147	0.012092895
229	0xbdf9081e	-0.12159751
230	0xbd0cdcaf	-0.034390148
231	0xbe081d2d	-0.1329238
232	0xbdc896f7	-0.09794419
233	0xbdbb2941	-0.09138728
234	0x3c8df6f2	0.017329667
235	0x3d91152f	0.070841186
236	0xbd0ddd78	-0.034635037
237	0xbd44db34	-0.04806061
238	0x3cbf7752	0.023372326
239	0xbd1a7cc9	-0.03771666
240	0x3d05819b	0.032594305
241	0x3ce04b38	0.027379617
242	0x3e576f87	0.21038638
243	0xbde989b3	-0.11403217
244	0x3d579ca6	0.052639626
245	0xbe29a213	-0.16565733
246	0xbd4fb012	-0.050705023
247	0xbd9b11cd	-0.075717546
248	0x3dbacd0e	0.09121142
249	0xbd88bbe1	-0.0667646
250	0x3e3ba092	0.18322971
251	0x3dbb5818	0.09147662
252	0x3c8c7199	0.017144011
253	0x3e282f5d	0.16424318
254	0x3d3a9de0	0.045560718
255	0xbde473d5	-0.11154906
