models/critic_eviltemp.pt (torch, 610108 bytes, 13 tensors)

base.mlp.layers.0.0.weight f4 [256, 425]
000000 99 83 04 3e fb 65 ed 3d a4 21 53 3d a0 2e ee 3d
       0.12940826 0.11591717 0.051545754 0.11629987
000010 a5 50 37 bf b3 a2 2c 3a b2 c8 cc 3d 27 eb b7 3d
       -0.7160743 0.00065855234 0.09999217 0.089803986
000020 4f f8 42 bc f5 7d ee bc 2b 1f b3 3c 15 f5 31 3d
       -0.011900022 -0.029112795 0.021865448 0.04344662
000030 1e 15 0a 3d 20 d2 54 bd 5c 4a ce bd d5 7d 0c 3e
       0.033711545 -0.051958203 -0.10072777 0.13719876
000040 29 fc 89 bc cd 2c b4 3d db 08 92 3b 9e c6 85 3c
       -0.016843872 0.087976076 0.004456622 0.01633006
000050 24 92 4a 3e 5c f0 9f 3d 6f 15 69 3d 26 44 1a 3e
       0.1978231 0.07809517 0.056905206 0.15065059
000060 85 e7 b2 bd b9 56 6e 3d 5d e1 1c 3e 57 35 a5 3d
       -0.08735565 0.058188174 0.15320344 0.080668144
000070 7d 7a 37 bc 73 3e 82 3d fc 2f b2 3c 7b d1 78 bd
       -0.011198637 0.063595675 0.021751396 -0.06074665
000080 55 ba f2 bd d5 fc 57 3c 77 88 69 bd 92 ad 04 3b
       -0.11851946 0.013182838 -0.05701491 0.0020245058
000090 8b b4 99 3a f2 8f 94 3d dd 5f 37 3d d7 b0 54 bd
       0.001172678 0.07254018 0.044769157 -0.05192646
0000a0 dd f7 03 3c 12 38 1f bd 52 80 19 3c 9f 3f 97 3d
       0.008054701 -0.038871832 0.009368973 0.07385182
0000b0 51 a3 22 3d f4 1a 0a 3d 60 3f 93 3c 24 d6 1a bd
       0.039706532 0.03371711 0.017974555 -0.037801877
0000c0 01 f6 b1 3c 08 60 13 3d 9d 49 ab bd 00 64 29 3d
       0.02172375 0.035980254 -0.0836365 0.041355133
0000d0 85 d7 8b 3c 3e 8e 61 3e 46 07 4d 3d 66 3a aa bc
       0.017070541 0.22026917 0.050055765 -0.0207798
0000e0 69 77 a5 bd 1a 5b dc be 00 9b b2 3c f0 cb 96 3d
       -0.08079416 -0.43038255 0.021802425 0.07363117
0000f0 73 2d 84 3d 4e 09 0e 3d 72 48 a9 bd de 17 15 bd
       0.06453981 0.034676842 -0.08265771 -0.036399715
000100 69 4d 33 3e 14 cf 5a 3d fd 73 54 3d 4b 57 5e 3d
       0.17509998 0.05342014 0.051868428 0.054282468
000110 bc 9d db 3d bf fa 1b bc f8 f8 31 3c a6 8d 7c bd
       0.10723445 -0.009520232 0.010862581 -0.061658524
000120 21 90 d5 bc 24 96 37 3d 64 d3 6d 3e 54 9a 58 3d
       -0.026069703 0.04482092 0.2322517 0.052881554
000130 45 4f 7c be ce c9 70 3e ef 7c b1 bd cb c5 59 3e
       -0.24639614 0.23514482 -0.08666407 0.21266858
000140 6d 29 78 bd 1f a1 71 bd 02 3f c1 bc 44 98 fa 3c
       -0.06058638 -0.058991548 -0.023589615 0.030590184
000150 91 b3 95 3d 8d 5a da bd 2d e6 2b be ea 10 d5 3d
       0.0730964 -0.106618024 -0.16787024 0.10403617
000160 82 f9 0f 3e 94 5f b0 bd e8 14 e6 3c b4 44 93 bd
       0.14060023 -0.0861198 0.02808614 -0.071908385
000170 d0 43 d8 3b 94 57 ed 3d 68 5a 0d 3d fe 9c 7b be
       0.0065998808 0.1158897 0.034510046 -0.24571607
000180 f3 0a 33 be d4 b9 17 bf 56 dc 2c bc 94 ef 38 3e
       -0.17484646 -0.59267926 -0.010550579 0.18060142
000190 98 61 b3 3c d2 53 85 3d 06 86 d6 3c 4e 05 2e 3d
       0.021897122 0.06510128 0.026186954 0.042485528
0001a0 9c b8 90 3c 01 a0 49 3e 35 8e 49 be 8f 7c d8 bd
       0.017666154 0.19689943 -0.19683154 -0.10570633
0001b0 f1 f3 49 be 5e d0 f3 3d 8d 8e 74 3e 21 e0 4e be
       -0.19721963 0.11904977 0.23882504 -0.20202686
0001c0 a4 e1 c4 bd 5a a4 1b 3e c4 f9 fe 3c 82 4d 9a 39
       -0.0961335 0.15199414 0.031124957 0.00029430917
0001d0 11 50 ad 3d a1 a3 34 3c 2d b9 09 3d 89 3f cf bb
       0.08462537 0.01102534 0.033623863 -0.0063247127
0001e0 09 16 4e 3e 15 96 7b bd 2f 60 ea bd 54 f1 06 be
       0.20125593 -0.061422426 -0.11444127 -0.13177997
0001f0 fb f6 87 be 0a d8 0c 3e d5 91 2c bb 66 20 18 be
       -0.2655562 0.13754287 -0.002633204 -0.14856109
000200 d8 2a db bd 3e 38 0b 3e d2 41 bf 3d b0 20 8f 3d
       -0.10701531 0.13595673 0.09338726 0.069886565
000210 7b 7d 9e 3d 1e 65 bb 3c df 6f 81 3d 62 cb 72 bd
       0.07738777 0.022875365 0.06320166 -0.059275992
000220 5f 44 f7 bc 76 f7 61 be 4f b1 cf be 4e 60 74 be
       -0.030183969 -0.22067055 -0.40564963 -0.23864862
000230 e4 62 b6 bd 18 36 41 3d 2e 6b 91 3d 98 e1 08 3e
       -0.08905581 0.04717073 0.07100521 0.13367307
000240 8a 91 4a 3d c5 cd 0c 3e bd 97 d5 3d f8 53 13 3e
       0.049455203 0.1375037 0.104293324 0.143875
000250 0c 32 fb bb ce f7 59 3d 11 47 ec 3d b2 5d a3 3d
       -0.007665878 0.05321484 0.11536992 0.07976855
000260 80 f5 df 3c 69 5a ae bd 48 23 6c be b5 6b fe bc
       0.027338743 -0.08513338 -0.23060334 -0.031057218
000270 76 2b dd be 9d 93 25 3e cc 19 95 b9 56 19 da 3b
       -0.4319722 0.16169591 -0.00028438715 0.0066558523
000280 8d 5b ae 3c 97 6f 2b bc e8 e6 36 3e 4d a7 0b bd
       0.02128389 -0.010463617 0.17861521 -0.034095097
000290 33 f0 a6 bb 84 a0 a9 bd 51 fa ad bc bf 91 e9 3d
       -0.005094552 -0.08282569 -0.021237524 0.11404752
0002a0 0a 40 11 be d9 91 e0 bc 9c cf a9 3e 67 18 91 3d
       -0.14184585 -0.027413296 0.33166206 0.070847325
0002b0 3f 48 b1 3c 75 3a 59 bd f5 f9 81 bd 87 cd 11 be
       0.021640895 -0.053034265 -0.06346504 -0.14238559
0002c0 a5 6f 61 3e 10 d0 bf bd 0b e8 39 be 14 69 a4 be
       0.22015245 -0.09365857 -0.18154924 -0.32111418
0002d0 32 41 36 bf f6 12 a8 3d ae 34 f1 bd a0 9f 8f bc
       -0.7119323 0.082067415 -0.11777626 -0.01753217
0002e0 25 7c c5 3d 2b b6 01 be 16 64 b4 3d c8 0c 9d 3e
       0.09642819 -0.12667148 0.088081524 0.30673814
0002f0 49 88 84 be 71 eb 1f 3e 83 aa 80 be 76 42 57 bf
       -0.25885227 0.15617158 -0.2513009 -0.84085786
000300 50 bd 75 3e 52 56 13 3e 33 7d 8b be 57 bf 58 be
       0.23997998 0.14388397 -0.27243957 -0.2116674
000310 df 71 a0 3c a9 b9 00 3c 1c 65 79 3a c9 5f 71 bd
       0.019585548 0.007856765 0.00095136627 -0.05892924
000320 19 08 c5 3b 6f fb be 3d 16 23 5c 3e 62 45 bc 3d
       0.006012928 0.09325301 0.21497759 0.09192921
000330 4b 48 ad 3e b2 99 1b bf 06 b1 ab be 80 3c 15 bf
       0.33844218 -0.60781395 -0.33533496 -0.5829544
000340 73 f8 69 3d f5 94 f8 bd 1a 85 cf bd a4 6f 44 bd
       0.057121705 -0.12137786 -0.10132809 -0.04795803
000350 be 72 83 3c 3a a2 c5 3d 55 9b 70 3d 52 4b f2 3d
       0.016045924 0.09650083 0.058741886 0.118307725
000360 cc ee 9b 3e fb f9 b7 3e d5 13 64 be c2 b4 3d 3e
       0.30455625 0.35932907 -0.2227319 0.18525985
000370 bd de bb be 30 d3 23 bf 6e ce f5 be 13 bd ee be
       -0.36693373 -0.6399412 -0.48009056 -0.46628627
000380 f4 a2 a4 bd c4 71 85 bd db a1 33 bd a8 a4 50 be
       -0.08038893 -0.0651584 -0.04385553 -0.20375311
000390 07 00 03 be 19 fe cc bc a2 cf 95 3d 79 68 87 be
       -0.12792979 -0.025023507 0.073149934 -0.26446894
0003a0 65 60 bf bd 0d 71 ac bd bb 8c e5 bd f7 3e 07 bf
       -0.09344558 -0.0842 -0.11208483 -0.5283045
0003b0 b6 5f d1 bd 8a 20 48 bf 74 a8 41 be f8 45 84 be
       -0.102233335 -0.7817465 -0.18911916 -0.25834632
0003c0 c5 6a 5a 3e 33 48 4d 3d 78 c6 a6 3d c0 d1 d1 3d
       0.21329792 0.050117683 0.08143324 0.10245085
0003d0 d9 e6 62 be 75 04 12 3f e5 f5 e2 3d b0 54 bf b9
       -0.22158374 0.5703805 0.11082057 -0.00036493456
0003e0 7a ea b4 3d 7d ed 44 bd 49 a1 84 3e 40 d2 08 bf
       0.08833785 -0.04807805 0.259043 -0.53445816
0003f0 f2 99 0d bd 61 a2 b9 bd 96 6d 39 3d 58 d5 6c bd
       -0.03457064 -0.090641744 0.045270525 -0.057820648

base.mlp.layers.0.0.bias f4 [256]
000000 dd 0b ad 3b d8 2b f7 bd 71 15 31 3a bd 4d 2c bd
       0.005280955 -0.120689094 0.0006755209 -0.042066325
000010 95 e8 5e bc f1 75 47 3a 69 87 c0 bb f0 3c 69 bd
       -0.013605257 0.0007608822 -0.005875517 -0.05694288
000020 39 93 eb bb e4 66 ad ba be fe 5f 3c ed b4 4a 3d
       -0.007189181 -0.0013229516 0.013671575 0.04948895
000030 a8 38 78 bd 3a 80 62 3d d6 36 40 bc 59 5c 94 3d
       -0.060600907 0.055298068 -0.011731824 0.072441764
000040 b9 09 b5 bc 4c 65 49 3c 55 54 22 3d 7c e4 e3 bd
       -0.022099363 0.012292217 0.039631207 -0.11127564
000050 8d 18 9b 3c bd 7c 05 3d 14 f6 ba bc 63 aa a0 bc
       0.018932605 0.032589663 -0.022822417 -0.019612497
000060 4b 07 09 bc 3b f6 f4 bc bc 57 4e 3d a4 bc 7a bd
       -0.008363555 -0.029902568 0.05037664 -0.061215058
000070 e6 49 ef bb 19 e8 58 bd 4c f3 21 bd 83 4e 49 3d
       -0.0073025106 -0.05295572 -0.039538667 0.04914714
000080 70 4f 36 bd a7 0d 05 bd fe 13 f0 3c 9e 19 26 ba
       -0.04450935 -0.032483723 0.029306408 -0.0006336215
000090 ce fe 8b bd 75 40 08 3d 52 6c 55 bc fd 01 0c 3d
       -0.068357095 0.033264596 -0.013026314 0.034181584
0000a0 66 e9 da 3b 59 57 6e 3d 5e 71 57 bd 22 40 8b bd
       0.0066806553 0.05818877 -0.05259835 -0.06799342
0000b0 a7 fe 8a bb d1 28 c1 bd e5 06 9b 3d cf f4 97 bb
       -0.0042417827 -0.09431613 0.075696744 -0.0046373378
0000c0 f5 85 0e 3d 49 02 8a bc 5c 4a 90 bd 98 ff 20 3d
       0.03479572 -0.016846793 -0.07045433 0.039306253
0000d0 b5 31 b4 bd a2 dc 45 bc e7 a3 68 3b 88 89 39 bd
       -0.08798543 -0.012076529 0.0035498084 -0.045297176
0000e0 42 d4 31 bd 62 21 89 bd 8c 26 2a bd 23 15 90 bd
       -0.043415315 -0.066958204 -0.041540667 -0.070352815
0000f0 8c 4e 92 3c f9 4c 8e bd 88 c5 c3 bd 82 c0 7c bd
       0.01785972 -0.06948275 -0.095591605 -0.061707027
000100 f4 dc 0b 3d 1e 04 b2 bc f1 e7 26 bd 6c ee 20 3b
       0.034146264 -0.021730479 -0.04074854 0.0024556173
000110 e0 91 55 3c a6 32 b3 bc 67 53 00 bd ad 57 52 3d
       0.013035268 -0.021874737 -0.03132954 0.051353145
000120 16 24 06 bd d2 89 99 bc 84 9e 22 3d 44 3a 08 3d
       -0.032749258 -0.018742476 0.039701954 0.03325869
000130 7d 3d 60 bd ab 3b bd 3d 3a 28 24 bb d5 b7 c1 bd
       -0.05474614 0.092398964 -0.002504839 -0.09458891
000140 26 75 23 bd 1a 3c 63 bd b8 e7 42 bc 8f 4c c5 bc
       -0.039906643 -0.05547724 -0.011896066 -0.024084358
000150 4a 3e 32 3c 29 ef aa 3d a9 3b a3 bb 86 40 cf bc
       0.010879109 0.083463974 -0.0049814773 -0.025299322
000160 70 ee 51 bd 38 1a 9a 3d 1d db 08 3d bb d2 d4 3c
       -0.051252782 0.07524532 0.033412088 0.02597939
000170 a5 e8 84 3d 15 ca da bc 83 82 41 bc 42 09 54 3d
       0.06489686 -0.026707688 -0.011810902 0.05176664
000180 bf ce 9a bc 29 d1 ad 3d f0 fc 58 3b f7 ed 19 3d
       -0.018897412 0.0848716 0.0033109747 0.037580457
000190 c8 1c d4 3c b2 42 42 bc 7e 81 bd bc ef 9a 8d bd
       0.02589263 -0.011856722 -0.023133036 -0.06914317
0001a0 5d 19 0e bc 7f bf 71 bd be 26 03 bd c8 a3 0e 3d
       -0.008673039 -0.059020516 -0.03201937 0.034824163
0001b0 35 9f bf bd 89 40 f2 3d f4 7f df bd e6 2f 3e 3c
       -0.09356538 0.11828715 -0.10913077 0.0116081
0001c0 fa f3 ba bd 37 a6 81 3c d1 11 fe 3c 32 e0 a6 bd
       -0.09128566 0.015826328 0.031014355 -0.081482306
0001d0 0b 4c c7 bc de b6 4d bd b4 f3 af 3c 05 b2 0f 3e
       -0.024328252 -0.050223224 0.021478511 0.14032753
0001e0 2a 23 80 3c d0 d2 20 3d 3b 56 4f bd 0c c2 73 bc
       0.015641768 0.039263546 -0.050619345 -0.014877807
0001f0 2b 3b 94 bd a3 a1 ad 3c 5c 2a 06 3b 29 56 02 bc
       -0.07237848 0.021195238 0.0020472025 -0.0079551125
000200 60 7f 1c bd c6 9f 6d 3d a6 07 fa bc 66 97 e5 3d
       -0.03820741 0.0580137 -0.030521225 0.112105176
000210 47 18 54 3d 26 cb 98 3c 24 06 04 3d 7b c7 c3 bd
       0.051780965 0.018651556 0.03223242 -0.09559532
000220 cd b8 6a bc 0a 0a 0d bd ff 07 f0 bd 4e f9 1d 3d
       -0.0143262865 -0.034433402 -0.11720275 0.038567834
000230 e3 ee cf bd af 30 6a bc d0 55 9a bc 83 1c 96 bc
       -0.10152986 -0.014293834 -0.018839747 -0.018324142
000240 ff ef b6 bc 32 c6 51 bd 97 86 cc 3c 6c eb c7 bc
       -0.022331236 -0.051214404 0.024966521 -0.02440425
000250 a1 fb 3f bd 37 70 02 be 1b 81 8c 3c c9 94 04 3c
       -0.04687083 -0.12738119 0.017151406 0.008092114
000260 24 6c 42 3d eb 57 03 bd 39 c7 68 bd 3e b1 fa bd
       0.047466412 -0.032066267 -0.05683062 -0.122408375
000270 84 a6 cb 3b b0 6d 14 3d 2b a4 7f bd f3 0b 0c 3c
       0.0062149186 0.03623742 -0.062412422 0.008547771
000280 11 0f 8f 3d 6d ee 54 bb 70 d4 09 bd d4 a6 93 3d
       0.069852956 -0.0032490746 -0.03364986 0.07209554
000290 89 26 0b 3c c2 a0 f5 bc 9b bb f3 b7 a4 6d cb 3d
       0.008493074 -0.029983882 -2.9055218e-05 0.09933022
0002a0 a1 13 57 bb 84 ff 98 3d 43 02 02 3e c3 ae 1f 3d
       -0.0032818096 0.07470611 0.12696175 0.038985025
0002b0 dc 13 f7 3c 62 8a 25 bb fa 9a 57 bd 64 8d 5b b8
       0.030160837 -0.0025259485 -0.05263803 -5.234535e-05
0002c0 d0 c8 9b 3d 37 1a 9e 3c 90 16 13 bc 37 91 c4 bc
       0.07606661 0.01929961 -0.008977547 -0.023995025
0002d0 89 df 5c bd 59 5b 9b 3c b8 0e ea bc ff 57 a1 bd
       -0.053924117 0.018964456 -0.028571472 -0.07878112
0002e0 43 ed 85 bc 3a e9 aa bd 6a 49 91 bc c4 e1 04 bd
       -0.016348487 -0.08345266 -0.017735202 -0.03244187
0002f0 3d e1 09 3c 5d 39 14 bd 0b 9d 6c bd 33 5c 99 3d
       0.008415517 -0.03618752 -0.057766955 0.07488289
000300 11 ca 69 bd 01 58 62 bd de a0 cf bc 75 30 b2 bd
       -0.05707747 -0.05525971 -0.025345262 -0.08700649
000310 71 f1 8e bc 8d 22 b7 3d 3c c7 14 bd d1 98 09 bd
       -0.017449113 0.08942137 -0.036322817 -0.033593003
000320 5c 1a c7 3d 77 c5 da 3c ea 20 94 bd b8 7a 8a 3d
       0.097218245 0.026705487 -0.0723284 0.06761688
000330 75 ee dc bd c1 04 7b bb 62 7f 14 bd ec e9 ad bd
       -0.107876696 -0.0038302394 -0.036254294 -0.08491883
000340 2b 28 53 bd 5f 3a 07 3e bf de 8b 3c 0d 7a b6 3d
       -0.05155198 0.1320586 0.017073987 0.08909998
000350 49 dd af bc 68 66 a1 bd 66 c4 fd 3c 81 03 b4 bd
       -0.021467822 -0.078808606 0.03097744 -0.08789731
000360 5c 1c ad bd 93 1e ef 3d e7 98 4b 3d 09 4f 39 bd
       -0.08452675 0.116757534 0.049706366 -0.04524139
000370 9d 54 16 bd dd 11 f2 3c 76 30 a8 bc 87 98 54 3d
       -0.036701787 0.029549534 -0.02053092 0.051903274
000380 54 a4 ec 3c fe 67 d2 bd bd 4a ee bd 63 61 8d bd
       0.028886952 -0.10273741 -0.11635349 -0.06903341
000390 5e 4a cc bc af 44 c5 bd fd 47 0a 3d 9e a6 8d 3d
       -0.024937805 -0.09632241 0.03376006 0.06916545
0003a0 4c 99 c6 3d 6b ee 85 3d 0e 15 92 bd 75 d5 b1 bd
       0.09697208 0.06539615 -0.07132922 -0.08683292
0003b0 6e 0b c4 bc 4c aa a6 3d a9 4c 16 3d b9 a2 ce bc
       -0.023931231 0.0813795 0.036694203 -0.025224077
0003c0 4d b5 7d bd 67 4d 33 bd e8 98 aa bd 9e c5 06 bd
       -0.06194048 -0.04377499 -0.08329946 -0.032903306
0003d0 1e da 57 3d e6 25 33 bd ed 09 64 bd 02 0c 45 bd
       0.052698247 -0.043737315 -0.05567353 -0.048107155
0003e0 21 97 40 3d d3 09 29 bd f4 32 7a bd 8f c8 63 bc
       0.047019128 -0.041269135 -0.06108375 -0.013902797
0003f0 49 2b 2f bc 03 31 23 3c dc 8f 8b 3c d4 c4 87 bc
       -0.010691472 0.009960416 0.017036371 -0.016573347

base.mlp.layers.0.2.weight f4 [256]
000000 14 0c 89 3f 25 23 87 3f 5e c9 76 3f 28 74 8f 3f
       1.0706811 1.05576 0.9640101 1.1207323
000010 c1 13 7a 3f 98 06 6c 3f 05 e3 75 3f 69 6a 83 3f
       0.9768639 0.9219756 0.9604953 1.0266849
000020 05 fe 84 3f fa a2 92 3f 23 2a 8c 3f b2 be 80 3f
       1.0390021 1.1455986 1.0950359 1.0058196
000030 9d d8 80 3f 71 23 71 3f 87 71 7e 3f 9b dd 83 3f
       1.0066105 0.94194704 0.9939198 1.0302004
000040 46 f1 81 3f 53 8d 80 3f 63 fb 78 3f a6 0e 84 3f
       1.0151756 1.0043129 0.97258586 1.031697
000050 8f 37 84 3f 53 5c 7e 3f 9b 2d 87 3f 78 04 7f 3f
       1.0329455 0.99359626 1.0560793 0.99616194
000060 20 b0 87 3f 69 f1 85 3f 31 be 81 3f ed f8 84 3f
       1.0600624 1.0464298 1.0136167 1.0388466
000070 17 84 80 3f d4 69 71 3f a6 52 83 3f 3d 8f 88 3f
       1.0040311 0.94302106 1.0259597 1.0668713
000080 89 f3 7e 3f ae 9b 81 3f 9c af 88 3f 24 07 74 3f
       0.99590355 1.0125635 1.0678592 0.95323396
000090 5e 37 8c 3f e8 97 6c 3f 80 15 7f 3f d1 0b 80 3f
       1.0954397 0.9241929 0.9964218 1.0003606
0000a0 0d 5e 89 3f bb 2b 79 3f 87 bb 77 3f ef 87 87 3f
       1.0731827 0.9733235 0.9677052 1.0588359
0000b0 6b 00 6f 3f ae 97 79 3f 52 f9 69 3f 5e e7 80 3f
       0.9336001 0.9749707 0.9139606 1.0070608
0000c0 7b e3 7d 3f 11 2e 82 3f 43 14 66 3f e1 d2 83 3f
       0.9917523 1.0170308 0.89874667 1.029873
0000d0 8d b7 86 3f 33 8c 89 3f 24 03 8c 3f 49 78 85 3f
       1.0524765 1.074591 1.0938458 1.0427333
0000e0 04 5a 82 3f 43 34 8c 3f b7 f4 81 3f 62 b4 75 3f
       1.018372 1.0953449 1.0152806 0.9597837
0000f0 17 fa 7b 3f 76 fa 8c 3f e3 b5 56 3f a8 fd 8b 3f
       0.9842848 1.1013935 0.8387129 1.0936785
000100 04 f0 82 3f a6 24 7f 3f da 65 8a 3f 34 9e 81 3f
       1.0229497 0.99665296 1.0812333 1.0126405
000110 26 b2 84 3f c8 54 88 3f a3 e2 82 3f 4c 65 87 3f
       1.0366867 1.0650873 1.0225414 1.0577788
000120 57 2c 8a 3f a9 e6 8b 3f 43 47 63 3f 58 ff 6e 3f
       1.0794781 1.0929767 0.8878061 0.93358374
000130 9c 79 84 3f 5f 0e 8f 3f 58 b6 79 3f da 46 73 3f
       1.0349612 1.1176261 0.9754386 0.95029986
000140 a7 14 6c 3f 13 af 8f 3f 06 5d 87 3f 33 6d 8e 3f
       0.9221901 1.1225303 1.0575264 1.1127075
000150 39 ba 7b 3f 63 c6 82 3f 66 8b 80 3f 8d 82 87 3f
       0.9833103 1.0216793 1.0042541 1.0586716
000160 f9 48 86 3f b5 75 87 3f 2d 07 80 3f b8 54 7b 3f
       1.049102 1.0582796 1.000219 0.98176146
000170 d5 68 97 3f e6 6a 7b 3f 90 b0 68 3f 31 23 86 3f
       1.1828867 0.9820999 0.90894413 1.047949
000180 ea b0 7f 3f 12 96 7f 3f 3c ac 8a 3f 19 61 7c 3f
       0.99879324 0.99838364 1.0833812 0.9858566
000190 80 0d 88 3f 6a 76 82 3f 53 bd 72 3f e4 7c 89 3f
       1.062912 1.0192387 0.94820136 1.0741239
0001a0 c4 07 85 3f 64 2d 8c 3f 2c 50 92 3f ab 79 7a 3f
       1.0392995 1.0951352 1.1430717 0.978419
0001b0 f3 03 76 3f b9 3b 8e 3f a6 fe 82 3f 2c a7 82 3f
       0.96099776 1.1111976 1.0233963 1.0207267
0001c0 b0 b6 80 3f 7a 40 84 3f 0c 0a 8a 3f 7b 21 80 3f
       1.0055752 1.0332177 1.0784316 1.0010217
0001d0 91 8f 8a 3f 00 43 7f 3f a9 b7 7b 3f cd 1a 8c 3f
       1.0825063 0.9971161 0.9832712 1.0945679
0001e0 02 b6 7d 3f ba 52 81 3f a3 de 64 3f 71 3a 91 3f
       0.99105847 1.0103371 0.89402217 1.134596
0001f0 d4 49 7d 3f 8d c8 8a 3f 32 09 7e 3f bf 4c 8f 3f
       0.9894078 1.0842453 0.9923278 1.1195296
000200 66 08 86 3f 2d 33 8d 3f 0f 6a 82 3f 4a 7e 8b 3f
       1.0471313 1.1031243 1.0188617 1.0897915
000210 03 22 7e 3f 86 2a 62 3f ff 87 81 3f 4e af 7e 3f
       0.9927065 0.88346136 1.0119628 0.99486244
000220 c1 3f 8e 3f da 72 88 3f 98 a5 71 3f dc 86 7f 3f
       1.1113206 1.066005 0.943933 0.99815154
000230 4e ae 7f 3f 71 bd 84 3f da 50 85 3f a6 f5 80 3f
       0.9987534 1.0370313 1.0415299 1.0074966
000240 43 a8 88 3f 4e 9a 87 3f e5 6a 8d 3f 4b f2 75 3f
       1.0676349 1.0593965 1.1048247 0.96072835
000250 ee a3 85 3f ee 72 82 3f f5 c1 8d 3f e7 0d 85 3f
       1.0440652 1.0191324 1.1074816 1.0394868
000260 f2 c3 80 3f d9 97 80 3f 16 7c 81 3f cc bc 93 3f
       1.0059798 1.004634 1.0115993 1.1541991
000270 67 c5 86 3f 75 a2 6f 3f ee e9 88 3f 1c d0 7b 3f
       1.0528992 0.93607265 1.069639 0.98364425
000280 92 92 78 3f d0 2c 83 3f 45 b3 88 3f a7 51 7b 3f
       0.9709865 1.0248051 1.0679709 0.98171467
000290 57 61 84 3f 65 f0 85 3f 8b 69 78 3f 9f f6 88 3f
       1.0342206 1.0463988 0.97036046 1.0700263
0002a0 ef ef 89 3f 15 0c 88 3f 5d d3 8a 3f 40 10 82 3f
       1.0776347 1.0628687 1.0845753 1.0161209
0002b0 dc 71 86 3f 8c 58 82 3f 9e 1c 89 3f be 85 82 3f
       1.0503497 1.0183272 1.0711858 1.0197065
0002c0 91 45 82 3f 63 79 81 3f 74 c4 85 3f b3 25 82 3f
       1.017748 1.0115169 1.0450578 1.0167755
0002d0 51 a8 8a 3f da c2 89 3f 52 11 87 3f a6 49 86 3f
       1.0832616 1.0762589 1.0552161 1.0491226
0002e0 9e 14 85 3f f6 d9 86 3f cb 0b 89 3f c5 e8 84 3f
       1.0396917 1.0535266 1.0706724 1.0383536
0002f0 22 9f 90 3f 10 58 81 3f 9f b5 81 3f e6 c4 8b 3f
       1.1298563 1.0105 1.0133551 1.0919464
000300 a5 87 77 3f e7 aa 87 3f 0a 42 72 3f ba 22 7c 3f
       0.9669135 1.059903 0.9463202 0.9849049
000310 0c b6 88 3f 41 4b 81 3f 8c d4 8b 3f 3a 41 70 3f
       1.0680556 1.0101091 1.0924239 0.9384953
000320 3a 68 76 3f 6d 35 85 3f 61 51 88 3f 8c b3 87 3f
       0.9625279 1.0406929 1.0649835 1.0601668
000330 db 41 8e 3f a2 64 86 3f a9 04 8c 3f 24 e2 89 3f
       1.1113847 1.0499461 1.0938922 1.0772138
000340 99 4b 80 3f 33 b8 90 3f 8f 87 97 3f c8 54 67 3f
       1.002307 1.1306213 1.1838244 0.9036374
000350 87 ff 86 3f 77 06 68 3f 36 5d 85 3f 5a 85 8a 3f
       1.0546731 0.90634865 1.0419071 1.0821946
000360 62 1f 86 3f 38 6a 8b 3f 11 c3 86 3f a5 c4 81 3f
       1.0478327 1.089179 1.052828 1.0138136
000370 2c 9a 6d 3f 0b e1 76 3f 0e ac 85 3f 9d 7f 7f 3f
       0.9281337 0.9643714 1.0443132 0.998041
000380 fc e1 8f 3f 64 72 88 3f c5 7c 97 3f d4 f1 82 3f
       1.124084 1.0659909 1.1834952 1.023005
000390 aa cc 95 3f 0e f0 6a 3f fe bb 82 3f e1 e2 80 3f
       1.1703084 0.91772544 1.0213621 1.0069238
0003a0 3f 47 82 3f 36 f2 7e 3f 75 49 6f 3f e8 4c 81 3f
       1.0177993 0.99588335 0.9347146 1.0101595
0003b0 ae 1c 88 3f f5 a9 83 3f c5 f2 82 3f fe 0c 80 3f
       1.0633752 1.0286242 1.0230337 1.0003965
0003c0 eb 31 83 3f 47 2d 85 3f 85 2a 7e 3f 1d 0f 83 3f
       1.0249609 1.0404443 0.9928363 1.0238987
0003d0 a0 7a 6f 3f 19 ae 82 3f 70 79 73 3f a3 ee 81 3f
       0.93546486 1.020938 0.95107174 1.0150951
0003e0 1b d3 6b 3f a7 90 69 3f 03 5a 87 3f 0d 1b 87 3f
       0.92118996 0.91236347 1.0574344 1.055513
0003f0 ce f4 8c 3f be 75 74 3f c4 eb 82 3f a1 49 80 3f
       1.1012208 0.9549216 1.02282 1.002247

base.mlp.layers.0.2.bias f4 [256]
000000 49 e0 f9 3c b1 7d b1 bb 47 0b 77 3c e1 ca 6e bd
       0.030502455 -0.005416595 0.015078372 -0.05829895
000010 ce c3 b7 ba 9c bf 68 3d 99 cd a7 3d fa 93 0c bd
       -0.0014020146 0.056823358 0.081935115 -0.03432081
000020 2d 3b fa bb a1 1c 72 bc 03 a1 d7 3c a3 76 11 3d
       -0.007636449 -0.0147773335 0.026321894 0.03551353
000030 61 c9 64 3d 4c 75 8b 3d d9 7a c8 3c 65 74 52 3d
       0.055856112 0.06809482 0.02447264 0.051380534
000040 4f e6 3f bc 52 2b 37 bb 72 12 6e 3d 96 94 23 bd
       -0.011712625 -0.0027949405 0.05812306 -0.039936624
000050 1a e0 41 bc 2f cb 8b 3c 77 39 a3 bc f1 2a d3 3c
       -0.011833215 0.017064659 -0.019924862 0.025777312
000060 71 ef 8a bc f8 79 3c bd e4 38 d3 3c 0e eb e0 3c
       -0.016959878 -0.046014756 0.025783964 0.027455833
000070 43 f2 71 3d 76 68 4d bb 3b 2e d5 ba 10 2f 03 3e
       0.05906893 -0.003134278 -0.0016264388 0.12810922
000080 6d c3 22 3d 80 22 51 bc ee e8 30 bc ad 20 1e bc
       0.039737154 -0.012764573 -0.010797722 -0.009651345
000090 fa c7 51 bd e8 94 f4 3c 83 df b3 3c 86 f8 00 3e
       -0.051216103 0.02985616 0.021957165 0.12594804
0000a0 4f dc 03 bd 02 fa e0 3d ee d0 39 3d 86 d4 65 3d
       -0.032192525 0.10985185 0.045365267 0.05611088
0000b0 52 02 18 3d 94 18 bd 3b 10 c2 7f 3d 07 42 34 3a
       0.037111588 0.005770752 0.06244093 0.0006876294
0000c0 72 be 35 3d 1b b4 7e bd 81 01 a6 3d 9b 52 48 3c
       0.044371076 -0.06218348 0.081057556 0.012226726
0000d0 47 b6 58 bd 67 94 f1 3c 16 b5 18 3c e5 dc 6d bc
       -0.05290821 0.029489709 0.009320518 -0.014517997
0000e0 b3 d4 8a 3d e5 93 10 3b f0 b3 f9 3c 40 62 8d bc
       0.067788504 0.0022060808 0.030481309 -0.017258763
0000f0 2e 94 39 3d c1 52 c9 bb a8 20 c7 3d b5 0c 15 bd
       0.04530733 -0.0061438982 0.097230256 -0.03638907
000100 90 4c 73 3c fb 4b 32 b9 56 bb 41 3c e4 3d 10 3d
       0.014849797 -0.00017003708 0.0118244495 0.035215273
000110 56 f5 16 3d e2 0a 6e 3d 28 95 22 3c 11 d9 6d 3d
       0.036855064 0.058115847 0.009923257 0.05806834
000120 3c 09 62 bc c6 cd e1 bb ef 38 5b 3d 2e 69 58 3d
       -0.013796147 -0.006890985 0.053521093 0.052834682
000130 13 03 14 ba e2 36 4f 3d 1f 98 f5 b9 2b e7 37 3d
       -0.000564621 0.05058945 -0.0004684338 0.044898193
000140 17 fc 85 3d a9 12 8f bd d5 61 60 3c 30 72 17 bc
       0.06542223 -0.06985981 0.0136952 -0.009243533
000150 cd 39 0f 3d 38 3b 07 3d 34 56 b4 3c bc f3 2e 3c
       0.034967232 0.03301546 0.022013761 0.010678228
000160 21 b7 a8 3c 79 04 bb 3d 9a 59 48 3c 71 39 a3 3d
       0.020595135 0.091317125 0.012228394 0.079699405
000170 30 15 dc 3d 46 ce 66 3c 38 46 b5 3d ac 83 29 3e
       0.10746229 0.014087265 0.08851284 0.16554135
000180 92 7d b8 3b c5 13 8c 3d 73 16 b8 bb 8f ac c9 3c
       0.0056302035 0.06839708 -0.0056179105 0.024618415
000190 12 f9 33 3d 04 8a 0e 3d 4a 9b d6 3c 0c 3d 32 bc
       0.043938704 0.03479959 0.026197094 -0.0108788125
0001a0 3f 76 3b bd cd a3 62 bc 64 19 da 3b c8 f7 f3 3c
       -0.045767065 -0.013832998 0.006655859 0.029781237
0001b0 86 43 f3 3c ad 6e 90 3d 2c c1 99 bc 45 71 a7 3c
       0.029695284 0.0705236 -0.01876887 0.020439753
0001c0 03 6d 05 bc 41 cc e9 bc 05 71 f4 3c 00 9b e4 3c
       -0.008143666 -0.028539779 0.029839048 0.027905941
0001d0 b7 6a 8c 3c 2b c7 13 3c c6 45 91 3d 1f 12 e9 3d
       0.01714073 0.009019653 0.07093386 0.113804094
0001e0 50 36 70 3d c9 ab d5 3c a1 f9 3d 3d 77 a8 27 3d
       0.058645546 0.02608289 0.046380643 0.040932145
0001f0 52 06 b7 3c 3d cc 39 bc 0a fc 40 bc fb 7e f5 bc
       0.022341881 -0.011340198 -0.011778841 -0.029967776
000200 e3 2f 55 bc d8 56 d5 3d a7 c4 85 bd df 68 8b 3d
       -0.013011905 0.10416955 -0.06531649 0.06807112
000210 d6 13 48 3d 4e bb a4 3d 4a 72 83 3d c7 cf df bc
       0.048847042 0.08043538 0.06418283 -0.027320756
000220 34 cc b9 3d b4 22 39 bd 4b c1 a1 3d 84 e8 4c bb
       0.09072152 -0.04519911 0.07898196 -0.003126652
000230 eb e8 51 bb 1d 45 d2 3c 4c f8 d0 3c 9a f2 0c 3d
       -0.00320297 0.025667721 0.025509022 0.03441105
000240 23 97 b6 3c 3a 15 45 3c eb f6 8c 3d 82 12 d5 bb
       0.022288864 0.012028987 0.06883033 -0.0065024504
000250 11 05 80 3c 08 1b bc bc ec 5f 5d 3c a5 ba b2 3d
       0.015627416 -0.022962108 0.013511639 0.08727006
000260 19 e9 41 3d ba 6b 43 bc 24 94 2b ba 3a 9d a2 bd
       0.04734144 -0.0119275395 -0.0006545207 -0.07940145
000270 27 36 7e 3c 45 04 84 3d 49 8b 7d bd 83 e0 e4 3c
       0.015515841 0.06446127 -0.06190041 0.027939087
000280 4a 31 e0 3d 44 11 7f bc c7 ea 85 bc 2e c2 2e 3d
       0.10946901 -0.015568081 -0.016347302 0.042665653
000290 a6 cf 05 3d 36 2d 15 bc 8c ea 32 3d ed 81 aa 3d
       0.032668732 -0.009105017 0.043680713 0.083255626
0002a0 05 b7 93 bd c9 26 af 3d 4a 93 bb 3d 0a 96 97 3d
       -0.072126426 0.085523196 0.091589525 0.074016646
0002b0 f7 32 9a 3c 22 90 72 bc e1 8f 10 bd 09 c4 71 3c
       0.01882313 -0.014804872 -0.035293464 0.014756211
0002c0 d0 68 8d 3d 05 b5 bf 3b 29 38 c1 3c b0 f5 8f 3b
       0.06904757 0.0058504366 0.02358635 0.004393302
0002d0 12 fe c5 bb db 82 1c 3d eb ac a4 bc cd 29 9b ba
       -0.0060422504 0.03821073 -0.020101985 -0.0011838019
0002e0 55 c3 97 3a b3 b5 66 bd ac 2a 04 bd ad b4 1a 3c
       0.0011578599 -0.056325626 -0.032267258 0.0094424905
0002f0 61 da d0 3d 79 97 6b ba f5 31 df 3a 6b f3 3e 3d
       0.101979025 -0.000898711 0.0017028438 0.04661886
000300 71 d3 41 3c 8e a4 36 bd 31 64 39 3d cc c8 9c bd
       0.011830197 -0.044590525 0.045261566 -0.076554865
000310 60 4c ec 3c 1c 7a 19 3d 80 38 04 bd 7e ac c9 3c
       0.028845012 0.03746997 -0.032280445 0.024618383
000320 cf 09 a5 3d c6 90 7c 3c 6d e1 26 3d d7 a9 86 3d
       0.080585115 0.015415376 0.040742327 0.06575363
000330 cd f9 50 bd 02 99 a6 bc 0f 85 f5 bc 20 2d d3 bc
       -0.05101948 -0.020336632 -0.029970674 -0.025778353
000340 77 4d fa bc aa e3 ef 3d 42 d4 70 bc 8e e0 53 3d
       -0.030554516 0.11713345 -0.014699044 0.051727824
000350 a5 08 79 3d c9 0f ab 3d 28 b7 a6 3d 44 82 73 bd
       0.06079926 0.0835262 0.08140403 -0.059450403
000360 63 ef 96 3d 9e c8 a8 3d 3c 87 8c 3d 26 92 48 3d
       0.07369878 0.0824139 0.068617314 0.048967503
000370 98 42 99 3d a1 ff b9 3c 77 39 85 3c 1b 33 d1 3d
       0.07483405 0.022704901 0.016262753 0.10214826
000380 d3 68 ff bc 02 31 bb 3c ac 95 2c bd c3 a8 e5 bc
       -0.031177914 0.022850517 -0.042134926 -0.028034573
000390 d6 34 45 bd ad f7 53 3d 80 c3 80 3c 53 25 65 3d
       -0.04814609 0.051749874 0.015718222 0.0559438
0003a0 3f c3 6a 3d 06 cd 0b 3d e7 10 4a 3d bd 74 14 3d
       0.057315107 0.034131072 0.049332526 0.036244143
0003b0 da 0e 02 bb cf 6f 63 3d 73 10 33 bd c2 79 37 3d
       -0.0019845278 0.05552655 -0.04371686 0.04479385
0003c0 dc 97 5b 3c ca fc 74 bd d9 b0 84 bb b8 54 71 bd
       0.013402905 -0.05981139 -0.004049402 -0.058918685
0003d0 59 bc be 3d 89 5f e5 3c 5b c4 85 3d 7e 80 69 bc
       0.09313268 0.027999656 0.065315925 -0.014251826
0003e0 b7 9e b0 3d 8c 4e ee 3c 4e 04 23 bd 29 de 07 bd
       0.086240225 0.029090188 -0.039799027 -0.033170853
0003f0 13 1b f5 3c 0f a9 04 bd 23 0a 20 3d 21 97 fb bb
       0.029920137 -0.03238779 0.039072167 -0.007677928

base.mlp.layers.1.0.weight f4 [128, 256]
000000 58 9d 3b bd ed 64 b8 bc c7 9d d5 bd 71 31 35 3d
       -0.04580435 -0.022509063 -0.10430484 0.044236604
000010 ce 54 40 be 9a ae b9 3d 34 b7 8b bd 06 51 04 3d
       -0.1878235 0.09066506 -0.068220526 0.032303832
000020 81 b2 46 3d 23 05 06 3d 84 75 8a 3d ec a6 75 3e
       0.04851008 0.032719743 0.067606956 0.23989457
000030 3c b2 8a bb 1f 7b 36 3e bf cf 12 3d 7d f8 69 3e
       -0.004232673 0.17820404 0.035842653 0.22848697
000040 fc ef 92 3b d8 93 41 be 7f 27 eb 3d a0 5e 55 be
       0.004484175 -0.18904054 0.11482143 -0.20836878
000050 21 dd 34 3c 4f 75 bf 3d 4b 3b 8e bd 0c 09 4f 3e
       0.011039049 0.09348547 -0.06944903 0.20218295
000060 25 ee 86 3d a0 fb 5a bd 3e 13 95 bd 6a 74 de bd
       0.06588391 -0.053462625 -0.07279061 -0.10862048
000070 80 e0 a8 bc 79 38 93 bd 5b 00 38 be fe 1c c1 3c
       -0.020614862 -0.07188506 -0.17968886 0.023573395
000080 25 1d 64 be d6 c4 8d 3d af 0e 0e 3d 33 f5 43 bd
       -0.22276743 0.06922309 0.034681972 -0.047841262
000090 7e 1d d4 bc 73 28 68 3e 55 11 e0 3b dd 01 e2 3b
       -0.02589297 0.2267168 0.0068380036 0.006897195
0000a0 98 53 1f bd d6 26 79 bb 0b d2 f6 bc 3f 16 c1 3c
       -0.03889808 -0.0038017533 -0.030129453 0.023570178
0000b0 95 7c 06 be d4 27 49 be be ec 66 bd ff e8 5e 3d
       -0.13133462 -0.196441 -0.05637812 0.05442142
0000c0 65 84 be bd 20 c8 a0 bd 45 7e ac 3c ff 75 df 3d
       -0.09302596 -0.07850671 0.021056304 0.10911178
0000d0 7c 3d 01 be 42 5b 98 bc 6f 93 fb bc f1 e1 8f be
       -0.1262111 -0.018598203 -0.03070995 -0.28102067
0000e0 3a 4c 55 bd 8d 8e ae bd 52 3d 6e 3d af 23 e7 3d
       -0.05207465 -0.08523283 0.05816395 0.11286103
0000f0 f6 d6 3c 3e 58 c5 94 3d c1 e5 8e 3b 69 22 7d 3d
       0.18441376 0.07264203 0.004360885 0.061800394
000100 34 6f e6 3b 20 b4 dd 3d 5d 96 60 be 35 f2 72 bd
       0.0070322994 0.10825372 -0.21932359 -0.059313018
000110 17 3a 21 bd b5 8a 05 be 3f 89 a0 bd 33 66 d1 ba
       -0.03936204 -0.13041194 -0.078386776 -0.0015975892
000120 ba 8e a5 bd 31 ae 44 bd 9f 8c 57 3e c6 43 31 3e
       -0.080838636 -0.048017684 0.21049736 0.1731101
000130 dc e4 65 3b 6c 66 b9 bc 3e 9b a9 bd d0 4b 07 3e
       0.0035079038 -0.022631846 -0.08281563 0.13212514
000140 d2 45 97 bd ec ed eb bd cd 4f 57 3d 33 45 9a bd
       -0.07386364 -0.11519989 0.05256634 -0.0753273
000150 c2 ec 67 3d 9f 8c a8 3d 19 51 e0 bd 3d d6 38 bd
       0.056622274 0.08229946 -0.10952968 -0.04512619
000160 70 96 9a 3c 48 a6 0d 3e 11 51 99 bd 93 01 ef bc
       0.018870562 0.13832963 -0.07486165 -0.029175555
000170 41 61 5c 3e 49 b1 f2 3c 3d d0 66 bd df 1f 63 3e
       0.21521474 0.029625552 -0.056350935 0.22180127
000180 08 d5 fd bb df fd d7 3d 28 04 9c be 3a f1 b4 3d
       -0.0077463426 0.10546469 -0.3047192 0.08835073
000190 48 e9 3d 3d d6 4a 3c bd 6d ae 13 bd ff 6e f8 3d
       0.046365052 -0.045969807 -0.036055017 0.12130546
0001a0 79 9c a5 be cf 3b 25 be a9 9c 08 bd f8 e7 2f 3e
       -0.32345942 -0.16136096 -0.033352528 0.17178333
0001b0 44 3b 3f bd 6f 87 cc 3d d0 b8 97 bd 58 9b b2 bd
       -0.04668738 0.099867694 -0.07408297 -0.08721036
0001c0 29 d4 e9 3c 41 ac f9 3c 83 9d 08 3e 20 d3 c8 3d
       0.028543549 0.030477645 0.13341336 0.09805894
0001d0 dd a0 85 bc d5 87 95 3d 1a f5 e2 bd f2 0f 27 3e
       -0.016312057 0.073012985 -0.11081906 0.16314676
0001e0 e7 45 74 3d e0 5d 58 3e 4e 3d 95 bd 5a 69 e6 3d
       0.059636977 0.2112956 -0.072870836 0.11250563
0001f0 40 1c 02 3e 31 38 b2 3c ce 48 0a be 60 6b 4d 3c
       0.12706089 0.02175531 -0.13504335 0.012537807
000200 58 b0 98 3a 8a f6 38 3e ed d9 34 bd 39 f3 52 3e
       0.0011649234 0.18062797 -0.044153143 0.20600595
000210 81 c7 e7 3d 33 09 4c 3d 22 e4 16 bc 6a 2e d3 bc
       0.11317349 0.04981346 -0.009209665 -0.025778968
000220 4c eb 90 3c 86 96 df 3c 2d 70 40 bd c5 62 af bb
       0.017690323 0.027293455 -0.04698198 -0.0053523504
000230 03 73 59 bd 21 cd 6e bb 52 73 22 3e 6b 65 a8 3d
       -0.0530882 -0.0036438184 0.15864304 0.08222469
000240 4a f2 69 3e c5 51 97 3d d8 6d 51 3d 81 67 09 3e
       0.22846332 0.07388643 0.051130146 0.1341839
000250 e4 73 3e 3e 9b 93 d8 bc c3 4f 84 3d e8 7f 6c 3d
       0.18598896 -0.026437571 0.06460526 0.05773917
000260 89 bf b3 3d b0 2a 05 be 6a 61 2a 3d 29 9e 85 3d
       0.08776767 -0.13004565 0.041596808 0.06524307
000270 12 43 39 bc 2e a5 c6 bd 2f ae 58 bc 98 90 95 3d
       -0.011307495 -0.09699474 -0.013225122 0.0730297
000280 9e 00 95 3d 66 2f 1d be e1 05 44 bd 2e 99 fd 3d
       0.07275508 -0.15350112 -0.04785717 0.12382732
000290 a9 b9 5a be 0b f1 83 bd d3 cf 41 3d 6b fd 2a 3e
       -0.21359886 -0.0644246 0.047317337 0.16698234
0002a0 c0 f2 77 3d 6a 7d 43 3c b1 11 89 3e 32 57 45 3e
       0.06053424 0.0119317565 0.2677131 0.19271544
0002b0 1d ad a5 bd 58 ae 9b 3c 45 1e 23 3d a1 6f 72 3d
       -0.08089659 0.019004032 0.03982379 0.05918849
0002c0 a0 5f 5d 3e 90 29 45 be b6 05 7a 3c d1 c7 9b bc
       0.2161851 -0.19254136 0.015260151 -0.019016178
0002d0 08 01 65 be 0d 06 9d 3c ea 7f f6 bc 0e 35 1c bd
       -0.22363675 0.019167924 -0.030090291 -0.038136534
0002e0 40 49 79 3d c5 36 01 be d8 c2 77 bd b0 4f 38 be
       0.060860872 -0.12618549 -0.06048855 -0.17999148
0002f0 69 25 05 3c 75 c6 6e ba 42 29 85 3c 1b 21 89 bc
       0.008126595 -0.0009108552 0.016255025 -0.016739419
000300 fc 6d b5 3d b3 23 bf bd b5 10 7b be 8d fc b1 bd
       0.088588685 -0.09332981 -0.24518092 -0.08690748
000310 c4 c8 22 3d d5 94 fe 3b 42 99 cc bd c7 c5 e8 3d
       0.039742246 0.007769207 -0.09990169 0.11365848
000320 a3 8b 27 be f2 0c b0 3d 4c 55 d6 bd 9c 22 f3 3d
       -0.16361861 0.08596219 -0.10465488 0.118718356
000330 94 7b 0d bd 5f ae 96 3d ec 19 da bb 80 c6 0b be
       -0.03454168 0.073574774 -0.006655922 -0.1364994
000340 eb 4b 6e bd 0a de bb bd 43 7d c6 bd b2 33 a8 3c
       -0.05817787 -0.0917321 -0.096918605 0.020532463
000350 d6 c2 89 bd 04 56 54 bc 62 db d1 bd c0 1a de bd
       -0.06726615 -0.012959961 -0.10246922 -0.10844946
000360 aa f2 d6 3c d7 52 9e 3d c9 72 93 3d a4 af 42 bc
       0.026238758 0.07730644 0.07199628 -0.011882696
000370 4e c4 75 3e 49 6a 1b 3e a5 81 44 3e bc 07 a3 3d
       0.24000666 0.15177263 0.1919008 0.079604596
000380 7b d7 c0 bc 5a 64 09 3e 14 b3 f5 bd 04 f1 02 be
       -0.02354025 0.13417187 -0.11997047 -0.12787253
000390 5e 5a a0 3d 65 0d 5e bd 86 70 e0 bd f5 3d 21 3d
       0.07829736 -0.054211993 -0.10958962 0.039365727
0003a0 aa 85 99 bd 89 5a 8c 3c 5a f6 a2 3d 62 d8 9c 3b
       -0.074961975 0.017133014 0.07957144 0.004786537
0003b0 89 8f ce 3d ca 21 00 3e 7f 4c 91 bd a9 43 1b be
       0.10085971 0.1251289 -0.070946686 -0.15162529
0003c0 d9 0f 9c bd 06 0a 6b be 84 05 bf bd 56 df 3d 3e
       -0.0762021 -0.22953042 -0.09327224 0.18542227
0003d0 cd fc cc bc fa 36 b9 3d b9 b5 b7 3c c6 3a 49 bc
       -0.025022889 0.09043689 0.02242552 -0.012282079
0003e0 d9 b7 5f bc 6c d7 a6 3b ac b1 fa bd e0 a1 35 bd
       -0.013654673 0.0050915983 -0.122409195 -0.04434383
0003f0 94 8c 71 3d 43 27 63 3d 7e 85 63 bc e6 d3 a4 3d
       0.058971956 0.055457365 -0.0138868075 0.08048229

base.mlp.layers.1.0.bias f4 [128]
000000 68 00 8c 3d d7 94 fa bd 91 c7 e7 bd ba 60 83 bc
       0.06836015 -0.1223542 -0.11317361 -0.016037334
000010 88 06 3c be 87 ea 8c 3d ab ce 8f bd fd 51 13 bb
       -0.18361866 0.0688067 -0.07021841 -0.0022479289
000020 fa da 28 bd 49 4c f7 bc b0 0c 26 be df ef 55 3c
       -0.041224457 -0.030187743 -0.16215777 0.013057678
000030 15 57 1e 3d 29 f7 d4 3d da 3b 9a bd 56 69 80 3a
       0.038657267 0.103987046 -0.07530947 0.0009797018
000040 12 5b 91 3d 20 80 10 3d 8b fd a9 bd e6 cf ef bc
       0.070974484 0.03527844 -0.083003126 -0.029273938
000050 ae 83 6a bd 59 d6 d7 bd 66 13 8b 3c 5d 6b 2e be
       -0.057254486 -0.105389304 0.016977023 -0.17033143
000060 4b cb cc bd b8 0a 6f bd 87 1d 44 be 47 f4 b7 bc
       -0.099997126 -0.05835983 -0.19151889 -0.022455348
000070 a2 31 f2 bd fa bc c0 bd 03 97 3a 3d cd c8 41 be
       -0.11825873 -0.094110444 0.045554172 -0.18924256
000080 70 58 f0 bd d8 30 7c bd be 8e 32 be 3a 5d 31 bd
       -0.11735618 -0.06157002 -0.17437264 -0.0433018
000090 e1 48 13 bd aa 70 15 be 03 d9 bc bc 51 06 bb bd
       -0.035958175 -0.14593759 -0.023052698 -0.09132064
0000a0 49 f6 0e bc 94 39 97 bd 2d 2c e4 bc 1f 30 e1 3b
       -0.008725711 -0.07384029 -0.027853096 0.0068721916
0000b0 e6 ce 1c be 4a d1 13 bc 6d 22 26 3a b5 a4 b4 ba
       -0.153133 -0.009022066 0.00063375273 -0.0013781997
0000c0 a4 bf 5b bb 5e de 28 be 03 1a c0 bd d7 a5 1f bc
       -0.0033530975 -0.16491076 -0.09379961 -0.009744129
0000d0 0b 90 6d bd de b8 12 be be a0 b5 bd 31 50 42 3d
       -0.0579987 -0.14328334 -0.0886855 0.047439758
0000e0 64 c3 b3 bc 6a e7 39 bd a0 2f 25 bd 23 18 07 bd
       -0.021943755 -0.04538671 -0.040328622 -0.032982003
0000f0 82 a5 94 3d e0 e8 7a bc fb 14 b7 bd 89 4a 7c bc
       0.072581306 -0.015314311 -0.089395486 -0.01539863
000100 16 4e ba bd 7f 7d 09 3e 1f 1f 48 bc e2 b0 e4 3c
       -0.09096925 0.13426779 -0.012214451 0.027916376
000110 ff 91 33 be dd c5 19 bd d2 bd 04 be 78 73 59 3d
       -0.17536162 -0.037542213 -0.12963036 0.053088635
000120 1f 5e e0 bd 13 d0 60 3a 66 c1 5c bc 9b 5f 8c bd
       -0.10955452 0.00085759273 -0.013473844 -0.06854173
000130 6a 61 68 3d e0 70 4e bd 36 5c 96 3d d5 09 b4 bc
       0.056733526 -0.050400615 0.073418066 -0.021977345
000140 e7 06 38 be ba 13 9a bd 2c 2f 7b 3c d0 dc d3 3c
       -0.17971383 -0.07523294 0.015331071 0.025862128
000150 29 05 34 3d 21 f6 79 bd cb a5 3b bd e5 ab 84 bd
       0.043950234 -0.061025742 -0.04581241 -0.06478099
000160 f7 8a 96 bd 30 42 f1 bd 54 fa 20 bd 55 da 02 bd
       -0.07350724 -0.117802024 -0.03930123 -0.0319465
000170 51 e4 18 be ae ee 1c be fc 10 4e be bb ef b9 bd
       -0.14930846 -0.15325424 -0.20123667 -0.09078928
000180 2f e9 97 bd 30 a2 af 3d 95 f9 7f bd 83 3c e0 bd
       -0.07417523 0.08575857 -0.06249388 -0.10949042
000190 3b e7 43 bc 35 15 12 be 2b 74 da bd 51 16 82 bd
       -0.011956985 -0.14265902 -0.106666885 -0.06351913
0001a0 51 3e ba bd 8f 24 5b bd 4a 47 8d bc 3d dc 9c bd
       -0.09093917 -0.053501662 -0.017245907 -0.076591946
0001b0 d3 16 02 bd e8 ce 1d bd 52 d0 c5 bc 8f fd c6 bc
       -0.031760048 -0.0385274 -0.024147186 -0.024290828
0001c0 ad 89 8b bc 15 ce eb bd 0d 98 13 be 77 50 d4 3d
       -0.017033422 -0.115139164 -0.14413472 0.1036691
0001d0 2a d9 1a be 58 07 53 3d d4 be ea bc 75 11 7a bd
       -0.15121904 0.051520675 -0.028655447 -0.061051805
0001e0 a4 bb 06 be 29 1e 0e bd e3 62 1d 3d f8 6c 3c be
       -0.13157517 -0.03469673 0.038424384 -0.18400943
0001f0 7a 0c 82 bd df fa 41 bc 27 8e 0a 3d d8 9a 98 bd
       -0.06350036 -0.0118395975 0.033826973 -0.07451409

base.mlp.layers.1.2.weight f4 [128]
000000 d9 5e 83 3f 0e 35 78 3f bb bf 85 3f 1e f4 8b 3f
       1.026332 0.96955955 1.0449136 1.0933874
000010 2d fc 88 3f 2c db 78 3f 0c 4b 85 3f 86 e7 73 3f
       1.0701958 0.9720943 1.0413527 0.9527515
000020 bc 0e 82 3f e3 5d 71 3f cb 64 85 3f f7 f8 7c 3f
       1.0160747 0.94283885 1.0421385 0.9881739
000030 1c 08 6e 3f e4 e8 80 3f 3a bf 83 3f fc d2 84 3f
       0.92981124 1.0071073 1.0292733 1.0376887
000040 bc 94 76 3f 76 73 87 3f 3d 2d 84 3f 2e 9f 6c 3f
       0.963207 1.0582111 1.0326306 0.9243039
000050 4c d7 81 3f 0d 21 78 3f 0a f9 81 3f 2b 38 85 3f
       1.0143828 0.9692543 1.0154126 1.0407766
000060 91 b4 83 3f ef 1e 8b 3f ed 26 88 3f f8 b6 7a 3f
       1.028948 1.0868815 1.0636879 0.9793544
000070 79 2c 91 3f c3 9f 7c 3f 3c 43 71 3f ad bb 80 3f
       1.1341697 0.9868128 0.94243217 1.0057274
000080 45 21 86 3f c8 9e 73 3f 6c 72 8b 3f 33 fd 87 3f
       1.0478903 0.95164156 1.0894294 1.0624145
000090 39 35 73 3f 9c 73 85 3f 7a 03 65 3f f3 e6 7f 3f
       0.95003086 1.0425906 0.8945843 0.99961776
0000a0 8e d1 76 3f 67 5a 86 3f 2c 42 82 3f 70 f8 70 3f
       0.96413505 1.0496339 1.0176444 0.94129086
0000b0 32 e4 85 3f 8b bf 79 3f 6f c6 7e 3f 3e 1d 75 3f
       1.0460265 0.97557896 0.99521536 0.95747745
0000c0 53 f7 60 3f e9 72 8e 3f 39 54 75 3f 7a 1e 7a 3f
       0.87877387 1.1128818 0.9583164 0.97702754
0000d0 ae 99 76 3f c6 83 7b 3f c7 41 91 3f a4 6d 7b 3f
       0.96328247 0.98247945 1.1348199 0.98214173
0000e0 7d 7e 70 3f 78 3e 77 3f c0 4d 83 3f f6 82 70 3f
       0.93943006 0.96579695 1.0258102 0.9394983
0000f0 5b a0 81 3f 26 f4 65 3f e6 1b 82 3f 3c 78 80 3f
       1.0127062 0.89825666 1.0164764 1.0036693
000100 98 48 84 3f 77 80 81 3f 5a b6 78 3f 5a 3a 86 3f
       1.0334654 1.0117329 0.97153246 1.0486557
000110 46 d6 91 3f 5a 28 87 3f a8 78 83 3f df a2 64 3f
       1.1393516 1.0559189 1.0271196 0.8931102
000120 e3 d1 86 3f ba 24 86 3f 5b 7b 87 3f 9a 6e 87 3f
       1.0532802 1.0479958 1.058452 1.0580628
000130 2a 82 8b 3f 2b 7b 84 3f 85 bb 7a 3f ca 4f 80 3f
       1.0899098 1.0350088 0.9794238 1.002435
000140 c5 f1 7a 3f 05 d4 88 3f 6f 43 70 3f 9a 52 83 3f
       0.9802516 1.0689703 0.93852895 1.0259583
000150 af 2a 78 3f b5 2e 83 3f 83 94 8a 3f 6d 01 72 3f
       0.9694013 1.0248629 1.0826572 0.94533426
000160 95 0d 93 3f 75 4e 81 3f 1c 40 83 3f 8d 83 7e 3f
       1.148852 1.0102068 1.025394 0.9941948
000170 f6 39 80 3f 43 ab 86 3f a7 65 7f 3f 64 56 7b 3f
       1.0017688 1.0521015 0.99764484 0.98178697
000180 e1 ac 82 3f fe e9 71 3f b7 cc 8d 3f 32 97 7d 3f
       1.0209008 0.9449767 1.1078099 0.9905883
000190 db 04 7f 3f 1a fa 8c 3f 0c d0 8c 3f 9a a6 8f 3f
       0.99616784 1.1013825 1.1000991 1.1222718
0001a0 0f e1 87 3f e9 ac 79 3f 15 46 6c 3f 1a 2c 85 3f
       1.0615557 0.97529465 0.92294437 1.0404084
0001b0 ad 4a 7f 3f a0 e8 7a 3f d1 6b 80 3f a9 ca 82 3f
       0.9972332 0.9801121 1.0032903 1.0218097
0001c0 cd dc 50 3f 4f 5c 8a 3f 6f 19 7e 3f cc d0 6c 3f
       0.81586915 1.080942 0.9925756 0.925061
0001d0 8e 10 86 3f 08 eb 82 3f e5 63 77 3f 4c 73 85 3f
       1.0473802 1.0227976 0.966368 1.0425811
0001e0 dd 17 87 3f 6f b2 80 3f 5e 34 8e 3f 11 e7 87 3f
       1.0554157 1.0054454 1.1109731 1.0617391
0001f0 05 e0 84 3f f9 56 86 3f b9 da 6d 3f c7 84 83 3f
       1.0380865 1.0495292 0.9291187 1.0274895

base.mlp.layers.1.2.bias f4 [128]
000000 07 9d c9 3d 5e d1 b3 bb 73 3d 96 bd a2 a9 4a bc
       0.09844404 -0.005487605 -0.07335939 -0.012369545
000010 b5 28 f2 bd 84 ee f1 3d dd a6 55 bd 15 22 96 3d
       -0.118241705 0.11813071 -0.052161086 0.073307194
000020 f1 c5 4b 3d 75 8a 3b 3d 9c f2 b3 bd c4 bb bc 3d
       0.04974932 0.04578634 -0.087865084 0.09215501
000030 98 98 93 3d 7d a9 f8 3d 01 11 95 bc 91 a4 a8 bc
       0.07206839 0.12141702 -0.018196585 -0.020586284
000040 54 1a eb 3d 98 f6 4e 3d 50 30 58 bd 7c 8f d4 39
       0.11479631 0.05052814 -0.05278045 0.00040542695
000050 c8 2b 07 bd a7 aa 0e 3d fa c2 c6 bb 23 b1 50 bd
       -0.033000737 0.034830716 -0.0060657235 -0.05095018
000060 18 07 53 bd 76 6c 8e bc 2e e8 c4 bd 5b ec 9f 3c
       -0.051520437 -0.017385703 -0.09614597 0.019521883
000070 04 ae 17 be 83 37 62 3c 7c 24 b3 3d 89 12 e1 bc
       -0.14812475 0.01380718 0.08747193 -0.027474659
000080 7f dc 9b bd a2 57 58 bd c5 48 df bd e6 47 0a bd
       -0.07610416 -0.05281795 -0.109025516 -0.033759974
000090 eb 77 24 bd 4e 7b 77 bd 18 a8 58 bd 51 bc 42 bc
       -0.040153425 -0.060420327 -0.05289468 -0.011885718
0000a0 a4 82 4a 3c ea 68 3c bd 92 2f fb bb 45 9a 1e 3e
       0.012360249 -0.04599849 -0.007665583 0.15488537
0000b0 aa d7 79 bd 78 c1 56 3d 0d 1b 62 3c b9 f2 6b 3d
       -0.06099669 0.0524306 0.013800395 0.057604525
0000c0 c3 e8 5d 3d 67 9a 0b be eb c4 46 3d 46 6d 9c 3d
       0.054177057 -0.13633119 0.04852764 0.0763803
0000d0 d6 18 0d 3d ca e3 69 bc 73 07 25 be 81 1b a7 3d
       0.034447514 -0.014275501 -0.16116123 0.08159543
0000e0 49 dc d9 b8 75 b5 a0 3d 5b c1 5e bd 77 53 0a bd
       -0.00010388398 0.0784711 -0.054383617 -0.033771005
0000f0 23 34 0a 3e 66 c5 de bc b6 2e 63 bd f4 b3 32 3d
       0.13496451 -0.027193736 -0.05546447 0.043628648
000100 c5 9f 20 bd 8c 85 72 3e 26 9a 31 3c b9 9f 55 39
       -0.039214868 0.23683757 0.0108399745 0.00020372764
000110 13 76 20 be c9 11 89 bd ce 0f d4 bc 04 50 cb 3d
       -0.15670042 -0.066928454 -0.025886443 0.09927371
000120 50 60 79 bd 4a 8c 2d 3d ae 66 04 bd d1 ea 5c bd
       -0.060882866 0.04237012 -0.032324485 -0.053934876
000130 63 19 d1 3c b8 ee 17 bd 4c cd dc 3d 6f 18 ab bc
       0.0255248 -0.037092894 0.10781345 -0.020885674
000140 d6 99 05 3d bb c2 5d bd 53 23 aa 3c e3 12 1d 3e
       0.032617413 -0.054140788 0.020768797 0.15339236
000150 bd 57 b6 3d 44 f6 ac bc 93 4b 83 bd 7b 50 3d 3d
       0.089034535 -0.021113522 -0.06410899 0.04621933
000160 0c 17 f0 bd a9 32 ae bc e8 43 53 3c 12 d1 1a bd
       -0.11723146 -0.021264391 0.012894608 -0.03779704
000170 02 f3 58 bd cf 1a 9b bd 32 e5 e7 bc 65 38 19 3b
       -0.052966125 -0.07573473 -0.028307531 0.002337956
000180 44 42 ae bc 4b bc 02 3e 13 7d f4 bd b1 09 64 3c
       -0.021271832 0.1276714 -0.119379185 0.013918326
000190 25 73 0b 3d 62 e4 ae bd 18 33 f4 bd e5 6d dc bd
       0.034045357 -0.08539654 -0.11923808 -0.10763148
0001a0 a5 e1 a7 bd 63 ec 38 3d f3 c8 ca bc 57 b1 d3 bc
       -0.08197335 0.04514731 -0.024754023 -0.025841398
0001b0 ae cb 2e bd 67 51 a5 3d 68 8e 47 bd 81 ba 4d 3b
       -0.042674713 0.08072167 -0.048719794 0.0031391683
0001c0 6d 47 5b 3d 5e b4 9c bd 0e 0c f5 bb 0b c0 0f 3e
       0.053534914 -0.0765159 -0.0074782437 0.14038102
0001d0 6e 1f 94 bd 87 f0 49 3d 06 73 22 bd 42 88 0f bd
       -0.07232557 0.04930165 -0.039660476 -0.035042055
0001e0 03 45 b5 bd d9 ca 38 bc 51 16 3d 3c 03 44 c4 bd
       -0.088510536 -0.011278831 0.011540965 -0.09583285
0001f0 5b 0d 20 bd e8 d2 0b bc 6d 4a 79 3d 82 69 ea bc
       -0.039075237 -0.008534171 0.060861994 -0.028614763
