models/critic_good256-128-64.pt (torch, 605096 bytes, 13 tensors)

base.mlp.layers.0.0.weight f4 [256, 420]
00000000: 3ac9 32be 346a 60bd ef82 c33d def3 6f3d
00000010: afb9 0b3d 743d efbb daca 123c 8b23 b6bd
00000020: f414 72bd d4ef d33d f5e7 2dbc 81f8 eebd
00000030: 2ed1 963d f699 d93d b7d5 58bd f306 45bd
00000040: 0c3e aabc e139 033e 5a97 5b3e 47df 35be
00000050: cc6d 453d b492 b4ba 9f74 2cbe d2bc f6bd
00000060: a3c1 8fbd 9423 ad3d fe40 8bbd aa00 373c
00000070: 51e6 f63c db7d d83d d163 c23b 357a b83d
00000080: 20ec 2f3d f487 243e 56a9 debc 75b6 c6bd
00000090: 658d 133e 182a afbd c735 8dbd 41bc c0be
000000a0: cd5e 67bd dab3 a53c d280 7d3d b92f 4cbd
000000b0: d031 a03c 3a28 01bc 971c 843e 1f74 663c
000000c0: f38b 94bd aa5e dabb a837 f53d 9cc1 c33d
000000d0: 7898 21be eaf2 4ebe 53df edbc 207b 853d
000000e0: ae69 bb3b 2ac1 ae3c 1609 b4bd 37c4 bfbd
000000f0: 2d85 9bbd 4794 c9bb 531b 863d e62a 0d3e
00000100: 77a9 193e be13 8f3d 7251 21bb c707 323e
00000110: 2c05 99be 4130 3abe ede2 36bd afd3 3fbe
00000120: d75b 1bbd 60d9 113e 5548 70be d72d c63d
00000130: 5d5e a8bd 6f3b ba3d 1550 88bd ed3b 84bd
00000140: 7270 ecbd 1f06 86bd 4cd4 c53d 3cf1 1d3d
00000150: 0f87 433e 640f c73e a3a3 ac3d 579e c1be
00000160: a8be 003d 900c 4abd 11bb 8abd c0a9 be3d
00000170: bd2f 233d 3ab1 37bd 9fda bdbd 245f efbd
00000180: 2ef6 77bb 2db2 0dbe 421f 833c a455 a23c
00000190: af63 053c 3732 8a3d d043 a63c 0a89 92be
000001a0: 6242 9abd 4611 52be 7694 14bd 71ae 53bd
000001b0: 67bd fa3d ab8d ef3d d0c3 e63c 0562 b0bd
000001c0: 9d2f d93c dc5e a2bd 0788 5dbd 5ea5 3d3d
000001d0: c65b d43b 4cf3 74bc f210 afbd 7a29 f33c
000001e0: 3b01 05be 947b 46be 8ba9 36bb 63a6 813d
000001f0: 00c7 ec3b 2dfd 883d 7456 5fb8 124d 36bd
00000200: a0d6 bf3d 3e08 bbbc 009f 9d3d 27c9 4bbd
00000210: ef21 56b9 a5a4 f13c ac11 55bb c75e 61be
00000220: b4b5 88be 79c0 11be f554 0ebc 8e6c 27bd
00000230: 63f0 8e3b 7a36 f5bc a706 a6bd b4ef 913d
00000240: 0fa8 22be 3d5c 5b3d e3f6 71bd 22de e33c
00000250: 0e7d 153d 01db 0cbd a58d 223d 6d33 90be
00000260: 85a1 1c3d b0f9 173d 242b d73d afcd 093a
00000270: 4208 8cbd bbb8 2d3e cee3 21be c9e9 083d
00000280: e019 ca3d 829a 45be 6bb3 12bd daa4 11be
00000290: 29c2 9dbd d236 493e c670 4b3e 6fc6 a13d
000002a0: 00c3 b8bd 23c1 373c ca4c cebd 99d7 f4bd
000002b0: 026c 773b b572 393c d389 5ebd e9eb 12be
000002c0: 25e3 b1bd f40a 543d 7981 3b3e c927 31bb
000002d0: 00e0 b1be d3ad bfbd be73 7fbd 1e9b 033d
000002e0: f88d a6bd 4b51 54be 146a 7b3e a1ed 193e
000002f0: 867a 83be 91f9 88be f8ef 3d3e d46b 90be
00000300: 6a17 c9bd cf4a 12bd 987e 6f3d e69e 0b3e
00000310: ffbf 27bd 2343 27be 0af6 99bd 523f e3bc
00000320: a672 7b3d 7069 093e b1d5 3e3e 92a1 54be
00000330: 4402 63be 937f 313e 3a2c cc3c e1b3 a0be
00000340: 7c01 0e3d a9d4 8fbd de0a 493e 8c20 b1bb
00000350: f2a8 66bd 5bf9 263e 3342 91be 704c dbbc
00000360: 50b4 a13e 9000 663e c8e7 07be 43cd 07bd
00000370: 9529 b23d 3475 e13d 686d ed3d 1583 b5be
00000380: 30b8 a8bd 451c 52bc 36be 643a 8295 94be
00000390: b0f6 b23d ef4b 0dbe d34d 54bd 7450 233d
000003a0: 7150 fabd 845c 67be a00f 6ebe c242 45bc
000003b0: 4e24 d2bd 6095 7d3e 696b b03d 5c28 82be
000003c0: 39b9 c9bc 89b2 2ebe befb b13c aaf9 703e
000003d0: 672e e43d 4551 343e 1dc1 42bd 724f aabc
000003e0: c756 8c3e 4258 573e c056 5f3e 0890 8dbe
000003f0: 6b09 ca3d 71ce 60be d377 ec3c d5aa 0e3e
-0.17459574 -0.054788783 0.09546458 0.05858218 0.03411263 -0.007301027 0.008959496 -0.08893498
-0.059102014 0.10348478 -0.010614385 -0.11668492 0.073641166 0.10625069 -0.05293819 -0.04810233
-0.02078154 0.12815048 0.21444455 -0.17760955 0.048200414 -0.0013776631 -0.16841362 -0.12047733
-0.07019355 0.084540516 -0.06799506 0.011169592 0.03013912 0.1057088 0.005932309 0.09007684
0.042949796 0.16067487 -0.027180355 -0.0970277 0.14409406 -0.085529506 -0.06895023 -0.37643626
-0.056486893 0.020227361 0.06189043 -0.0498502 0.019555002 -0.007883126 0.25803062 0.014065771
-0.07253256 -0.006664117 0.11973506 0.095584124 -0.15780818 -0.20209852 -0.029037153 0.06517625
0.005719385 0.021332342 -0.087907955 -0.09363597 -0.07593761 -0.0061517092 0.065481804 0.13785896
0.15006052 0.069861874 -0.0024615196 0.1738578 -0.29886758 -0.1818247 -0.044650007 -0.18733095
-0.037929382 0.14243078 -0.23465092 0.09676712 -0.08221123 0.09093367 -0.066558994 -0.064567424
-0.11544885 -0.06544136 0.09659633 0.038560137 0.1909449 0.3887893 0.08429649 -0.37816116
0.031431824 -0.049328387 -0.06773961 0.09309721 0.03984045 -0.04484675 -0.09270214 -0.116880685
-0.0037835944 -0.138375 0.016006116 0.019816227 0.008141442 0.06747859 0.020296007 -0.28620178
-0.07532193 -0.20514402 -0.036274396 -0.051680032 0.12243157 0.11696943 0.028169543 -0.08612446
0.026511962 -0.07928249 -0.054084804 0.046300285 0.006480667 -0.014950585 -0.08548154 0.029682864
-0.1298875 -0.19383079 -0.0027872052 0.06330564 0.007225871 0.066889144 -5.324786e-05 -0.044507094
0.09367108 -0.022831079 0.076963425 -0.04975238 -0.00020421272 0.029497454 -0.0032511754 -0.22008811
-0.26701128 -0.14233579 -0.0086872475 -0.04087501 0.0043621524 -0.029933203 -0.081067376 0.07125798
-0.15884422 0.053554762 -0.05907334 0.027815882 0.036496215 -0.034388546 0.039685864 -0.28164235
0.038239975 0.037103355 0.10506275 0.00052567845 -0.068375126 0.16965 -0.15809557 0.03342608
0.098682165 -0.19297221 -0.035815638 -0.14223042 -0.07703049 0.19649819 0.19867238 0.07899176
-0.09021568 0.011215481 -0.1007324 -0.119551845 0.0037753587 0.011318852 -0.05433066 -0.14347805
-0.086859025 0.05176826 0.18311109 -0.002703177 -0.3474121 -0.09359326 -0.06236624 0.032130353
-0.08132547 -0.20734136 0.24552184 0.15032054 -0.25679415 -0.26752904 0.18548572 -0.28207266
-0.09818919 -0.035715874 0.05847034 0.13634834 -0.040954586 -0.16334204 -0.07517631 -0.027740154
0.061388634 0.13419127 0.18636204 -0.20764759 -0.22168833 0.17333822 0.024923433 -0.31387237
0.034669384 -0.070229836 0.19633052 -0.005405491 -0.056313463 0.16306059 -0.28370818 -0.026769847
0.3158288 0.22461152 -0.13272011 -0.033154737 0.086993374 0.11008683 0.11593133 -0.3545157
-0.08238256 -0.012824123 0.00087258534 -0.29020315 0.08738458 -0.13798498 -0.05183203 0.039871648
-0.12222374 -0.22593886 -0.23248148 -0.012039842 -0.10260831 0.24764013 0.08614237 -0.25421417
-0.024624454 -0.17060293 0.021726485 0.2353274 0.11141663 0.17609127 -0.04754745 -0.020789836
0.27409956 0.21029761 0.21810436 -0.2764895 0.098650776 -0.21953751 0.02886573 0.13932355

base.mlp.layers.0.0.bias f4 [256]
00000000: 93f7 2ebc d4a1 0dbc 3e08 0dbd d869 fbbb
00000010: d324 543d 015e 0dbd 21c9 f23c 5ff9 aebc
00000020: 503d 82bc 385a a03c 70e3 b3bc b6dd 04bd
00000030: 2ad8 f13b 03b2 7ebc c3df b23c 85bb a2bc
00000040: 004d 27bd ff0a f0bc 5a05 f8bc b120 03bc
00000050: a240 c4bd 1d89 03bd f424 61bc 0223 16bd
00000060: 2a82 4c3b 12d1 0d3d 6842 9cbd 0ad9 923c
00000070: b2f4 50bd 0eb2 ec3c 2148 703d fff2 853c
00000080: ee70 7fbb adcf a4bc b8e9 2639 bd93 173c
00000090: 949a 8f3c f5ca 583d d7a8 473c 1dd3 ccbc
000000a0: b2ad 47bd 5dbf 773d bda2 de3c e042 fbbc
000000b0: 9a0e 4bbd d61a e5bb 5345 cfbc 1c9f 293c
000000c0: 41d2 bdbc 55b6 ac3c 01b5 5cbd 6bdf a3bb
000000d0: cd48 053d b67a 56bb 0055 673c d66a cf3c
000000e0: 74fd 473d 1bc4 cebc cad6 143c 5f5f 453c
000000f0: 3a40 c23c 4b4f 55bb 4ea0 58bb 5589 a23c
00000100: ac7d 65bd 0a51 bdbc ae01 1cbb 2cee 2c3b
00000110: 7177 3d3d 7f2d 663c 2f02 193c 23cc 33bd
00000120: d355 633c 19d4 cabc cd3c 47bd 90fe 003d
00000130: c723 b0bc 9cdc c63c 5322 91bc 7f69 cd3c
00000140: cb5b 0bbd f4e6 703d d72a 1c3d 5eb5 1ebd
00000150: d05a a7bc c24f 31bd 1437 3e3b dd5e 1f3d
00000160: 9b0a a8bd e23b 77bc 577a a7bc e1c3 77bd
00000170: 348a 153d ead2 03bd 242b b9bc 5136 b13b
00000180: 6115 2a3d 5278 f4bc 1e00 39bc 28f5 febc
00000190: ea59 96bc 5571 1ebc f0ec 603c 3d6b 983c
000001a0: 1ddd 45bd af76 36bd 7582 4d3d 4c64 81bc
000001b0: bd1a b93c bb4d f2bb 3efd fbbc aaef 87bb
000001c0: e720 96bc 9e46 5bbd c830 aa3b 78ee 2dbb
000001d0: b462 30bd 34cf 9d3a e58f a53b d396 073d
000001e0: 7a4d 0ebb 1c6e babc 8bf8 debc baa6 11bd
000001f0: a83e c0bd e849 c9bc 83f5 0b3d 7647 9fbd
00000200: e6d8 393d c315 dc3c 7448 0f3d b1ac bdbc
00000210: 596c c9bc 66b1 dfba 2d45 773d f8aa e33c
00000220: d875 1aba 60e7 57bc 94dd 89bd df69 dc3c
00000230: 7543 363c 8372 86bd 7e97 c2bc ea30 6abd
00000240: 5776 a7bd 48ff b73c 7b8d 103d 8614 5dbd
00000250: ba84 2b3d 67f9 d2bc 925d 81bc 3e06 b3bc
00000260: c260 553c c9f3 023d b789 39bd 4618 acbd
00000270: 03dc cfbc f276 12bb 2367 bdbb 7313 c3bc
00000280: eabc 85bc 8820 2cbc b088 263d 7876 853d
00000290: 2da1 fd3c 6e56 4cbd c242 ac3c cc95 cf3c
000002a0: e6fb 84bd 4eeb e0bc b1ed 883c bfd5 003c
000002b0: aa3e 443c b2dc bfbd 9524 48bd 0fb0 52bc
000002c0: 862d 273d 6ec2 1fbd 27a4 833d d9d4 aa3b
000002d0: a39e 1d3c 6944 37bd 50d5 eebc ca1c 3abc
000002e0: 9f1b 99bd f7ea 6abd a8c4 d43b d61f 51bd
000002f0: d61c 49bc de72 40ba 1e15 1c3d 6599 1bbd
00000300: 594c fcbc 44ff 073c 0ead 80bb fa9b a4bb
00000310: 16d9 133c cbff 1abc 0a81 123c 1331 253c
00000320: 15c2 5d3d 88fd b7bc 300c 0bbd 2c9a 703c
00000330: 1988 773c f14d 30bc 2d31 09bd 74a1 27bd
00000340: 0dba e2bc 6cb6 1f3c b152 8aba 8563 27bc
00000350: 6fa1 ef39 eefa 58bd d77b 843c 0862 423a
00000360: a650 973c 2964 683b 581d 81bc e6dc 5a3d
00000370: c447 60bd 6e63 57bc 44a3 babc 9f9b 0ebd
00000380: 2aa0 95bc 204c d83c 7a0b a83c abc9 b4bb
00000390: 8627 17bd 07ae ddbc 17ad 683c e48f 1bbd
000003a0: 79a0 273d 81e9 08bc fc0b 2bbd 0015 86bc
000003b0: 28bd 363d a440 bcbb 04e1 3fbd d5c9 843c
000003c0: 237f 92bc 7243 d6bc 458c 883d 2bb8 58bd
000003d0: b594 86bc 8185 80bd b5d1 8a3b 8f30 193d
000003e0: 060b 71ba 7dc1 cc3c 7015 113d 8498 edbc
000003f0: 7169 6bbc da9a fabb c9e7 f5bc faf8 283c
-0.0106791435 -0.00864454 -0.03443169 -0.0076725297 0.05179293 -0.034513477 0.029636921 -0.021359144
-0.015898377 0.01957427 -0.021959037 -0.032438003 0.007380505 -0.015545371 0.021835214 -0.019864807
-0.040844917 -0.029302118 -0.03027599 -0.0080034 -0.0958264 -0.032113183 -0.0137417205 -0.03665448
0.0031205514 0.034623213 -0.076298535 0.017925758 -0.05101461 0.028893497 0.058662537 0.016351221
-0.0038977223 -0.020118559 0.0001591806 0.009251532 0.017529763 0.05292793 0.012186251 -0.02500301
-0.048749633 0.060485233 0.027177209 -0.030671537 -0.049574472 -0.0069917245 -0.025301611 0.010352876
-0.023171546 0.021083036 -0.053883556 -0.0050009987 0.03254013 -0.003272695 0.014119387 0.025319498
0.048825696 -0.025239995 0.009084413 0.012046664 0.023712266 -0.0032548483 -0.0033054533 0.019840876
-0.056028053 -0.023109931 -0.0023804712 0.0026387079 0.046256486 0.014048933 0.0093388995 -0.04389585
0.013875443 -0.02475934 -0.04864197 0.03149277 -0.021501435 0.024275117 -0.017716562 0.025074719
-0.034023087 0.058814004 0.038126793 -0.038747184 -0.020429045 -0.043288954 0.0029024528 0.038908828
-0.08205148 -0.015089961 -0.020444078 -0.06048954 0.036508754 -0.032183565 -0.022603579 0.0054080863
0.041524295 -0.02984253 -0.011291532 -0.031122759 -0.018353421 -0.009670575 0.013728365 0.018605823
-0.048306573 -0.04454678 0.05017324 -0.015794896 0.022595758 -0.00739452 -0.030760404 -0.004148443
-0.018326236 -0.053534143 0.0051938035 -0.0026539844 -0.04306288 0.0012039901 0.005052554 0.03310282
-0.002171366 -0.022757582 -0.027218124 -0.035559393 -0.09386951 -0.024571374 0.034169685 -0.07777302
0.045372866 0.026865846 0.034981206 -0.023153635 -0.024587797 -0.0017066419 0.060368706 0.027791485
-0.0005892194 -0.013177723 -0.06731716 0.026905952 0.011124481 -0.0656481 -0.023753878 -0.057175554
-0.081768684 0.022460595 0.035291176 -0.05397465 0.041874625 -0.02575369 -0.015791688 -0.021853562
0.013023557 0.031970773 -0.04529735 -0.08403067 -0.025373464 -0.002234873 -0.005780117 -0.023812985
-0.016325433 -0.010505803 0.0406577 0.06516737 0.030960644 -0.049887113 0.021027926 0.025339983
-0.06493358 -0.027455952 0.016714903 0.007863461 0.011977831 -0.09368266 -0.048863012 -0.012859358
0.0408149 -0.039003782 0.06427794 0.0052133617 0.0096203415 -0.044742975 -0.02915445 -0.011359403
-0.074759714 -0.057352986 0.00649317 -0.05105575 -0.012274941 -0.00073413353 0.038106076 -0.037988085
-0.030798124 0.008300606 -0.0039268797 -0.0050234767 0.009023925 -0.0094604 0.008941898 0.010082501
0.05414017 -0.02245976 -0.03394717 0.014685195 0.015108132 -0.01076077 -0.033494163 -0.040925458
-0.027676607 0.009748083 -0.0010553208 -0.010216598 0.0004570591 -0.05297368 0.016172333 0.00074151205
0.018471073 0.003546009 -0.015761063 0.05343332 -0.05475594 -0.0131462645 -0.02278293 -0.03481638
-0.018264849 0.026403487 0.020513285 -0.0055172048 -0.036902927 -0.027060522 0.014201424 -0.03797902
0.040924523 -0.008356453 -0.041759476 -0.016367435 0.044613987 -0.0057450105 -0.04684545 0.016209522
-0.01788289 -0.026155207 0.06667379 -0.05291001 -0.01642833 -0.06275464 0.004236425 0.037399825
-0.0009195063 0.024994606 0.035420835 -0.02900339 -0.014368401 -0.0076478543 -0.03001775 0.010313267

base.mlp.layers.0.2.weight f4 [256]
00000000: 20ed 803f eaf2 8b3f 7f0a 853f 94cd 843f
00000010: d269 803f 2c8d 883f 11ed 833f 8a40 803f
00000020: a64a 893f 4ca5 8f3f 31e5 813f a5c0 763f
00000030: fa3f 9b3f 29dc 8c3f dedb 883f 9eb8 813f
00000040: dbc6 893f 1a22 5c3f b95f 833f 3af3 8e3f
00000050: 382f 7c3f f737 823f cda7 753f 7475 503f
00000060: a109 7e3f fc02 853f b6b9 823f 8b54 803f
00000070: c037 753f 2a8d 8a3f 9430 893f 7760 7b3f
00000080: daf0 893f cb04 8c3f 8e6f 733f 0363 843f
00000090: 00e3 973f de02 833f f820 8c3f 3a09 843f
000000a0: fec0 8d3f 08e1 883f e034 843f 314c 873f
000000b0: 2c7a 7d3f b4b6 793f b9a8 823f fd11 853f
000000c0: 17d8 7b3f 4bd1 7f3f edac 823f f98c 7f3f
000000d0: ea54 993f c56e 873f 4456 833f 76af 8a3f
000000e0: 4a72 863f a7e3 8b3f 00fa 883f 627c 823f
000000f0: 4cbb 843f b1e3 7e3f 471c 813f b436 7e3f
00000100: 1ff8 833f 0e0a 7e3f 1404 7a3f bc50 823f
00000110: ab19 883f 108e 923f 6e20 843f bedb 6c3f
00000120: b3dc 8b3f 0075 863f 4afa 833f 168b 873f
00000130: 1796 883f 07ae 903f f33c 873f 887a 6b3f
00000140: 958b 813f 8cdb 823f 75c8 883f db51 833f
00000150: 081f 843f 282c 8c3f 85d2 843f 724c 923f
00000160: 3a12 7d3f cf8c 863f 440e 863f fa6f 8b3f
00000170: ec72 873f eece 803f 115c 853f 51f0 8b3f
00000180: f486 813f 9272 863f a8f6 913f 54d9 8f3f
00000190: bb39 943f 6d5d 883f 14e3 853f f6b0 733f
000001a0: d2b3 8b3f dcf1 6d3f b7c5 843f 0649 7e3f
000001b0: e04a 6e3f e131 8f3f 2891 773f cca8 823f
000001c0: e577 763f 277a 893f 1f55 7e3f 7f4c 8a3f
000001d0: 3abf 873f 21ae 863f fa0a 623f ac57 953f
000001e0: da10 863f c3b1 853f 263a 903f 8449 873f
000001f0: 7721 883f e36f 943f bcd4 813f a2ed 793f
00000200: b1e6 7d3f 7400 853f 59ce 7a3f 11e1 8d3f
00000210: 9ae8 803f 0931 823f 01eb 913f a384 983f
00000220: fc6c 7f3f 40d2 843f fee8 843f 682a 8d3f
00000230: 7302 743f a4ec 8e3f 3ece 8c3f 81e8 783f
00000240: 2808 813f b3c6 863f 7ccb 803f b305 843f
00000250: ea12 7b3f 83a1 8c3f 01e2 813f fac3 7e3f
00000260: 57c6 873f f92b 8b3f 5a55 813f 20ac 8f3f
00000270: 0f46 8c3f f9b4 7d3f 2496 853f 12b5 8f3f
00000280: 2e75 7b3f 35e7 863f 5c7c 883f 1121 8b3f
00000290: 9e59 803f be9b 813f 2242 823f 7c93 983f
000002a0: 89a2 8f3f 7b14 853f 0a6d 8f3f c054 843f
000002b0: 4af6 833f a08f 6b3f 7005 703f 8865 883f
000002c0: f183 813f 5457 863f ed3b 853f 0ab6 873f
000002d0: ca88 8c3f 2eef 8c3f 805c 5a3f f3c8 843f
000002e0: 5b07 763f 1fff 633f d56a 883f d18b 8d3f
000002f0: ff32 7f3f efa1 853f a9c8 853f e003 853f
00000300: 071a 913f 0e5c 773f 4a41 853f 7b1f 803f
00000310: 4032 873f b52c 773f 5f19 6e3f 5e33 893f
00000320: a957 8c3f 3704 833f fd97 8d3f d289 823f
00000330: 1f41 953f b83a 883f f832 883f fbbb 923f
00000340: 7afb 8f3f b8bb 823f d097 903f 1984 773f
00000350: a57e 823f 9d95 7f3f 52de 863f c372 803f
00000360: c97f 853f 8f78 7d3f 6f8d 803f 5948 843f
00000370: ed36 833f 420b 8a3f ad3e 863f 8b13 843f
00000380: 3ab6 913f 13ef 663f cbeb 7d3f de7e 853f
00000390: 32eb 7d3f ee8b 7a3f 7da1 823f 8009 803f
000003a0: 2820 7f3f 5bfc 7d3f a3e4 863f 5a1e 8b3f
000003b0: cff3 6f3f 939f 883f e846 873f 3e0f 893f
000003c0: 3599 793f b8e1 853f 8091 7f3f b98e 803f
000003d0: 1437 893f 840a 833f b243 9d3f 0cc3 8c3f
000003e0: 76d5 823f ad86 893f c643 983f fbbe 8c3f
000003f0: 3ec9 933f 31e1 7b3f 248b 933f 0110 933f
1.0072365 1.0933506 1.0393828 1.0375237 1.0032294 1.0668082 1.0306722 1.0019696
1.0725906 1.122232 1.0148069 0.963877 1.2128899 1.1004688 1.0692098 1.0134466
1.0763811 0.85989535 1.0263587 1.1167977 0.9850955 1.0173329 0.9595917 0.8142922
0.9923344 1.0391536 1.0212924 1.00258 0.9578819 1.082433 1.071795 0.9819407
1.0776627 1.0938963 0.95092094 1.0342716 1.186615 1.023525 1.0947561 1.0315316
1.1074522 1.0693674 1.0328636 1.0570127 0.99014544 0.9754441 1.020774 1.0396115
0.983766 0.9992873 1.0209023 0.9982448 1.1979039 1.0580679 1.0260701 1.0834796
1.0503628 1.0928849 1.0701294 1.0194209 1.0369658 0.9956618 1.0086755 0.9930222
1.0310096 0.9923409 0.9766247 1.0180888 1.0632833 1.1449604 1.0322397 0.925228
1.0926727 1.0504456 1.0310757 1.0589321 1.0670804 1.1303109 1.0565475 0.9198384
1.0120722 1.022325 1.0686175 1.0259355 1.032197 1.0950975 1.0376745 1.1429579
0.98855937 1.0511721 1.0473104 1.0893548 1.0581946 1.006315 1.0418721 1.0932714
1.011931 1.0503714 1.1403399 1.1238198 1.1580118 1.0653511 1.0459924 0.95191896
1.0914252 0.92947173 1.0372838 0.99330175 0.93083 1.1187097 0.96705866 1.0207763
0.96276695 1.0740403 0.99348634 1.0804595 1.0605233 1.052189 0.88298 1.166738
1.0473893 1.0444874 1.1267745 1.056931 1.0635213 1.1596645 1.0143046 0.97628224
0.9918013 1.0390763 0.9797111 1.108431 1.0070984 1.0171214 1.1399843 1.1915478
0.9977567 1.0376663 1.0383604 1.1028566 0.9531624 1.1165967 1.100044 0.9722977
1.0080614 1.0529388 1.0062099 1.0314239 0.98075736 1.098679 1.0147096 0.99517787
1.0607404 1.0872794 1.0104172 1.1224403 1.095888 0.9910427 1.0436444 1.1227133
0.98225677 1.0539309 1.0662951 1.0869466 1.0027349 1.0125654 1.0176432 1.1920009
1.1221477 1.0396875 1.1205151 1.0338364 1.0309536 0.9201603 0.93758297 1.0655985
1.011839 1.04954 1.0408913 1.0602429 1.0979245 1.1010492 0.85297394 1.0373825
0.96104974 0.8906116 1.0657603 1.1058294 0.9968719 1.0440043 1.0451862 1.0391808
1.1336068 0.9662484 1.041055 1.0009607 1.056221 0.9655259 0.93007463 1.0718801
1.0964252 1.0235661 1.1062008 1.019831 1.1660498 1.064292 1.0640554 1.1463617
1.124862 1.0213537 1.129633 0.9668594 1.0194899 0.99837667 1.0536597 1.0035022
1.0429622 0.9901208 1.0043162 1.0334579 1.0251137 1.0784686 1.0487877 1.0318464
1.1383736 0.9020855 0.99187917 1.0429342 0.99187005 0.97869766 1.0205532 1.0002899
0.9965844 0.9921319 1.0538524 1.0868638 0.937314 1.0673698 1.0568514 1.0707777
0.974994 1.0459509 0.9983139 1.0043555 1.0719934 1.0237584 1.2286284 1.0997024
1.0221393 1.0744225 1.1895683 1.0995783 1.1545789 0.9839049 1.1526837 1.1489259

base.mlp.layers.0.2.bias f4 [256]
00000000: 4c24 76bc b278 623d fee6 053c 92c9 183c
00000010: 9f4b b33b 2025 133d 2bcb 2d3c 652a 063c
00000020: 0e97 583c 1b0c 4a3c 5895 7c3d 77af a83c
00000030: 7531 0cbd f592 3b3d 8e7a 523d 7891 f33b
00000040: 96a3 b73c 4c35 423e 8f67 513b f3b2 153d
00000050: de4a acbb fb0b 423c b8c6 053d 5515 8a3d
00000060: dcfd 573d 9986 17bd 6662 d13c 6a28 3ebd
00000070: c186 abbc 1c28 7b3c 453e e23c bbba 7f3d
00000080: 0cbb 623d 54cd 063c aa8c 9e3d 82d2 803c
00000090: f258 a53a 051f 753c 468c 0c3c deb0 4b3c
000000a0: ba4a 813d c8bf 1fbc 0618 3d3b 4f83 0f3c
000000b0: 5b0c 103d e346 ac3c db26 5cbc 941f 8b3c
000000c0: 0065 403d daac 253d 066a 843d 2723 873c
000000d0: dacf 30bb af97 ed3b 04dd 0f3d ab6b a73b
000000e0: e7b4 8e3c c0fa 2d3d e96e 803d 9870 13bd
000000f0: b9b2 163d 668d 873c ab7e 093d 321c a33c
00000100: e399 b93c efb2 21bc a4ae c13c 488b 7abc
00000110: cadd 94ba 10cf 3f3d fe07 973c 80cf 983d
00000120: f67a f83b edad f7bb e326 823d 23f6 933a
00000130: ad0c 733c 38a8 5fbc 0519 f5bc d3da 923d
00000140: b998 94bc 5ae5 b23c 61ed d03c b31c c63c
00000150: 2f1b 693d b26f 223d 2249 0d3d d27c c53b
00000160: 3e4a 9b3b 9227 bb3b 3682 a83c 28d6 193d
00000170: f27f 12bb 0388 3b3c e5ae 9a3d 4d23 683d
00000180: 4596 003d 01b0 ba3b f60b 6abc a260 8c3c
00000190: 1079 523d f45f a33c dd98 0b3d 2458 8f3d
000001a0: 7937 7abc 8604 f33b 572b 61bb 0037 753d
000001b0: 5299 103d 426d c83c 7693 88bb aff6 0e3c
000001c0: ccd5 d63c d067 0f3c 0f15 2f3d 56fd 243d
000001d0: 9318 263d fd71 e33c 4602 453d e4d4 833c
000001e0: 4ff9 403c 645a a93d 86cb 303d 986a ab3a
000001f0: b179 5cbc 19eb e4bc 51ef 343d 6bfc 5e3d
00000200: a058 0e3d 85eb 973d 2af1 283d ab00 ff39
00000210: ae3d 093d 219b ce3c 47ab b0bb a5d7 d43c
00000220: d7b7 073d 35d7 0cbd 85c6 693d 0843 37bd
00000230: 2a39 803d 5c79 36bd f631 00bd eb2c 763c
00000240: e066 813d 96b6 d73b beb7 053d 0e65 253d
00000250: afb6 2a3d b245 bbbc b3b8 443a 4d9a 82bc
00000260: 864d b33b 9057 833d ce58 ee3c ac4d f7bb
00000270: f2bf 2c3b 0864 a73c 2d85 13bc f377 133c
00000280: 8ccb a83c 59c9 66bc 3eef a33d 6591 583c
00000290: fd6f 773d 2ada 96bc 4531 75bc 51bb c7bc
000002a0: 50dd 18bd 9b50 1ebc 5a18 99bd e4ef 043d
000002b0: 1410 833d bb9c 943c 3013 853d 2781 be3c
000002c0: e2ad 6e3d ccec 0d3d 0247 31bc 8163 bbbb
000002d0: a44a 073d 8885 1bbc f191 633d 103a ee3c
000002e0: 2541 c83b 326f d43c a393 723a cce1 993c
000002f0: c0b4 d13c 7a38 643d 0789 c53c 3521 913c
00000300: 5cc2 6abc c794 913d ef8e 003d fb2c 2e3d
00000310: 8337 703d 58d0 723d d42d 773d 3cc0 c73b
00000320: 964e 02bd 278e 843c a492 123d 9874 573c
00000330: 9a04 213d 8ac6 5b3c e1b8 9739 da8c 043d
00000340: b3cc 44bc 1979 b63d 872d d83d 0db5 813d
00000350: 84f5 123d f264 66bc cc3b 313d 57aa e6ba
00000360: fd30 7b3b 34ca 803d e71c 143d 5fe4 563d
00000370: 3d88 8a3c 1caf 8a3c 18c3 033d 9492 963c
00000380: 91d9 c3bc fbd2 7a3d 1529 043d ff05 393d
00000390: 7947 433d 2bc4 363d 723e ba3d 66a4 b7bb
000003a0: b696 a23d 66f1 0b3b 6679 75bc 5994 373d
000003b0: 6d46 023d c3f4 543c d822 123c badd 463c
000003c0: ecfd aa3c c670 84bb 04ee 0a3d 2774 003d
000003d0: 076c 17bb 8701 003d c934 c4bd 3b69 a03c
000003e0: 1158 473c 1d4e 553d 406a b2bc f914 503d
000003f0: 044d b33c c06c 113d d22b 4fbc c572 2b3d
-0.015023302 0.055290885 0.008172749 0.009325402 0.005471661 0.035924077 0.010607521 0.008188819
0.013219608 0.012331988 0.061665863 0.02059148 -0.034226853 0.045794446 0.05138641 0.0074331127
0.022416871 0.18965644 0.0031952595 0.036547612 -0.0052579483 0.011843677 0.032660216 0.0674235
0.052732334 -0.036993597 0.025559615 -0.04642526 -0.02093828 0.015329387 0.027617583 0.06243394
0.055354163 0.008227665 0.07741673 0.015725378 0.0012615009 0.014961009 0.008578366 0.012432305
0.06313081 -0.009750314 0.002885343 0.008759334 0.035168033 0.021029895 -0.013436998 0.016982831
0.04697132 0.040448047 0.06465535 0.016496254 -0.0026979358 0.007250748 0.035122886 0.0051092706
0.017420245 0.042475462 0.062711544 -0.03599605 0.036791537 0.016546916 0.033568066 0.019910906
0.022656387 -0.009869321 0.023642845 -0.015291996 -0.0011357602 0.04682833 0.018436428 0.074614525
0.0075830175 -0.0075585754 0.06355073 0.0011288564 0.014834565 -0.013650946 -0.029919157 0.07170644
-0.01813923 0.021837879 0.025503816 0.024183607 0.05691069 0.039657302 0.034493573 0.0060268426
0.004739075 0.0057115043 0.020569902 0.03755775 -0.0022354093 0.011446002 0.0755289 0.05667429
0.03139331 0.005697251 -0.014285078 0.017135922 0.051384985 0.019943215 0.03408133 0.06999233
-0.015272015 0.0074163107 -0.0034358108 0.059866905 0.035302468 0.02446616 -0.0041679693 0.008725806
0.026224993 0.008752778 0.042744692 0.040280662 0.04055078 0.027764315 0.04809787 0.016092725
0.01177819 0.08269194 0.043162845 0.0013078032 -0.013456748 -0.027944135 0.044173542 0.054439943
0.034752488 0.07417969 0.041245617 0.00048637888 0.033506088 0.025220456 -0.0053915116 0.025981734
0.033134308 -0.034384925 0.05707409 -0.04474166 0.06260903 -0.04454933 -0.031297646 0.015025358
0.0631845 0.0065830452 0.032645933 0.040379576 0.041678127 -0.022860382 0.0007504329 -0.015942717
0.005471888 0.064131856 0.02909508 -0.007547101 0.0026359526 0.02043344 -0.00900392 0.009000766
0.020604871 -0.014086091 0.08004616 0.0132182585 0.060409535 -0.018414576 -0.01496536 -0.024381312
-0.037320435 -0.0096627725 -0.07475348 0.03245534 0.06399551 0.018141141 0.064978 0.023254944
0.058271296 0.034649655 -0.010820152 -0.005718649 0.033030167 -0.009492286 0.055559102 0.02908042
0.0061112815 0.025931928 0.0009253567 0.018784426 0.025598884 0.055717923 0.024113191 0.01771603
-0.014328565 0.07108455 0.031386312 0.042523365 0.05864669 0.059280723 0.06034644 0.006095914
-0.031813227 0.016181065 0.03578438 0.013150357 0.03931103 0.013414035 0.0002893871 0.03236089
-0.012011695 0.08909816 0.10555559 0.06333361 0.035878673 -0.014062153 0.043269917 -0.0017598373
0.003832876 0.06288567 0.036160376 0.052463885 0.016910667 0.016929202 0.032168478 0.01838044
-0.023907455 0.061236363 0.03226574 0.045171734 0.047675584 0.044620674 0.09093942 -0.0056043146
0.07938902 0.0021353601 -0.014982557 0.04481921 0.031805445 0.012997809 0.00891944 0.012137825
0.020873033 -0.004041764 0.033918396 0.03136077 -0.002310516 0.031251457 -0.095803805 0.019581428
0.012166993 0.052076448 -0.02177918 0.05080125 0.02188731 0.035504103 -0.012644725 0.0418575

base.mlp.layers.1.0.weight f4 [128, 256]
00000000: 3283 9a3d 33c4 f9bd b7b3 8ebd 9d28 ac3d
00000010: 9fca b93b 8adc ba3d 471c c8bd 8455 103e
00000020: a97f 0fbd e413 cb3c 6f15 973d 51dc aabd
00000030: eb30 91be 6a72 ccbc e2dc 4d3d b83e 603e
00000040: c326 113e f0ad 4bbd c7ff 83bd a2ea d2bd
00000050: 4150 4b3d bd7c 8dbd 898e 1cbc 5d4b 373e
00000060: f4b1 6cbe 4159 403e fa20 473d 9ad1 67bd
00000070: 1a18 49be 6e50 be3c 70e2 08be 52e6 5abd
00000080: 86fc b2bd 04a1 8abc 1d88 0d3e 09b4 523e
00000090: 00f2 08be 353f 92bd 9c52 093e f32c b1bd
000000a0: 8652 96bd bd70 313d 52e5 86be 2256 16bb
000000b0: d8fc 893d 3a9c b03b d6c4 cf3d 97c7 073e
000000c0: 43f6 393c 14b6 013e f67e 603d 7181 0d3b
000000d0: 708c 443b 7228 393d ad37 fa3d b949 27bd
000000e0: 1d13 a0bb 4be5 353e 7dd6 afbc 5dc2 8abd
000000f0: 7c3f 2cbd dd85 9bbd 6ad0 1c3d e3d1 c83d
00000100: c443 4bbe de83 303d 7315 debd fd69 2bbe
00000110: 0066 89be c6e6 26be d283 b1bd cfa5 c7bd
00000120: db72 703e 0f24 993d 5111 d8bd 30b9 babc
00000130: fdc1 8ebd 421a 5e38 36a6 73bd 2933 f9bd
00000140: bb12 2e3e 5778 b8bd 12ae 35bd ab00 ccbd
00000150: 933d 843d 5702 7ebe 02c7 ad3c 70f9 883e
00000160: 7f3f e43d 3abb 033e 4d3b a83d eca8 5dbe
00000170: 528a 163b e4d8 09be ee51 8ebd 2d96 c7bd
00000180: 38dd c0bc 5a57 25bc fea7 14be fb9f 33be
00000190: e04e 25be 4ebc 333e 24fb 7fbd d0fc 2fbe
000001a0: fd93 8b3e 5a72 883e 2523 653e e965 983d
000001b0: ca1b 6bbd 5684 143d 9b42 673d 1c69 353e
000001c0: 5249 7b3e 71b9 5dbc 405b 7abc ae51 693c
000001d0: 3c93 6dbe 542e df3c 4299 843d 1e08 2fbe
000001e0: 0ac8 563d e7a6 27be 79b9 b3bd ebef 3bbd
000001f0: 1e48 2fbd 666d 1f3d fbc2 443d ed22 333d
00000200: 219c c6bc 1288 123c 9c24 313b aee0 83bd
00000210: 5fd8 ae3e db50 a23d be71 ba3a eb6c a1bd
00000220: c2ef 0d3d 72ee 1abe cb0e 4a3d 97c3 873a
00000230: 0dad cfbd 9e5f 8a3b f234 84bd 9e4b a9bd
00000240: 1fb8 45bd 71a1 5dbd 9c72 34be ccfb 033e
00000250: 2355 c6bd 2a2a d93d 5864 943d 613a 433e
00000260: fb0a 7e3d 2ce5 60bc 4e0f a7bd e6a7 72bd
00000270: 669f b5bc 7797 06be b789 da3d 51ca 8c3d
00000280: ea7e 15bd 7d33 c53c e1ee 143c 3a05 353d
00000290: f21d 4b3d 7e89 003e 0e30 49be a32e 183e
000002a0: 93e9 a6bc 29b7 313e 303f 05be 8fd7 ad3c
000002b0: 97a3 c1bd 6903 733d c8b9 0f3e 62d8 793c
000002c0: 1891 24be 31b2 1b3e ea5f 973e a18f 91bd
000002d0: 4998 403d 93ea 133d be19 28be ec32 f5bc
000002e0: 88df cabd ce98 5fbe 9331 4bbc d944 32bd
000002f0: ce48 e93d e091 48bd aba9 ed3d 8732 debd
00000300: 47e2 abbd cd7f 21bc 362c 61bd 1a03 313c
00000310: ed8f 2fbe 15f8 13be bc9f e7bd 6763 223d
00000320: 73a6 573e 29f5 743c b230 7e3c 69ea bfbc
00000330: 4b5b 2fbd e282 283d 634f 1f3b 3194 a7bd
00000340: e273 81bd 93c4 d2bc 6fbe 1c3e 7339 c83c
00000350: 2bae 67be 3c17 e43d 2e8e d3bb 50a9 8cbc
00000360: a6be a1bd aea0 c83d 62ea bdbd eb1d b53d
00000370: 8e34 913d 91d3 09be 5c11 bf3c 44a6 953c
00000380: 4aa0 fe3d 38ef 9dbd e9b8 db3d 0be6 6dbb
00000390: aba7 ebbd b11a 90bd cd29 03bd e556 32be
000003a0: 4c27 0ebe a405 8e3e 43b0 bf3d e4d0 063c
000003b0: a405 0a3d b519 2a3e 42e4 bf3e afc4 8dbe
000003c0: fb2e 853e 5d52 993d cc10 a63b 8724 5dbe
000003d0: 0e7f 6a3e 199e de3d 9926 fbbd b5a5 ae3d
000003e0: 17c8 a33d e7bd 1bbe 4195 bbbd 22ce 09be
000003f0: 57db 303d e9a9 8f3e 24a7 883c 0e74 0a3b
0.07544555 -0.12195625 -0.06967872 0.08406184 0.0056699063 0.09124096 -0.097710185 0.14095122
-0.035033856 0.024789758 0.07377135 -0.08342803 -0.28357634 -0.0249569 0.05025948 0.21898925
0.14174943 -0.049726427 -0.0644527 -0.10298659 0.049637083 -0.069085576 -0.009555467 0.17899843
-0.23114759 0.18784048 0.048615433 -0.056596376 -0.196381 0.023231711 -0.13367629 -0.053442307
-0.08739571 -0.016922481 0.13821454 0.2057649 -0.13373566 -0.07140962 0.13410419 -0.086511515
-0.07339959 0.043320406 -0.26346833 -0.0022939523 0.06737679 0.0053897174 0.10144965 0.13259731
0.011350217 0.12667114 0.05480858 0.0021592046 0.0029990934 0.045204587 0.122176506 -0.04084179
-0.004885091 0.1776325 -0.02146458 -0.06775353 -0.04205273 -0.07593892 0.038284697 0.09805658
-0.1985007 0.04309451 -0.10843935 -0.1673965 -0.26835632 -0.1629897 -0.08667721 -0.09748422
0.23481314 0.07477581 -0.10550178 -0.022793382 -0.06970594 5.295338e-05 -0.059484683 -0.12167961
0.16999333 -0.09007328 -0.04435546 -0.09961065 0.06457057 -0.2480558 0.021213058 0.26752806
0.111449234 0.1286439 0.08214436 -0.2164647 0.002297063 -0.13461643 -0.069492206 -0.09745441
-0.023542985 -0.010091627 -0.14517209 -0.17541496 -0.1614337 0.17552301 -0.062495366 -0.17186284
0.27261344 0.26649743 0.22376688 0.07441313 -0.05739955 0.036259018 0.056460004 0.17715877
0.24539688 -0.013532982 -0.015280545 0.014240665 -0.23200697 0.02724377 0.06474544 -0.1709294
0.052436866 -0.16372262 -0.087756105 -0.0458831 -0.042793386 0.03892269 0.04803751 0.04373448
-0.02424437 0.0089435745 0.0027029878 -0.064393386 0.34149453 0.07925578 0.0014224572 -0.078821026
0.03465248 -0.15130022 0.049330514 0.0010357973 -0.10140429 0.0042228242 -0.06455411 -0.08266376
-0.048271295 -0.05410904 -0.17621845 0.12889022 -0.09684207 0.10603745 0.072457016 0.19065239
0.06202219 -0.013726514 -0.08157216 -0.05924215 -0.022170734 -0.13143717 0.10670798 0.06874526
-0.036497988 0.024072403 0.009090156 0.044194438 0.049589105 0.12552449 -0.19647238 0.1486154
-0.020375049 0.17355026 -0.13012385 0.02122095 -0.094550304 0.059329424 0.14035714 0.015249344
-0.16070974 0.15204693 0.29565364 -0.07107473 0.04702023 0.03611238 -0.1641607 -0.029931508
-0.099059165 -0.21835634 -0.012401956 -0.04352269 0.113908395 -0.048967242 0.11604627 -0.10849481
-0.08392768 -0.00985713 -0.054973803 0.010803962 -0.17144747 -0.14450105 -0.11309764 0.03964558
0.21059589 0.014951029 0.01551454 -0.023427205 -0.042811673 0.041140445 0.0024308793 -0.08182562
-0.06320931 -0.0257285 0.1530702 0.024441456 -0.22625034 0.11137244 -0.006456158 -0.017170578
-0.078976914 0.09796272 -0.092732206 0.08843597 0.07090102 -0.13459612 0.023323707 0.018267758
0.124329165 -0.07711643 0.10728628 -0.0036300446 -0.115065895 -0.07036341 -0.032022286 -0.1741596
-0.13882178 0.27738678 0.09359791 0.008228514 0.033696786 0.16611369 0.37478834 -0.2768912
0.26012406 0.07486413 0.0050679203 -0.21595965 0.2290003 0.108699985 -0.12263221 0.085277
0.079971485 -0.15209161 -0.09159327 -0.1345754 0.04317793 0.2805932 0.016681261 0.0021126303

base.mlp.layers.1.0.bias f4 [128]
00000000: 2c4a b4bc 5d6c b83c 0896 afbd fe74 fbbc
00000010: 165f 3f3d 02f2 533a 3c1e 45bd e1ca db3c
00000020: 7673 ffbd 862c 7c3c 644f cebd 43e3 36bc
00000030: 592b 36be 7929 13bd 21dd ecbb 4b23 35bd
00000040: 3689 8cbc 609a 1abe 9dc2 41be aa40 af3d
00000050: fbb0 1dbe 2321 6e3c 5519 90bd 1c63 8dbd
00000060: 1d42 58bc 2e06 c4bd 608c 69bd d974 20bb
00000070: b9cf 81be 3c30 01be 13d3 063d 0e13 2fbe
00000080: b947 4abd 7179 3d3d bd4b 27bc a016 43be
00000090: 864a 66bd 8fac 523d 0d95 bbbd babb 22bd
000000a0: 1f4e 26be 40d5 153d 33b3 3b3d bc4d fcbd
000000b0: 6e54 14be b833 4ebd 2c8f 9cbd 2fc6 9dbc
000000c0: 3175 67bd 5fdd 39bd c7e9 3bbe be7f ff3a
000000d0: 51c8 2fbe 1d6d af3c 03e6 47bd faab c1bd
000000e0: 1b0d 03bc 1ca5 dabd 33ea c43d 4f3d 39be
000000f0: 7da2 fbbc 7fc7 48bd c410 24be 48df bcbd
00000100: 4794 a7bc bf3c 96bc 3908 903c fe56 b73c
00000110: 481c 1ebd ea76 20be 4290 85bd f6db 85bd
00000120: 8002 a8bd 5a97 b2bd 1fb4 54be 99b5 07bd
00000130: 9d5e 52be 688b 99bc 42e8 94bd 3fe9 cebd
00000140: 6db9 e3bd ef94 61bd ab7c 13bc c646 d0bd
00000150: 051c fbbc a0ac e7bd 3814 37be 4e50 94bd
00000160: 0dba 5bbb 852c 05be b458 c2bc 5184 0fbe
00000170: 947b 91bc edb4 01be b021 b7bd 694c 623c
00000180: 6668 253d ad15 073d ec7f dbbd f90b 35bc
00000190: 8de2 263c 29d0 07be ea48 0bbe 8b57 8bbd
000001a0: 8852 83bd 8339 d33c d525 a1bd 1903 6ebe
000001b0: e23a bdbd bc92 3ebe fe07 d7bd f67d 21bd
000001c0: 573e 0cbe d359 dbbc 9539 92bb d3de 7abc
000001d0: f3ad 11be f1be cd3b cf0f a7bd 457c 943d
000001e0: 6f84 edbb a4cd 283b b6a6 02be 5692 903d
000001f0: 5ff0 04be 1102 e9bb 38d5 abbd 3f4a 62bd
-0.022008024 0.02251261 -0.08573538 -0.030695435 0.04672154 0.0008085073 -0.048124537 0.026830139
-0.12473194 0.015391475 -0.10073736 -0.011162582 -0.17789973 -0.035928223 -0.007228509 -0.04422311
-0.017155271 -0.15097952 -0.18921895 0.085572556 -0.15399544 0.014534268 -0.07036082 -0.06903669
-0.013199356 -0.09571491 -0.057018638 -0.002448371 -0.25353792 -0.12616056 0.03291614 -0.17097113
-0.049384806 0.046258394 -0.0102109285 -0.190516 -0.056223415 0.051434096 -0.091592886 -0.03972981
-0.16240738 0.036580324 0.045825195 -0.12319514 -0.14485332 -0.05034229 -0.07644495 -0.01925954
-0.056508247 -0.04537713 -0.18350898 0.0019493026 -0.17166258 0.021414334 -0.04880334 -0.0945663
-0.00799873 -0.10676023 0.096149825 -0.18089794 -0.030717129 -0.04901838 -0.1602202 -0.09222275
-0.020456446 -0.018339513 0.017582046 0.022380348 -0.03860119 -0.15670362 -0.065216556 -0.06536095
-0.08203602 -0.08720274 -0.20771836 -0.03313217 -0.20543905 -0.018743232 -0.07270862 -0.10103082
-0.111193515 -0.055073675 -0.009001891 -0.10169749 -0.03065301 -0.113122225 -0.17878807 -0.072418794
-0.0033527643 -0.13005264 -0.023723938 -0.14015318 -0.017759122 -0.12666674 -0.08941972 0.013812163
0.040382765 0.032979656 -0.107177585 -0.011050218 0.01018585 -0.13263 -0.13602033 -0.06803807
-0.06412226 0.02578426 -0.07868544 -0.23243369 -0.09239747 -0.18610662 -0.10499571 -0.039426766
-0.13695656 -0.02677623 -0.0044624307 -0.0153119145 -0.14226513 0.0062788655 -0.08157312 0.07250265
-0.0072484533 0.0025757337 -0.12758908 0.07059161 -0.1298232 -0.007110842 -0.083902776 -0.055246588

base.mlp.layers.1.2.weight f4 [128]
00000000: ad8b 7c3f 4ab8 643f 0a8e 833f a3c0 893f
00000010: 3343 713f 37c2 573f 74da 763f aba0 5f3f
00000020: 6340 933f 247e 813f 1a24 8e3f 1573 6b3f
00000030: 97e0 7c3f cc88 713f a845 823f 7d45 873f
00000040: 9630 853f f472 873f 3360 7d3f 7b80 863f
00000050: 7987 6d3f f7ce 863f 57ea 6a3f 2005 8d3f
00000060: e562 6e3f 5ec4 8e3f ca21 733f 9fce 7d3f
00000070: a8f3 833f 1656 8d3f 3498 633f ec12 8e3f
00000080: 04fd 873f 3c5f 873f 3048 613f f04a 8b3f
00000090: e571 7b3f 2e66 713f 97f5 873f f67a 823f
000000a0: 923d 903f 72be 763f a240 723f e22f 843f
000000b0: 96e4 893f 087c 7a3f f819 7c3f 7aea 5a3f
000000c0: a276 893f 5297 833f 20ca 8f3f e8ab 6d3f
000000d0: 7453 8e3f 5cce 783f 47c3 883f 4197 823f
000000e0: 8679 763f cee9 883f a763 813f 008a 983f
000000f0: 2156 673f 3c67 7f3f 89c0 8e3f 8e26 933f
00000100: 9ce8 813f 1bb8 753f df47 773f 3410 723f
00000110: 94b0 803f 2b79 8f3f dfe8 893f 4319 7d3f
00000120: b0bd 803f 7f69 8c3f 0340 8b3f d846 713f
00000130: b3ce 813f 8971 5c3f c981 813f ea77 853f
00000140: 9b3d 843f eec1 753f cd90 6c3f e17e 8c3f
00000150: e944 663f 8e39 7d3f 11dd 8d3f 5de6 793f
00000160: 8aaf 5f3f 1d9b 8a3f 3082 723f 16f6 893f
00000170: e892 4b3f 5b75 883f 0575 853f abcd 6a3f
00000180: 13f7 693f 727d 753f a608 903f e20f 5f3f
00000190: 3e84 7c3f 11e7 853f d8be 8c3f ffd7 733f
000001a0: 3345 883f 478c 6d3f b18d 733f 8c84 8a3f
000001b0: be26 8b3f 4c45 9a3f 67cf 863f d442 773f
000001c0: 2795 8e3f 51cb 673f 43bc 6d3f 8fbb 7d3f
000001d0: 6a6a 893f 05d4 623f 9a14 6f3f ed6c 723f
000001e0: dcf4 633f b1bd 8c3f 3d0e 833f 63f1 7a3f
000001f0: 9372 923f 5615 6b3f ba84 833f cc2a 743f
0.9865063 0.893437 1.0277722 1.0761913 0.9424316 0.84280723 0.96427083 0.87354535
1.1504024 1.011662 1.1104767 0.91972476 0.98780197 0.9434936 1.0177507 1.0568081
1.0405452 1.0581956 0.98974913 1.0507959 0.9278484 1.0531911 0.91763824 1.1017189
0.9311965 1.1153677 0.94973433 0.99143404 1.0308733 1.1041896 0.8890412 1.1099524
1.0624089 1.0575938 0.88000774 1.0882244 0.98220664 0.9429654 1.0621823 1.0193775
1.126879 0.96384346 0.9462987 1.0327113 1.0772884 0.97845507 0.98477125 0.8551403
1.0739329 1.0280554 1.1233559 0.92840433 1.1119218 0.9718988 1.0684594 1.0202409
0.9627918 1.0696352 1.0108536 1.1917114 0.903658 0.997669 1.1152507 1.1496141
1.0149112 0.9598405 0.9659404 0.94555974 1.0053887 1.1208853 1.0774192 0.9886667
1.0057888 1.0969695 1.087891 0.94248724 1.0141205 0.8611074 1.0117732 1.042722
1.03313 0.9599904 0.9240845 1.097622 0.899489 0.98915946 1.1083089 0.9761713
0.87377226 1.0828587 0.947299 1.0778224 0.79521036 1.0660814 1.0426337 0.91720074
0.9139263 0.9589454 1.1252639 0.8713361 0.98639286 1.0461141 1.0995741 0.9525146
1.0646118 0.9279217 0.9513808 1.08217 1.0871198 1.2052398 1.0532044 0.96586347
1.1139268 0.9054461 0.9286539 0.99114317 1.07356 0.88604766 0.9339081 0.9469746
0.890455 1.0995389 1.023872 0.98024577 1.1441215 0.9182943 1.027488 0.953778

base.mlp.layers.1.2.bias f4 [128]
00000000: 7fba ac3b 19a7 9d3d 8edd 62bc 54e8 b53c
00000010: 694e e73d 048e 4b3d a4ed 743d 2920 583d
00000020: c0ec 0ebe 3388 883c 3003 e0bd 3715 8a3d
00000030: e450 86bc 86c0 bc3c 4fc2 733c cffe fc3c
00000040: 6c98 9ebb f049 b3bd 9853 11bc d774 0d3e
00000050: 4cc1 ff3c cc08 a33d 056f cd3d 459d 8bbd
00000060: 28a5 ff3a a6e1 acbd 698e 253d 5c4d 9c3d
00000070: 2bec 69bd c226 14be 2381 313d a83a 0ebe
00000080: 7147 82bd 41d7 f73d f9a7 8d3c d7d4 b7bd
00000090: b929 713c c6f5 103e c13c 95bd fac5 67bd
000000a0: 0a82 01be 2e21 463d 45d2 ab3d fff9 4abd
000000b0: e723 68bd 495e 05bc 2b5d 243c a8ff 453d
000000c0: 1e65 6cbd 05d2 aa3c a5fa 06be 8f25 743c
000000d0: 603a e6bd 9c0c b73d 8cf2 b43c 2f9e 943c
000000e0: e93c c43d bcf5 78bd 5759 0e3e 71a2 2ebe
000000f0: 349a a13c b11e d83b fb23 0cbe 0a40 91bd
00000100: aa13 87bc fb32 473d abd4 e63d 9cca 463d
00000110: 0570 96bc c855 46bd f9df dcbd b1ce 4c3d
00000120: 560c a9bd 3020 babd b442 72bd 2997 113c
00000130: c89d 1dbd 76dd 503d f435 f1bc 480a 82bc
00000140: 8fe4 39bd 9e6d 913d 4770 843c 730a aabd
00000150: ca80 923c 2092 dfbc 28ae d8bd c8c9 8f3b
00000160: 8052 3b3d f01e c5bd 51ef 1a3d ca50 8ebd
00000170: 9d40 cf3d fff1 b6bd fdd1 90bd 81af 963d
00000180: cb0b 403e 4e64 1f3d 73e1 bfbd 8ce1 6a3b
00000190: e181 bc3d 2905 67bd 7378 c1bd 8835 06bd
000001a0: 6838 89bd 2a64 f23d 67e2 543d e772 a7bd
000001b0: a4d3 dcbd 509c 3fbe 9815 afbd fde2 193d
000001c0: 4fce dbbd 4a78 b63c d0f1 653d d4d7 fb3d
000001d0: ff2e 42bd 7d13 223c c0cf 813d f648 153e
000001e0: 85c4 fc3b b595 86bc b407 5b3c c12a 953d
000001f0: d749 0abe d35c dc3c 7d29 eabc 7589 1a3a
0.0052712555 0.07697887 -0.013846768 0.02220551 0.112942524 0.049695984 0.059796944 0.052765045
-0.139575 0.016666507 -0.10938108 0.06742328 -0.016395994 0.023041021 0.01487787 0.030883221
-0.0048399474 -0.08754337 -0.008870028 0.13814102 0.0312201 0.07960662 0.10030941 -0.06817106
0.0019504176 -0.084414765 0.040419016 0.07631943 -0.057109993 -0.1446791 0.043336045 -0.13889563
-0.063612826 0.12101603 0.01729201 -0.08976143 0.01471942 0.14156255 -0.072869785 -0.05658529
-0.12647262 0.048371486 0.08389715 -0.04955482 -0.056674864 -0.008140155 0.010031979 0.048339516
-0.05771362 0.020852098 -0.13181551 0.014901533 -0.11241603 0.08937952 0.022088312 0.018141834
0.0958193 -0.060781226 0.13901268 -0.17054154 0.01972685 0.0065954556 -0.136856 -0.070922926
-0.016488869 0.048632603 0.11271032 0.048533067 -0.018363962 -0.04842165 -0.10784907 0.050001804
-0.08254306 -0.090881705 -0.059145644 0.008886137 -0.03848055 0.05099245 -0.029444672 -0.015874043
-0.045383986 0.07100986 0.01616682 -0.08302774 0.017883677 -0.027291358 -0.10580093 0.004388068
0.045732975 -0.096250415 0.037825886 -0.06949003 0.10119746 -0.08932876 -0.07071302 0.073576935
0.18754499 0.038914017 -0.09369173 0.0035840003 0.0920446 -0.056401405 -0.09446802 -0.032765895
-0.06700212 0.11835511 0.051973727 -0.08176213 -0.10782555 -0.18711972 -0.085490406 0.03756999
-0.107327096 0.022274155 0.056138813 0.12297025 -0.0474081 0.009892342 0.06338453 0.14578614
0.0077138566 -0.016428808 0.013368536 0.07283545 -0.1350473 0.02689973 -0.028584236 0.00058951165

base.mlp.layers.2.0.weight f4 [64, 128]
00000000: 1e38 2e3d c4e8 e23c 25f4 603d 708b 0cbe
00000010: ed72 4bbd d265 4a3d 7bc6 5f3c 9894 95bd
00000020: 3acf 213e 9679 1abe dba0 48be 9286 aebd
00000030: 3647 f93b 8f4b 683e 9676 76be dba6 fe3c
00000040: 5ff9 7a3d 6c94 46be c7d1 cebb 90a3 c8bd
00000050: a7e4 45be 6518 66be 18d0 023d 8f01 52be
00000060: 8b49 24bd d25b 003e 1467 643d 5cc2 063e
00000070: 7317 973d db07 98bd 67d7 e43d 6054 87bd
00000080: 2fc5 a4be 4b21 78be b4f0 a8bc 31ea e5bc
00000090: c5a2 463d 7aa4 9ebd 71e7 17be f587 00be
000000a0: 8c3c d0bd 8a20 003e 1367 bb3d e1e0 f83d
000000b0: 5841 093e b83f 4ebe 8f44 233e 7461 dbbd
000000c0: dc31 03be e0ce 33be cf2d afbd b3b4 86be
000000d0: 056c 4e3e 1dab a93d 85b7 3dbd fe46 2ebe
000000e0: b229 e13b 1469 30bd 06ad 373c 2d66 e13d
000000f0: de66 44be 6f61 e53d 1b37 f43d 00e4 333e
00000100: d251 3ebd 2db9 f63c 1c9f 8dbd bee7 423b
00000110: 35ef dd3c 7a5f 693d 6236 1ebe 1e20 033e
00000120: bd29 dd3b cca9 2cbd 7738 173d c40c 3bbe
00000130: b504 33bc d628 81bd 0b56 0fbd 0fd1 69be
00000140: bf5b 9abe 18eb b4bd 7126 fa3c 0621 bb3e
00000150: 16b5 143e 9ee8 5b3c 1e50 4bbd 4cc3 373e
00000160: 7543 c13d dca1 21be 2334 b53d 4a9e f8bd
00000170: 00bc 2fbe bf71 a13d 658c d03d 795f 553e
00000180: 8141 e4bd aa5e fa3d cf39 2cbe 0d96 1d3e
00000190: 8d3d 02be eb34 103e d8c8 05be 2275 5dbd
000001a0: 6c58 14be e737 a9bd a740 83be 6dde 0a3e
000001b0: 4b14 5bbd 0bea abbe ee76 fb3d d202 12be
000001c0: abb1 823d 3152 11be c991 233e e047 41be
000001d0: 9cd6 84be cbb5 af3d 402c d7bd 3739 56bd
000001e0: fc79 64bb d63d 153d 7468 703d 71f9 633d
000001f0: 5905 433d e05a dabb 225d 04be cf2b 2ebe
00000200: 3b74 093e b3df 6b3d 8f5d 69bd dbb1 3fbd
00000210: cc8d 423e b47e 813c 6d0c 6dbe 37ee ebbc
00000220: dc2f 17be f010 acbc d624 22be 83e5 b7bd
00000230: 17cc 9fbe 0d6e aa3d 437a afbd 356f 803e
00000240: 287f e43e 8097 963c b3ef 86be 5903 ea3c
00000250: 6122 bb3d 7c10 ea3d f3d1 cf3d 2277 fc3d
00000260: 1c68 1e3e 025a f8bc 21bc 4a3e d588 bbbd
00000270: 9b81 0dbd ca41 27be dea7 d73d 8701 c5bd
00000280: c171 32be 4d14 a53e 62c5 853b d89b 8f3d
00000290: b260 323d 750e 5a3e 0bbf 05be 5ff5 1abe
000002a0: d02f 73be 7bcd 79bc f942 0e3e da88 20be
000002b0: 3c1f 91bd f04b d03c a29a b9bd ee6d 093e
000002c0: bf41 433e aed4 73be c64c 7cbe 406a 96bc
000002d0: a993 27be b229 4a3e d691 083e 2e41 a5bd
000002e0: 797d a83e 1abe 393d 9443 af3e 51b3 37be
000002f0: 64d1 ef3c bd9c 17be fa00 87be c298 09be
00000300: c998 95bd 5cbf 8bbe f6fb e03d d57d 36be
00000310: 8d2e d7bd d8ad a33d 3898 edbd 39b6 88bd
00000320: 22b1 003e fdab 81be 46fd 91bd 17bd 7c3d
00000330: ae26 a6be 5324 a23d 8603 46be 173f 77bd
00000340: a59c eebd 950c 583e d525 813c c048 79be
00000350: e128 9a3e ddc6 3dbe 9d9e 8dbe cd97 49be
00000360: ec9b 8f3e d3e9 19be 6f9f 813e 0e55 00be
00000370: 8601 03bb 9d27 52bb 0ebc 3cbd 6cbd 3d3e
00000380: 4703 bdbc c5a3 423e 0215 c83b ed59 5ebe
00000390: bef6 563e 6ae9 25be 739a f63a 262e aa3d
000003a0: 6649 1abe dc8a 5abe ebd9 71bb 4d67 dfbd
000003b0: f482 69be 580e 47be d1f8 6cbe 9a67 323e
000003c0: d01b 0cbe 6e24 343d 307b a73d 415f da3d
000003d0: cf33 97be 75d8 a73d b353 f5bd 1089 fa3d
000003e0: cceb 9dbc 7c6c 953e c5e7 74be def6 053d
000003f0: 3c03 abbe 34ef 193e 3c7c 91bc 4a56 a7bd
0.042533986 0.027698882 0.054920334 -0.13725066 -0.04967015 0.04941351 0.013658161 -0.07303733
0.15801707 -0.15085444 -0.19592611 -0.08521761 0.007607366 0.22685073 -0.24068674 0.031085422
0.061272975 -0.19392556 -0.0063116285 -0.09796822 -0.19325505 -0.22470243 0.031936735 -0.20508407
-0.0401092 0.12535027 0.055762365 0.1316008 0.073775195 -0.07423373 0.11173897 -0.0660789
-0.3218169 -0.2423145 -0.020622589 -0.028065773 0.048495073 -0.07746215 -0.14834382 -0.12551863
-0.101677984 0.12512413 0.09150519 0.12152267 0.13403833 -0.20141494 0.15944122 -0.10711947
-0.12811989 -0.17559385 -0.08553659 -0.26309738 0.20158394 0.082845904 -0.046317596 -0.17019269
0.0068714255 -0.04306896 0.011210686 0.110058166 -0.19179866 0.112002246 0.11924573 0.17567444
-0.04646475 0.030117596 -0.06915113 0.002974018 0.027091602 0.05697582 -0.15450433 0.1280522
0.0067493604 -0.04215412 0.036919083 -0.18266588 -0.010926415 -0.06306617 -0.034994166 -0.22833656
-0.30148122 -0.08833903 0.030535908 0.36548632 0.14522204 0.0134221595 -0.049636953 0.17945594
0.094366945 -0.157844 0.08847835 -0.12139566 -0.1716156 0.078830235 0.10183028 0.20837201
-0.111453064 0.12225087 -0.16818927 0.15389271 -0.12718792 0.14082687 -0.13064897 -0.054066785
-0.14486855 -0.08262616 -0.25635263 0.13561411 -0.05348615 -0.33576998 0.122785434 -0.14258888
0.06381544 -0.1419151 0.15973581 -0.18875074 -0.25944984 0.08579596 -0.10506487 -0.052300658
-0.0034862747 0.036435924 0.058693364 0.055657808 0.04761252 -0.006663665 -0.12926152 -0.17008899
0.13423245 0.057586383 -0.05697399 -0.046800476 0.18999404 0.015807487 -0.23149271 -0.028800113
-0.1476435 -0.02100417 -0.15834364 -0.08979323 -0.31210396 0.08321772 -0.085682414 0.25084844
0.44628263 0.018382788 -0.2635475 0.02856605 0.09137417 0.114289254 0.101474665 0.1232741
0.15469402 -0.030316357 0.19798328 -0.09156958 -0.03454743 -0.1633369 0.10530065 -0.09619432
-0.17426206 0.3224205 0.0040823678 0.07012147 0.043549247 0.21294577 -0.13061158 -0.15132664
-0.23748708 -0.015246744 0.13892736 -0.15677205 -0.070860356 0.025426835 -0.09062697 0.13420841
0.19068049 -0.238116 -0.24638662 -0.01836121 -0.16364922 0.19742468 0.13336882 -0.08069073
0.32908228 0.04534731 0.34231246 -0.17939498 0.02927465 -0.14805885 -0.26367933 -0.13437179
-0.07304532 -0.27294433 0.10985558 -0.17821439 -0.10506926 0.079921424 -0.11601299 -0.06675381
0.12567571 -0.2532653 -0.07128386 0.061703768 -0.32451385 0.079170845 -0.19337282 -0.0603629
-0.11650971 0.2109855 0.01576511 -0.24344158 0.30109313 -0.18532892 -0.27660075 -0.19686814
0.28048646 -0.15030603 0.2531695 -0.12532446 -0.0019989922 -0.0032067068 -0.04607778 0.1852929
-0.023072852 0.19007786 0.00610602 -0.21713991 0.20992562 -0.16202322 0.001881434 0.08309583
-0.15067062 -0.21342033 -0.003690357 -0.10908375 -0.22803861 -0.19439065 -0.23141791 0.17422333
-0.13682485 0.043980055 0.08177793 0.106626995 -0.29531714 0.08195583 -0.11978855 0.12233174
-0.019277476 0.2918433 -0.23916538 0.032706134 -0.33400905 0.15032655 -0.017759435 -0.08170755

base.mlp.layers.2.0.bias f4 [64]
00000000: 554b abbc 61d0 e53d 6818 193d 642f 023e
00000010: 2af2 95bd f414 59be 65ad cdbd 7e84 ccbd
00000020: 7c38 21be 5357 e6bd 07aa 793c 2300 20bd
00000030: 6c07 5bbe cd7b 80be cedf 86bd 5788 6bbb
00000040: 346d 86bd 50aa d7bd 2167 6abe 148a 43bb
00000050: c4fd de3d 4a26 603c 4b66 06be d7d8 94bc
00000060: 0107 ae3d 8ed7 223e 5055 24bd 45ac d3bd
00000070: 7da8 1ebd 4965 3ebe 22c5 e3bd fa62 a33d
00000080: fd4c 0cbe 6c1d 05bc c817 133e 3d34 6ebe
00000090: 40dc f9bc cc2f d43d 3d92 033e bef6 803d
000000a0: d6b7 88be 913b 0a3e 954b f73d 5faf 0fbe
000000b0: ce68 d03c 37e1 fe3d 4915 e33c d802 da3d
000000c0: 69a4 a23d 1279 6bbe 513e 54be ba7a 233c
000000d0: a872 b0be 8d69 ea3d 2268 0a3e ccc0 c63d
000000e0: 4c79 fd3d e44e 15be 685c f83d 4bb3 fb3c
000000f0: c04f 2ebc 8871 d13d 7dc0 4d3d 5a32 e7bc
-0.020909945 0.11221386 0.03737679 0.1271339 -0.0732158 -0.21199399 -0.10042838 -0.099862084
-0.15744203 -0.112471245 0.015238292 -0.03906263 -0.2138955 -0.25094453 -0.06585656 -0.003593942
-0.065637976 -0.105305314 -0.22890903 -0.002983694 0.10888246 0.013681004 -0.13124959 -0.018169804
0.0849743 0.1590254 -0.040120423 -0.10335592 -0.0387349 -0.18593325 -0.111215845 0.07977863
-0.13701244 -0.0081246905 0.1436454 -0.23262115 -0.030500531 0.10360679 0.12848754 0.06297062
-0.26702756 0.13499285 0.12074963 -0.14031743 0.0254406 0.124453 0.02772011 0.10645074
0.07941515 -0.22995403 -0.20726897 0.009977991 -0.34462476 0.114459135 0.13516286 0.09704742
0.12376651 -0.14580876 0.12127 0.030725142 -0.010639131 0.102267325 0.0502324 -0.028222252

base.mlp.layers.2.2.weight f4 [64]
00000000: 59d9 2440 9ce2 0c40 e6d3 3140 7b4d 1240
00000010: c4f3 1940 4fa6 1740 6127 1e40 c44b 1740
00000020: 821e 1e40 4295 1840 73c8 3540 f29f 1640
00000030: 7a37 1840 14ec 1640 1b56 2040 369b 2d40
00000040: 6a18 1a40 646f 2140 a336 1b40 d35c 2340
00000050: 3f75 0b40 2668 3540 1887 1740 af3a 2740
00000060: 2e9f 1840 f55a 1140 a8b9 2740 aa3f 1940
00000070: 096b 2340 0baf 1940 b9aa 2040 d1f2 2540
00000080: 7cc2 1940 f2e6 3240 ae79 1540 7a37 1840
00000090: 15ed 2040 7c13 2340 55e0 1e40 a2fa 2740
000000a0: 378b 1940 37a9 1040 d5de 2340 f5df 1940
000000b0: 4ad0 2b40 c513 1340 8784 4140 5904 0a40
000000c0: 7893 2940 33c0 1740 b25e 1940 8ecc 2f40
000000d0: dd64 1640 7640 1640 f810 1440 44ff 1e40
000000e0: a070 1e40 8383 1840 2f55 1340 1a0b 3f40
000000f0: c9fa 2d40 1600 1240 28e3 1940 1228 2240
2.5757658 2.2013311 2.7785583 2.285979 2.4055033 2.3695257 2.4711535 2.3639994
2.470612 2.38411 2.8403594 2.3535123 2.378386 2.358159 2.5052555 2.7125983
2.40774 2.5224237 2.4252098 2.5525405 2.1790311 2.8344817 2.3676205 2.6129568
2.3847156 2.2711766 2.6207066 2.3945107 2.553408 2.4013088 2.51042 2.5929453
2.4024954 2.7953458 2.3355517 2.378386 2.5144703 2.5480642 2.4824421 2.6246724
2.399122 2.260328 2.5604756 2.4042943 2.684588 2.2980816 3.0237138 2.1565154
2.6496258 2.371106 2.3964047 2.74686 2.3499062 2.3476844 2.3135357 2.4843302
2.475624 2.3830268 2.3020742 2.9850526 2.7184317 2.2812552 2.4044895 2.5336957
